…
stepsize: 50000
snapshot: 0
snapshot_prefix: "fpn"
average_loss: 100
iter_size: 2
I0628 15:07:52.984728  8276 solver.cpp:81] Creating training net from train_net file: models/pascal_voc/VGG16/FP_Net_end2end/train.prototxt
I0628 15:07:52.986255  8276 net.cpp:49] Initializing net from parameters: 
name: "VGG_ILSVRC_16_layers"
state {
  phase: TRAIN
}
layer {
  name: "input-data"
  type: "Python"
  top: "data"
  top: "im_info"
  top: "gt_boxes"
  python_param {
    module: "roi_data_layer.layer"
    layer: "RoIDataLayer"
    param_str: "\'num_classes\': 21"
  }
}
layer {
  name: "conv1_1"
  type: "Convolution"
  bottom: "data"
  top: "conv1_1"
  param {
    lr_mult: 0
    decay_mult: 0
  }
  param {
    lr_mult: 0
    decay_mult: 0
  }
  convolution_param {
    num_output: 64
    pad: 1
    kernel_size: 3
  }
}
layer {
  name: "relu1_1"
  type: "ReLU"
  bottom: "conv1_1"
  top: "conv1_1"
}
layer {
  name: "conv1_2"
  type: "Convolution"
  bottom: "conv1_1"
  top: "conv1_2"
  param {
    lr_mult: 0
    decay_mult: 0
  }
  param {
    lr_mult: 0
    decay_mult: 0
  }
  convolution_param {
    num_output: 64
    pad: 1
    kernel_size: 3
  }
}
layer {
  name: "relu1_2"
  type: "ReLU"
  bottom: "conv1_2"
  top: "conv1_2"
}
layer {
  name: "pool1"
  type: "Pooling"
  bottom: "conv1_2"
  top: "pool1"
  pooling_param {
    pool: MAX
    kernel_size: 2
    stride: 2
  }
}
layer {
  name: "conv2_1"
  type: "Convolution"
  bottom: "pool1"
  top: "conv2_1"
  param {
    lr_mult: 0
    decay_mult: 0
  }
  param {
    lr_mult: 0
    decay_mult: 0
  }
  convolution_param {
    num_output: 128
    pad: 1
    kernel_size: 3
  }
}
layer {
  name: "relu2_1"
  type: "ReLU"
  bottom: "conv2_1"
  top: "conv2_1"
}
layer {
  name: "conv2_2"
  type: "Convolution"
  bottom: "conv2_1"
  top: "conv2_2"
  param {
    lr_mult: 0
    decay_mult: 0
  }
  param {
    lr_mult: 0
    decay_mult: 0
  }
  convolution_param {
    num_output: 128
    pad: 1
    kernel_size: 3
  }
}
layer {
  name: "relu2_2"
  type: "ReLU"
  bottom: "conv2_2"
  top: "conv2_2"
}
layer {
  name: "pool2"
  type: "Pooling"
  bottom: "conv2_2"
  top: "pool2"
  pooling_param {
    pool: MAX
    kernel_size: 2
    stride: 2
  }
}
layer {
  name: "conv3_1"
  type: "Convolution"
  bottom: "pool2"
  top: "conv3_1"
  param {
    lr_mult: 1
  }
  param {
    lr_mult: 2
  }
  convolution_param {
    num_output: 256
    pad: 1
    kernel_size: 3
  }
}
layer {
  name: "relu3_1"
  type: "ReLU"
  bottom: "conv3_1"
  top: "conv3_1"
}
layer {
  name: "conv3_2"
  type: "Convolution"
  bottom: "conv3_1"
  top: "conv3_2"
  param {
    lr_mult: 1
  }
  param {
    lr_mult: 2
  }
  convolution_param {
    num_output: 256
    pad: 1
    kernel_size: 3
  }
}
layer {
  name: "relu3_2"
  type: "ReLU"
  bottom: "conv3_2"
  top: "conv3_2"
}
layer {
  name: "conv3_3"
  type: "Convolution"
  bottom: "conv3_2"
  top: "conv3_3"
  param {
    lr_mult: 1
  }
  param {
    lr_mult: 2
  }
  convolution_param {
    num_output: 256
    pad: 1
    kernel_size: 3
  }
}
layer {
  name: "relu3_3"
  type: "ReLU"
  bottom: "conv3_3"
  top: "conv3_3"
}
layer {
  name: "pool3"
  type: "Pooling"
  bottom: "conv3_3"
  top: "pool3"
  pooling_param {
    pool: MAX
    kernel_size: 2
    stride: 2
  }
}
layer {
  name: "conv4_1"
  type: "Convolution"
  bottom: "pool3"
  top: "conv4_1"
  param {
    lr_mult: 1
  }
  param {
    lr_mult: 2
  }
  convolution_param {
    num_output: 512
    pad: 1
    kernel_size: 3
  }
}
layer {
  name: "relu4_1"
  type: "ReLU"
  bottom: "conv4_1"
  top: "conv4_1"
}
layer {
  name: "conv4_2"
  type: "Convolution"
  bottom: "conv4_1"
  top: "conv4_2"
  param {
    lr_mult: 1
  }
  param {
    lr_mult: 2
  }
  convolution_param {
    num_output: 512
    pad: 1
    kernel_size: 3
  }
}
layer {
  name: "relu4_2"
  type: "ReLU"
  bottom: "conv4_2"
  top: "conv4_2"
}
layer {
  name: "conv4_3"
  type: "Convolution"
  bottom: "conv4_2"
  top: "conv4_3"
  param {
    lr_mult: 1
  }
  param {
    lr_mult: 2
  }
  convolution_param {
    num_output: 512
    pad: 1
    kernel_size: 3
  }
}
layer {
  name: "relu4_3"
  type: "ReLU"
  bottom: "conv4_3"
  top: "conv4_3"
}
layer {
  name: "pool4"
  type: "Pooling"
  bottom: "conv4_3"
  top: "pool4"
  pooling_param {
    pool: MAX
    kernel_size: 2
    stride: 2
  }
}
layer {
  name: "conv5_1"
  type: "Convolution"
  bottom: "pool4"
  top: "conv5_1"
  param {
    lr_mult: 1
  }
  param {
    lr_mult: 2
  }
  convolution_param {
    num_output: 512
    pad: 1
    kernel_size: 3
  }
}
layer {
  name: "relu5_1"
  type: "ReLU"
  bottom: "conv5_1"
  top: "conv5_1"
}
layer {
  name: "conv5_2"
  type: "Convolution"
  bottom: "conv5_1"
  top: "conv5_2"
  param {
    lr_mult: 1
  }
  param {
    lr_mult: 2
  }
  convolution_param {
    num_output: 512
    pad: 1
    kernel_size: 3
  }
}
layer {
  name: "relu5_2"
  type: "ReLU"
  bottom: "conv5_2"
  top: "conv5_2"
}
layer {
  name: "conv5_3"
  type: "Convolution"
  bottom: "conv5_2"
  top: "conv5_3"
  param {
    lr_mult: 1
  }
  param {
    lr_mult: 2
  }
  convolution_param {
    num_output: 512
    pad: 1
    kernel_size: 3
  }
}
layer {
  name: "relu5_3"
  type: "ReLU"
  bottom: "conv5_3"
  top: "conv5_3"
}
layer {
  name: "pool5"
  type: "Pooling"
  bottom: "conv5_3"
  top: "pool5"
  pooling_param {
    pool: MAX
    kernel_size: 2
    stride: 2
  }
}
layer {
  name: "P5"
  type: "Convolution"
  bottom: "pool5"
  top: "P5"
  param {
    lr_mult: 1
  }
  param {
    lr_mult: 2
  }
  convolution_param {
    num_output: 256
    kernel_size: 1
    weight_filler {
      type: "xavier"
    }
    bias_filler {
      type: "constant"
    }
  }
}
layer {
  name: "upP5"
  type: "Deconvolution"
  bottom: "P5"
  top: "upP5"
  param {
    lr_mult: 0
    decay_mult: 0
  }
  convolution_param {
    num_output: 256
    bias_term: false
    pad: 1
    kernel_size: 4
    stride: 2
    weight_filler {
      type: "bilinear"
    }
  }
}
layer {
  name: "newC4"
  type: "Convolution"
  bottom: "conv5_3"
  top: "newC4"
  param {
    lr_mult: 1
  }
  param {
    lr_mult: 2
  }
  convolution_param {
    num_output: 256
    kernel_size: 1
    weight_filler {
      type: "xavier"
    }
    bias_filler {
      type: "constant"
    }
  }
}
layer {
  name: "upP5crop"
  type: "Crop"
  bottom: "upP5"
  bottom: "newC4"
  top: "upP5crop"
  crop_param {
    axis: 2
    offset: 0
  }
}
layer {
  name: "P4"
  type: "Eltwise"
  bottom: "newC4"
  bottom: "upP5crop"
  top: "P4"
  eltwise_param {
    operation: SUM
  }
}
layer {
  name: "upP4"
  type: "Deconvolution"
  bottom: "P4"
  top: "upP4"
  param {
    lr_mult: 0
    decay_mult: 0
  }
  convolution_param {
    num_output: 256
    bias_term: false
    pad: 1
    kernel_size: 4
    stride: 2
    weight_filler {
      type: "bilinear"
    }
  }
}
layer {
  name: "newC3"
  type: "Convolution"
  bottom: "conv4_3"
  top: "newC3"
  param {
    lr_mult: 1
  }
  param {
    lr_mult: 2
  }
  convolution_param {
    num_output: 256
    kernel_size: 1
    weight_filler {
      type: "xavier"
    }
    bias_filler {
      type: "constant"
    }
  }
}
layer {
  name: "upP4crop"
  type: "Crop"
  bottom: "upP4"
  bottom: "newC3"
  top: "upP4crop"
  crop_param {
    axis: 2
    offset: 0
  }
}
layer {
  name: "P3"
  type: "Eltwise"
  bottom: "newC3"
  bottom: "upP4crop"
  top: "P3"
  eltwise_param {
    operation: SUM
  }
}
layer {
  name: "upP3"
  type: "Deconvolution"
  bottom: "P3"
  top: "upP3"
  param {
    lr_mult: 0
    decay_mult: 0
  }
  convolution_param {
    num_output: 256
    bias_term: false
    pad: 1
    kernel_size: 4
    stride: 2
    weight_filler {
      type: "bilinear"
    }
  }
}
layer {
  name: "upP3crop"
  type: "Crop"
  bottom: "upP3"
  bottom: "conv3_3"
  top: "upP3crop"
  crop_param {
    axis: 2
    offset: 0
  }
}
layer {
  name: "P2"
  type: "Eltwise"
  bottom: "conv3_3"
  bottom: "upP3crop"
  top: "P2"
  eltwise_param {
    operation: SUM
  }
}
layer {
  name: "newP2"
  type: "Convolution"
  bottom: "P2"
  top: "newP2"
  param {
    lr_mult: 1
  }
  param {
    lr_mult: 2
  }
  convolution_param {
    num_output: 256
    pad: 1
    kernel_size: 3
    weight_filler {
      type: "xavier"
    }
    bias_filler {
      type: "constant"
    }
  }
}
layer {
  name: "rpn_conv/3x3"
  type: "Convolution"
  bottom: "newP2"
  top: "rpn/output"
  param {
    lr_mult: 1
  }
  param {
    lr_mult: 2
  }
  convolution_param {
    num_output: 512
    pad: 1
    kernel_size: 3
    stride: 1
    weight_filler {
      type: "gaussian"
      std: 0.01
    }
    bias_filler {
      type: "constant"
      value: 0
    }
  }
}
layer {
  name: "rpn_relu/3x3"
  type: "ReLU"
  bottom: "rpn/output"
  top: "rpn/output"
}
layer {
  name: "rpn_cls_score"
  type: "Convolution"
  bottom: "rpn/output"
  top: "rpn_cls_score"
  param {
    lr_mult: 1
  }
  param {
    lr_mult: 2
  }
  convolution_param {
    num_output: 18
    pad: 0
    kernel_size: 1
    stride: 1
    weight_filler {
      type: "gaussian"
      std: 0.01
    }
    bias_filler {
      type: "constant"
      value: 0
    }
  }
}
layer {
  name: "rpn_bbox_pred"
  type: "Convolution"
  bottom: "rpn/output"
  top: "rpn_bbox_pred"
  param {
    lr_mult: 1
  }
  param {
    lr_mult: 2
  }
  convolution_param {
    num_output: 36
    pad: 0
    kernel_size: 1
    stride: 1
    weight_filler {
      type: "gaussian"
      std: 0.01
    }
    bias_filler {
      type: "constant"
      value: 0
    }
  }
}
layer {
  name: "rpn_cls_score_reshape"
  type: "Reshape"
  bottom: "rpn_cls_score"
  top: "rpn_cls_score_reshape"
  reshape_param {
    shape {
      dim: 0
      dim: 2
      dim: -1
      dim: 0
    }
  }
}
layer {
  name: "rpn-data"
  type: "Python"
  bottom: "rpn_cls_score"
  bottom: "gt_boxes"
  bottom: "im_info"
  bottom: "data"
  top: "rpn_labels"
  top: "rpn_bbox_targets"
  top: "rpn_bbox_inside_weights"
  top: "rpn_bbox_outside_weights"
  python_param {
    module: "rpn.anchor_target_layer"
    layer: "AnchorTargetLayer"
    param_str: "\'feat_stride\': 4"
  }
}
layer {
  name: "rpn_loss_cls"
  type: "SoftmaxWithLoss"
  bottom: "rpn_cls_score_reshape"
  bottom: "rpn_labels"
  top: "rpn_cls_loss"
  loss_weight: 1
  propagate_down: true
  propagate_down: false
  loss_param {
    ignore_label: -1
    normalize: true
  }
}
layer {
  name: "rpn_loss_bbox"
  type: "SmoothL1Loss"
  bottom: "rpn_bbox_pred"
  bottom: "rpn_bbox_targets"
  bottom: "rpn_bbox_inside_weights"
  bottom: "rpn_bbox_outside_weights"
  top: "rpn_loss_bbox"
  loss_weight: 1
  smooth_l1_loss_param {
    sigma: 3
  }
}
layer {
  name: "rpn_cls_prob"
  type: "Softmax"
  bottom: "rpn_cls_score_reshape"
  top: "rpn_cls_prob"
}
layer {
  name: "rpn_cls_prob_reshape"
  type: "Reshape"
  bottom: "rpn_cls_prob"
  top: "rpn_cls_prob_reshape"
  reshape_param {
    shape {
      dim: 0
      dim: 18
      dim: -1
      dim: 0
    }
  }
}
layer {
  name: "proposal"
  type: "Python"
  bottom: "rpn_cls_prob_reshape"
  bottom: "rpn_bbox_pred"
  bottom: "im_info"
  top: "rpn_rois"
  python_param {
    module: "rpn.proposal_layer"
    layer: "ProposalLayer"
    param_str: "\'feat_stride\': 4"
  }
}
layer {
  name: "roi-data"
  type: "Python"
  bottom: "rpn_rois"
  bottom: "gt_boxes"
  top: "rois"
  top: "labels"
  top: "bbox_targets"
  top: "bbox_inside_weights"
  top: "bbox_outside_weights"
  python_param {
    module: "rpn.proposal_target_layer"
    layer: "ProposalTargetLayer"
    param_str: "\'num_classes\': 21"
  }
}
layer {
  name: "roi_pool5"
  type: "ROIPooling"
  bottom: "newP2"
  bottom: "rois"
  top: "rcnn_pool5"
  roi_pooling_param {
    pooled_h: 7
    pooled_w: 7
    spatial_scale: 0.25
  }
}
layer {
  name: "rcnn_fc6"
  type: "InnerProduct"
  bottom: "rcnn_pool5"
  top: "rcnn_fc6"
  param {
    lr_mult: 1
  }
  param {
    lr_mult: 2
  }
  inner_product_param {
    num_output: 4096
    weight_filler {
      type: "xavier"
    }
    bias_filler {
      type: "constant"
    }
  }
}
layer {
  name: "relu6"
  type: "ReLU"
  bottom: "rcnn_fc6"
  top: "rcnn_fc6"
}
layer {
  name: "drop6"
  type: "Dropout"
  bottom: "rcnn_fc6"
  top: "rcnn_fc6"
  dropout_param {
    dropout_ratio: 0.5
  }
}
layer {
  name: "fc7"
  type: "InnerProduct"
  bottom: "rcnn_fc6"
  top: "fc7"
  param {
    lr_mult: 1
  }
  param {
    lr_mult: 2
  }
  inner_product_param {
    num_output: 4096
    weight_filler {
      type: "xavier"
    }
    bias_filler {
      type: "constant"
    }
  }
}
layer {
  name: "relu7"
  type: "ReLU"
  bottom: "fc7"
  top: "fc7"
}
layer {
  name: "drop7"
  type: "Dropout"
  bottom: "fc7"
  top: "fc7"
  dropout_param {
    dropout_ratio: 0.5
  }
}
layer {
  name: "cls_score"
  type: "InnerProduct"
  bottom: "fc7"
  top: "cls_score"
  param {
    lr_mult: 1
  }
  param {
    lr_mult: 2
  }
  inner_product_param {
    num_output: 21
    weight_filler {
      type: "gaussian"
      std: 0.01
    }
    bias_filler {
      type: "constant"
      value: 0
    }
  }
}
layer {
  name: "bbox_pred"
  type: "InnerProduct"
  bottom: "fc7"
  top: "bbox_pred"
  param {
    lr_mult: 1
  }
  param {
    lr_mult: 2
  }
  inner_product_param {
    num_output: 84
    weight_filler {
      type: "gaussian"
      std: 0.001
    }
    bias_filler {
      type: "constant"
      value: 0
    }
  }
}
layer {
  name: "loss_cls"
  type: "SoftmaxWithLoss"
  bottom: "cls_score"
  bottom: "labels"
  top: "loss_cls"
  loss_weight: 1
  propagate_down: true
  propagate_down: false
}
layer {
  name: "loss_bbox"
  type: "SmoothL1Loss"
  bottom: "bbox_pred"
  bottom: "bbox_targets"
  bottom: "bbox_inside_weights"
  bottom: "bbox_outside_weights"
  top: "loss_bbox"
  loss_weight: 1
}
I0628 15:07:52.986605  8276 layer_factory.hpp:77] Creating layer input-data
I0628 15:07:52.987608  8276 net.cpp:106] Creating Layer input-data
I0628 15:07:52.987633  8276 net.cpp:411] input-data -> data
I0628 15:07:52.987651  8276 net.cpp:411] input-data -> im_info
I0628 15:07:52.987682  8276 net.cpp:411] input-data -> gt_boxes
RoiDataLayer: name_to_top: {'gt_boxes': 2, 'data': 0, 'im_info': 1}
I0628 15:07:53.062922  8276 net.cpp:150] Setting up input-data
I0628 15:07:53.062945  8276 net.cpp:157] Top shape: 1 3 600 1000 (1800000)
I0628 15:07:53.062964  8276 net.cpp:157] Top shape: 1 3 (3)
I0628 15:07:53.062976  8276 net.cpp:157] Top shape: 1 4 (4)
I0628 15:07:53.062980  8276 net.cpp:165] Memory required for data: 7200028
I0628 15:07:53.062984  8276 layer_factory.hpp:77] Creating layer data_input-data_0_split
I0628 15:07:53.062995  8276 net.cpp:106] Creating Layer data_input-data_0_split
I0628 15:07:53.063009  8276 net.cpp:454] data_input-data_0_split <- data
I0628 15:07:53.063017  8276 net.cpp:411] data_input-data_0_split -> data_input-data_0_split_0
I0628 15:07:53.063038  8276 net.cpp:411] data_input-data_0_split -> data_input-data_0_split_1
I0628 15:07:53.063086  8276 net.cpp:150] Setting up data_input-data_0_split
I0628 15:07:53.063097  8276 net.cpp:157] Top shape: 1 3 600 1000 (1800000)
I0628 15:07:53.063102  8276 net.cpp:157] Top shape: 1 3 600 1000 (1800000)
I0628 15:07:53.063104  8276 net.cpp:165] Memory required for data: 21600028
I0628 15:07:53.063124  8276 layer_factory.hpp:77] Creating layer im_info_input-data_1_split
I0628 15:07:53.063138  8276 net.cpp:106] Creating Layer im_info_input-data_1_split
I0628 15:07:53.063143  8276 net.cpp:454] im_info_input-data_1_split <- im_info
I0628 15:07:53.063161  8276 net.cpp:411] im_info_input-data_1_split -> im_info_input-data_1_split_0
I0628 15:07:53.063172  8276 net.cpp:411] im_info_input-data_1_split -> im_info_input-data_1_split_1
I0628 15:07:53.063210  8276 net.cpp:150] Setting up im_info_input-data_1_split
I0628 15:07:53.063220  8276 net.cpp:157] Top shape: 1 3 (3)
I0628 15:07:53.063225  8276 net.cpp:157] Top shape: 1 3 (3)
I0628 15:07:53.063227  8276 net.cpp:165] Memory required for data: 21600052
I0628 15:07:53.063246  8276 layer_factory.hpp:77] Creating layer gt_boxes_input-data_2_split
I0628 15:07:53.063256  8276 net.cpp:106] Creating Layer gt_boxes_input-data_2_split
I0628 15:07:53.063261  8276 net.cpp:454] gt_boxes_input-data_2_split <- gt_boxes
I0628 15:07:53.063267  8276 net.cpp:411] gt_boxes_input-data_2_split -> gt_boxes_input-data_2_split_0
I0628 15:07:53.063272  8276 net.cpp:411] gt_boxes_input-data_2_split -> gt_boxes_input-data_2_split_1
I0628 15:07:53.063308  8276 net.cpp:150] Setting up gt_boxes_input-data_2_split
I0628 15:07:53.063320  8276 net.cpp:157] Top shape: 1 4 (4)
I0628 15:07:53.063324  8276 net.cpp:157] Top shape: 1 4 (4)
I0628 15:07:53.063328  8276 net.cpp:165] Memory required for data: 21600084
I0628 15:07:53.063345  8276 layer_factory.hpp:77] Creating layer conv1_1
I0628 15:07:53.063364  8276 net.cpp:106] Creating Layer conv1_1
I0628 15:07:53.063369  8276 net.cpp:454] conv1_1 <- data_input-data_0_split_0
I0628 15:07:53.063375  8276 net.cpp:411] conv1_1 -> conv1_1
I0628 15:07:57.863400  8276 net.cpp:150] Setting up conv1_1
I0628 15:07:57.863461  8276 net.cpp:157] Top shape: 1 64 600 1000 (38400000)
I0628 15:07:57.863466  8276 net.cpp:165] Memory required for data: 175200084
I0628 15:07:57.863488  8276 layer_factory.hpp:77] Creating layer relu1_1
I0628 15:07:57.863509  8276 net.cpp:106] Creating Layer relu1_1
I0628 15:07:57.863543  8276 net.cpp:454] relu1_1 <- conv1_1
I0628 15:07:57.863564  8276 net.cpp:397] relu1_1 -> conv1_1 (in-place)
I0628 15:07:57.864326  8276 net.cpp:150] Setting up relu1_1
I0628 15:07:57.864346  8276 net.cpp:157] Top shape: 1 64 600 1000 (38400000)
I0628 15:07:57.864351  8276 net.cpp:165] Memory required for data: 328800084
I0628 15:07:57.864356  8276 layer_factory.hpp:77] Creating layer conv1_2
I0628 15:07:57.864372  8276 net.cpp:106] Creating Layer conv1_2
I0628 15:07:57.864397  8276 net.cpp:454] conv1_2 <- conv1_1
I0628 15:07:57.864415  8276 net.cpp:411] conv1_2 -> conv1_2
I0628 15:07:57.868815  8276 net.cpp:150] Setting up conv1_2
I0628 15:07:57.868842  8276 net.cpp:157] Top shape: 1 64 600 1000 (38400000)
I0628 15:07:57.868846  8276 net.cpp:165] Memory required for data: 482400084
I0628 15:07:57.868858  8276 layer_factory.hpp:77] Creating layer relu1_2
I0628 15:07:57.868890  8276 net.cpp:106] Creating Layer relu1_2
I0628 15:07:57.868906  8276 net.cpp:454] relu1_2 <- conv1_2
I0628 15:07:57.868921  8276 net.cpp:397] relu1_2 -> conv1_2 (in-place)
I0628 15:07:57.869113  8276 net.cpp:150] Setting up relu1_2
I0628 15:07:57.869130  8276 net.cpp:157] Top shape: 1 64 600 1000 (38400000)
I0628 15:07:57.869134  8276 net.cpp:165] Memory required for data: 636000084
I0628 15:07:57.869140  8276 layer_factory.hpp:77] Creating layer pool1
I0628 15:07:57.869174  8276 net.cpp:106] Creating Layer pool1
I0628 15:07:57.869195  8276 net.cpp:454] pool1 <- conv1_2
I0628 15:07:57.869212  8276 net.cpp:411] pool1 -> pool1
I0628 15:07:57.869278  8276 net.cpp:150] Setting up pool1
I0628 15:07:57.869292  8276 net.cpp:157] Top shape: 1 64 300 500 (9600000)
I0628 15:07:57.869297  8276 net.cpp:165] Memory required for data: 674400084
I0628 15:07:57.869300  8276 layer_factory.hpp:77] Creating layer conv2_1
I0628 15:07:57.869310  8276 net.cpp:106] Creating Layer conv2_1
I0628 15:07:57.869328  8276 net.cpp:454] conv2_1 <- pool1
I0628 15:07:57.869346  8276 net.cpp:411] conv2_1 -> conv2_1
I0628 15:07:57.872349  8276 net.cpp:150] Setting up conv2_1
I0628 15:07:57.872372  8276 net.cpp:157] Top shape: 1 128 300 500 (19200000)
I0628 15:07:57.872376  8276 net.cpp:165] Memory required for data: 751200084
I0628 15:07:57.872386  8276 layer_factory.hpp:77] Creating layer relu2_1
I0628 15:07:57.872418  8276 net.cpp:106] Creating Layer relu2_1
I0628 15:07:57.872447  8276 net.cpp:454] relu2_1 <- conv2_1
I0628 15:07:57.872462  8276 net.cpp:397] relu2_1 -> conv2_1 (in-place)
I0628 15:07:57.872671  8276 net.cpp:150] Setting up relu2_1
I0628 15:07:57.872689  8276 net.cpp:157] Top shape: 1 128 300 500 (19200000)
I0628 15:07:57.872692  8276 net.cpp:165] Memory required for data: 828000084
I0628 15:07:57.872695  8276 layer_factory.hpp:77] Creating layer conv2_2
I0628 15:07:57.872705  8276 net.cpp:106] Creating Layer conv2_2
I0628 15:07:57.872709  8276 net.cpp:454] conv2_2 <- conv2_1
I0628 15:07:57.872714  8276 net.cpp:411] conv2_2 -> conv2_2
I0628 15:07:57.876281  8276 net.cpp:150] Setting up conv2_2
I0628 15:07:57.876307  8276 net.cpp:157] Top shape: 1 128 300 500 (19200000)
I0628 15:07:57.876312  8276 net.cpp:165] Memory required for data: 904800084
I0628 15:07:57.876320  8276 layer_factory.hpp:77] Creating layer relu2_2
I0628 15:07:57.876350  8276 net.cpp:106] Creating Layer relu2_2
I0628 15:07:57.876374  8276 net.cpp:454] relu2_2 <- conv2_2
I0628 15:07:57.876391  8276 net.cpp:397] relu2_2 -> conv2_2 (in-place)
I0628 15:07:57.877147  8276 net.cpp:150] Setting up relu2_2
I0628 15:07:57.877168  8276 net.cpp:157] Top shape: 1 128 300 500 (19200000)
I0628 15:07:57.877172  8276 net.cpp:165] Memory required for data: 981600084
I0628 15:07:57.877177  8276 layer_factory.hpp:77] Creating layer pool2
I0628 15:07:57.877190  8276 net.cpp:106] Creating Layer pool2
I0628 15:07:57.877214  8276 net.cpp:454] pool2 <- conv2_2
I0628 15:07:57.877233  8276 net.cpp:411] pool2 -> pool2
I0628 15:07:57.877300  8276 net.cpp:150] Setting up pool2
I0628 15:07:57.877315  8276 net.cpp:157] Top shape: 1 128 150 250 (4800000)
I0628 15:07:57.877318  8276 net.cpp:165] Memory required for data: 1000800084
I0628 15:07:57.877321  8276 layer_factory.hpp:77] Creating layer conv3_1
I0628 15:07:57.877331  8276 net.cpp:106] Creating Layer conv3_1
I0628 15:07:57.877351  8276 net.cpp:454] conv3_1 <- pool2
I0628 15:07:57.877367  8276 net.cpp:411] conv3_1 -> conv3_1
I0628 15:07:57.880475  8276 net.cpp:150] Setting up conv3_1
I0628 15:07:57.880499  8276 net.cpp:157] Top shape: 1 256 150 250 (9600000)
I0628 15:07:57.880503  8276 net.cpp:165] Memory required for data: 1039200084
I0628 15:07:57.880515  8276 layer_factory.hpp:77] Creating layer relu3_1
I0628 15:07:57.880547  8276 net.cpp:106] Creating Layer relu3_1
I0628 15:07:57.880553  8276 net.cpp:454] relu3_1 <- conv3_1
I0628 15:07:57.880558  8276 net.cpp:397] relu3_1 -> conv3_1 (in-place)
I0628 15:07:57.880749  8276 net.cpp:150] Setting up relu3_1
I0628 15:07:57.880769  8276 net.cpp:157] Top shape: 1 256 150 250 (9600000)
I0628 15:07:57.880771  8276 net.cpp:165] Memory required for data: 1077600084
I0628 15:07:57.880776  8276 layer_factory.hpp:77] Creating layer conv3_2
I0628 15:07:57.880807  8276 net.cpp:106] Creating Layer conv3_2
I0628 15:07:57.880825  8276 net.cpp:454] conv3_2 <- conv3_1
I0628 15:07:57.880842  8276 net.cpp:411] conv3_2 -> conv3_2
I0628 15:07:57.884652  8276 net.cpp:150] Setting up conv3_2
I0628 15:07:57.884677  8276 net.cpp:157] Top shape: 1 256 150 250 (9600000)
I0628 15:07:57.884682  8276 net.cpp:165] Memory required for data: 1116000084
I0628 15:07:57.884690  8276 layer_factory.hpp:77] Creating layer relu3_2
I0628 15:07:57.884697  8276 net.cpp:106] Creating Layer relu3_2
I0628 15:07:57.884724  8276 net.cpp:454] relu3_2 <- conv3_2
I0628 15:07:57.884744  8276 net.cpp:397] relu3_2 -> conv3_2 (in-place)
I0628 15:07:57.884965  8276 net.cpp:150] Setting up relu3_2
I0628 15:07:57.884984  8276 net.cpp:157] Top shape: 1 256 150 250 (9600000)
I0628 15:07:57.884987  8276 net.cpp:165] Memory required for data: 1154400084
I0628 15:07:57.884990  8276 layer_factory.hpp:77] Creating layer conv3_3
I0628 15:07:57.885000  8276 net.cpp:106] Creating Layer conv3_3
I0628 15:07:57.885022  8276 net.cpp:454] conv3_3 <- conv3_2
I0628 15:07:57.885041  8276 net.cpp:411] conv3_3 -> conv3_3
I0628 15:07:57.888803  8276 net.cpp:150] Setting up conv3_3
I0628 15:07:57.888826  8276 net.cpp:157] Top shape: 1 256 150 250 (9600000)
I0628 15:07:57.888831  8276 net.cpp:165] Memory required for data: 1192800084
I0628 15:07:57.888837  8276 layer_factory.hpp:77] Creating layer relu3_3
I0628 15:07:57.888866  8276 net.cpp:106] Creating Layer relu3_3
I0628 15:07:57.888890  8276 net.cpp:454] relu3_3 <- conv3_3
I0628 15:07:57.888912  8276 net.cpp:397] relu3_3 -> conv3_3 (in-place)
I0628 15:07:57.889667  8276 net.cpp:150] Setting up relu3_3
I0628 15:07:57.889688  8276 net.cpp:157] Top shape: 1 256 150 250 (9600000)
I0628 15:07:57.889691  8276 net.cpp:165] Memory required for data: 1231200084
I0628 15:07:57.889698  8276 layer_factory.hpp:77] Creating layer conv3_3_relu3_3_0_split
I0628 15:07:57.889706  8276 net.cpp:106] Creating Layer conv3_3_relu3_3_0_split
I0628 15:07:57.889710  8276 net.cpp:454] conv3_3_relu3_3_0_split <- conv3_3
I0628 15:07:57.889715  8276 net.cpp:411] conv3_3_relu3_3_0_split -> conv3_3_relu3_3_0_split_0
I0628 15:07:57.889724  8276 net.cpp:411] conv3_3_relu3_3_0_split -> conv3_3_relu3_3_0_split_1
I0628 15:07:57.889729  8276 net.cpp:411] conv3_3_relu3_3_0_split -> conv3_3_relu3_3_0_split_2
I0628 15:07:57.889787  8276 net.cpp:150] Setting up conv3_3_relu3_3_0_split
I0628 15:07:57.889793  8276 net.cpp:157] Top shape: 1 256 150 250 (9600000)
I0628 15:07:57.889797  8276 net.cpp:157] Top shape: 1 256 150 250 (9600000)
I0628 15:07:57.889801  8276 net.cpp:157] Top shape: 1 256 150 250 (9600000)
I0628 15:07:57.889803  8276 net.cpp:165] Memory required for data: 1346400084
I0628 15:07:57.889806  8276 layer_factory.hpp:77] Creating layer pool3
I0628 15:07:57.889814  8276 net.cpp:106] Creating Layer pool3
I0628 15:07:57.889817  8276 net.cpp:454] pool3 <- conv3_3_relu3_3_0_split_0
I0628 15:07:57.889822  8276 net.cpp:411] pool3 -> pool3
I0628 15:07:57.889858  8276 net.cpp:150] Setting up pool3
I0628 15:07:57.889863  8276 net.cpp:157] Top shape: 1 256 75 125 (2400000)
I0628 15:07:57.889866  8276 net.cpp:165] Memory required for data: 1356000084
I0628 15:07:57.889869  8276 layer_factory.hpp:77] Creating layer conv4_1
I0628 15:07:57.889878  8276 net.cpp:106] Creating Layer conv4_1
I0628 15:07:57.889880  8276 net.cpp:454] conv4_1 <- pool3
I0628 15:07:57.889885  8276 net.cpp:411] conv4_1 -> conv4_1
I0628 15:07:57.896070  8276 net.cpp:150] Setting up conv4_1
I0628 15:07:57.896095  8276 net.cpp:157] Top shape: 1 512 75 125 (4800000)
I0628 15:07:57.896100  8276 net.cpp:165] Memory required for data: 1375200084
I0628 15:07:57.896108  8276 layer_factory.hpp:77] Creating layer relu4_1
I0628 15:07:57.896116  8276 net.cpp:106] Creating Layer relu4_1
I0628 15:07:57.896121  8276 net.cpp:454] relu4_1 <- conv4_1
I0628 15:07:57.896126  8276 net.cpp:397] relu4_1 -> conv4_1 (in-place)
I0628 15:07:57.896875  8276 net.cpp:150] Setting up relu4_1
I0628 15:07:57.896895  8276 net.cpp:157] Top shape: 1 512 75 125 (4800000)
I0628 15:07:57.896899  8276 net.cpp:165] Memory required for data: 1394400084
I0628 15:07:57.896904  8276 layer_factory.hpp:77] Creating layer conv4_2
I0628 15:07:57.896914  8276 net.cpp:106] Creating Layer conv4_2
I0628 15:07:57.896919  8276 net.cpp:454] conv4_2 <- conv4_1
I0628 15:07:57.896925  8276 net.cpp:411] conv4_2 -> conv4_2
I0628 15:07:57.904884  8276 net.cpp:150] Setting up conv4_2
I0628 15:07:57.904911  8276 net.cpp:157] Top shape: 1 512 75 125 (4800000)
I0628 15:07:57.904917  8276 net.cpp:165] Memory required for data: 1413600084
I0628 15:07:57.904927  8276 layer_factory.hpp:77] Creating layer relu4_2
I0628 15:07:57.904933  8276 net.cpp:106] Creating Layer relu4_2
I0628 15:07:57.904937  8276 net.cpp:454] relu4_2 <- conv4_2
I0628 15:07:57.904945  8276 net.cpp:397] relu4_2 -> conv4_2 (in-place)
I0628 15:07:57.905134  8276 net.cpp:150] Setting up relu4_2
I0628 15:07:57.905150  8276 net.cpp:157] Top shape: 1 512 75 125 (4800000)
I0628 15:07:57.905154  8276 net.cpp:165] Memory required for data: 1432800084
I0628 15:07:57.905158  8276 layer_factory.hpp:77] Creating layer conv4_3
I0628 15:07:57.905166  8276 net.cpp:106] Creating Layer conv4_3
I0628 15:07:57.905170  8276 net.cpp:454] conv4_3 <- conv4_2
I0628 15:07:57.905181  8276 net.cpp:411] conv4_3 -> conv4_3
I0628 15:07:57.912480  8276 net.cpp:150] Setting up conv4_3
I0628 15:07:57.912504  8276 net.cpp:157] Top shape: 1 512 75 125 (4800000)
I0628 15:07:57.912508  8276 net.cpp:165] Memory required for data: 1452000084
I0628 15:07:57.912515  8276 layer_factory.hpp:77] Creating layer relu4_3
I0628 15:07:57.912521  8276 net.cpp:106] Creating Layer relu4_3
I0628 15:07:57.912525  8276 net.cpp:454] relu4_3 <- conv4_3
I0628 15:07:57.912530  8276 net.cpp:397] relu4_3 -> conv4_3 (in-place)
I0628 15:07:57.913265  8276 net.cpp:150] Setting up relu4_3
I0628 15:07:57.913285  8276 net.cpp:157] Top shape: 1 512 75 125 (4800000)
I0628 15:07:57.913288  8276 net.cpp:165] Memory required for data: 1471200084
I0628 15:07:57.913293  8276 layer_factory.hpp:77] Creating layer conv4_3_relu4_3_0_split
I0628 15:07:57.913301  8276 net.cpp:106] Creating Layer conv4_3_relu4_3_0_split
I0628 15:07:57.913305  8276 net.cpp:454] conv4_3_relu4_3_0_split <- conv4_3
I0628 15:07:57.913311  8276 net.cpp:411] conv4_3_relu4_3_0_split -> conv4_3_relu4_3_0_split_0
I0628 15:07:57.913318  8276 net.cpp:411] conv4_3_relu4_3_0_split -> conv4_3_relu4_3_0_split_1
I0628 15:07:57.913363  8276 net.cpp:150] Setting up conv4_3_relu4_3_0_split
I0628 15:07:57.913369  8276 net.cpp:157] Top shape: 1 512 75 125 (4800000)
I0628 15:07:57.913373  8276 net.cpp:157] Top shape: 1 512 75 125 (4800000)
I0628 15:07:57.913375  8276 net.cpp:165] Memory required for data: 1509600084
I0628 15:07:57.913378  8276 layer_factory.hpp:77] Creating layer pool4
I0628 15:07:57.913388  8276 net.cpp:106] Creating Layer pool4
I0628 15:07:57.913390  8276 net.cpp:454] pool4 <- conv4_3_relu4_3_0_split_0
I0628 15:07:57.913394  8276 net.cpp:411] pool4 -> pool4
I0628 15:07:57.913434  8276 net.cpp:150] Setting up pool4
I0628 15:07:57.913439  8276 net.cpp:157] Top shape: 1 512 38 63 (1225728)
I0628 15:07:57.913441  8276 net.cpp:165] Memory required for data: 1514502996
I0628 15:07:57.913444  8276 layer_factory.hpp:77] Creating layer conv5_1
I0628 15:07:57.913453  8276 net.cpp:106] Creating Layer conv5_1
I0628 15:07:57.913456  8276 net.cpp:454] conv5_1 <- pool4
I0628 15:07:57.913460  8276 net.cpp:411] conv5_1 -> conv5_1
I0628 15:07:57.920781  8276 net.cpp:150] Setting up conv5_1
I0628 15:07:57.920806  8276 net.cpp:157] Top shape: 1 512 38 63 (1225728)
I0628 15:07:57.920810  8276 net.cpp:165] Memory required for data: 1519405908
I0628 15:07:57.920817  8276 layer_factory.hpp:77] Creating layer relu5_1
I0628 15:07:57.920825  8276 net.cpp:106] Creating Layer relu5_1
I0628 15:07:57.920830  8276 net.cpp:454] relu5_1 <- conv5_1
I0628 15:07:57.920835  8276 net.cpp:397] relu5_1 -> conv5_1 (in-place)
I0628 15:07:57.921022  8276 net.cpp:150] Setting up relu5_1
I0628 15:07:57.921033  8276 net.cpp:157] Top shape: 1 512 38 63 (1225728)
I0628 15:07:57.921036  8276 net.cpp:165] Memory required for data: 1524308820
I0628 15:07:57.921041  8276 layer_factory.hpp:77] Creating layer conv5_2
I0628 15:07:57.921054  8276 net.cpp:106] Creating Layer conv5_2
I0628 15:07:57.921058  8276 net.cpp:454] conv5_2 <- conv5_1
I0628 15:07:57.921063  8276 net.cpp:411] conv5_2 -> conv5_2
I0628 15:07:57.928423  8276 net.cpp:150] Setting up conv5_2
I0628 15:07:57.928454  8276 net.cpp:157] Top shape: 1 512 38 63 (1225728)
I0628 15:07:57.928458  8276 net.cpp:165] Memory required for data: 1529211732
I0628 15:07:57.928467  8276 layer_factory.hpp:77] Creating layer relu5_2
I0628 15:07:57.928475  8276 net.cpp:106] Creating Layer relu5_2
I0628 15:07:57.928478  8276 net.cpp:454] relu5_2 <- conv5_2
I0628 15:07:57.928488  8276 net.cpp:397] relu5_2 -> conv5_2 (in-place)
I0628 15:07:57.928663  8276 net.cpp:150] Setting up relu5_2
I0628 15:07:57.928678  8276 net.cpp:157] Top shape: 1 512 38 63 (1225728)
I0628 15:07:57.928681  8276 net.cpp:165] Memory required for data: 1534114644
I0628 15:07:57.928684  8276 layer_factory.hpp:77] Creating layer conv5_3
I0628 15:07:57.928694  8276 net.cpp:106] Creating Layer conv5_3
I0628 15:07:57.928697  8276 net.cpp:454] conv5_3 <- conv5_2
I0628 15:07:57.928704  8276 net.cpp:411] conv5_3 -> conv5_3
I0628 15:07:57.936167  8276 net.cpp:150] Setting up conv5_3
I0628 15:07:57.936200  8276 net.cpp:157] Top shape: 1 512 38 63 (1225728)
I0628 15:07:57.936204  8276 net.cpp:165] Memory required for data: 1539017556
I0628 15:07:57.936214  8276 layer_factory.hpp:77] Creating layer relu5_3
I0628 15:07:57.936223  8276 net.cpp:106] Creating Layer relu5_3
I0628 15:07:57.936228  8276 net.cpp:454] relu5_3 <- conv5_3
I0628 15:07:57.936233  8276 net.cpp:397] relu5_3 -> conv5_3 (in-place)
I0628 15:07:57.936981  8276 net.cpp:150] Setting up relu5_3
I0628 15:07:57.937003  8276 net.cpp:157] Top shape: 1 512 38 63 (1225728)
I0628 15:07:57.937007  8276 net.cpp:165] Memory required for data: 1543920468
I0628 15:07:57.937011  8276 layer_factory.hpp:77] Creating layer conv5_3_relu5_3_0_split
I0628 15:07:57.937017  8276 net.cpp:106] Creating Layer conv5_3_relu5_3_0_split
I0628 15:07:57.937021  8276 net.cpp:454] conv5_3_relu5_3_0_split <- conv5_3
I0628 15:07:57.937026  8276 net.cpp:411] conv5_3_relu5_3_0_split -> conv5_3_relu5_3_0_split_0
I0628 15:07:57.937032  8276 net.cpp:411] conv5_3_relu5_3_0_split -> conv5_3_relu5_3_0_split_1
I0628 15:07:57.937086  8276 net.cpp:150] Setting up conv5_3_relu5_3_0_split
I0628 15:07:57.937093  8276 net.cpp:157] Top shape: 1 512 38 63 (1225728)
I0628 15:07:57.937096  8276 net.cpp:157] Top shape: 1 512 38 63 (1225728)
I0628 15:07:57.937099  8276 net.cpp:165] Memory required for data: 1553726292
I0628 15:07:57.937103  8276 layer_factory.hpp:77] Creating layer pool5
I0628 15:07:57.937111  8276 net.cpp:106] Creating Layer pool5
I0628 15:07:57.937115  8276 net.cpp:454] pool5 <- conv5_3_relu5_3_0_split_0
I0628 15:07:57.937121  8276 net.cpp:411] pool5 -> pool5
I0628 15:07:57.937160  8276 net.cpp:150] Setting up pool5
I0628 15:07:57.937165  8276 net.cpp:157] Top shape: 1 512 19 32 (311296)
I0628 15:07:57.937168  8276 net.cpp:165] Memory required for data: 1554971476
I0628 15:07:57.937171  8276 layer_factory.hpp:77] Creating layer P5
I0628 15:07:57.937182  8276 net.cpp:106] Creating Layer P5
I0628 15:07:57.937186  8276 net.cpp:454] P5 <- pool5
I0628 15:07:57.937193  8276 net.cpp:411] P5 -> P5
I0628 15:07:57.940295  8276 net.cpp:150] Setting up P5
I0628 15:07:57.940320  8276 net.cpp:157] Top shape: 1 256 19 32 (155648)
I0628 15:07:57.940323  8276 net.cpp:165] Memory required for data: 1555594068
I0628 15:07:57.940330  8276 layer_factory.hpp:77] Creating layer upP5
I0628 15:07:57.940346  8276 net.cpp:106] Creating Layer upP5
I0628 15:07:57.940349  8276 net.cpp:454] upP5 <- P5
I0628 15:07:57.940357  8276 net.cpp:411] upP5 -> upP5
I0628 15:07:57.966374  8276 net.cpp:150] Setting up upP5
I0628 15:07:57.966403  8276 net.cpp:157] Top shape: 1 256 38 64 (622592)
I0628 15:07:57.966408  8276 net.cpp:165] Memory required for data: 1558084436
I0628 15:07:57.966413  8276 layer_factory.hpp:77] Creating layer newC4
I0628 15:07:57.966428  8276 net.cpp:106] Creating Layer newC4
I0628 15:07:57.966433  8276 net.cpp:454] newC4 <- conv5_3_relu5_3_0_split_1
I0628 15:07:57.966439  8276 net.cpp:411] newC4 -> newC4
I0628 15:07:57.969110  8276 net.cpp:150] Setting up newC4
I0628 15:07:57.969133  8276 net.cpp:157] Top shape: 1 256 38 63 (612864)
I0628 15:07:57.969137  8276 net.cpp:165] Memory required for data: 1560535892
I0628 15:07:57.969144  8276 layer_factory.hpp:77] Creating layer newC4_newC4_0_split
I0628 15:07:57.969152  8276 net.cpp:106] Creating Layer newC4_newC4_0_split
I0628 15:07:57.969156  8276 net.cpp:454] newC4_newC4_0_split <- newC4
I0628 15:07:57.969164  8276 net.cpp:411] newC4_newC4_0_split -> newC4_newC4_0_split_0
I0628 15:07:57.969171  8276 net.cpp:411] newC4_newC4_0_split -> newC4_newC4_0_split_1
I0628 15:07:57.969213  8276 net.cpp:150] Setting up newC4_newC4_0_split
I0628 15:07:57.969219  8276 net.cpp:157] Top shape: 1 256 38 63 (612864)
I0628 15:07:57.969223  8276 net.cpp:157] Top shape: 1 256 38 63 (612864)
I0628 15:07:57.969226  8276 net.cpp:165] Memory required for data: 1565438804
I0628 15:07:57.969229  8276 layer_factory.hpp:77] Creating layer upP5crop
I0628 15:07:57.969241  8276 net.cpp:106] Creating Layer upP5crop
I0628 15:07:57.969245  8276 net.cpp:454] upP5crop <- upP5
I0628 15:07:57.969249  8276 net.cpp:454] upP5crop <- newC4_newC4_0_split_0
I0628 15:07:57.969254  8276 net.cpp:411] upP5crop -> upP5crop
I0628 15:07:57.969353  8276 net.cpp:150] Setting up upP5crop
I0628 15:07:57.969358  8276 net.cpp:157] Top shape: 1 256 38 63 (612864)
I0628 15:07:57.969362  8276 net.cpp:165] Memory required for data: 1567890260
I0628 15:07:57.969364  8276 layer_factory.hpp:77] Creating layer P4
I0628 15:07:57.969372  8276 net.cpp:106] Creating Layer P4
I0628 15:07:57.969375  8276 net.cpp:454] P4 <- newC4_newC4_0_split_1
I0628 15:07:57.969379  8276 net.cpp:454] P4 <- upP5crop
I0628 15:07:57.969385  8276 net.cpp:411] P4 -> P4
I0628 15:07:57.969413  8276 net.cpp:150] Setting up P4
I0628 15:07:57.969418  8276 net.cpp:157] Top shape: 1 256 38 63 (612864)
I0628 15:07:57.969420  8276 net.cpp:165] Memory required for data: 1570341716
I0628 15:07:57.969424  8276 layer_factory.hpp:77] Creating layer upP4
I0628 15:07:57.969434  8276 net.cpp:106] Creating Layer upP4
I0628 15:07:57.969436  8276 net.cpp:454] upP4 <- P4
I0628 15:07:57.969441  8276 net.cpp:411] upP4 -> upP4
I0628 15:07:57.995407  8276 net.cpp:150] Setting up upP4
I0628 15:07:57.995429  8276 net.cpp:157] Top shape: 1 256 76 126 (2451456)
I0628 15:07:57.995434  8276 net.cpp:165] Memory required for data: 1580147540
I0628 15:07:57.995440  8276 layer_factory.hpp:77] Creating layer newC3
I0628 15:07:57.995448  8276 net.cpp:106] Creating Layer newC3
I0628 15:07:57.995452  8276 net.cpp:454] newC3 <- conv4_3_relu4_3_0_split_1
I0628 15:07:57.995460  8276 net.cpp:411] newC3 -> newC3
I0628 15:07:57.998572  8276 net.cpp:150] Setting up newC3
I0628 15:07:57.998596  8276 net.cpp:157] Top shape: 1 256 75 125 (2400000)
I0628 15:07:57.998600  8276 net.cpp:165] Memory required for data: 1589747540
I0628 15:07:57.998617  8276 layer_factory.hpp:77] Creating layer newC3_newC3_0_split
I0628 15:07:57.998623  8276 net.cpp:106] Creating Layer newC3_newC3_0_split
I0628 15:07:57.998627  8276 net.cpp:454] newC3_newC3_0_split <- newC3
I0628 15:07:57.998634  8276 net.cpp:411] newC3_newC3_0_split -> newC3_newC3_0_split_0
I0628 15:07:57.998641  8276 net.cpp:411] newC3_newC3_0_split -> newC3_newC3_0_split_1
I0628 15:07:57.998687  8276 net.cpp:150] Setting up newC3_newC3_0_split
I0628 15:07:57.998702  8276 net.cpp:157] Top shape: 1 256 75 125 (2400000)
I0628 15:07:57.998705  8276 net.cpp:157] Top shape: 1 256 75 125 (2400000)
I0628 15:07:57.998708  8276 net.cpp:165] Memory required for data: 1608947540
I0628 15:07:57.998711  8276 layer_factory.hpp:77] Creating layer upP4crop
I0628 15:07:57.998716  8276 net.cpp:106] Creating Layer upP4crop
I0628 15:07:57.998720  8276 net.cpp:454] upP4crop <- upP4
I0628 15:07:57.998724  8276 net.cpp:454] upP4crop <- newC3_newC3_0_split_0
I0628 15:07:57.998729  8276 net.cpp:411] upP4crop -> upP4crop
I0628 15:07:57.998853  8276 net.cpp:150] Setting up upP4crop
I0628 15:07:57.998869  8276 net.cpp:157] Top shape: 1 256 75 125 (2400000)
I0628 15:07:57.998872  8276 net.cpp:165] Memory required for data: 1618547540
I0628 15:07:57.998875  8276 layer_factory.hpp:77] Creating layer P3
I0628 15:07:57.998881  8276 net.cpp:106] Creating Layer P3
I0628 15:07:57.998885  8276 net.cpp:454] P3 <- newC3_newC3_0_split_1
I0628 15:07:57.998889  8276 net.cpp:454] P3 <- upP4crop
I0628 15:07:57.998894  8276 net.cpp:411] P3 -> P3
I0628 15:07:57.998924  8276 net.cpp:150] Setting up P3
I0628 15:07:57.998935  8276 net.cpp:157] Top shape: 1 256 75 125 (2400000)
I0628 15:07:57.998939  8276 net.cpp:165] Memory required for data: 1628147540
I0628 15:07:57.998942  8276 layer_factory.hpp:77] Creating layer upP3
I0628 15:07:57.998950  8276 net.cpp:106] Creating Layer upP3
I0628 15:07:57.998955  8276 net.cpp:454] upP3 <- P3
I0628 15:07:57.998960  8276 net.cpp:411] upP3 -> upP3
I0628 15:07:58.024962  8276 net.cpp:150] Setting up upP3
I0628 15:07:58.024984  8276 net.cpp:157] Top shape: 1 256 150 250 (9600000)
I0628 15:07:58.024988  8276 net.cpp:165] Memory required for data: 1666547540
I0628 15:07:58.024993  8276 layer_factory.hpp:77] Creating layer upP3crop
I0628 15:07:58.024999  8276 net.cpp:106] Creating Layer upP3crop
I0628 15:07:58.025003  8276 net.cpp:454] upP3crop <- upP3
I0628 15:07:58.025008  8276 net.cpp:454] upP3crop <- conv3_3_relu3_3_0_split_1
I0628 15:07:58.025013  8276 net.cpp:411] upP3crop -> upP3crop
I0628 15:07:58.025117  8276 net.cpp:150] Setting up upP3crop
I0628 15:07:58.025130  8276 net.cpp:157] Top shape: 1 256 150 250 (9600000)
I0628 15:07:58.025132  8276 net.cpp:165] Memory required for data: 1704947540
I0628 15:07:58.025135  8276 layer_factory.hpp:77] Creating layer P2
I0628 15:07:58.025141  8276 net.cpp:106] Creating Layer P2
I0628 15:07:58.025146  8276 net.cpp:454] P2 <- conv3_3_relu3_3_0_split_2
I0628 15:07:58.025149  8276 net.cpp:454] P2 <- upP3crop
I0628 15:07:58.025156  8276 net.cpp:411] P2 -> P2
I0628 15:07:58.025180  8276 net.cpp:150] Setting up P2
I0628 15:07:58.025189  8276 net.cpp:157] Top shape: 1 256 150 250 (9600000)
I0628 15:07:58.025192  8276 net.cpp:165] Memory required for data: 1743347540
I0628 15:07:58.025194  8276 layer_factory.hpp:77] Creating layer newP2
I0628 15:07:58.025204  8276 net.cpp:106] Creating Layer newP2
I0628 15:07:58.025224  8276 net.cpp:454] newP2 <- P2
I0628 15:07:58.025230  8276 net.cpp:411] newP2 -> newP2
I0628 15:07:58.031292  8276 net.cpp:150] Setting up newP2
I0628 15:07:58.031322  8276 net.cpp:157] Top shape: 1 256 150 250 (9600000)
I0628 15:07:58.031334  8276 net.cpp:165] Memory required for data: 1781747540
I0628 15:07:58.031343  8276 layer_factory.hpp:77] Creating layer newP2_newP2_0_split
I0628 15:07:58.031355  8276 net.cpp:106] Creating Layer newP2_newP2_0_split
I0628 15:07:58.031359  8276 net.cpp:454] newP2_newP2_0_split <- newP2
I0628 15:07:58.031365  8276 net.cpp:411] newP2_newP2_0_split -> newP2_newP2_0_split_0
I0628 15:07:58.031371  8276 net.cpp:411] newP2_newP2_0_split -> newP2_newP2_0_split_1
I0628 15:07:58.031428  8276 net.cpp:150] Setting up newP2_newP2_0_split
I0628 15:07:58.031440  8276 net.cpp:157] Top shape: 1 256 150 250 (9600000)
I0628 15:07:58.031445  8276 net.cpp:157] Top shape: 1 256 150 250 (9600000)
I0628 15:07:58.031448  8276 net.cpp:165] Memory required for data: 1858547540
I0628 15:07:58.031451  8276 layer_factory.hpp:77] Creating layer rpn_conv/3x3
I0628 15:07:58.031461  8276 net.cpp:106] Creating Layer rpn_conv/3x3
I0628 15:07:58.031466  8276 net.cpp:454] rpn_conv/3x3 <- newP2_newP2_0_split_0
I0628 15:07:58.031473  8276 net.cpp:411] rpn_conv/3x3 -> rpn/output
I0628 15:07:58.063732  8276 net.cpp:150] Setting up rpn_conv/3x3
I0628 15:07:58.063757  8276 net.cpp:157] Top shape: 1 512 150 250 (19200000)
I0628 15:07:58.063762  8276 net.cpp:165] Memory required for data: 1935347540
I0628 15:07:58.063769  8276 layer_factory.hpp:77] Creating layer rpn_relu/3x3
I0628 15:07:58.063779  8276 net.cpp:106] Creating Layer rpn_relu/3x3
I0628 15:07:58.063789  8276 net.cpp:454] rpn_relu/3x3 <- rpn/output
I0628 15:07:58.063794  8276 net.cpp:397] rpn_relu/3x3 -> rpn/output (in-place)
I0628 15:07:58.064021  8276 net.cpp:150] Setting up rpn_relu/3x3
I0628 15:07:58.064039  8276 net.cpp:157] Top shape: 1 512 150 250 (19200000)
I0628 15:07:58.064043  8276 net.cpp:165] Memory required for data: 2012147540
I0628 15:07:58.064046  8276 layer_factory.hpp:77] Creating layer rpn/output_rpn_relu/3x3_0_split
I0628 15:07:58.064056  8276 net.cpp:106] Creating Layer rpn/output_rpn_relu/3x3_0_split
I0628 15:07:58.064061  8276 net.cpp:454] rpn/output_rpn_relu/3x3_0_split <- rpn/output
I0628 15:07:58.064069  8276 net.cpp:411] rpn/output_rpn_relu/3x3_0_split -> rpn/output_rpn_relu/3x3_0_split_0
I0628 15:07:58.064079  8276 net.cpp:411] rpn/output_rpn_relu/3x3_0_split -> rpn/output_rpn_relu/3x3_0_split_1
I0628 15:07:58.064129  8276 net.cpp:150] Setting up rpn/output_rpn_relu/3x3_0_split
I0628 15:07:58.064141  8276 net.cpp:157] Top shape: 1 512 150 250 (19200000)
I0628 15:07:58.064146  8276 net.cpp:157] Top shape: 1 512 150 250 (19200000)
I0628 15:07:58.064147  8276 net.cpp:165] Memory required for data: 2165747540
I0628 15:07:58.064152  8276 layer_factory.hpp:77] Creating layer rpn_cls_score
I0628 15:07:58.064162  8276 net.cpp:106] Creating Layer rpn_cls_score
I0628 15:07:58.064165  8276 net.cpp:454] rpn_cls_score <- rpn/output_rpn_relu/3x3_0_split_0
I0628 15:07:58.064173  8276 net.cpp:411] rpn_cls_score -> rpn_cls_score
I0628 15:07:58.066929  8276 net.cpp:150] Setting up rpn_cls_score
I0628 15:07:58.066951  8276 net.cpp:157] Top shape: 1 18 150 250 (675000)
I0628 15:07:58.066956  8276 net.cpp:165] Memory required for data: 2168447540
I0628 15:07:58.066965  8276 layer_factory.hpp:77] Creating layer rpn_cls_score_rpn_cls_score_0_split
I0628 15:07:58.066972  8276 net.cpp:106] Creating Layer rpn_cls_score_rpn_cls_score_0_split
I0628 15:07:58.066977  8276 net.cpp:454] rpn_cls_score_rpn_cls_score_0_split <- rpn_cls_score
I0628 15:07:58.066982  8276 net.cpp:411] rpn_cls_score_rpn_cls_score_0_split -> rpn_cls_score_rpn_cls_score_0_split_0
I0628 15:07:58.066987  8276 net.cpp:411] rpn_cls_score_rpn_cls_score_0_split -> rpn_cls_score_rpn_cls_score_0_split_1
I0628 15:07:58.067041  8276 net.cpp:150] Setting up rpn_cls_score_rpn_cls_score_0_split
I0628 15:07:58.067054  8276 net.cpp:157] Top shape: 1 18 150 250 (675000)
I0628 15:07:58.067059  8276 net.cpp:157] Top shape: 1 18 150 250 (675000)
I0628 15:07:58.067061  8276 net.cpp:165] Memory required for data: 2173847540
I0628 15:07:58.067065  8276 layer_factory.hpp:77] Creating layer rpn_bbox_pred
I0628 15:07:58.067075  8276 net.cpp:106] Creating Layer rpn_bbox_pred
I0628 15:07:58.067078  8276 net.cpp:454] rpn_bbox_pred <- rpn/output_rpn_relu/3x3_0_split_1
I0628 15:07:58.067085  8276 net.cpp:411] rpn_bbox_pred -> rpn_bbox_pred
I0628 15:07:58.070683  8276 net.cpp:150] Setting up rpn_bbox_pred
I0628 15:07:58.070708  8276 net.cpp:157] Top shape: 1 36 150 250 (1350000)
I0628 15:07:58.070711  8276 net.cpp:165] Memory required for data: 2179247540
I0628 15:07:58.070719  8276 layer_factory.hpp:77] Creating layer rpn_bbox_pred_rpn_bbox_pred_0_split
I0628 15:07:58.070724  8276 net.cpp:106] Creating Layer rpn_bbox_pred_rpn_bbox_pred_0_split
I0628 15:07:58.070729  8276 net.cpp:454] rpn_bbox_pred_rpn_bbox_pred_0_split <- rpn_bbox_pred
I0628 15:07:58.070736  8276 net.cpp:411] rpn_bbox_pred_rpn_bbox_pred_0_split -> rpn_bbox_pred_rpn_bbox_pred_0_split_0
I0628 15:07:58.070746  8276 net.cpp:411] rpn_bbox_pred_rpn_bbox_pred_0_split -> rpn_bbox_pred_rpn_bbox_pred_0_split_1
I0628 15:07:58.070817  8276 net.cpp:150] Setting up rpn_bbox_pred_rpn_bbox_pred_0_split
I0628 15:07:58.070832  8276 net.cpp:157] Top shape: 1 36 150 250 (1350000)
I0628 15:07:58.070835  8276 net.cpp:157] Top shape: 1 36 150 250 (1350000)
I0628 15:07:58.070838  8276 net.cpp:165] Memory required for data: 2190047540
I0628 15:07:58.070843  8276 layer_factory.hpp:77] Creating layer rpn_cls_score_reshape
I0628 15:07:58.070855  8276 net.cpp:106] Creating Layer rpn_cls_score_reshape
I0628 15:07:58.070859  8276 net.cpp:454] rpn_cls_score_reshape <- rpn_cls_score_rpn_cls_score_0_split_0
I0628 15:07:58.070870  8276 net.cpp:411] rpn_cls_score_reshape -> rpn_cls_score_reshape
I0628 15:07:58.070906  8276 net.cpp:150] Setting up rpn_cls_score_reshape
I0628 15:07:58.070919  8276 net.cpp:157] Top shape: 1 2 1350 250 (675000)
I0628 15:07:58.070921  8276 net.cpp:165] Memory required for data: 2192747540
I0628 15:07:58.070924  8276 layer_factory.hpp:77] Creating layer rpn_cls_score_reshape_rpn_cls_score_reshape_0_split
I0628 15:07:58.070932  8276 net.cpp:106] Creating Layer rpn_cls_score_reshape_rpn_cls_score_reshape_0_split
I0628 15:07:58.070935  8276 net.cpp:454] rpn_cls_score_reshape_rpn_cls_score_reshape_0_split <- rpn_cls_score_reshape
I0628 15:07:58.070940  8276 net.cpp:411] rpn_cls_score_reshape_rpn_cls_score_reshape_0_split -> rpn_cls_score_reshape_rpn_cls_score_reshape_0_split_0
I0628 15:07:58.070945  8276 net.cpp:411] rpn_cls_score_reshape_rpn_cls_score_reshape_0_split -> rpn_cls_score_reshape_rpn_cls_score_reshape_0_split_1
I0628 15:07:58.070996  8276 net.cpp:150] Setting up rpn_cls_score_reshape_rpn_cls_score_reshape_0_split
I0628 15:07:58.071007  8276 net.cpp:157] Top shape: 1 2 1350 250 (675000)
I0628 15:07:58.071010  8276 net.cpp:157] Top shape: 1 2 1350 250 (675000)
I0628 15:07:58.071013  8276 net.cpp:165] Memory required for data: 2198147540
I0628 15:07:58.071017  8276 layer_factory.hpp:77] Creating layer rpn-data
I0628 15:07:58.071738  8276 net.cpp:106] Creating Layer rpn-data
I0628 15:07:58.071760  8276 net.cpp:454] rpn-data <- rpn_cls_score_rpn_cls_score_0_split_1
I0628 15:07:58.071768  8276 net.cpp:454] rpn-data <- gt_boxes_input-data_2_split_0
I0628 15:07:58.071771  8276 net.cpp:454] rpn-data <- im_info_input-data_1_split_0
I0628 15:07:58.071775  8276 net.cpp:454] rpn-data <- data_input-data_0_split_1
I0628 15:07:58.071780  8276 net.cpp:411] rpn-data -> rpn_labels
I0628 15:07:58.071787  8276 net.cpp:411] rpn-data -> rpn_bbox_targets
I0628 15:07:58.071794  8276 net.cpp:411] rpn-data -> rpn_bbox_inside_weights
I0628 15:07:58.071799  8276 net.cpp:411] rpn-data -> rpn_bbox_outside_weights
I0628 15:07:58.074111  8276 net.cpp:150] Setting up rpn-data
I0628 15:07:58.074137  8276 net.cpp:157] Top shape: 1 1 1350 250 (337500)
I0628 15:07:58.074143  8276 net.cpp:157] Top shape: 1 36 150 250 (1350000)
I0628 15:07:58.074146  8276 net.cpp:157] Top shape: 1 36 150 250 (1350000)
I0628 15:07:58.074151  8276 net.cpp:157] Top shape: 1 36 150 250 (1350000)
I0628 15:07:58.074153  8276 net.cpp:165] Memory required for data: 2215697540
I0628 15:07:58.074157  8276 layer_factory.hpp:77] Creating layer rpn_loss_cls
I0628 15:07:58.074179  8276 net.cpp:106] Creating Layer rpn_loss_cls
I0628 15:07:58.074189  8276 net.cpp:454] rpn_loss_cls <- rpn_cls_score_reshape_rpn_cls_score_reshape_0_split_0
I0628 15:07:58.074195  8276 net.cpp:454] rpn_loss_cls <- rpn_labels
…
I0628 15:07:58.085958  8276 net.cpp:157] Top shape: (1)
I0628 15:07:58.085963  8276 net.cpp:160]     with loss weight 1
I0628 15:07:58.085969  8276 net.cpp:165] Memory required for data: 2215697548
I0628 15:07:58.085973  8276 layer_factory.hpp:77] Creating layer rpn_cls_prob
I0628 15:07:58.085988  8276 net.cpp:106] Creating Layer rpn_cls_prob
I0628 15:07:58.085994  8276 net.cpp:454] rpn_cls_prob <- rpn_cls_score_reshape_rpn_cls_score_reshape_0_split_1
I0628 15:07:58.086000  8276 net.cpp:411] rpn_cls_prob -> rpn_cls_prob
I0628 15:07:58.086844  8276 net.cpp:150] Setting up rpn_cls_prob
I0628 15:07:58.086864  8276 net.cpp:157] Top shape: 1 2 1350 250 (675000)
I0628 15:07:58.086869  8276 net.cpp:165] Memory required for data: 2218397548
I0628 15:07:58.086872  8276 layer_factory.hpp:77] Creating layer rpn_cls_prob_reshape
I0628 15:07:58.086880  8276 net.cpp:106] Creating Layer rpn_cls_prob_reshape
I0628 15:07:58.086884  8276 net.cpp:454] rpn_cls_prob_reshape <- rpn_cls_prob
I0628 15:07:58.086891  8276 net.cpp:411] rpn_cls_prob_reshape -> rpn_cls_prob_reshape
I0628 15:07:58.086935  8276 net.cpp:150] Setting up rpn_cls_prob_reshape
I0628 15:07:58.086947  8276 net.cpp:157] Top shape: 1 18 150 250 (675000)
I0628 15:07:58.086951  8276 net.cpp:165] Memory required for data: 2221097548
I0628 15:07:58.086954  8276 layer_factory.hpp:77] Creating layer proposal
I0628 15:07:58.088064  8276 net.cpp:106] Creating Layer proposal
I0628 15:07:58.088088  8276 net.cpp:454] proposal <- rpn_cls_prob_reshape
I0628 15:07:58.088094  8276 net.cpp:454] proposal <- rpn_bbox_pred_rpn_bbox_pred_0_split_1
I0628 15:07:58.088099  8276 net.cpp:454] proposal <- im_info_input-data_1_split_1
I0628 15:07:58.088104  8276 net.cpp:411] proposal -> rpn_rois
I0628 15:07:58.088827  8276 net.cpp:150] Setting up proposal
I0628 15:07:58.088851  8276 net.cpp:157] Top shape: 1 5 (5)
I0628 15:07:58.088856  8276 net.cpp:165] Memory required for data: 2221097568
I0628 15:07:58.088860  8276 layer_factory.hpp:77] Creating layer roi-data
I0628 15:07:58.089038  8276 net.cpp:106] Creating Layer roi-data
I0628 15:07:58.089057  8276 net.cpp:454] roi-data <- rpn_rois
I0628 15:07:58.089063  8276 net.cpp:454] roi-data <- gt_boxes_input-data_2_split_1
I0628 15:07:58.089068  8276 net.cpp:411] roi-data -> rois
I0628 15:07:58.089076  8276 net.cpp:411] roi-data -> labels
I0628 15:07:58.089082  8276 net.cpp:411] roi-data -> bbox_targets
I0628 15:07:58.089092  8276 net.cpp:411] roi-data -> bbox_inside_weights
I0628 15:07:58.089098  8276 net.cpp:411] roi-data -> bbox_outside_weights
I0628 15:07:58.089486  8276 net.cpp:150] Setting up roi-data
I0628 15:07:58.089506  8276 net.cpp:157] Top shape: 1 5 (5)
I0628 15:07:58.089511  8276 net.cpp:157] Top shape: 1 1 (1)
I0628 15:07:58.089515  8276 net.cpp:157] Top shape: 1 84 (84)
I0628 15:07:58.089519  8276 net.cpp:157] Top shape: 1 84 (84)
I0628 15:07:58.089522  8276 net.cpp:157] Top shape: 1 84 (84)
I0628 15:07:58.089524  8276 net.cpp:165] Memory required for data: 2221098600
I0628 15:07:58.089529  8276 layer_factory.hpp:77] Creating layer roi_pool5
I0628 15:07:58.089541  8276 net.cpp:106] Creating Layer roi_pool5
I0628 15:07:58.089548  8276 net.cpp:454] roi_pool5 <- newP2_newP2_0_split_1
I0628 15:07:58.089553  8276 net.cpp:454] roi_pool5 <- rois
I0628 15:07:58.089557  8276 net.cpp:411] roi_pool5 -> rcnn_pool5
I0628 15:07:58.089565  8276 roi_pooling_layer.cpp:30] Spatial scale: 0.25
I0628 15:07:58.089625  8276 net.cpp:150] Setting up roi_pool5
I0628 15:07:58.089637  8276 net.cpp:157] Top shape: 1 256 7 7 (12544)
I0628 15:07:58.089640  8276 net.cpp:165] Memory required for data: 2221148776
I0628 15:07:58.089644  8276 layer_factory.hpp:77] Creating layer rcnn_fc6
I0628 15:07:58.089653  8276 net.cpp:106] Creating Layer rcnn_fc6
I0628 15:07:58.089658  8276 net.cpp:454] rcnn_fc6 <- rcnn_pool5
I0628 15:07:58.089663  8276 net.cpp:411] rcnn_fc6 -> rcnn_fc6
I0628 15:07:58.425608  8276 net.cpp:150] Setting up rcnn_fc6
I0628 15:07:58.425660  8276 net.cpp:157] Top shape: 1 4096 (4096)
I0628 15:07:58.425664  8276 net.cpp:165] Memory required for data: 2221165160
I0628 15:07:58.425676  8276 layer_factory.hpp:77] Creating layer relu6
I0628 15:07:58.425688  8276 net.cpp:106] Creating Layer relu6
I0628 15:07:58.425693  8276 net.cpp:454] relu6 <- rcnn_fc6
I0628 15:07:58.425700  8276 net.cpp:397] relu6 -> rcnn_fc6 (in-place)
I0628 15:07:58.426733  8276 net.cpp:150] Setting up relu6
I0628 15:07:58.426755  8276 net.cpp:157] Top shape: 1 4096 (4096)
I0628 15:07:58.426759  8276 net.cpp:165] Memory required for data: 2221181544
I0628 15:07:58.426762  8276 layer_factory.hpp:77] Creating layer drop6
I0628 15:07:58.426831  8276 net.cpp:106] Creating Layer drop6
I0628 15:07:58.426851  8276 net.cpp:454] drop6 <- rcnn_fc6
I0628 15:07:58.426859  8276 net.cpp:397] drop6 -> rcnn_fc6 (in-place)
I0628 15:07:58.426934  8276 net.cpp:150] Setting up drop6
I0628 15:07:58.426946  8276 net.cpp:157] Top shape: 1 4096 (4096)
I0628 15:07:58.426950  8276 net.cpp:165] Memory required for data: 2221197928
I0628 15:07:58.426954  8276 layer_factory.hpp:77] Creating layer fc7
I0628 15:07:58.426965  8276 net.cpp:106] Creating Layer fc7
I0628 15:07:58.426969  8276 net.cpp:454] fc7 <- rcnn_fc6
I0628 15:07:58.426975  8276 net.cpp:411] fc7 -> fc7
I0628 15:07:58.537883  8276 net.cpp:150] Setting up fc7
I0628 15:07:58.537935  8276 net.cpp:157] Top shape: 1 4096 (4096)
I0628 15:07:58.537940  8276 net.cpp:165] Memory required for data: 2221214312
I0628 15:07:58.537951  8276 layer_factory.hpp:77] Creating layer relu7
I0628 15:07:58.537966  8276 net.cpp:106] Creating Layer relu7
I0628 15:07:58.537971  8276 net.cpp:454] relu7 <- fc7
I0628 15:07:58.537979  8276 net.cpp:397] relu7 -> fc7 (in-place)
I0628 15:07:58.538255  8276 net.cpp:150] Setting up relu7
I0628 15:07:58.538271  8276 net.cpp:157] Top shape: 1 4096 (4096)
I0628 15:07:58.538275  8276 net.cpp:165] Memory required for data: 2221230696
I0628 15:07:58.538280  8276 layer_factory.hpp:77] Creating layer drop7
I0628 15:07:58.538291  8276 net.cpp:106] Creating Layer drop7
I0628 15:07:58.538295  8276 net.cpp:454] drop7 <- fc7
I0628 15:07:58.538301  8276 net.cpp:397] drop7 -> fc7 (in-place)
I0628 15:07:58.538336  8276 net.cpp:150] Setting up drop7
I0628 15:07:58.538341  8276 net.cpp:157] Top shape: 1 4096 (4096)
I0628 15:07:58.538343  8276 net.cpp:165] Memory required for data: 2221247080
I0628 15:07:58.538347  8276 layer_factory.hpp:77] Creating layer fc7_drop7_0_split
I0628 15:07:58.538352  8276 net.cpp:106] Creating Layer fc7_drop7_0_split
I0628 15:07:58.538355  8276 net.cpp:454] fc7_drop7_0_split <- fc7
I0628 15:07:58.538362  8276 net.cpp:411] fc7_drop7_0_split -> fc7_drop7_0_split_0
I0628 15:07:58.538367  8276 net.cpp:411] fc7_drop7_0_split -> fc7_drop7_0_split_1
I0628 15:07:58.538414  8276 net.cpp:150] Setting up fc7_drop7_0_split
I0628 15:07:58.538424  8276 net.cpp:157] Top shape: 1 4096 (4096)
I0628 15:07:58.538429  8276 net.cpp:157] Top shape: 1 4096 (4096)
I0628 15:07:58.538431  8276 net.cpp:165] Memory required for data: 2221279848
I0628 15:07:58.538436  8276 layer_factory.hpp:77] Creating layer cls_score
I0628 15:07:58.538445  8276 net.cpp:106] Creating Layer cls_score
I0628 15:07:58.538450  8276 net.cpp:454] cls_score <- fc7_drop7_0_split_0
I0628 15:07:58.538455  8276 net.cpp:411] cls_score -> cls_score
I0628 15:07:58.540662  8276 net.cpp:150] Setting up cls_score
I0628 15:07:58.540678  8276 net.cpp:157] Top shape: 1 21 (21)
I0628 15:07:58.540681  8276 net.cpp:165] Memory required for data: 2221279932
I0628 15:07:58.540688  8276 layer_factory.hpp:77] Creating layer bbox_pred
I0628 15:07:58.540693  8276 net.cpp:106] Creating Layer bbox_pred
I0628 15:07:58.540697  8276 net.cpp:454] bbox_pred <- fc7_drop7_0_split_1
I0628 15:07:58.540705  8276 net.cpp:411] bbox_pred -> bbox_pred
I0628 15:07:58.549816  8276 net.cpp:150] Setting up bbox_pred
I0628 15:07:58.549839  8276 net.cpp:157] Top shape: 1 84 (84)
I0628 15:07:58.549841  8276 net.cpp:165] Memory required for data: 2221280268
I0628 15:07:58.549849  8276 layer_factory.hpp:77] Creating layer loss_cls
I0628 15:07:58.549857  8276 net.cpp:106] Creating Layer loss_cls
I0628 15:07:58.549861  8276 net.cpp:454] loss_cls <- cls_score
I0628 15:07:58.549866  8276 net.cpp:454] loss_cls <- labels
I0628 15:07:58.549871  8276 net.cpp:411] loss_cls -> loss_cls
…
