…
stepsize: 50000
snapshot: 0
snapshot_prefix: "fpn"
average_loss: 100
iter_size: 2
I0629 13:40:22.505525 12098 solver.cpp:81] Creating training net from train_net file: models/pascal_voc/VGG16/FP_Net_end2end/train.prototxt
I0629 13:40:22.507037 12098 net.cpp:49] Initializing net from parameters: 
name: "VGG_ILSVRC_16_layers"
state {
  phase: TRAIN
}
layer {
  name: "input-data"
  type: "Python"
  top: "data"
  top: "im_info"
  top: "gt_boxes"
  python_param {
    module: "roi_data_layer.layer"
    layer: "RoIDataLayer"
    param_str: "\'num_classes\': 21"
  }
}
layer {
  name: "conv1_1"
  type: "Convolution"
  bottom: "data"
  top: "conv1_1"
  param {
    lr_mult: 0
    decay_mult: 0
  }
  param {
    lr_mult: 0
    decay_mult: 0
  }
  convolution_param {
    num_output: 64
    pad: 1
    kernel_size: 3
  }
}
layer {
  name: "relu1_1"
  type: "ReLU"
  bottom: "conv1_1"
  top: "conv1_1"
}
layer {
  name: "conv1_2"
  type: "Convolution"
  bottom: "conv1_1"
  top: "conv1_2"
  param {
    lr_mult: 0
    decay_mult: 0
  }
  param {
    lr_mult: 0
    decay_mult: 0
  }
  convolution_param {
    num_output: 64
    pad: 1
    kernel_size: 3
  }
}
layer {
  name: "relu1_2"
  type: "ReLU"
  bottom: "conv1_2"
  top: "conv1_2"
}
layer {
  name: "pool1"
  type: "Pooling"
  bottom: "conv1_2"
  top: "pool1"
  pooling_param {
    pool: MAX
    kernel_size: 2
    stride: 2
  }
}
layer {
  name: "conv2_1"
  type: "Convolution"
  bottom: "pool1"
  top: "conv2_1"
  param {
    lr_mult: 0
    decay_mult: 0
  }
  param {
    lr_mult: 0
    decay_mult: 0
  }
  convolution_param {
    num_output: 128
    pad: 1
    kernel_size: 3
  }
}
layer {
  name: "relu2_1"
  type: "ReLU"
  bottom: "conv2_1"
  top: "conv2_1"
}
layer {
  name: "conv2_2"
  type: "Convolution"
  bottom: "conv2_1"
  top: "conv2_2"
  param {
    lr_mult: 0
    decay_mult: 0
  }
  param {
    lr_mult: 0
    decay_mult: 0
  }
  convolution_param {
    num_output: 128
    pad: 1
    kernel_size: 3
  }
}
layer {
  name: "relu2_2"
  type: "ReLU"
  bottom: "conv2_2"
  top: "conv2_2"
}
layer {
  name: "pool2"
  type: "Pooling"
  bottom: "conv2_2"
  top: "pool2"
  pooling_param {
    pool: MAX
    kernel_size: 2
    stride: 2
  }
}
layer {
  name: "conv3_1"
  type: "Convolution"
  bottom: "pool2"
  top: "conv3_1"
  param {
    lr_mult: 1
  }
  param {
    lr_mult: 2
  }
  convolution_param {
    num_output: 256
    pad: 1
    kernel_size: 3
  }
}
layer {
  name: "relu3_1"
  type: "ReLU"
  bottom: "conv3_1"
  top: "conv3_1"
}
layer {
  name: "conv3_2"
  type: "Convolution"
  bottom: "conv3_1"
  top: "conv3_2"
  param {
    lr_mult: 1
  }
  param {
    lr_mult: 2
  }
  convolution_param {
    num_output: 256
    pad: 1
    kernel_size: 3
  }
}
layer {
  name: "relu3_2"
  type: "ReLU"
  bottom: "conv3_2"
  top: "conv3_2"
}
layer {
  name: "conv3_3"
  type: "Convolution"
  bottom: "conv3_2"
  top: "conv3_3"
  param {
    lr_mult: 1
  }
  param {
    lr_mult: 2
  }
  convolution_param {
    num_output: 256
    pad: 1
    kernel_size: 3
  }
}
layer {
  name: "relu3_3"
  type: "ReLU"
  bottom: "conv3_3"
  top: "conv3_3"
}
layer {
  name: "pool3"
  type: "Pooling"
  bottom: "conv3_3"
  top: "pool3"
  pooling_param {
    pool: MAX
    kernel_size: 2
    stride: 2
  }
}
layer {
  name: "conv4_1"
  type: "Convolution"
  bottom: "pool3"
  top: "conv4_1"
  param {
    lr_mult: 1
  }
  param {
    lr_mult: 2
  }
  convolution_param {
    num_output: 512
    pad: 1
    kernel_size: 3
  }
}
layer {
  name: "relu4_1"
  type: "ReLU"
  bottom: "conv4_1"
  top: "conv4_1"
}
layer {
  name: "conv4_2"
  type: "Convolution"
  bottom: "conv4_1"
  top: "conv4_2"
  param {
    lr_mult: 1
  }
  param {
    lr_mult: 2
  }
  convolution_param {
    num_output: 512
    pad: 1
    kernel_size: 3
  }
}
layer {
  name: "relu4_2"
  type: "ReLU"
  bottom: "conv4_2"
  top: "conv4_2"
}
layer {
  name: "conv4_3"
  type: "Convolution"
  bottom: "conv4_2"
  top: "conv4_3"
  param {
    lr_mult: 1
  }
  param {
    lr_mult: 2
  }
  convolution_param {
    num_output: 512
    pad: 1
    kernel_size: 3
  }
}
layer {
  name: "relu4_3"
  type: "ReLU"
  bottom: "conv4_3"
  top: "conv4_3"
}
layer {
  name: "pool4"
  type: "Pooling"
  bottom: "conv4_3"
  top: "pool4"
  pooling_param {
    pool: MAX
    kernel_size: 2
    stride: 2
  }
}
layer {
  name: "conv5_1"
  type: "Convolution"
  bottom: "pool4"
  top: "conv5_1"
  param {
    lr_mult: 1
  }
  param {
    lr_mult: 2
  }
  convolution_param {
    num_output: 512
    pad: 1
    kernel_size: 3
  }
}
layer {
  name: "relu5_1"
  type: "ReLU"
  bottom: "conv5_1"
  top: "conv5_1"
}
layer {
  name: "conv5_2"
  type: "Convolution"
  bottom: "conv5_1"
  top: "conv5_2"
  param {
    lr_mult: 1
  }
  param {
    lr_mult: 2
  }
  convolution_param {
    num_output: 512
    pad: 1
    kernel_size: 3
  }
}
layer {
  name: "relu5_2"
  type: "ReLU"
  bottom: "conv5_2"
  top: "conv5_2"
}
layer {
  name: "conv5_3"
  type: "Convolution"
  bottom: "conv5_2"
  top: "conv5_3"
  param {
    lr_mult: 1
  }
  param {
    lr_mult: 2
  }
  convolution_param {
    num_output: 512
    pad: 1
    kernel_size: 3
  }
}
layer {
  name: "relu5_3"
  type: "ReLU"
  bottom: "conv5_3"
  top: "conv5_3"
}
layer {
  name: "newC4"
  type: "Convolution"
  bottom: "conv5_3"
  top: "newC4"
  param {
    lr_mult: 1
  }
  param {
    lr_mult: 2
  }
  convolution_param {
    num_output: 256
    kernel_size: 1
    weight_filler {
      type: "xavier"
    }
    bias_filler {
      type: "constant"
    }
  }
}
layer {
  name: "upP4"
  type: "Deconvolution"
  bottom: "newC4"
  top: "upP4"
  param {
    lr_mult: 0
    decay_mult: 0
  }
  convolution_param {
    num_output: 256
    bias_term: false
    pad: 1
    kernel_size: 4
    stride: 2
    weight_filler {
      type: "bilinear"
    }
  }
}
layer {
  name: "newC3"
  type: "Convolution"
  bottom: "conv4_3"
  top: "newC3"
  param {
    lr_mult: 1
  }
  param {
    lr_mult: 2
  }
  convolution_param {
    num_output: 256
    kernel_size: 1
    weight_filler {
      type: "xavier"
    }
    bias_filler {
      type: "constant"
    }
  }
}
layer {
  name: "upP4crop"
  type: "Crop"
  bottom: "upP4"
  bottom: "newC3"
  top: "upP4crop"
  crop_param {
    axis: 2
    offset: 0
  }
}
layer {
  name: "P3"
  type: "Eltwise"
  bottom: "newC3"
  bottom: "upP4crop"
  top: "P3"
  eltwise_param {
    operation: SUM
  }
}
layer {
  name: "newP3"
  type: "Convolution"
  bottom: "P3"
  top: "newP3"
  param {
    lr_mult: 1
  }
  param {
    lr_mult: 2
  }
  convolution_param {
    num_output: 256
    pad: 1
    kernel_size: 3
    weight_filler {
      type: "xavier"
    }
    bias_filler {
      type: "constant"
    }
  }
}
layer {
  name: "rpn_conv/3x3"
  type: "Convolution"
  bottom: "newP3"
  top: "rpn/output"
  param {
    lr_mult: 1
  }
  param {
    lr_mult: 2
  }
  convolution_param {
    num_output: 512
    pad: 1
    kernel_size: 3
    stride: 1
    weight_filler {
      type: "gaussian"
      std: 0.01
    }
    bias_filler {
      type: "constant"
      value: 0
    }
  }
}
layer {
  name: "rpn_relu/3x3"
  type: "ReLU"
  bottom: "rpn/output"
  top: "rpn/output"
}
layer {
  name: "rpn_cls_score"
  type: "Convolution"
  bottom: "rpn/output"
  top: "rpn_cls_score"
  param {
    lr_mult: 1
  }
  param {
    lr_mult: 2
  }
  convolution_param {
    num_output: 18
    pad: 0
    kernel_size: 1
    stride: 1
    weight_filler {
      type: "gaussian"
      std: 0.01
    }
    bias_filler {
      type: "constant"
      value: 0
    }
  }
}
layer {
  name: "rpn_bbox_pred"
  type: "Convolution"
  bottom: "rpn/output"
  top: "rpn_bbox_pred"
  param {
    lr_mult: 1
  }
  param {
    lr_mult: 2
  }
  convolution_param {
    num_output: 36
    pad: 0
    kernel_size: 1
    stride: 1
    weight_filler {
      type: "gaussian"
      std: 0.01
    }
    bias_filler {
      type: "constant"
      value: 0
    }
  }
}
layer {
  name: "rpn_cls_score_reshape"
  type: "Reshape"
  bottom: "rpn_cls_score"
  top: "rpn_cls_score_reshape"
  reshape_param {
    shape {
      dim: 0
      dim: 2
      dim: -1
      dim: 0
    }
  }
}
layer {
  name: "rpn-data"
  type: "Python"
  bottom: "rpn_cls_score"
  bottom: "gt_boxes"
  bottom: "im_info"
  bottom: "data"
  top: "rpn_labels"
  top: "rpn_bbox_targets"
  top: "rpn_bbox_inside_weights"
  top: "rpn_bbox_outside_weights"
  python_param {
    module: "rpn.anchor_target_layer"
    layer: "AnchorTargetLayer"
    param_str: "\'feat_stride\': 16"
  }
}
layer {
  name: "rpn_loss_cls"
  type: "SoftmaxWithLoss"
  bottom: "rpn_cls_score_reshape"
  bottom: "rpn_labels"
  top: "rpn_cls_loss"
  loss_weight: 1
  propagate_down: true
  propagate_down: false
  loss_param {
    ignore_label: -1
    normalize: true
  }
}
layer {
  name: "rpn_loss_bbox"
  type: "SmoothL1Loss"
  bottom: "rpn_bbox_pred"
  bottom: "rpn_bbox_targets"
  bottom: "rpn_bbox_inside_weights"
  bottom: "rpn_bbox_outside_weights"
  top: "rpn_loss_bbox"
  loss_weight: 1
  smooth_l1_loss_param {
    sigma: 3
  }
}
layer {
  name: "rpn_cls_prob"
  type: "Softmax"
  bottom: "rpn_cls_score_reshape"
  top: "rpn_cls_prob"
}
layer {
  name: "rpn_cls_prob_reshape"
  type: "Reshape"
  bottom: "rpn_cls_prob"
  top: "rpn_cls_prob_reshape"
  reshape_param {
    shape {
      dim: 0
      dim: 18
      dim: -1
      dim: 0
    }
  }
}
layer {
  name: "proposal"
  type: "Python"
  bottom: "rpn_cls_prob_reshape"
  bottom: "rpn_bbox_pred"
  bottom: "im_info"
  top: "rpn_rois"
  python_param {
    module: "rpn.proposal_layer"
    layer: "ProposalLayer"
    param_str: "\'feat_stride\': 16"
  }
}
layer {
  name: "roi-data"
  type: "Python"
  bottom: "rpn_rois"
  bottom: "gt_boxes"
  top: "rois"
  top: "labels"
  top: "bbox_targets"
  top: "bbox_inside_weights"
  top: "bbox_outside_weights"
  python_param {
    module: "rpn.proposal_target_layer"
    layer: "ProposalTargetLayer"
    param_str: "\'num_classes\': 21"
  }
}
layer {
  name: "roi_pool5"
  type: "ROIPooling"
  bottom: "newP3"
  bottom: "rois"
  top: "rcnn_pool5"
  roi_pooling_param {
    pooled_h: 7
    pooled_w: 7
    spatial_scale: 0.0625
  }
}
layer {
  name: "rcnn_fc6"
  type: "InnerProduct"
  bottom: "rcnn_pool5"
  top: "rcnn_fc6"
  param {
    lr_mult: 1
  }
  param {
    lr_mult: 2
  }
  inner_product_param {
    num_output: 4096
    weight_filler {
      type: "xavier"
    }
    bias_filler {
      type: "constant"
    }
  }
}
layer {
  name: "relu6"
  type: "ReLU"
  bottom: "rcnn_fc6"
  top: "rcnn_fc6"
}
layer {
  name: "drop6"
  type: "Dropout"
  bottom: "rcnn_fc6"
  top: "rcnn_fc6"
  dropout_param {
    dropout_ratio: 0.5
  }
}
layer {
  name: "fc7"
  type: "InnerProduct"
  bottom: "rcnn_fc6"
  top: "fc7"
  param {
    lr_mult: 1
  }
  param {
    lr_mult: 2
  }
  inner_product_param {
    num_output: 4096
    weight_filler {
      type: "xavier"
    }
    bias_filler {
      type: "constant"
    }
  }
}
layer {
  name: "relu7"
  type: "ReLU"
  bottom: "fc7"
  top: "fc7"
}
layer {
  name: "drop7"
  type: "Dropout"
  bottom: "fc7"
  top: "fc7"
  dropout_param {
    dropout_ratio: 0.5
  }
}
layer {
  name: "cls_score"
  type: "InnerProduct"
  bottom: "fc7"
  top: "cls_score"
  param {
    lr_mult: 1
  }
  param {
    lr_mult: 2
  }
  inner_product_param {
    num_output: 21
    weight_filler {
      type: "gaussian"
      std: 0.01
    }
    bias_filler {
      type: "constant"
      value: 0
    }
  }
}
layer {
  name: "bbox_pred"
  type: "InnerProduct"
  bottom: "fc7"
  top: "bbox_pred"
  param {
    lr_mult: 1
  }
  param {
    lr_mult: 2
  }
  inner_product_param {
    num_output: 84
    weight_filler {
      type: "gaussian"
      std: 0.001
    }
    bias_filler {
      type: "constant"
      value: 0
    }
  }
}
layer {
  name: "loss_cls"
  type: "SoftmaxWithLoss"
  bottom: "cls_score"
  bottom: "labels"
  top: "loss_cls"
  loss_weight: 1
  propagate_down: true
  propagate_down: false
}
layer {
  name: "loss_bbox"
  type: "SmoothL1Loss"
  bottom: "bbox_pred"
  bottom: "bbox_targets"
  bottom: "bbox_inside_weights"
  bottom: "bbox_outside_weights"
  top: "loss_bbox"
  loss_weight: 1
}
I0629 13:40:22.507354 12098 layer_factory.hpp:77] Creating layer input-data
I0629 13:40:22.508754 12098 net.cpp:106] Creating Layer input-data
I0629 13:40:22.508771 12098 net.cpp:411] input-data -> data
I0629 13:40:22.508787 12098 net.cpp:411] input-data -> im_info
I0629 13:40:22.508793 12098 net.cpp:411] input-data -> gt_boxes
RoiDataLayer: name_to_top: {'gt_boxes': 2, 'data': 0, 'im_info': 1}
I0629 13:40:22.524036 12098 net.cpp:150] Setting up input-data
I0629 13:40:22.524065 12098 net.cpp:157] Top shape: 1 3 800 2000 (4800000)
I0629 13:40:22.524070 12098 net.cpp:157] Top shape: 1 3 (3)
I0629 13:40:22.524075 12098 net.cpp:157] Top shape: 1 4 (4)
I0629 13:40:22.524077 12098 net.cpp:165] Memory required for data: 19200028
I0629 13:40:22.524083 12098 layer_factory.hpp:77] Creating layer data_input-data_0_split
I0629 13:40:22.524096 12098 net.cpp:106] Creating Layer data_input-data_0_split
I0629 13:40:22.524111 12098 net.cpp:454] data_input-data_0_split <- data
I0629 13:40:22.524121 12098 net.cpp:411] data_input-data_0_split -> data_input-data_0_split_0
I0629 13:40:22.524137 12098 net.cpp:411] data_input-data_0_split -> data_input-data_0_split_1
I0629 13:40:22.524173 12098 net.cpp:150] Setting up data_input-data_0_split
I0629 13:40:22.524185 12098 net.cpp:157] Top shape: 1 3 800 2000 (4800000)
I0629 13:40:22.524190 12098 net.cpp:157] Top shape: 1 3 800 2000 (4800000)
I0629 13:40:22.524194 12098 net.cpp:165] Memory required for data: 57600028
I0629 13:40:22.524196 12098 layer_factory.hpp:77] Creating layer im_info_input-data_1_split
I0629 13:40:22.524204 12098 net.cpp:106] Creating Layer im_info_input-data_1_split
I0629 13:40:22.524207 12098 net.cpp:454] im_info_input-data_1_split <- im_info
I0629 13:40:22.524212 12098 net.cpp:411] im_info_input-data_1_split -> im_info_input-data_1_split_0
I0629 13:40:22.524217 12098 net.cpp:411] im_info_input-data_1_split -> im_info_input-data_1_split_1
I0629 13:40:22.524246 12098 net.cpp:150] Setting up im_info_input-data_1_split
I0629 13:40:22.524257 12098 net.cpp:157] Top shape: 1 3 (3)
I0629 13:40:22.524261 12098 net.cpp:157] Top shape: 1 3 (3)
I0629 13:40:22.524265 12098 net.cpp:165] Memory required for data: 57600052
I0629 13:40:22.524267 12098 layer_factory.hpp:77] Creating layer gt_boxes_input-data_2_split
I0629 13:40:22.524272 12098 net.cpp:106] Creating Layer gt_boxes_input-data_2_split
I0629 13:40:22.524276 12098 net.cpp:454] gt_boxes_input-data_2_split <- gt_boxes
I0629 13:40:22.524279 12098 net.cpp:411] gt_boxes_input-data_2_split -> gt_boxes_input-data_2_split_0
I0629 13:40:22.524286 12098 net.cpp:411] gt_boxes_input-data_2_split -> gt_boxes_input-data_2_split_1
I0629 13:40:22.524313 12098 net.cpp:150] Setting up gt_boxes_input-data_2_split
I0629 13:40:22.524324 12098 net.cpp:157] Top shape: 1 4 (4)
I0629 13:40:22.524328 12098 net.cpp:157] Top shape: 1 4 (4)
I0629 13:40:22.524332 12098 net.cpp:165] Memory required for data: 57600084
I0629 13:40:22.524334 12098 layer_factory.hpp:77] Creating layer conv1_1
I0629 13:40:22.524353 12098 net.cpp:106] Creating Layer conv1_1
I0629 13:40:22.524363 12098 net.cpp:454] conv1_1 <- data_input-data_0_split_0
I0629 13:40:22.524369 12098 net.cpp:411] conv1_1 -> conv1_1
I0629 13:40:22.810572 12098 net.cpp:150] Setting up conv1_1
I0629 13:40:22.810623 12098 net.cpp:157] Top shape: 1 64 800 2000 (102400000)
I0629 13:40:22.810628 12098 net.cpp:165] Memory required for data: 467200084
I0629 13:40:22.810650 12098 layer_factory.hpp:77] Creating layer relu1_1
I0629 13:40:22.810664 12098 net.cpp:106] Creating Layer relu1_1
I0629 13:40:22.810670 12098 net.cpp:454] relu1_1 <- conv1_1
I0629 13:40:22.810678 12098 net.cpp:397] relu1_1 -> conv1_1 (in-place)
I0629 13:40:22.811424 12098 net.cpp:150] Setting up relu1_1
I0629 13:40:22.811446 12098 net.cpp:157] Top shape: 1 64 800 2000 (102400000)
I0629 13:40:22.811451 12098 net.cpp:165] Memory required for data: 876800084
I0629 13:40:22.811455 12098 layer_factory.hpp:77] Creating layer conv1_2
I0629 13:40:22.811467 12098 net.cpp:106] Creating Layer conv1_2
I0629 13:40:22.811471 12098 net.cpp:454] conv1_2 <- conv1_1
I0629 13:40:22.811478 12098 net.cpp:411] conv1_2 -> conv1_2
I0629 13:40:22.817775 12098 net.cpp:150] Setting up conv1_2
I0629 13:40:22.817803 12098 net.cpp:157] Top shape: 1 64 800 2000 (102400000)
I0629 13:40:22.817808 12098 net.cpp:165] Memory required for data: 1286400084
I0629 13:40:22.817819 12098 layer_factory.hpp:77] Creating layer relu1_2
I0629 13:40:22.817844 12098 net.cpp:106] Creating Layer relu1_2
I0629 13:40:22.817852 12098 net.cpp:454] relu1_2 <- conv1_2
I0629 13:40:22.817860 12098 net.cpp:397] relu1_2 -> conv1_2 (in-place)
I0629 13:40:22.818084 12098 net.cpp:150] Setting up relu1_2
I0629 13:40:22.818102 12098 net.cpp:157] Top shape: 1 64 800 2000 (102400000)
I0629 13:40:22.818106 12098 net.cpp:165] Memory required for data: 1696000084
I0629 13:40:22.818110 12098 layer_factory.hpp:77] Creating layer pool1
I0629 13:40:22.818126 12098 net.cpp:106] Creating Layer pool1
I0629 13:40:22.818142 12098 net.cpp:454] pool1 <- conv1_2
I0629 13:40:22.818152 12098 net.cpp:411] pool1 -> pool1
I0629 13:40:22.818241 12098 net.cpp:150] Setting up pool1
I0629 13:40:22.818256 12098 net.cpp:157] Top shape: 1 64 400 1000 (25600000)
I0629 13:40:22.818259 12098 net.cpp:165] Memory required for data: 1798400084
I0629 13:40:22.818264 12098 layer_factory.hpp:77] Creating layer conv2_1
I0629 13:40:22.818274 12098 net.cpp:106] Creating Layer conv2_1
I0629 13:40:22.818277 12098 net.cpp:454] conv2_1 <- pool1
I0629 13:40:22.818284 12098 net.cpp:411] conv2_1 -> conv2_1
I0629 13:40:22.822124 12098 net.cpp:150] Setting up conv2_1
I0629 13:40:22.822149 12098 net.cpp:157] Top shape: 1 128 400 1000 (51200000)
I0629 13:40:22.822154 12098 net.cpp:165] Memory required for data: 2003200084
I0629 13:40:22.822166 12098 layer_factory.hpp:77] Creating layer relu2_1
I0629 13:40:22.822175 12098 net.cpp:106] Creating Layer relu2_1
I0629 13:40:22.822180 12098 net.cpp:454] relu2_1 <- conv2_1
I0629 13:40:22.822185 12098 net.cpp:397] relu2_1 -> conv2_1 (in-place)
I0629 13:40:22.822398 12098 net.cpp:150] Setting up relu2_1
I0629 13:40:22.822419 12098 net.cpp:157] Top shape: 1 128 400 1000 (51200000)
I0629 13:40:22.822424 12098 net.cpp:165] Memory required for data: 2208000084
I0629 13:40:22.822428 12098 layer_factory.hpp:77] Creating layer conv2_2
I0629 13:40:22.822437 12098 net.cpp:106] Creating Layer conv2_2
I0629 13:40:22.822440 12098 net.cpp:454] conv2_2 <- conv2_1
I0629 13:40:22.822459 12098 net.cpp:411] conv2_2 -> conv2_2
I0629 13:40:22.825760 12098 net.cpp:150] Setting up conv2_2
I0629 13:40:22.825786 12098 net.cpp:157] Top shape: 1 128 400 1000 (51200000)
I0629 13:40:22.825791 12098 net.cpp:165] Memory required for data: 2412800084
I0629 13:40:22.825799 12098 layer_factory.hpp:77] Creating layer relu2_2
I0629 13:40:22.825806 12098 net.cpp:106] Creating Layer relu2_2
I0629 13:40:22.825810 12098 net.cpp:454] relu2_2 <- conv2_2
I0629 13:40:22.825815 12098 net.cpp:397] relu2_2 -> conv2_2 (in-place)
I0629 13:40:22.826607 12098 net.cpp:150] Setting up relu2_2
I0629 13:40:22.826628 12098 net.cpp:157] Top shape: 1 128 400 1000 (51200000)
I0629 13:40:22.826632 12098 net.cpp:165] Memory required for data: 2617600084
I0629 13:40:22.826637 12098 layer_factory.hpp:77] Creating layer pool2
I0629 13:40:22.826645 12098 net.cpp:106] Creating Layer pool2
I0629 13:40:22.826649 12098 net.cpp:454] pool2 <- conv2_2
I0629 13:40:22.826654 12098 net.cpp:411] pool2 -> pool2
I0629 13:40:22.826723 12098 net.cpp:150] Setting up pool2
I0629 13:40:22.826743 12098 net.cpp:157] Top shape: 1 128 200 500 (12800000)
I0629 13:40:22.826747 12098 net.cpp:165] Memory required for data: 2668800084
I0629 13:40:22.826750 12098 layer_factory.hpp:77] Creating layer conv3_1
I0629 13:40:22.826761 12098 net.cpp:106] Creating Layer conv3_1
I0629 13:40:22.826789 12098 net.cpp:454] conv3_1 <- pool2
I0629 13:40:22.826802 12098 net.cpp:411] conv3_1 -> conv3_1
I0629 13:40:22.830358 12098 net.cpp:150] Setting up conv3_1
I0629 13:40:22.830382 12098 net.cpp:157] Top shape: 1 256 200 500 (25600000)
I0629 13:40:22.830387 12098 net.cpp:165] Memory required for data: 2771200084
I0629 13:40:22.830397 12098 layer_factory.hpp:77] Creating layer relu3_1
I0629 13:40:22.830410 12098 net.cpp:106] Creating Layer relu3_1
I0629 13:40:22.830415 12098 net.cpp:454] relu3_1 <- conv3_1
I0629 13:40:22.830420 12098 net.cpp:397] relu3_1 -> conv3_1 (in-place)
I0629 13:40:22.830627 12098 net.cpp:150] Setting up relu3_1
I0629 13:40:22.830643 12098 net.cpp:157] Top shape: 1 256 200 500 (25600000)
I0629 13:40:22.830647 12098 net.cpp:165] Memory required for data: 2873600084
I0629 13:40:22.830651 12098 layer_factory.hpp:77] Creating layer conv3_2
I0629 13:40:22.830665 12098 net.cpp:106] Creating Layer conv3_2
I0629 13:40:22.830672 12098 net.cpp:454] conv3_2 <- conv3_1
I0629 13:40:22.830677 12098 net.cpp:411] conv3_2 -> conv3_2
I0629 13:40:22.834363 12098 net.cpp:150] Setting up conv3_2
I0629 13:40:22.834388 12098 net.cpp:157] Top shape: 1 256 200 500 (25600000)
I0629 13:40:22.834393 12098 net.cpp:165] Memory required for data: 2976000084
I0629 13:40:22.834400 12098 layer_factory.hpp:77] Creating layer relu3_2
I0629 13:40:22.834409 12098 net.cpp:106] Creating Layer relu3_2
I0629 13:40:22.834417 12098 net.cpp:454] relu3_2 <- conv3_2
I0629 13:40:22.834422 12098 net.cpp:397] relu3_2 -> conv3_2 (in-place)
I0629 13:40:22.834619 12098 net.cpp:150] Setting up relu3_2
I0629 13:40:22.834635 12098 net.cpp:157] Top shape: 1 256 200 500 (25600000)
I0629 13:40:22.834638 12098 net.cpp:165] Memory required for data: 3078400084
I0629 13:40:22.834642 12098 layer_factory.hpp:77] Creating layer conv3_3
I0629 13:40:22.834652 12098 net.cpp:106] Creating Layer conv3_3
I0629 13:40:22.834656 12098 net.cpp:454] conv3_3 <- conv3_2
I0629 13:40:22.834664 12098 net.cpp:411] conv3_3 -> conv3_3
I0629 13:40:22.838872 12098 net.cpp:150] Setting up conv3_3
I0629 13:40:22.838898 12098 net.cpp:157] Top shape: 1 256 200 500 (25600000)
I0629 13:40:22.838902 12098 net.cpp:165] Memory required for data: 3180800084
I0629 13:40:22.838910 12098 layer_factory.hpp:77] Creating layer relu3_3
I0629 13:40:22.838917 12098 net.cpp:106] Creating Layer relu3_3
I0629 13:40:22.838927 12098 net.cpp:454] relu3_3 <- conv3_3
I0629 13:40:22.838933 12098 net.cpp:397] relu3_3 -> conv3_3 (in-place)
I0629 13:40:22.839658 12098 net.cpp:150] Setting up relu3_3
I0629 13:40:22.839679 12098 net.cpp:157] Top shape: 1 256 200 500 (25600000)
I0629 13:40:22.839682 12098 net.cpp:165] Memory required for data: 3283200084
I0629 13:40:22.839686 12098 layer_factory.hpp:77] Creating layer pool3
I0629 13:40:22.839695 12098 net.cpp:106] Creating Layer pool3
I0629 13:40:22.839699 12098 net.cpp:454] pool3 <- conv3_3
I0629 13:40:22.839704 12098 net.cpp:411] pool3 -> pool3
I0629 13:40:22.839759 12098 net.cpp:150] Setting up pool3
I0629 13:40:22.839772 12098 net.cpp:157] Top shape: 1 256 100 250 (6400000)
I0629 13:40:22.839776 12098 net.cpp:165] Memory required for data: 3308800084
I0629 13:40:22.839779 12098 layer_factory.hpp:77] Creating layer conv4_1
I0629 13:40:22.839788 12098 net.cpp:106] Creating Layer conv4_1
I0629 13:40:22.839792 12098 net.cpp:454] conv4_1 <- pool3
I0629 13:40:22.839797 12098 net.cpp:411] conv4_1 -> conv4_1
I0629 13:40:22.845288 12098 net.cpp:150] Setting up conv4_1
I0629 13:40:22.845314 12098 net.cpp:157] Top shape: 1 512 100 250 (12800000)
I0629 13:40:22.845319 12098 net.cpp:165] Memory required for data: 3360000084
I0629 13:40:22.845326 12098 layer_factory.hpp:77] Creating layer relu4_1
I0629 13:40:22.845332 12098 net.cpp:106] Creating Layer relu4_1
I0629 13:40:22.845336 12098 net.cpp:454] relu4_1 <- conv4_1
I0629 13:40:22.845342 12098 net.cpp:397] relu4_1 -> conv4_1 (in-place)
I0629 13:40:22.846071 12098 net.cpp:150] Setting up relu4_1
I0629 13:40:22.846091 12098 net.cpp:157] Top shape: 1 512 100 250 (12800000)
I0629 13:40:22.846096 12098 net.cpp:165] Memory required for data: 3411200084
I0629 13:40:22.846099 12098 layer_factory.hpp:77] Creating layer conv4_2
I0629 13:40:22.846112 12098 net.cpp:106] Creating Layer conv4_2
I0629 13:40:22.846129 12098 net.cpp:454] conv4_2 <- conv4_1
I0629 13:40:22.846137 12098 net.cpp:411] conv4_2 -> conv4_2
I0629 13:40:22.853273 12098 net.cpp:150] Setting up conv4_2
I0629 13:40:22.853298 12098 net.cpp:157] Top shape: 1 512 100 250 (12800000)
I0629 13:40:22.853303 12098 net.cpp:165] Memory required for data: 3462400084
I0629 13:40:22.853314 12098 layer_factory.hpp:77] Creating layer relu4_2
I0629 13:40:22.853323 12098 net.cpp:106] Creating Layer relu4_2
I0629 13:40:22.853328 12098 net.cpp:454] relu4_2 <- conv4_2
I0629 13:40:22.853334 12098 net.cpp:397] relu4_2 -> conv4_2 (in-place)
I0629 13:40:22.853543 12098 net.cpp:150] Setting up relu4_2
I0629 13:40:22.853562 12098 net.cpp:157] Top shape: 1 512 100 250 (12800000)
I0629 13:40:22.853566 12098 net.cpp:165] Memory required for data: 3513600084
I0629 13:40:22.853570 12098 layer_factory.hpp:77] Creating layer conv4_3
I0629 13:40:22.853582 12098 net.cpp:106] Creating Layer conv4_3
I0629 13:40:22.853601 12098 net.cpp:454] conv4_3 <- conv4_2
I0629 13:40:22.853611 12098 net.cpp:411] conv4_3 -> conv4_3
I0629 13:40:22.862978 12098 net.cpp:150] Setting up conv4_3
I0629 13:40:22.863001 12098 net.cpp:157] Top shape: 1 512 100 250 (12800000)
I0629 13:40:22.863006 12098 net.cpp:165] Memory required for data: 3564800084
I0629 13:40:22.863015 12098 layer_factory.hpp:77] Creating layer relu4_3
I0629 13:40:22.863023 12098 net.cpp:106] Creating Layer relu4_3
I0629 13:40:22.863041 12098 net.cpp:454] relu4_3 <- conv4_3
I0629 13:40:22.863049 12098 net.cpp:397] relu4_3 -> conv4_3 (in-place)
I0629 13:40:22.863816 12098 net.cpp:150] Setting up relu4_3
I0629 13:40:22.863837 12098 net.cpp:157] Top shape: 1 512 100 250 (12800000)
I0629 13:40:22.863842 12098 net.cpp:165] Memory required for data: 3616000084
I0629 13:40:22.863847 12098 layer_factory.hpp:77] Creating layer conv4_3_relu4_3_0_split
I0629 13:40:22.863853 12098 net.cpp:106] Creating Layer conv4_3_relu4_3_0_split
I0629 13:40:22.863857 12098 net.cpp:454] conv4_3_relu4_3_0_split <- conv4_3
I0629 13:40:22.863862 12098 net.cpp:411] conv4_3_relu4_3_0_split -> conv4_3_relu4_3_0_split_0
I0629 13:40:22.863872 12098 net.cpp:411] conv4_3_relu4_3_0_split -> conv4_3_relu4_3_0_split_1
I0629 13:40:22.863955 12098 net.cpp:150] Setting up conv4_3_relu4_3_0_split
I0629 13:40:22.863972 12098 net.cpp:157] Top shape: 1 512 100 250 (12800000)
I0629 13:40:22.863977 12098 net.cpp:157] Top shape: 1 512 100 250 (12800000)
I0629 13:40:22.863981 12098 net.cpp:165] Memory required for data: 3718400084
I0629 13:40:22.863984 12098 layer_factory.hpp:77] Creating layer pool4
I0629 13:40:22.863992 12098 net.cpp:106] Creating Layer pool4
I0629 13:40:22.863996 12098 net.cpp:454] pool4 <- conv4_3_relu4_3_0_split_0
I0629 13:40:22.864001 12098 net.cpp:411] pool4 -> pool4
I0629 13:40:22.864064 12098 net.cpp:150] Setting up pool4
I0629 13:40:22.864081 12098 net.cpp:157] Top shape: 1 512 50 125 (3200000)
I0629 13:40:22.864085 12098 net.cpp:165] Memory required for data: 3731200084
I0629 13:40:22.864089 12098 layer_factory.hpp:77] Creating layer conv5_1
I0629 13:40:22.864099 12098 net.cpp:106] Creating Layer conv5_1
I0629 13:40:22.864104 12098 net.cpp:454] conv5_1 <- pool4
I0629 13:40:22.864109 12098 net.cpp:411] conv5_1 -> conv5_1
I0629 13:40:22.872160 12098 net.cpp:150] Setting up conv5_1
I0629 13:40:22.872186 12098 net.cpp:157] Top shape: 1 512 50 125 (3200000)
I0629 13:40:22.872190 12098 net.cpp:165] Memory required for data: 3744000084
I0629 13:40:22.872198 12098 layer_factory.hpp:77] Creating layer relu5_1
I0629 13:40:22.872205 12098 net.cpp:106] Creating Layer relu5_1
I0629 13:40:22.872210 12098 net.cpp:454] relu5_1 <- conv5_1
I0629 13:40:22.872215 12098 net.cpp:397] relu5_1 -> conv5_1 (in-place)
I0629 13:40:22.872447 12098 net.cpp:150] Setting up relu5_1
I0629 13:40:22.872467 12098 net.cpp:157] Top shape: 1 512 50 125 (3200000)
I0629 13:40:22.872470 12098 net.cpp:165] Memory required for data: 3756800084
I0629 13:40:22.872474 12098 layer_factory.hpp:77] Creating layer conv5_2
I0629 13:40:22.872485 12098 net.cpp:106] Creating Layer conv5_2
I0629 13:40:22.872489 12098 net.cpp:454] conv5_2 <- conv5_1
I0629 13:40:22.872496 12098 net.cpp:411] conv5_2 -> conv5_2
I0629 13:40:22.879562 12098 net.cpp:150] Setting up conv5_2
I0629 13:40:22.879586 12098 net.cpp:157] Top shape: 1 512 50 125 (3200000)
I0629 13:40:22.879591 12098 net.cpp:165] Memory required for data: 3769600084
I0629 13:40:22.879598 12098 layer_factory.hpp:77] Creating layer relu5_2
I0629 13:40:22.879613 12098 net.cpp:106] Creating Layer relu5_2
I0629 13:40:22.879618 12098 net.cpp:454] relu5_2 <- conv5_2
I0629 13:40:22.879624 12098 net.cpp:397] relu5_2 -> conv5_2 (in-place)
I0629 13:40:22.879837 12098 net.cpp:150] Setting up relu5_2
I0629 13:40:22.879856 12098 net.cpp:157] Top shape: 1 512 50 125 (3200000)
I0629 13:40:22.879860 12098 net.cpp:165] Memory required for data: 3782400084
I0629 13:40:22.879864 12098 layer_factory.hpp:77] Creating layer conv5_3
I0629 13:40:22.879874 12098 net.cpp:106] Creating Layer conv5_3
I0629 13:40:22.879878 12098 net.cpp:454] conv5_3 <- conv5_2
I0629 13:40:22.879884 12098 net.cpp:411] conv5_3 -> conv5_3
I0629 13:40:22.886744 12098 net.cpp:150] Setting up conv5_3
I0629 13:40:22.886770 12098 net.cpp:157] Top shape: 1 512 50 125 (3200000)
I0629 13:40:22.886787 12098 net.cpp:165] Memory required for data: 3795200084
I0629 13:40:22.886795 12098 layer_factory.hpp:77] Creating layer relu5_3
I0629 13:40:22.886806 12098 net.cpp:106] Creating Layer relu5_3
I0629 13:40:22.886827 12098 net.cpp:454] relu5_3 <- conv5_3
I0629 13:40:22.886837 12098 net.cpp:397] relu5_3 -> conv5_3 (in-place)
I0629 13:40:22.887609 12098 net.cpp:150] Setting up relu5_3
I0629 13:40:22.887631 12098 net.cpp:157] Top shape: 1 512 50 125 (3200000)
I0629 13:40:22.887635 12098 net.cpp:165] Memory required for data: 3808000084
I0629 13:40:22.887639 12098 layer_factory.hpp:77] Creating layer newC4
I0629 13:40:22.887651 12098 net.cpp:106] Creating Layer newC4
I0629 13:40:22.887660 12098 net.cpp:454] newC4 <- conv5_3
I0629 13:40:22.887666 12098 net.cpp:411] newC4 -> newC4
I0629 13:40:22.890215 12098 net.cpp:150] Setting up newC4
I0629 13:40:22.890238 12098 net.cpp:157] Top shape: 1 256 50 125 (1600000)
I0629 13:40:22.890242 12098 net.cpp:165] Memory required for data: 3814400084
I0629 13:40:22.890249 12098 layer_factory.hpp:77] Creating layer upP4
I0629 13:40:22.890264 12098 net.cpp:106] Creating Layer upP4
I0629 13:40:22.890275 12098 net.cpp:454] upP4 <- newC4
I0629 13:40:22.890283 12098 net.cpp:411] upP4 -> upP4
I0629 13:40:22.916167 12098 net.cpp:150] Setting up upP4
I0629 13:40:22.916190 12098 net.cpp:157] Top shape: 1 256 100 250 (6400000)
I0629 13:40:22.916194 12098 net.cpp:165] Memory required for data: 3840000084
I0629 13:40:22.916200 12098 layer_factory.hpp:77] Creating layer newC3
I0629 13:40:22.916210 12098 net.cpp:106] Creating Layer newC3
I0629 13:40:22.916214 12098 net.cpp:454] newC3 <- conv4_3_relu4_3_0_split_1
I0629 13:40:22.916224 12098 net.cpp:411] newC3 -> newC3
I0629 13:40:22.918840 12098 net.cpp:150] Setting up newC3
I0629 13:40:22.918865 12098 net.cpp:157] Top shape: 1 256 100 250 (6400000)
I0629 13:40:22.918870 12098 net.cpp:165] Memory required for data: 3865600084
I0629 13:40:22.918877 12098 layer_factory.hpp:77] Creating layer newC3_newC3_0_split
I0629 13:40:22.918884 12098 net.cpp:106] Creating Layer newC3_newC3_0_split
I0629 13:40:22.918903 12098 net.cpp:454] newC3_newC3_0_split <- newC3
I0629 13:40:22.918915 12098 net.cpp:411] newC3_newC3_0_split -> newC3_newC3_0_split_0
I0629 13:40:22.918941 12098 net.cpp:411] newC3_newC3_0_split -> newC3_newC3_0_split_1
I0629 13:40:22.919029 12098 net.cpp:150] Setting up newC3_newC3_0_split
I0629 13:40:22.919044 12098 net.cpp:157] Top shape: 1 256 100 250 (6400000)
I0629 13:40:22.919050 12098 net.cpp:157] Top shape: 1 256 100 250 (6400000)
I0629 13:40:22.919054 12098 net.cpp:165] Memory required for data: 3916800084
I0629 13:40:22.919057 12098 layer_factory.hpp:77] Creating layer upP4crop
I0629 13:40:22.919070 12098 net.cpp:106] Creating Layer upP4crop
I0629 13:40:22.919076 12098 net.cpp:454] upP4crop <- upP4
I0629 13:40:22.919081 12098 net.cpp:454] upP4crop <- newC3_newC3_0_split_0
I0629 13:40:22.919090 12098 net.cpp:411] upP4crop -> upP4crop
I0629 13:40:22.919225 12098 net.cpp:150] Setting up upP4crop
I0629 13:40:22.919241 12098 net.cpp:157] Top shape: 1 256 100 250 (6400000)
I0629 13:40:22.919245 12098 net.cpp:165] Memory required for data: 3942400084
I0629 13:40:22.919248 12098 layer_factory.hpp:77] Creating layer P3
I0629 13:40:22.919260 12098 net.cpp:106] Creating Layer P3
I0629 13:40:22.919263 12098 net.cpp:454] P3 <- newC3_newC3_0_split_1
I0629 13:40:22.919267 12098 net.cpp:454] P3 <- upP4crop
I0629 13:40:22.919275 12098 net.cpp:411] P3 -> P3
I0629 13:40:22.919315 12098 net.cpp:150] Setting up P3
I0629 13:40:22.919335 12098 net.cpp:157] Top shape: 1 256 100 250 (6400000)
I0629 13:40:22.919342 12098 net.cpp:165] Memory required for data: 3968000084
I0629 13:40:22.919348 12098 layer_factory.hpp:77] Creating layer newP3
I0629 13:40:22.919361 12098 net.cpp:106] Creating Layer newP3
I0629 13:40:22.919376 12098 net.cpp:454] newP3 <- P3
I0629 13:40:22.919391 12098 net.cpp:411] newP3 -> newP3
I0629 13:40:22.925379 12098 net.cpp:150] Setting up newP3
I0629 13:40:22.925405 12098 net.cpp:157] Top shape: 1 256 100 250 (6400000)
I0629 13:40:22.925410 12098 net.cpp:165] Memory required for data: 3993600084
I0629 13:40:22.925423 12098 layer_factory.hpp:77] Creating layer newP3_newP3_0_split
I0629 13:40:22.925443 12098 net.cpp:106] Creating Layer newP3_newP3_0_split
I0629 13:40:22.925467 12098 net.cpp:454] newP3_newP3_0_split <- newP3
I0629 13:40:22.925478 12098 net.cpp:411] newP3_newP3_0_split -> newP3_newP3_0_split_0
I0629 13:40:22.925489 12098 net.cpp:411] newP3_newP3_0_split -> newP3_newP3_0_split_1
I0629 13:40:22.925578 12098 net.cpp:150] Setting up newP3_newP3_0_split
I0629 13:40:22.925595 12098 net.cpp:157] Top shape: 1 256 100 250 (6400000)
I0629 13:40:22.925599 12098 net.cpp:157] Top shape: 1 256 100 250 (6400000)
I0629 13:40:22.925602 12098 net.cpp:165] Memory required for data: 4044800084
I0629 13:40:22.925606 12098 layer_factory.hpp:77] Creating layer rpn_conv/3x3
I0629 13:40:22.925617 12098 net.cpp:106] Creating Layer rpn_conv/3x3
I0629 13:40:22.925626 12098 net.cpp:454] rpn_conv/3x3 <- newP3_newP3_0_split_0
I0629 13:40:22.925635 12098 net.cpp:411] rpn_conv/3x3 -> rpn/output
I0629 13:40:22.959692 12098 net.cpp:150] Setting up rpn_conv/3x3
I0629 13:40:22.959743 12098 net.cpp:157] Top shape: 1 512 100 250 (12800000)
I0629 13:40:22.959748 12098 net.cpp:165] Memory required for data: 4096000084
I0629 13:40:22.959759 12098 layer_factory.hpp:77] Creating layer rpn_relu/3x3
I0629 13:40:22.959769 12098 net.cpp:106] Creating Layer rpn_relu/3x3
I0629 13:40:22.959775 12098 net.cpp:454] rpn_relu/3x3 <- rpn/output
I0629 13:40:22.959781 12098 net.cpp:397] rpn_relu/3x3 -> rpn/output (in-place)
I0629 13:40:22.960598 12098 net.cpp:150] Setting up rpn_relu/3x3
I0629 13:40:22.960623 12098 net.cpp:157] Top shape: 1 512 100 250 (12800000)
I0629 13:40:22.960626 12098 net.cpp:165] Memory required for data: 4147200084
I0629 13:40:22.960630 12098 layer_factory.hpp:77] Creating layer rpn/output_rpn_relu/3x3_0_split
I0629 13:40:22.960639 12098 net.cpp:106] Creating Layer rpn/output_rpn_relu/3x3_0_split
I0629 13:40:22.960644 12098 net.cpp:454] rpn/output_rpn_relu/3x3_0_split <- rpn/output
I0629 13:40:22.960650 12098 net.cpp:411] rpn/output_rpn_relu/3x3_0_split -> rpn/output_rpn_relu/3x3_0_split_0
I0629 13:40:22.960672 12098 net.cpp:411] rpn/output_rpn_relu/3x3_0_split -> rpn/output_rpn_relu/3x3_0_split_1
I0629 13:40:22.960753 12098 net.cpp:150] Setting up rpn/output_rpn_relu/3x3_0_split
I0629 13:40:22.960769 12098 net.cpp:157] Top shape: 1 512 100 250 (12800000)
I0629 13:40:22.960774 12098 net.cpp:157] Top shape: 1 512 100 250 (12800000)
I0629 13:40:22.960777 12098 net.cpp:165] Memory required for data: 4249600084
I0629 13:40:22.960780 12098 layer_factory.hpp:77] Creating layer rpn_cls_score
I0629 13:40:22.960793 12098 net.cpp:106] Creating Layer rpn_cls_score
I0629 13:40:22.960810 12098 net.cpp:454] rpn_cls_score <- rpn/output_rpn_relu/3x3_0_split_0
I0629 13:40:22.960824 12098 net.cpp:411] rpn_cls_score -> rpn_cls_score
I0629 13:40:22.963186 12098 net.cpp:150] Setting up rpn_cls_score
I0629 13:40:22.963209 12098 net.cpp:157] Top shape: 1 18 100 250 (450000)
I0629 13:40:22.963213 12098 net.cpp:165] Memory required for data: 4251400084
I0629 13:40:22.963222 12098 layer_factory.hpp:77] Creating layer rpn_cls_score_rpn_cls_score_0_split
I0629 13:40:22.963232 12098 net.cpp:106] Creating Layer rpn_cls_score_rpn_cls_score_0_split
I0629 13:40:22.963243 12098 net.cpp:454] rpn_cls_score_rpn_cls_score_0_split <- rpn_cls_score
I0629 13:40:22.963266 12098 net.cpp:411] rpn_cls_score_rpn_cls_score_0_split -> rpn_cls_score_rpn_cls_score_0_split_0
I0629 13:40:22.963294 12098 net.cpp:411] rpn_cls_score_rpn_cls_score_0_split -> rpn_cls_score_rpn_cls_score_0_split_1
I0629 13:40:22.963397 12098 net.cpp:150] Setting up rpn_cls_score_rpn_cls_score_0_split
I0629 13:40:22.963418 12098 net.cpp:157] Top shape: 1 18 100 250 (450000)
I0629 13:40:22.963423 12098 net.cpp:157] Top shape: 1 18 100 250 (450000)
I0629 13:40:22.963425 12098 net.cpp:165] Memory required for data: 4255000084
I0629 13:40:22.963429 12098 layer_factory.hpp:77] Creating layer rpn_bbox_pred
I0629 13:40:22.963441 12098 net.cpp:106] Creating Layer rpn_bbox_pred
I0629 13:40:22.963454 12098 net.cpp:454] rpn_bbox_pred <- rpn/output_rpn_relu/3x3_0_split_1
I0629 13:40:22.963466 12098 net.cpp:411] rpn_bbox_pred -> rpn_bbox_pred
I0629 13:40:22.966013 12098 net.cpp:150] Setting up rpn_bbox_pred
I0629 13:40:22.966045 12098 net.cpp:157] Top shape: 1 36 100 250 (900000)
I0629 13:40:22.966063 12098 net.cpp:165] Memory required for data: 4258600084
I0629 13:40:22.966069 12098 layer_factory.hpp:77] Creating layer rpn_bbox_pred_rpn_bbox_pred_0_split
I0629 13:40:22.966079 12098 net.cpp:106] Creating Layer rpn_bbox_pred_rpn_bbox_pred_0_split
I0629 13:40:22.966100 12098 net.cpp:454] rpn_bbox_pred_rpn_bbox_pred_0_split <- rpn_bbox_pred
I0629 13:40:22.966121 12098 net.cpp:411] rpn_bbox_pred_rpn_bbox_pred_0_split -> rpn_bbox_pred_rpn_bbox_pred_0_split_0
I0629 13:40:22.966150 12098 net.cpp:411] rpn_bbox_pred_rpn_bbox_pred_0_split -> rpn_bbox_pred_rpn_bbox_pred_0_split_1
I0629 13:40:22.966244 12098 net.cpp:150] Setting up rpn_bbox_pred_rpn_bbox_pred_0_split
I0629 13:40:22.966265 12098 net.cpp:157] Top shape: 1 36 100 250 (900000)
I0629 13:40:22.966270 12098 net.cpp:157] Top shape: 1 36 100 250 (900000)
I0629 13:40:22.966274 12098 net.cpp:165] Memory required for data: 4265800084
I0629 13:40:22.966277 12098 layer_factory.hpp:77] Creating layer rpn_cls_score_reshape
I0629 13:40:22.966296 12098 net.cpp:106] Creating Layer rpn_cls_score_reshape
I0629 13:40:22.966313 12098 net.cpp:454] rpn_cls_score_reshape <- rpn_cls_score_rpn_cls_score_0_split_0
I0629 13:40:22.966336 12098 net.cpp:411] rpn_cls_score_reshape -> rpn_cls_score_reshape
I0629 13:40:22.966415 12098 net.cpp:150] Setting up rpn_cls_score_reshape
I0629 13:40:22.966434 12098 net.cpp:157] Top shape: 1 2 900 250 (450000)
I0629 13:40:22.966440 12098 net.cpp:165] Memory required for data: 4267600084
I0629 13:40:22.966446 12098 layer_factory.hpp:77] Creating layer rpn_cls_score_reshape_rpn_cls_score_reshape_0_split
I0629 13:40:22.966462 12098 net.cpp:106] Creating Layer rpn_cls_score_reshape_rpn_cls_score_reshape_0_split
I0629 13:40:22.966485 12098 net.cpp:454] rpn_cls_score_reshape_rpn_cls_score_reshape_0_split <- rpn_cls_score_reshape
I0629 13:40:22.966495 12098 net.cpp:411] rpn_cls_score_reshape_rpn_cls_score_reshape_0_split -> rpn_cls_score_reshape_rpn_cls_score_reshape_0_split_0
I0629 13:40:22.966506 12098 net.cpp:411] rpn_cls_score_reshape_rpn_cls_score_reshape_0_split -> rpn_cls_score_reshape_rpn_cls_score_reshape_0_split_1
I0629 13:40:22.966599 12098 net.cpp:150] Setting up rpn_cls_score_reshape_rpn_cls_score_reshape_0_split
I0629 13:40:22.966616 12098 net.cpp:157] Top shape: 1 2 900 250 (450000)
I0629 13:40:22.966620 12098 net.cpp:157] Top shape: 1 2 900 250 (450000)
I0629 13:40:22.966624 12098 net.cpp:165] Memory required for data: 4271200084
I0629 13:40:22.966627 12098 layer_factory.hpp:77] Creating layer rpn-data
I0629 13:40:22.967567 12098 net.cpp:106] Creating Layer rpn-data
I0629 13:40:22.967592 12098 net.cpp:454] rpn-data <- rpn_cls_score_rpn_cls_score_0_split_1
I0629 13:40:22.967598 12098 net.cpp:454] rpn-data <- gt_boxes_input-data_2_split_0
I0629 13:40:22.967603 12098 net.cpp:454] rpn-data <- im_info_input-data_1_split_0
I0629 13:40:22.967607 12098 net.cpp:454] rpn-data <- data_input-data_0_split_1
I0629 13:40:22.967613 12098 net.cpp:411] rpn-data -> rpn_labels
I0629 13:40:22.967620 12098 net.cpp:411] rpn-data -> rpn_bbox_targets
I0629 13:40:22.967628 12098 net.cpp:411] rpn-data -> rpn_bbox_inside_weights
I0629 13:40:22.967633 12098 net.cpp:411] rpn-data -> rpn_bbox_outside_weights
I0629 13:40:22.969522 12098 net.cpp:150] Setting up rpn-data
I0629 13:40:22.969548 12098 net.cpp:157] Top shape: 1 1 900 250 (225000)
I0629 13:40:22.969553 12098 net.cpp:157] Top shape: 1 36 100 250 (900000)
I0629 13:40:22.969558 12098 net.cpp:157] Top shape: 1 36 100 250 (900000)
I0629 13:40:22.969561 12098 net.cpp:157] Top shape: 1 36 100 250 (900000)
I0629 13:40:22.969564 12098 net.cpp:165] Memory required for data: 4282900084
I0629 13:40:22.969569 12098 layer_factory.hpp:77] Creating layer rpn_loss_cls
I0629 13:40:22.969581 12098 net.cpp:106] Creating Layer rpn_loss_cls
I0629 13:40:22.969594 12098 net.cpp:454] rpn_loss_cls <- rpn_cls_score_reshape_rpn_cls_score_reshape_0_split_0
I0629 13:40:22.969600 12098 net.cpp:454] rpn_loss_cls <- rpn_labels
…
I0629 13:40:22.978446 12098 net.cpp:157] Top shape: (1)
I0629 13:40:22.978449 12098 net.cpp:160]     with loss weight 1
I0629 13:40:22.978466 12098 net.cpp:165] Memory required for data: 4282900092
I0629 13:40:22.978478 12098 layer_factory.hpp:77] Creating layer rpn_cls_prob
I0629 13:40:22.978488 12098 net.cpp:106] Creating Layer rpn_cls_prob
I0629 13:40:22.978497 12098 net.cpp:454] rpn_cls_prob <- rpn_cls_score_reshape_rpn_cls_score_reshape_0_split_1
I0629 13:40:22.978509 12098 net.cpp:411] rpn_cls_prob -> rpn_cls_prob
I0629 13:40:22.978871 12098 net.cpp:150] Setting up rpn_cls_prob
I0629 13:40:22.978893 12098 net.cpp:157] Top shape: 1 2 900 250 (450000)
I0629 13:40:22.978895 12098 net.cpp:165] Memory required for data: 4284700092
I0629 13:40:22.978899 12098 layer_factory.hpp:77] Creating layer rpn_cls_prob_reshape
I0629 13:40:22.978909 12098 net.cpp:106] Creating Layer rpn_cls_prob_reshape
I0629 13:40:22.978914 12098 net.cpp:454] rpn_cls_prob_reshape <- rpn_cls_prob
I0629 13:40:22.978919 12098 net.cpp:411] rpn_cls_prob_reshape -> rpn_cls_prob_reshape
I0629 13:40:22.978955 12098 net.cpp:150] Setting up rpn_cls_prob_reshape
I0629 13:40:22.978968 12098 net.cpp:157] Top shape: 1 18 100 250 (450000)
I0629 13:40:22.978971 12098 net.cpp:165] Memory required for data: 4286500092
I0629 13:40:22.978976 12098 layer_factory.hpp:77] Creating layer proposal
I0629 13:40:22.980110 12098 net.cpp:106] Creating Layer proposal
I0629 13:40:22.980134 12098 net.cpp:454] proposal <- rpn_cls_prob_reshape
I0629 13:40:22.980141 12098 net.cpp:454] proposal <- rpn_bbox_pred_rpn_bbox_pred_0_split_1
I0629 13:40:22.980146 12098 net.cpp:454] proposal <- im_info_input-data_1_split_1
I0629 13:40:22.980152 12098 net.cpp:411] proposal -> rpn_rois
I0629 13:40:22.981096 12098 net.cpp:150] Setting up proposal
I0629 13:40:22.981125 12098 net.cpp:157] Top shape: 1 5 (5)
I0629 13:40:22.981130 12098 net.cpp:165] Memory required for data: 4286500112
I0629 13:40:22.981134 12098 layer_factory.hpp:77] Creating layer roi-data
I0629 13:40:22.981380 12098 net.cpp:106] Creating Layer roi-data
I0629 13:40:22.981401 12098 net.cpp:454] roi-data <- rpn_rois
I0629 13:40:22.981408 12098 net.cpp:454] roi-data <- gt_boxes_input-data_2_split_1
I0629 13:40:22.981415 12098 net.cpp:411] roi-data -> rois
I0629 13:40:22.981421 12098 net.cpp:411] roi-data -> labels
I0629 13:40:22.981428 12098 net.cpp:411] roi-data -> bbox_targets
I0629 13:40:22.981437 12098 net.cpp:411] roi-data -> bbox_inside_weights
I0629 13:40:22.981443 12098 net.cpp:411] roi-data -> bbox_outside_weights
I0629 13:40:22.981858 12098 net.cpp:150] Setting up roi-data
I0629 13:40:22.981886 12098 net.cpp:157] Top shape: 1 5 (5)
I0629 13:40:22.981906 12098 net.cpp:157] Top shape: 1 1 (1)
I0629 13:40:22.981910 12098 net.cpp:157] Top shape: 1 84 (84)
I0629 13:40:22.981914 12098 net.cpp:157] Top shape: 1 84 (84)
I0629 13:40:22.981919 12098 net.cpp:157] Top shape: 1 84 (84)
I0629 13:40:22.981921 12098 net.cpp:165] Memory required for data: 4286501144
I0629 13:40:22.981925 12098 layer_factory.hpp:77] Creating layer roi_pool5
I0629 13:40:22.981936 12098 net.cpp:106] Creating Layer roi_pool5
I0629 13:40:22.981951 12098 net.cpp:454] roi_pool5 <- newP3_newP3_0_split_1
I0629 13:40:22.981957 12098 net.cpp:454] roi_pool5 <- rois
I0629 13:40:22.981962 12098 net.cpp:411] roi_pool5 -> rcnn_pool5
I0629 13:40:22.981979 12098 roi_pooling_layer.cpp:30] Spatial scale: 0.0625
I0629 13:40:22.982054 12098 net.cpp:150] Setting up roi_pool5
I0629 13:40:22.982070 12098 net.cpp:157] Top shape: 1 256 7 7 (12544)
I0629 13:40:22.982074 12098 net.cpp:165] Memory required for data: 4286551320
I0629 13:40:22.982079 12098 layer_factory.hpp:77] Creating layer rcnn_fc6
I0629 13:40:22.982092 12098 net.cpp:106] Creating Layer rcnn_fc6
I0629 13:40:22.982100 12098 net.cpp:454] rcnn_fc6 <- rcnn_pool5
I0629 13:40:22.982106 12098 net.cpp:411] rcnn_fc6 -> rcnn_fc6
I0629 13:40:23.338817 12098 net.cpp:150] Setting up rcnn_fc6
I0629 13:40:23.338873 12098 net.cpp:157] Top shape: 1 4096 (4096)
I0629 13:40:23.338877 12098 net.cpp:165] Memory required for data: 4286567704
I0629 13:40:23.338891 12098 layer_factory.hpp:77] Creating layer relu6
I0629 13:40:23.338902 12098 net.cpp:106] Creating Layer relu6
I0629 13:40:23.338910 12098 net.cpp:454] relu6 <- rcnn_fc6
I0629 13:40:23.338920 12098 net.cpp:397] relu6 -> rcnn_fc6 (in-place)
I0629 13:40:23.340029 12098 net.cpp:150] Setting up relu6
I0629 13:40:23.340051 12098 net.cpp:157] Top shape: 1 4096 (4096)
I0629 13:40:23.340056 12098 net.cpp:165] Memory required for data: 4286584088
I0629 13:40:23.340060 12098 layer_factory.hpp:77] Creating layer drop6
I0629 13:40:23.340081 12098 net.cpp:106] Creating Layer drop6
I0629 13:40:23.340086 12098 net.cpp:454] drop6 <- rcnn_fc6
I0629 13:40:23.340095 12098 net.cpp:397] drop6 -> rcnn_fc6 (in-place)
I0629 13:40:23.340152 12098 net.cpp:150] Setting up drop6
I0629 13:40:23.340163 12098 net.cpp:157] Top shape: 1 4096 (4096)
I0629 13:40:23.340170 12098 net.cpp:165] Memory required for data: 4286600472
I0629 13:40:23.340175 12098 layer_factory.hpp:77] Creating layer fc7
I0629 13:40:23.340191 12098 net.cpp:106] Creating Layer fc7
I0629 13:40:23.340199 12098 net.cpp:454] fc7 <- rcnn_fc6
I0629 13:40:23.340209 12098 net.cpp:411] fc7 -> fc7
I0629 13:40:23.464745 12098 net.cpp:150] Setting up fc7
I0629 13:40:23.464804 12098 net.cpp:157] Top shape: 1 4096 (4096)
I0629 13:40:23.464810 12098 net.cpp:165] Memory required for data: 4286616856
I0629 13:40:23.464823 12098 layer_factory.hpp:77] Creating layer relu7
I0629 13:40:23.464848 12098 net.cpp:106] Creating Layer relu7
I0629 13:40:23.464854 12098 net.cpp:454] relu7 <- fc7
I0629 13:40:23.464864 12098 net.cpp:397] relu7 -> fc7 (in-place)
I0629 13:40:23.465221 12098 net.cpp:150] Setting up relu7
I0629 13:40:23.465245 12098 net.cpp:157] Top shape: 1 4096 (4096)
I0629 13:40:23.465250 12098 net.cpp:165] Memory required for data: 4286633240
I0629 13:40:23.465253 12098 layer_factory.hpp:77] Creating layer drop7
I0629 13:40:23.465261 12098 net.cpp:106] Creating Layer drop7
I0629 13:40:23.465265 12098 net.cpp:454] drop7 <- fc7
I0629 13:40:23.465272 12098 net.cpp:397] drop7 -> fc7 (in-place)
I0629 13:40:23.465323 12098 net.cpp:150] Setting up drop7
I0629 13:40:23.465332 12098 net.cpp:157] Top shape: 1 4096 (4096)
I0629 13:40:23.465334 12098 net.cpp:165] Memory required for data: 4286649624
I0629 13:40:23.465337 12098 layer_factory.hpp:77] Creating layer fc7_drop7_0_split
I0629 13:40:23.465349 12098 net.cpp:106] Creating Layer fc7_drop7_0_split
I0629 13:40:23.465355 12098 net.cpp:454] fc7_drop7_0_split <- fc7
I0629 13:40:23.465364 12098 net.cpp:411] fc7_drop7_0_split -> fc7_drop7_0_split_0
I0629 13:40:23.465375 12098 net.cpp:411] fc7_drop7_0_split -> fc7_drop7_0_split_1
I0629 13:40:23.465456 12098 net.cpp:150] Setting up fc7_drop7_0_split
I0629 13:40:23.465466 12098 net.cpp:157] Top shape: 1 4096 (4096)
I0629 13:40:23.465473 12098 net.cpp:157] Top shape: 1 4096 (4096)
I0629 13:40:23.465479 12098 net.cpp:165] Memory required for data: 4286682392
I0629 13:40:23.465486 12098 layer_factory.hpp:77] Creating layer cls_score
I0629 13:40:23.465499 12098 net.cpp:106] Creating Layer cls_score
I0629 13:40:23.465507 12098 net.cpp:454] cls_score <- fc7_drop7_0_split_0
I0629 13:40:23.465517 12098 net.cpp:411] cls_score -> cls_score
I0629 13:40:23.467813 12098 net.cpp:150] Setting up cls_score
I0629 13:40:23.467833 12098 net.cpp:157] Top shape: 1 21 (21)
I0629 13:40:23.467838 12098 net.cpp:165] Memory required for data: 4286682476
I0629 13:40:23.467844 12098 layer_factory.hpp:77] Creating layer bbox_pred
I0629 13:40:23.467851 12098 net.cpp:106] Creating Layer bbox_pred
I0629 13:40:23.467855 12098 net.cpp:454] bbox_pred <- fc7_drop7_0_split_1
I0629 13:40:23.467864 12098 net.cpp:411] bbox_pred -> bbox_pred
I0629 13:40:23.477330 12098 net.cpp:150] Setting up bbox_pred
I0629 13:40:23.477354 12098 net.cpp:157] Top shape: 1 84 (84)
I0629 13:40:23.477357 12098 net.cpp:165] Memory required for data: 4286682812
I0629 13:40:23.477365 12098 layer_factory.hpp:77] Creating layer loss_cls
I0629 13:40:23.477372 12098 net.cpp:106] Creating Layer loss_cls
I0629 13:40:23.477376 12098 net.cpp:454] loss_cls <- cls_score
I0629 13:40:23.477382 12098 net.cpp:454] loss_cls <- labels
I0629 13:40:23.477387 12098 net.cpp:411] loss_cls -> loss_cls
…
