…
stepsize: 50000
snapshot: 0
snapshot_prefix: "fpn"
average_loss: 100
iter_size: 2
I0628 15:32:56.458956 10486 solver.cpp:81] Creating training net from train_net file: models/pascal_voc/VGG16/FP_Net_end2end/train.prototxt
I0628 15:32:56.460526 10486 net.cpp:49] Initializing net from parameters: 
name: "VGG_ILSVRC_16_layers"
state {
  phase: TRAIN
}
layer {
  name: "input-data"
  type: "Python"
  top: "data"
  top: "im_info"
  top: "gt_boxes"
  python_param {
    module: "roi_data_layer.layer"
    layer: "RoIDataLayer"
    param_str: "\'num_classes\': 21"
  }
}
layer {
  name: "conv1_1"
  type: "Convolution"
  bottom: "data"
  top: "conv1_1"
  param {
    lr_mult: 0
    decay_mult: 0
  }
  param {
    lr_mult: 0
    decay_mult: 0
  }
  convolution_param {
    num_output: 64
    pad: 1
    kernel_size: 3
  }
}
layer {
  name: "relu1_1"
  type: "ReLU"
  bottom: "conv1_1"
  top: "conv1_1"
}
layer {
  name: "conv1_2"
  type: "Convolution"
  bottom: "conv1_1"
  top: "conv1_2"
  param {
    lr_mult: 0
    decay_mult: 0
  }
  param {
    lr_mult: 0
    decay_mult: 0
  }
  convolution_param {
    num_output: 64
    pad: 1
    kernel_size: 3
  }
}
layer {
  name: "relu1_2"
  type: "ReLU"
  bottom: "conv1_2"
  top: "conv1_2"
}
layer {
  name: "pool1"
  type: "Pooling"
  bottom: "conv1_2"
  top: "pool1"
  pooling_param {
    pool: MAX
    kernel_size: 2
    stride: 2
  }
}
layer {
  name: "conv2_1"
  type: "Convolution"
  bottom: "pool1"
  top: "conv2_1"
  param {
    lr_mult: 0
    decay_mult: 0
  }
  param {
    lr_mult: 0
    decay_mult: 0
  }
  convolution_param {
    num_output: 128
    pad: 1
    kernel_size: 3
  }
}
layer {
  name: "relu2_1"
  type: "ReLU"
  bottom: "conv2_1"
  top: "conv2_1"
}
layer {
  name: "conv2_2"
  type: "Convolution"
  bottom: "conv2_1"
  top: "conv2_2"
  param {
    lr_mult: 0
    decay_mult: 0
  }
  param {
    lr_mult: 0
    decay_mult: 0
  }
  convolution_param {
    num_output: 128
    pad: 1
    kernel_size: 3
  }
}
layer {
  name: "relu2_2"
  type: "ReLU"
  bottom: "conv2_2"
  top: "conv2_2"
}
layer {
  name: "pool2"
  type: "Pooling"
  bottom: "conv2_2"
  top: "pool2"
  pooling_param {
    pool: MAX
    kernel_size: 2
    stride: 2
  }
}
layer {
  name: "conv3_1"
  type: "Convolution"
  bottom: "pool2"
  top: "conv3_1"
  param {
    lr_mult: 1
  }
  param {
    lr_mult: 2
  }
  convolution_param {
    num_output: 256
    pad: 1
    kernel_size: 3
  }
}
layer {
  name: "relu3_1"
  type: "ReLU"
  bottom: "conv3_1"
  top: "conv3_1"
}
layer {
  name: "conv3_2"
  type: "Convolution"
  bottom: "conv3_1"
  top: "conv3_2"
  param {
    lr_mult: 1
  }
  param {
    lr_mult: 2
  }
  convolution_param {
    num_output: 256
    pad: 1
    kernel_size: 3
  }
}
layer {
  name: "relu3_2"
  type: "ReLU"
  bottom: "conv3_2"
  top: "conv3_2"
}
layer {
  name: "conv3_3"
  type: "Convolution"
  bottom: "conv3_2"
  top: "conv3_3"
  param {
    lr_mult: 1
  }
  param {
    lr_mult: 2
  }
  convolution_param {
    num_output: 256
    pad: 1
    kernel_size: 3
  }
}
layer {
  name: "relu3_3"
  type: "ReLU"
  bottom: "conv3_3"
  top: "conv3_3"
}
layer {
  name: "pool3"
  type: "Pooling"
  bottom: "conv3_3"
  top: "pool3"
  pooling_param {
    pool: MAX
    kernel_size: 2
    stride: 2
  }
}
layer {
  name: "conv4_1"
  type: "Convolution"
  bottom: "pool3"
  top: "conv4_1"
  param {
    lr_mult: 1
  }
  param {
    lr_mult: 2
  }
  convolution_param {
    num_output: 512
    pad: 1
    kernel_size: 3
  }
}
layer {
  name: "relu4_1"
  type: "ReLU"
  bottom: "conv4_1"
  top: "conv4_1"
}
layer {
  name: "conv4_2"
  type: "Convolution"
  bottom: "conv4_1"
  top: "conv4_2"
  param {
    lr_mult: 1
  }
  param {
    lr_mult: 2
  }
  convolution_param {
    num_output: 512
    pad: 1
    kernel_size: 3
  }
}
layer {
  name: "relu4_2"
  type: "ReLU"
  bottom: "conv4_2"
  top: "conv4_2"
}
layer {
  name: "conv4_3"
  type: "Convolution"
  bottom: "conv4_2"
  top: "conv4_3"
  param {
    lr_mult: 1
  }
  param {
    lr_mult: 2
  }
  convolution_param {
    num_output: 512
    pad: 1
    kernel_size: 3
  }
}
layer {
  name: "relu4_3"
  type: "ReLU"
  bottom: "conv4_3"
  top: "conv4_3"
}
layer {
  name: "pool4"
  type: "Pooling"
  bottom: "conv4_3"
  top: "pool4"
  pooling_param {
    pool: MAX
    kernel_size: 2
    stride: 2
  }
}
layer {
  name: "conv5_1"
  type: "Convolution"
  bottom: "pool4"
  top: "conv5_1"
  param {
    lr_mult: 1
  }
  param {
    lr_mult: 2
  }
  convolution_param {
    num_output: 512
    pad: 1
    kernel_size: 3
  }
}
layer {
  name: "relu5_1"
  type: "ReLU"
  bottom: "conv5_1"
  top: "conv5_1"
}
layer {
  name: "conv5_2"
  type: "Convolution"
  bottom: "conv5_1"
  top: "conv5_2"
  param {
    lr_mult: 1
  }
  param {
    lr_mult: 2
  }
  convolution_param {
    num_output: 512
    pad: 1
    kernel_size: 3
  }
}
layer {
  name: "relu5_2"
  type: "ReLU"
  bottom: "conv5_2"
  top: "conv5_2"
}
layer {
  name: "conv5_3"
  type: "Convolution"
  bottom: "conv5_2"
  top: "conv5_3"
  param {
    lr_mult: 1
  }
  param {
    lr_mult: 2
  }
  convolution_param {
    num_output: 512
    pad: 1
    kernel_size: 3
  }
}
layer {
  name: "relu5_3"
  type: "ReLU"
  bottom: "conv5_3"
  top: "conv5_3"
}
layer {
  name: "pool5"
  type: "Pooling"
  bottom: "conv5_3"
  top: "pool5"
  pooling_param {
    pool: MAX
    kernel_size: 2
    stride: 2
  }
}
layer {
  name: "P5"
  type: "Convolution"
  bottom: "pool5"
  top: "P5"
  param {
    lr_mult: 1
  }
  param {
    lr_mult: 2
  }
  convolution_param {
    num_output: 256
    kernel_size: 1
    weight_filler {
      type: "xavier"
    }
    bias_filler {
      type: "constant"
    }
  }
}
layer {
  name: "upP5"
  type: "Deconvolution"
  bottom: "P5"
  top: "upP5"
  param {
    lr_mult: 0
    decay_mult: 0
  }
  convolution_param {
    num_output: 256
    bias_term: false
    pad: 1
    kernel_size: 4
    stride: 2
    weight_filler {
      type: "bilinear"
    }
  }
}
layer {
  name: "newC4"
  type: "Convolution"
  bottom: "conv5_3"
  top: "newC4"
  param {
    lr_mult: 1
  }
  param {
    lr_mult: 2
  }
  convolution_param {
    num_output: 256
    kernel_size: 1
    weight_filler {
      type: "xavier"
    }
    bias_filler {
      type: "constant"
    }
  }
}
layer {
  name: "upP5crop"
  type: "Crop"
  bottom: "upP5"
  bottom: "newC4"
  top: "upP5crop"
  crop_param {
    axis: 2
    offset: 0
  }
}
layer {
  name: "P4"
  type: "Eltwise"
  bottom: "newC4"
  bottom: "upP5crop"
  top: "P4"
  eltwise_param {
    operation: SUM
  }
}
layer {
  name: "upP4"
  type: "Deconvolution"
  bottom: "P4"
  top: "upP4"
  param {
    lr_mult: 0
    decay_mult: 0
  }
  convolution_param {
    num_output: 256
    bias_term: false
    pad: 1
    kernel_size: 4
    stride: 2
    weight_filler {
      type: "bilinear"
    }
  }
}
layer {
  name: "newC3"
  type: "Convolution"
  bottom: "conv4_3"
  top: "newC3"
  param {
    lr_mult: 1
  }
  param {
    lr_mult: 2
  }
  convolution_param {
    num_output: 256
    kernel_size: 1
    weight_filler {
      type: "xavier"
    }
    bias_filler {
      type: "constant"
    }
  }
}
layer {
  name: "upP4crop"
  type: "Crop"
  bottom: "upP4"
  bottom: "newC3"
  top: "upP4crop"
  crop_param {
    axis: 2
    offset: 0
  }
}
layer {
  name: "P3"
  type: "Eltwise"
  bottom: "newC3"
  bottom: "upP4crop"
  top: "P3"
  eltwise_param {
    operation: SUM
  }
}
layer {
  name: "upP3"
  type: "Deconvolution"
  bottom: "P3"
  top: "upP3"
  param {
    lr_mult: 0
    decay_mult: 0
  }
  convolution_param {
    num_output: 256
    bias_term: false
    pad: 1
    kernel_size: 4
    stride: 2
    weight_filler {
      type: "bilinear"
    }
  }
}
layer {
  name: "upP3crop"
  type: "Crop"
  bottom: "upP3"
  bottom: "conv3_3"
  top: "upP3crop"
  crop_param {
    axis: 2
    offset: 0
  }
}
layer {
  name: "P2"
  type: "Eltwise"
  bottom: "conv3_3"
  bottom: "upP3crop"
  top: "P2"
  eltwise_param {
    operation: SUM
  }
}
layer {
  name: "newP2"
  type: "Convolution"
  bottom: "P2"
  top: "newP2"
  param {
    lr_mult: 1
  }
  param {
    lr_mult: 2
  }
  convolution_param {
    num_output: 256
    pad: 1
    kernel_size: 3
    weight_filler {
      type: "xavier"
    }
    bias_filler {
      type: "constant"
    }
  }
}
layer {
  name: "rpn_conv/3x3"
  type: "Convolution"
  bottom: "newP2"
  top: "rpn/output"
  param {
    lr_mult: 1
  }
  param {
    lr_mult: 2
  }
  convolution_param {
    num_output: 512
    pad: 1
    kernel_size: 3
    stride: 1
    weight_filler {
      type: "gaussian"
      std: 0.01
    }
    bias_filler {
      type: "constant"
      value: 0
    }
  }
}
layer {
  name: "rpn_relu/3x3"
  type: "ReLU"
  bottom: "rpn/output"
  top: "rpn/output"
}
layer {
  name: "rpn_cls_score"
  type: "Convolution"
  bottom: "rpn/output"
  top: "rpn_cls_score"
  param {
    lr_mult: 1
  }
  param {
    lr_mult: 2
  }
  convolution_param {
    num_output: 18
    pad: 0
    kernel_size: 1
    stride: 1
    weight_filler {
      type: "gaussian"
      std: 0.01
    }
    bias_filler {
      type: "constant"
      value: 0
    }
  }
}
layer {
  name: "rpn_bbox_pred"
  type: "Convolution"
  bottom: "rpn/output"
  top: "rpn_bbox_pred"
  param {
    lr_mult: 1
  }
  param {
    lr_mult: 2
  }
  convolution_param {
    num_output: 36
    pad: 0
    kernel_size: 1
    stride: 1
    weight_filler {
      type: "gaussian"
      std: 0.01
    }
    bias_filler {
      type: "constant"
      value: 0
    }
  }
}
layer {
  name: "rpn_cls_score_reshape"
  type: "Reshape"
  bottom: "rpn_cls_score"
  top: "rpn_cls_score_reshape"
  reshape_param {
    shape {
      dim: 0
      dim: 2
      dim: -1
      dim: 0
    }
  }
}
layer {
  name: "rpn-data"
  type: "Python"
  bottom: "rpn_cls_score"
  bottom: "gt_boxes"
  bottom: "im_info"
  bottom: "data"
  top: "rpn_labels"
  top: "rpn_bbox_targets"
  top: "rpn_bbox_inside_weights"
  top: "rpn_bbox_outside_weights"
  python_param {
    module: "rpn.anchor_target_layer"
    layer: "AnchorTargetLayer"
    param_str: "\'feat_stride\': 4"
  }
}
layer {
  name: "rpn_loss_cls"
  type: "SoftmaxWithLoss"
  bottom: "rpn_cls_score_reshape"
  bottom: "rpn_labels"
  top: "rpn_cls_loss"
  loss_weight: 1
  propagate_down: true
  propagate_down: false
  loss_param {
    ignore_label: -1
    normalize: true
  }
}
layer {
  name: "rpn_loss_bbox"
  type: "SmoothL1Loss"
  bottom: "rpn_bbox_pred"
  bottom: "rpn_bbox_targets"
  bottom: "rpn_bbox_inside_weights"
  bottom: "rpn_bbox_outside_weights"
  top: "rpn_loss_bbox"
  loss_weight: 1
  smooth_l1_loss_param {
    sigma: 3
  }
}
layer {
  name: "rpn_cls_prob"
  type: "Softmax"
  bottom: "rpn_cls_score_reshape"
  top: "rpn_cls_prob"
}
layer {
  name: "rpn_cls_prob_reshape"
  type: "Reshape"
  bottom: "rpn_cls_prob"
  top: "rpn_cls_prob_reshape"
  reshape_param {
    shape {
      dim: 0
      dim: 18
      dim: -1
      dim: 0
    }
  }
}
layer {
  name: "proposal"
  type: "Python"
  bottom: "rpn_cls_prob_reshape"
  bottom: "rpn_bbox_pred"
  bottom: "im_info"
  top: "rpn_rois"
  python_param {
    module: "rpn.proposal_layer"
    layer: "ProposalLayer"
    param_str: "\'feat_stride\': 4"
  }
}
layer {
  name: "roi-data"
  type: "Python"
  bottom: "rpn_rois"
  bottom: "gt_boxes"
  top: "rois"
  top: "labels"
  top: "bbox_targets"
  top: "bbox_inside_weights"
  top: "bbox_outside_weights"
  python_param {
    module: "rpn.proposal_target_layer"
    layer: "ProposalTargetLayer"
    param_str: "\'num_classes\': 21"
  }
}
layer {
  name: "roi_pool5"
  type: "ROIPooling"
  bottom: "newP2"
  bottom: "rois"
  top: "rcnn_pool5"
  roi_pooling_param {
    pooled_h: 7
    pooled_w: 7
    spatial_scale: 0.25
  }
}
layer {
  name: "rcnn_fc6"
  type: "InnerProduct"
  bottom: "rcnn_pool5"
  top: "rcnn_fc6"
  param {
    lr_mult: 1
  }
  param {
    lr_mult: 2
  }
  inner_product_param {
    num_output: 4096
    weight_filler {
      type: "xavier"
    }
    bias_filler {
      type: "constant"
    }
  }
}
layer {
  name: "relu6"
  type: "ReLU"
  bottom: "rcnn_fc6"
  top: "rcnn_fc6"
}
layer {
  name: "drop6"
  type: "Dropout"
  bottom: "rcnn_fc6"
  top: "rcnn_fc6"
  dropout_param {
    dropout_ratio: 0.5
  }
}
layer {
  name: "fc7"
  type: "InnerProduct"
  bottom: "rcnn_fc6"
  top: "fc7"
  param {
    lr_mult: 1
  }
  param {
    lr_mult: 2
  }
  inner_product_param {
    num_output: 4096
    weight_filler {
      type: "xavier"
    }
    bias_filler {
      type: "constant"
    }
  }
}
layer {
  name: "relu7"
  type: "ReLU"
  bottom: "fc7"
  top: "fc7"
}
layer {
  name: "drop7"
  type: "Dropout"
  bottom: "fc7"
  top: "fc7"
  dropout_param {
    dropout_ratio: 0.5
  }
}
layer {
  name: "cls_score"
  type: "InnerProduct"
  bottom: "fc7"
  top: "cls_score"
  param {
    lr_mult: 1
  }
  param {
    lr_mult: 2
  }
  inner_product_param {
    num_output: 21
    weight_filler {
      type: "gaussian"
      std: 0.01
    }
    bias_filler {
      type: "constant"
      value: 0
    }
  }
}
layer {
  name: "bbox_pred"
  type: "InnerProduct"
  bottom: "fc7"
  top: "bbox_pred"
  param {
    lr_mult: 1
  }
  param {
    lr_mult: 2
  }
  inner_product_param {
    num_output: 84
    weight_filler {
      type: "gaussian"
      std: 0.001
    }
    bias_filler {
      type: "constant"
      value: 0
    }
  }
}
layer {
  name: "loss_cls"
  type: "SoftmaxWithLoss"
  bottom: "cls_score"
  bottom: "labels"
  top: "loss_cls"
  loss_weight: 1
  propagate_down: true
  propagate_down: false
}
layer {
  name: "loss_bbox"
  type: "SmoothL1Loss"
  bottom: "bbox_pred"
  bottom: "bbox_targets"
  bottom: "bbox_inside_weights"
  bottom: "bbox_outside_weights"
  top: "loss_bbox"
  loss_weight: 1
}
I0628 15:32:56.460889 10486 layer_factory.hpp:77] Creating layer input-data
I0628 15:32:56.463414 10486 net.cpp:106] Creating Layer input-data
I0628 15:32:56.463441 10486 net.cpp:411] input-data -> data
I0628 15:32:56.463481 10486 net.cpp:411] input-data -> im_info
I0628 15:32:56.463518 10486 net.cpp:411] input-data -> gt_boxes
RoiDataLayer: name_to_top: {'gt_boxes': 2, 'data': 0, 'im_info': 1}
I0628 15:32:56.478171 10486 net.cpp:150] Setting up input-data
I0628 15:32:56.478210 10486 net.cpp:157] Top shape: 1 3 600 1000 (1800000)
I0628 15:32:56.478220 10486 net.cpp:157] Top shape: 1 3 (3)
I0628 15:32:56.478224 10486 net.cpp:157] Top shape: 1 4 (4)
I0628 15:32:56.478226 10486 net.cpp:165] Memory required for data: 7200028
I0628 15:32:56.478233 10486 layer_factory.hpp:77] Creating layer data_input-data_0_split
I0628 15:32:56.478248 10486 net.cpp:106] Creating Layer data_input-data_0_split
I0628 15:32:56.478260 10486 net.cpp:454] data_input-data_0_split <- data
I0628 15:32:56.478271 10486 net.cpp:411] data_input-data_0_split -> data_input-data_0_split_0
I0628 15:32:56.478284 10486 net.cpp:411] data_input-data_0_split -> data_input-data_0_split_1
I0628 15:32:56.478327 10486 net.cpp:150] Setting up data_input-data_0_split
I0628 15:32:56.478337 10486 net.cpp:157] Top shape: 1 3 600 1000 (1800000)
I0628 15:32:56.478340 10486 net.cpp:157] Top shape: 1 3 600 1000 (1800000)
I0628 15:32:56.478343 10486 net.cpp:165] Memory required for data: 21600028
I0628 15:32:56.478346 10486 layer_factory.hpp:77] Creating layer im_info_input-data_1_split
I0628 15:32:56.478353 10486 net.cpp:106] Creating Layer im_info_input-data_1_split
I0628 15:32:56.478358 10486 net.cpp:454] im_info_input-data_1_split <- im_info
I0628 15:32:56.478361 10486 net.cpp:411] im_info_input-data_1_split -> im_info_input-data_1_split_0
I0628 15:32:56.478368 10486 net.cpp:411] im_info_input-data_1_split -> im_info_input-data_1_split_1
I0628 15:32:56.478396 10486 net.cpp:150] Setting up im_info_input-data_1_split
I0628 15:32:56.478406 10486 net.cpp:157] Top shape: 1 3 (3)
I0628 15:32:56.478410 10486 net.cpp:157] Top shape: 1 3 (3)
I0628 15:32:56.478412 10486 net.cpp:165] Memory required for data: 21600052
I0628 15:32:56.478415 10486 layer_factory.hpp:77] Creating layer gt_boxes_input-data_2_split
I0628 15:32:56.478421 10486 net.cpp:106] Creating Layer gt_boxes_input-data_2_split
I0628 15:32:56.478425 10486 net.cpp:454] gt_boxes_input-data_2_split <- gt_boxes
I0628 15:32:56.478430 10486 net.cpp:411] gt_boxes_input-data_2_split -> gt_boxes_input-data_2_split_0
I0628 15:32:56.478435 10486 net.cpp:411] gt_boxes_input-data_2_split -> gt_boxes_input-data_2_split_1
I0628 15:32:56.478463 10486 net.cpp:150] Setting up gt_boxes_input-data_2_split
I0628 15:32:56.478472 10486 net.cpp:157] Top shape: 1 4 (4)
I0628 15:32:56.478477 10486 net.cpp:157] Top shape: 1 4 (4)
I0628 15:32:56.478479 10486 net.cpp:165] Memory required for data: 21600084
I0628 15:32:56.478482 10486 layer_factory.hpp:77] Creating layer conv1_1
I0628 15:32:56.478497 10486 net.cpp:106] Creating Layer conv1_1
I0628 15:32:56.478504 10486 net.cpp:454] conv1_1 <- data_input-data_0_split_0
I0628 15:32:56.478509 10486 net.cpp:411] conv1_1 -> conv1_1
I0628 15:32:56.821254 10486 net.cpp:150] Setting up conv1_1
I0628 15:32:56.821300 10486 net.cpp:157] Top shape: 1 64 600 1000 (38400000)
I0628 15:32:56.821305 10486 net.cpp:165] Memory required for data: 175200084
I0628 15:32:56.821327 10486 layer_factory.hpp:77] Creating layer relu1_1
I0628 15:32:56.821342 10486 net.cpp:106] Creating Layer relu1_1
I0628 15:32:56.821348 10486 net.cpp:454] relu1_1 <- conv1_1
I0628 15:32:56.821354 10486 net.cpp:397] relu1_1 -> conv1_1 (in-place)
I0628 15:32:56.822021 10486 net.cpp:150] Setting up relu1_1
I0628 15:32:56.822038 10486 net.cpp:157] Top shape: 1 64 600 1000 (38400000)
I0628 15:32:56.822043 10486 net.cpp:165] Memory required for data: 328800084
I0628 15:32:56.822047 10486 layer_factory.hpp:77] Creating layer conv1_2
I0628 15:32:56.822057 10486 net.cpp:106] Creating Layer conv1_2
I0628 15:32:56.822062 10486 net.cpp:454] conv1_2 <- conv1_1
I0628 15:32:56.822067 10486 net.cpp:411] conv1_2 -> conv1_2
I0628 15:32:56.826262 10486 net.cpp:150] Setting up conv1_2
I0628 15:32:56.826285 10486 net.cpp:157] Top shape: 1 64 600 1000 (38400000)
I0628 15:32:56.826290 10486 net.cpp:165] Memory required for data: 482400084
I0628 15:32:56.826299 10486 layer_factory.hpp:77] Creating layer relu1_2
I0628 15:32:56.826309 10486 net.cpp:106] Creating Layer relu1_2
I0628 15:32:56.826319 10486 net.cpp:454] relu1_2 <- conv1_2
I0628 15:32:56.826325 10486 net.cpp:397] relu1_2 -> conv1_2 (in-place)
I0628 15:32:56.826504 10486 net.cpp:150] Setting up relu1_2
I0628 15:32:56.826519 10486 net.cpp:157] Top shape: 1 64 600 1000 (38400000)
I0628 15:32:56.826522 10486 net.cpp:165] Memory required for data: 636000084
I0628 15:32:56.826526 10486 layer_factory.hpp:77] Creating layer pool1
I0628 15:32:56.826540 10486 net.cpp:106] Creating Layer pool1
I0628 15:32:56.826550 10486 net.cpp:454] pool1 <- conv1_2
I0628 15:32:56.826557 10486 net.cpp:411] pool1 -> pool1
I0628 15:32:56.826606 10486 net.cpp:150] Setting up pool1
I0628 15:32:56.826617 10486 net.cpp:157] Top shape: 1 64 300 500 (9600000)
I0628 15:32:56.826620 10486 net.cpp:165] Memory required for data: 674400084
I0628 15:32:56.826624 10486 layer_factory.hpp:77] Creating layer conv2_1
I0628 15:32:56.826632 10486 net.cpp:106] Creating Layer conv2_1
I0628 15:32:56.826635 10486 net.cpp:454] conv2_1 <- pool1
I0628 15:32:56.826642 10486 net.cpp:411] conv2_1 -> conv2_1
I0628 15:32:56.830870 10486 net.cpp:150] Setting up conv2_1
I0628 15:32:56.830893 10486 net.cpp:157] Top shape: 1 128 300 500 (19200000)
I0628 15:32:56.830899 10486 net.cpp:165] Memory required for data: 751200084
I0628 15:32:56.830907 10486 layer_factory.hpp:77] Creating layer relu2_1
I0628 15:32:56.830914 10486 net.cpp:106] Creating Layer relu2_1
I0628 15:32:56.830917 10486 net.cpp:454] relu2_1 <- conv2_1
I0628 15:32:56.830922 10486 net.cpp:397] relu2_1 -> conv2_1 (in-place)
I0628 15:32:56.831529 10486 net.cpp:150] Setting up relu2_1
I0628 15:32:56.831544 10486 net.cpp:157] Top shape: 1 128 300 500 (19200000)
I0628 15:32:56.831548 10486 net.cpp:165] Memory required for data: 828000084
I0628 15:32:56.831552 10486 layer_factory.hpp:77] Creating layer conv2_2
I0628 15:32:56.831562 10486 net.cpp:106] Creating Layer conv2_2
I0628 15:32:56.831565 10486 net.cpp:454] conv2_2 <- conv2_1
I0628 15:32:56.831571 10486 net.cpp:411] conv2_2 -> conv2_2
I0628 15:32:56.835953 10486 net.cpp:150] Setting up conv2_2
I0628 15:32:56.835973 10486 net.cpp:157] Top shape: 1 128 300 500 (19200000)
I0628 15:32:56.835978 10486 net.cpp:165] Memory required for data: 904800084
I0628 15:32:56.835989 10486 layer_factory.hpp:77] Creating layer relu2_2
I0628 15:32:56.835996 10486 net.cpp:106] Creating Layer relu2_2
I0628 15:32:56.836006 10486 net.cpp:454] relu2_2 <- conv2_2
I0628 15:32:56.836014 10486 net.cpp:397] relu2_2 -> conv2_2 (in-place)
I0628 15:32:56.836721 10486 net.cpp:150] Setting up relu2_2
I0628 15:32:56.836741 10486 net.cpp:157] Top shape: 1 128 300 500 (19200000)
I0628 15:32:56.836745 10486 net.cpp:165] Memory required for data: 981600084
I0628 15:32:56.836750 10486 layer_factory.hpp:77] Creating layer pool2
I0628 15:32:56.836755 10486 net.cpp:106] Creating Layer pool2
I0628 15:32:56.836758 10486 net.cpp:454] pool2 <- conv2_2
I0628 15:32:56.836763 10486 net.cpp:411] pool2 -> pool2
I0628 15:32:56.836809 10486 net.cpp:150] Setting up pool2
I0628 15:32:56.836820 10486 net.cpp:157] Top shape: 1 128 150 250 (4800000)
I0628 15:32:56.836823 10486 net.cpp:165] Memory required for data: 1000800084
I0628 15:32:56.836827 10486 layer_factory.hpp:77] Creating layer conv3_1
I0628 15:32:56.836835 10486 net.cpp:106] Creating Layer conv3_1
I0628 15:32:56.836838 10486 net.cpp:454] conv3_1 <- pool2
I0628 15:32:56.836844 10486 net.cpp:411] conv3_1 -> conv3_1
I0628 15:32:56.840569 10486 net.cpp:150] Setting up conv3_1
I0628 15:32:56.840592 10486 net.cpp:157] Top shape: 1 256 150 250 (9600000)
I0628 15:32:56.840596 10486 net.cpp:165] Memory required for data: 1039200084
I0628 15:32:56.840606 10486 layer_factory.hpp:77] Creating layer relu3_1
I0628 15:32:56.840615 10486 net.cpp:106] Creating Layer relu3_1
I0628 15:32:56.840622 10486 net.cpp:454] relu3_1 <- conv3_1
I0628 15:32:56.840627 10486 net.cpp:397] relu3_1 -> conv3_1 (in-place)
I0628 15:32:56.841274 10486 net.cpp:150] Setting up relu3_1
I0628 15:32:56.841289 10486 net.cpp:157] Top shape: 1 256 150 250 (9600000)
I0628 15:32:56.841292 10486 net.cpp:165] Memory required for data: 1077600084
I0628 15:32:56.841295 10486 layer_factory.hpp:77] Creating layer conv3_2
I0628 15:32:56.841308 10486 net.cpp:106] Creating Layer conv3_2
I0628 15:32:56.841311 10486 net.cpp:454] conv3_2 <- conv3_1
I0628 15:32:56.841317 10486 net.cpp:411] conv3_2 -> conv3_2
I0628 15:32:56.845405 10486 net.cpp:150] Setting up conv3_2
I0628 15:32:56.845428 10486 net.cpp:157] Top shape: 1 256 150 250 (9600000)
I0628 15:32:56.845433 10486 net.cpp:165] Memory required for data: 1116000084
I0628 15:32:56.845439 10486 layer_factory.hpp:77] Creating layer relu3_2
I0628 15:32:56.845448 10486 net.cpp:106] Creating Layer relu3_2
I0628 15:32:56.845453 10486 net.cpp:454] relu3_2 <- conv3_2
I0628 15:32:56.845458 10486 net.cpp:397] relu3_2 -> conv3_2 (in-place)
I0628 15:32:56.845649 10486 net.cpp:150] Setting up relu3_2
I0628 15:32:56.845664 10486 net.cpp:157] Top shape: 1 256 150 250 (9600000)
I0628 15:32:56.845666 10486 net.cpp:165] Memory required for data: 1154400084
I0628 15:32:56.845670 10486 layer_factory.hpp:77] Creating layer conv3_3
I0628 15:32:56.845679 10486 net.cpp:106] Creating Layer conv3_3
I0628 15:32:56.845682 10486 net.cpp:454] conv3_3 <- conv3_2
I0628 15:32:56.845690 10486 net.cpp:411] conv3_3 -> conv3_3
I0628 15:32:56.850002 10486 net.cpp:150] Setting up conv3_3
I0628 15:32:56.850023 10486 net.cpp:157] Top shape: 1 256 150 250 (9600000)
I0628 15:32:56.850028 10486 net.cpp:165] Memory required for data: 1192800084
I0628 15:32:56.850034 10486 layer_factory.hpp:77] Creating layer relu3_3
I0628 15:32:56.850040 10486 net.cpp:106] Creating Layer relu3_3
I0628 15:32:56.850044 10486 net.cpp:454] relu3_3 <- conv3_3
I0628 15:32:56.850052 10486 net.cpp:397] relu3_3 -> conv3_3 (in-place)
I0628 15:32:56.850852 10486 net.cpp:150] Setting up relu3_3
I0628 15:32:56.850869 10486 net.cpp:157] Top shape: 1 256 150 250 (9600000)
I0628 15:32:56.850873 10486 net.cpp:165] Memory required for data: 1231200084
I0628 15:32:56.850878 10486 layer_factory.hpp:77] Creating layer conv3_3_relu3_3_0_split
I0628 15:32:56.850883 10486 net.cpp:106] Creating Layer conv3_3_relu3_3_0_split
I0628 15:32:56.850888 10486 net.cpp:454] conv3_3_relu3_3_0_split <- conv3_3
I0628 15:32:56.850893 10486 net.cpp:411] conv3_3_relu3_3_0_split -> conv3_3_relu3_3_0_split_0
I0628 15:32:56.850900 10486 net.cpp:411] conv3_3_relu3_3_0_split -> conv3_3_relu3_3_0_split_1
I0628 15:32:56.850906 10486 net.cpp:411] conv3_3_relu3_3_0_split -> conv3_3_relu3_3_0_split_2
I0628 15:32:56.850967 10486 net.cpp:150] Setting up conv3_3_relu3_3_0_split
I0628 15:32:56.850978 10486 net.cpp:157] Top shape: 1 256 150 250 (9600000)
I0628 15:32:56.850982 10486 net.cpp:157] Top shape: 1 256 150 250 (9600000)
I0628 15:32:56.850986 10486 net.cpp:157] Top shape: 1 256 150 250 (9600000)
I0628 15:32:56.850988 10486 net.cpp:165] Memory required for data: 1346400084
I0628 15:32:56.850991 10486 layer_factory.hpp:77] Creating layer pool3
I0628 15:32:56.850998 10486 net.cpp:106] Creating Layer pool3
I0628 15:32:56.851002 10486 net.cpp:454] pool3 <- conv3_3_relu3_3_0_split_0
I0628 15:32:56.851006 10486 net.cpp:411] pool3 -> pool3
I0628 15:32:56.851043 10486 net.cpp:150] Setting up pool3
I0628 15:32:56.851053 10486 net.cpp:157] Top shape: 1 256 75 125 (2400000)
I0628 15:32:56.851055 10486 net.cpp:165] Memory required for data: 1356000084
I0628 15:32:56.851058 10486 layer_factory.hpp:77] Creating layer conv4_1
I0628 15:32:56.851068 10486 net.cpp:106] Creating Layer conv4_1
I0628 15:32:56.851070 10486 net.cpp:454] conv4_1 <- pool3
I0628 15:32:56.851076 10486 net.cpp:411] conv4_1 -> conv4_1
I0628 15:32:56.857419 10486 net.cpp:150] Setting up conv4_1
I0628 15:32:56.857445 10486 net.cpp:157] Top shape: 1 512 75 125 (4800000)
I0628 15:32:56.857450 10486 net.cpp:165] Memory required for data: 1375200084
I0628 15:32:56.857456 10486 layer_factory.hpp:77] Creating layer relu4_1
I0628 15:32:56.857463 10486 net.cpp:106] Creating Layer relu4_1
I0628 15:32:56.857466 10486 net.cpp:454] relu4_1 <- conv4_1
I0628 15:32:56.857472 10486 net.cpp:397] relu4_1 -> conv4_1 (in-place)
I0628 15:32:56.858577 10486 net.cpp:150] Setting up relu4_1
I0628 15:32:56.858597 10486 net.cpp:157] Top shape: 1 512 75 125 (4800000)
I0628 15:32:56.858600 10486 net.cpp:165] Memory required for data: 1394400084
I0628 15:32:56.858603 10486 layer_factory.hpp:77] Creating layer conv4_2
I0628 15:32:56.858615 10486 net.cpp:106] Creating Layer conv4_2
I0628 15:32:56.858625 10486 net.cpp:454] conv4_2 <- conv4_1
I0628 15:32:56.858631 10486 net.cpp:411] conv4_2 -> conv4_2
I0628 15:32:56.867838 10486 net.cpp:150] Setting up conv4_2
I0628 15:32:56.867861 10486 net.cpp:157] Top shape: 1 512 75 125 (4800000)
I0628 15:32:56.867864 10486 net.cpp:165] Memory required for data: 1413600084
I0628 15:32:56.867877 10486 layer_factory.hpp:77] Creating layer relu4_2
I0628 15:32:56.867893 10486 net.cpp:106] Creating Layer relu4_2
I0628 15:32:56.867902 10486 net.cpp:454] relu4_2 <- conv4_2
I0628 15:32:56.867908 10486 net.cpp:397] relu4_2 -> conv4_2 (in-place)
I0628 15:32:56.868322 10486 net.cpp:150] Setting up relu4_2
I0628 15:32:56.868336 10486 net.cpp:157] Top shape: 1 512 75 125 (4800000)
I0628 15:32:56.868340 10486 net.cpp:165] Memory required for data: 1432800084
I0628 15:32:56.868343 10486 layer_factory.hpp:77] Creating layer conv4_3
I0628 15:32:56.868352 10486 net.cpp:106] Creating Layer conv4_3
I0628 15:32:56.868356 10486 net.cpp:454] conv4_3 <- conv4_2
I0628 15:32:56.868363 10486 net.cpp:411] conv4_3 -> conv4_3
I0628 15:32:56.877596 10486 net.cpp:150] Setting up conv4_3
I0628 15:32:56.877627 10486 net.cpp:157] Top shape: 1 512 75 125 (4800000)
I0628 15:32:56.877635 10486 net.cpp:165] Memory required for data: 1452000084
I0628 15:32:56.877645 10486 layer_factory.hpp:77] Creating layer relu4_3
I0628 15:32:56.877658 10486 net.cpp:106] Creating Layer relu4_3
I0628 15:32:56.877668 10486 net.cpp:454] relu4_3 <- conv4_3
I0628 15:32:56.877679 10486 net.cpp:397] relu4_3 -> conv4_3 (in-place)
I0628 15:32:56.878645 10486 net.cpp:150] Setting up relu4_3
I0628 15:32:56.878664 10486 net.cpp:157] Top shape: 1 512 75 125 (4800000)
I0628 15:32:56.878667 10486 net.cpp:165] Memory required for data: 1471200084
I0628 15:32:56.878671 10486 layer_factory.hpp:77] Creating layer conv4_3_relu4_3_0_split
I0628 15:32:56.878677 10486 net.cpp:106] Creating Layer conv4_3_relu4_3_0_split
I0628 15:32:56.878681 10486 net.cpp:454] conv4_3_relu4_3_0_split <- conv4_3
I0628 15:32:56.878686 10486 net.cpp:411] conv4_3_relu4_3_0_split -> conv4_3_relu4_3_0_split_0
I0628 15:32:56.878695 10486 net.cpp:411] conv4_3_relu4_3_0_split -> conv4_3_relu4_3_0_split_1
I0628 15:32:56.878747 10486 net.cpp:150] Setting up conv4_3_relu4_3_0_split
I0628 15:32:56.878757 10486 net.cpp:157] Top shape: 1 512 75 125 (4800000)
I0628 15:32:56.878762 10486 net.cpp:157] Top shape: 1 512 75 125 (4800000)
I0628 15:32:56.878764 10486 net.cpp:165] Memory required for data: 1509600084
I0628 15:32:56.878767 10486 layer_factory.hpp:77] Creating layer pool4
I0628 15:32:56.878790 10486 net.cpp:106] Creating Layer pool4
I0628 15:32:56.878795 10486 net.cpp:454] pool4 <- conv4_3_relu4_3_0_split_0
I0628 15:32:56.878800 10486 net.cpp:411] pool4 -> pool4
I0628 15:32:56.878841 10486 net.cpp:150] Setting up pool4
I0628 15:32:56.878851 10486 net.cpp:157] Top shape: 1 512 38 63 (1225728)
I0628 15:32:56.878854 10486 net.cpp:165] Memory required for data: 1514502996
I0628 15:32:56.878859 10486 layer_factory.hpp:77] Creating layer conv5_1
I0628 15:32:56.878866 10486 net.cpp:106] Creating Layer conv5_1
I0628 15:32:56.878870 10486 net.cpp:454] conv5_1 <- pool4
I0628 15:32:56.878875 10486 net.cpp:411] conv5_1 -> conv5_1
I0628 15:32:56.887351 10486 net.cpp:150] Setting up conv5_1
I0628 15:32:56.887373 10486 net.cpp:157] Top shape: 1 512 38 63 (1225728)
I0628 15:32:56.887378 10486 net.cpp:165] Memory required for data: 1519405908
I0628 15:32:56.887384 10486 layer_factory.hpp:77] Creating layer relu5_1
I0628 15:32:56.887393 10486 net.cpp:106] Creating Layer relu5_1
I0628 15:32:56.887398 10486 net.cpp:454] relu5_1 <- conv5_1
I0628 15:32:56.887403 10486 net.cpp:397] relu5_1 -> conv5_1 (in-place)
I0628 15:32:56.888311 10486 net.cpp:150] Setting up relu5_1
I0628 15:32:56.888327 10486 net.cpp:157] Top shape: 1 512 38 63 (1225728)
I0628 15:32:56.888330 10486 net.cpp:165] Memory required for data: 1524308820
I0628 15:32:56.888334 10486 layer_factory.hpp:77] Creating layer conv5_2
I0628 15:32:56.888350 10486 net.cpp:106] Creating Layer conv5_2
I0628 15:32:56.888357 10486 net.cpp:454] conv5_2 <- conv5_1
I0628 15:32:56.888362 10486 net.cpp:411] conv5_2 -> conv5_2
I0628 15:32:56.897063 10486 net.cpp:150] Setting up conv5_2
I0628 15:32:56.897085 10486 net.cpp:157] Top shape: 1 512 38 63 (1225728)
I0628 15:32:56.897089 10486 net.cpp:165] Memory required for data: 1529211732
I0628 15:32:56.897096 10486 layer_factory.hpp:77] Creating layer relu5_2
I0628 15:32:56.897104 10486 net.cpp:106] Creating Layer relu5_2
I0628 15:32:56.897106 10486 net.cpp:454] relu5_2 <- conv5_2
I0628 15:32:56.897114 10486 net.cpp:397] relu5_2 -> conv5_2 (in-place)
I0628 15:32:56.897656 10486 net.cpp:150] Setting up relu5_2
I0628 15:32:56.897670 10486 net.cpp:157] Top shape: 1 512 38 63 (1225728)
I0628 15:32:56.897675 10486 net.cpp:165] Memory required for data: 1534114644
I0628 15:32:56.897677 10486 layer_factory.hpp:77] Creating layer conv5_3
I0628 15:32:56.897686 10486 net.cpp:106] Creating Layer conv5_3
I0628 15:32:56.897689 10486 net.cpp:454] conv5_3 <- conv5_2
I0628 15:32:56.897697 10486 net.cpp:411] conv5_3 -> conv5_3
I0628 15:32:56.905846 10486 net.cpp:150] Setting up conv5_3
I0628 15:32:56.905870 10486 net.cpp:157] Top shape: 1 512 38 63 (1225728)
I0628 15:32:56.905875 10486 net.cpp:165] Memory required for data: 1539017556
I0628 15:32:56.905882 10486 layer_factory.hpp:77] Creating layer relu5_3
I0628 15:32:56.905889 10486 net.cpp:106] Creating Layer relu5_3
I0628 15:32:56.905892 10486 net.cpp:454] relu5_3 <- conv5_3
I0628 15:32:56.905897 10486 net.cpp:397] relu5_3 -> conv5_3 (in-place)
I0628 15:32:56.906908 10486 net.cpp:150] Setting up relu5_3
I0628 15:32:56.906927 10486 net.cpp:157] Top shape: 1 512 38 63 (1225728)
I0628 15:32:56.906931 10486 net.cpp:165] Memory required for data: 1543920468
I0628 15:32:56.906934 10486 layer_factory.hpp:77] Creating layer conv5_3_relu5_3_0_split
I0628 15:32:56.906944 10486 net.cpp:106] Creating Layer conv5_3_relu5_3_0_split
I0628 15:32:56.906946 10486 net.cpp:454] conv5_3_relu5_3_0_split <- conv5_3
I0628 15:32:56.906954 10486 net.cpp:411] conv5_3_relu5_3_0_split -> conv5_3_relu5_3_0_split_0
I0628 15:32:56.906960 10486 net.cpp:411] conv5_3_relu5_3_0_split -> conv5_3_relu5_3_0_split_1
I0628 15:32:56.907019 10486 net.cpp:150] Setting up conv5_3_relu5_3_0_split
I0628 15:32:56.907030 10486 net.cpp:157] Top shape: 1 512 38 63 (1225728)
I0628 15:32:56.907035 10486 net.cpp:157] Top shape: 1 512 38 63 (1225728)
I0628 15:32:56.907037 10486 net.cpp:165] Memory required for data: 1553726292
I0628 15:32:56.907042 10486 layer_factory.hpp:77] Creating layer pool5
I0628 15:32:56.907047 10486 net.cpp:106] Creating Layer pool5
I0628 15:32:56.907050 10486 net.cpp:454] pool5 <- conv5_3_relu5_3_0_split_0
I0628 15:32:56.907057 10486 net.cpp:411] pool5 -> pool5
I0628 15:32:56.907095 10486 net.cpp:150] Setting up pool5
I0628 15:32:56.907105 10486 net.cpp:157] Top shape: 1 512 19 32 (311296)
I0628 15:32:56.907109 10486 net.cpp:165] Memory required for data: 1554971476
I0628 15:32:56.907111 10486 layer_factory.hpp:77] Creating layer P5
I0628 15:32:56.907124 10486 net.cpp:106] Creating Layer P5
I0628 15:32:56.907127 10486 net.cpp:454] P5 <- pool5
I0628 15:32:56.907133 10486 net.cpp:411] P5 -> P5
I0628 15:32:56.910214 10486 net.cpp:150] Setting up P5
I0628 15:32:56.910243 10486 net.cpp:157] Top shape: 1 256 19 32 (155648)
I0628 15:32:56.910253 10486 net.cpp:165] Memory required for data: 1555594068
I0628 15:32:56.910259 10486 layer_factory.hpp:77] Creating layer upP5
I0628 15:32:56.910272 10486 net.cpp:106] Creating Layer upP5
I0628 15:32:56.910284 10486 net.cpp:454] upP5 <- P5
I0628 15:32:56.910293 10486 net.cpp:411] upP5 -> upP5
I0628 15:32:56.936173 10486 net.cpp:150] Setting up upP5
I0628 15:32:56.936194 10486 net.cpp:157] Top shape: 1 256 38 64 (622592)
I0628 15:32:56.936197 10486 net.cpp:165] Memory required for data: 1558084436
I0628 15:32:56.936203 10486 layer_factory.hpp:77] Creating layer newC4
I0628 15:32:56.936214 10486 net.cpp:106] Creating Layer newC4
I0628 15:32:56.936224 10486 net.cpp:454] newC4 <- conv5_3_relu5_3_0_split_1
I0628 15:32:56.936230 10486 net.cpp:411] newC4 -> newC4
I0628 15:32:56.939836 10486 net.cpp:150] Setting up newC4
I0628 15:32:56.939857 10486 net.cpp:157] Top shape: 1 256 38 63 (612864)
I0628 15:32:56.939860 10486 net.cpp:165] Memory required for data: 1560535892
I0628 15:32:56.939867 10486 layer_factory.hpp:77] Creating layer newC4_newC4_0_split
I0628 15:32:56.939873 10486 net.cpp:106] Creating Layer newC4_newC4_0_split
I0628 15:32:56.939877 10486 net.cpp:454] newC4_newC4_0_split <- newC4
I0628 15:32:56.939884 10486 net.cpp:411] newC4_newC4_0_split -> newC4_newC4_0_split_0
I0628 15:32:56.939891 10486 net.cpp:411] newC4_newC4_0_split -> newC4_newC4_0_split_1
I0628 15:32:56.939940 10486 net.cpp:150] Setting up newC4_newC4_0_split
I0628 15:32:56.939951 10486 net.cpp:157] Top shape: 1 256 38 63 (612864)
I0628 15:32:56.939955 10486 net.cpp:157] Top shape: 1 256 38 63 (612864)
I0628 15:32:56.939957 10486 net.cpp:165] Memory required for data: 1565438804
I0628 15:32:56.939960 10486 layer_factory.hpp:77] Creating layer upP5crop
I0628 15:32:56.939971 10486 net.cpp:106] Creating Layer upP5crop
I0628 15:32:56.939975 10486 net.cpp:454] upP5crop <- upP5
I0628 15:32:56.939980 10486 net.cpp:454] upP5crop <- newC4_newC4_0_split_0
I0628 15:32:56.939983 10486 net.cpp:411] upP5crop -> upP5crop
I0628 15:32:56.940085 10486 net.cpp:150] Setting up upP5crop
I0628 15:32:56.940096 10486 net.cpp:157] Top shape: 1 256 38 63 (612864)
I0628 15:32:56.940099 10486 net.cpp:165] Memory required for data: 1567890260
I0628 15:32:56.940102 10486 layer_factory.hpp:77] Creating layer P4
I0628 15:32:56.940112 10486 net.cpp:106] Creating Layer P4
I0628 15:32:56.940115 10486 net.cpp:454] P4 <- newC4_newC4_0_split_1
I0628 15:32:56.940119 10486 net.cpp:454] P4 <- upP5crop
I0628 15:32:56.940124 10486 net.cpp:411] P4 -> P4
I0628 15:32:56.940150 10486 net.cpp:150] Setting up P4
I0628 15:32:56.940160 10486 net.cpp:157] Top shape: 1 256 38 63 (612864)
I0628 15:32:56.940162 10486 net.cpp:165] Memory required for data: 1570341716
I0628 15:32:56.940165 10486 layer_factory.hpp:77] Creating layer upP4
I0628 15:32:56.940173 10486 net.cpp:106] Creating Layer upP4
I0628 15:32:56.940177 10486 net.cpp:454] upP4 <- P4
I0628 15:32:56.940182 10486 net.cpp:411] upP4 -> upP4
I0628 15:32:56.966002 10486 net.cpp:150] Setting up upP4
I0628 15:32:56.966022 10486 net.cpp:157] Top shape: 1 256 76 126 (2451456)
I0628 15:32:56.966025 10486 net.cpp:165] Memory required for data: 1580147540
I0628 15:32:56.966030 10486 layer_factory.hpp:77] Creating layer newC3
I0628 15:32:56.966042 10486 net.cpp:106] Creating Layer newC3
I0628 15:32:56.966045 10486 net.cpp:454] newC3 <- conv4_3_relu4_3_0_split_1
I0628 15:32:56.966051 10486 net.cpp:411] newC3 -> newC3
I0628 15:32:56.969698 10486 net.cpp:150] Setting up newC3
I0628 15:32:56.969720 10486 net.cpp:157] Top shape: 1 256 75 125 (2400000)
I0628 15:32:56.969724 10486 net.cpp:165] Memory required for data: 1589747540
I0628 15:32:56.969739 10486 layer_factory.hpp:77] Creating layer newC3_newC3_0_split
I0628 15:32:56.969758 10486 net.cpp:106] Creating Layer newC3_newC3_0_split
I0628 15:32:56.969763 10486 net.cpp:454] newC3_newC3_0_split <- newC3
I0628 15:32:56.969768 10486 net.cpp:411] newC3_newC3_0_split -> newC3_newC3_0_split_0
I0628 15:32:56.969774 10486 net.cpp:411] newC3_newC3_0_split -> newC3_newC3_0_split_1
I0628 15:32:56.969820 10486 net.cpp:150] Setting up newC3_newC3_0_split
I0628 15:32:56.969831 10486 net.cpp:157] Top shape: 1 256 75 125 (2400000)
I0628 15:32:56.969835 10486 net.cpp:157] Top shape: 1 256 75 125 (2400000)
I0628 15:32:56.969838 10486 net.cpp:165] Memory required for data: 1608947540
I0628 15:32:56.969841 10486 layer_factory.hpp:77] Creating layer upP4crop
I0628 15:32:56.969846 10486 net.cpp:106] Creating Layer upP4crop
I0628 15:32:56.969849 10486 net.cpp:454] upP4crop <- upP4
I0628 15:32:56.969854 10486 net.cpp:454] upP4crop <- newC3_newC3_0_split_0
I0628 15:32:56.969866 10486 net.cpp:411] upP4crop -> upP4crop
I0628 15:32:56.969974 10486 net.cpp:150] Setting up upP4crop
I0628 15:32:56.969985 10486 net.cpp:157] Top shape: 1 256 75 125 (2400000)
I0628 15:32:56.969987 10486 net.cpp:165] Memory required for data: 1618547540
I0628 15:32:56.969990 10486 layer_factory.hpp:77] Creating layer P3
I0628 15:32:56.969997 10486 net.cpp:106] Creating Layer P3
I0628 15:32:56.970001 10486 net.cpp:454] P3 <- newC3_newC3_0_split_1
I0628 15:32:56.970005 10486 net.cpp:454] P3 <- upP4crop
I0628 15:32:56.970010 10486 net.cpp:411] P3 -> P3
I0628 15:32:56.970034 10486 net.cpp:150] Setting up P3
I0628 15:32:56.970043 10486 net.cpp:157] Top shape: 1 256 75 125 (2400000)
I0628 15:32:56.970046 10486 net.cpp:165] Memory required for data: 1628147540
I0628 15:32:56.970049 10486 layer_factory.hpp:77] Creating layer upP3
I0628 15:32:56.970057 10486 net.cpp:106] Creating Layer upP3
I0628 15:32:56.970060 10486 net.cpp:454] upP3 <- P3
I0628 15:32:56.970065 10486 net.cpp:411] upP3 -> upP3
I0628 15:32:56.995975 10486 net.cpp:150] Setting up upP3
I0628 15:32:56.995995 10486 net.cpp:157] Top shape: 1 256 150 250 (9600000)
I0628 15:32:56.995997 10486 net.cpp:165] Memory required for data: 1666547540
I0628 15:32:56.996003 10486 layer_factory.hpp:77] Creating layer upP3crop
I0628 15:32:56.996012 10486 net.cpp:106] Creating Layer upP3crop
I0628 15:32:56.996016 10486 net.cpp:454] upP3crop <- upP3
I0628 15:32:56.996021 10486 net.cpp:454] upP3crop <- conv3_3_relu3_3_0_split_1
I0628 15:32:56.996026 10486 net.cpp:411] upP3crop -> upP3crop
I0628 15:32:56.996130 10486 net.cpp:150] Setting up upP3crop
I0628 15:32:56.996142 10486 net.cpp:157] Top shape: 1 256 150 250 (9600000)
I0628 15:32:56.996145 10486 net.cpp:165] Memory required for data: 1704947540
I0628 15:32:56.996148 10486 layer_factory.hpp:77] Creating layer P2
I0628 15:32:56.996153 10486 net.cpp:106] Creating Layer P2
I0628 15:32:56.996158 10486 net.cpp:454] P2 <- conv3_3_relu3_3_0_split_2
I0628 15:32:56.996162 10486 net.cpp:454] P2 <- upP3crop
I0628 15:32:56.996166 10486 net.cpp:411] P2 -> P2
I0628 15:32:56.996191 10486 net.cpp:150] Setting up P2
I0628 15:32:56.996199 10486 net.cpp:157] Top shape: 1 256 150 250 (9600000)
I0628 15:32:56.996202 10486 net.cpp:165] Memory required for data: 1743347540
I0628 15:32:56.996206 10486 layer_factory.hpp:77] Creating layer newP2
I0628 15:32:56.996217 10486 net.cpp:106] Creating Layer newP2
I0628 15:32:56.996225 10486 net.cpp:454] newP2 <- P2
I0628 15:32:56.996232 10486 net.cpp:411] newP2 -> newP2
I0628 15:32:57.002478 10486 net.cpp:150] Setting up newP2
I0628 15:32:57.002506 10486 net.cpp:157] Top shape: 1 256 150 250 (9600000)
I0628 15:32:57.002511 10486 net.cpp:165] Memory required for data: 1781747540
I0628 15:32:57.002521 10486 layer_factory.hpp:77] Creating layer newP2_newP2_0_split
I0628 15:32:57.002527 10486 net.cpp:106] Creating Layer newP2_newP2_0_split
I0628 15:32:57.002532 10486 net.cpp:454] newP2_newP2_0_split <- newP2
I0628 15:32:57.002539 10486 net.cpp:411] newP2_newP2_0_split -> newP2_newP2_0_split_0
I0628 15:32:57.002545 10486 net.cpp:411] newP2_newP2_0_split -> newP2_newP2_0_split_1
I0628 15:32:57.002604 10486 net.cpp:150] Setting up newP2_newP2_0_split
I0628 15:32:57.002614 10486 net.cpp:157] Top shape: 1 256 150 250 (9600000)
I0628 15:32:57.002617 10486 net.cpp:157] Top shape: 1 256 150 250 (9600000)
I0628 15:32:57.002620 10486 net.cpp:165] Memory required for data: 1858547540
I0628 15:32:57.002624 10486 layer_factory.hpp:77] Creating layer rpn_conv/3x3
I0628 15:32:57.002635 10486 net.cpp:106] Creating Layer rpn_conv/3x3
I0628 15:32:57.002638 10486 net.cpp:454] rpn_conv/3x3 <- newP2_newP2_0_split_0
I0628 15:32:57.002645 10486 net.cpp:411] rpn_conv/3x3 -> rpn/output
I0628 15:32:57.038988 10486 net.cpp:150] Setting up rpn_conv/3x3
I0628 15:32:57.039032 10486 net.cpp:157] Top shape: 1 512 150 250 (19200000)
I0628 15:32:57.039037 10486 net.cpp:165] Memory required for data: 1935347540
I0628 15:32:57.039047 10486 layer_factory.hpp:77] Creating layer rpn_relu/3x3
I0628 15:32:57.039057 10486 net.cpp:106] Creating Layer rpn_relu/3x3
I0628 15:32:57.039062 10486 net.cpp:454] rpn_relu/3x3 <- rpn/output
I0628 15:32:57.039069 10486 net.cpp:397] rpn_relu/3x3 -> rpn/output (in-place)
I0628 15:32:57.039276 10486 net.cpp:150] Setting up rpn_relu/3x3
I0628 15:32:57.039293 10486 net.cpp:157] Top shape: 1 512 150 250 (19200000)
I0628 15:32:57.039296 10486 net.cpp:165] Memory required for data: 2012147540
I0628 15:32:57.039299 10486 layer_factory.hpp:77] Creating layer rpn/output_rpn_relu/3x3_0_split
I0628 15:32:57.039305 10486 net.cpp:106] Creating Layer rpn/output_rpn_relu/3x3_0_split
I0628 15:32:57.039309 10486 net.cpp:454] rpn/output_rpn_relu/3x3_0_split <- rpn/output
I0628 15:32:57.039315 10486 net.cpp:411] rpn/output_rpn_relu/3x3_0_split -> rpn/output_rpn_relu/3x3_0_split_0
I0628 15:32:57.039322 10486 net.cpp:411] rpn/output_rpn_relu/3x3_0_split -> rpn/output_rpn_relu/3x3_0_split_1
I0628 15:32:57.039372 10486 net.cpp:150] Setting up rpn/output_rpn_relu/3x3_0_split
I0628 15:32:57.039383 10486 net.cpp:157] Top shape: 1 512 150 250 (19200000)
I0628 15:32:57.039387 10486 net.cpp:157] Top shape: 1 512 150 250 (19200000)
I0628 15:32:57.039389 10486 net.cpp:165] Memory required for data: 2165747540
I0628 15:32:57.039393 10486 layer_factory.hpp:77] Creating layer rpn_cls_score
I0628 15:32:57.039408 10486 net.cpp:106] Creating Layer rpn_cls_score
I0628 15:32:57.039415 10486 net.cpp:454] rpn_cls_score <- rpn/output_rpn_relu/3x3_0_split_0
I0628 15:32:57.039422 10486 net.cpp:411] rpn_cls_score -> rpn_cls_score
I0628 15:32:57.042248 10486 net.cpp:150] Setting up rpn_cls_score
I0628 15:32:57.042268 10486 net.cpp:157] Top shape: 1 18 150 250 (675000)
I0628 15:32:57.042273 10486 net.cpp:165] Memory required for data: 2168447540
I0628 15:32:57.042280 10486 layer_factory.hpp:77] Creating layer rpn_cls_score_rpn_cls_score_0_split
I0628 15:32:57.042289 10486 net.cpp:106] Creating Layer rpn_cls_score_rpn_cls_score_0_split
I0628 15:32:57.042292 10486 net.cpp:454] rpn_cls_score_rpn_cls_score_0_split <- rpn_cls_score
I0628 15:32:57.042299 10486 net.cpp:411] rpn_cls_score_rpn_cls_score_0_split -> rpn_cls_score_rpn_cls_score_0_split_0
I0628 15:32:57.042304 10486 net.cpp:411] rpn_cls_score_rpn_cls_score_0_split -> rpn_cls_score_rpn_cls_score_0_split_1
I0628 15:32:57.042358 10486 net.cpp:150] Setting up rpn_cls_score_rpn_cls_score_0_split
I0628 15:32:57.042368 10486 net.cpp:157] Top shape: 1 18 150 250 (675000)
I0628 15:32:57.042372 10486 net.cpp:157] Top shape: 1 18 150 250 (675000)
I0628 15:32:57.042376 10486 net.cpp:165] Memory required for data: 2173847540
I0628 15:32:57.042378 10486 layer_factory.hpp:77] Creating layer rpn_bbox_pred
I0628 15:32:57.042389 10486 net.cpp:106] Creating Layer rpn_bbox_pred
I0628 15:32:57.042398 10486 net.cpp:454] rpn_bbox_pred <- rpn/output_rpn_relu/3x3_0_split_1
I0628 15:32:57.042407 10486 net.cpp:411] rpn_bbox_pred -> rpn_bbox_pred
I0628 15:32:57.046061 10486 net.cpp:150] Setting up rpn_bbox_pred
I0628 15:32:57.046084 10486 net.cpp:157] Top shape: 1 36 150 250 (1350000)
I0628 15:32:57.046088 10486 net.cpp:165] Memory required for data: 2179247540
I0628 15:32:57.046097 10486 layer_factory.hpp:77] Creating layer rpn_bbox_pred_rpn_bbox_pred_0_split
I0628 15:32:57.046103 10486 net.cpp:106] Creating Layer rpn_bbox_pred_rpn_bbox_pred_0_split
I0628 15:32:57.046108 10486 net.cpp:454] rpn_bbox_pred_rpn_bbox_pred_0_split <- rpn_bbox_pred
I0628 15:32:57.046113 10486 net.cpp:411] rpn_bbox_pred_rpn_bbox_pred_0_split -> rpn_bbox_pred_rpn_bbox_pred_0_split_0
I0628 15:32:57.046125 10486 net.cpp:411] rpn_bbox_pred_rpn_bbox_pred_0_split -> rpn_bbox_pred_rpn_bbox_pred_0_split_1
I0628 15:32:57.046177 10486 net.cpp:150] Setting up rpn_bbox_pred_rpn_bbox_pred_0_split
I0628 15:32:57.046188 10486 net.cpp:157] Top shape: 1 36 150 250 (1350000)
I0628 15:32:57.046192 10486 net.cpp:157] Top shape: 1 36 150 250 (1350000)
I0628 15:32:57.046195 10486 net.cpp:165] Memory required for data: 2190047540
I0628 15:32:57.046197 10486 layer_factory.hpp:77] Creating layer rpn_cls_score_reshape
I0628 15:32:57.046207 10486 net.cpp:106] Creating Layer rpn_cls_score_reshape
I0628 15:32:57.046211 10486 net.cpp:454] rpn_cls_score_reshape <- rpn_cls_score_rpn_cls_score_0_split_0
I0628 15:32:57.046218 10486 net.cpp:411] rpn_cls_score_reshape -> rpn_cls_score_reshape
I0628 15:32:57.046252 10486 net.cpp:150] Setting up rpn_cls_score_reshape
I0628 15:32:57.046263 10486 net.cpp:157] Top shape: 1 2 1350 250 (675000)
I0628 15:32:57.046267 10486 net.cpp:165] Memory required for data: 2192747540
I0628 15:32:57.046269 10486 layer_factory.hpp:77] Creating layer rpn_cls_score_reshape_rpn_cls_score_reshape_0_split
I0628 15:32:57.046274 10486 net.cpp:106] Creating Layer rpn_cls_score_reshape_rpn_cls_score_reshape_0_split
I0628 15:32:57.046278 10486 net.cpp:454] rpn_cls_score_reshape_rpn_cls_score_reshape_0_split <- rpn_cls_score_reshape
I0628 15:32:57.046283 10486 net.cpp:411] rpn_cls_score_reshape_rpn_cls_score_reshape_0_split -> rpn_cls_score_reshape_rpn_cls_score_reshape_0_split_0
I0628 15:32:57.046288 10486 net.cpp:411] rpn_cls_score_reshape_rpn_cls_score_reshape_0_split -> rpn_cls_score_reshape_rpn_cls_score_reshape_0_split_1
I0628 15:32:57.046337 10486 net.cpp:150] Setting up rpn_cls_score_reshape_rpn_cls_score_reshape_0_split
I0628 15:32:57.046349 10486 net.cpp:157] Top shape: 1 2 1350 250 (675000)
I0628 15:32:57.046352 10486 net.cpp:157] Top shape: 1 2 1350 250 (675000)
I0628 15:32:57.046355 10486 net.cpp:165] Memory required for data: 2198147540
I0628 15:32:57.046358 10486 layer_factory.hpp:77] Creating layer rpn-data
I0628 15:32:57.047556 10486 net.cpp:106] Creating Layer rpn-data
I0628 15:32:57.047579 10486 net.cpp:454] rpn-data <- rpn_cls_score_rpn_cls_score_0_split_1
I0628 15:32:57.047585 10486 net.cpp:454] rpn-data <- gt_boxes_input-data_2_split_0
I0628 15:32:57.047590 10486 net.cpp:454] rpn-data <- im_info_input-data_1_split_0
I0628 15:32:57.047593 10486 net.cpp:454] rpn-data <- data_input-data_0_split_1
I0628 15:32:57.047598 10486 net.cpp:411] rpn-data -> rpn_labels
I0628 15:32:57.047605 10486 net.cpp:411] rpn-data -> rpn_bbox_targets
I0628 15:32:57.047611 10486 net.cpp:411] rpn-data -> rpn_bbox_inside_weights
I0628 15:32:57.047616 10486 net.cpp:411] rpn-data -> rpn_bbox_outside_weights
I0628 15:32:57.049695 10486 net.cpp:150] Setting up rpn-data
I0628 15:32:57.049718 10486 net.cpp:157] Top shape: 1 1 1350 250 (337500)
I0628 15:32:57.049723 10486 net.cpp:157] Top shape: 1 36 150 250 (1350000)
I0628 15:32:57.049727 10486 net.cpp:157] Top shape: 1 36 150 250 (1350000)
I0628 15:32:57.049731 10486 net.cpp:157] Top shape: 1 36 150 250 (1350000)
I0628 15:32:57.049733 10486 net.cpp:165] Memory required for data: 2215697540
I0628 15:32:57.049737 10486 layer_factory.hpp:77] Creating layer rpn_loss_cls
I0628 15:32:57.049758 10486 net.cpp:106] Creating Layer rpn_loss_cls
I0628 15:32:57.049767 10486 net.cpp:454] rpn_loss_cls <- rpn_cls_score_reshape_rpn_cls_score_reshape_0_split_0
I0628 15:32:57.049772 10486 net.cpp:454] rpn_loss_cls <- rpn_labels
…
I0628 15:32:57.061444 10486 net.cpp:157] Top shape: (1)
I0628 15:32:57.061447 10486 net.cpp:160]     with loss weight 1
I0628 15:32:57.061456 10486 net.cpp:165] Memory required for data: 2215697548
I0628 15:32:57.061460 10486 layer_factory.hpp:77] Creating layer rpn_cls_prob
I0628 15:32:57.061468 10486 net.cpp:106] Creating Layer rpn_cls_prob
I0628 15:32:57.061480 10486 net.cpp:454] rpn_cls_prob <- rpn_cls_score_reshape_rpn_cls_score_reshape_0_split_1
I0628 15:32:57.061486 10486 net.cpp:411] rpn_cls_prob -> rpn_cls_prob
I0628 15:32:57.062314 10486 net.cpp:150] Setting up rpn_cls_prob
I0628 15:32:57.062332 10486 net.cpp:157] Top shape: 1 2 1350 250 (675000)
I0628 15:32:57.062336 10486 net.cpp:165] Memory required for data: 2218397548
I0628 15:32:57.062340 10486 layer_factory.hpp:77] Creating layer rpn_cls_prob_reshape
I0628 15:32:57.062350 10486 net.cpp:106] Creating Layer rpn_cls_prob_reshape
I0628 15:32:57.062355 10486 net.cpp:454] rpn_cls_prob_reshape <- rpn_cls_prob
I0628 15:32:57.062361 10486 net.cpp:411] rpn_cls_prob_reshape -> rpn_cls_prob_reshape
I0628 15:32:57.062402 10486 net.cpp:150] Setting up rpn_cls_prob_reshape
I0628 15:32:57.062413 10486 net.cpp:157] Top shape: 1 18 150 250 (675000)
I0628 15:32:57.062417 10486 net.cpp:165] Memory required for data: 2221097548
I0628 15:32:57.062419 10486 layer_factory.hpp:77] Creating layer proposal
I0628 15:32:57.064703 10486 net.cpp:106] Creating Layer proposal
I0628 15:32:57.064725 10486 net.cpp:454] proposal <- rpn_cls_prob_reshape
I0628 15:32:57.064731 10486 net.cpp:454] proposal <- rpn_bbox_pred_rpn_bbox_pred_0_split_1
I0628 15:32:57.064735 10486 net.cpp:454] proposal <- im_info_input-data_1_split_1
I0628 15:32:57.064741 10486 net.cpp:411] proposal -> rpn_rois
I0628 15:32:57.065649 10486 net.cpp:150] Setting up proposal
I0628 15:32:57.065672 10486 net.cpp:157] Top shape: 1 5 (5)
I0628 15:32:57.065676 10486 net.cpp:165] Memory required for data: 2221097568
I0628 15:32:57.065682 10486 layer_factory.hpp:77] Creating layer roi-data
I0628 15:32:57.065930 10486 net.cpp:106] Creating Layer roi-data
I0628 15:32:57.065949 10486 net.cpp:454] roi-data <- rpn_rois
I0628 15:32:57.065955 10486 net.cpp:454] roi-data <- gt_boxes_input-data_2_split_1
I0628 15:32:57.065960 10486 net.cpp:411] roi-data -> rois
I0628 15:32:57.065968 10486 net.cpp:411] roi-data -> labels
I0628 15:32:57.065973 10486 net.cpp:411] roi-data -> bbox_targets
I0628 15:32:57.065985 10486 net.cpp:411] roi-data -> bbox_inside_weights
I0628 15:32:57.065990 10486 net.cpp:411] roi-data -> bbox_outside_weights
I0628 15:32:57.066390 10486 net.cpp:150] Setting up roi-data
I0628 15:32:57.066408 10486 net.cpp:157] Top shape: 1 5 (5)
I0628 15:32:57.066412 10486 net.cpp:157] Top shape: 1 1 (1)
I0628 15:32:57.066416 10486 net.cpp:157] Top shape: 1 84 (84)
I0628 15:32:57.066419 10486 net.cpp:157] Top shape: 1 84 (84)
I0628 15:32:57.066422 10486 net.cpp:157] Top shape: 1 84 (84)
I0628 15:32:57.066426 10486 net.cpp:165] Memory required for data: 2221098600
I0628 15:32:57.066429 10486 layer_factory.hpp:77] Creating layer roi_pool5
I0628 15:32:57.066439 10486 net.cpp:106] Creating Layer roi_pool5
I0628 15:32:57.066444 10486 net.cpp:454] roi_pool5 <- newP2_newP2_0_split_1
I0628 15:32:57.066449 10486 net.cpp:454] roi_pool5 <- rois
I0628 15:32:57.066453 10486 net.cpp:411] roi_pool5 -> rcnn_pool5
I0628 15:32:57.066462 10486 roi_pooling_layer.cpp:30] Spatial scale: 0.25
I0628 15:32:57.066517 10486 net.cpp:150] Setting up roi_pool5
I0628 15:32:57.066527 10486 net.cpp:157] Top shape: 1 256 7 7 (12544)
I0628 15:32:57.066531 10486 net.cpp:165] Memory required for data: 2221148776
I0628 15:32:57.066534 10486 layer_factory.hpp:77] Creating layer rcnn_fc6
I0628 15:32:57.066543 10486 net.cpp:106] Creating Layer rcnn_fc6
I0628 15:32:57.066547 10486 net.cpp:454] rcnn_fc6 <- rcnn_pool5
I0628 15:32:57.066555 10486 net.cpp:411] rcnn_fc6 -> rcnn_fc6
I0628 15:32:57.407670 10486 net.cpp:150] Setting up rcnn_fc6
I0628 15:32:57.407727 10486 net.cpp:157] Top shape: 1 4096 (4096)
I0628 15:32:57.407732 10486 net.cpp:165] Memory required for data: 2221165160
I0628 15:32:57.407743 10486 layer_factory.hpp:77] Creating layer relu6
I0628 15:32:57.407762 10486 net.cpp:106] Creating Layer relu6
I0628 15:32:57.407768 10486 net.cpp:454] relu6 <- rcnn_fc6
I0628 15:32:57.407781 10486 net.cpp:397] relu6 -> rcnn_fc6 (in-place)
I0628 15:32:57.409003 10486 net.cpp:150] Setting up relu6
I0628 15:32:57.409027 10486 net.cpp:157] Top shape: 1 4096 (4096)
I0628 15:32:57.409032 10486 net.cpp:165] Memory required for data: 2221181544
I0628 15:32:57.409036 10486 layer_factory.hpp:77] Creating layer drop6
I0628 15:32:57.409057 10486 net.cpp:106] Creating Layer drop6
I0628 15:32:57.409062 10486 net.cpp:454] drop6 <- rcnn_fc6
I0628 15:32:57.409070 10486 net.cpp:397] drop6 -> rcnn_fc6 (in-place)
I0628 15:32:57.409121 10486 net.cpp:150] Setting up drop6
I0628 15:32:57.409127 10486 net.cpp:157] Top shape: 1 4096 (4096)
I0628 15:32:57.409131 10486 net.cpp:165] Memory required for data: 2221197928
I0628 15:32:57.409133 10486 layer_factory.hpp:77] Creating layer fc7
I0628 15:32:57.409143 10486 net.cpp:106] Creating Layer fc7
I0628 15:32:57.409147 10486 net.cpp:454] fc7 <- rcnn_fc6
I0628 15:32:57.409157 10486 net.cpp:411] fc7 -> fc7
I0628 15:32:57.520778 10486 net.cpp:150] Setting up fc7
I0628 15:32:57.520828 10486 net.cpp:157] Top shape: 1 4096 (4096)
I0628 15:32:57.520833 10486 net.cpp:165] Memory required for data: 2221214312
I0628 15:32:57.520845 10486 layer_factory.hpp:77] Creating layer relu7
I0628 15:32:57.520858 10486 net.cpp:106] Creating Layer relu7
I0628 15:32:57.520864 10486 net.cpp:454] relu7 <- fc7
I0628 15:32:57.520870 10486 net.cpp:397] relu7 -> fc7 (in-place)
I0628 15:32:57.521152 10486 net.cpp:150] Setting up relu7
I0628 15:32:57.521167 10486 net.cpp:157] Top shape: 1 4096 (4096)
I0628 15:32:57.521172 10486 net.cpp:165] Memory required for data: 2221230696
I0628 15:32:57.521174 10486 layer_factory.hpp:77] Creating layer drop7
I0628 15:32:57.521181 10486 net.cpp:106] Creating Layer drop7
I0628 15:32:57.521185 10486 net.cpp:454] drop7 <- fc7
I0628 15:32:57.521193 10486 net.cpp:397] drop7 -> fc7 (in-place)
I0628 15:32:57.521229 10486 net.cpp:150] Setting up drop7
I0628 15:32:57.521234 10486 net.cpp:157] Top shape: 1 4096 (4096)
I0628 15:32:57.521239 10486 net.cpp:165] Memory required for data: 2221247080
I0628 15:32:57.521242 10486 layer_factory.hpp:77] Creating layer fc7_drop7_0_split
I0628 15:32:57.521247 10486 net.cpp:106] Creating Layer fc7_drop7_0_split
I0628 15:32:57.521250 10486 net.cpp:454] fc7_drop7_0_split <- fc7
I0628 15:32:57.521255 10486 net.cpp:411] fc7_drop7_0_split -> fc7_drop7_0_split_0
I0628 15:32:57.521260 10486 net.cpp:411] fc7_drop7_0_split -> fc7_drop7_0_split_1
I0628 15:32:57.521308 10486 net.cpp:150] Setting up fc7_drop7_0_split
I0628 15:32:57.521319 10486 net.cpp:157] Top shape: 1 4096 (4096)
I0628 15:32:57.521323 10486 net.cpp:157] Top shape: 1 4096 (4096)
I0628 15:32:57.521327 10486 net.cpp:165] Memory required for data: 2221279848
I0628 15:32:57.521329 10486 layer_factory.hpp:77] Creating layer cls_score
I0628 15:32:57.521337 10486 net.cpp:106] Creating Layer cls_score
I0628 15:32:57.521340 10486 net.cpp:454] cls_score <- fc7_drop7_0_split_0
I0628 15:32:57.521348 10486 net.cpp:411] cls_score -> cls_score
I0628 15:32:57.523558 10486 net.cpp:150] Setting up cls_score
I0628 15:32:57.523576 10486 net.cpp:157] Top shape: 1 21 (21)
I0628 15:32:57.523578 10486 net.cpp:165] Memory required for data: 2221279932
I0628 15:32:57.523584 10486 layer_factory.hpp:77] Creating layer bbox_pred
I0628 15:32:57.523591 10486 net.cpp:106] Creating Layer bbox_pred
I0628 15:32:57.523596 10486 net.cpp:454] bbox_pred <- fc7_drop7_0_split_1
I0628 15:32:57.523603 10486 net.cpp:411] bbox_pred -> bbox_pred
I0628 15:32:57.532636 10486 net.cpp:150] Setting up bbox_pred
I0628 15:32:57.532656 10486 net.cpp:157] Top shape: 1 84 (84)
I0628 15:32:57.532660 10486 net.cpp:165] Memory required for data: 2221280268
I0628 15:32:57.532666 10486 layer_factory.hpp:77] Creating layer loss_cls
I0628 15:32:57.532676 10486 net.cpp:106] Creating Layer loss_cls
I0628 15:32:57.532681 10486 net.cpp:454] loss_cls <- cls_score
I0628 15:32:57.532686 10486 net.cpp:454] loss_cls <- labels
I0628 15:32:57.532691 10486 net.cpp:411] loss_cls -> loss_cls
…
