…
stepsize: 50000
snapshot: 0
snapshot_prefix: "fpn"
average_loss: 100
iter_size: 2
I0628 11:45:44.719445 52140 solver.cpp:81] Creating training net from train_net file: models/pascal_voc/VGG16/FP_Net_end2end/train.prototxt
I0628 11:45:44.720978 52140 net.cpp:49] Initializing net from parameters: 
name: "VGG_ILSVRC_16_layers"
state {
  phase: TRAIN
}
layer {
  name: "input-data"
  type: "Python"
  top: "data"
  top: "im_info"
  top: "gt_boxes"
  python_param {
    module: "roi_data_layer.layer"
    layer: "RoIDataLayer"
    param_str: "\'num_classes\': 21"
  }
}
layer {
  name: "conv1_1"
  type: "Convolution"
  bottom: "data"
  top: "conv1_1"
  param {
    lr_mult: 0
    decay_mult: 0
  }
  param {
    lr_mult: 0
    decay_mult: 0
  }
  convolution_param {
    num_output: 64
    pad: 1
    kernel_size: 3
  }
}
layer {
  name: "relu1_1"
  type: "ReLU"
  bottom: "conv1_1"
  top: "conv1_1"
}
layer {
  name: "conv1_2"
  type: "Convolution"
  bottom: "conv1_1"
  top: "conv1_2"
  param {
    lr_mult: 0
    decay_mult: 0
  }
  param {
    lr_mult: 0
    decay_mult: 0
  }
  convolution_param {
    num_output: 64
    pad: 1
    kernel_size: 3
  }
}
layer {
  name: "relu1_2"
  type: "ReLU"
  bottom: "conv1_2"
  top: "conv1_2"
}
layer {
  name: "pool1"
  type: "Pooling"
  bottom: "conv1_2"
  top: "pool1"
  pooling_param {
    pool: MAX
    kernel_size: 2
    stride: 2
  }
}
layer {
  name: "conv2_1"
  type: "Convolution"
  bottom: "pool1"
  top: "conv2_1"
  param {
    lr_mult: 0
    decay_mult: 0
  }
  param {
    lr_mult: 0
    decay_mult: 0
  }
  convolution_param {
    num_output: 128
    pad: 1
    kernel_size: 3
  }
}
layer {
  name: "relu2_1"
  type: "ReLU"
  bottom: "conv2_1"
  top: "conv2_1"
}
layer {
  name: "conv2_2"
  type: "Convolution"
  bottom: "conv2_1"
  top: "conv2_2"
  param {
    lr_mult: 0
    decay_mult: 0
  }
  param {
    lr_mult: 0
    decay_mult: 0
  }
  convolution_param {
    num_output: 128
    pad: 1
    kernel_size: 3
  }
}
layer {
  name: "relu2_2"
  type: "ReLU"
  bottom: "conv2_2"
  top: "conv2_2"
}
layer {
  name: "pool2"
  type: "Pooling"
  bottom: "conv2_2"
  top: "pool2"
  pooling_param {
    pool: MAX
    kernel_size: 2
    stride: 2
  }
}
layer {
  name: "conv3_1"
  type: "Convolution"
  bottom: "pool2"
  top: "conv3_1"
  param {
    lr_mult: 1
  }
  param {
    lr_mult: 2
  }
  convolution_param {
    num_output: 256
    pad: 1
    kernel_size: 3
  }
}
layer {
  name: "relu3_1"
  type: "ReLU"
  bottom: "conv3_1"
  top: "conv3_1"
}
layer {
  name: "conv3_2"
  type: "Convolution"
  bottom: "conv3_1"
  top: "conv3_2"
  param {
    lr_mult: 1
  }
  param {
    lr_mult: 2
  }
  convolution_param {
    num_output: 256
    pad: 1
    kernel_size: 3
  }
}
layer {
  name: "relu3_2"
  type: "ReLU"
  bottom: "conv3_2"
  top: "conv3_2"
}
layer {
  name: "conv3_3"
  type: "Convolution"
  bottom: "conv3_2"
  top: "conv3_3"
  param {
    lr_mult: 1
  }
  param {
    lr_mult: 2
  }
  convolution_param {
    num_output: 256
    pad: 1
    kernel_size: 3
  }
}
layer {
  name: "relu3_3"
  type: "ReLU"
  bottom: "conv3_3"
  top: "conv3_3"
}
layer {
  name: "pool3"
  type: "Pooling"
  bottom: "conv3_3"
  top: "pool3"
  pooling_param {
    pool: MAX
    kernel_size: 2
    stride: 2
  }
}
layer {
  name: "conv4_1"
  type: "Convolution"
  bottom: "pool3"
  top: "conv4_1"
  param {
    lr_mult: 1
  }
  param {
    lr_mult: 2
  }
  convolution_param {
    num_output: 512
    pad: 1
    kernel_size: 3
  }
}
layer {
  name: "relu4_1"
  type: "ReLU"
  bottom: "conv4_1"
  top: "conv4_1"
}
layer {
  name: "conv4_2"
  type: "Convolution"
  bottom: "conv4_1"
  top: "conv4_2"
  param {
    lr_mult: 1
  }
  param {
    lr_mult: 2
  }
  convolution_param {
    num_output: 512
    pad: 1
    kernel_size: 3
  }
}
layer {
  name: "relu4_2"
  type: "ReLU"
  bottom: "conv4_2"
  top: "conv4_2"
}
layer {
  name: "conv4_3"
  type: "Convolution"
  bottom: "conv4_2"
  top: "conv4_3"
  param {
    lr_mult: 1
  }
  param {
    lr_mult: 2
  }
  convolution_param {
    num_output: 512
    pad: 1
    kernel_size: 3
  }
}
layer {
  name: "relu4_3"
  type: "ReLU"
  bottom: "conv4_3"
  top: "conv4_3"
}
layer {
  name: "pool4"
  type: "Pooling"
  bottom: "conv4_3"
  top: "pool4"
  pooling_param {
    pool: MAX
    kernel_size: 2
    stride: 2
  }
}
layer {
  name: "conv5_1"
  type: "Convolution"
  bottom: "pool4"
  top: "conv5_1"
  param {
    lr_mult: 1
  }
  param {
    lr_mult: 2
  }
  convolution_param {
    num_output: 512
    pad: 1
    kernel_size: 3
  }
}
layer {
  name: "relu5_1"
  type: "ReLU"
  bottom: "conv5_1"
  top: "conv5_1"
}
layer {
  name: "conv5_2"
  type: "Convolution"
  bottom: "conv5_1"
  top: "conv5_2"
  param {
    lr_mult: 1
  }
  param {
    lr_mult: 2
  }
  convolution_param {
    num_output: 512
    pad: 1
    kernel_size: 3
  }
}
layer {
  name: "relu5_2"
  type: "ReLU"
  bottom: "conv5_2"
  top: "conv5_2"
}
layer {
  name: "conv5_3"
  type: "Convolution"
  bottom: "conv5_2"
  top: "conv5_3"
  param {
    lr_mult: 1
  }
  param {
    lr_mult: 2
  }
  convolution_param {
    num_output: 512
    pad: 1
    kernel_size: 3
  }
}
layer {
  name: "relu5_3"
  type: "ReLU"
  bottom: "conv5_3"
  top: "conv5_3"
}
layer {
  name: "pool5"
  type: "Pooling"
  bottom: "conv5_3"
  top: "pool5"
  pooling_param {
    pool: MAX
    kernel_size: 2
    stride: 2
  }
}
layer {
  name: "P5"
  type: "Convolution"
  bottom: "pool5"
  top: "P5"
  param {
    lr_mult: 1
  }
  param {
    lr_mult: 2
  }
  convolution_param {
    num_output: 256
    kernel_size: 1
    weight_filler {
      type: "xavier"
    }
    bias_filler {
      type: "constant"
    }
  }
}
layer {
  name: "upP5"
  type: "Deconvolution"
  bottom: "P5"
  top: "upP5"
  param {
    lr_mult: 0
    decay_mult: 0
  }
  convolution_param {
    num_output: 256
    bias_term: false
    pad: 1
    kernel_size: 4
    stride: 2
    weight_filler {
      type: "bilinear"
    }
  }
}
layer {
  name: "newC4"
  type: "Convolution"
  bottom: "conv5_3"
  top: "newC4"
  param {
    lr_mult: 1
  }
  param {
    lr_mult: 2
  }
  convolution_param {
    num_output: 256
    kernel_size: 1
    weight_filler {
      type: "xavier"
    }
    bias_filler {
      type: "constant"
    }
  }
}
layer {
  name: "upP5crop"
  type: "Crop"
  bottom: "upP5"
  bottom: "newC4"
  top: "upP5crop"
  crop_param {
    axis: 2
    offset: 0
  }
}
layer {
  name: "P4"
  type: "Eltwise"
  bottom: "newC4"
  bottom: "upP5crop"
  top: "P4"
  eltwise_param {
    operation: SUM
  }
}
layer {
  name: "upP4"
  type: "Deconvolution"
  bottom: "P4"
  top: "upP4"
  param {
    lr_mult: 0
    decay_mult: 0
  }
  convolution_param {
    num_output: 256
    bias_term: false
    pad: 1
    kernel_size: 4
    stride: 2
    weight_filler {
      type: "bilinear"
    }
  }
}
layer {
  name: "newC3"
  type: "Convolution"
  bottom: "conv4_3"
  top: "newC3"
  param {
    lr_mult: 1
  }
  param {
    lr_mult: 2
  }
  convolution_param {
    num_output: 256
    kernel_size: 1
    weight_filler {
      type: "xavier"
    }
    bias_filler {
      type: "constant"
    }
  }
}
layer {
  name: "upP4crop"
  type: "Crop"
  bottom: "upP4"
  bottom: "newC3"
  top: "upP4crop"
  crop_param {
    axis: 2
    offset: 0
  }
}
layer {
  name: "P3"
  type: "Eltwise"
  bottom: "newC3"
  bottom: "upP4crop"
  top: "P3"
  eltwise_param {
    operation: SUM
  }
}
layer {
  name: "upP3"
  type: "Deconvolution"
  bottom: "P3"
  top: "upP3"
  param {
    lr_mult: 0
    decay_mult: 0
  }
  convolution_param {
    num_output: 256
    bias_term: false
    pad: 1
    kernel_size: 4
    stride: 2
    weight_filler {
      type: "bilinear"
    }
  }
}
layer {
  name: "upP3crop"
  type: "Crop"
  bottom: "upP3"
  bottom: "conv3_3"
  top: "upP3crop"
  crop_param {
    axis: 2
    offset: 0
  }
}
layer {
  name: "P2"
  type: "Eltwise"
  bottom: "conv3_3"
  bottom: "upP3crop"
  top: "P2"
  eltwise_param {
    operation: SUM
  }
}
layer {
  name: "newP2"
  type: "Convolution"
  bottom: "P2"
  top: "newP2"
  param {
    lr_mult: 1
  }
  param {
    lr_mult: 2
  }
  convolution_param {
    num_output: 256
    pad: 1
    kernel_size: 3
    weight_filler {
      type: "xavier"
    }
    bias_filler {
      type: "constant"
    }
  }
}
layer {
  name: "rpn_conv/3x3"
  type: "Convolution"
  bottom: "newP2"
  top: "rpn/output"
  param {
    lr_mult: 1
  }
  param {
    lr_mult: 2
  }
  convolution_param {
    num_output: 512
    pad: 1
    kernel_size: 3
    stride: 1
    weight_filler {
      type: "gaussian"
      std: 0.01
    }
    bias_filler {
      type: "constant"
      value: 0
    }
  }
}
layer {
  name: "rpn_relu/3x3"
  type: "ReLU"
  bottom: "rpn/output"
  top: "rpn/output"
}
layer {
  name: "rpn_cls_score"
  type: "Convolution"
  bottom: "rpn/output"
  top: "rpn_cls_score"
  param {
    lr_mult: 1
  }
  param {
    lr_mult: 2
  }
  convolution_param {
    num_output: 18
    pad: 0
    kernel_size: 1
    stride: 1
    weight_filler {
      type: "gaussian"
      std: 0.01
    }
    bias_filler {
      type: "constant"
      value: 0
    }
  }
}
layer {
  name: "rpn_bbox_pred"
  type: "Convolution"
  bottom: "rpn/output"
  top: "rpn_bbox_pred"
  param {
    lr_mult: 1
  }
  param {
    lr_mult: 2
  }
  convolution_param {
    num_output: 36
    pad: 0
    kernel_size: 1
    stride: 1
    weight_filler {
      type: "gaussian"
      std: 0.01
    }
    bias_filler {
      type: "constant"
      value: 0
    }
  }
}
layer {
  name: "rpn_cls_score_reshape"
  type: "Reshape"
  bottom: "rpn_cls_score"
  top: "rpn_cls_score_reshape"
  reshape_param {
    shape {
      dim: 0
      dim: 2
      dim: -1
      dim: 0
    }
  }
}
layer {
  name: "rpn-data"
  type: "Python"
  bottom: "rpn_cls_score"
  bottom: "gt_boxes"
  bottom: "im_info"
  bottom: "data"
  top: "rpn_labels"
  top: "rpn_bbox_targets"
  top: "rpn_bbox_inside_weights"
  top: "rpn_bbox_outside_weights"
  python_param {
    module: "rpn.anchor_target_layer"
    layer: "AnchorTargetLayer"
    param_str: "\'feat_stride\': 4"
  }
}
layer {
  name: "rpn_loss_cls"
  type: "SoftmaxWithLoss"
  bottom: "rpn_cls_score_reshape"
  bottom: "rpn_labels"
  top: "rpn_cls_loss"
  loss_weight: 1
  propagate_down: true
  propagate_down: false
  loss_param {
    ignore_label: -1
    normalize: true
  }
}
layer {
  name: "rpn_loss_bbox"
  type: "SmoothL1Loss"
  bottom: "rpn_bbox_pred"
  bottom: "rpn_bbox_targets"
  bottom: "rpn_bbox_inside_weights"
  bottom: "rpn_bbox_outside_weights"
  top: "rpn_loss_bbox"
  loss_weight: 1
  smooth_l1_loss_param {
    sigma: 3
  }
}
layer {
  name: "rpn_cls_prob"
  type: "Softmax"
  bottom: "rpn_cls_score_reshape"
  top: "rpn_cls_prob"
}
layer {
  name: "rpn_cls_prob_reshape"
  type: "Reshape"
  bottom: "rpn_cls_prob"
  top: "rpn_cls_prob_reshape"
  reshape_param {
    shape {
      dim: 0
      dim: 18
      dim: -1
      dim: 0
    }
  }
}
layer {
  name: "proposal"
  type: "Python"
  bottom: "rpn_cls_prob_reshape"
  bottom: "rpn_bbox_pred"
  bottom: "im_info"
  top: "rpn_rois"
  python_param {
    module: "rpn.proposal_layer"
    layer: "ProposalLayer"
    param_str: "\'feat_stride\': 4"
  }
}
layer {
  name: "roi-data"
  type: "Python"
  bottom: "rpn_rois"
  bottom: "gt_boxes"
  top: "rois"
  top: "labels"
  top: "bbox_targets"
  top: "bbox_inside_weights"
  top: "bbox_outside_weights"
  python_param {
    module: "rpn.proposal_target_layer"
    layer: "ProposalTargetLayer"
    param_str: "\'num_classes\': 21"
  }
}
layer {
  name: "roi_pool5"
  type: "ROIPooling"
  bottom: "newP2"
  bottom: "rois"
  top: "rcnn_pool5"
  roi_pooling_param {
    pooled_h: 7
    pooled_w: 7
    spatial_scale: 0.25
  }
}
layer {
  name: "rcnn_fc6"
  type: "InnerProduct"
  bottom: "rcnn_pool5"
  top: "rcnn_fc6"
  param {
    lr_mult: 1
  }
  param {
    lr_mult: 2
  }
  inner_product_param {
    num_output: 4096
    weight_filler {
      type: "xavier"
    }
    bias_filler {
      type: "constant"
    }
  }
}
layer {
  name: "relu6"
  type: "ReLU"
  bottom: "rcnn_fc6"
  top: "rcnn_fc6"
}
layer {
  name: "drop6"
  type: "Dropout"
  bottom: "rcnn_fc6"
  top: "rcnn_fc6"
  dropout_param {
    dropout_ratio: 0.5
  }
}
layer {
  name: "fc7"
  type: "InnerProduct"
  bottom: "rcnn_fc6"
  top: "fc7"
  param {
    lr_mult: 1
  }
  param {
    lr_mult: 2
  }
  inner_product_param {
    num_output: 4096
    weight_filler {
      type: "xavier"
    }
    bias_filler {
      type: "constant"
    }
  }
}
layer {
  name: "relu7"
  type: "ReLU"
  bottom: "fc7"
  top: "fc7"
}
layer {
  name: "drop7"
  type: "Dropout"
  bottom: "fc7"
  top: "fc7"
  dropout_param {
    dropout_ratio: 0.5
  }
}
layer {
  name: "cls_score"
  type: "InnerProduct"
  bottom: "fc7"
  top: "cls_score"
  param {
    lr_mult: 1
  }
  param {
    lr_mult: 2
  }
  inner_product_param {
    num_output: 21
    weight_filler {
      type: "gaussian"
      std: 0.01
    }
    bias_filler {
      type: "constant"
      value: 0
    }
  }
}
layer {
  name: "bbox_pred"
  type: "InnerProduct"
  bottom: "fc7"
  top: "bbox_pred"
  param {
    lr_mult: 1
  }
  param {
    lr_mult: 2
  }
  inner_product_param {
    num_output: 84
    weight_filler {
      type: "gaussian"
      std: 0.001
    }
    bias_filler {
      type: "constant"
      value: 0
    }
  }
}
layer {
  name: "loss_cls"
  type: "SoftmaxWithLoss"
  bottom: "cls_score"
  bottom: "labels"
  top: "loss_cls"
  loss_weight: 1
  propagate_down: true
  propagate_down: false
}
layer {
  name: "loss_bbox"
  type: "SmoothL1Loss"
  bottom: "bbox_pred"
  bottom: "bbox_targets"
  bottom: "bbox_inside_weights"
  bottom: "bbox_outside_weights"
  top: "loss_bbox"
  loss_weight: 1
}
I0628 11:45:44.721343 52140 layer_factory.hpp:77] Creating layer input-data
I0628 11:45:44.722313 52140 net.cpp:106] Creating Layer input-data
I0628 11:45:44.722327 52140 net.cpp:411] input-data -> data
I0628 11:45:44.722343 52140 net.cpp:411] input-data -> im_info
I0628 11:45:44.722349 52140 net.cpp:411] input-data -> gt_boxes
RoiDataLayer: name_to_top: {'gt_boxes': 2, 'data': 0, 'im_info': 1}
I0628 11:45:44.783428 52140 net.cpp:150] Setting up input-data
I0628 11:45:44.783458 52140 net.cpp:157] Top shape: 1 3 600 1000 (1800000)
I0628 11:45:44.783463 52140 net.cpp:157] Top shape: 1 3 (3)
I0628 11:45:44.783466 52140 net.cpp:157] Top shape: 1 4 (4)
I0628 11:45:44.783469 52140 net.cpp:165] Memory required for data: 7200028
I0628 11:45:44.783476 52140 layer_factory.hpp:77] Creating layer data_input-data_0_split
I0628 11:45:44.783490 52140 net.cpp:106] Creating Layer data_input-data_0_split
I0628 11:45:44.783496 52140 net.cpp:454] data_input-data_0_split <- data
I0628 11:45:44.783507 52140 net.cpp:411] data_input-data_0_split -> data_input-data_0_split_0
I0628 11:45:44.783515 52140 net.cpp:411] data_input-data_0_split -> data_input-data_0_split_1
I0628 11:45:44.783550 52140 net.cpp:150] Setting up data_input-data_0_split
I0628 11:45:44.783555 52140 net.cpp:157] Top shape: 1 3 600 1000 (1800000)
I0628 11:45:44.783560 52140 net.cpp:157] Top shape: 1 3 600 1000 (1800000)
I0628 11:45:44.783561 52140 net.cpp:165] Memory required for data: 21600028
I0628 11:45:44.783565 52140 layer_factory.hpp:77] Creating layer im_info_input-data_1_split
I0628 11:45:44.783572 52140 net.cpp:106] Creating Layer im_info_input-data_1_split
I0628 11:45:44.783576 52140 net.cpp:454] im_info_input-data_1_split <- im_info
I0628 11:45:44.783579 52140 net.cpp:411] im_info_input-data_1_split -> im_info_input-data_1_split_0
I0628 11:45:44.783584 52140 net.cpp:411] im_info_input-data_1_split -> im_info_input-data_1_split_1
I0628 11:45:44.783612 52140 net.cpp:150] Setting up im_info_input-data_1_split
I0628 11:45:44.783617 52140 net.cpp:157] Top shape: 1 3 (3)
I0628 11:45:44.783620 52140 net.cpp:157] Top shape: 1 3 (3)
I0628 11:45:44.783622 52140 net.cpp:165] Memory required for data: 21600052
I0628 11:45:44.783625 52140 layer_factory.hpp:77] Creating layer gt_boxes_input-data_2_split
I0628 11:45:44.783629 52140 net.cpp:106] Creating Layer gt_boxes_input-data_2_split
I0628 11:45:44.783632 52140 net.cpp:454] gt_boxes_input-data_2_split <- gt_boxes
I0628 11:45:44.783639 52140 net.cpp:411] gt_boxes_input-data_2_split -> gt_boxes_input-data_2_split_0
I0628 11:45:44.783643 52140 net.cpp:411] gt_boxes_input-data_2_split -> gt_boxes_input-data_2_split_1
I0628 11:45:44.783668 52140 net.cpp:150] Setting up gt_boxes_input-data_2_split
I0628 11:45:44.783675 52140 net.cpp:157] Top shape: 1 4 (4)
I0628 11:45:44.783679 52140 net.cpp:157] Top shape: 1 4 (4)
I0628 11:45:44.783681 52140 net.cpp:165] Memory required for data: 21600084
I0628 11:45:44.783684 52140 layer_factory.hpp:77] Creating layer conv1_1
I0628 11:45:44.783697 52140 net.cpp:106] Creating Layer conv1_1
I0628 11:45:44.783700 52140 net.cpp:454] conv1_1 <- data_input-data_0_split_0
I0628 11:45:44.783707 52140 net.cpp:411] conv1_1 -> conv1_1
I0628 11:45:45.109998 52140 net.cpp:150] Setting up conv1_1
I0628 11:45:45.110049 52140 net.cpp:157] Top shape: 1 64 600 1000 (38400000)
I0628 11:45:45.110054 52140 net.cpp:165] Memory required for data: 175200084
I0628 11:45:45.110072 52140 layer_factory.hpp:77] Creating layer relu1_1
I0628 11:45:45.110085 52140 net.cpp:106] Creating Layer relu1_1
I0628 11:45:45.110090 52140 net.cpp:454] relu1_1 <- conv1_1
I0628 11:45:45.110096 52140 net.cpp:397] relu1_1 -> conv1_1 (in-place)
I0628 11:45:45.110826 52140 net.cpp:150] Setting up relu1_1
I0628 11:45:45.110846 52140 net.cpp:157] Top shape: 1 64 600 1000 (38400000)
I0628 11:45:45.110851 52140 net.cpp:165] Memory required for data: 328800084
I0628 11:45:45.110853 52140 layer_factory.hpp:77] Creating layer conv1_2
I0628 11:45:45.110863 52140 net.cpp:106] Creating Layer conv1_2
I0628 11:45:45.110867 52140 net.cpp:454] conv1_2 <- conv1_1
I0628 11:45:45.110873 52140 net.cpp:411] conv1_2 -> conv1_2
I0628 11:45:45.115419 52140 net.cpp:150] Setting up conv1_2
I0628 11:45:45.115444 52140 net.cpp:157] Top shape: 1 64 600 1000 (38400000)
I0628 11:45:45.115448 52140 net.cpp:165] Memory required for data: 482400084
I0628 11:45:45.115458 52140 layer_factory.hpp:77] Creating layer relu1_2
I0628 11:45:45.115471 52140 net.cpp:106] Creating Layer relu1_2
I0628 11:45:45.115475 52140 net.cpp:454] relu1_2 <- conv1_2
I0628 11:45:45.115480 52140 net.cpp:397] relu1_2 -> conv1_2 (in-place)
I0628 11:45:45.115645 52140 net.cpp:150] Setting up relu1_2
I0628 11:45:45.115661 52140 net.cpp:157] Top shape: 1 64 600 1000 (38400000)
I0628 11:45:45.115665 52140 net.cpp:165] Memory required for data: 636000084
I0628 11:45:45.115669 52140 layer_factory.hpp:77] Creating layer pool1
I0628 11:45:45.115684 52140 net.cpp:106] Creating Layer pool1
I0628 11:45:45.115689 52140 net.cpp:454] pool1 <- conv1_2
I0628 11:45:45.115694 52140 net.cpp:411] pool1 -> pool1
I0628 11:45:45.115741 52140 net.cpp:150] Setting up pool1
I0628 11:45:45.115752 52140 net.cpp:157] Top shape: 1 64 300 500 (9600000)
I0628 11:45:45.115756 52140 net.cpp:165] Memory required for data: 674400084
I0628 11:45:45.115759 52140 layer_factory.hpp:77] Creating layer conv2_1
I0628 11:45:45.115766 52140 net.cpp:106] Creating Layer conv2_1
I0628 11:45:45.115769 52140 net.cpp:454] conv2_1 <- pool1
I0628 11:45:45.115773 52140 net.cpp:411] conv2_1 -> conv2_1
I0628 11:45:45.120267 52140 net.cpp:150] Setting up conv2_1
I0628 11:45:45.120291 52140 net.cpp:157] Top shape: 1 128 300 500 (19200000)
I0628 11:45:45.120296 52140 net.cpp:165] Memory required for data: 751200084
I0628 11:45:45.120306 52140 layer_factory.hpp:77] Creating layer relu2_1
I0628 11:45:45.120311 52140 net.cpp:106] Creating Layer relu2_1
I0628 11:45:45.120316 52140 net.cpp:454] relu2_1 <- conv2_1
I0628 11:45:45.120323 52140 net.cpp:397] relu2_1 -> conv2_1 (in-place)
I0628 11:45:45.120506 52140 net.cpp:150] Setting up relu2_1
I0628 11:45:45.120522 52140 net.cpp:157] Top shape: 1 128 300 500 (19200000)
I0628 11:45:45.120524 52140 net.cpp:165] Memory required for data: 828000084
I0628 11:45:45.120528 52140 layer_factory.hpp:77] Creating layer conv2_2
I0628 11:45:45.120537 52140 net.cpp:106] Creating Layer conv2_2
I0628 11:45:45.120540 52140 net.cpp:454] conv2_2 <- conv2_1
I0628 11:45:45.120548 52140 net.cpp:411] conv2_2 -> conv2_2
I0628 11:45:45.124923 52140 net.cpp:150] Setting up conv2_2
I0628 11:45:45.124946 52140 net.cpp:157] Top shape: 1 128 300 500 (19200000)
I0628 11:45:45.124950 52140 net.cpp:165] Memory required for data: 904800084
I0628 11:45:45.124958 52140 layer_factory.hpp:77] Creating layer relu2_2
I0628 11:45:45.124963 52140 net.cpp:106] Creating Layer relu2_2
I0628 11:45:45.124967 52140 net.cpp:454] relu2_2 <- conv2_2
I0628 11:45:45.124975 52140 net.cpp:397] relu2_2 -> conv2_2 (in-place)
I0628 11:45:45.125699 52140 net.cpp:150] Setting up relu2_2
I0628 11:45:45.125718 52140 net.cpp:157] Top shape: 1 128 300 500 (19200000)
I0628 11:45:45.125722 52140 net.cpp:165] Memory required for data: 981600084
I0628 11:45:45.125726 52140 layer_factory.hpp:77] Creating layer pool2
I0628 11:45:45.125735 52140 net.cpp:106] Creating Layer pool2
I0628 11:45:45.125738 52140 net.cpp:454] pool2 <- conv2_2
I0628 11:45:45.125744 52140 net.cpp:411] pool2 -> pool2
I0628 11:45:45.125790 52140 net.cpp:150] Setting up pool2
I0628 11:45:45.125802 52140 net.cpp:157] Top shape: 1 128 150 250 (4800000)
I0628 11:45:45.125805 52140 net.cpp:165] Memory required for data: 1000800084
I0628 11:45:45.125808 52140 layer_factory.hpp:77] Creating layer conv3_1
I0628 11:45:45.125818 52140 net.cpp:106] Creating Layer conv3_1
I0628 11:45:45.125820 52140 net.cpp:454] conv3_1 <- pool2
I0628 11:45:45.125828 52140 net.cpp:411] conv3_1 -> conv3_1
I0628 11:45:45.129299 52140 net.cpp:150] Setting up conv3_1
I0628 11:45:45.129330 52140 net.cpp:157] Top shape: 1 256 150 250 (9600000)
I0628 11:45:45.129340 52140 net.cpp:165] Memory required for data: 1039200084
I0628 11:45:45.129350 52140 layer_factory.hpp:77] Creating layer relu3_1
I0628 11:45:45.129361 52140 net.cpp:106] Creating Layer relu3_1
I0628 11:45:45.129365 52140 net.cpp:454] relu3_1 <- conv3_1
I0628 11:45:45.129369 52140 net.cpp:397] relu3_1 -> conv3_1 (in-place)
I0628 11:45:45.130185 52140 net.cpp:150] Setting up relu3_1
I0628 11:45:45.130203 52140 net.cpp:157] Top shape: 1 256 150 250 (9600000)
I0628 11:45:45.130205 52140 net.cpp:165] Memory required for data: 1077600084
I0628 11:45:45.130208 52140 layer_factory.hpp:77] Creating layer conv3_2
I0628 11:45:45.130223 52140 net.cpp:106] Creating Layer conv3_2
I0628 11:45:45.130239 52140 net.cpp:454] conv3_2 <- conv3_1
I0628 11:45:45.130246 52140 net.cpp:411] conv3_2 -> conv3_2
I0628 11:45:45.134500 52140 net.cpp:150] Setting up conv3_2
I0628 11:45:45.134526 52140 net.cpp:157] Top shape: 1 256 150 250 (9600000)
I0628 11:45:45.134529 52140 net.cpp:165] Memory required for data: 1116000084
I0628 11:45:45.134536 52140 layer_factory.hpp:77] Creating layer relu3_2
I0628 11:45:45.134544 52140 net.cpp:106] Creating Layer relu3_2
I0628 11:45:45.134548 52140 net.cpp:454] relu3_2 <- conv3_2
I0628 11:45:45.134554 52140 net.cpp:397] relu3_2 -> conv3_2 (in-place)
I0628 11:45:45.134747 52140 net.cpp:150] Setting up relu3_2
I0628 11:45:45.134763 52140 net.cpp:157] Top shape: 1 256 150 250 (9600000)
I0628 11:45:45.134766 52140 net.cpp:165] Memory required for data: 1154400084
I0628 11:45:45.134790 52140 layer_factory.hpp:77] Creating layer conv3_3
I0628 11:45:45.134804 52140 net.cpp:106] Creating Layer conv3_3
I0628 11:45:45.134807 52140 net.cpp:454] conv3_3 <- conv3_2
I0628 11:45:45.134812 52140 net.cpp:411] conv3_3 -> conv3_3
I0628 11:45:45.140101 52140 net.cpp:150] Setting up conv3_3
I0628 11:45:45.140125 52140 net.cpp:157] Top shape: 1 256 150 250 (9600000)
I0628 11:45:45.140128 52140 net.cpp:165] Memory required for data: 1192800084
I0628 11:45:45.140136 52140 layer_factory.hpp:77] Creating layer relu3_3
I0628 11:45:45.140142 52140 net.cpp:106] Creating Layer relu3_3
I0628 11:45:45.140146 52140 net.cpp:454] relu3_3 <- conv3_3
I0628 11:45:45.140153 52140 net.cpp:397] relu3_3 -> conv3_3 (in-place)
I0628 11:45:45.140884 52140 net.cpp:150] Setting up relu3_3
I0628 11:45:45.140903 52140 net.cpp:157] Top shape: 1 256 150 250 (9600000)
I0628 11:45:45.140907 52140 net.cpp:165] Memory required for data: 1231200084
I0628 11:45:45.140910 52140 layer_factory.hpp:77] Creating layer conv3_3_relu3_3_0_split
I0628 11:45:45.140916 52140 net.cpp:106] Creating Layer conv3_3_relu3_3_0_split
I0628 11:45:45.140919 52140 net.cpp:454] conv3_3_relu3_3_0_split <- conv3_3
I0628 11:45:45.140928 52140 net.cpp:411] conv3_3_relu3_3_0_split -> conv3_3_relu3_3_0_split_0
I0628 11:45:45.140933 52140 net.cpp:411] conv3_3_relu3_3_0_split -> conv3_3_relu3_3_0_split_1
I0628 11:45:45.140938 52140 net.cpp:411] conv3_3_relu3_3_0_split -> conv3_3_relu3_3_0_split_2
I0628 11:45:45.140996 52140 net.cpp:150] Setting up conv3_3_relu3_3_0_split
I0628 11:45:45.141007 52140 net.cpp:157] Top shape: 1 256 150 250 (9600000)
I0628 11:45:45.141011 52140 net.cpp:157] Top shape: 1 256 150 250 (9600000)
I0628 11:45:45.141014 52140 net.cpp:157] Top shape: 1 256 150 250 (9600000)
I0628 11:45:45.141017 52140 net.cpp:165] Memory required for data: 1346400084
I0628 11:45:45.141021 52140 layer_factory.hpp:77] Creating layer pool3
I0628 11:45:45.141027 52140 net.cpp:106] Creating Layer pool3
I0628 11:45:45.141031 52140 net.cpp:454] pool3 <- conv3_3_relu3_3_0_split_0
I0628 11:45:45.141037 52140 net.cpp:411] pool3 -> pool3
I0628 11:45:45.141073 52140 net.cpp:150] Setting up pool3
I0628 11:45:45.141084 52140 net.cpp:157] Top shape: 1 256 75 125 (2400000)
I0628 11:45:45.141088 52140 net.cpp:165] Memory required for data: 1356000084
I0628 11:45:45.141090 52140 layer_factory.hpp:77] Creating layer conv4_1
I0628 11:45:45.141099 52140 net.cpp:106] Creating Layer conv4_1
I0628 11:45:45.141103 52140 net.cpp:454] conv4_1 <- pool3
I0628 11:45:45.141108 52140 net.cpp:411] conv4_1 -> conv4_1
I0628 11:45:45.148322 52140 net.cpp:150] Setting up conv4_1
I0628 11:45:45.148347 52140 net.cpp:157] Top shape: 1 512 75 125 (4800000)
I0628 11:45:45.148350 52140 net.cpp:165] Memory required for data: 1375200084
I0628 11:45:45.148360 52140 layer_factory.hpp:77] Creating layer relu4_1
I0628 11:45:45.148366 52140 net.cpp:106] Creating Layer relu4_1
I0628 11:45:45.148377 52140 net.cpp:454] relu4_1 <- conv4_1
I0628 11:45:45.148388 52140 net.cpp:397] relu4_1 -> conv4_1 (in-place)
I0628 11:45:45.149140 52140 net.cpp:150] Setting up relu4_1
I0628 11:45:45.149160 52140 net.cpp:157] Top shape: 1 512 75 125 (4800000)
I0628 11:45:45.149164 52140 net.cpp:165] Memory required for data: 1394400084
I0628 11:45:45.149168 52140 layer_factory.hpp:77] Creating layer conv4_2
I0628 11:45:45.149178 52140 net.cpp:106] Creating Layer conv4_2
I0628 11:45:45.149181 52140 net.cpp:454] conv4_2 <- conv4_1
I0628 11:45:45.149186 52140 net.cpp:411] conv4_2 -> conv4_2
I0628 11:45:45.158474 52140 net.cpp:150] Setting up conv4_2
I0628 11:45:45.158499 52140 net.cpp:157] Top shape: 1 512 75 125 (4800000)
I0628 11:45:45.158502 52140 net.cpp:165] Memory required for data: 1413600084
I0628 11:45:45.158514 52140 layer_factory.hpp:77] Creating layer relu4_2
I0628 11:45:45.158524 52140 net.cpp:106] Creating Layer relu4_2
I0628 11:45:45.158527 52140 net.cpp:454] relu4_2 <- conv4_2
I0628 11:45:45.158532 52140 net.cpp:397] relu4_2 -> conv4_2 (in-place)
I0628 11:45:45.158995 52140 net.cpp:150] Setting up relu4_2
I0628 11:45:45.159013 52140 net.cpp:157] Top shape: 1 512 75 125 (4800000)
I0628 11:45:45.159015 52140 net.cpp:165] Memory required for data: 1432800084
I0628 11:45:45.159018 52140 layer_factory.hpp:77] Creating layer conv4_3
I0628 11:45:45.159029 52140 net.cpp:106] Creating Layer conv4_3
I0628 11:45:45.159034 52140 net.cpp:454] conv4_3 <- conv4_2
I0628 11:45:45.159039 52140 net.cpp:411] conv4_3 -> conv4_3
I0628 11:45:45.167278 52140 net.cpp:150] Setting up conv4_3
I0628 11:45:45.167301 52140 net.cpp:157] Top shape: 1 512 75 125 (4800000)
I0628 11:45:45.167305 52140 net.cpp:165] Memory required for data: 1452000084
I0628 11:45:45.167312 52140 layer_factory.hpp:77] Creating layer relu4_3
I0628 11:45:45.167318 52140 net.cpp:106] Creating Layer relu4_3
I0628 11:45:45.167322 52140 net.cpp:454] relu4_3 <- conv4_3
I0628 11:45:45.167330 52140 net.cpp:397] relu4_3 -> conv4_3 (in-place)
I0628 11:45:45.168316 52140 net.cpp:150] Setting up relu4_3
I0628 11:45:45.168336 52140 net.cpp:157] Top shape: 1 512 75 125 (4800000)
I0628 11:45:45.168340 52140 net.cpp:165] Memory required for data: 1471200084
I0628 11:45:45.168344 52140 layer_factory.hpp:77] Creating layer conv4_3_relu4_3_0_split
I0628 11:45:45.168349 52140 net.cpp:106] Creating Layer conv4_3_relu4_3_0_split
I0628 11:45:45.168352 52140 net.cpp:454] conv4_3_relu4_3_0_split <- conv4_3
I0628 11:45:45.168359 52140 net.cpp:411] conv4_3_relu4_3_0_split -> conv4_3_relu4_3_0_split_0
I0628 11:45:45.168365 52140 net.cpp:411] conv4_3_relu4_3_0_split -> conv4_3_relu4_3_0_split_1
I0628 11:45:45.168411 52140 net.cpp:150] Setting up conv4_3_relu4_3_0_split
I0628 11:45:45.168424 52140 net.cpp:157] Top shape: 1 512 75 125 (4800000)
I0628 11:45:45.168428 52140 net.cpp:157] Top shape: 1 512 75 125 (4800000)
I0628 11:45:45.168431 52140 net.cpp:165] Memory required for data: 1509600084
I0628 11:45:45.168433 52140 layer_factory.hpp:77] Creating layer pool4
I0628 11:45:45.168439 52140 net.cpp:106] Creating Layer pool4
I0628 11:45:45.168442 52140 net.cpp:454] pool4 <- conv4_3_relu4_3_0_split_0
I0628 11:45:45.168447 52140 net.cpp:411] pool4 -> pool4
I0628 11:45:45.168485 52140 net.cpp:150] Setting up pool4
I0628 11:45:45.168498 52140 net.cpp:157] Top shape: 1 512 38 63 (1225728)
I0628 11:45:45.168499 52140 net.cpp:165] Memory required for data: 1514502996
I0628 11:45:45.168503 52140 layer_factory.hpp:77] Creating layer conv5_1
I0628 11:45:45.168511 52140 net.cpp:106] Creating Layer conv5_1
I0628 11:45:45.168514 52140 net.cpp:454] conv5_1 <- pool4
I0628 11:45:45.168521 52140 net.cpp:411] conv5_1 -> conv5_1
I0628 11:45:45.176614 52140 net.cpp:150] Setting up conv5_1
I0628 11:45:45.176641 52140 net.cpp:157] Top shape: 1 512 38 63 (1225728)
I0628 11:45:45.176645 52140 net.cpp:165] Memory required for data: 1519405908
I0628 11:45:45.176651 52140 layer_factory.hpp:77] Creating layer relu5_1
I0628 11:45:45.176658 52140 net.cpp:106] Creating Layer relu5_1
I0628 11:45:45.176662 52140 net.cpp:454] relu5_1 <- conv5_1
I0628 11:45:45.176667 52140 net.cpp:397] relu5_1 -> conv5_1 (in-place)
I0628 11:45:45.177527 52140 net.cpp:150] Setting up relu5_1
I0628 11:45:45.177544 52140 net.cpp:157] Top shape: 1 512 38 63 (1225728)
I0628 11:45:45.177547 52140 net.cpp:165] Memory required for data: 1524308820
I0628 11:45:45.177551 52140 layer_factory.hpp:77] Creating layer conv5_2
I0628 11:45:45.177565 52140 net.cpp:106] Creating Layer conv5_2
I0628 11:45:45.177582 52140 net.cpp:454] conv5_2 <- conv5_1
I0628 11:45:45.177590 52140 net.cpp:411] conv5_2 -> conv5_2
I0628 11:45:45.187356 52140 net.cpp:150] Setting up conv5_2
I0628 11:45:45.187381 52140 net.cpp:157] Top shape: 1 512 38 63 (1225728)
I0628 11:45:45.187386 52140 net.cpp:165] Memory required for data: 1529211732
I0628 11:45:45.187392 52140 layer_factory.hpp:77] Creating layer relu5_2
I0628 11:45:45.187400 52140 net.cpp:106] Creating Layer relu5_2
I0628 11:45:45.187404 52140 net.cpp:454] relu5_2 <- conv5_2
I0628 11:45:45.187409 52140 net.cpp:397] relu5_2 -> conv5_2 (in-place)
I0628 11:45:45.188423 52140 net.cpp:150] Setting up relu5_2
I0628 11:45:45.188441 52140 net.cpp:157] Top shape: 1 512 38 63 (1225728)
I0628 11:45:45.188444 52140 net.cpp:165] Memory required for data: 1534114644
I0628 11:45:45.188447 52140 layer_factory.hpp:77] Creating layer conv5_3
I0628 11:45:45.188454 52140 net.cpp:106] Creating Layer conv5_3
I0628 11:45:45.188458 52140 net.cpp:454] conv5_3 <- conv5_2
I0628 11:45:45.188468 52140 net.cpp:411] conv5_3 -> conv5_3
I0628 11:45:45.197145 52140 net.cpp:150] Setting up conv5_3
I0628 11:45:45.197170 52140 net.cpp:157] Top shape: 1 512 38 63 (1225728)
I0628 11:45:45.197175 52140 net.cpp:165] Memory required for data: 1539017556
I0628 11:45:45.197180 52140 layer_factory.hpp:77] Creating layer relu5_3
I0628 11:45:45.197188 52140 net.cpp:106] Creating Layer relu5_3
I0628 11:45:45.197192 52140 net.cpp:454] relu5_3 <- conv5_3
I0628 11:45:45.197199 52140 net.cpp:397] relu5_3 -> conv5_3 (in-place)
I0628 11:45:45.198182 52140 net.cpp:150] Setting up relu5_3
I0628 11:45:45.198202 52140 net.cpp:157] Top shape: 1 512 38 63 (1225728)
I0628 11:45:45.198206 52140 net.cpp:165] Memory required for data: 1543920468
I0628 11:45:45.198210 52140 layer_factory.hpp:77] Creating layer conv5_3_relu5_3_0_split
I0628 11:45:45.198216 52140 net.cpp:106] Creating Layer conv5_3_relu5_3_0_split
I0628 11:45:45.198220 52140 net.cpp:454] conv5_3_relu5_3_0_split <- conv5_3
I0628 11:45:45.198227 52140 net.cpp:411] conv5_3_relu5_3_0_split -> conv5_3_relu5_3_0_split_0
I0628 11:45:45.198233 52140 net.cpp:411] conv5_3_relu5_3_0_split -> conv5_3_relu5_3_0_split_1
I0628 11:45:45.198287 52140 net.cpp:150] Setting up conv5_3_relu5_3_0_split
I0628 11:45:45.198298 52140 net.cpp:157] Top shape: 1 512 38 63 (1225728)
I0628 11:45:45.198303 52140 net.cpp:157] Top shape: 1 512 38 63 (1225728)
I0628 11:45:45.198305 52140 net.cpp:165] Memory required for data: 1553726292
I0628 11:45:45.198308 52140 layer_factory.hpp:77] Creating layer pool5
I0628 11:45:45.198314 52140 net.cpp:106] Creating Layer pool5
I0628 11:45:45.198318 52140 net.cpp:454] pool5 <- conv5_3_relu5_3_0_split_0
I0628 11:45:45.198324 52140 net.cpp:411] pool5 -> pool5
I0628 11:45:45.198366 52140 net.cpp:150] Setting up pool5
I0628 11:45:45.198376 52140 net.cpp:157] Top shape: 1 512 19 32 (311296)
I0628 11:45:45.198379 52140 net.cpp:165] Memory required for data: 1554971476
I0628 11:45:45.198382 52140 layer_factory.hpp:77] Creating layer P5
I0628 11:45:45.198395 52140 net.cpp:106] Creating Layer P5
I0628 11:45:45.198397 52140 net.cpp:454] P5 <- pool5
I0628 11:45:45.198403 52140 net.cpp:411] P5 -> P5
I0628 11:45:45.201956 52140 net.cpp:150] Setting up P5
I0628 11:45:45.201979 52140 net.cpp:157] Top shape: 1 256 19 32 (155648)
I0628 11:45:45.201983 52140 net.cpp:165] Memory required for data: 1555594068
I0628 11:45:45.201989 52140 layer_factory.hpp:77] Creating layer upP5
I0628 11:45:45.202005 52140 net.cpp:106] Creating Layer upP5
I0628 11:45:45.202018 52140 net.cpp:454] upP5 <- P5
I0628 11:45:45.202023 52140 net.cpp:411] upP5 -> upP5
I0628 11:45:45.227877 52140 net.cpp:150] Setting up upP5
I0628 11:45:45.227898 52140 net.cpp:157] Top shape: 1 256 38 64 (622592)
I0628 11:45:45.227901 52140 net.cpp:165] Memory required for data: 1558084436
I0628 11:45:45.227907 52140 layer_factory.hpp:77] Creating layer newC4
I0628 11:45:45.227918 52140 net.cpp:106] Creating Layer newC4
I0628 11:45:45.227922 52140 net.cpp:454] newC4 <- conv5_3_relu5_3_0_split_1
I0628 11:45:45.227928 52140 net.cpp:411] newC4 -> newC4
I0628 11:45:45.231245 52140 net.cpp:150] Setting up newC4
I0628 11:45:45.231267 52140 net.cpp:157] Top shape: 1 256 38 63 (612864)
I0628 11:45:45.231271 52140 net.cpp:165] Memory required for data: 1560535892
I0628 11:45:45.231277 52140 layer_factory.hpp:77] Creating layer newC4_newC4_0_split
I0628 11:45:45.231283 52140 net.cpp:106] Creating Layer newC4_newC4_0_split
I0628 11:45:45.231290 52140 net.cpp:454] newC4_newC4_0_split <- newC4
I0628 11:45:45.231295 52140 net.cpp:411] newC4_newC4_0_split -> newC4_newC4_0_split_0
I0628 11:45:45.231302 52140 net.cpp:411] newC4_newC4_0_split -> newC4_newC4_0_split_1
I0628 11:45:45.231354 52140 net.cpp:150] Setting up newC4_newC4_0_split
I0628 11:45:45.231366 52140 net.cpp:157] Top shape: 1 256 38 63 (612864)
I0628 11:45:45.231370 52140 net.cpp:157] Top shape: 1 256 38 63 (612864)
I0628 11:45:45.231374 52140 net.cpp:165] Memory required for data: 1565438804
I0628 11:45:45.231376 52140 layer_factory.hpp:77] Creating layer upP5crop
I0628 11:45:45.231384 52140 net.cpp:106] Creating Layer upP5crop
I0628 11:45:45.231387 52140 net.cpp:454] upP5crop <- upP5
I0628 11:45:45.231391 52140 net.cpp:454] upP5crop <- newC4_newC4_0_split_0
I0628 11:45:45.231398 52140 net.cpp:411] upP5crop -> upP5crop
I0628 11:45:45.231500 52140 net.cpp:150] Setting up upP5crop
I0628 11:45:45.231513 52140 net.cpp:157] Top shape: 1 256 38 63 (612864)
I0628 11:45:45.231515 52140 net.cpp:165] Memory required for data: 1567890260
I0628 11:45:45.231518 52140 layer_factory.hpp:77] Creating layer P4
I0628 11:45:45.231533 52140 net.cpp:106] Creating Layer P4
I0628 11:45:45.231542 52140 net.cpp:454] P4 <- newC4_newC4_0_split_1
I0628 11:45:45.231546 52140 net.cpp:454] P4 <- upP5crop
I0628 11:45:45.231550 52140 net.cpp:411] P4 -> P4
I0628 11:45:45.231580 52140 net.cpp:150] Setting up P4
I0628 11:45:45.231590 52140 net.cpp:157] Top shape: 1 256 38 63 (612864)
I0628 11:45:45.231593 52140 net.cpp:165] Memory required for data: 1570341716
I0628 11:45:45.231596 52140 layer_factory.hpp:77] Creating layer upP4
I0628 11:45:45.231606 52140 net.cpp:106] Creating Layer upP4
I0628 11:45:45.231608 52140 net.cpp:454] upP4 <- P4
I0628 11:45:45.231616 52140 net.cpp:411] upP4 -> upP4
I0628 11:45:45.257441 52140 net.cpp:150] Setting up upP4
I0628 11:45:45.257462 52140 net.cpp:157] Top shape: 1 256 76 126 (2451456)
I0628 11:45:45.257467 52140 net.cpp:165] Memory required for data: 1580147540
I0628 11:45:45.257472 52140 layer_factory.hpp:77] Creating layer newC3
I0628 11:45:45.257483 52140 net.cpp:106] Creating Layer newC3
I0628 11:45:45.257486 52140 net.cpp:454] newC3 <- conv4_3_relu4_3_0_split_1
I0628 11:45:45.257493 52140 net.cpp:411] newC3 -> newC3
I0628 11:45:45.261548 52140 net.cpp:150] Setting up newC3
I0628 11:45:45.261574 52140 net.cpp:157] Top shape: 1 256 75 125 (2400000)
I0628 11:45:45.261577 52140 net.cpp:165] Memory required for data: 1589747540
I0628 11:45:45.261590 52140 layer_factory.hpp:77] Creating layer newC3_newC3_0_split
I0628 11:45:45.261612 52140 net.cpp:106] Creating Layer newC3_newC3_0_split
I0628 11:45:45.261616 52140 net.cpp:454] newC3_newC3_0_split <- newC3
I0628 11:45:45.261621 52140 net.cpp:411] newC3_newC3_0_split -> newC3_newC3_0_split_0
I0628 11:45:45.261628 52140 net.cpp:411] newC3_newC3_0_split -> newC3_newC3_0_split_1
I0628 11:45:45.261693 52140 net.cpp:150] Setting up newC3_newC3_0_split
I0628 11:45:45.261704 52140 net.cpp:157] Top shape: 1 256 75 125 (2400000)
I0628 11:45:45.261708 52140 net.cpp:157] Top shape: 1 256 75 125 (2400000)
I0628 11:45:45.261710 52140 net.cpp:165] Memory required for data: 1608947540
I0628 11:45:45.261713 52140 layer_factory.hpp:77] Creating layer upP4crop
I0628 11:45:45.261721 52140 net.cpp:106] Creating Layer upP4crop
I0628 11:45:45.261724 52140 net.cpp:454] upP4crop <- upP4
I0628 11:45:45.261729 52140 net.cpp:454] upP4crop <- newC3_newC3_0_split_0
I0628 11:45:45.261732 52140 net.cpp:411] upP4crop -> upP4crop
I0628 11:45:45.261835 52140 net.cpp:150] Setting up upP4crop
I0628 11:45:45.261847 52140 net.cpp:157] Top shape: 1 256 75 125 (2400000)
I0628 11:45:45.261850 52140 net.cpp:165] Memory required for data: 1618547540
I0628 11:45:45.261853 52140 layer_factory.hpp:77] Creating layer P3
I0628 11:45:45.261858 52140 net.cpp:106] Creating Layer P3
I0628 11:45:45.261862 52140 net.cpp:454] P3 <- newC3_newC3_0_split_1
I0628 11:45:45.261865 52140 net.cpp:454] P3 <- upP4crop
I0628 11:45:45.261871 52140 net.cpp:411] P3 -> P3
I0628 11:45:45.261895 52140 net.cpp:150] Setting up P3
I0628 11:45:45.261907 52140 net.cpp:157] Top shape: 1 256 75 125 (2400000)
I0628 11:45:45.261910 52140 net.cpp:165] Memory required for data: 1628147540
I0628 11:45:45.261914 52140 layer_factory.hpp:77] Creating layer upP3
I0628 11:45:45.261919 52140 net.cpp:106] Creating Layer upP3
I0628 11:45:45.261922 52140 net.cpp:454] upP3 <- P3
I0628 11:45:45.261929 52140 net.cpp:411] upP3 -> upP3
I0628 11:45:45.287793 52140 net.cpp:150] Setting up upP3
I0628 11:45:45.287816 52140 net.cpp:157] Top shape: 1 256 150 250 (9600000)
I0628 11:45:45.287818 52140 net.cpp:165] Memory required for data: 1666547540
I0628 11:45:45.287824 52140 layer_factory.hpp:77] Creating layer upP3crop
I0628 11:45:45.287830 52140 net.cpp:106] Creating Layer upP3crop
I0628 11:45:45.287834 52140 net.cpp:454] upP3crop <- upP3
I0628 11:45:45.287838 52140 net.cpp:454] upP3crop <- conv3_3_relu3_3_0_split_1
I0628 11:45:45.287843 52140 net.cpp:411] upP3crop -> upP3crop
I0628 11:45:45.287952 52140 net.cpp:150] Setting up upP3crop
I0628 11:45:45.287966 52140 net.cpp:157] Top shape: 1 256 150 250 (9600000)
I0628 11:45:45.287969 52140 net.cpp:165] Memory required for data: 1704947540
I0628 11:45:45.287972 52140 layer_factory.hpp:77] Creating layer P2
I0628 11:45:45.287979 52140 net.cpp:106] Creating Layer P2
I0628 11:45:45.287982 52140 net.cpp:454] P2 <- conv3_3_relu3_3_0_split_2
I0628 11:45:45.287987 52140 net.cpp:454] P2 <- upP3crop
I0628 11:45:45.287992 52140 net.cpp:411] P2 -> P2
I0628 11:45:45.288019 52140 net.cpp:150] Setting up P2
I0628 11:45:45.288030 52140 net.cpp:157] Top shape: 1 256 150 250 (9600000)
I0628 11:45:45.288033 52140 net.cpp:165] Memory required for data: 1743347540
I0628 11:45:45.288036 52140 layer_factory.hpp:77] Creating layer newP2
I0628 11:45:45.288046 52140 net.cpp:106] Creating Layer newP2
I0628 11:45:45.288049 52140 net.cpp:454] newP2 <- P2
I0628 11:45:45.288056 52140 net.cpp:411] newP2 -> newP2
I0628 11:45:45.296131 52140 net.cpp:150] Setting up newP2
I0628 11:45:45.296156 52140 net.cpp:157] Top shape: 1 256 150 250 (9600000)
I0628 11:45:45.296160 52140 net.cpp:165] Memory required for data: 1781747540
I0628 11:45:45.296167 52140 layer_factory.hpp:77] Creating layer newP2_newP2_0_split
I0628 11:45:45.296174 52140 net.cpp:106] Creating Layer newP2_newP2_0_split
I0628 11:45:45.296177 52140 net.cpp:454] newP2_newP2_0_split <- newP2
I0628 11:45:45.296185 52140 net.cpp:411] newP2_newP2_0_split -> newP2_newP2_0_split_0
I0628 11:45:45.296210 52140 net.cpp:411] newP2_newP2_0_split -> newP2_newP2_0_split_1
I0628 11:45:45.296260 52140 net.cpp:150] Setting up newP2_newP2_0_split
I0628 11:45:45.296272 52140 net.cpp:157] Top shape: 1 256 150 250 (9600000)
I0628 11:45:45.296277 52140 net.cpp:157] Top shape: 1 256 150 250 (9600000)
I0628 11:45:45.296279 52140 net.cpp:165] Memory required for data: 1858547540
I0628 11:45:45.296283 52140 layer_factory.hpp:77] Creating layer rpn_conv/3x3
I0628 11:45:45.296293 52140 net.cpp:106] Creating Layer rpn_conv/3x3
I0628 11:45:45.296303 52140 net.cpp:454] rpn_conv/3x3 <- newP2_newP2_0_split_0
I0628 11:45:45.296308 52140 net.cpp:411] rpn_conv/3x3 -> rpn/output
I0628 11:45:45.330320 52140 net.cpp:150] Setting up rpn_conv/3x3
I0628 11:45:45.330345 52140 net.cpp:157] Top shape: 1 512 150 250 (19200000)
I0628 11:45:45.330350 52140 net.cpp:165] Memory required for data: 1935347540
I0628 11:45:45.330356 52140 layer_factory.hpp:77] Creating layer rpn_relu/3x3
I0628 11:45:45.330363 52140 net.cpp:106] Creating Layer rpn_relu/3x3
I0628 11:45:45.330368 52140 net.cpp:454] rpn_relu/3x3 <- rpn/output
I0628 11:45:45.330374 52140 net.cpp:397] rpn_relu/3x3 -> rpn/output (in-place)
I0628 11:45:45.330940 52140 net.cpp:150] Setting up rpn_relu/3x3
I0628 11:45:45.330958 52140 net.cpp:157] Top shape: 1 512 150 250 (19200000)
I0628 11:45:45.330962 52140 net.cpp:165] Memory required for data: 2012147540
I0628 11:45:45.330965 52140 layer_factory.hpp:77] Creating layer rpn/output_rpn_relu/3x3_0_split
I0628 11:45:45.330971 52140 net.cpp:106] Creating Layer rpn/output_rpn_relu/3x3_0_split
I0628 11:45:45.330974 52140 net.cpp:454] rpn/output_rpn_relu/3x3_0_split <- rpn/output
I0628 11:45:45.330981 52140 net.cpp:411] rpn/output_rpn_relu/3x3_0_split -> rpn/output_rpn_relu/3x3_0_split_0
I0628 11:45:45.330987 52140 net.cpp:411] rpn/output_rpn_relu/3x3_0_split -> rpn/output_rpn_relu/3x3_0_split_1
I0628 11:45:45.331038 52140 net.cpp:150] Setting up rpn/output_rpn_relu/3x3_0_split
I0628 11:45:45.331050 52140 net.cpp:157] Top shape: 1 512 150 250 (19200000)
I0628 11:45:45.331054 52140 net.cpp:157] Top shape: 1 512 150 250 (19200000)
I0628 11:45:45.331056 52140 net.cpp:165] Memory required for data: 2165747540
I0628 11:45:45.331059 52140 layer_factory.hpp:77] Creating layer rpn_cls_score
I0628 11:45:45.331069 52140 net.cpp:106] Creating Layer rpn_cls_score
I0628 11:45:45.331073 52140 net.cpp:454] rpn_cls_score <- rpn/output_rpn_relu/3x3_0_split_0
I0628 11:45:45.331081 52140 net.cpp:411] rpn_cls_score -> rpn_cls_score
I0628 11:45:45.337750 52140 net.cpp:150] Setting up rpn_cls_score
I0628 11:45:45.337775 52140 net.cpp:157] Top shape: 1 18 150 250 (675000)
I0628 11:45:45.337780 52140 net.cpp:165] Memory required for data: 2168447540
I0628 11:45:45.337787 52140 layer_factory.hpp:77] Creating layer rpn_cls_score_rpn_cls_score_0_split
I0628 11:45:45.337793 52140 net.cpp:106] Creating Layer rpn_cls_score_rpn_cls_score_0_split
I0628 11:45:45.337796 52140 net.cpp:454] rpn_cls_score_rpn_cls_score_0_split <- rpn_cls_score
I0628 11:45:45.337802 52140 net.cpp:411] rpn_cls_score_rpn_cls_score_0_split -> rpn_cls_score_rpn_cls_score_0_split_0
I0628 11:45:45.337812 52140 net.cpp:411] rpn_cls_score_rpn_cls_score_0_split -> rpn_cls_score_rpn_cls_score_0_split_1
I0628 11:45:45.337863 52140 net.cpp:150] Setting up rpn_cls_score_rpn_cls_score_0_split
I0628 11:45:45.337875 52140 net.cpp:157] Top shape: 1 18 150 250 (675000)
I0628 11:45:45.337879 52140 net.cpp:157] Top shape: 1 18 150 250 (675000)
I0628 11:45:45.337882 52140 net.cpp:165] Memory required for data: 2173847540
I0628 11:45:45.337885 52140 layer_factory.hpp:77] Creating layer rpn_bbox_pred
I0628 11:45:45.337898 52140 net.cpp:106] Creating Layer rpn_bbox_pred
I0628 11:45:45.337901 52140 net.cpp:454] rpn_bbox_pred <- rpn/output_rpn_relu/3x3_0_split_1
I0628 11:45:45.337906 52140 net.cpp:411] rpn_bbox_pred -> rpn_bbox_pred
I0628 11:45:45.343557 52140 net.cpp:150] Setting up rpn_bbox_pred
I0628 11:45:45.343580 52140 net.cpp:157] Top shape: 1 36 150 250 (1350000)
I0628 11:45:45.343585 52140 net.cpp:165] Memory required for data: 2179247540
I0628 11:45:45.343591 52140 layer_factory.hpp:77] Creating layer rpn_bbox_pred_rpn_bbox_pred_0_split
I0628 11:45:45.343600 52140 net.cpp:106] Creating Layer rpn_bbox_pred_rpn_bbox_pred_0_split
I0628 11:45:45.343605 52140 net.cpp:454] rpn_bbox_pred_rpn_bbox_pred_0_split <- rpn_bbox_pred
I0628 11:45:45.343610 52140 net.cpp:411] rpn_bbox_pred_rpn_bbox_pred_0_split -> rpn_bbox_pred_rpn_bbox_pred_0_split_0
I0628 11:45:45.343622 52140 net.cpp:411] rpn_bbox_pred_rpn_bbox_pred_0_split -> rpn_bbox_pred_rpn_bbox_pred_0_split_1
I0628 11:45:45.343680 52140 net.cpp:150] Setting up rpn_bbox_pred_rpn_bbox_pred_0_split
I0628 11:45:45.343693 52140 net.cpp:157] Top shape: 1 36 150 250 (1350000)
I0628 11:45:45.343698 52140 net.cpp:157] Top shape: 1 36 150 250 (1350000)
I0628 11:45:45.343700 52140 net.cpp:165] Memory required for data: 2190047540
I0628 11:45:45.343703 52140 layer_factory.hpp:77] Creating layer rpn_cls_score_reshape
I0628 11:45:45.343714 52140 net.cpp:106] Creating Layer rpn_cls_score_reshape
I0628 11:45:45.343719 52140 net.cpp:454] rpn_cls_score_reshape <- rpn_cls_score_rpn_cls_score_0_split_0
I0628 11:45:45.343724 52140 net.cpp:411] rpn_cls_score_reshape -> rpn_cls_score_reshape
I0628 11:45:45.343758 52140 net.cpp:150] Setting up rpn_cls_score_reshape
I0628 11:45:45.343770 52140 net.cpp:157] Top shape: 1 2 1350 250 (675000)
I0628 11:45:45.343773 52140 net.cpp:165] Memory required for data: 2192747540
I0628 11:45:45.343776 52140 layer_factory.hpp:77] Creating layer rpn_cls_score_reshape_rpn_cls_score_reshape_0_split
I0628 11:45:45.343780 52140 net.cpp:106] Creating Layer rpn_cls_score_reshape_rpn_cls_score_reshape_0_split
I0628 11:45:45.343785 52140 net.cpp:454] rpn_cls_score_reshape_rpn_cls_score_reshape_0_split <- rpn_cls_score_reshape
I0628 11:45:45.343791 52140 net.cpp:411] rpn_cls_score_reshape_rpn_cls_score_reshape_0_split -> rpn_cls_score_reshape_rpn_cls_score_reshape_0_split_0
I0628 11:45:45.343796 52140 net.cpp:411] rpn_cls_score_reshape_rpn_cls_score_reshape_0_split -> rpn_cls_score_reshape_rpn_cls_score_reshape_0_split_1
I0628 11:45:45.343842 52140 net.cpp:150] Setting up rpn_cls_score_reshape_rpn_cls_score_reshape_0_split
I0628 11:45:45.343854 52140 net.cpp:157] Top shape: 1 2 1350 250 (675000)
I0628 11:45:45.343858 52140 net.cpp:157] Top shape: 1 2 1350 250 (675000)
I0628 11:45:45.343861 52140 net.cpp:165] Memory required for data: 2198147540
I0628 11:45:45.343864 52140 layer_factory.hpp:77] Creating layer rpn-data
I0628 11:45:45.344534 52140 net.cpp:106] Creating Layer rpn-data
I0628 11:45:45.344557 52140 net.cpp:454] rpn-data <- rpn_cls_score_rpn_cls_score_0_split_1
I0628 11:45:45.344563 52140 net.cpp:454] rpn-data <- gt_boxes_input-data_2_split_0
I0628 11:45:45.344568 52140 net.cpp:454] rpn-data <- im_info_input-data_1_split_0
I0628 11:45:45.344571 52140 net.cpp:454] rpn-data <- data_input-data_0_split_1
I0628 11:45:45.344576 52140 net.cpp:411] rpn-data -> rpn_labels
I0628 11:45:45.344583 52140 net.cpp:411] rpn-data -> rpn_bbox_targets
I0628 11:45:45.344589 52140 net.cpp:411] rpn-data -> rpn_bbox_inside_weights
I0628 11:45:45.344594 52140 net.cpp:411] rpn-data -> rpn_bbox_outside_weights
I0628 11:45:45.347041 52140 net.cpp:150] Setting up rpn-data
I0628 11:45:45.347066 52140 net.cpp:157] Top shape: 1 1 1350 250 (337500)
I0628 11:45:45.347071 52140 net.cpp:157] Top shape: 1 36 150 250 (1350000)
I0628 11:45:45.347075 52140 net.cpp:157] Top shape: 1 36 150 250 (1350000)
I0628 11:45:45.347079 52140 net.cpp:157] Top shape: 1 36 150 250 (1350000)
I0628 11:45:45.347081 52140 net.cpp:165] Memory required for data: 2215697540
I0628 11:45:45.347085 52140 layer_factory.hpp:77] Creating layer rpn_loss_cls
I0628 11:45:45.347106 52140 net.cpp:106] Creating Layer rpn_loss_cls
I0628 11:45:45.347117 52140 net.cpp:454] rpn_loss_cls <- rpn_cls_score_reshape_rpn_cls_score_reshape_0_split_0
I0628 11:45:45.347123 52140 net.cpp:454] rpn_loss_cls <- rpn_labels
…
I0628 11:45:45.359107 52140 net.cpp:157] Top shape: (1)
I0628 11:45:45.359110 52140 net.cpp:160]     with loss weight 1
I0628 11:45:45.359117 52140 net.cpp:165] Memory required for data: 2215697548
I0628 11:45:45.359120 52140 layer_factory.hpp:77] Creating layer rpn_cls_prob
I0628 11:45:45.359127 52140 net.cpp:106] Creating Layer rpn_cls_prob
I0628 11:45:45.359130 52140 net.cpp:454] rpn_cls_prob <- rpn_cls_score_reshape_rpn_cls_score_reshape_0_split_1
I0628 11:45:45.359135 52140 net.cpp:411] rpn_cls_prob -> rpn_cls_prob
I0628 11:45:45.359979 52140 net.cpp:150] Setting up rpn_cls_prob
I0628 11:45:45.360000 52140 net.cpp:157] Top shape: 1 2 1350 250 (675000)
I0628 11:45:45.360004 52140 net.cpp:165] Memory required for data: 2218397548
I0628 11:45:45.360008 52140 layer_factory.hpp:77] Creating layer rpn_cls_prob_reshape
I0628 11:45:45.360018 52140 net.cpp:106] Creating Layer rpn_cls_prob_reshape
I0628 11:45:45.360021 52140 net.cpp:454] rpn_cls_prob_reshape <- rpn_cls_prob
I0628 11:45:45.360026 52140 net.cpp:411] rpn_cls_prob_reshape -> rpn_cls_prob_reshape
I0628 11:45:45.360061 52140 net.cpp:150] Setting up rpn_cls_prob_reshape
I0628 11:45:45.360074 52140 net.cpp:157] Top shape: 1 18 150 250 (675000)
I0628 11:45:45.360077 52140 net.cpp:165] Memory required for data: 2221097548
I0628 11:45:45.360080 52140 layer_factory.hpp:77] Creating layer proposal
I0628 11:45:45.360940 52140 net.cpp:106] Creating Layer proposal
I0628 11:45:45.360962 52140 net.cpp:454] proposal <- rpn_cls_prob_reshape
I0628 11:45:45.360968 52140 net.cpp:454] proposal <- rpn_bbox_pred_rpn_bbox_pred_0_split_1
I0628 11:45:45.360972 52140 net.cpp:454] proposal <- im_info_input-data_1_split_1
I0628 11:45:45.360977 52140 net.cpp:411] proposal -> rpn_rois
I0628 11:45:45.362164 52140 net.cpp:150] Setting up proposal
I0628 11:45:45.362190 52140 net.cpp:157] Top shape: 1 5 (5)
I0628 11:45:45.362193 52140 net.cpp:165] Memory required for data: 2221097568
I0628 11:45:45.362197 52140 layer_factory.hpp:77] Creating layer roi-data
I0628 11:45:45.362378 52140 net.cpp:106] Creating Layer roi-data
I0628 11:45:45.362397 52140 net.cpp:454] roi-data <- rpn_rois
I0628 11:45:45.362403 52140 net.cpp:454] roi-data <- gt_boxes_input-data_2_split_1
I0628 11:45:45.362409 52140 net.cpp:411] roi-data -> rois
I0628 11:45:45.362416 52140 net.cpp:411] roi-data -> labels
I0628 11:45:45.362422 52140 net.cpp:411] roi-data -> bbox_targets
I0628 11:45:45.362427 52140 net.cpp:411] roi-data -> bbox_inside_weights
I0628 11:45:45.362438 52140 net.cpp:411] roi-data -> bbox_outside_weights
I0628 11:45:45.362857 52140 net.cpp:150] Setting up roi-data
I0628 11:45:45.362877 52140 net.cpp:157] Top shape: 1 5 (5)
I0628 11:45:45.362882 52140 net.cpp:157] Top shape: 1 1 (1)
I0628 11:45:45.362885 52140 net.cpp:157] Top shape: 1 84 (84)
I0628 11:45:45.362890 52140 net.cpp:157] Top shape: 1 84 (84)
I0628 11:45:45.362892 52140 net.cpp:157] Top shape: 1 84 (84)
I0628 11:45:45.362895 52140 net.cpp:165] Memory required for data: 2221098600
I0628 11:45:45.362898 52140 layer_factory.hpp:77] Creating layer roi_pool5
I0628 11:45:45.362910 52140 net.cpp:106] Creating Layer roi_pool5
I0628 11:45:45.362921 52140 net.cpp:454] roi_pool5 <- newP2_newP2_0_split_1
I0628 11:45:45.362926 52140 net.cpp:454] roi_pool5 <- rois
I0628 11:45:45.362931 52140 net.cpp:411] roi_pool5 -> rcnn_pool5
I0628 11:45:45.362939 52140 roi_pooling_layer.cpp:30] Spatial scale: 0.25
I0628 11:45:45.363001 52140 net.cpp:150] Setting up roi_pool5
I0628 11:45:45.363013 52140 net.cpp:157] Top shape: 1 256 7 7 (12544)
I0628 11:45:45.363018 52140 net.cpp:165] Memory required for data: 2221148776
I0628 11:45:45.363020 52140 layer_factory.hpp:77] Creating layer rcnn_fc6
I0628 11:45:45.363029 52140 net.cpp:106] Creating Layer rcnn_fc6
I0628 11:45:45.363032 52140 net.cpp:454] rcnn_fc6 <- rcnn_pool5
I0628 11:45:45.363037 52140 net.cpp:411] rcnn_fc6 -> rcnn_fc6
I0628 11:45:45.700531 52140 net.cpp:150] Setting up rcnn_fc6
I0628 11:45:45.700583 52140 net.cpp:157] Top shape: 1 4096 (4096)
I0628 11:45:45.700588 52140 net.cpp:165] Memory required for data: 2221165160
I0628 11:45:45.700599 52140 layer_factory.hpp:77] Creating layer relu6
I0628 11:45:45.700609 52140 net.cpp:106] Creating Layer relu6
I0628 11:45:45.700616 52140 net.cpp:454] relu6 <- rcnn_fc6
I0628 11:45:45.700624 52140 net.cpp:397] relu6 -> rcnn_fc6 (in-place)
I0628 11:45:45.701609 52140 net.cpp:150] Setting up relu6
I0628 11:45:45.701632 52140 net.cpp:157] Top shape: 1 4096 (4096)
I0628 11:45:45.701635 52140 net.cpp:165] Memory required for data: 2221181544
I0628 11:45:45.701638 52140 layer_factory.hpp:77] Creating layer drop6
I0628 11:45:45.701653 52140 net.cpp:106] Creating Layer drop6
I0628 11:45:45.701670 52140 net.cpp:454] drop6 <- rcnn_fc6
I0628 11:45:45.701678 52140 net.cpp:397] drop6 -> rcnn_fc6 (in-place)
I0628 11:45:45.701722 52140 net.cpp:150] Setting up drop6
I0628 11:45:45.701736 52140 net.cpp:157] Top shape: 1 4096 (4096)
I0628 11:45:45.701740 52140 net.cpp:165] Memory required for data: 2221197928
I0628 11:45:45.701743 52140 layer_factory.hpp:77] Creating layer fc7
I0628 11:45:45.701750 52140 net.cpp:106] Creating Layer fc7
I0628 11:45:45.701753 52140 net.cpp:454] fc7 <- rcnn_fc6
I0628 11:45:45.701761 52140 net.cpp:411] fc7 -> fc7
I0628 11:45:45.813305 52140 net.cpp:150] Setting up fc7
I0628 11:45:45.813359 52140 net.cpp:157] Top shape: 1 4096 (4096)
I0628 11:45:45.813364 52140 net.cpp:165] Memory required for data: 2221214312
I0628 11:45:45.813374 52140 layer_factory.hpp:77] Creating layer relu7
I0628 11:45:45.813385 52140 net.cpp:106] Creating Layer relu7
I0628 11:45:45.813390 52140 net.cpp:454] relu7 <- fc7
I0628 11:45:45.813400 52140 net.cpp:397] relu7 -> fc7 (in-place)
I0628 11:45:45.813664 52140 net.cpp:150] Setting up relu7
I0628 11:45:45.813680 52140 net.cpp:157] Top shape: 1 4096 (4096)
I0628 11:45:45.813684 52140 net.cpp:165] Memory required for data: 2221230696
I0628 11:45:45.813688 52140 layer_factory.hpp:77] Creating layer drop7
I0628 11:45:45.813694 52140 net.cpp:106] Creating Layer drop7
I0628 11:45:45.813697 52140 net.cpp:454] drop7 <- fc7
I0628 11:45:45.813704 52140 net.cpp:397] drop7 -> fc7 (in-place)
I0628 11:45:45.813740 52140 net.cpp:150] Setting up drop7
I0628 11:45:45.813746 52140 net.cpp:157] Top shape: 1 4096 (4096)
I0628 11:45:45.813748 52140 net.cpp:165] Memory required for data: 2221247080
I0628 11:45:45.813751 52140 layer_factory.hpp:77] Creating layer fc7_drop7_0_split
I0628 11:45:45.813763 52140 net.cpp:106] Creating Layer fc7_drop7_0_split
I0628 11:45:45.813782 52140 net.cpp:454] fc7_drop7_0_split <- fc7
I0628 11:45:45.813786 52140 net.cpp:411] fc7_drop7_0_split -> fc7_drop7_0_split_0
I0628 11:45:45.813794 52140 net.cpp:411] fc7_drop7_0_split -> fc7_drop7_0_split_1
I0628 11:45:45.813843 52140 net.cpp:150] Setting up fc7_drop7_0_split
I0628 11:45:45.813854 52140 net.cpp:157] Top shape: 1 4096 (4096)
I0628 11:45:45.813858 52140 net.cpp:157] Top shape: 1 4096 (4096)
I0628 11:45:45.813860 52140 net.cpp:165] Memory required for data: 2221279848
I0628 11:45:45.813863 52140 layer_factory.hpp:77] Creating layer cls_score
I0628 11:45:45.813874 52140 net.cpp:106] Creating Layer cls_score
I0628 11:45:45.813877 52140 net.cpp:454] cls_score <- fc7_drop7_0_split_0
I0628 11:45:45.813882 52140 net.cpp:411] cls_score -> cls_score
I0628 11:45:45.816063 52140 net.cpp:150] Setting up cls_score
I0628 11:45:45.816078 52140 net.cpp:157] Top shape: 1 21 (21)
I0628 11:45:45.816082 52140 net.cpp:165] Memory required for data: 2221279932
I0628 11:45:45.816087 52140 layer_factory.hpp:77] Creating layer bbox_pred
I0628 11:45:45.816093 52140 net.cpp:106] Creating Layer bbox_pred
I0628 11:45:45.816097 52140 net.cpp:454] bbox_pred <- fc7_drop7_0_split_1
I0628 11:45:45.816105 52140 net.cpp:411] bbox_pred -> bbox_pred
I0628 11:45:45.825265 52140 net.cpp:150] Setting up bbox_pred
I0628 11:45:45.825286 52140 net.cpp:157] Top shape: 1 84 (84)
I0628 11:45:45.825290 52140 net.cpp:165] Memory required for data: 2221280268
I0628 11:45:45.825296 52140 layer_factory.hpp:77] Creating layer loss_cls
I0628 11:45:45.825304 52140 net.cpp:106] Creating Layer loss_cls
I0628 11:45:45.825309 52140 net.cpp:454] loss_cls <- cls_score
I0628 11:45:45.825314 52140 net.cpp:454] loss_cls <- labels
I0628 11:45:45.825317 52140 net.cpp:411] loss_cls -> loss_cls
…
