…
stepsize: 50000
snapshot: 0
snapshot_prefix: "fpn"
average_loss: 100
iter_size: 2
I0726 12:54:51.985816 30317 solver.cpp:81] Creating training net from train_net file: models/pascal_voc/VGG16/FP_Net_end2end/train.prototxt
I0726 12:54:51.987004 30317 net.cpp:49] Initializing net from parameters: 
name: "VGG_ILSVRC_16_layers"
state {
  phase: TRAIN
}
layer {
  name: "input-data"
  type: "Python"
  top: "data"
  top: "im_info"
  top: "gt_boxes"
  python_param {
    module: "roi_data_layer.layer"
    layer: "RoIDataLayer"
    param_str: "\'num_classes\': 21"
  }
}
layer {
  name: "conv1_1"
  type: "Convolution"
  bottom: "data"
  top: "conv1_1"
  param {
    lr_mult: 0
    decay_mult: 0
  }
  param {
    lr_mult: 0
    decay_mult: 0
  }
  convolution_param {
    num_output: 64
    pad: 1
    kernel_size: 3
  }
}
layer {
  name: "relu1_1"
  type: "ReLU"
  bottom: "conv1_1"
  top: "conv1_1"
}
layer {
  name: "conv1_2"
  type: "Convolution"
  bottom: "conv1_1"
  top: "conv1_2"
  param {
    lr_mult: 0
    decay_mult: 0
  }
  param {
    lr_mult: 0
    decay_mult: 0
  }
  convolution_param {
    num_output: 64
    pad: 1
    kernel_size: 3
  }
}
layer {
  name: "relu1_2"
  type: "ReLU"
  bottom: "conv1_2"
  top: "conv1_2"
}
layer {
  name: "pool1"
  type: "Pooling"
  bottom: "conv1_2"
  top: "pool1"
  pooling_param {
    pool: MAX
    kernel_size: 2
    stride: 2
  }
}
layer {
  name: "conv2_1"
  type: "Convolution"
  bottom: "pool1"
  top: "conv2_1"
  param {
    lr_mult: 0
    decay_mult: 0
  }
  param {
    lr_mult: 0
    decay_mult: 0
  }
  convolution_param {
    num_output: 128
    pad: 1
    kernel_size: 3
  }
}
layer {
  name: "relu2_1"
  type: "ReLU"
  bottom: "conv2_1"
  top: "conv2_1"
}
layer {
  name: "conv2_2"
  type: "Convolution"
  bottom: "conv2_1"
  top: "conv2_2"
  param {
    lr_mult: 0
    decay_mult: 0
  }
  param {
    lr_mult: 0
    decay_mult: 0
  }
  convolution_param {
    num_output: 128
    pad: 1
    kernel_size: 3
  }
}
layer {
  name: "relu2_2"
  type: "ReLU"
  bottom: "conv2_2"
  top: "conv2_2"
}
layer {
  name: "pool2"
  type: "Pooling"
  bottom: "conv2_2"
  top: "pool2"
  pooling_param {
    pool: MAX
    kernel_size: 2
    stride: 2
  }
}
layer {
  name: "conv3_1"
  type: "Convolution"
  bottom: "pool2"
  top: "conv3_1"
  param {
    lr_mult: 1
  }
  param {
    lr_mult: 2
  }
  convolution_param {
    num_output: 256
    pad: 1
    kernel_size: 3
  }
}
layer {
  name: "relu3_1"
  type: "ReLU"
  bottom: "conv3_1"
  top: "conv3_1"
}
layer {
  name: "conv3_2"
  type: "Convolution"
  bottom: "conv3_1"
  top: "conv3_2"
  param {
    lr_mult: 1
  }
  param {
    lr_mult: 2
  }
  convolution_param {
    num_output: 256
    pad: 1
    kernel_size: 3
  }
}
layer {
  name: "relu3_2"
  type: "ReLU"
  bottom: "conv3_2"
  top: "conv3_2"
}
layer {
  name: "conv3_3"
  type: "Convolution"
  bottom: "conv3_2"
  top: "conv3_3"
  param {
    lr_mult: 1
  }
  param {
    lr_mult: 2
  }
  convolution_param {
    num_output: 256
    pad: 1
    kernel_size: 3
  }
}
layer {
  name: "relu3_3"
  type: "ReLU"
  bottom: "conv3_3"
  top: "conv3_3"
}
layer {
  name: "pool3"
  type: "Pooling"
  bottom: "conv3_3"
  top: "pool3"
  pooling_param {
    pool: MAX
    kernel_size: 2
    stride: 2
  }
}
layer {
  name: "conv4_1"
  type: "Convolution"
  bottom: "pool3"
  top: "conv4_1"
  param {
    lr_mult: 1
  }
  param {
    lr_mult: 2
  }
  convolution_param {
    num_output: 512
    pad: 1
    kernel_size: 3
  }
}
layer {
  name: "relu4_1"
  type: "ReLU"
  bottom: "conv4_1"
  top: "conv4_1"
}
layer {
  name: "conv4_2"
  type: "Convolution"
  bottom: "conv4_1"
  top: "conv4_2"
  param {
    lr_mult: 1
  }
  param {
    lr_mult: 2
  }
  convolution_param {
    num_output: 512
    pad: 1
    kernel_size: 3
  }
}
layer {
  name: "relu4_2"
  type: "ReLU"
  bottom: "conv4_2"
  top: "conv4_2"
}
layer {
  name: "conv4_3"
  type: "Convolution"
  bottom: "conv4_2"
  top: "conv4_3"
  param {
    lr_mult: 1
  }
  param {
    lr_mult: 2
  }
  convolution_param {
    num_output: 512
    pad: 1
    kernel_size: 3
  }
}
layer {
  name: "relu4_3"
  type: "ReLU"
  bottom: "conv4_3"
  top: "conv4_3"
}
layer {
  name: "pool4"
  type: "Pooling"
  bottom: "conv4_3"
  top: "pool4"
  pooling_param {
    pool: MAX
    kernel_size: 2
    stride: 2
  }
}
layer {
  name: "conv5_1"
  type: "Convolution"
  bottom: "pool4"
  top: "conv5_1"
  param {
    lr_mult: 1
  }
  param {
    lr_mult: 2
  }
  convolution_param {
    num_output: 512
    pad: 1
    kernel_size: 3
  }
}
layer {
  name: "relu5_1"
  type: "ReLU"
  bottom: "conv5_1"
  top: "conv5_1"
}
layer {
  name: "conv5_2"
  type: "Convolution"
  bottom: "conv5_1"
  top: "conv5_2"
  param {
    lr_mult: 1
  }
  param {
    lr_mult: 2
  }
  convolution_param {
    num_output: 512
    pad: 1
    kernel_size: 3
  }
}
layer {
  name: "relu5_2"
  type: "ReLU"
  bottom: "conv5_2"
  top: "conv5_2"
}
layer {
  name: "conv5_3"
  type: "Convolution"
  bottom: "conv5_2"
  top: "conv5_3"
  param {
    lr_mult: 1
  }
  param {
    lr_mult: 2
  }
  convolution_param {
    num_output: 512
    pad: 1
    kernel_size: 3
  }
}
layer {
  name: "relu5_3"
  type: "ReLU"
  bottom: "conv5_3"
  top: "conv5_3"
}
layer {
  name: "rpn_conv/3x3"
  type: "Convolution"
  bottom: "conv5_3"
  top: "rpn/output"
  param {
    lr_mult: 1
  }
  param {
    lr_mult: 2
  }
  convolution_param {
    num_output: 512
    pad: 1
    kernel_size: 3
    stride: 1
    weight_filler {
      type: "gaussian"
      std: 0.01
    }
    bias_filler {
      type: "constant"
      value: 0
    }
  }
}
layer {
  name: "rpn_relu/3x3"
  type: "ReLU"
  bottom: "rpn/output"
  top: "rpn/output"
}
layer {
  name: "rpn_cls_score"
  type: "Convolution"
  bottom: "rpn/output"
  top: "rpn_cls_score"
  param {
    lr_mult: 1
  }
  param {
    lr_mult: 2
  }
  convolution_param {
    num_output: 36
    pad: 0
    kernel_size: 1
    stride: 1
    weight_filler {
      type: "gaussian"
      std: 0.01
    }
    bias_filler {
      type: "constant"
      value: 0
    }
  }
}
layer {
  name: "rpn_bbox_pred"
  type: "Convolution"
  bottom: "rpn/output"
  top: "rpn_bbox_pred"
  param {
    lr_mult: 1
  }
  param {
    lr_mult: 2
  }
  convolution_param {
    num_output: 72
    pad: 0
    kernel_size: 1
    stride: 1
    weight_filler {
      type: "gaussian"
      std: 0.01
    }
    bias_filler {
      type: "constant"
      value: 0
    }
  }
}
layer {
  name: "rpn_cls_score_reshape"
  type: "Reshape"
  bottom: "rpn_cls_score"
  top: "rpn_cls_score_reshape"
  reshape_param {
    shape {
      dim: 0
      dim: 2
      dim: -1
      dim: 0
    }
  }
}
layer {
  name: "rpn-data"
  type: "Python"
  bottom: "rpn_cls_score"
  bottom: "gt_boxes"
  bottom: "im_info"
  bottom: "data"
  top: "rpn_labels"
  top: "rpn_bbox_targets"
  top: "rpn_bbox_inside_weights"
  top: "rpn_bbox_outside_weights"
  python_param {
    module: "rpn.anchor_target_layer"
    layer: "AnchorTargetLayer"
    param_str: "\'feat_stride\': 16"
  }
}
layer {
  name: "rpn_loss_cls"
  type: "SoftmaxWithLoss"
  bottom: "rpn_cls_score_reshape"
  bottom: "rpn_labels"
  top: "rpn_cls_loss"
  loss_weight: 1
  propagate_down: true
  propagate_down: false
  loss_param {
    ignore_label: -1
    normalize: true
  }
}
layer {
  name: "rpn_loss_bbox"
  type: "SmoothL1Loss"
  bottom: "rpn_bbox_pred"
  bottom: "rpn_bbox_targets"
  bottom: "rpn_bbox_inside_weights"
  bottom: "rpn_bbox_outside_weights"
  top: "rpn_loss_bbox"
  loss_weight: 1
  smooth_l1_loss_param {
    sigma: 3
  }
}
layer {
  name: "rpn_cls_prob"
  type: "Softmax"
  bottom: "rpn_cls_score_reshape"
  top: "rpn_cls_prob"
}
layer {
  name: "rpn_cls_prob_reshape"
  type: "Reshape"
  bottom: "rpn_cls_prob"
  top: "rpn_cls_prob_reshape"
  reshape_param {
    shape {
      dim: 0
      dim: 36
      dim: -1
      dim: 0
    }
  }
}
layer {
  name: "proposal"
  type: "Python"
  bottom: "rpn_cls_prob_reshape"
  bottom: "rpn_bbox_pred"
  bottom: "im_info"
  top: "rpn_rois"
  python_param {
    module: "rpn.proposal_layer"
    layer: "ProposalLayer"
    param_str: "\'feat_stride\': 16"
  }
}
layer {
  name: "roi-data"
  type: "Python"
  bottom: "rpn_rois"
  bottom: "gt_boxes"
  top: "rois"
  top: "labels"
  top: "bbox_targets"
  top: "bbox_inside_weights"
  top: "bbox_outside_weights"
  python_param {
    module: "rpn.proposal_target_layer"
    layer: "ProposalTargetLayer"
    param_str: "\'num_classes\': 21"
  }
}
layer {
  name: "roi_pool5"
  type: "ROIPooling"
  bottom: "conv5_3"
  bottom: "rois"
  top: "pool5"
  roi_pooling_param {
    pooled_h: 7
    pooled_w: 7
    spatial_scale: 0.0625
  }
}
layer {
  name: "fc6"
  type: "InnerProduct"
  bottom: "pool5"
  top: "fc6"
  param {
    lr_mult: 1
  }
  param {
    lr_mult: 2
  }
  inner_product_param {
    num_output: 4096
  }
}
layer {
  name: "relu6"
  type: "ReLU"
  bottom: "fc6"
  top: "fc6"
}
layer {
  name: "drop6"
  type: "Dropout"
  bottom: "fc6"
  top: "fc6"
  dropout_param {
    dropout_ratio: 0.5
  }
}
layer {
  name: "fc7"
  type: "InnerProduct"
  bottom: "fc6"
  top: "fc7"
  param {
    lr_mult: 1
  }
  param {
    lr_mult: 2
  }
  inner_product_param {
    num_output: 4096
  }
}
layer {
  name: "relu7"
  type: "ReLU"
  bottom: "fc7"
  top: "fc7"
}
layer {
  name: "drop7"
  type: "Dropout"
  bottom: "fc7"
  top: "fc7"
  dropout_param {
    dropout_ratio: 0.5
  }
}
layer {
  name: "cls_score"
  type: "InnerProduct"
  bottom: "fc7"
  top: "cls_score"
  param {
    lr_mult: 1
  }
  param {
    lr_mult: 2
  }
  inner_product_param {
    num_output: 21
    weight_filler {
      type: "gaussian"
      std: 0.01
    }
    bias_filler {
      type: "constant"
      value: 0
    }
  }
}
layer {
  name: "bbox_pred"
  type: "InnerProduct"
  bottom: "fc7"
  top: "bbox_pred"
  param {
    lr_mult: 1
  }
  param {
    lr_mult: 2
  }
  inner_product_param {
    num_output: 84
    weight_filler {
      type: "gaussian"
      std: 0.001
    }
    bias_filler {
      type: "constant"
      value: 0
    }
  }
}
layer {
  name: "loss_cls"
  type: "SoftmaxWithLoss"
  bottom: "cls_score"
  bottom: "labels"
  top: "loss_cls"
  loss_weight: 1
  propagate_down: true
  propagate_down: false
}
layer {
  name: "loss_bbox"
  type: "SmoothL1Loss"
  bottom: "bbox_pred"
  bottom: "bbox_targets"
  bottom: "bbox_inside_weights"
  bottom: "bbox_outside_weights"
  top: "loss_bbox"
  loss_weight: 1
}
I0726 12:54:51.987278 30317 layer_factory.hpp:77] Creating layer input-data
I0726 12:54:51.991550 30317 net.cpp:106] Creating Layer input-data
I0726 12:54:51.991567 30317 net.cpp:411] input-data -> data
I0726 12:54:51.991582 30317 net.cpp:411] input-data -> im_info
I0726 12:54:51.991588 30317 net.cpp:411] input-data -> gt_boxes
RoiDataLayer: name_to_top: {'gt_boxes': 2, 'data': 0, 'im_info': 1}
I0726 12:54:52.078197 30317 net.cpp:150] Setting up input-data
I0726 12:54:52.078217 30317 net.cpp:157] Top shape: 1 3 375 520 (585000)
I0726 12:54:52.078222 30317 net.cpp:157] Top shape: 1 3 (3)
I0726 12:54:52.078225 30317 net.cpp:157] Top shape: 1 4 (4)
I0726 12:54:52.078228 30317 net.cpp:165] Memory required for data: 2340028
I0726 12:54:52.078233 30317 layer_factory.hpp:77] Creating layer data_input-data_0_split
I0726 12:54:52.078245 30317 net.cpp:106] Creating Layer data_input-data_0_split
I0726 12:54:52.078249 30317 net.cpp:454] data_input-data_0_split <- data
I0726 12:54:52.078258 30317 net.cpp:411] data_input-data_0_split -> data_input-data_0_split_0
I0726 12:54:52.078266 30317 net.cpp:411] data_input-data_0_split -> data_input-data_0_split_1
I0726 12:54:52.078322 30317 net.cpp:150] Setting up data_input-data_0_split
I0726 12:54:52.078330 30317 net.cpp:157] Top shape: 1 3 375 520 (585000)
I0726 12:54:52.078333 30317 net.cpp:157] Top shape: 1 3 375 520 (585000)
I0726 12:54:52.078336 30317 net.cpp:165] Memory required for data: 7020028
I0726 12:54:52.078339 30317 layer_factory.hpp:77] Creating layer im_info_input-data_1_split
I0726 12:54:52.078346 30317 net.cpp:106] Creating Layer im_info_input-data_1_split
I0726 12:54:52.078348 30317 net.cpp:454] im_info_input-data_1_split <- im_info
I0726 12:54:52.078352 30317 net.cpp:411] im_info_input-data_1_split -> im_info_input-data_1_split_0
I0726 12:54:52.078357 30317 net.cpp:411] im_info_input-data_1_split -> im_info_input-data_1_split_1
I0726 12:54:52.078400 30317 net.cpp:150] Setting up im_info_input-data_1_split
I0726 12:54:52.078408 30317 net.cpp:157] Top shape: 1 3 (3)
I0726 12:54:52.078411 30317 net.cpp:157] Top shape: 1 3 (3)
I0726 12:54:52.078414 30317 net.cpp:165] Memory required for data: 7020052
I0726 12:54:52.078418 30317 layer_factory.hpp:77] Creating layer gt_boxes_input-data_2_split
I0726 12:54:52.078421 30317 net.cpp:106] Creating Layer gt_boxes_input-data_2_split
I0726 12:54:52.078424 30317 net.cpp:454] gt_boxes_input-data_2_split <- gt_boxes
I0726 12:54:52.078429 30317 net.cpp:411] gt_boxes_input-data_2_split -> gt_boxes_input-data_2_split_0
I0726 12:54:52.078434 30317 net.cpp:411] gt_boxes_input-data_2_split -> gt_boxes_input-data_2_split_1
I0726 12:54:52.078477 30317 net.cpp:150] Setting up gt_boxes_input-data_2_split
I0726 12:54:52.078485 30317 net.cpp:157] Top shape: 1 4 (4)
I0726 12:54:52.078488 30317 net.cpp:157] Top shape: 1 4 (4)
I0726 12:54:52.078491 30317 net.cpp:165] Memory required for data: 7020084
I0726 12:54:52.078495 30317 layer_factory.hpp:77] Creating layer conv1_1
I0726 12:54:52.078505 30317 net.cpp:106] Creating Layer conv1_1
I0726 12:54:52.078510 30317 net.cpp:454] conv1_1 <- data_input-data_0_split_0
I0726 12:54:52.078516 30317 net.cpp:411] conv1_1 -> conv1_1
I0726 12:54:52.425057 30317 net.cpp:150] Setting up conv1_1
I0726 12:54:52.425103 30317 net.cpp:157] Top shape: 1 64 375 520 (12480000)
I0726 12:54:52.425108 30317 net.cpp:165] Memory required for data: 56940084
I0726 12:54:52.425127 30317 layer_factory.hpp:77] Creating layer relu1_1
I0726 12:54:52.425140 30317 net.cpp:106] Creating Layer relu1_1
I0726 12:54:52.425146 30317 net.cpp:454] relu1_1 <- conv1_1
I0726 12:54:52.425153 30317 net.cpp:397] relu1_1 -> conv1_1 (in-place)
I0726 12:54:52.425945 30317 net.cpp:150] Setting up relu1_1
I0726 12:54:52.425966 30317 net.cpp:157] Top shape: 1 64 375 520 (12480000)
I0726 12:54:52.425971 30317 net.cpp:165] Memory required for data: 106860084
I0726 12:54:52.425973 30317 layer_factory.hpp:77] Creating layer conv1_2
I0726 12:54:52.425984 30317 net.cpp:106] Creating Layer conv1_2
I0726 12:54:52.425987 30317 net.cpp:454] conv1_2 <- conv1_1
I0726 12:54:52.425993 30317 net.cpp:411] conv1_2 -> conv1_2
I0726 12:54:52.429980 30317 net.cpp:150] Setting up conv1_2
I0726 12:54:52.430003 30317 net.cpp:157] Top shape: 1 64 375 520 (12480000)
I0726 12:54:52.430008 30317 net.cpp:165] Memory required for data: 156780084
I0726 12:54:52.430017 30317 layer_factory.hpp:77] Creating layer relu1_2
I0726 12:54:52.430024 30317 net.cpp:106] Creating Layer relu1_2
I0726 12:54:52.430028 30317 net.cpp:454] relu1_2 <- conv1_2
I0726 12:54:52.430033 30317 net.cpp:397] relu1_2 -> conv1_2 (in-place)
I0726 12:54:52.430202 30317 net.cpp:150] Setting up relu1_2
I0726 12:54:52.430218 30317 net.cpp:157] Top shape: 1 64 375 520 (12480000)
I0726 12:54:52.430222 30317 net.cpp:165] Memory required for data: 206700084
I0726 12:54:52.430225 30317 layer_factory.hpp:77] Creating layer pool1
I0726 12:54:52.430236 30317 net.cpp:106] Creating Layer pool1
I0726 12:54:52.430240 30317 net.cpp:454] pool1 <- conv1_2
I0726 12:54:52.430245 30317 net.cpp:411] pool1 -> pool1
I0726 12:54:52.430315 30317 net.cpp:150] Setting up pool1
I0726 12:54:52.430327 30317 net.cpp:157] Top shape: 1 64 188 260 (3128320)
I0726 12:54:52.430331 30317 net.cpp:165] Memory required for data: 219213364
I0726 12:54:52.430335 30317 layer_factory.hpp:77] Creating layer conv2_1
I0726 12:54:52.430341 30317 net.cpp:106] Creating Layer conv2_1
I0726 12:54:52.430346 30317 net.cpp:454] conv2_1 <- pool1
I0726 12:54:52.430351 30317 net.cpp:411] conv2_1 -> conv2_1
I0726 12:54:52.433675 30317 net.cpp:150] Setting up conv2_1
I0726 12:54:52.433698 30317 net.cpp:157] Top shape: 1 128 188 260 (6256640)
I0726 12:54:52.433702 30317 net.cpp:165] Memory required for data: 244239924
I0726 12:54:52.433712 30317 layer_factory.hpp:77] Creating layer relu2_1
I0726 12:54:52.433718 30317 net.cpp:106] Creating Layer relu2_1
I0726 12:54:52.433722 30317 net.cpp:454] relu2_1 <- conv2_1
I0726 12:54:52.433727 30317 net.cpp:397] relu2_1 -> conv2_1 (in-place)
I0726 12:54:52.433897 30317 net.cpp:150] Setting up relu2_1
I0726 12:54:52.433913 30317 net.cpp:157] Top shape: 1 128 188 260 (6256640)
I0726 12:54:52.433917 30317 net.cpp:165] Memory required for data: 269266484
I0726 12:54:52.433920 30317 layer_factory.hpp:77] Creating layer conv2_2
I0726 12:54:52.433928 30317 net.cpp:106] Creating Layer conv2_2
I0726 12:54:52.433933 30317 net.cpp:454] conv2_2 <- conv2_1
I0726 12:54:52.433938 30317 net.cpp:411] conv2_2 -> conv2_2
I0726 12:54:52.436712 30317 net.cpp:150] Setting up conv2_2
I0726 12:54:52.436734 30317 net.cpp:157] Top shape: 1 128 188 260 (6256640)
I0726 12:54:52.436738 30317 net.cpp:165] Memory required for data: 294293044
I0726 12:54:52.436745 30317 layer_factory.hpp:77] Creating layer relu2_2
I0726 12:54:52.436751 30317 net.cpp:106] Creating Layer relu2_2
I0726 12:54:52.436755 30317 net.cpp:454] relu2_2 <- conv2_2
I0726 12:54:52.436760 30317 net.cpp:397] relu2_2 -> conv2_2 (in-place)
I0726 12:54:52.437536 30317 net.cpp:150] Setting up relu2_2
I0726 12:54:52.437557 30317 net.cpp:157] Top shape: 1 128 188 260 (6256640)
I0726 12:54:52.437561 30317 net.cpp:165] Memory required for data: 319319604
I0726 12:54:52.437566 30317 layer_factory.hpp:77] Creating layer pool2
I0726 12:54:52.437572 30317 net.cpp:106] Creating Layer pool2
I0726 12:54:52.437575 30317 net.cpp:454] pool2 <- conv2_2
I0726 12:54:52.437580 30317 net.cpp:411] pool2 -> pool2
I0726 12:54:52.437644 30317 net.cpp:150] Setting up pool2
I0726 12:54:52.437691 30317 net.cpp:157] Top shape: 1 128 94 130 (1564160)
I0726 12:54:52.437702 30317 net.cpp:165] Memory required for data: 325576244
I0726 12:54:52.437707 30317 layer_factory.hpp:77] Creating layer conv3_1
I0726 12:54:52.437714 30317 net.cpp:106] Creating Layer conv3_1
I0726 12:54:52.437718 30317 net.cpp:454] conv3_1 <- pool2
I0726 12:54:52.437724 30317 net.cpp:411] conv3_1 -> conv3_1
I0726 12:54:52.441812 30317 net.cpp:150] Setting up conv3_1
I0726 12:54:52.441838 30317 net.cpp:157] Top shape: 1 256 94 130 (3128320)
I0726 12:54:52.441841 30317 net.cpp:165] Memory required for data: 338089524
I0726 12:54:52.441851 30317 layer_factory.hpp:77] Creating layer relu3_1
I0726 12:54:52.441857 30317 net.cpp:106] Creating Layer relu3_1
I0726 12:54:52.441861 30317 net.cpp:454] relu3_1 <- conv3_1
I0726 12:54:52.441866 30317 net.cpp:397] relu3_1 -> conv3_1 (in-place)
I0726 12:54:52.442039 30317 net.cpp:150] Setting up relu3_1
I0726 12:54:52.442056 30317 net.cpp:157] Top shape: 1 256 94 130 (3128320)
I0726 12:54:52.442059 30317 net.cpp:165] Memory required for data: 350602804
I0726 12:54:52.442064 30317 layer_factory.hpp:77] Creating layer conv3_2
I0726 12:54:52.442072 30317 net.cpp:106] Creating Layer conv3_2
I0726 12:54:52.442076 30317 net.cpp:454] conv3_2 <- conv3_1
I0726 12:54:52.442081 30317 net.cpp:411] conv3_2 -> conv3_2
I0726 12:54:52.446257 30317 net.cpp:150] Setting up conv3_2
I0726 12:54:52.446282 30317 net.cpp:157] Top shape: 1 256 94 130 (3128320)
I0726 12:54:52.446287 30317 net.cpp:165] Memory required for data: 363116084
I0726 12:54:52.446295 30317 layer_factory.hpp:77] Creating layer relu3_2
I0726 12:54:52.446300 30317 net.cpp:106] Creating Layer relu3_2
I0726 12:54:52.446305 30317 net.cpp:454] relu3_2 <- conv3_2
I0726 12:54:52.446310 30317 net.cpp:397] relu3_2 -> conv3_2 (in-place)
I0726 12:54:52.446483 30317 net.cpp:150] Setting up relu3_2
I0726 12:54:52.446499 30317 net.cpp:157] Top shape: 1 256 94 130 (3128320)
I0726 12:54:52.446503 30317 net.cpp:165] Memory required for data: 375629364
I0726 12:54:52.446507 30317 layer_factory.hpp:77] Creating layer conv3_3
I0726 12:54:52.446516 30317 net.cpp:106] Creating Layer conv3_3
I0726 12:54:52.446518 30317 net.cpp:454] conv3_3 <- conv3_2
I0726 12:54:52.446524 30317 net.cpp:411] conv3_3 -> conv3_3
I0726 12:54:52.450672 30317 net.cpp:150] Setting up conv3_3
I0726 12:54:52.450697 30317 net.cpp:157] Top shape: 1 256 94 130 (3128320)
I0726 12:54:52.450702 30317 net.cpp:165] Memory required for data: 388142644
I0726 12:54:52.450709 30317 layer_factory.hpp:77] Creating layer relu3_3
I0726 12:54:52.450716 30317 net.cpp:106] Creating Layer relu3_3
I0726 12:54:52.450721 30317 net.cpp:454] relu3_3 <- conv3_3
I0726 12:54:52.450726 30317 net.cpp:397] relu3_3 -> conv3_3 (in-place)
I0726 12:54:52.451551 30317 net.cpp:150] Setting up relu3_3
I0726 12:54:52.451572 30317 net.cpp:157] Top shape: 1 256 94 130 (3128320)
I0726 12:54:52.451576 30317 net.cpp:165] Memory required for data: 400655924
I0726 12:54:52.451581 30317 layer_factory.hpp:77] Creating layer pool3
I0726 12:54:52.451587 30317 net.cpp:106] Creating Layer pool3
I0726 12:54:52.451591 30317 net.cpp:454] pool3 <- conv3_3
I0726 12:54:52.451597 30317 net.cpp:411] pool3 -> pool3
I0726 12:54:52.451666 30317 net.cpp:150] Setting up pool3
I0726 12:54:52.451709 30317 net.cpp:157] Top shape: 1 256 47 65 (782080)
I0726 12:54:52.451720 30317 net.cpp:165] Memory required for data: 403784244
I0726 12:54:52.451725 30317 layer_factory.hpp:77] Creating layer conv4_1
I0726 12:54:52.451733 30317 net.cpp:106] Creating Layer conv4_1
I0726 12:54:52.451736 30317 net.cpp:454] conv4_1 <- pool3
I0726 12:54:52.451745 30317 net.cpp:411] conv4_1 -> conv4_1
I0726 12:54:52.457912 30317 net.cpp:150] Setting up conv4_1
I0726 12:54:52.457937 30317 net.cpp:157] Top shape: 1 512 47 65 (1564160)
I0726 12:54:52.457942 30317 net.cpp:165] Memory required for data: 410040884
I0726 12:54:52.457949 30317 layer_factory.hpp:77] Creating layer relu4_1
I0726 12:54:52.457957 30317 net.cpp:106] Creating Layer relu4_1
I0726 12:54:52.457960 30317 net.cpp:454] relu4_1 <- conv4_1
I0726 12:54:52.457968 30317 net.cpp:397] relu4_1 -> conv4_1 (in-place)
I0726 12:54:52.458773 30317 net.cpp:150] Setting up relu4_1
I0726 12:54:52.458794 30317 net.cpp:157] Top shape: 1 512 47 65 (1564160)
I0726 12:54:52.458798 30317 net.cpp:165] Memory required for data: 416297524
I0726 12:54:52.458801 30317 layer_factory.hpp:77] Creating layer conv4_2
I0726 12:54:52.458811 30317 net.cpp:106] Creating Layer conv4_2
I0726 12:54:52.458815 30317 net.cpp:454] conv4_2 <- conv4_1
I0726 12:54:52.458822 30317 net.cpp:411] conv4_2 -> conv4_2
I0726 12:54:52.466220 30317 net.cpp:150] Setting up conv4_2
I0726 12:54:52.466245 30317 net.cpp:157] Top shape: 1 512 47 65 (1564160)
I0726 12:54:52.466249 30317 net.cpp:165] Memory required for data: 422554164
I0726 12:54:52.466260 30317 layer_factory.hpp:77] Creating layer relu4_2
I0726 12:54:52.466271 30317 net.cpp:106] Creating Layer relu4_2
I0726 12:54:52.466275 30317 net.cpp:454] relu4_2 <- conv4_2
I0726 12:54:52.466281 30317 net.cpp:397] relu4_2 -> conv4_2 (in-place)
I0726 12:54:52.466464 30317 net.cpp:150] Setting up relu4_2
I0726 12:54:52.466481 30317 net.cpp:157] Top shape: 1 512 47 65 (1564160)
I0726 12:54:52.466485 30317 net.cpp:165] Memory required for data: 428810804
I0726 12:54:52.466488 30317 layer_factory.hpp:77] Creating layer conv4_3
I0726 12:54:52.466498 30317 net.cpp:106] Creating Layer conv4_3
I0726 12:54:52.466501 30317 net.cpp:454] conv4_3 <- conv4_2
I0726 12:54:52.466507 30317 net.cpp:411] conv4_3 -> conv4_3
I0726 12:54:52.473789 30317 net.cpp:150] Setting up conv4_3
I0726 12:54:52.473817 30317 net.cpp:157] Top shape: 1 512 47 65 (1564160)
I0726 12:54:52.473821 30317 net.cpp:165] Memory required for data: 435067444
I0726 12:54:52.473829 30317 layer_factory.hpp:77] Creating layer relu4_3
I0726 12:54:52.473837 30317 net.cpp:106] Creating Layer relu4_3
I0726 12:54:52.473841 30317 net.cpp:454] relu4_3 <- conv4_3
I0726 12:54:52.473846 30317 net.cpp:397] relu4_3 -> conv4_3 (in-place)
I0726 12:54:52.474653 30317 net.cpp:150] Setting up relu4_3
I0726 12:54:52.474674 30317 net.cpp:157] Top shape: 1 512 47 65 (1564160)
I0726 12:54:52.474678 30317 net.cpp:165] Memory required for data: 441324084
I0726 12:54:52.474681 30317 layer_factory.hpp:77] Creating layer pool4
I0726 12:54:52.474690 30317 net.cpp:106] Creating Layer pool4
I0726 12:54:52.474694 30317 net.cpp:454] pool4 <- conv4_3
I0726 12:54:52.474701 30317 net.cpp:411] pool4 -> pool4
I0726 12:54:52.474777 30317 net.cpp:150] Setting up pool4
I0726 12:54:52.474797 30317 net.cpp:157] Top shape: 1 512 24 33 (405504)
I0726 12:54:52.474799 30317 net.cpp:165] Memory required for data: 442946100
I0726 12:54:52.474802 30317 layer_factory.hpp:77] Creating layer conv5_1
I0726 12:54:52.474812 30317 net.cpp:106] Creating Layer conv5_1
I0726 12:54:52.474815 30317 net.cpp:454] conv5_1 <- pool4
I0726 12:54:52.474822 30317 net.cpp:411] conv5_1 -> conv5_1
I0726 12:54:52.482703 30317 net.cpp:150] Setting up conv5_1
I0726 12:54:52.482730 30317 net.cpp:157] Top shape: 1 512 24 33 (405504)
I0726 12:54:52.482735 30317 net.cpp:165] Memory required for data: 444568116
I0726 12:54:52.482743 30317 layer_factory.hpp:77] Creating layer relu5_1
I0726 12:54:52.482749 30317 net.cpp:106] Creating Layer relu5_1
I0726 12:54:52.482753 30317 net.cpp:454] relu5_1 <- conv5_1
I0726 12:54:52.482758 30317 net.cpp:397] relu5_1 -> conv5_1 (in-place)
I0726 12:54:52.482946 30317 net.cpp:150] Setting up relu5_1
I0726 12:54:52.482964 30317 net.cpp:157] Top shape: 1 512 24 33 (405504)
I0726 12:54:52.482966 30317 net.cpp:165] Memory required for data: 446190132
I0726 12:54:52.482970 30317 layer_factory.hpp:77] Creating layer conv5_2
I0726 12:54:52.482983 30317 net.cpp:106] Creating Layer conv5_2
I0726 12:54:52.482987 30317 net.cpp:454] conv5_2 <- conv5_1
I0726 12:54:52.482992 30317 net.cpp:411] conv5_2 -> conv5_2
I0726 12:54:52.490298 30317 net.cpp:150] Setting up conv5_2
I0726 12:54:52.490322 30317 net.cpp:157] Top shape: 1 512 24 33 (405504)
I0726 12:54:52.490327 30317 net.cpp:165] Memory required for data: 447812148
I0726 12:54:52.490334 30317 layer_factory.hpp:77] Creating layer relu5_2
I0726 12:54:52.490342 30317 net.cpp:106] Creating Layer relu5_2
I0726 12:54:52.490346 30317 net.cpp:454] relu5_2 <- conv5_2
I0726 12:54:52.490352 30317 net.cpp:397] relu5_2 -> conv5_2 (in-place)
I0726 12:54:52.490540 30317 net.cpp:150] Setting up relu5_2
I0726 12:54:52.490556 30317 net.cpp:157] Top shape: 1 512 24 33 (405504)
I0726 12:54:52.490559 30317 net.cpp:165] Memory required for data: 449434164
I0726 12:54:52.490563 30317 layer_factory.hpp:77] Creating layer conv5_3
I0726 12:54:52.490579 30317 net.cpp:106] Creating Layer conv5_3
I0726 12:54:52.490583 30317 net.cpp:454] conv5_3 <- conv5_2
I0726 12:54:52.490588 30317 net.cpp:411] conv5_3 -> conv5_3
I0726 12:54:52.497891 30317 net.cpp:150] Setting up conv5_3
I0726 12:54:52.497918 30317 net.cpp:157] Top shape: 1 512 24 33 (405504)
I0726 12:54:52.497922 30317 net.cpp:165] Memory required for data: 451056180
I0726 12:54:52.497930 30317 layer_factory.hpp:77] Creating layer relu5_3
I0726 12:54:52.497936 30317 net.cpp:106] Creating Layer relu5_3
I0726 12:54:52.497941 30317 net.cpp:454] relu5_3 <- conv5_3
I0726 12:54:52.497946 30317 net.cpp:397] relu5_3 -> conv5_3 (in-place)
I0726 12:54:52.499191 30317 net.cpp:150] Setting up relu5_3
I0726 12:54:52.499213 30317 net.cpp:157] Top shape: 1 512 24 33 (405504)
I0726 12:54:52.499217 30317 net.cpp:165] Memory required for data: 452678196
I0726 12:54:52.499220 30317 layer_factory.hpp:77] Creating layer conv5_3_relu5_3_0_split
I0726 12:54:52.499230 30317 net.cpp:106] Creating Layer conv5_3_relu5_3_0_split
I0726 12:54:52.499234 30317 net.cpp:454] conv5_3_relu5_3_0_split <- conv5_3
I0726 12:54:52.499239 30317 net.cpp:411] conv5_3_relu5_3_0_split -> conv5_3_relu5_3_0_split_0
I0726 12:54:52.499248 30317 net.cpp:411] conv5_3_relu5_3_0_split -> conv5_3_relu5_3_0_split_1
I0726 12:54:52.499320 30317 net.cpp:150] Setting up conv5_3_relu5_3_0_split
I0726 12:54:52.499336 30317 net.cpp:157] Top shape: 1 512 24 33 (405504)
I0726 12:54:52.499341 30317 net.cpp:157] Top shape: 1 512 24 33 (405504)
I0726 12:54:52.499343 30317 net.cpp:165] Memory required for data: 455922228
I0726 12:54:52.499346 30317 layer_factory.hpp:77] Creating layer rpn_conv/3x3
I0726 12:54:52.499358 30317 net.cpp:106] Creating Layer rpn_conv/3x3
I0726 12:54:52.499362 30317 net.cpp:454] rpn_conv/3x3 <- conv5_3_relu5_3_0_split_0
I0726 12:54:52.499368 30317 net.cpp:411] rpn_conv/3x3 -> rpn/output
I0726 12:54:52.561095 30317 net.cpp:150] Setting up rpn_conv/3x3
I0726 12:54:52.561121 30317 net.cpp:157] Top shape: 1 512 24 33 (405504)
I0726 12:54:52.561126 30317 net.cpp:165] Memory required for data: 457544244
I0726 12:54:52.561133 30317 layer_factory.hpp:77] Creating layer rpn_relu/3x3
I0726 12:54:52.561141 30317 net.cpp:106] Creating Layer rpn_relu/3x3
I0726 12:54:52.561146 30317 net.cpp:454] rpn_relu/3x3 <- rpn/output
I0726 12:54:52.561151 30317 net.cpp:397] rpn_relu/3x3 -> rpn/output (in-place)
I0726 12:54:52.561338 30317 net.cpp:150] Setting up rpn_relu/3x3
I0726 12:54:52.561357 30317 net.cpp:157] Top shape: 1 512 24 33 (405504)
I0726 12:54:52.561360 30317 net.cpp:165] Memory required for data: 459166260
I0726 12:54:52.561364 30317 layer_factory.hpp:77] Creating layer rpn/output_rpn_relu/3x3_0_split
I0726 12:54:52.561369 30317 net.cpp:106] Creating Layer rpn/output_rpn_relu/3x3_0_split
I0726 12:54:52.561372 30317 net.cpp:454] rpn/output_rpn_relu/3x3_0_split <- rpn/output
I0726 12:54:52.561378 30317 net.cpp:411] rpn/output_rpn_relu/3x3_0_split -> rpn/output_rpn_relu/3x3_0_split_0
I0726 12:54:52.561383 30317 net.cpp:411] rpn/output_rpn_relu/3x3_0_split -> rpn/output_rpn_relu/3x3_0_split_1
I0726 12:54:52.561451 30317 net.cpp:150] Setting up rpn/output_rpn_relu/3x3_0_split
I0726 12:54:52.561460 30317 net.cpp:157] Top shape: 1 512 24 33 (405504)
I0726 12:54:52.561516 30317 net.cpp:157] Top shape: 1 512 24 33 (405504)
I0726 12:54:52.561522 30317 net.cpp:165] Memory required for data: 462410292
I0726 12:54:52.561527 30317 layer_factory.hpp:77] Creating layer rpn_cls_score
I0726 12:54:52.561537 30317 net.cpp:106] Creating Layer rpn_cls_score
I0726 12:54:52.561540 30317 net.cpp:454] rpn_cls_score <- rpn/output_rpn_relu/3x3_0_split_0
I0726 12:54:52.561548 30317 net.cpp:411] rpn_cls_score -> rpn_cls_score
I0726 12:54:52.564934 30317 net.cpp:150] Setting up rpn_cls_score
I0726 12:54:52.564956 30317 net.cpp:157] Top shape: 1 36 24 33 (28512)
I0726 12:54:52.564960 30317 net.cpp:165] Memory required for data: 462524340
I0726 12:54:52.564967 30317 layer_factory.hpp:77] Creating layer rpn_cls_score_rpn_cls_score_0_split
I0726 12:54:52.564976 30317 net.cpp:106] Creating Layer rpn_cls_score_rpn_cls_score_0_split
I0726 12:54:52.564980 30317 net.cpp:454] rpn_cls_score_rpn_cls_score_0_split <- rpn_cls_score
I0726 12:54:52.564985 30317 net.cpp:411] rpn_cls_score_rpn_cls_score_0_split -> rpn_cls_score_rpn_cls_score_0_split_0
I0726 12:54:52.564998 30317 net.cpp:411] rpn_cls_score_rpn_cls_score_0_split -> rpn_cls_score_rpn_cls_score_0_split_1
I0726 12:54:52.565091 30317 net.cpp:150] Setting up rpn_cls_score_rpn_cls_score_0_split
I0726 12:54:52.565109 30317 net.cpp:157] Top shape: 1 36 24 33 (28512)
I0726 12:54:52.565114 30317 net.cpp:157] Top shape: 1 36 24 33 (28512)
I0726 12:54:52.565116 30317 net.cpp:165] Memory required for data: 462752436
I0726 12:54:52.565119 30317 layer_factory.hpp:77] Creating layer rpn_bbox_pred
I0726 12:54:52.565130 30317 net.cpp:106] Creating Layer rpn_bbox_pred
I0726 12:54:52.565135 30317 net.cpp:454] rpn_bbox_pred <- rpn/output_rpn_relu/3x3_0_split_1
I0726 12:54:52.565142 30317 net.cpp:411] rpn_bbox_pred -> rpn_bbox_pred
I0726 12:54:52.568272 30317 net.cpp:150] Setting up rpn_bbox_pred
I0726 12:54:52.568312 30317 net.cpp:157] Top shape: 1 72 24 33 (57024)
I0726 12:54:52.568318 30317 net.cpp:165] Memory required for data: 462980532
I0726 12:54:52.568325 30317 layer_factory.hpp:77] Creating layer rpn_bbox_pred_rpn_bbox_pred_0_split
I0726 12:54:52.568331 30317 net.cpp:106] Creating Layer rpn_bbox_pred_rpn_bbox_pred_0_split
I0726 12:54:52.568337 30317 net.cpp:454] rpn_bbox_pred_rpn_bbox_pred_0_split <- rpn_bbox_pred
I0726 12:54:52.568343 30317 net.cpp:411] rpn_bbox_pred_rpn_bbox_pred_0_split -> rpn_bbox_pred_rpn_bbox_pred_0_split_0
I0726 12:54:52.568349 30317 net.cpp:411] rpn_bbox_pred_rpn_bbox_pred_0_split -> rpn_bbox_pred_rpn_bbox_pred_0_split_1
I0726 12:54:52.568420 30317 net.cpp:150] Setting up rpn_bbox_pred_rpn_bbox_pred_0_split
I0726 12:54:52.568426 30317 net.cpp:157] Top shape: 1 72 24 33 (57024)
I0726 12:54:52.568430 30317 net.cpp:157] Top shape: 1 72 24 33 (57024)
I0726 12:54:52.568434 30317 net.cpp:165] Memory required for data: 463436724
I0726 12:54:52.568436 30317 layer_factory.hpp:77] Creating layer rpn_cls_score_reshape
I0726 12:54:52.568445 30317 net.cpp:106] Creating Layer rpn_cls_score_reshape
I0726 12:54:52.568449 30317 net.cpp:454] rpn_cls_score_reshape <- rpn_cls_score_rpn_cls_score_0_split_0
I0726 12:54:52.568456 30317 net.cpp:411] rpn_cls_score_reshape -> rpn_cls_score_reshape
I0726 12:54:52.568500 30317 net.cpp:150] Setting up rpn_cls_score_reshape
I0726 12:54:52.568507 30317 net.cpp:157] Top shape: 1 2 432 33 (28512)
I0726 12:54:52.568511 30317 net.cpp:165] Memory required for data: 463550772
I0726 12:54:52.568513 30317 layer_factory.hpp:77] Creating layer rpn_cls_score_reshape_rpn_cls_score_reshape_0_split
I0726 12:54:52.568518 30317 net.cpp:106] Creating Layer rpn_cls_score_reshape_rpn_cls_score_reshape_0_split
I0726 12:54:52.568523 30317 net.cpp:454] rpn_cls_score_reshape_rpn_cls_score_reshape_0_split <- rpn_cls_score_reshape
I0726 12:54:52.568528 30317 net.cpp:411] rpn_cls_score_reshape_rpn_cls_score_reshape_0_split -> rpn_cls_score_reshape_rpn_cls_score_reshape_0_split_0
I0726 12:54:52.568533 30317 net.cpp:411] rpn_cls_score_reshape_rpn_cls_score_reshape_0_split -> rpn_cls_score_reshape_rpn_cls_score_reshape_0_split_1
I0726 12:54:52.568588 30317 net.cpp:150] Setting up rpn_cls_score_reshape_rpn_cls_score_reshape_0_split
I0726 12:54:52.568603 30317 net.cpp:157] Top shape: 1 2 432 33 (28512)
I0726 12:54:52.568606 30317 net.cpp:157] Top shape: 1 2 432 33 (28512)
I0726 12:54:52.568609 30317 net.cpp:165] Memory required for data: 463778868
I0726 12:54:52.568612 30317 layer_factory.hpp:77] Creating layer rpn-data
I0726 12:54:52.569393 30317 net.cpp:106] Creating Layer rpn-data
I0726 12:54:52.569416 30317 net.cpp:454] rpn-data <- rpn_cls_score_rpn_cls_score_0_split_1
I0726 12:54:52.569422 30317 net.cpp:454] rpn-data <- gt_boxes_input-data_2_split_0
I0726 12:54:52.569427 30317 net.cpp:454] rpn-data <- im_info_input-data_1_split_0
I0726 12:54:52.569430 30317 net.cpp:454] rpn-data <- data_input-data_0_split_1
I0726 12:54:52.569435 30317 net.cpp:411] rpn-data -> rpn_labels
I0726 12:54:52.569442 30317 net.cpp:411] rpn-data -> rpn_bbox_targets
I0726 12:54:52.569448 30317 net.cpp:411] rpn-data -> rpn_bbox_inside_weights
I0726 12:54:52.569454 30317 net.cpp:411] rpn-data -> rpn_bbox_outside_weights
I0726 12:54:52.570394 30317 net.cpp:150] Setting up rpn-data
I0726 12:54:52.570418 30317 net.cpp:157] Top shape: 1 1 432 33 (14256)
I0726 12:54:52.570423 30317 net.cpp:157] Top shape: 1 72 24 33 (57024)
I0726 12:54:52.570427 30317 net.cpp:157] Top shape: 1 72 24 33 (57024)
I0726 12:54:52.570431 30317 net.cpp:157] Top shape: 1 72 24 33 (57024)
I0726 12:54:52.570433 30317 net.cpp:165] Memory required for data: 464520180
I0726 12:54:52.570437 30317 layer_factory.hpp:77] Creating layer rpn_loss_cls
I0726 12:54:52.570447 30317 net.cpp:106] Creating Layer rpn_loss_cls
I0726 12:54:52.570452 30317 net.cpp:454] rpn_loss_cls <- rpn_cls_score_reshape_rpn_cls_score_reshape_0_split_0
I0726 12:54:52.570457 30317 net.cpp:454] rpn_loss_cls <- rpn_labels
…
I0726 12:54:52.572047 30317 net.cpp:157] Top shape: (1)
I0726 12:54:52.572051 30317 net.cpp:160]     with loss weight 1
I0726 12:54:52.572057 30317 net.cpp:165] Memory required for data: 464520188
I0726 12:54:52.572060 30317 layer_factory.hpp:77] Creating layer rpn_cls_prob
I0726 12:54:52.572067 30317 net.cpp:106] Creating Layer rpn_cls_prob
I0726 12:54:52.572070 30317 net.cpp:454] rpn_cls_prob <- rpn_cls_score_reshape_rpn_cls_score_reshape_0_split_1
I0726 12:54:52.572077 30317 net.cpp:411] rpn_cls_prob -> rpn_cls_prob
I0726 12:54:52.573029 30317 net.cpp:150] Setting up rpn_cls_prob
I0726 12:54:52.573062 30317 net.cpp:157] Top shape: 1 2 432 33 (28512)
I0726 12:54:52.573067 30317 net.cpp:165] Memory required for data: 464634236
I0726 12:54:52.573071 30317 layer_factory.hpp:77] Creating layer rpn_cls_prob_reshape
I0726 12:54:52.573077 30317 net.cpp:106] Creating Layer rpn_cls_prob_reshape
I0726 12:54:52.573084 30317 net.cpp:454] rpn_cls_prob_reshape <- rpn_cls_prob
I0726 12:54:52.573091 30317 net.cpp:411] rpn_cls_prob_reshape -> rpn_cls_prob_reshape
I0726 12:54:52.573135 30317 net.cpp:150] Setting up rpn_cls_prob_reshape
I0726 12:54:52.573143 30317 net.cpp:157] Top shape: 1 36 24 33 (28512)
I0726 12:54:52.573145 30317 net.cpp:165] Memory required for data: 464748284
I0726 12:54:52.573148 30317 layer_factory.hpp:77] Creating layer proposal
I0726 12:54:52.574021 30317 net.cpp:106] Creating Layer proposal
I0726 12:54:52.574044 30317 net.cpp:454] proposal <- rpn_cls_prob_reshape
I0726 12:54:52.574051 30317 net.cpp:454] proposal <- rpn_bbox_pred_rpn_bbox_pred_0_split_1
I0726 12:54:52.574055 30317 net.cpp:454] proposal <- im_info_input-data_1_split_1
I0726 12:54:52.574060 30317 net.cpp:411] proposal -> rpn_rois
I0726 12:54:52.574844 30317 net.cpp:150] Setting up proposal
I0726 12:54:52.574869 30317 net.cpp:157] Top shape: 1 5 (5)
I0726 12:54:52.574874 30317 net.cpp:165] Memory required for data: 464748304
I0726 12:54:52.574878 30317 layer_factory.hpp:77] Creating layer roi-data
I0726 12:54:52.575058 30317 net.cpp:106] Creating Layer roi-data
I0726 12:54:52.575078 30317 net.cpp:454] roi-data <- rpn_rois
I0726 12:54:52.575084 30317 net.cpp:454] roi-data <- gt_boxes_input-data_2_split_1
I0726 12:54:52.575090 30317 net.cpp:411] roi-data -> rois
I0726 12:54:52.575098 30317 net.cpp:411] roi-data -> labels
I0726 12:54:52.575103 30317 net.cpp:411] roi-data -> bbox_targets
I0726 12:54:52.575109 30317 net.cpp:411] roi-data -> bbox_inside_weights
I0726 12:54:52.575114 30317 net.cpp:411] roi-data -> bbox_outside_weights
I0726 12:54:52.578785 30317 net.cpp:150] Setting up roi-data
I0726 12:54:52.578810 30317 net.cpp:157] Top shape: 1 5 (5)
I0726 12:54:52.578815 30317 net.cpp:157] Top shape: 1 1 (1)
I0726 12:54:52.578819 30317 net.cpp:157] Top shape: 1 84 (84)
I0726 12:54:52.578822 30317 net.cpp:157] Top shape: 1 84 (84)
I0726 12:54:52.578825 30317 net.cpp:157] Top shape: 1 84 (84)
I0726 12:54:52.578829 30317 net.cpp:165] Memory required for data: 464749336
I0726 12:54:52.578832 30317 layer_factory.hpp:77] Creating layer roi_pool5
I0726 12:54:52.578841 30317 net.cpp:106] Creating Layer roi_pool5
I0726 12:54:52.578846 30317 net.cpp:454] roi_pool5 <- conv5_3_relu5_3_0_split_1
I0726 12:54:52.578851 30317 net.cpp:454] roi_pool5 <- rois
I0726 12:54:52.578856 30317 net.cpp:411] roi_pool5 -> pool5
I0726 12:54:52.578866 30317 roi_pooling_layer.cpp:30] Spatial scale: 0.0625
I0726 12:54:52.578941 30317 net.cpp:150] Setting up roi_pool5
I0726 12:54:52.578951 30317 net.cpp:157] Top shape: 1 512 7 7 (25088)
I0726 12:54:52.578954 30317 net.cpp:165] Memory required for data: 464849688
I0726 12:54:52.578958 30317 layer_factory.hpp:77] Creating layer fc6
I0726 12:54:52.578966 30317 net.cpp:106] Creating Layer fc6
I0726 12:54:52.578972 30317 net.cpp:454] fc6 <- pool5
I0726 12:54:52.578976 30317 net.cpp:411] fc6 -> fc6
I0726 12:54:52.884902 30317 net.cpp:150] Setting up fc6
I0726 12:54:52.885061 30317 net.cpp:157] Top shape: 1 4096 (4096)
I0726 12:54:52.885084 30317 net.cpp:165] Memory required for data: 464866072
I0726 12:54:52.885174 30317 layer_factory.hpp:77] Creating layer relu6
I0726 12:54:52.885222 30317 net.cpp:106] Creating Layer relu6
I0726 12:54:52.885231 30317 net.cpp:454] relu6 <- fc6
I0726 12:54:52.885238 30317 net.cpp:397] relu6 -> fc6 (in-place)
I0726 12:54:52.885596 30317 net.cpp:150] Setting up relu6
I0726 12:54:52.885614 30317 net.cpp:157] Top shape: 1 4096 (4096)
I0726 12:54:52.885618 30317 net.cpp:165] Memory required for data: 464882456
I0726 12:54:52.885622 30317 layer_factory.hpp:77] Creating layer drop6
I0726 12:54:52.885639 30317 net.cpp:106] Creating Layer drop6
I0726 12:54:52.885643 30317 net.cpp:454] drop6 <- fc6
I0726 12:54:52.885650 30317 net.cpp:397] drop6 -> fc6 (in-place)
I0726 12:54:52.885743 30317 net.cpp:150] Setting up drop6
I0726 12:54:52.885751 30317 net.cpp:157] Top shape: 1 4096 (4096)
I0726 12:54:52.885753 30317 net.cpp:165] Memory required for data: 464898840
I0726 12:54:52.885756 30317 layer_factory.hpp:77] Creating layer fc7
I0726 12:54:52.885763 30317 net.cpp:106] Creating Layer fc7
I0726 12:54:52.885766 30317 net.cpp:454] fc7 <- fc6
I0726 12:54:52.885773 30317 net.cpp:411] fc7 -> fc7
I0726 12:54:52.931964 30317 net.cpp:150] Setting up fc7
I0726 12:54:52.932019 30317 net.cpp:157] Top shape: 1 4096 (4096)
I0726 12:54:52.932024 30317 net.cpp:165] Memory required for data: 464915224
I0726 12:54:52.932036 30317 layer_factory.hpp:77] Creating layer relu7
I0726 12:54:52.932050 30317 net.cpp:106] Creating Layer relu7
I0726 12:54:52.932055 30317 net.cpp:454] relu7 <- fc7
I0726 12:54:52.932063 30317 net.cpp:397] relu7 -> fc7 (in-place)
I0726 12:54:52.933125 30317 net.cpp:150] Setting up relu7
I0726 12:54:52.933148 30317 net.cpp:157] Top shape: 1 4096 (4096)
I0726 12:54:52.933152 30317 net.cpp:165] Memory required for data: 464931608
I0726 12:54:52.933156 30317 layer_factory.hpp:77] Creating layer drop7
I0726 12:54:52.933163 30317 net.cpp:106] Creating Layer drop7
I0726 12:54:52.933167 30317 net.cpp:454] drop7 <- fc7
I0726 12:54:52.933172 30317 net.cpp:397] drop7 -> fc7 (in-place)
I0726 12:54:52.933223 30317 net.cpp:150] Setting up drop7
I0726 12:54:52.933236 30317 net.cpp:157] Top shape: 1 4096 (4096)
I0726 12:54:52.933239 30317 net.cpp:165] Memory required for data: 464947992
I0726 12:54:52.933243 30317 layer_factory.hpp:77] Creating layer fc7_drop7_0_split
I0726 12:54:52.933248 30317 net.cpp:106] Creating Layer fc7_drop7_0_split
I0726 12:54:52.933251 30317 net.cpp:454] fc7_drop7_0_split <- fc7
I0726 12:54:52.933256 30317 net.cpp:411] fc7_drop7_0_split -> fc7_drop7_0_split_0
I0726 12:54:52.933262 30317 net.cpp:411] fc7_drop7_0_split -> fc7_drop7_0_split_1
I0726 12:54:52.933337 30317 net.cpp:150] Setting up fc7_drop7_0_split
I0726 12:54:52.933346 30317 net.cpp:157] Top shape: 1 4096 (4096)
I0726 12:54:52.933349 30317 net.cpp:157] Top shape: 1 4096 (4096)
I0726 12:54:52.933352 30317 net.cpp:165] Memory required for data: 464980760
I0726 12:54:52.933356 30317 layer_factory.hpp:77] Creating layer cls_score
I0726 12:54:52.933363 30317 net.cpp:106] Creating Layer cls_score
I0726 12:54:52.933367 30317 net.cpp:454] cls_score <- fc7_drop7_0_split_0
I0726 12:54:52.933374 30317 net.cpp:411] cls_score -> cls_score
I0726 12:54:52.936554 30317 net.cpp:150] Setting up cls_score
I0726 12:54:52.936575 30317 net.cpp:157] Top shape: 1 21 (21)
I0726 12:54:52.936579 30317 net.cpp:165] Memory required for data: 464980844
I0726 12:54:52.936586 30317 layer_factory.hpp:77] Creating layer bbox_pred
I0726 12:54:52.936594 30317 net.cpp:106] Creating Layer bbox_pred
I0726 12:54:52.936597 30317 net.cpp:454] bbox_pred <- fc7_drop7_0_split_1
I0726 12:54:52.936605 30317 net.cpp:411] bbox_pred -> bbox_pred
I0726 12:54:52.946558 30317 net.cpp:150] Setting up bbox_pred
I0726 12:54:52.946580 30317 net.cpp:157] Top shape: 1 84 (84)
I0726 12:54:52.946584 30317 net.cpp:165] Memory required for data: 464981180
I0726 12:54:52.946591 30317 layer_factory.hpp:77] Creating layer loss_cls
I0726 12:54:52.946601 30317 net.cpp:106] Creating Layer loss_cls
I0726 12:54:52.946605 30317 net.cpp:454] loss_cls <- cls_score
I0726 12:54:52.946610 30317 net.cpp:454] loss_cls <- labels
I0726 12:54:52.946615 30317 net.cpp:411] loss_cls -> loss_cls
…
           'RPN_POST_NMS_TOP_N': 2000,
           'RPN_PRE_NMS_TOP_N': 12000,
           'SCALES': [375],
           'SNAPSHOT_INFIX': '',
           'SNAPSHOT_ITERS': 5000,
           'USE_FLIPPED': True,
           'USE_PREFETCH': False},
 'USE_GPU_NMS': True}
WARNING: Logging before InitGoogleLogging() is written to STDERR
I0727 00:05:22.345536 59984 net.cpp:49] Initializing net from parameters: 
name: "VGG_ILSVRC_16_layers"
input: "data"
input: "im_info"
state {
  phase: TEST
}
input_shape {
  dim: 1
  dim: 3
  dim: 224
  dim: 224
}
input_shape {
  dim: 1
  dim: 3
}
layer {
  name: "conv1_1"
  type: "Convolution"
  bottom: "data"
  top: "conv1_1"
  param {
    lr_mult: 0
    decay_mult: 0
  }
  param {
    lr_mult: 0
    decay_mult: 0
  }
  convolution_param {
    num_output: 64
    pad: 1
    kernel_size: 3
  }
}
layer {
  name: "relu1_1"
  type: "ReLU"
  bottom: "conv1_1"
  top: "conv1_1"
}
layer {
  name: "conv1_2"
  type: "Convolution"
  bottom: "conv1_1"
  top: "conv1_2"
  param {
    lr_mult: 0
    decay_mult: 0
  }
  param {
    lr_mult: 0
    decay_mult: 0
  }
  convolution_param {
    num_output: 64
    pad: 1
    kernel_size: 3
  }
}
layer {
  name: "relu1_2"
  type: "ReLU"
  bottom: "conv1_2"
  top: "conv1_2"
}
layer {
  name: "pool1"
  type: "Pooling"
  bottom: "conv1_2"
  top: "pool1"
  pooling_param {
    pool: MAX
    kernel_size: 2
    stride: 2
  }
}
layer {
  name: "conv2_1"
  type: "Convolution"
  bottom: "pool1"
  top: "conv2_1"
  param {
    lr_mult: 0
    decay_mult: 0
  }
  param {
    lr_mult: 0
    decay_mult: 0
  }
  convolution_param {
    num_output: 128
    pad: 1
    kernel_size: 3
  }
}
layer {
  name: "relu2_1"
  type: "ReLU"
  bottom: "conv2_1"
  top: "conv2_1"
}
layer {
  name: "conv2_2"
  type: "Convolution"
  bottom: "conv2_1"
  top: "conv2_2"
  param {
    lr_mult: 0
    decay_mult: 0
  }
  param {
    lr_mult: 0
    decay_mult: 0
  }
  convolution_param {
    num_output: 128
    pad: 1
    kernel_size: 3
  }
}
layer {
  name: "relu2_2"
  type: "ReLU"
  bottom: "conv2_2"
  top: "conv2_2"
}
layer {
  name: "pool2"
  type: "Pooling"
  bottom: "conv2_2"
  top: "pool2"
  pooling_param {
    pool: MAX
    kernel_size: 2
    stride: 2
  }
}
layer {
  name: "conv3_1"
  type: "Convolution"
  bottom: "pool2"
  top: "conv3_1"
  param {
    lr_mult: 1
    decay_mult: 1
  }
  param {
    lr_mult: 2
    decay_mult: 0
  }
  convolution_param {
    num_output: 256
    pad: 1
    kernel_size: 3
  }
}
layer {
  name: "relu3_1"
  type: "ReLU"
  bottom: "conv3_1"
  top: "conv3_1"
}
layer {
  name: "conv3_2"
  type: "Convolution"
  bottom: "conv3_1"
  top: "conv3_2"
  param {
    lr_mult: 1
    decay_mult: 1
  }
  param {
    lr_mult: 2
    decay_mult: 0
  }
  convolution_param {
    num_output: 256
    pad: 1
    kernel_size: 3
  }
}
layer {
  name: "relu3_2"
  type: "ReLU"
  bottom: "conv3_2"
  top: "conv3_2"
}
layer {
  name: "conv3_3"
  type: "Convolution"
  bottom: "conv3_2"
  top: "conv3_3"
  param {
    lr_mult: 1
    decay_mult: 1
  }
  param {
    lr_mult: 2
    decay_mult: 0
  }
  convolution_param {
    num_output: 256
    pad: 1
    kernel_size: 3
  }
}
layer {
  name: "relu3_3"
  type: "ReLU"
  bottom: "conv3_3"
  top: "conv3_3"
}
layer {
  name: "pool3"
  type: "Pooling"
  bottom: "conv3_3"
  top: "pool3"
  pooling_param {
    pool: MAX
    kernel_size: 2
    stride: 2
  }
}
layer {
  name: "conv4_1"
  type: "Convolution"
  bottom: "pool3"
  top: "conv4_1"
  param {
    lr_mult: 1
    decay_mult: 1
  }
  param {
    lr_mult: 2
    decay_mult: 0
  }
  convolution_param {
    num_output: 512
    pad: 1
    kernel_size: 3
  }
}
layer {
  name: "relu4_1"
  type: "ReLU"
  bottom: "conv4_1"
  top: "conv4_1"
}
layer {
  name: "conv4_2"
  type: "Convolution"
  bottom: "conv4_1"
  top: "conv4_2"
  param {
    lr_mult: 1
    decay_mult: 1
  }
  param {
    lr_mult: 2
    decay_mult: 0
  }
  convolution_param {
    num_output: 512
    pad: 1
    kernel_size: 3
  }
}
layer {
  name: "relu4_2"
  type: "ReLU"
  bottom: "conv4_2"
  top: "conv4_2"
}
layer {
  name: "conv4_3"
  type: "Convolution"
  bottom: "conv4_2"
  top: "conv4_3"
  param {
    lr_mult: 1
    decay_mult: 1
  }
  param {
    lr_mult: 2
    decay_mult: 0
  }
  convolution_param {
    num_output: 512
    pad: 1
    kernel_size: 3
  }
}
layer {
  name: "relu4_3"
  type: "ReLU"
  bottom: "conv4_3"
  top: "conv4_3"
}
layer {
  name: "pool4"
  type: "Pooling"
  bottom: "conv4_3"
  top: "pool4"
  pooling_param {
    pool: MAX
    kernel_size: 2
    stride: 2
  }
}
layer {
  name: "conv5_1"
  type: "Convolution"
  bottom: "pool4"
  top: "conv5_1"
  param {
    lr_mult: 1
    decay_mult: 1
  }
  param {
    lr_mult: 2
    decay_mult: 0
  }
  convolution_param {
    num_output: 512
    pad: 1
    kernel_size: 3
  }
}
layer {
  name: "relu5_1"
  type: "ReLU"
  bottom: "conv5_1"
  top: "conv5_1"
}
layer {
  name: "conv5_2"
  type: "Convolution"
  bottom: "conv5_1"
  top: "conv5_2"
  param {
    lr_mult: 1
    decay_mult: 1
  }
  param {
    lr_mult: 2
    decay_mult: 0
  }
  convolution_param {
    num_output: 512
    pad: 1
    kernel_size: 3
  }
}
layer {
  name: "relu5_2"
  type: "ReLU"
  bottom: "conv5_2"
  top: "conv5_2"
}
layer {
  name: "conv5_3"
  type: "Convolution"
  bottom: "conv5_2"
  top: "conv5_3"
  param {
    lr_mult: 1
    decay_mult: 1
  }
  param {
    lr_mult: 2
    decay_mult: 0
  }
  convolution_param {
    num_output: 512
    pad: 1
    kernel_size: 3
  }
}
layer {
  name: "relu5_3"
  type: "ReLU"
  bottom: "conv5_3"
  top: "conv5_3"
}
layer {
  name: "rpn_conv/3x3"
  type: "Convolution"
  bottom: "conv5_3"
  top: "rpn/output"
  param {
    lr_mult: 1
    decay_mult: 1
  }
  param {
    lr_mult: 2
    decay_mult: 0
  }
  convolution_param {
    num_output: 512
    pad: 1
    kernel_size: 3
    stride: 1
    weight_filler {
      type: "gaussian"
      std: 0.01
    }
    bias_filler {
      type: "constant"
      value: 0
    }
  }
}
layer {
  name: "rpn_relu/3x3"
  type: "ReLU"
  bottom: "rpn/output"
  top: "rpn/output"
}
layer {
  name: "rpn_cls_score"
  type: "Convolution"
  bottom: "rpn/output"
  top: "rpn_cls_score"
  param {
    lr_mult: 1
    decay_mult: 1
  }
  param {
    lr_mult: 2
    decay_mult: 0
  }
  convolution_param {
    num_output: 36
    pad: 0
    kernel_size: 1
    stride: 1
    weight_filler {
      type: "gaussian"
      std: 0.01
    }
    bias_filler {
      type: "constant"
      value: 0
    }
  }
}
layer {
  name: "rpn_bbox_pred"
  type: "Convolution"
  bottom: "rpn/output"
  top: "rpn_bbox_pred"
  param {
    lr_mult: 1
    decay_mult: 1
  }
  param {
    lr_mult: 2
    decay_mult: 0
  }
  convolution_param {
    num_output: 72
    pad: 0
    kernel_size: 1
    stride: 1
    weight_filler {
      type: "gaussian"
      std: 0.01
    }
    bias_filler {
      type: "constant"
      value: 0
    }
  }
}
layer {
  name: "rpn_cls_score_reshape"
  type: "Reshape"
  bottom: "rpn_cls_score"
  top: "rpn_cls_score_reshape"
  reshape_param {
    shape {
      dim: 0
      dim: 2
      dim: -1
      dim: 0
    }
  }
}
layer {
  name: "rpn_cls_prob"
  type: "Softmax"
  bottom: "rpn_cls_score_reshape"
  top: "rpn_cls_prob"
}
layer {
  name: "rpn_cls_prob_reshape"
  type: "Reshape"
  bottom: "rpn_cls_prob"
  top: "rpn_cls_prob_reshape"
  reshape_param {
    shape {
      dim: 0
      dim: 36
      dim: -1
      dim: 0
    }
  }
}
layer {
  name: "proposal"
  type: "Python"
  bottom: "rpn_cls_prob_reshape"
  bottom: "rpn_bbox_pred"
  bottom: "im_info"
  top: "rois"
  python_param {
    module: "rpn.proposal_layer"
    layer: "ProposalLayer"
    param_str: "\'feat_stride\': 16"
  }
}
layer {
  name: "roi_pool5"
  type: "ROIPooling"
  bottom: "conv5_3"
  bottom: "rois"
  top: "pool5"
  roi_pooling_param {
    pooled_h: 7
    pooled_w: 7
    spatial_scale: 0.0625
  }
}
layer {
  name: "fc6"
  type: "InnerProduct"
  bottom: "pool5"
  top: "fc6"
  param {
    lr_mult: 1
    decay_mult: 1
  }
  param {
    lr_mult: 2
    decay_mult: 0
  }
  inner_product_param {
    num_output: 4096
  }
}
layer {
  name: "relu6"
  type: "ReLU"
  bottom: "fc6"
  top: "fc6"
}
layer {
  name: "drop6"
  type: "Dropout"
  bottom: "fc6"
  top: "fc6"
  dropout_param {
    dropout_ratio: 0.5
  }
}
layer {
  name: "fc7"
  type: "InnerProduct"
  bottom: "fc6"
  top: "fc7"
  param {
    lr_mult: 1
    decay_mult: 1
  }
  param {
    lr_mult: 2
    decay_mult: 0
  }
  inner_product_param {
    num_output: 4096
  }
}
layer {
  name: "relu7"
  type: "ReLU"
  bottom: "fc7"
  top: "fc7"
}
layer {
  name: "drop7"
  type: "Dropout"
  bottom: "fc7"
  top: "fc7"
  dropout_param {
    dropout_ratio: 0.5
  }
}
layer {
  name: "cls_score"
  type: "InnerProduct"
  bottom: "fc7"
  top: "cls_score"
  param {
    lr_mult: 1
    decay_mult: 1
  }
  param {
    lr_mult: 2
    decay_mult: 0
  }
  inner_product_param {
    num_output: 21
    weight_filler {
      type: "gaussian"
      std: 0.01
    }
    bias_filler {
      type: "constant"
      value: 0
    }
  }
}
layer {
  name: "bbox_pred"
  type: "InnerProduct"
  bottom: "fc7"
  top: "bbox_pred"
  param {
    lr_mult: 1
    decay_mult: 1
  }
  param {
    lr_mult: 2
    decay_mult: 0
  }
  inner_product_param {
    num_output: 84
    weight_filler {
      type: "gaussian"
      std: 0.001
    }
    bias_filler {
      type: "constant"
      value: 0
    }
  }
}
layer {
  name: "cls_prob"
  type: "Softmax"
  bottom: "cls_score"
  top: "cls_prob"
}
I0727 00:05:22.345782 59984 net.cpp:413] Input 0 -> data
I0727 00:05:22.400813 59984 net.cpp:413] Input 1 -> im_info
I0727 00:05:22.400913 59984 layer_factory.hpp:77] Creating layer conv1_1
I0727 00:05:22.400959 59984 net.cpp:106] Creating Layer conv1_1
I0727 00:05:22.400971 59984 net.cpp:454] conv1_1 <- data
I0727 00:05:22.400982 59984 net.cpp:411] conv1_1 -> conv1_1
I0727 00:05:22.857352 59984 net.cpp:150] Setting up conv1_1
I0727 00:05:22.857409 59984 net.cpp:157] Top shape: 1 64 224 224 (3211264)
I0727 00:05:22.857414 59984 net.cpp:165] Memory required for data: 12845056
I0727 00:05:22.857439 59984 layer_factory.hpp:77] Creating layer relu1_1
I0727 00:05:22.857460 59984 net.cpp:106] Creating Layer relu1_1
I0727 00:05:22.857465 59984 net.cpp:454] relu1_1 <- conv1_1
I0727 00:05:22.857471 59984 net.cpp:397] relu1_1 -> conv1_1 (in-place)
I0727 00:05:22.858224 59984 net.cpp:150] Setting up relu1_1
I0727 00:05:22.858245 59984 net.cpp:157] Top shape: 1 64 224 224 (3211264)
I0727 00:05:22.858250 59984 net.cpp:165] Memory required for data: 25690112
I0727 00:05:22.858254 59984 layer_factory.hpp:77] Creating layer conv1_2
I0727 00:05:22.858266 59984 net.cpp:106] Creating Layer conv1_2
I0727 00:05:22.858269 59984 net.cpp:454] conv1_2 <- conv1_1
I0727 00:05:22.858275 59984 net.cpp:411] conv1_2 -> conv1_2
I0727 00:05:22.867229 59984 net.cpp:150] Setting up conv1_2
I0727 00:05:22.867254 59984 net.cpp:157] Top shape: 1 64 224 224 (3211264)
I0727 00:05:22.867259 59984 net.cpp:165] Memory required for data: 38535168
I0727 00:05:22.867269 59984 layer_factory.hpp:77] Creating layer relu1_2
I0727 00:05:22.867275 59984 net.cpp:106] Creating Layer relu1_2
I0727 00:05:22.867280 59984 net.cpp:454] relu1_2 <- conv1_2
I0727 00:05:22.867285 59984 net.cpp:397] relu1_2 -> conv1_2 (in-place)
I0727 00:05:22.868767 59984 net.cpp:150] Setting up relu1_2
I0727 00:05:22.868784 59984 net.cpp:157] Top shape: 1 64 224 224 (3211264)
I0727 00:05:22.868789 59984 net.cpp:165] Memory required for data: 51380224
I0727 00:05:22.868793 59984 layer_factory.hpp:77] Creating layer pool1
I0727 00:05:22.868806 59984 net.cpp:106] Creating Layer pool1
I0727 00:05:22.868810 59984 net.cpp:454] pool1 <- conv1_2
I0727 00:05:22.868816 59984 net.cpp:411] pool1 -> pool1
I0727 00:05:22.868887 59984 net.cpp:150] Setting up pool1
I0727 00:05:22.868893 59984 net.cpp:157] Top shape: 1 64 112 112 (802816)
I0727 00:05:22.868896 59984 net.cpp:165] Memory required for data: 54591488
I0727 00:05:22.868899 59984 layer_factory.hpp:77] Creating layer conv2_1
I0727 00:05:22.868907 59984 net.cpp:106] Creating Layer conv2_1
I0727 00:05:22.868911 59984 net.cpp:454] conv2_1 <- pool1
I0727 00:05:22.868916 59984 net.cpp:411] conv2_1 -> conv2_1
I0727 00:05:22.876922 59984 net.cpp:150] Setting up conv2_1
I0727 00:05:22.876952 59984 net.cpp:157] Top shape: 1 128 112 112 (1605632)
I0727 00:05:22.876957 59984 net.cpp:165] Memory required for data: 61014016
I0727 00:05:22.876968 59984 layer_factory.hpp:77] Creating layer relu2_1
I0727 00:05:22.876976 59984 net.cpp:106] Creating Layer relu2_1
I0727 00:05:22.876981 59984 net.cpp:454] relu2_1 <- conv2_1
I0727 00:05:22.876986 59984 net.cpp:397] relu2_1 -> conv2_1 (in-place)
I0727 00:05:22.878935 59984 net.cpp:150] Setting up relu2_1
I0727 00:05:22.878954 59984 net.cpp:157] Top shape: 1 128 112 112 (1605632)
I0727 00:05:22.878958 59984 net.cpp:165] Memory required for data: 67436544
I0727 00:05:22.878962 59984 layer_factory.hpp:77] Creating layer conv2_2
I0727 00:05:22.878971 59984 net.cpp:106] Creating Layer conv2_2
I0727 00:05:22.878975 59984 net.cpp:454] conv2_2 <- conv2_1
I0727 00:05:22.878983 59984 net.cpp:411] conv2_2 -> conv2_2
I0727 00:05:22.887688 59984 net.cpp:150] Setting up conv2_2
I0727 00:05:22.887732 59984 net.cpp:157] Top shape: 1 128 112 112 (1605632)
I0727 00:05:22.887737 59984 net.cpp:165] Memory required for data: 73859072
I0727 00:05:22.887748 59984 layer_factory.hpp:77] Creating layer relu2_2
I0727 00:05:22.887761 59984 net.cpp:106] Creating Layer relu2_2
I0727 00:05:22.887765 59984 net.cpp:454] relu2_2 <- conv2_2
I0727 00:05:22.887773 59984 net.cpp:397] relu2_2 -> conv2_2 (in-place)
I0727 00:05:22.889228 59984 net.cpp:150] Setting up relu2_2
I0727 00:05:22.889250 59984 net.cpp:157] Top shape: 1 128 112 112 (1605632)
I0727 00:05:22.889253 59984 net.cpp:165] Memory required for data: 80281600
I0727 00:05:22.889257 59984 layer_factory.hpp:77] Creating layer pool2
I0727 00:05:22.889266 59984 net.cpp:106] Creating Layer pool2
I0727 00:05:22.889269 59984 net.cpp:454] pool2 <- conv2_2
I0727 00:05:22.889276 59984 net.cpp:411] pool2 -> pool2
I0727 00:05:22.889346 59984 net.cpp:150] Setting up pool2
I0727 00:05:22.889353 59984 net.cpp:157] Top shape: 1 128 56 56 (401408)
I0727 00:05:22.889356 59984 net.cpp:165] Memory required for data: 81887232
I0727 00:05:22.889359 59984 layer_factory.hpp:77] Creating layer conv3_1
I0727 00:05:22.889370 59984 net.cpp:106] Creating Layer conv3_1
I0727 00:05:22.889374 59984 net.cpp:454] conv3_1 <- pool2
I0727 00:05:22.889379 59984 net.cpp:411] conv3_1 -> conv3_1
I0727 00:05:22.898636 59984 net.cpp:150] Setting up conv3_1
I0727 00:05:22.898665 59984 net.cpp:157] Top shape: 1 256 56 56 (802816)
I0727 00:05:22.898670 59984 net.cpp:165] Memory required for data: 85098496
I0727 00:05:22.898684 59984 layer_factory.hpp:77] Creating layer relu3_1
I0727 00:05:22.898691 59984 net.cpp:106] Creating Layer relu3_1
I0727 00:05:22.898695 59984 net.cpp:454] relu3_1 <- conv3_1
I0727 00:05:22.898701 59984 net.cpp:397] relu3_1 -> conv3_1 (in-place)
I0727 00:05:22.900164 59984 net.cpp:150] Setting up relu3_1
I0727 00:05:22.900182 59984 net.cpp:157] Top shape: 1 256 56 56 (802816)
I0727 00:05:22.900185 59984 net.cpp:165] Memory required for data: 88309760
I0727 00:05:22.900188 59984 layer_factory.hpp:77] Creating layer conv3_2
I0727 00:05:22.900198 59984 net.cpp:106] Creating Layer conv3_2
I0727 00:05:22.900202 59984 net.cpp:454] conv3_2 <- conv3_1
I0727 00:05:22.900207 59984 net.cpp:411] conv3_2 -> conv3_2
I0727 00:05:22.907351 59984 net.cpp:150] Setting up conv3_2
I0727 00:05:22.907377 59984 net.cpp:157] Top shape: 1 256 56 56 (802816)
I0727 00:05:22.907382 59984 net.cpp:165] Memory required for data: 91521024
I0727 00:05:22.907392 59984 layer_factory.hpp:77] Creating layer relu3_2
I0727 00:05:22.907399 59984 net.cpp:106] Creating Layer relu3_2
I0727 00:05:22.907403 59984 net.cpp:454] relu3_2 <- conv3_2
I0727 00:05:22.907408 59984 net.cpp:397] relu3_2 -> conv3_2 (in-place)
I0727 00:05:22.908859 59984 net.cpp:150] Setting up relu3_2
I0727 00:05:22.908875 59984 net.cpp:157] Top shape: 1 256 56 56 (802816)
I0727 00:05:22.908879 59984 net.cpp:165] Memory required for data: 94732288
I0727 00:05:22.908884 59984 layer_factory.hpp:77] Creating layer conv3_3
I0727 00:05:22.908893 59984 net.cpp:106] Creating Layer conv3_3
I0727 00:05:22.908896 59984 net.cpp:454] conv3_3 <- conv3_2
I0727 00:05:22.908902 59984 net.cpp:411] conv3_3 -> conv3_3
I0727 00:05:22.916981 59984 net.cpp:150] Setting up conv3_3
I0727 00:05:22.917021 59984 net.cpp:157] Top shape: 1 256 56 56 (802816)
I0727 00:05:22.917026 59984 net.cpp:165] Memory required for data: 97943552
I0727 00:05:22.917048 59984 layer_factory.hpp:77] Creating layer relu3_3
I0727 00:05:22.917059 59984 net.cpp:106] Creating Layer relu3_3
I0727 00:05:22.917063 59984 net.cpp:454] relu3_3 <- conv3_3
I0727 00:05:22.917070 59984 net.cpp:397] relu3_3 -> conv3_3 (in-place)
I0727 00:05:22.918582 59984 net.cpp:150] Setting up relu3_3
I0727 00:05:22.918604 59984 net.cpp:157] Top shape: 1 256 56 56 (802816)
I0727 00:05:22.918608 59984 net.cpp:165] Memory required for data: 101154816
I0727 00:05:22.918612 59984 layer_factory.hpp:77] Creating layer pool3
I0727 00:05:22.918624 59984 net.cpp:106] Creating Layer pool3
I0727 00:05:22.918628 59984 net.cpp:454] pool3 <- conv3_3
I0727 00:05:22.918634 59984 net.cpp:411] pool3 -> pool3
I0727 00:05:22.918705 59984 net.cpp:150] Setting up pool3
I0727 00:05:22.918712 59984 net.cpp:157] Top shape: 1 256 28 28 (200704)
I0727 00:05:22.918715 59984 net.cpp:165] Memory required for data: 101957632
I0727 00:05:22.918718 59984 layer_factory.hpp:77] Creating layer conv4_1
I0727 00:05:22.918728 59984 net.cpp:106] Creating Layer conv4_1
I0727 00:05:22.918732 59984 net.cpp:454] conv4_1 <- pool3
I0727 00:05:22.918737 59984 net.cpp:411] conv4_1 -> conv4_1
I0727 00:05:22.926167 59984 net.cpp:150] Setting up conv4_1
I0727 00:05:22.926198 59984 net.cpp:157] Top shape: 1 512 28 28 (401408)
I0727 00:05:22.926203 59984 net.cpp:165] Memory required for data: 103563264
I0727 00:05:22.926213 59984 layer_factory.hpp:77] Creating layer relu4_1
I0727 00:05:22.926220 59984 net.cpp:106] Creating Layer relu4_1
I0727 00:05:22.926224 59984 net.cpp:454] relu4_1 <- conv4_1
I0727 00:05:22.926229 59984 net.cpp:397] relu4_1 -> conv4_1 (in-place)
I0727 00:05:22.928282 59984 net.cpp:150] Setting up relu4_1
I0727 00:05:22.928302 59984 net.cpp:157] Top shape: 1 512 28 28 (401408)
I0727 00:05:22.928306 59984 net.cpp:165] Memory required for data: 105168896
I0727 00:05:22.928310 59984 layer_factory.hpp:77] Creating layer conv4_2
I0727 00:05:22.928320 59984 net.cpp:106] Creating Layer conv4_2
I0727 00:05:22.928324 59984 net.cpp:454] conv4_2 <- conv4_1
I0727 00:05:22.928331 59984 net.cpp:411] conv4_2 -> conv4_2
I0727 00:05:22.940716 59984 net.cpp:150] Setting up conv4_2
I0727 00:05:22.940768 59984 net.cpp:157] Top shape: 1 512 28 28 (401408)
I0727 00:05:22.940773 59984 net.cpp:165] Memory required for data: 106774528
I0727 00:05:22.940793 59984 layer_factory.hpp:77] Creating layer relu4_2
I0727 00:05:22.940804 59984 net.cpp:106] Creating Layer relu4_2
I0727 00:05:22.940810 59984 net.cpp:454] relu4_2 <- conv4_2
I0727 00:05:22.940817 59984 net.cpp:397] relu4_2 -> conv4_2 (in-place)
I0727 00:05:22.942479 59984 net.cpp:150] Setting up relu4_2
I0727 00:05:22.942498 59984 net.cpp:157] Top shape: 1 512 28 28 (401408)
I0727 00:05:22.942502 59984 net.cpp:165] Memory required for data: 108380160
I0727 00:05:22.942507 59984 layer_factory.hpp:77] Creating layer conv4_3
I0727 00:05:22.942518 59984 net.cpp:106] Creating Layer conv4_3
I0727 00:05:22.942523 59984 net.cpp:454] conv4_3 <- conv4_2
I0727 00:05:22.942528 59984 net.cpp:411] conv4_3 -> conv4_3
I0727 00:05:22.953008 59984 net.cpp:150] Setting up conv4_3
I0727 00:05:22.953047 59984 net.cpp:157] Top shape: 1 512 28 28 (401408)
I0727 00:05:22.953052 59984 net.cpp:165] Memory required for data: 109985792
I0727 00:05:22.953059 59984 layer_factory.hpp:77] Creating layer relu4_3
I0727 00:05:22.953066 59984 net.cpp:106] Creating Layer relu4_3
I0727 00:05:22.953070 59984 net.cpp:454] relu4_3 <- conv4_3
I0727 00:05:22.953076 59984 net.cpp:397] relu4_3 -> conv4_3 (in-place)
I0727 00:05:22.955135 59984 net.cpp:150] Setting up relu4_3
I0727 00:05:22.955157 59984 net.cpp:157] Top shape: 1 512 28 28 (401408)
I0727 00:05:22.955162 59984 net.cpp:165] Memory required for data: 111591424
I0727 00:05:22.955165 59984 layer_factory.hpp:77] Creating layer pool4
I0727 00:05:22.955173 59984 net.cpp:106] Creating Layer pool4
I0727 00:05:22.955176 59984 net.cpp:454] pool4 <- conv4_3
I0727 00:05:22.955183 59984 net.cpp:411] pool4 -> pool4
I0727 00:05:22.955253 59984 net.cpp:150] Setting up pool4
I0727 00:05:22.955260 59984 net.cpp:157] Top shape: 1 512 14 14 (100352)
I0727 00:05:22.955262 59984 net.cpp:165] Memory required for data: 111992832
I0727 00:05:22.955266 59984 layer_factory.hpp:77] Creating layer conv5_1
I0727 00:05:22.955273 59984 net.cpp:106] Creating Layer conv5_1
I0727 00:05:22.955277 59984 net.cpp:454] conv5_1 <- pool4
I0727 00:05:22.955283 59984 net.cpp:411] conv5_1 -> conv5_1
I0727 00:05:22.963531 59984 net.cpp:150] Setting up conv5_1
I0727 00:05:22.963557 59984 net.cpp:157] Top shape: 1 512 14 14 (100352)
I0727 00:05:22.963560 59984 net.cpp:165] Memory required for data: 112394240
I0727 00:05:22.963568 59984 layer_factory.hpp:77] Creating layer relu5_1
I0727 00:05:22.963575 59984 net.cpp:106] Creating Layer relu5_1
I0727 00:05:22.963579 59984 net.cpp:454] relu5_1 <- conv5_1
I0727 00:05:22.963585 59984 net.cpp:397] relu5_1 -> conv5_1 (in-place)
I0727 00:05:22.965641 59984 net.cpp:150] Setting up relu5_1
I0727 00:05:22.965658 59984 net.cpp:157] Top shape: 1 512 14 14 (100352)
I0727 00:05:22.965663 59984 net.cpp:165] Memory required for data: 112795648
I0727 00:05:22.965667 59984 layer_factory.hpp:77] Creating layer conv5_2
I0727 00:05:22.965677 59984 net.cpp:106] Creating Layer conv5_2
I0727 00:05:22.965679 59984 net.cpp:454] conv5_2 <- conv5_1
I0727 00:05:22.965687 59984 net.cpp:411] conv5_2 -> conv5_2
I0727 00:05:22.973693 59984 net.cpp:150] Setting up conv5_2
I0727 00:05:22.973719 59984 net.cpp:157] Top shape: 1 512 14 14 (100352)
I0727 00:05:22.973724 59984 net.cpp:165] Memory required for data: 113197056
I0727 00:05:22.973731 59984 layer_factory.hpp:77] Creating layer relu5_2
I0727 00:05:22.973739 59984 net.cpp:106] Creating Layer relu5_2
I0727 00:05:22.973743 59984 net.cpp:454] relu5_2 <- conv5_2
I0727 00:05:22.973749 59984 net.cpp:397] relu5_2 -> conv5_2 (in-place)
I0727 00:05:22.974679 59984 net.cpp:150] Setting up relu5_2
I0727 00:05:22.974694 59984 net.cpp:157] Top shape: 1 512 14 14 (100352)
I0727 00:05:22.974699 59984 net.cpp:165] Memory required for data: 113598464
I0727 00:05:22.974702 59984 layer_factory.hpp:77] Creating layer conv5_3
I0727 00:05:22.974711 59984 net.cpp:106] Creating Layer conv5_3
I0727 00:05:22.974715 59984 net.cpp:454] conv5_3 <- conv5_2
I0727 00:05:22.974721 59984 net.cpp:411] conv5_3 -> conv5_3
I0727 00:05:22.982791 59984 net.cpp:150] Setting up conv5_3
I0727 00:05:22.982815 59984 net.cpp:157] Top shape: 1 512 14 14 (100352)
I0727 00:05:22.982820 59984 net.cpp:165] Memory required for data: 113999872
I0727 00:05:22.982827 59984 layer_factory.hpp:77] Creating layer relu5_3
I0727 00:05:22.982836 59984 net.cpp:106] Creating Layer relu5_3
I0727 00:05:22.982839 59984 net.cpp:454] relu5_3 <- conv5_3
I0727 00:05:22.982844 59984 net.cpp:397] relu5_3 -> conv5_3 (in-place)
I0727 00:05:22.983965 59984 net.cpp:150] Setting up relu5_3
I0727 00:05:22.983985 59984 net.cpp:157] Top shape: 1 512 14 14 (100352)
I0727 00:05:22.983989 59984 net.cpp:165] Memory required for data: 114401280
I0727 00:05:22.983994 59984 layer_factory.hpp:77] Creating layer conv5_3_relu5_3_0_split
I0727 00:05:22.984009 59984 net.cpp:106] Creating Layer conv5_3_relu5_3_0_split
I0727 00:05:22.984012 59984 net.cpp:454] conv5_3_relu5_3_0_split <- conv5_3
I0727 00:05:22.984019 59984 net.cpp:411] conv5_3_relu5_3_0_split -> conv5_3_relu5_3_0_split_0
I0727 00:05:22.984025 59984 net.cpp:411] conv5_3_relu5_3_0_split -> conv5_3_relu5_3_0_split_1
I0727 00:05:22.984097 59984 net.cpp:150] Setting up conv5_3_relu5_3_0_split
I0727 00:05:22.984103 59984 net.cpp:157] Top shape: 1 512 14 14 (100352)
I0727 00:05:22.984107 59984 net.cpp:157] Top shape: 1 512 14 14 (100352)
I0727 00:05:22.984110 59984 net.cpp:165] Memory required for data: 115204096
I0727 00:05:22.984113 59984 layer_factory.hpp:77] Creating layer rpn_conv/3x3
I0727 00:05:22.984125 59984 net.cpp:106] Creating Layer rpn_conv/3x3
I0727 00:05:22.984129 59984 net.cpp:454] rpn_conv/3x3 <- conv5_3_relu5_3_0_split_0
I0727 00:05:22.984135 59984 net.cpp:411] rpn_conv/3x3 -> rpn/output
I0727 00:05:23.047890 59984 net.cpp:150] Setting up rpn_conv/3x3
I0727 00:05:23.047921 59984 net.cpp:157] Top shape: 1 512 14 14 (100352)
I0727 00:05:23.047926 59984 net.cpp:165] Memory required for data: 115605504
I0727 00:05:23.047935 59984 layer_factory.hpp:77] Creating layer rpn_relu/3x3
I0727 00:05:23.047948 59984 net.cpp:106] Creating Layer rpn_relu/3x3
I0727 00:05:23.047953 59984 net.cpp:454] rpn_relu/3x3 <- rpn/output
I0727 00:05:23.047960 59984 net.cpp:397] rpn_relu/3x3 -> rpn/output (in-place)
I0727 00:05:23.049204 59984 net.cpp:150] Setting up rpn_relu/3x3
I0727 00:05:23.049222 59984 net.cpp:157] Top shape: 1 512 14 14 (100352)
I0727 00:05:23.049226 59984 net.cpp:165] Memory required for data: 116006912
I0727 00:05:23.049230 59984 layer_factory.hpp:77] Creating layer rpn/output_rpn_relu/3x3_0_split
I0727 00:05:23.049237 59984 net.cpp:106] Creating Layer rpn/output_rpn_relu/3x3_0_split
I0727 00:05:23.049240 59984 net.cpp:454] rpn/output_rpn_relu/3x3_0_split <- rpn/output
I0727 00:05:23.049247 59984 net.cpp:411] rpn/output_rpn_relu/3x3_0_split -> rpn/output_rpn_relu/3x3_0_split_0
I0727 00:05:23.049252 59984 net.cpp:411] rpn/output_rpn_relu/3x3_0_split -> rpn/output_rpn_relu/3x3_0_split_1
I0727 00:05:23.049322 59984 net.cpp:150] Setting up rpn/output_rpn_relu/3x3_0_split
I0727 00:05:23.049329 59984 net.cpp:157] Top shape: 1 512 14 14 (100352)
I0727 00:05:23.049334 59984 net.cpp:157] Top shape: 1 512 14 14 (100352)
I0727 00:05:23.049336 59984 net.cpp:165] Memory required for data: 116809728
I0727 00:05:23.049340 59984 layer_factory.hpp:77] Creating layer rpn_cls_score
I0727 00:05:23.049350 59984 net.cpp:106] Creating Layer rpn_cls_score
I0727 00:05:23.049353 59984 net.cpp:454] rpn_cls_score <- rpn/output_rpn_relu/3x3_0_split_0
I0727 00:05:23.049360 59984 net.cpp:411] rpn_cls_score -> rpn_cls_score
I0727 00:05:23.054147 59984 net.cpp:150] Setting up rpn_cls_score
I0727 00:05:23.054172 59984 net.cpp:157] Top shape: 1 36 14 14 (7056)
I0727 00:05:23.054177 59984 net.cpp:165] Memory required for data: 116837952
I0727 00:05:23.054184 59984 layer_factory.hpp:77] Creating layer rpn_bbox_pred
I0727 00:05:23.054195 59984 net.cpp:106] Creating Layer rpn_bbox_pred
I0727 00:05:23.054199 59984 net.cpp:454] rpn_bbox_pred <- rpn/output_rpn_relu/3x3_0_split_1
I0727 00:05:23.054208 59984 net.cpp:411] rpn_bbox_pred -> rpn_bbox_pred
I0727 00:05:23.057615 59984 net.cpp:150] Setting up rpn_bbox_pred
I0727 00:05:23.057637 59984 net.cpp:157] Top shape: 1 72 14 14 (14112)
I0727 00:05:23.057642 59984 net.cpp:165] Memory required for data: 116894400
I0727 00:05:23.057649 59984 layer_factory.hpp:77] Creating layer rpn_cls_score_reshape
I0727 00:05:23.057662 59984 net.cpp:106] Creating Layer rpn_cls_score_reshape
I0727 00:05:23.057667 59984 net.cpp:454] rpn_cls_score_reshape <- rpn_cls_score
I0727 00:05:23.057672 59984 net.cpp:411] rpn_cls_score_reshape -> rpn_cls_score_reshape
I0727 00:05:23.057721 59984 net.cpp:150] Setting up rpn_cls_score_reshape
I0727 00:05:23.057729 59984 net.cpp:157] Top shape: 1 2 252 14 (7056)
I0727 00:05:23.057731 59984 net.cpp:165] Memory required for data: 116922624
I0727 00:05:23.057734 59984 layer_factory.hpp:77] Creating layer rpn_cls_prob
I0727 00:05:23.057741 59984 net.cpp:106] Creating Layer rpn_cls_prob
I0727 00:05:23.057744 59984 net.cpp:454] rpn_cls_prob <- rpn_cls_score_reshape
I0727 00:05:23.057749 59984 net.cpp:411] rpn_cls_prob -> rpn_cls_prob
I0727 00:05:23.058579 59984 net.cpp:150] Setting up rpn_cls_prob
I0727 00:05:23.058595 59984 net.cpp:157] Top shape: 1 2 252 14 (7056)
I0727 00:05:23.058599 59984 net.cpp:165] Memory required for data: 116950848
I0727 00:05:23.058604 59984 layer_factory.hpp:77] Creating layer rpn_cls_prob_reshape
I0727 00:05:23.058609 59984 net.cpp:106] Creating Layer rpn_cls_prob_reshape
I0727 00:05:23.058614 59984 net.cpp:454] rpn_cls_prob_reshape <- rpn_cls_prob
I0727 00:05:23.058619 59984 net.cpp:411] rpn_cls_prob_reshape -> rpn_cls_prob_reshape
I0727 00:05:23.058658 59984 net.cpp:150] Setting up rpn_cls_prob_reshape
I0727 00:05:23.058665 59984 net.cpp:157] Top shape: 1 36 14 14 (7056)
I0727 00:05:23.058667 59984 net.cpp:165] Memory required for data: 116979072
I0727 00:05:23.058670 59984 layer_factory.hpp:77] Creating layer proposal
I0727 00:05:23.059861 59984 net.cpp:106] Creating Layer proposal
I0727 00:05:23.059883 59984 net.cpp:454] proposal <- rpn_cls_prob_reshape
I0727 00:05:23.059890 59984 net.cpp:454] proposal <- rpn_bbox_pred
I0727 00:05:23.059895 59984 net.cpp:454] proposal <- im_info
I0727 00:05:23.059900 59984 net.cpp:411] proposal -> rois
I0727 00:05:23.061730 59984 net.cpp:150] Setting up proposal
I0727 00:05:23.061756 59984 net.cpp:157] Top shape: 1 5 (5)
I0727 00:05:23.061761 59984 net.cpp:165] Memory required for data: 116979092
I0727 00:05:23.061765 59984 layer_factory.hpp:77] Creating layer roi_pool5
I0727 00:05:23.061775 59984 net.cpp:106] Creating Layer roi_pool5
I0727 00:05:23.061779 59984 net.cpp:454] roi_pool5 <- conv5_3_relu5_3_0_split_1
I0727 00:05:23.061784 59984 net.cpp:454] roi_pool5 <- rois
I0727 00:05:23.061789 59984 net.cpp:411] roi_pool5 -> pool5
I0727 00:05:23.061800 59984 roi_pooling_layer.cpp:30] Spatial scale: 0.0625
I0727 00:05:23.061884 59984 net.cpp:150] Setting up roi_pool5
I0727 00:05:23.061890 59984 net.cpp:157] Top shape: 1 512 7 7 (25088)
I0727 00:05:23.061894 59984 net.cpp:165] Memory required for data: 117079444
I0727 00:05:23.061897 59984 layer_factory.hpp:77] Creating layer fc6
I0727 00:05:23.061906 59984 net.cpp:106] Creating Layer fc6
I0727 00:05:23.061910 59984 net.cpp:454] fc6 <- pool5
I0727 00:05:23.061915 59984 net.cpp:411] fc6 -> fc6
I0727 00:05:23.341188 59984 net.cpp:150] Setting up fc6
I0727 00:05:23.341260 59984 net.cpp:157] Top shape: 1 4096 (4096)
I0727 00:05:23.341265 59984 net.cpp:165] Memory required for data: 117095828
I0727 00:05:23.341291 59984 layer_factory.hpp:77] Creating layer relu6
I0727 00:05:23.341311 59984 net.cpp:106] Creating Layer relu6
I0727 00:05:23.341317 59984 net.cpp:454] relu6 <- fc6
I0727 00:05:23.341325 59984 net.cpp:397] relu6 -> fc6 (in-place)
I0727 00:05:23.342454 59984 net.cpp:150] Setting up relu6
I0727 00:05:23.342475 59984 net.cpp:157] Top shape: 1 4096 (4096)
I0727 00:05:23.342480 59984 net.cpp:165] Memory required for data: 117112212
I0727 00:05:23.342484 59984 layer_factory.hpp:77] Creating layer drop6
I0727 00:05:23.342502 59984 net.cpp:106] Creating Layer drop6
I0727 00:05:23.342506 59984 net.cpp:454] drop6 <- fc6
I0727 00:05:23.342511 59984 net.cpp:397] drop6 -> fc6 (in-place)
I0727 00:05:23.342566 59984 net.cpp:150] Setting up drop6
I0727 00:05:23.342571 59984 net.cpp:157] Top shape: 1 4096 (4096)
I0727 00:05:23.342574 59984 net.cpp:165] Memory required for data: 117128596
I0727 00:05:23.342577 59984 layer_factory.hpp:77] Creating layer fc7
I0727 00:05:23.342588 59984 net.cpp:106] Creating Layer fc7
I0727 00:05:23.342592 59984 net.cpp:454] fc7 <- fc6
I0727 00:05:23.342598 59984 net.cpp:411] fc7 -> fc7
I0727 00:05:23.386381 59984 net.cpp:150] Setting up fc7
I0727 00:05:23.386446 59984 net.cpp:157] Top shape: 1 4096 (4096)
I0727 00:05:23.386453 59984 net.cpp:165] Memory required for data: 117144980
I0727 00:05:23.386467 59984 layer_factory.hpp:77] Creating layer relu7
I0727 00:05:23.386481 59984 net.cpp:106] Creating Layer relu7
I0727 00:05:23.386485 59984 net.cpp:454] relu7 <- fc7
I0727 00:05:23.386493 59984 net.cpp:397] relu7 -> fc7 (in-place)
I0727 00:05:23.386736 59984 net.cpp:150] Setting up relu7
I0727 00:05:23.386744 59984 net.cpp:157] Top shape: 1 4096 (4096)
I0727 00:05:23.386747 59984 net.cpp:165] Memory required for data: 117161364
I0727 00:05:23.386750 59984 layer_factory.hpp:77] Creating layer drop7
I0727 00:05:23.386759 59984 net.cpp:106] Creating Layer drop7
I0727 00:05:23.386761 59984 net.cpp:454] drop7 <- fc7
I0727 00:05:23.386767 59984 net.cpp:397] drop7 -> fc7 (in-place)
I0727 00:05:23.386811 59984 net.cpp:150] Setting up drop7
I0727 00:05:23.386816 59984 net.cpp:157] Top shape: 1 4096 (4096)
I0727 00:05:23.386819 59984 net.cpp:165] Memory required for data: 117177748
I0727 00:05:23.386822 59984 layer_factory.hpp:77] Creating layer fc7_drop7_0_split
I0727 00:05:23.386829 59984 net.cpp:106] Creating Layer fc7_drop7_0_split
I0727 00:05:23.386832 59984 net.cpp:454] fc7_drop7_0_split <- fc7
I0727 00:05:23.386837 59984 net.cpp:411] fc7_drop7_0_split -> fc7_drop7_0_split_0
I0727 00:05:23.386843 59984 net.cpp:411] fc7_drop7_0_split -> fc7_drop7_0_split_1
I0727 00:05:23.386906 59984 net.cpp:150] Setting up fc7_drop7_0_split
I0727 00:05:23.386912 59984 net.cpp:157] Top shape: 1 4096 (4096)
I0727 00:05:23.386916 59984 net.cpp:157] Top shape: 1 4096 (4096)
I0727 00:05:23.386919 59984 net.cpp:165] Memory required for data: 117210516
I0727 00:05:23.386921 59984 layer_factory.hpp:77] Creating layer cls_score
I0727 00:05:23.386930 59984 net.cpp:106] Creating Layer cls_score
I0727 00:05:23.386934 59984 net.cpp:454] cls_score <- fc7_drop7_0_split_0
I0727 00:05:23.386941 59984 net.cpp:411] cls_score -> cls_score
I0727 00:05:23.389971 59984 net.cpp:150] Setting up cls_score
I0727 00:05:23.389992 59984 net.cpp:157] Top shape: 1 21 (21)
I0727 00:05:23.389997 59984 net.cpp:165] Memory required for data: 117210600
I0727 00:05:23.390004 59984 layer_factory.hpp:77] Creating layer bbox_pred
I0727 00:05:23.390012 59984 net.cpp:106] Creating Layer bbox_pred
I0727 00:05:23.390017 59984 net.cpp:454] bbox_pred <- fc7_drop7_0_split_1
I0727 00:05:23.390022 59984 net.cpp:411] bbox_pred -> bbox_pred
I0727 00:05:23.399051 59984 net.cpp:150] Setting up bbox_pred
I0727 00:05:23.399076 59984 net.cpp:157] Top shape: 1 84 (84)
I0727 00:05:23.399080 59984 net.cpp:165] Memory required for data: 117210936
I0727 00:05:23.399088 59984 layer_factory.hpp:77] Creating layer cls_prob
I0727 00:05:23.399097 59984 net.cpp:106] Creating Layer cls_prob
I0727 00:05:23.399101 59984 net.cpp:454] cls_prob <- cls_score
I0727 00:05:23.399106 59984 net.cpp:411] cls_prob -> cls_prob
I0727 00:05:23.400018 59984 net.cpp:150] Setting up cls_prob
I0727 00:05:23.400039 59984 net.cpp:157] Top shape: 1 21 (21)
I0727 00:05:23.400043 59984 net.cpp:165] Memory required for data: 117211020
I0727 00:05:23.400048 59984 net.cpp:228] cls_prob does not need backward computation.
I0727 00:05:23.400051 59984 net.cpp:228] bbox_pred does not need backward computation.
I0727 00:05:23.400054 59984 net.cpp:228] cls_score does not need backward computation.
I0727 00:05:23.400058 59984 net.cpp:228] fc7_drop7_0_split does not need backward computation.
…
