…
stepsize: 50000
snapshot: 0
snapshot_prefix: "fpn"
average_loss: 100
iter_size: 2
I0628 17:46:35.174427 28539 solver.cpp:81] Creating training net from train_net file: models/pascal_voc/VGG16/FP_Net_end2end/train.prototxt
I0628 17:46:35.175885 28539 net.cpp:49] Initializing net from parameters: 
name: "VGG_ILSVRC_16_layers"
state {
  phase: TRAIN
}
layer {
  name: "input-data"
  type: "Python"
  top: "data"
  top: "im_info"
  top: "gt_boxes"
  python_param {
    module: "roi_data_layer.layer"
    layer: "RoIDataLayer"
    param_str: "\'num_classes\': 21"
  }
}
layer {
  name: "conv1_1"
  type: "Convolution"
  bottom: "data"
  top: "conv1_1"
  param {
    lr_mult: 0
    decay_mult: 0
  }
  param {
    lr_mult: 0
    decay_mult: 0
  }
  convolution_param {
    num_output: 64
    pad: 1
    kernel_size: 3
  }
}
layer {
  name: "relu1_1"
  type: "ReLU"
  bottom: "conv1_1"
  top: "conv1_1"
}
layer {
  name: "conv1_2"
  type: "Convolution"
  bottom: "conv1_1"
  top: "conv1_2"
  param {
    lr_mult: 0
    decay_mult: 0
  }
  param {
    lr_mult: 0
    decay_mult: 0
  }
  convolution_param {
    num_output: 64
    pad: 1
    kernel_size: 3
  }
}
layer {
  name: "relu1_2"
  type: "ReLU"
  bottom: "conv1_2"
  top: "conv1_2"
}
layer {
  name: "pool1"
  type: "Pooling"
  bottom: "conv1_2"
  top: "pool1"
  pooling_param {
    pool: MAX
    kernel_size: 2
    stride: 2
  }
}
layer {
  name: "conv2_1"
  type: "Convolution"
  bottom: "pool1"
  top: "conv2_1"
  param {
    lr_mult: 0
    decay_mult: 0
  }
  param {
    lr_mult: 0
    decay_mult: 0
  }
  convolution_param {
    num_output: 128
    pad: 1
    kernel_size: 3
  }
}
layer {
  name: "relu2_1"
  type: "ReLU"
  bottom: "conv2_1"
  top: "conv2_1"
}
layer {
  name: "conv2_2"
  type: "Convolution"
  bottom: "conv2_1"
  top: "conv2_2"
  param {
    lr_mult: 0
    decay_mult: 0
  }
  param {
    lr_mult: 0
    decay_mult: 0
  }
  convolution_param {
    num_output: 128
    pad: 1
    kernel_size: 3
  }
}
layer {
  name: "relu2_2"
  type: "ReLU"
  bottom: "conv2_2"
  top: "conv2_2"
}
layer {
  name: "pool2"
  type: "Pooling"
  bottom: "conv2_2"
  top: "pool2"
  pooling_param {
    pool: MAX
    kernel_size: 2
    stride: 2
  }
}
layer {
  name: "conv3_1"
  type: "Convolution"
  bottom: "pool2"
  top: "conv3_1"
  param {
    lr_mult: 1
  }
  param {
    lr_mult: 2
  }
  convolution_param {
    num_output: 256
    pad: 1
    kernel_size: 3
  }
}
layer {
  name: "relu3_1"
  type: "ReLU"
  bottom: "conv3_1"
  top: "conv3_1"
}
layer {
  name: "conv3_2"
  type: "Convolution"
  bottom: "conv3_1"
  top: "conv3_2"
  param {
    lr_mult: 1
  }
  param {
    lr_mult: 2
  }
  convolution_param {
    num_output: 256
    pad: 1
    kernel_size: 3
  }
}
layer {
  name: "relu3_2"
  type: "ReLU"
  bottom: "conv3_2"
  top: "conv3_2"
}
layer {
  name: "conv3_3"
  type: "Convolution"
  bottom: "conv3_2"
  top: "conv3_3"
  param {
    lr_mult: 1
  }
  param {
    lr_mult: 2
  }
  convolution_param {
    num_output: 256
    pad: 1
    kernel_size: 3
  }
}
layer {
  name: "relu3_3"
  type: "ReLU"
  bottom: "conv3_3"
  top: "conv3_3"
}
layer {
  name: "pool3"
  type: "Pooling"
  bottom: "conv3_3"
  top: "pool3"
  pooling_param {
    pool: MAX
    kernel_size: 2
    stride: 2
  }
}
layer {
  name: "conv4_1"
  type: "Convolution"
  bottom: "pool3"
  top: "conv4_1"
  param {
    lr_mult: 1
  }
  param {
    lr_mult: 2
  }
  convolution_param {
    num_output: 512
    pad: 1
    kernel_size: 3
  }
}
layer {
  name: "relu4_1"
  type: "ReLU"
  bottom: "conv4_1"
  top: "conv4_1"
}
layer {
  name: "conv4_2"
  type: "Convolution"
  bottom: "conv4_1"
  top: "conv4_2"
  param {
    lr_mult: 1
  }
  param {
    lr_mult: 2
  }
  convolution_param {
    num_output: 512
    pad: 1
    kernel_size: 3
  }
}
layer {
  name: "relu4_2"
  type: "ReLU"
  bottom: "conv4_2"
  top: "conv4_2"
}
layer {
  name: "conv4_3"
  type: "Convolution"
  bottom: "conv4_2"
  top: "conv4_3"
  param {
    lr_mult: 1
  }
  param {
    lr_mult: 2
  }
  convolution_param {
    num_output: 512
    pad: 1
    kernel_size: 3
  }
}
layer {
  name: "relu4_3"
  type: "ReLU"
  bottom: "conv4_3"
  top: "conv4_3"
}
layer {
  name: "pool4"
  type: "Pooling"
  bottom: "conv4_3"
  top: "pool4"
  pooling_param {
    pool: MAX
    kernel_size: 2
    stride: 2
  }
}
layer {
  name: "conv5_1"
  type: "Convolution"
  bottom: "pool4"
  top: "conv5_1"
  param {
    lr_mult: 1
  }
  param {
    lr_mult: 2
  }
  convolution_param {
    num_output: 512
    pad: 1
    kernel_size: 3
  }
}
layer {
  name: "relu5_1"
  type: "ReLU"
  bottom: "conv5_1"
  top: "conv5_1"
}
layer {
  name: "conv5_2"
  type: "Convolution"
  bottom: "conv5_1"
  top: "conv5_2"
  param {
    lr_mult: 1
  }
  param {
    lr_mult: 2
  }
  convolution_param {
    num_output: 512
    pad: 1
    kernel_size: 3
  }
}
layer {
  name: "relu5_2"
  type: "ReLU"
  bottom: "conv5_2"
  top: "conv5_2"
}
layer {
  name: "conv5_3"
  type: "Convolution"
  bottom: "conv5_2"
  top: "conv5_3"
  param {
    lr_mult: 1
  }
  param {
    lr_mult: 2
  }
  convolution_param {
    num_output: 512
    pad: 1
    kernel_size: 3
  }
}
layer {
  name: "relu5_3"
  type: "ReLU"
  bottom: "conv5_3"
  top: "conv5_3"
}
layer {
  name: "pool5"
  type: "Pooling"
  bottom: "conv5_3"
  top: "pool5"
  pooling_param {
    pool: MAX
    kernel_size: 2
    stride: 2
  }
}
layer {
  name: "P5"
  type: "Convolution"
  bottom: "pool5"
  top: "P5"
  param {
    lr_mult: 1
  }
  param {
    lr_mult: 2
  }
  convolution_param {
    num_output: 256
    kernel_size: 1
    weight_filler {
      type: "xavier"
    }
    bias_filler {
      type: "constant"
    }
  }
}
layer {
  name: "upP5"
  type: "Deconvolution"
  bottom: "P5"
  top: "upP5"
  param {
    lr_mult: 0
    decay_mult: 0
  }
  convolution_param {
    num_output: 256
    bias_term: false
    pad: 1
    kernel_size: 4
    stride: 2
    weight_filler {
      type: "bilinear"
    }
  }
}
layer {
  name: "newC4"
  type: "Convolution"
  bottom: "conv5_3"
  top: "newC4"
  param {
    lr_mult: 1
  }
  param {
    lr_mult: 2
  }
  convolution_param {
    num_output: 256
    kernel_size: 1
    weight_filler {
      type: "xavier"
    }
    bias_filler {
      type: "constant"
    }
  }
}
layer {
  name: "upP5crop"
  type: "Crop"
  bottom: "upP5"
  bottom: "newC4"
  top: "upP5crop"
  crop_param {
    axis: 2
    offset: 0
  }
}
layer {
  name: "P4"
  type: "Eltwise"
  bottom: "newC4"
  bottom: "upP5crop"
  top: "P4"
  eltwise_param {
    operation: SUM
  }
}
layer {
  name: "newP4"
  type: "Convolution"
  bottom: "P4"
  top: "newP4"
  param {
    lr_mult: 1
  }
  param {
    lr_mult: 2
  }
  convolution_param {
    num_output: 256
    pad: 1
    kernel_size: 3
    weight_filler {
      type: "xavier"
    }
    bias_filler {
      type: "constant"
    }
  }
}
layer {
  name: "rpn_conv/3x3"
  type: "Convolution"
  bottom: "newP4"
  top: "rpn/output"
  param {
    lr_mult: 1
  }
  param {
    lr_mult: 2
  }
  convolution_param {
    num_output: 512
    pad: 1
    kernel_size: 3
    stride: 1
    weight_filler {
      type: "gaussian"
      std: 0.01
    }
    bias_filler {
      type: "constant"
      value: 0
    }
  }
}
layer {
  name: "rpn_relu/3x3"
  type: "ReLU"
  bottom: "rpn/output"
  top: "rpn/output"
}
layer {
  name: "rpn_cls_score"
  type: "Convolution"
  bottom: "rpn/output"
  top: "rpn_cls_score"
  param {
    lr_mult: 1
  }
  param {
    lr_mult: 2
  }
  convolution_param {
    num_output: 18
    pad: 0
    kernel_size: 1
    stride: 1
    weight_filler {
      type: "gaussian"
      std: 0.01
    }
    bias_filler {
      type: "constant"
      value: 0
    }
  }
}
layer {
  name: "rpn_bbox_pred"
  type: "Convolution"
  bottom: "rpn/output"
  top: "rpn_bbox_pred"
  param {
    lr_mult: 1
  }
  param {
    lr_mult: 2
  }
  convolution_param {
    num_output: 36
    pad: 0
    kernel_size: 1
    stride: 1
    weight_filler {
      type: "gaussian"
      std: 0.01
    }
    bias_filler {
      type: "constant"
      value: 0
    }
  }
}
layer {
  name: "rpn_cls_score_reshape"
  type: "Reshape"
  bottom: "rpn_cls_score"
  top: "rpn_cls_score_reshape"
  reshape_param {
    shape {
      dim: 0
      dim: 2
      dim: -1
      dim: 0
    }
  }
}
layer {
  name: "rpn-data"
  type: "Python"
  bottom: "rpn_cls_score"
  bottom: "gt_boxes"
  bottom: "im_info"
  bottom: "data"
  top: "rpn_labels"
  top: "rpn_bbox_targets"
  top: "rpn_bbox_inside_weights"
  top: "rpn_bbox_outside_weights"
  python_param {
    module: "rpn.anchor_target_layer"
    layer: "AnchorTargetLayer"
    param_str: "\'feat_stride\': 4"
  }
}
layer {
  name: "rpn_loss_cls"
  type: "SoftmaxWithLoss"
  bottom: "rpn_cls_score_reshape"
  bottom: "rpn_labels"
  top: "rpn_cls_loss"
  loss_weight: 1
  propagate_down: true
  propagate_down: false
  loss_param {
    ignore_label: -1
    normalize: true
  }
}
layer {
  name: "rpn_loss_bbox"
  type: "SmoothL1Loss"
  bottom: "rpn_bbox_pred"
  bottom: "rpn_bbox_targets"
  bottom: "rpn_bbox_inside_weights"
  bottom: "rpn_bbox_outside_weights"
  top: "rpn_loss_bbox"
  loss_weight: 1
  smooth_l1_loss_param {
    sigma: 3
  }
}
layer {
  name: "rpn_cls_prob"
  type: "Softmax"
  bottom: "rpn_cls_score_reshape"
  top: "rpn_cls_prob"
}
layer {
  name: "rpn_cls_prob_reshape"
  type: "Reshape"
  bottom: "rpn_cls_prob"
  top: "rpn_cls_prob_reshape"
  reshape_param {
    shape {
      dim: 0
      dim: 18
      dim: -1
      dim: 0
    }
  }
}
layer {
  name: "proposal"
  type: "Python"
  bottom: "rpn_cls_prob_reshape"
  bottom: "rpn_bbox_pred"
  bottom: "im_info"
  top: "rpn_rois"
  python_param {
    module: "rpn.proposal_layer"
    layer: "ProposalLayer"
    param_str: "\'feat_stride\': 4"
  }
}
layer {
  name: "roi-data"
  type: "Python"
  bottom: "rpn_rois"
  bottom: "gt_boxes"
  top: "rois"
  top: "labels"
  top: "bbox_targets"
  top: "bbox_inside_weights"
  top: "bbox_outside_weights"
  python_param {
    module: "rpn.proposal_target_layer"
    layer: "ProposalTargetLayer"
    param_str: "\'num_classes\': 21"
  }
}
layer {
  name: "roi_pool5"
  type: "ROIPooling"
  bottom: "newP4"
  bottom: "rois"
  top: "rcnn_pool5"
  roi_pooling_param {
    pooled_h: 7
    pooled_w: 7
    spatial_scale: 0.25
  }
}
layer {
  name: "rcnn_fc6"
  type: "InnerProduct"
  bottom: "rcnn_pool5"
  top: "rcnn_fc6"
  param {
    lr_mult: 1
  }
  param {
    lr_mult: 2
  }
  inner_product_param {
    num_output: 4096
    weight_filler {
      type: "xavier"
    }
    bias_filler {
      type: "constant"
    }
  }
}
layer {
  name: "relu6"
  type: "ReLU"
  bottom: "rcnn_fc6"
  top: "rcnn_fc6"
}
layer {
  name: "drop6"
  type: "Dropout"
  bottom: "rcnn_fc6"
  top: "rcnn_fc6"
  dropout_param {
    dropout_ratio: 0.5
  }
}
layer {
  name: "fc7"
  type: "InnerProduct"
  bottom: "rcnn_fc6"
  top: "fc7"
  param {
    lr_mult: 1
  }
  param {
    lr_mult: 2
  }
  inner_product_param {
    num_output: 4096
    weight_filler {
      type: "xavier"
    }
    bias_filler {
      type: "constant"
    }
  }
}
layer {
  name: "relu7"
  type: "ReLU"
  bottom: "fc7"
  top: "fc7"
}
layer {
  name: "drop7"
  type: "Dropout"
  bottom: "fc7"
  top: "fc7"
  dropout_param {
    dropout_ratio: 0.5
  }
}
layer {
  name: "cls_score"
  type: "InnerProduct"
  bottom: "fc7"
  top: "cls_score"
  param {
    lr_mult: 1
  }
  param {
    lr_mult: 2
  }
  inner_product_param {
    num_output: 21
    weight_filler {
      type: "gaussian"
      std: 0.01
    }
    bias_filler {
      type: "constant"
      value: 0
    }
  }
}
layer {
  name: "bbox_pred"
  type: "InnerProduct"
  bottom: "fc7"
  top: "bbox_pred"
  param {
    lr_mult: 1
  }
  param {
    lr_mult: 2
  }
  inner_product_param {
    num_output: 84
    weight_filler {
      type: "gaussian"
      std: 0.001
    }
    bias_filler {
      type: "constant"
      value: 0
    }
  }
}
layer {
  name: "loss_cls"
  type: "SoftmaxWithLoss"
  bottom: "cls_score"
  bottom: "labels"
  top: "loss_cls"
  loss_weight: 1
  propagate_down: true
  propagate_down: false
}
layer {
  name: "loss_bbox"
  type: "SmoothL1Loss"
  bottom: "bbox_pred"
  bottom: "bbox_targets"
  bottom: "bbox_inside_weights"
  bottom: "bbox_outside_weights"
  top: "loss_bbox"
  loss_weight: 1
}
I0628 17:46:35.176210 28539 layer_factory.hpp:77] Creating layer input-data
I0628 17:46:35.177297 28539 net.cpp:106] Creating Layer input-data
I0628 17:46:35.177325 28539 net.cpp:411] input-data -> data
I0628 17:46:35.177342 28539 net.cpp:411] input-data -> im_info
I0628 17:46:35.177353 28539 net.cpp:411] input-data -> gt_boxes
RoiDataLayer: name_to_top: {'gt_boxes': 2, 'data': 0, 'im_info': 1}
I0628 17:46:35.302381 28539 net.cpp:150] Setting up input-data
I0628 17:46:35.302449 28539 net.cpp:157] Top shape: 1 3 600 1000 (1800000)
I0628 17:46:35.302467 28539 net.cpp:157] Top shape: 1 3 (3)
I0628 17:46:35.302481 28539 net.cpp:157] Top shape: 1 4 (4)
I0628 17:46:35.302495 28539 net.cpp:165] Memory required for data: 7200028
I0628 17:46:35.302510 28539 layer_factory.hpp:77] Creating layer data_input-data_0_split
I0628 17:46:35.302537 28539 net.cpp:106] Creating Layer data_input-data_0_split
I0628 17:46:35.302568 28539 net.cpp:454] data_input-data_0_split <- data
I0628 17:46:35.302592 28539 net.cpp:411] data_input-data_0_split -> data_input-data_0_split_0
I0628 17:46:35.302613 28539 net.cpp:411] data_input-data_0_split -> data_input-data_0_split_1
I0628 17:46:35.302697 28539 net.cpp:150] Setting up data_input-data_0_split
I0628 17:46:35.302713 28539 net.cpp:157] Top shape: 1 3 600 1000 (1800000)
I0628 17:46:35.302718 28539 net.cpp:157] Top shape: 1 3 600 1000 (1800000)
I0628 17:46:35.302721 28539 net.cpp:165] Memory required for data: 21600028
I0628 17:46:35.302726 28539 layer_factory.hpp:77] Creating layer im_info_input-data_1_split
I0628 17:46:35.302749 28539 net.cpp:106] Creating Layer im_info_input-data_1_split
I0628 17:46:35.302763 28539 net.cpp:454] im_info_input-data_1_split <- im_info
I0628 17:46:35.302799 28539 net.cpp:411] im_info_input-data_1_split -> im_info_input-data_1_split_0
I0628 17:46:35.302825 28539 net.cpp:411] im_info_input-data_1_split -> im_info_input-data_1_split_1
I0628 17:46:35.302913 28539 net.cpp:150] Setting up im_info_input-data_1_split
I0628 17:46:35.302927 28539 net.cpp:157] Top shape: 1 3 (3)
I0628 17:46:35.302932 28539 net.cpp:157] Top shape: 1 3 (3)
I0628 17:46:35.302934 28539 net.cpp:165] Memory required for data: 21600052
I0628 17:46:35.302938 28539 layer_factory.hpp:77] Creating layer gt_boxes_input-data_2_split
I0628 17:46:35.302943 28539 net.cpp:106] Creating Layer gt_boxes_input-data_2_split
I0628 17:46:35.302961 28539 net.cpp:454] gt_boxes_input-data_2_split <- gt_boxes
I0628 17:46:35.302978 28539 net.cpp:411] gt_boxes_input-data_2_split -> gt_boxes_input-data_2_split_0
I0628 17:46:35.302994 28539 net.cpp:411] gt_boxes_input-data_2_split -> gt_boxes_input-data_2_split_1
I0628 17:46:35.303066 28539 net.cpp:150] Setting up gt_boxes_input-data_2_split
I0628 17:46:35.303081 28539 net.cpp:157] Top shape: 1 4 (4)
I0628 17:46:35.303086 28539 net.cpp:157] Top shape: 1 4 (4)
I0628 17:46:35.303088 28539 net.cpp:165] Memory required for data: 21600084
I0628 17:46:35.303092 28539 layer_factory.hpp:77] Creating layer conv1_1
I0628 17:46:35.303128 28539 net.cpp:106] Creating Layer conv1_1
I0628 17:46:35.303154 28539 net.cpp:454] conv1_1 <- data_input-data_0_split_0
I0628 17:46:35.303170 28539 net.cpp:411] conv1_1 -> conv1_1
I0628 17:46:39.776701 28539 net.cpp:150] Setting up conv1_1
I0628 17:46:39.776756 28539 net.cpp:157] Top shape: 1 64 600 1000 (38400000)
I0628 17:46:39.776760 28539 net.cpp:165] Memory required for data: 175200084
I0628 17:46:39.776788 28539 layer_factory.hpp:77] Creating layer relu1_1
I0628 17:46:39.776804 28539 net.cpp:106] Creating Layer relu1_1
I0628 17:46:39.776839 28539 net.cpp:454] relu1_1 <- conv1_1
I0628 17:46:39.776859 28539 net.cpp:397] relu1_1 -> conv1_1 (in-place)
I0628 17:46:39.777763 28539 net.cpp:150] Setting up relu1_1
I0628 17:46:39.777786 28539 net.cpp:157] Top shape: 1 64 600 1000 (38400000)
I0628 17:46:39.777791 28539 net.cpp:165] Memory required for data: 328800084
I0628 17:46:39.777794 28539 layer_factory.hpp:77] Creating layer conv1_2
I0628 17:46:39.777806 28539 net.cpp:106] Creating Layer conv1_2
I0628 17:46:39.777811 28539 net.cpp:454] conv1_2 <- conv1_1
I0628 17:46:39.777817 28539 net.cpp:411] conv1_2 -> conv1_2
I0628 17:46:39.787618 28539 net.cpp:150] Setting up conv1_2
I0628 17:46:39.787643 28539 net.cpp:157] Top shape: 1 64 600 1000 (38400000)
I0628 17:46:39.787647 28539 net.cpp:165] Memory required for data: 482400084
I0628 17:46:39.787657 28539 layer_factory.hpp:77] Creating layer relu1_2
I0628 17:46:39.787688 28539 net.cpp:106] Creating Layer relu1_2
I0628 17:46:39.787705 28539 net.cpp:454] relu1_2 <- conv1_2
I0628 17:46:39.787720 28539 net.cpp:397] relu1_2 -> conv1_2 (in-place)
I0628 17:46:39.787914 28539 net.cpp:150] Setting up relu1_2
I0628 17:46:39.787932 28539 net.cpp:157] Top shape: 1 64 600 1000 (38400000)
I0628 17:46:39.787936 28539 net.cpp:165] Memory required for data: 636000084
I0628 17:46:39.787940 28539 layer_factory.hpp:77] Creating layer pool1
I0628 17:46:39.787955 28539 net.cpp:106] Creating Layer pool1
I0628 17:46:39.787976 28539 net.cpp:454] pool1 <- conv1_2
I0628 17:46:39.787992 28539 net.cpp:411] pool1 -> pool1
I0628 17:46:39.788077 28539 net.cpp:150] Setting up pool1
I0628 17:46:39.788092 28539 net.cpp:157] Top shape: 1 64 300 500 (9600000)
I0628 17:46:39.788096 28539 net.cpp:165] Memory required for data: 674400084
I0628 17:46:39.788100 28539 layer_factory.hpp:77] Creating layer conv2_1
I0628 17:46:39.788108 28539 net.cpp:106] Creating Layer conv2_1
I0628 17:46:39.788126 28539 net.cpp:454] conv2_1 <- pool1
I0628 17:46:39.788142 28539 net.cpp:411] conv2_1 -> conv2_1
I0628 17:46:39.797124 28539 net.cpp:150] Setting up conv2_1
I0628 17:46:39.797150 28539 net.cpp:157] Top shape: 1 128 300 500 (19200000)
I0628 17:46:39.797154 28539 net.cpp:165] Memory required for data: 751200084
I0628 17:46:39.797163 28539 layer_factory.hpp:77] Creating layer relu2_1
I0628 17:46:39.797196 28539 net.cpp:106] Creating Layer relu2_1
I0628 17:46:39.797220 28539 net.cpp:454] relu2_1 <- conv2_1
I0628 17:46:39.797242 28539 net.cpp:397] relu2_1 -> conv2_1 (in-place)
I0628 17:46:39.800503 28539 net.cpp:150] Setting up relu2_1
I0628 17:46:39.800523 28539 net.cpp:157] Top shape: 1 128 300 500 (19200000)
I0628 17:46:39.800526 28539 net.cpp:165] Memory required for data: 828000084
I0628 17:46:39.800529 28539 layer_factory.hpp:77] Creating layer conv2_2
I0628 17:46:39.800541 28539 net.cpp:106] Creating Layer conv2_2
I0628 17:46:39.800565 28539 net.cpp:454] conv2_2 <- conv2_1
I0628 17:46:39.800582 28539 net.cpp:411] conv2_2 -> conv2_2
I0628 17:46:39.808022 28539 net.cpp:150] Setting up conv2_2
I0628 17:46:39.808048 28539 net.cpp:157] Top shape: 1 128 300 500 (19200000)
I0628 17:46:39.808051 28539 net.cpp:165] Memory required for data: 904800084
I0628 17:46:39.808058 28539 layer_factory.hpp:77] Creating layer relu2_2
I0628 17:46:39.808089 28539 net.cpp:106] Creating Layer relu2_2
I0628 17:46:39.808106 28539 net.cpp:454] relu2_2 <- conv2_2
I0628 17:46:39.808122 28539 net.cpp:397] relu2_2 -> conv2_2 (in-place)
I0628 17:46:39.809182 28539 net.cpp:150] Setting up relu2_2
I0628 17:46:39.809203 28539 net.cpp:157] Top shape: 1 128 300 500 (19200000)
I0628 17:46:39.809207 28539 net.cpp:165] Memory required for data: 981600084
I0628 17:46:39.809211 28539 layer_factory.hpp:77] Creating layer pool2
I0628 17:46:39.809242 28539 net.cpp:106] Creating Layer pool2
I0628 17:46:39.809278 28539 net.cpp:454] pool2 <- conv2_2
I0628 17:46:39.809298 28539 net.cpp:411] pool2 -> pool2
I0628 17:46:39.809397 28539 net.cpp:150] Setting up pool2
I0628 17:46:39.809413 28539 net.cpp:157] Top shape: 1 128 150 250 (4800000)
I0628 17:46:39.809417 28539 net.cpp:165] Memory required for data: 1000800084
I0628 17:46:39.809420 28539 layer_factory.hpp:77] Creating layer conv3_1
I0628 17:46:39.809430 28539 net.cpp:106] Creating Layer conv3_1
I0628 17:46:39.809449 28539 net.cpp:454] conv3_1 <- pool2
I0628 17:46:39.809469 28539 net.cpp:411] conv3_1 -> conv3_1
I0628 17:46:39.818042 28539 net.cpp:150] Setting up conv3_1
I0628 17:46:39.818066 28539 net.cpp:157] Top shape: 1 256 150 250 (9600000)
I0628 17:46:39.818070 28539 net.cpp:165] Memory required for data: 1039200084
I0628 17:46:39.818080 28539 layer_factory.hpp:77] Creating layer relu3_1
I0628 17:46:39.818110 28539 net.cpp:106] Creating Layer relu3_1
I0628 17:46:39.818125 28539 net.cpp:454] relu3_1 <- conv3_1
I0628 17:46:39.818145 28539 net.cpp:397] relu3_1 -> conv3_1 (in-place)
I0628 17:46:39.820672 28539 net.cpp:150] Setting up relu3_1
I0628 17:46:39.820690 28539 net.cpp:157] Top shape: 1 256 150 250 (9600000)
I0628 17:46:39.820694 28539 net.cpp:165] Memory required for data: 1077600084
I0628 17:46:39.820698 28539 layer_factory.hpp:77] Creating layer conv3_2
I0628 17:46:39.820713 28539 net.cpp:106] Creating Layer conv3_2
I0628 17:46:39.820734 28539 net.cpp:454] conv3_2 <- conv3_1
I0628 17:46:39.820771 28539 net.cpp:411] conv3_2 -> conv3_2
I0628 17:46:39.829900 28539 net.cpp:150] Setting up conv3_2
I0628 17:46:39.829926 28539 net.cpp:157] Top shape: 1 256 150 250 (9600000)
I0628 17:46:39.829931 28539 net.cpp:165] Memory required for data: 1116000084
I0628 17:46:39.829936 28539 layer_factory.hpp:77] Creating layer relu3_2
I0628 17:46:39.829967 28539 net.cpp:106] Creating Layer relu3_2
I0628 17:46:39.829982 28539 net.cpp:454] relu3_2 <- conv3_2
I0628 17:46:39.830000 28539 net.cpp:397] relu3_2 -> conv3_2 (in-place)
I0628 17:46:39.832526 28539 net.cpp:150] Setting up relu3_2
I0628 17:46:39.832545 28539 net.cpp:157] Top shape: 1 256 150 250 (9600000)
I0628 17:46:39.832548 28539 net.cpp:165] Memory required for data: 1154400084
I0628 17:46:39.832552 28539 layer_factory.hpp:77] Creating layer conv3_3
I0628 17:46:39.832563 28539 net.cpp:106] Creating Layer conv3_3
I0628 17:46:39.832584 28539 net.cpp:454] conv3_3 <- conv3_2
I0628 17:46:39.832604 28539 net.cpp:411] conv3_3 -> conv3_3
I0628 17:46:39.840142 28539 net.cpp:150] Setting up conv3_3
I0628 17:46:39.840165 28539 net.cpp:157] Top shape: 1 256 150 250 (9600000)
I0628 17:46:39.840170 28539 net.cpp:165] Memory required for data: 1192800084
I0628 17:46:39.840179 28539 layer_factory.hpp:77] Creating layer relu3_3
I0628 17:46:39.840209 28539 net.cpp:106] Creating Layer relu3_3
I0628 17:46:39.840225 28539 net.cpp:454] relu3_3 <- conv3_3
I0628 17:46:39.840240 28539 net.cpp:397] relu3_3 -> conv3_3 (in-place)
I0628 17:46:39.841676 28539 net.cpp:150] Setting up relu3_3
I0628 17:46:39.841698 28539 net.cpp:157] Top shape: 1 256 150 250 (9600000)
I0628 17:46:39.841702 28539 net.cpp:165] Memory required for data: 1231200084
I0628 17:46:39.841706 28539 layer_factory.hpp:77] Creating layer pool3
I0628 17:46:39.841733 28539 net.cpp:106] Creating Layer pool3
I0628 17:46:39.841748 28539 net.cpp:454] pool3 <- conv3_3
I0628 17:46:39.841774 28539 net.cpp:411] pool3 -> pool3
I0628 17:46:39.841881 28539 net.cpp:150] Setting up pool3
I0628 17:46:39.841895 28539 net.cpp:157] Top shape: 1 256 75 125 (2400000)
I0628 17:46:39.841899 28539 net.cpp:165] Memory required for data: 1240800084
I0628 17:46:39.841902 28539 layer_factory.hpp:77] Creating layer conv4_1
I0628 17:46:39.841917 28539 net.cpp:106] Creating Layer conv4_1
I0628 17:46:39.841936 28539 net.cpp:454] conv4_1 <- pool3
I0628 17:46:39.841955 28539 net.cpp:411] conv4_1 -> conv4_1
I0628 17:46:39.853003 28539 net.cpp:150] Setting up conv4_1
I0628 17:46:39.853026 28539 net.cpp:157] Top shape: 1 512 75 125 (4800000)
I0628 17:46:39.853030 28539 net.cpp:165] Memory required for data: 1260000084
I0628 17:46:39.853037 28539 layer_factory.hpp:77] Creating layer relu4_1
I0628 17:46:39.853067 28539 net.cpp:106] Creating Layer relu4_1
I0628 17:46:39.853083 28539 net.cpp:454] relu4_1 <- conv4_1
I0628 17:46:39.853109 28539 net.cpp:397] relu4_1 -> conv4_1 (in-place)
I0628 17:46:39.854559 28539 net.cpp:150] Setting up relu4_1
I0628 17:46:39.854581 28539 net.cpp:157] Top shape: 1 512 75 125 (4800000)
I0628 17:46:39.854584 28539 net.cpp:165] Memory required for data: 1279200084
I0628 17:46:39.854588 28539 layer_factory.hpp:77] Creating layer conv4_2
I0628 17:46:39.854635 28539 net.cpp:106] Creating Layer conv4_2
I0628 17:46:39.854658 28539 net.cpp:454] conv4_2 <- conv4_1
I0628 17:46:39.854676 28539 net.cpp:411] conv4_2 -> conv4_2
I0628 17:46:39.867744 28539 net.cpp:150] Setting up conv4_2
I0628 17:46:39.867771 28539 net.cpp:157] Top shape: 1 512 75 125 (4800000)
I0628 17:46:39.867776 28539 net.cpp:165] Memory required for data: 1298400084
I0628 17:46:39.867786 28539 layer_factory.hpp:77] Creating layer relu4_2
I0628 17:46:39.867818 28539 net.cpp:106] Creating Layer relu4_2
I0628 17:46:39.867835 28539 net.cpp:454] relu4_2 <- conv4_2
I0628 17:46:39.867858 28539 net.cpp:397] relu4_2 -> conv4_2 (in-place)
I0628 17:46:39.869240 28539 net.cpp:150] Setting up relu4_2
I0628 17:46:39.869264 28539 net.cpp:157] Top shape: 1 512 75 125 (4800000)
I0628 17:46:39.869287 28539 net.cpp:165] Memory required for data: 1317600084
I0628 17:46:39.869300 28539 layer_factory.hpp:77] Creating layer conv4_3
I0628 17:46:39.869318 28539 net.cpp:106] Creating Layer conv4_3
I0628 17:46:39.869333 28539 net.cpp:454] conv4_3 <- conv4_2
I0628 17:46:39.869351 28539 net.cpp:411] conv4_3 -> conv4_3
I0628 17:46:39.880991 28539 net.cpp:150] Setting up conv4_3
I0628 17:46:39.881016 28539 net.cpp:157] Top shape: 1 512 75 125 (4800000)
I0628 17:46:39.881021 28539 net.cpp:165] Memory required for data: 1336800084
I0628 17:46:39.881026 28539 layer_factory.hpp:77] Creating layer relu4_3
I0628 17:46:39.881036 28539 net.cpp:106] Creating Layer relu4_3
I0628 17:46:39.881062 28539 net.cpp:454] relu4_3 <- conv4_3
I0628 17:46:39.881080 28539 net.cpp:397] relu4_3 -> conv4_3 (in-place)
I0628 17:46:39.883122 28539 net.cpp:150] Setting up relu4_3
I0628 17:46:39.883143 28539 net.cpp:157] Top shape: 1 512 75 125 (4800000)
I0628 17:46:39.883147 28539 net.cpp:165] Memory required for data: 1356000084
I0628 17:46:39.883152 28539 layer_factory.hpp:77] Creating layer pool4
I0628 17:46:39.883159 28539 net.cpp:106] Creating Layer pool4
I0628 17:46:39.883183 28539 net.cpp:454] pool4 <- conv4_3
I0628 17:46:39.883199 28539 net.cpp:411] pool4 -> pool4
I0628 17:46:39.883291 28539 net.cpp:150] Setting up pool4
I0628 17:46:39.883306 28539 net.cpp:157] Top shape: 1 512 38 63 (1225728)
I0628 17:46:39.883309 28539 net.cpp:165] Memory required for data: 1360902996
I0628 17:46:39.883313 28539 layer_factory.hpp:77] Creating layer conv5_1
I0628 17:46:39.883323 28539 net.cpp:106] Creating Layer conv5_1
I0628 17:46:39.883343 28539 net.cpp:454] conv5_1 <- pool4
I0628 17:46:39.883361 28539 net.cpp:411] conv5_1 -> conv5_1
I0628 17:46:39.892407 28539 net.cpp:150] Setting up conv5_1
I0628 17:46:39.892432 28539 net.cpp:157] Top shape: 1 512 38 63 (1225728)
I0628 17:46:39.892436 28539 net.cpp:165] Memory required for data: 1365805908
I0628 17:46:39.892443 28539 layer_factory.hpp:77] Creating layer relu5_1
I0628 17:46:39.892472 28539 net.cpp:106] Creating Layer relu5_1
I0628 17:46:39.892496 28539 net.cpp:454] relu5_1 <- conv5_1
I0628 17:46:39.892519 28539 net.cpp:397] relu5_1 -> conv5_1 (in-place)
I0628 17:46:39.894471 28539 net.cpp:150] Setting up relu5_1
I0628 17:46:39.894490 28539 net.cpp:157] Top shape: 1 512 38 63 (1225728)
I0628 17:46:39.894493 28539 net.cpp:165] Memory required for data: 1370708820
I0628 17:46:39.894497 28539 layer_factory.hpp:77] Creating layer conv5_2
I0628 17:46:39.894507 28539 net.cpp:106] Creating Layer conv5_2
I0628 17:46:39.894531 28539 net.cpp:454] conv5_2 <- conv5_1
I0628 17:46:39.894551 28539 net.cpp:411] conv5_2 -> conv5_2
I0628 17:46:39.905544 28539 net.cpp:150] Setting up conv5_2
I0628 17:46:39.905570 28539 net.cpp:157] Top shape: 1 512 38 63 (1225728)
I0628 17:46:39.905573 28539 net.cpp:165] Memory required for data: 1375611732
I0628 17:46:39.905580 28539 layer_factory.hpp:77] Creating layer relu5_2
I0628 17:46:39.905611 28539 net.cpp:106] Creating Layer relu5_2
I0628 17:46:39.905648 28539 net.cpp:454] relu5_2 <- conv5_2
I0628 17:46:39.905665 28539 net.cpp:397] relu5_2 -> conv5_2 (in-place)
I0628 17:46:39.907690 28539 net.cpp:150] Setting up relu5_2
I0628 17:46:39.907708 28539 net.cpp:157] Top shape: 1 512 38 63 (1225728)
I0628 17:46:39.907711 28539 net.cpp:165] Memory required for data: 1380514644
I0628 17:46:39.907716 28539 layer_factory.hpp:77] Creating layer conv5_3
I0628 17:46:39.907732 28539 net.cpp:106] Creating Layer conv5_3
I0628 17:46:39.907735 28539 net.cpp:454] conv5_3 <- conv5_2
I0628 17:46:39.907744 28539 net.cpp:411] conv5_3 -> conv5_3
I0628 17:46:39.917444 28539 net.cpp:150] Setting up conv5_3
I0628 17:46:39.917469 28539 net.cpp:157] Top shape: 1 512 38 63 (1225728)
I0628 17:46:39.917474 28539 net.cpp:165] Memory required for data: 1385417556
I0628 17:46:39.917480 28539 layer_factory.hpp:77] Creating layer relu5_3
I0628 17:46:39.917510 28539 net.cpp:106] Creating Layer relu5_3
I0628 17:46:39.917526 28539 net.cpp:454] relu5_3 <- conv5_3
I0628 17:46:39.917541 28539 net.cpp:397] relu5_3 -> conv5_3 (in-place)
I0628 17:46:39.920758 28539 net.cpp:150] Setting up relu5_3
I0628 17:46:39.920780 28539 net.cpp:157] Top shape: 1 512 38 63 (1225728)
I0628 17:46:39.920783 28539 net.cpp:165] Memory required for data: 1390320468
I0628 17:46:39.920788 28539 layer_factory.hpp:77] Creating layer conv5_3_relu5_3_0_split
I0628 17:46:39.920794 28539 net.cpp:106] Creating Layer conv5_3_relu5_3_0_split
I0628 17:46:39.920819 28539 net.cpp:454] conv5_3_relu5_3_0_split <- conv5_3
I0628 17:46:39.920840 28539 net.cpp:411] conv5_3_relu5_3_0_split -> conv5_3_relu5_3_0_split_0
I0628 17:46:39.920857 28539 net.cpp:411] conv5_3_relu5_3_0_split -> conv5_3_relu5_3_0_split_1
I0628 17:46:39.920974 28539 net.cpp:150] Setting up conv5_3_relu5_3_0_split
I0628 17:46:39.920990 28539 net.cpp:157] Top shape: 1 512 38 63 (1225728)
I0628 17:46:39.920994 28539 net.cpp:157] Top shape: 1 512 38 63 (1225728)
I0628 17:46:39.920997 28539 net.cpp:165] Memory required for data: 1400126292
I0628 17:46:39.921001 28539 layer_factory.hpp:77] Creating layer pool5
I0628 17:46:39.921027 28539 net.cpp:106] Creating Layer pool5
I0628 17:46:39.921043 28539 net.cpp:454] pool5 <- conv5_3_relu5_3_0_split_0
I0628 17:46:39.921061 28539 net.cpp:411] pool5 -> pool5
I0628 17:46:39.921146 28539 net.cpp:150] Setting up pool5
I0628 17:46:39.921161 28539 net.cpp:157] Top shape: 1 512 19 32 (311296)
I0628 17:46:39.921164 28539 net.cpp:165] Memory required for data: 1401371476
I0628 17:46:39.921169 28539 layer_factory.hpp:77] Creating layer P5
I0628 17:46:39.921180 28539 net.cpp:106] Creating Layer P5
I0628 17:46:39.921200 28539 net.cpp:454] P5 <- pool5
I0628 17:46:39.921218 28539 net.cpp:411] P5 -> P5
I0628 17:46:39.929746 28539 net.cpp:150] Setting up P5
I0628 17:46:39.929770 28539 net.cpp:157] Top shape: 1 256 19 32 (155648)
I0628 17:46:39.929774 28539 net.cpp:165] Memory required for data: 1401994068
I0628 17:46:39.929781 28539 layer_factory.hpp:77] Creating layer upP5
I0628 17:46:39.929821 28539 net.cpp:106] Creating Layer upP5
I0628 17:46:39.929832 28539 net.cpp:454] upP5 <- P5
I0628 17:46:39.929839 28539 net.cpp:411] upP5 -> upP5
I0628 17:46:39.955848 28539 net.cpp:150] Setting up upP5
I0628 17:46:39.955869 28539 net.cpp:157] Top shape: 1 256 38 64 (622592)
I0628 17:46:39.955873 28539 net.cpp:165] Memory required for data: 1404484436
I0628 17:46:39.955879 28539 layer_factory.hpp:77] Creating layer newC4
I0628 17:46:39.955914 28539 net.cpp:106] Creating Layer newC4
I0628 17:46:39.955925 28539 net.cpp:454] newC4 <- conv5_3_relu5_3_0_split_1
I0628 17:46:39.955934 28539 net.cpp:411] newC4 -> newC4
I0628 17:46:39.962347 28539 net.cpp:150] Setting up newC4
I0628 17:46:39.962370 28539 net.cpp:157] Top shape: 1 256 38 63 (612864)
I0628 17:46:39.962374 28539 net.cpp:165] Memory required for data: 1406935892
I0628 17:46:39.962404 28539 layer_factory.hpp:77] Creating layer newC4_newC4_0_split
I0628 17:46:39.962421 28539 net.cpp:106] Creating Layer newC4_newC4_0_split
I0628 17:46:39.962440 28539 net.cpp:454] newC4_newC4_0_split <- newC4
I0628 17:46:39.962451 28539 net.cpp:411] newC4_newC4_0_split -> newC4_newC4_0_split_0
I0628 17:46:39.962463 28539 net.cpp:411] newC4_newC4_0_split -> newC4_newC4_0_split_1
I0628 17:46:39.962558 28539 net.cpp:150] Setting up newC4_newC4_0_split
I0628 17:46:39.962574 28539 net.cpp:157] Top shape: 1 256 38 63 (612864)
I0628 17:46:39.962579 28539 net.cpp:157] Top shape: 1 256 38 63 (612864)
I0628 17:46:39.962582 28539 net.cpp:165] Memory required for data: 1411838804
I0628 17:46:39.962585 28539 layer_factory.hpp:77] Creating layer upP5crop
I0628 17:46:39.962595 28539 net.cpp:106] Creating Layer upP5crop
I0628 17:46:39.962616 28539 net.cpp:454] upP5crop <- upP5
I0628 17:46:39.962627 28539 net.cpp:454] upP5crop <- newC4_newC4_0_split_0
I0628 17:46:39.962633 28539 net.cpp:411] upP5crop -> upP5crop
I0628 17:46:39.962831 28539 net.cpp:150] Setting up upP5crop
I0628 17:46:39.962846 28539 net.cpp:157] Top shape: 1 256 38 63 (612864)
I0628 17:46:39.962849 28539 net.cpp:165] Memory required for data: 1414290260
I0628 17:46:39.962853 28539 layer_factory.hpp:77] Creating layer P4
I0628 17:46:39.962882 28539 net.cpp:106] Creating Layer P4
I0628 17:46:39.962893 28539 net.cpp:454] P4 <- newC4_newC4_0_split_1
I0628 17:46:39.962898 28539 net.cpp:454] P4 <- upP5crop
I0628 17:46:39.962901 28539 net.cpp:411] P4 -> P4
I0628 17:46:39.962970 28539 net.cpp:150] Setting up P4
I0628 17:46:39.962983 28539 net.cpp:157] Top shape: 1 256 38 63 (612864)
I0628 17:46:39.962986 28539 net.cpp:165] Memory required for data: 1416741716
I0628 17:46:39.962990 28539 layer_factory.hpp:77] Creating layer newP4
I0628 17:46:39.962999 28539 net.cpp:106] Creating Layer newP4
I0628 17:46:39.963007 28539 net.cpp:454] newP4 <- P4
I0628 17:46:39.963012 28539 net.cpp:411] newP4 -> newP4
I0628 17:46:39.974195 28539 net.cpp:150] Setting up newP4
I0628 17:46:39.974220 28539 net.cpp:157] Top shape: 1 256 38 63 (612864)
I0628 17:46:39.974225 28539 net.cpp:165] Memory required for data: 1419193172
I0628 17:46:39.974242 28539 layer_factory.hpp:77] Creating layer newP4_newP4_0_split
I0628 17:46:39.974258 28539 net.cpp:106] Creating Layer newP4_newP4_0_split
I0628 17:46:39.974262 28539 net.cpp:454] newP4_newP4_0_split <- newP4
I0628 17:46:39.974268 28539 net.cpp:411] newP4_newP4_0_split -> newP4_newP4_0_split_0
I0628 17:46:39.974298 28539 net.cpp:411] newP4_newP4_0_split -> newP4_newP4_0_split_1
I0628 17:46:39.974390 28539 net.cpp:150] Setting up newP4_newP4_0_split
I0628 17:46:39.974406 28539 net.cpp:157] Top shape: 1 256 38 63 (612864)
I0628 17:46:39.974409 28539 net.cpp:157] Top shape: 1 256 38 63 (612864)
I0628 17:46:39.974429 28539 net.cpp:165] Memory required for data: 1424096084
I0628 17:46:39.974439 28539 layer_factory.hpp:77] Creating layer rpn_conv/3x3
I0628 17:46:39.974452 28539 net.cpp:106] Creating Layer rpn_conv/3x3
I0628 17:46:39.974469 28539 net.cpp:454] rpn_conv/3x3 <- newP4_newP4_0_split_0
I0628 17:46:39.974483 28539 net.cpp:411] rpn_conv/3x3 -> rpn/output
I0628 17:46:40.008303 28539 net.cpp:150] Setting up rpn_conv/3x3
I0628 17:46:40.008338 28539 net.cpp:157] Top shape: 1 512 38 63 (1225728)
I0628 17:46:40.008343 28539 net.cpp:165] Memory required for data: 1428998996
I0628 17:46:40.008352 28539 layer_factory.hpp:77] Creating layer rpn_relu/3x3
I0628 17:46:40.008363 28539 net.cpp:106] Creating Layer rpn_relu/3x3
I0628 17:46:40.008394 28539 net.cpp:454] rpn_relu/3x3 <- rpn/output
I0628 17:46:40.008409 28539 net.cpp:397] rpn_relu/3x3 -> rpn/output (in-place)
I0628 17:46:40.009357 28539 net.cpp:150] Setting up rpn_relu/3x3
I0628 17:46:40.009378 28539 net.cpp:157] Top shape: 1 512 38 63 (1225728)
I0628 17:46:40.009382 28539 net.cpp:165] Memory required for data: 1433901908
I0628 17:46:40.009407 28539 layer_factory.hpp:77] Creating layer rpn/output_rpn_relu/3x3_0_split
I0628 17:46:40.009421 28539 net.cpp:106] Creating Layer rpn/output_rpn_relu/3x3_0_split
I0628 17:46:40.009425 28539 net.cpp:454] rpn/output_rpn_relu/3x3_0_split <- rpn/output
I0628 17:46:40.009433 28539 net.cpp:411] rpn/output_rpn_relu/3x3_0_split -> rpn/output_rpn_relu/3x3_0_split_0
I0628 17:46:40.009456 28539 net.cpp:411] rpn/output_rpn_relu/3x3_0_split -> rpn/output_rpn_relu/3x3_0_split_1
I0628 17:46:40.009548 28539 net.cpp:150] Setting up rpn/output_rpn_relu/3x3_0_split
I0628 17:46:40.009562 28539 net.cpp:157] Top shape: 1 512 38 63 (1225728)
I0628 17:46:40.009567 28539 net.cpp:157] Top shape: 1 512 38 63 (1225728)
I0628 17:46:40.009569 28539 net.cpp:165] Memory required for data: 1443707732
I0628 17:46:40.009572 28539 layer_factory.hpp:77] Creating layer rpn_cls_score
I0628 17:46:40.009584 28539 net.cpp:106] Creating Layer rpn_cls_score
I0628 17:46:40.009588 28539 net.cpp:454] rpn_cls_score <- rpn/output_rpn_relu/3x3_0_split_0
I0628 17:46:40.009596 28539 net.cpp:411] rpn_cls_score -> rpn_cls_score
I0628 17:46:40.012545 28539 net.cpp:150] Setting up rpn_cls_score
I0628 17:46:40.012568 28539 net.cpp:157] Top shape: 1 18 38 63 (43092)
I0628 17:46:40.012573 28539 net.cpp:165] Memory required for data: 1443880100
I0628 17:46:40.012580 28539 layer_factory.hpp:77] Creating layer rpn_cls_score_rpn_cls_score_0_split
I0628 17:46:40.012589 28539 net.cpp:106] Creating Layer rpn_cls_score_rpn_cls_score_0_split
I0628 17:46:40.012593 28539 net.cpp:454] rpn_cls_score_rpn_cls_score_0_split <- rpn_cls_score
I0628 17:46:40.012598 28539 net.cpp:411] rpn_cls_score_rpn_cls_score_0_split -> rpn_cls_score_rpn_cls_score_0_split_0
I0628 17:46:40.012611 28539 net.cpp:411] rpn_cls_score_rpn_cls_score_0_split -> rpn_cls_score_rpn_cls_score_0_split_1
I0628 17:46:40.012681 28539 net.cpp:150] Setting up rpn_cls_score_rpn_cls_score_0_split
I0628 17:46:40.012693 28539 net.cpp:157] Top shape: 1 18 38 63 (43092)
I0628 17:46:40.012698 28539 net.cpp:157] Top shape: 1 18 38 63 (43092)
I0628 17:46:40.012701 28539 net.cpp:165] Memory required for data: 1444224836
I0628 17:46:40.012704 28539 layer_factory.hpp:77] Creating layer rpn_bbox_pred
I0628 17:46:40.012715 28539 net.cpp:106] Creating Layer rpn_bbox_pred
I0628 17:46:40.012719 28539 net.cpp:454] rpn_bbox_pred <- rpn/output_rpn_relu/3x3_0_split_1
I0628 17:46:40.012727 28539 net.cpp:411] rpn_bbox_pred -> rpn_bbox_pred
I0628 17:46:40.018872 28539 net.cpp:150] Setting up rpn_bbox_pred
I0628 17:46:40.018901 28539 net.cpp:157] Top shape: 1 36 38 63 (86184)
I0628 17:46:40.018905 28539 net.cpp:165] Memory required for data: 1444569572
I0628 17:46:40.018913 28539 layer_factory.hpp:77] Creating layer rpn_bbox_pred_rpn_bbox_pred_0_split
I0628 17:46:40.018920 28539 net.cpp:106] Creating Layer rpn_bbox_pred_rpn_bbox_pred_0_split
I0628 17:46:40.018925 28539 net.cpp:454] rpn_bbox_pred_rpn_bbox_pred_0_split <- rpn_bbox_pred
I0628 17:46:40.018934 28539 net.cpp:411] rpn_bbox_pred_rpn_bbox_pred_0_split -> rpn_bbox_pred_rpn_bbox_pred_0_split_0
I0628 17:46:40.018939 28539 net.cpp:411] rpn_bbox_pred_rpn_bbox_pred_0_split -> rpn_bbox_pred_rpn_bbox_pred_0_split_1
I0628 17:46:40.019009 28539 net.cpp:150] Setting up rpn_bbox_pred_rpn_bbox_pred_0_split
I0628 17:46:40.019023 28539 net.cpp:157] Top shape: 1 36 38 63 (86184)
I0628 17:46:40.019027 28539 net.cpp:157] Top shape: 1 36 38 63 (86184)
I0628 17:46:40.019029 28539 net.cpp:165] Memory required for data: 1445259044
I0628 17:46:40.019033 28539 layer_factory.hpp:77] Creating layer rpn_cls_score_reshape
I0628 17:46:40.019048 28539 net.cpp:106] Creating Layer rpn_cls_score_reshape
I0628 17:46:40.019055 28539 net.cpp:454] rpn_cls_score_reshape <- rpn_cls_score_rpn_cls_score_0_split_0
I0628 17:46:40.019062 28539 net.cpp:411] rpn_cls_score_reshape -> rpn_cls_score_reshape
I0628 17:46:40.019111 28539 net.cpp:150] Setting up rpn_cls_score_reshape
I0628 17:46:40.019124 28539 net.cpp:157] Top shape: 1 2 342 63 (43092)
I0628 17:46:40.019127 28539 net.cpp:165] Memory required for data: 1445431412
I0628 17:46:40.019130 28539 layer_factory.hpp:77] Creating layer rpn_cls_score_reshape_rpn_cls_score_reshape_0_split
I0628 17:46:40.019135 28539 net.cpp:106] Creating Layer rpn_cls_score_reshape_rpn_cls_score_reshape_0_split
I0628 17:46:40.019138 28539 net.cpp:454] rpn_cls_score_reshape_rpn_cls_score_reshape_0_split <- rpn_cls_score_reshape
I0628 17:46:40.019145 28539 net.cpp:411] rpn_cls_score_reshape_rpn_cls_score_reshape_0_split -> rpn_cls_score_reshape_rpn_cls_score_reshape_0_split_0
I0628 17:46:40.019150 28539 net.cpp:411] rpn_cls_score_reshape_rpn_cls_score_reshape_0_split -> rpn_cls_score_reshape_rpn_cls_score_reshape_0_split_1
I0628 17:46:40.019210 28539 net.cpp:150] Setting up rpn_cls_score_reshape_rpn_cls_score_reshape_0_split
I0628 17:46:40.019222 28539 net.cpp:157] Top shape: 1 2 342 63 (43092)
I0628 17:46:40.019225 28539 net.cpp:157] Top shape: 1 2 342 63 (43092)
I0628 17:46:40.019228 28539 net.cpp:165] Memory required for data: 1445776148
I0628 17:46:40.019232 28539 layer_factory.hpp:77] Creating layer rpn-data
I0628 17:46:40.020077 28539 net.cpp:106] Creating Layer rpn-data
I0628 17:46:40.020100 28539 net.cpp:454] rpn-data <- rpn_cls_score_rpn_cls_score_0_split_1
I0628 17:46:40.020107 28539 net.cpp:454] rpn-data <- gt_boxes_input-data_2_split_0
I0628 17:46:40.020112 28539 net.cpp:454] rpn-data <- im_info_input-data_1_split_0
I0628 17:46:40.020117 28539 net.cpp:454] rpn-data <- data_input-data_0_split_1
I0628 17:46:40.020123 28539 net.cpp:411] rpn-data -> rpn_labels
I0628 17:46:40.020129 28539 net.cpp:411] rpn-data -> rpn_bbox_targets
I0628 17:46:40.020141 28539 net.cpp:411] rpn-data -> rpn_bbox_inside_weights
I0628 17:46:40.020148 28539 net.cpp:411] rpn-data -> rpn_bbox_outside_weights
I0628 17:46:40.021247 28539 net.cpp:150] Setting up rpn-data
I0628 17:46:40.021272 28539 net.cpp:157] Top shape: 1 1 342 63 (21546)
I0628 17:46:40.021277 28539 net.cpp:157] Top shape: 1 36 38 63 (86184)
I0628 17:46:40.021281 28539 net.cpp:157] Top shape: 1 36 38 63 (86184)
I0628 17:46:40.021284 28539 net.cpp:157] Top shape: 1 36 38 63 (86184)
I0628 17:46:40.021287 28539 net.cpp:165] Memory required for data: 1446896540
I0628 17:46:40.021291 28539 layer_factory.hpp:77] Creating layer rpn_loss_cls
I0628 17:46:40.021304 28539 net.cpp:106] Creating Layer rpn_loss_cls
I0628 17:46:40.021309 28539 net.cpp:454] rpn_loss_cls <- rpn_cls_score_reshape_rpn_cls_score_reshape_0_split_0
I0628 17:46:40.021315 28539 net.cpp:454] rpn_loss_cls <- rpn_labels
…
I0628 17:46:40.023368 28539 net.cpp:157] Top shape: (1)
I0628 17:46:40.023372 28539 net.cpp:160]     with loss weight 1
I0628 17:46:40.023377 28539 net.cpp:165] Memory required for data: 1446896548
I0628 17:46:40.023381 28539 layer_factory.hpp:77] Creating layer rpn_cls_prob
I0628 17:46:40.023389 28539 net.cpp:106] Creating Layer rpn_cls_prob
I0628 17:46:40.023393 28539 net.cpp:454] rpn_cls_prob <- rpn_cls_score_reshape_rpn_cls_score_reshape_0_split_1
I0628 17:46:40.023398 28539 net.cpp:411] rpn_cls_prob -> rpn_cls_prob
I0628 17:46:40.023689 28539 net.cpp:150] Setting up rpn_cls_prob
I0628 17:46:40.023706 28539 net.cpp:157] Top shape: 1 2 342 63 (43092)
I0628 17:46:40.023710 28539 net.cpp:165] Memory required for data: 1447068916
I0628 17:46:40.023713 28539 layer_factory.hpp:77] Creating layer rpn_cls_prob_reshape
I0628 17:46:40.023722 28539 net.cpp:106] Creating Layer rpn_cls_prob_reshape
I0628 17:46:40.023726 28539 net.cpp:454] rpn_cls_prob_reshape <- rpn_cls_prob
I0628 17:46:40.023732 28539 net.cpp:411] rpn_cls_prob_reshape -> rpn_cls_prob_reshape
I0628 17:46:40.023775 28539 net.cpp:150] Setting up rpn_cls_prob_reshape
I0628 17:46:40.023788 28539 net.cpp:157] Top shape: 1 18 38 63 (43092)
I0628 17:46:40.023792 28539 net.cpp:165] Memory required for data: 1447241284
I0628 17:46:40.023794 28539 layer_factory.hpp:77] Creating layer proposal
I0628 17:46:40.024739 28539 net.cpp:106] Creating Layer proposal
I0628 17:46:40.024761 28539 net.cpp:454] proposal <- rpn_cls_prob_reshape
I0628 17:46:40.024767 28539 net.cpp:454] proposal <- rpn_bbox_pred_rpn_bbox_pred_0_split_1
I0628 17:46:40.024772 28539 net.cpp:454] proposal <- im_info_input-data_1_split_1
I0628 17:46:40.024777 28539 net.cpp:411] proposal -> rpn_rois
I0628 17:46:40.026103 28539 net.cpp:150] Setting up proposal
I0628 17:46:40.026129 28539 net.cpp:157] Top shape: 1 5 (5)
I0628 17:46:40.026134 28539 net.cpp:165] Memory required for data: 1447241304
I0628 17:46:40.026137 28539 layer_factory.hpp:77] Creating layer roi-data
I0628 17:46:40.026321 28539 net.cpp:106] Creating Layer roi-data
I0628 17:46:40.026340 28539 net.cpp:454] roi-data <- rpn_rois
I0628 17:46:40.026346 28539 net.cpp:454] roi-data <- gt_boxes_input-data_2_split_1
I0628 17:46:40.026351 28539 net.cpp:411] roi-data -> rois
I0628 17:46:40.026358 28539 net.cpp:411] roi-data -> labels
I0628 17:46:40.026365 28539 net.cpp:411] roi-data -> bbox_targets
I0628 17:46:40.026381 28539 net.cpp:411] roi-data -> bbox_inside_weights
I0628 17:46:40.026386 28539 net.cpp:411] roi-data -> bbox_outside_weights
I0628 17:46:40.026857 28539 net.cpp:150] Setting up roi-data
I0628 17:46:40.026878 28539 net.cpp:157] Top shape: 1 5 (5)
I0628 17:46:40.026883 28539 net.cpp:157] Top shape: 1 1 (1)
I0628 17:46:40.026886 28539 net.cpp:157] Top shape: 1 84 (84)
I0628 17:46:40.026890 28539 net.cpp:157] Top shape: 1 84 (84)
I0628 17:46:40.026893 28539 net.cpp:157] Top shape: 1 84 (84)
I0628 17:46:40.026896 28539 net.cpp:165] Memory required for data: 1447242336
I0628 17:46:40.026901 28539 layer_factory.hpp:77] Creating layer roi_pool5
I0628 17:46:40.026913 28539 net.cpp:106] Creating Layer roi_pool5
I0628 17:46:40.026928 28539 net.cpp:454] roi_pool5 <- newP4_newP4_0_split_1
I0628 17:46:40.026933 28539 net.cpp:454] roi_pool5 <- rois
I0628 17:46:40.026938 28539 net.cpp:411] roi_pool5 -> rcnn_pool5
I0628 17:46:40.026947 28539 roi_pooling_layer.cpp:30] Spatial scale: 0.25
I0628 17:46:40.027029 28539 net.cpp:150] Setting up roi_pool5
I0628 17:46:40.027040 28539 net.cpp:157] Top shape: 1 256 7 7 (12544)
I0628 17:46:40.027043 28539 net.cpp:165] Memory required for data: 1447292512
I0628 17:46:40.027047 28539 layer_factory.hpp:77] Creating layer rcnn_fc6
I0628 17:46:40.027060 28539 net.cpp:106] Creating Layer rcnn_fc6
I0628 17:46:40.027063 28539 net.cpp:454] rcnn_fc6 <- rcnn_pool5
I0628 17:46:40.027070 28539 net.cpp:411] rcnn_fc6 -> rcnn_fc6
I0628 17:46:40.358274 28539 net.cpp:150] Setting up rcnn_fc6
I0628 17:46:40.358335 28539 net.cpp:157] Top shape: 1 4096 (4096)
I0628 17:46:40.358340 28539 net.cpp:165] Memory required for data: 1447308896
I0628 17:46:40.358353 28539 layer_factory.hpp:77] Creating layer relu6
I0628 17:46:40.358366 28539 net.cpp:106] Creating Layer relu6
I0628 17:46:40.358372 28539 net.cpp:454] relu6 <- rcnn_fc6
I0628 17:46:40.358382 28539 net.cpp:397] relu6 -> rcnn_fc6 (in-place)
I0628 17:46:40.359529 28539 net.cpp:150] Setting up relu6
I0628 17:46:40.359553 28539 net.cpp:157] Top shape: 1 4096 (4096)
I0628 17:46:40.359557 28539 net.cpp:165] Memory required for data: 1447325280
I0628 17:46:40.359560 28539 layer_factory.hpp:77] Creating layer drop6
I0628 17:46:40.359580 28539 net.cpp:106] Creating Layer drop6
I0628 17:46:40.359601 28539 net.cpp:454] drop6 <- rcnn_fc6
I0628 17:46:40.359606 28539 net.cpp:397] drop6 -> rcnn_fc6 (in-place)
I0628 17:46:40.359664 28539 net.cpp:150] Setting up drop6
I0628 17:46:40.359679 28539 net.cpp:157] Top shape: 1 4096 (4096)
I0628 17:46:40.359683 28539 net.cpp:165] Memory required for data: 1447341664
I0628 17:46:40.359686 28539 layer_factory.hpp:77] Creating layer fc7
I0628 17:46:40.359706 28539 net.cpp:106] Creating Layer fc7
I0628 17:46:40.359717 28539 net.cpp:454] fc7 <- rcnn_fc6
I0628 17:46:40.359724 28539 net.cpp:411] fc7 -> fc7
I0628 17:46:40.468068 28539 net.cpp:150] Setting up fc7
I0628 17:46:40.468127 28539 net.cpp:157] Top shape: 1 4096 (4096)
I0628 17:46:40.468132 28539 net.cpp:165] Memory required for data: 1447358048
I0628 17:46:40.468147 28539 layer_factory.hpp:77] Creating layer relu7
I0628 17:46:40.468160 28539 net.cpp:106] Creating Layer relu7
I0628 17:46:40.468166 28539 net.cpp:454] relu7 <- fc7
I0628 17:46:40.468178 28539 net.cpp:397] relu7 -> fc7 (in-place)
I0628 17:46:40.468472 28539 net.cpp:150] Setting up relu7
I0628 17:46:40.468479 28539 net.cpp:157] Top shape: 1 4096 (4096)
I0628 17:46:40.468483 28539 net.cpp:165] Memory required for data: 1447374432
I0628 17:46:40.468487 28539 layer_factory.hpp:77] Creating layer drop7
I0628 17:46:40.468493 28539 net.cpp:106] Creating Layer drop7
I0628 17:46:40.468497 28539 net.cpp:454] drop7 <- fc7
I0628 17:46:40.468502 28539 net.cpp:397] drop7 -> fc7 (in-place)
I0628 17:46:40.468551 28539 net.cpp:150] Setting up drop7
I0628 17:46:40.468557 28539 net.cpp:157] Top shape: 1 4096 (4096)
I0628 17:46:40.468560 28539 net.cpp:165] Memory required for data: 1447390816
I0628 17:46:40.468564 28539 layer_factory.hpp:77] Creating layer fc7_drop7_0_split
I0628 17:46:40.468569 28539 net.cpp:106] Creating Layer fc7_drop7_0_split
I0628 17:46:40.468572 28539 net.cpp:454] fc7_drop7_0_split <- fc7
I0628 17:46:40.468578 28539 net.cpp:411] fc7_drop7_0_split -> fc7_drop7_0_split_0
I0628 17:46:40.468585 28539 net.cpp:411] fc7_drop7_0_split -> fc7_drop7_0_split_1
I0628 17:46:40.468659 28539 net.cpp:150] Setting up fc7_drop7_0_split
I0628 17:46:40.468665 28539 net.cpp:157] Top shape: 1 4096 (4096)
I0628 17:46:40.468669 28539 net.cpp:157] Top shape: 1 4096 (4096)
I0628 17:46:40.468672 28539 net.cpp:165] Memory required for data: 1447423584
I0628 17:46:40.468675 28539 layer_factory.hpp:77] Creating layer cls_score
I0628 17:46:40.468684 28539 net.cpp:106] Creating Layer cls_score
I0628 17:46:40.468688 28539 net.cpp:454] cls_score <- fc7_drop7_0_split_0
I0628 17:46:40.468693 28539 net.cpp:411] cls_score -> cls_score
I0628 17:46:40.470964 28539 net.cpp:150] Setting up cls_score
I0628 17:46:40.470983 28539 net.cpp:157] Top shape: 1 21 (21)
I0628 17:46:40.470986 28539 net.cpp:165] Memory required for data: 1447423668
I0628 17:46:40.470993 28539 layer_factory.hpp:77] Creating layer bbox_pred
I0628 17:46:40.470999 28539 net.cpp:106] Creating Layer bbox_pred
I0628 17:46:40.471004 28539 net.cpp:454] bbox_pred <- fc7_drop7_0_split_1
I0628 17:46:40.471009 28539 net.cpp:411] bbox_pred -> bbox_pred
I0628 17:46:40.480201 28539 net.cpp:150] Setting up bbox_pred
I0628 17:46:40.480223 28539 net.cpp:157] Top shape: 1 84 (84)
I0628 17:46:40.480227 28539 net.cpp:165] Memory required for data: 1447424004
I0628 17:46:40.480233 28539 layer_factory.hpp:77] Creating layer loss_cls
I0628 17:46:40.480242 28539 net.cpp:106] Creating Layer loss_cls
I0628 17:46:40.480245 28539 net.cpp:454] loss_cls <- cls_score
I0628 17:46:40.480252 28539 net.cpp:454] loss_cls <- labels
I0628 17:46:40.480255 28539 net.cpp:411] loss_cls -> loss_cls
…
