…
stepsize: 50000
snapshot: 0
snapshot_prefix: "fpn"
average_loss: 100
iter_size: 2
I0727 15:51:14.080224 27549 solver.cpp:81] Creating training net from train_net file: models/pascal_voc/VGG16/FP_Net_end2end/train.prototxt
I0727 15:51:14.081679 27549 net.cpp:49] Initializing net from parameters: 
name: "VGG_ILSVRC_16_layers"
state {
  phase: TRAIN
}
layer {
  name: "input-data"
  type: "Python"
  top: "data"
  top: "im_info"
  top: "gt_boxes"
  python_param {
    module: "roi_data_layer.layer"
    layer: "RoIDataLayer"
    param_str: "\'num_classes\': 21"
  }
}
layer {
  name: "conv1_1"
  type: "Convolution"
  bottom: "data"
  top: "conv1_1"
  param {
    lr_mult: 0
    decay_mult: 0
  }
  param {
    lr_mult: 0
    decay_mult: 0
  }
  convolution_param {
    num_output: 64
    pad: 1
    kernel_size: 3
  }
}
layer {
  name: "relu1_1"
  type: "ReLU"
  bottom: "conv1_1"
  top: "conv1_1"
}
layer {
  name: "conv1_2"
  type: "Convolution"
  bottom: "conv1_1"
  top: "conv1_2"
  param {
    lr_mult: 0
    decay_mult: 0
  }
  param {
    lr_mult: 0
    decay_mult: 0
  }
  convolution_param {
    num_output: 64
    pad: 1
    kernel_size: 3
  }
}
layer {
  name: "relu1_2"
  type: "ReLU"
  bottom: "conv1_2"
  top: "conv1_2"
}
layer {
  name: "pool1"
  type: "Pooling"
  bottom: "conv1_2"
  top: "pool1"
  pooling_param {
    pool: MAX
    kernel_size: 2
    stride: 2
  }
}
layer {
  name: "conv2_1"
  type: "Convolution"
  bottom: "pool1"
  top: "conv2_1"
  param {
    lr_mult: 0
    decay_mult: 0
  }
  param {
    lr_mult: 0
    decay_mult: 0
  }
  convolution_param {
    num_output: 128
    pad: 1
    kernel_size: 3
  }
}
layer {
  name: "relu2_1"
  type: "ReLU"
  bottom: "conv2_1"
  top: "conv2_1"
}
layer {
  name: "conv2_2"
  type: "Convolution"
  bottom: "conv2_1"
  top: "conv2_2"
  param {
    lr_mult: 0
    decay_mult: 0
  }
  param {
    lr_mult: 0
    decay_mult: 0
  }
  convolution_param {
    num_output: 128
    pad: 1
    kernel_size: 3
  }
}
layer {
  name: "relu2_2"
  type: "ReLU"
  bottom: "conv2_2"
  top: "conv2_2"
}
layer {
  name: "pool2"
  type: "Pooling"
  bottom: "conv2_2"
  top: "pool2"
  pooling_param {
    pool: MAX
    kernel_size: 2
    stride: 2
  }
}
layer {
  name: "conv3_1"
  type: "Convolution"
  bottom: "pool2"
  top: "conv3_1"
  param {
    lr_mult: 1
  }
  param {
    lr_mult: 2
  }
  convolution_param {
    num_output: 256
    pad: 1
    kernel_size: 3
  }
}
layer {
  name: "relu3_1"
  type: "ReLU"
  bottom: "conv3_1"
  top: "conv3_1"
}
layer {
  name: "conv3_2"
  type: "Convolution"
  bottom: "conv3_1"
  top: "conv3_2"
  param {
    lr_mult: 1
  }
  param {
    lr_mult: 2
  }
  convolution_param {
    num_output: 256
    pad: 1
    kernel_size: 3
  }
}
layer {
  name: "relu3_2"
  type: "ReLU"
  bottom: "conv3_2"
  top: "conv3_2"
}
layer {
  name: "conv3_3"
  type: "Convolution"
  bottom: "conv3_2"
  top: "conv3_3"
  param {
    lr_mult: 1
  }
  param {
    lr_mult: 2
  }
  convolution_param {
    num_output: 256
    pad: 1
    kernel_size: 3
  }
}
layer {
  name: "relu3_3"
  type: "ReLU"
  bottom: "conv3_3"
  top: "conv3_3"
}
layer {
  name: "pool3"
  type: "Pooling"
  bottom: "conv3_3"
  top: "pool3"
  pooling_param {
    pool: MAX
    kernel_size: 2
    stride: 2
  }
}
layer {
  name: "conv4_1"
  type: "Convolution"
  bottom: "pool3"
  top: "conv4_1"
  param {
    lr_mult: 1
  }
  param {
    lr_mult: 2
  }
  convolution_param {
    num_output: 512
    pad: 1
    kernel_size: 3
  }
}
layer {
  name: "relu4_1"
  type: "ReLU"
  bottom: "conv4_1"
  top: "conv4_1"
}
layer {
  name: "conv4_2"
  type: "Convolution"
  bottom: "conv4_1"
  top: "conv4_2"
  param {
    lr_mult: 1
  }
  param {
    lr_mult: 2
  }
  convolution_param {
    num_output: 512
    pad: 1
    kernel_size: 3
  }
}
layer {
  name: "relu4_2"
  type: "ReLU"
  bottom: "conv4_2"
  top: "conv4_2"
}
layer {
  name: "conv4_3"
  type: "Convolution"
  bottom: "conv4_2"
  top: "conv4_3"
  param {
    lr_mult: 1
  }
  param {
    lr_mult: 2
  }
  convolution_param {
    num_output: 512
    pad: 1
    kernel_size: 3
  }
}
layer {
  name: "relu4_3"
  type: "ReLU"
  bottom: "conv4_3"
  top: "conv4_3"
}
layer {
  name: "pool4"
  type: "Pooling"
  bottom: "conv4_3"
  top: "pool4"
  pooling_param {
    pool: MAX
    kernel_size: 2
    stride: 2
  }
}
layer {
  name: "conv5_1"
  type: "Convolution"
  bottom: "pool4"
  top: "conv5_1"
  param {
    lr_mult: 1
  }
  param {
    lr_mult: 2
  }
  convolution_param {
    num_output: 512
    pad: 1
    kernel_size: 3
  }
}
layer {
  name: "relu5_1"
  type: "ReLU"
  bottom: "conv5_1"
  top: "conv5_1"
}
layer {
  name: "conv5_2"
  type: "Convolution"
  bottom: "conv5_1"
  top: "conv5_2"
  param {
    lr_mult: 1
  }
  param {
    lr_mult: 2
  }
  convolution_param {
    num_output: 512
    pad: 1
    kernel_size: 3
  }
}
layer {
  name: "relu5_2"
  type: "ReLU"
  bottom: "conv5_2"
  top: "conv5_2"
}
layer {
  name: "conv5_3"
  type: "Convolution"
  bottom: "conv5_2"
  top: "conv5_3"
  param {
    lr_mult: 1
  }
  param {
    lr_mult: 2
  }
  convolution_param {
    num_output: 512
    pad: 1
    kernel_size: 3
  }
}
layer {
  name: "relu5_3"
  type: "ReLU"
  bottom: "conv5_3"
  top: "conv5_3"
}
layer {
  name: "rpn_conv/3x3"
  type: "Convolution"
  bottom: "conv5_3"
  top: "rpn/output"
  param {
    lr_mult: 1
  }
  param {
    lr_mult: 2
  }
  convolution_param {
    num_output: 512
    pad: 1
    kernel_size: 3
    stride: 1
    weight_filler {
      type: "gaussian"
      std: 0.01
    }
    bias_filler {
      type: "constant"
      value: 0
    }
  }
}
layer {
  name: "rpn_relu/3x3"
  type: "ReLU"
  bottom: "rpn/output"
  top: "rpn/output"
}
layer {
  name: "rpn_cls_score"
  type: "Convolution"
  bottom: "rpn/output"
  top: "rpn_cls_score"
  param {
    lr_mult: 1
  }
  param {
    lr_mult: 2
  }
  convolution_param {
    num_output: 36
    pad: 0
    kernel_size: 1
    stride: 1
    weight_filler {
      type: "gaussian"
      std: 0.01
    }
    bias_filler {
      type: "constant"
      value: 0
    }
  }
}
layer {
  name: "rpn_bbox_pred"
  type: "Convolution"
  bottom: "rpn/output"
  top: "rpn_bbox_pred"
  param {
    lr_mult: 1
  }
  param {
    lr_mult: 2
  }
  convolution_param {
    num_output: 72
    pad: 0
    kernel_size: 1
    stride: 1
    weight_filler {
      type: "gaussian"
      std: 0.01
    }
    bias_filler {
      type: "constant"
      value: 0
    }
  }
}
layer {
  name: "rpn_cls_score_reshape"
  type: "Reshape"
  bottom: "rpn_cls_score"
  top: "rpn_cls_score_reshape"
  reshape_param {
    shape {
      dim: 0
      dim: 2
      dim: -1
      dim: 0
    }
  }
}
layer {
  name: "rpn-data"
  type: "Python"
  bottom: "rpn_cls_score"
  bottom: "gt_boxes"
  bottom: "im_info"
  bottom: "data"
  top: "rpn_labels"
  top: "rpn_bbox_targets"
  top: "rpn_bbox_inside_weights"
  top: "rpn_bbox_outside_weights"
  python_param {
    module: "rpn.anchor_target_layer"
    layer: "AnchorTargetLayer"
    param_str: "\'feat_stride\': 16"
  }
}
layer {
  name: "rpn_loss_cls"
  type: "SoftmaxWithLoss"
  bottom: "rpn_cls_score_reshape"
  bottom: "rpn_labels"
  top: "rpn_cls_loss"
  loss_weight: 1
  propagate_down: true
  propagate_down: false
  loss_param {
    ignore_label: -1
    normalize: true
  }
}
layer {
  name: "rpn_loss_bbox"
  type: "SmoothL1Loss"
  bottom: "rpn_bbox_pred"
  bottom: "rpn_bbox_targets"
  bottom: "rpn_bbox_inside_weights"
  bottom: "rpn_bbox_outside_weights"
  top: "rpn_loss_bbox"
  loss_weight: 1
  smooth_l1_loss_param {
    sigma: 3
  }
}
layer {
  name: "rpn_cls_prob"
  type: "Softmax"
  bottom: "rpn_cls_score_reshape"
  top: "rpn_cls_prob"
}
layer {
  name: "rpn_cls_prob_reshape"
  type: "Reshape"
  bottom: "rpn_cls_prob"
  top: "rpn_cls_prob_reshape"
  reshape_param {
    shape {
      dim: 0
      dim: 36
      dim: -1
      dim: 0
    }
  }
}
layer {
  name: "proposal"
  type: "Python"
  bottom: "rpn_cls_prob_reshape"
  bottom: "rpn_bbox_pred"
  bottom: "im_info"
  top: "rpn_rois"
  python_param {
    module: "rpn.proposal_layer"
    layer: "ProposalLayer"
    param_str: "\'feat_stride\': 16"
  }
}
layer {
  name: "roi-data"
  type: "Python"
  bottom: "rpn_rois"
  bottom: "gt_boxes"
  top: "rois"
  top: "labels"
  top: "bbox_targets"
  top: "bbox_inside_weights"
  top: "bbox_outside_weights"
  python_param {
    module: "rpn.proposal_target_layer"
    layer: "ProposalTargetLayer"
    param_str: "\'num_classes\': 21"
  }
}
layer {
  name: "roi_pool5_readonly"
  type: "ROIPooling"
  bottom: "conv5_3"
  bottom: "rois"
  top: "pool5_readonly"
  propagate_down: false
  propagate_down: false
  roi_pooling_param {
    pooled_h: 7
    pooled_w: 7
    spatial_scale: 0.0625
  }
}
layer {
  name: "fc6_readonly"
  type: "InnerProduct"
  bottom: "pool5_readonly"
  top: "fc6_readonly"
  param {
    name: "fc6_w"
  }
  param {
    name: "fc6_b"
  }
  propagate_down: false
  inner_product_param {
    num_output: 4096
  }
}
layer {
  name: "relu6_readonly"
  type: "ReLU"
  bottom: "fc6_readonly"
  top: "fc6_readonly"
  propagate_down: false
}
layer {
  name: "drop6_readonly"
  type: "Dropout"
  bottom: "fc6_readonly"
  top: "fc6_readonly"
  propagate_down: false
  dropout_param {
    dropout_ratio: 0.5
  }
}
layer {
  name: "fc7_readonly"
  type: "InnerProduct"
  bottom: "fc6_readonly"
  top: "fc7_readonly"
  param {
    name: "fc7_w"
  }
  param {
    name: "fc7_b"
  }
  propagate_down: false
  inner_product_param {
    num_output: 4096
  }
}
layer {
  name: "relu7_readonly"
  type: "ReLU"
  bottom: "fc7_readonly"
  top: "fc7_readonly"
  propagate_down: false
}
layer {
  name: "drop7_readonly"
  type: "Dropout"
  bottom: "fc7_readonly"
  top: "fc7_readonly"
  propagate_down: false
  dropout_param {
    dropout_ratio: 0.5
  }
}
layer {
  name: "cls_score_readonly"
  type: "InnerProduct"
  bottom: "fc7_readonly"
  top: "cls_score_readonly"
  param {
    name: "cls_score_w"
  }
  param {
    name: "cls_score_b"
  }
  propagate_down: false
  inner_product_param {
    num_output: 21
    weight_filler {
      type: "gaussian"
      std: 0.01
    }
    bias_filler {
      type: "constant"
      value: 0
    }
  }
}
layer {
  name: "bbox_pred_readonly"
  type: "InnerProduct"
  bottom: "fc7_readonly"
  top: "bbox_pred_readonly"
  param {
    name: "bbox_pred_w"
  }
  param {
    name: "bbox_pred_b"
  }
  propagate_down: false
  inner_product_param {
    num_output: 84
    weight_filler {
      type: "gaussian"
      std: 0.001
    }
    bias_filler {
      type: "constant"
      value: 0
    }
  }
}
layer {
  name: "cls_prob_readonly"
  type: "Softmax"
  bottom: "cls_score_readonly"
  top: "cls_prob_readonly"
  propagate_down: false
}
layer {
  name: "hard_roi_mining"
  type: "Python"
  bottom: "cls_prob_readonly"
  bottom: "bbox_pred_readonly"
  bottom: "rois"
  bottom: "labels"
  bottom: "bbox_targets"
  bottom: "bbox_inside_weights"
  bottom: "bbox_outside_weights"
  top: "rois_hard"
  top: "labels_hard"
  top: "bbox_targets_hard"
  top: "bbox_inside_weights_hard"
  top: "bbox_outside_weights_hard"
  propagate_down: false
  propagate_down: false
  propagate_down: false
  propagate_down: false
  propagate_down: false
  propagate_down: false
  propagate_down: false
  python_param {
    module: "roi_data_layer.layer"
    layer: "OHEMDataLayer"
    param_str: "\'num_classes\': 21"
  }
}
layer {
  name: "roi_pool5"
  type: "ROIPooling"
  bottom: "conv5_3"
  bottom: "rois_hard"
  top: "pool5"
  roi_pooling_param {
    pooled_h: 7
    pooled_w: 7
    spatial_scale: 0.0625
  }
}
layer {
  name: "fc6"
  type: "InnerProduct"
  bottom: "pool5"
  top: "fc6"
  param {
    name: "fc6_w"
    lr_mult: 1
  }
  param {
    name: "fc6_b"
    lr_mult: 2
  }
  inner_product_param {
    num_output: 4096
  }
}
layer {
  name: "relu6"
  type: "ReLU"
  bottom: "fc6"
  top: "fc6"
}
layer {
  name: "drop6"
  type: "Dropout"
  bottom: "fc6"
  top: "fc6"
  dropout_param {
    dropout_ratio: 0.5
  }
}
layer {
  name: "fc7"
  type: "InnerProduct"
  bottom: "fc6"
  top: "fc7"
  param {
    name: "fc7_w"
    lr_mult: 1
  }
  param {
    name: "fc7_b"
    lr_mult: 2
  }
  inner_product_param {
    num_output: 4096
  }
}
layer {
  name: "relu7"
  type: "ReLU"
  bottom: "fc7"
  top: "fc7"
}
layer {
  name: "drop7"
  type: "Dropout"
  bottom: "fc7"
  top: "fc7"
  dropout_param {
    dropout_ratio: 0.5
  }
}
layer {
  name: "cls_score"
  type: "InnerProduct"
  bottom: "fc7"
  top: "cls_score"
  param {
    name: "cls_score_w"
    lr_mult: 1
  }
  param {
    name: "cls_score_b"
    lr_mult: 2
  }
  inner_product_param {
    num_output: 21
    weight_filler {
      type: "gaussian"
      std: 0.01
    }
    bias_filler {
      type: "constant"
      value: 0
    }
  }
}
layer {
  name: "bbox_pred"
  type: "InnerProduct"
  bottom: "fc7"
  top: "bbox_pred"
  param {
    name: "bbox_pred_w"
    lr_mult: 1
  }
  param {
    name: "bbox_pred_b"
    lr_mult: 2
  }
  inner_product_param {
    num_output: 84
    weight_filler {
      type: "gaussian"
      std: 0.001
    }
    bias_filler {
      type: "constant"
      value: 0
    }
  }
}
layer {
  name: "loss_cls"
  type: "SoftmaxWithLoss"
  bottom: "cls_score"
  bottom: "labels_hard"
  top: "loss_cls"
  loss_weight: 1
  propagate_down: true
  propagate_down: false
}
layer {
  name: "loss_bbox"
  type: "SmoothL1Loss"
  bottom: "bbox_pred"
  bottom: "bbox_targets_hard"
  bottom: "bbox_inside_weights_hard"
  bottom: "bbox_outside_weights_hard"
  top: "loss_bbox"
  loss_weight: 1
}
I0727 15:51:14.082029 27549 layer_factory.hpp:77] Creating layer input-data
I0727 15:51:14.087810 27549 net.cpp:106] Creating Layer input-data
I0727 15:51:14.087826 27549 net.cpp:411] input-data -> data
I0727 15:51:14.087843 27549 net.cpp:411] input-data -> im_info
I0727 15:51:14.087849 27549 net.cpp:411] input-data -> gt_boxes
RoiDataLayer: name_to_top: {'gt_boxes': 2, 'data': 0, 'im_info': 1}
I0727 15:51:14.134310 27549 net.cpp:150] Setting up input-data
I0727 15:51:14.134342 27549 net.cpp:157] Top shape: 1 3 375 520 (585000)
I0727 15:51:14.134347 27549 net.cpp:157] Top shape: 1 3 (3)
I0727 15:51:14.134351 27549 net.cpp:157] Top shape: 1 4 (4)
I0727 15:51:14.134354 27549 net.cpp:165] Memory required for data: 2340028
I0727 15:51:14.134361 27549 layer_factory.hpp:77] Creating layer data_input-data_0_split
I0727 15:51:14.134373 27549 net.cpp:106] Creating Layer data_input-data_0_split
I0727 15:51:14.134380 27549 net.cpp:454] data_input-data_0_split <- data
I0727 15:51:14.134390 27549 net.cpp:411] data_input-data_0_split -> data_input-data_0_split_0
I0727 15:51:14.134397 27549 net.cpp:411] data_input-data_0_split -> data_input-data_0_split_1
I0727 15:51:14.134454 27549 net.cpp:150] Setting up data_input-data_0_split
I0727 15:51:14.134465 27549 net.cpp:157] Top shape: 1 3 375 520 (585000)
I0727 15:51:14.134469 27549 net.cpp:157] Top shape: 1 3 375 520 (585000)
I0727 15:51:14.134472 27549 net.cpp:165] Memory required for data: 7020028
I0727 15:51:14.134475 27549 layer_factory.hpp:77] Creating layer im_info_input-data_1_split
I0727 15:51:14.134480 27549 net.cpp:106] Creating Layer im_info_input-data_1_split
I0727 15:51:14.134483 27549 net.cpp:454] im_info_input-data_1_split <- im_info
I0727 15:51:14.134490 27549 net.cpp:411] im_info_input-data_1_split -> im_info_input-data_1_split_0
I0727 15:51:14.134495 27549 net.cpp:411] im_info_input-data_1_split -> im_info_input-data_1_split_1
I0727 15:51:14.134522 27549 net.cpp:150] Setting up im_info_input-data_1_split
I0727 15:51:14.134531 27549 net.cpp:157] Top shape: 1 3 (3)
I0727 15:51:14.134536 27549 net.cpp:157] Top shape: 1 3 (3)
I0727 15:51:14.134538 27549 net.cpp:165] Memory required for data: 7020052
I0727 15:51:14.134541 27549 layer_factory.hpp:77] Creating layer gt_boxes_input-data_2_split
I0727 15:51:14.134547 27549 net.cpp:106] Creating Layer gt_boxes_input-data_2_split
I0727 15:51:14.134551 27549 net.cpp:454] gt_boxes_input-data_2_split <- gt_boxes
I0727 15:51:14.134557 27549 net.cpp:411] gt_boxes_input-data_2_split -> gt_boxes_input-data_2_split_0
I0727 15:51:14.134560 27549 net.cpp:411] gt_boxes_input-data_2_split -> gt_boxes_input-data_2_split_1
I0727 15:51:14.134588 27549 net.cpp:150] Setting up gt_boxes_input-data_2_split
I0727 15:51:14.134598 27549 net.cpp:157] Top shape: 1 4 (4)
I0727 15:51:14.134606 27549 net.cpp:157] Top shape: 1 4 (4)
I0727 15:51:14.134608 27549 net.cpp:165] Memory required for data: 7020084
I0727 15:51:14.134611 27549 layer_factory.hpp:77] Creating layer conv1_1
I0727 15:51:14.134625 27549 net.cpp:106] Creating Layer conv1_1
I0727 15:51:14.134640 27549 net.cpp:454] conv1_1 <- data_input-data_0_split_0
I0727 15:51:14.134649 27549 net.cpp:411] conv1_1 -> conv1_1
I0727 15:51:14.484374 27549 net.cpp:150] Setting up conv1_1
I0727 15:51:14.484419 27549 net.cpp:157] Top shape: 1 64 375 520 (12480000)
I0727 15:51:14.484423 27549 net.cpp:165] Memory required for data: 56940084
I0727 15:51:14.484447 27549 layer_factory.hpp:77] Creating layer relu1_1
I0727 15:51:14.484462 27549 net.cpp:106] Creating Layer relu1_1
I0727 15:51:14.484474 27549 net.cpp:454] relu1_1 <- conv1_1
I0727 15:51:14.484482 27549 net.cpp:397] relu1_1 -> conv1_1 (in-place)
I0727 15:51:14.485381 27549 net.cpp:150] Setting up relu1_1
I0727 15:51:14.485402 27549 net.cpp:157] Top shape: 1 64 375 520 (12480000)
I0727 15:51:14.485406 27549 net.cpp:165] Memory required for data: 106860084
I0727 15:51:14.485409 27549 layer_factory.hpp:77] Creating layer conv1_2
I0727 15:51:14.485421 27549 net.cpp:106] Creating Layer conv1_2
I0727 15:51:14.485430 27549 net.cpp:454] conv1_2 <- conv1_1
I0727 15:51:14.485435 27549 net.cpp:411] conv1_2 -> conv1_2
I0727 15:51:14.490121 27549 net.cpp:150] Setting up conv1_2
I0727 15:51:14.490145 27549 net.cpp:157] Top shape: 1 64 375 520 (12480000)
I0727 15:51:14.490149 27549 net.cpp:165] Memory required for data: 156780084
I0727 15:51:14.490159 27549 layer_factory.hpp:77] Creating layer relu1_2
I0727 15:51:14.490165 27549 net.cpp:106] Creating Layer relu1_2
I0727 15:51:14.490170 27549 net.cpp:454] relu1_2 <- conv1_2
I0727 15:51:14.490175 27549 net.cpp:397] relu1_2 -> conv1_2 (in-place)
I0727 15:51:14.490337 27549 net.cpp:150] Setting up relu1_2
I0727 15:51:14.490353 27549 net.cpp:157] Top shape: 1 64 375 520 (12480000)
I0727 15:51:14.490356 27549 net.cpp:165] Memory required for data: 206700084
I0727 15:51:14.490360 27549 layer_factory.hpp:77] Creating layer pool1
I0727 15:51:14.490372 27549 net.cpp:106] Creating Layer pool1
I0727 15:51:14.490376 27549 net.cpp:454] pool1 <- conv1_2
I0727 15:51:14.490381 27549 net.cpp:411] pool1 -> pool1
I0727 15:51:14.490432 27549 net.cpp:150] Setting up pool1
I0727 15:51:14.490443 27549 net.cpp:157] Top shape: 1 64 188 260 (3128320)
I0727 15:51:14.490447 27549 net.cpp:165] Memory required for data: 219213364
I0727 15:51:14.490449 27549 layer_factory.hpp:77] Creating layer conv2_1
I0727 15:51:14.490456 27549 net.cpp:106] Creating Layer conv2_1
I0727 15:51:14.490459 27549 net.cpp:454] conv2_1 <- pool1
I0727 15:51:14.490464 27549 net.cpp:411] conv2_1 -> conv2_1
I0727 15:51:14.494175 27549 net.cpp:150] Setting up conv2_1
I0727 15:51:14.494199 27549 net.cpp:157] Top shape: 1 128 188 260 (6256640)
I0727 15:51:14.494204 27549 net.cpp:165] Memory required for data: 244239924
I0727 15:51:14.494212 27549 layer_factory.hpp:77] Creating layer relu2_1
I0727 15:51:14.494218 27549 net.cpp:106] Creating Layer relu2_1
I0727 15:51:14.494227 27549 net.cpp:454] relu2_1 <- conv2_1
I0727 15:51:14.494233 27549 net.cpp:397] relu2_1 -> conv2_1 (in-place)
I0727 15:51:14.494560 27549 net.cpp:150] Setting up relu2_1
I0727 15:51:14.494575 27549 net.cpp:157] Top shape: 1 128 188 260 (6256640)
I0727 15:51:14.494578 27549 net.cpp:165] Memory required for data: 269266484
I0727 15:51:14.494581 27549 layer_factory.hpp:77] Creating layer conv2_2
I0727 15:51:14.494590 27549 net.cpp:106] Creating Layer conv2_2
I0727 15:51:14.494592 27549 net.cpp:454] conv2_2 <- conv2_1
I0727 15:51:14.494597 27549 net.cpp:411] conv2_2 -> conv2_2
I0727 15:51:14.499441 27549 net.cpp:150] Setting up conv2_2
I0727 15:51:14.499462 27549 net.cpp:157] Top shape: 1 128 188 260 (6256640)
I0727 15:51:14.499466 27549 net.cpp:165] Memory required for data: 294293044
I0727 15:51:14.499474 27549 layer_factory.hpp:77] Creating layer relu2_2
I0727 15:51:14.499480 27549 net.cpp:106] Creating Layer relu2_2
I0727 15:51:14.499483 27549 net.cpp:454] relu2_2 <- conv2_2
I0727 15:51:14.499488 27549 net.cpp:397] relu2_2 -> conv2_2 (in-place)
I0727 15:51:14.500370 27549 net.cpp:150] Setting up relu2_2
I0727 15:51:14.500391 27549 net.cpp:157] Top shape: 1 128 188 260 (6256640)
I0727 15:51:14.500393 27549 net.cpp:165] Memory required for data: 319319604
I0727 15:51:14.500397 27549 layer_factory.hpp:77] Creating layer pool2
I0727 15:51:14.500406 27549 net.cpp:106] Creating Layer pool2
I0727 15:51:14.500409 27549 net.cpp:454] pool2 <- conv2_2
I0727 15:51:14.500414 27549 net.cpp:411] pool2 -> pool2
I0727 15:51:14.500458 27549 net.cpp:150] Setting up pool2
I0727 15:51:14.500470 27549 net.cpp:157] Top shape: 1 128 94 130 (1564160)
I0727 15:51:14.500473 27549 net.cpp:165] Memory required for data: 325576244
I0727 15:51:14.500476 27549 layer_factory.hpp:77] Creating layer conv3_1
I0727 15:51:14.500485 27549 net.cpp:106] Creating Layer conv3_1
I0727 15:51:14.500488 27549 net.cpp:454] conv3_1 <- pool2
I0727 15:51:14.500495 27549 net.cpp:411] conv3_1 -> conv3_1
I0727 15:51:14.505609 27549 net.cpp:150] Setting up conv3_1
I0727 15:51:14.505635 27549 net.cpp:157] Top shape: 1 256 94 130 (3128320)
I0727 15:51:14.505640 27549 net.cpp:165] Memory required for data: 338089524
I0727 15:51:14.505650 27549 layer_factory.hpp:77] Creating layer relu3_1
I0727 15:51:14.505662 27549 net.cpp:106] Creating Layer relu3_1
I0727 15:51:14.505671 27549 net.cpp:454] relu3_1 <- conv3_1
I0727 15:51:14.505676 27549 net.cpp:397] relu3_1 -> conv3_1 (in-place)
I0727 15:51:14.505862 27549 net.cpp:150] Setting up relu3_1
I0727 15:51:14.505877 27549 net.cpp:157] Top shape: 1 256 94 130 (3128320)
I0727 15:51:14.505880 27549 net.cpp:165] Memory required for data: 350602804
I0727 15:51:14.505884 27549 layer_factory.hpp:77] Creating layer conv3_2
I0727 15:51:14.505894 27549 net.cpp:106] Creating Layer conv3_2
I0727 15:51:14.505898 27549 net.cpp:454] conv3_2 <- conv3_1
I0727 15:51:14.505905 27549 net.cpp:411] conv3_2 -> conv3_2
I0727 15:51:14.511538 27549 net.cpp:150] Setting up conv3_2
I0727 15:51:14.511562 27549 net.cpp:157] Top shape: 1 256 94 130 (3128320)
I0727 15:51:14.511566 27549 net.cpp:165] Memory required for data: 363116084
I0727 15:51:14.511574 27549 layer_factory.hpp:77] Creating layer relu3_2
I0727 15:51:14.511579 27549 net.cpp:106] Creating Layer relu3_2
I0727 15:51:14.511582 27549 net.cpp:454] relu3_2 <- conv3_2
I0727 15:51:14.511590 27549 net.cpp:397] relu3_2 -> conv3_2 (in-place)
I0727 15:51:14.511903 27549 net.cpp:150] Setting up relu3_2
I0727 15:51:14.511917 27549 net.cpp:157] Top shape: 1 256 94 130 (3128320)
I0727 15:51:14.511920 27549 net.cpp:165] Memory required for data: 375629364
I0727 15:51:14.511924 27549 layer_factory.hpp:77] Creating layer conv3_3
I0727 15:51:14.511934 27549 net.cpp:106] Creating Layer conv3_3
I0727 15:51:14.511936 27549 net.cpp:454] conv3_3 <- conv3_2
I0727 15:51:14.511943 27549 net.cpp:411] conv3_3 -> conv3_3
I0727 15:51:14.517784 27549 net.cpp:150] Setting up conv3_3
I0727 15:51:14.517808 27549 net.cpp:157] Top shape: 1 256 94 130 (3128320)
I0727 15:51:14.517812 27549 net.cpp:165] Memory required for data: 388142644
I0727 15:51:14.517819 27549 layer_factory.hpp:77] Creating layer relu3_3
I0727 15:51:14.517827 27549 net.cpp:106] Creating Layer relu3_3
I0727 15:51:14.517829 27549 net.cpp:454] relu3_3 <- conv3_3
I0727 15:51:14.517834 27549 net.cpp:397] relu3_3 -> conv3_3 (in-place)
I0727 15:51:14.518718 27549 net.cpp:150] Setting up relu3_3
I0727 15:51:14.518738 27549 net.cpp:157] Top shape: 1 256 94 130 (3128320)
I0727 15:51:14.518741 27549 net.cpp:165] Memory required for data: 400655924
I0727 15:51:14.518744 27549 layer_factory.hpp:77] Creating layer pool3
I0727 15:51:14.518752 27549 net.cpp:106] Creating Layer pool3
I0727 15:51:14.518756 27549 net.cpp:454] pool3 <- conv3_3
I0727 15:51:14.518782 27549 net.cpp:411] pool3 -> pool3
I0727 15:51:14.518834 27549 net.cpp:150] Setting up pool3
I0727 15:51:14.518846 27549 net.cpp:157] Top shape: 1 256 47 65 (782080)
I0727 15:51:14.518849 27549 net.cpp:165] Memory required for data: 403784244
I0727 15:51:14.518852 27549 layer_factory.hpp:77] Creating layer conv4_1
I0727 15:51:14.518860 27549 net.cpp:106] Creating Layer conv4_1
I0727 15:51:14.518863 27549 net.cpp:454] conv4_1 <- pool3
I0727 15:51:14.518870 27549 net.cpp:411] conv4_1 -> conv4_1
I0727 15:51:14.526407 27549 net.cpp:150] Setting up conv4_1
I0727 15:51:14.526430 27549 net.cpp:157] Top shape: 1 512 47 65 (1564160)
I0727 15:51:14.526434 27549 net.cpp:165] Memory required for data: 410040884
I0727 15:51:14.526440 27549 layer_factory.hpp:77] Creating layer relu4_1
I0727 15:51:14.526448 27549 net.cpp:106] Creating Layer relu4_1
I0727 15:51:14.526450 27549 net.cpp:454] relu4_1 <- conv4_1
I0727 15:51:14.526458 27549 net.cpp:397] relu4_1 -> conv4_1 (in-place)
I0727 15:51:14.527479 27549 net.cpp:150] Setting up relu4_1
I0727 15:51:14.527500 27549 net.cpp:157] Top shape: 1 512 47 65 (1564160)
I0727 15:51:14.527503 27549 net.cpp:165] Memory required for data: 416297524
I0727 15:51:14.527508 27549 layer_factory.hpp:77] Creating layer conv4_2
I0727 15:51:14.527518 27549 net.cpp:106] Creating Layer conv4_2
I0727 15:51:14.527520 27549 net.cpp:454] conv4_2 <- conv4_1
I0727 15:51:14.527526 27549 net.cpp:411] conv4_2 -> conv4_2
I0727 15:51:14.537644 27549 net.cpp:150] Setting up conv4_2
I0727 15:51:14.537668 27549 net.cpp:157] Top shape: 1 512 47 65 (1564160)
I0727 15:51:14.537672 27549 net.cpp:165] Memory required for data: 422554164
I0727 15:51:14.537684 27549 layer_factory.hpp:77] Creating layer relu4_2
I0727 15:51:14.537693 27549 net.cpp:106] Creating Layer relu4_2
I0727 15:51:14.537703 27549 net.cpp:454] relu4_2 <- conv4_2
I0727 15:51:14.537708 27549 net.cpp:397] relu4_2 -> conv4_2 (in-place)
I0727 15:51:14.538681 27549 net.cpp:150] Setting up relu4_2
I0727 15:51:14.538696 27549 net.cpp:157] Top shape: 1 512 47 65 (1564160)
I0727 15:51:14.538699 27549 net.cpp:165] Memory required for data: 428810804
I0727 15:51:14.538702 27549 layer_factory.hpp:77] Creating layer conv4_3
I0727 15:51:14.538712 27549 net.cpp:106] Creating Layer conv4_3
I0727 15:51:14.538715 27549 net.cpp:454] conv4_3 <- conv4_2
I0727 15:51:14.538720 27549 net.cpp:411] conv4_3 -> conv4_3
I0727 15:51:14.547468 27549 net.cpp:150] Setting up conv4_3
I0727 15:51:14.547492 27549 net.cpp:157] Top shape: 1 512 47 65 (1564160)
I0727 15:51:14.547497 27549 net.cpp:165] Memory required for data: 435067444
I0727 15:51:14.547502 27549 layer_factory.hpp:77] Creating layer relu4_3
I0727 15:51:14.547509 27549 net.cpp:106] Creating Layer relu4_3
I0727 15:51:14.547513 27549 net.cpp:454] relu4_3 <- conv4_3
I0727 15:51:14.547520 27549 net.cpp:397] relu4_3 -> conv4_3 (in-place)
I0727 15:51:14.548421 27549 net.cpp:150] Setting up relu4_3
I0727 15:51:14.548440 27549 net.cpp:157] Top shape: 1 512 47 65 (1564160)
I0727 15:51:14.548444 27549 net.cpp:165] Memory required for data: 441324084
I0727 15:51:14.548449 27549 layer_factory.hpp:77] Creating layer pool4
I0727 15:51:14.548456 27549 net.cpp:106] Creating Layer pool4
I0727 15:51:14.548460 27549 net.cpp:454] pool4 <- conv4_3
I0727 15:51:14.548465 27549 net.cpp:411] pool4 -> pool4
I0727 15:51:14.548516 27549 net.cpp:150] Setting up pool4
I0727 15:51:14.548527 27549 net.cpp:157] Top shape: 1 512 24 33 (405504)
I0727 15:51:14.548529 27549 net.cpp:165] Memory required for data: 442946100
I0727 15:51:14.548532 27549 layer_factory.hpp:77] Creating layer conv5_1
I0727 15:51:14.548542 27549 net.cpp:106] Creating Layer conv5_1
I0727 15:51:14.548545 27549 net.cpp:454] conv5_1 <- pool4
I0727 15:51:14.548552 27549 net.cpp:411] conv5_1 -> conv5_1
I0727 15:51:14.557719 27549 net.cpp:150] Setting up conv5_1
I0727 15:51:14.557744 27549 net.cpp:157] Top shape: 1 512 24 33 (405504)
I0727 15:51:14.557749 27549 net.cpp:165] Memory required for data: 444568116
I0727 15:51:14.557756 27549 layer_factory.hpp:77] Creating layer relu5_1
I0727 15:51:14.557762 27549 net.cpp:106] Creating Layer relu5_1
I0727 15:51:14.557766 27549 net.cpp:454] relu5_1 <- conv5_1
I0727 15:51:14.557780 27549 net.cpp:397] relu5_1 -> conv5_1 (in-place)
I0727 15:51:14.558033 27549 net.cpp:150] Setting up relu5_1
I0727 15:51:14.558049 27549 net.cpp:157] Top shape: 1 512 24 33 (405504)
I0727 15:51:14.558053 27549 net.cpp:165] Memory required for data: 446190132
I0727 15:51:14.558058 27549 layer_factory.hpp:77] Creating layer conv5_2
I0727 15:51:14.558066 27549 net.cpp:106] Creating Layer conv5_2
I0727 15:51:14.558070 27549 net.cpp:454] conv5_2 <- conv5_1
I0727 15:51:14.558076 27549 net.cpp:411] conv5_2 -> conv5_2
I0727 15:51:14.568506 27549 net.cpp:150] Setting up conv5_2
I0727 15:51:14.568528 27549 net.cpp:157] Top shape: 1 512 24 33 (405504)
I0727 15:51:14.568532 27549 net.cpp:165] Memory required for data: 447812148
I0727 15:51:14.568539 27549 layer_factory.hpp:77] Creating layer relu5_2
I0727 15:51:14.568547 27549 net.cpp:106] Creating Layer relu5_2
I0727 15:51:14.568552 27549 net.cpp:454] relu5_2 <- conv5_2
I0727 15:51:14.568557 27549 net.cpp:397] relu5_2 -> conv5_2 (in-place)
I0727 15:51:14.569783 27549 net.cpp:150] Setting up relu5_2
I0727 15:51:14.569800 27549 net.cpp:157] Top shape: 1 512 24 33 (405504)
I0727 15:51:14.569806 27549 net.cpp:165] Memory required for data: 449434164
I0727 15:51:14.569809 27549 layer_factory.hpp:77] Creating layer conv5_3
I0727 15:51:14.569825 27549 net.cpp:106] Creating Layer conv5_3
I0727 15:51:14.569830 27549 net.cpp:454] conv5_3 <- conv5_2
I0727 15:51:14.569836 27549 net.cpp:411] conv5_3 -> conv5_3
I0727 15:51:14.577425 27549 net.cpp:150] Setting up conv5_3
I0727 15:51:14.577448 27549 net.cpp:157] Top shape: 1 512 24 33 (405504)
I0727 15:51:14.577452 27549 net.cpp:165] Memory required for data: 451056180
I0727 15:51:14.577460 27549 layer_factory.hpp:77] Creating layer relu5_3
I0727 15:51:14.577468 27549 net.cpp:106] Creating Layer relu5_3
I0727 15:51:14.577472 27549 net.cpp:454] relu5_3 <- conv5_3
I0727 15:51:14.577477 27549 net.cpp:397] relu5_3 -> conv5_3 (in-place)
I0727 15:51:14.578361 27549 net.cpp:150] Setting up relu5_3
I0727 15:51:14.578380 27549 net.cpp:157] Top shape: 1 512 24 33 (405504)
I0727 15:51:14.578384 27549 net.cpp:165] Memory required for data: 452678196
I0727 15:51:14.578388 27549 layer_factory.hpp:77] Creating layer conv5_3_relu5_3_0_split
I0727 15:51:14.578395 27549 net.cpp:106] Creating Layer conv5_3_relu5_3_0_split
I0727 15:51:14.578398 27549 net.cpp:454] conv5_3_relu5_3_0_split <- conv5_3
I0727 15:51:14.578405 27549 net.cpp:411] conv5_3_relu5_3_0_split -> conv5_3_relu5_3_0_split_0
I0727 15:51:14.578411 27549 net.cpp:411] conv5_3_relu5_3_0_split -> conv5_3_relu5_3_0_split_1
I0727 15:51:14.578431 27549 net.cpp:411] conv5_3_relu5_3_0_split -> conv5_3_relu5_3_0_split_2
I0727 15:51:14.578495 27549 net.cpp:150] Setting up conv5_3_relu5_3_0_split
I0727 15:51:14.578506 27549 net.cpp:157] Top shape: 1 512 24 33 (405504)
I0727 15:51:14.578510 27549 net.cpp:157] Top shape: 1 512 24 33 (405504)
I0727 15:51:14.578514 27549 net.cpp:157] Top shape: 1 512 24 33 (405504)
I0727 15:51:14.578516 27549 net.cpp:165] Memory required for data: 457544244
I0727 15:51:14.578519 27549 layer_factory.hpp:77] Creating layer rpn_conv/3x3
I0727 15:51:14.578531 27549 net.cpp:106] Creating Layer rpn_conv/3x3
I0727 15:51:14.578533 27549 net.cpp:454] rpn_conv/3x3 <- conv5_3_relu5_3_0_split_0
I0727 15:51:14.578541 27549 net.cpp:411] rpn_conv/3x3 -> rpn/output
I0727 15:51:14.640650 27549 net.cpp:150] Setting up rpn_conv/3x3
I0727 15:51:14.640692 27549 net.cpp:157] Top shape: 1 512 24 33 (405504)
I0727 15:51:14.640699 27549 net.cpp:165] Memory required for data: 459166260
I0727 15:51:14.640709 27549 layer_factory.hpp:77] Creating layer rpn_relu/3x3
I0727 15:51:14.640719 27549 net.cpp:106] Creating Layer rpn_relu/3x3
I0727 15:51:14.640725 27549 net.cpp:454] rpn_relu/3x3 <- rpn/output
I0727 15:51:14.640732 27549 net.cpp:397] rpn_relu/3x3 -> rpn/output (in-place)
I0727 15:51:14.640915 27549 net.cpp:150] Setting up rpn_relu/3x3
I0727 15:51:14.640933 27549 net.cpp:157] Top shape: 1 512 24 33 (405504)
I0727 15:51:14.640936 27549 net.cpp:165] Memory required for data: 460788276
I0727 15:51:14.640939 27549 layer_factory.hpp:77] Creating layer rpn/output_rpn_relu/3x3_0_split
I0727 15:51:14.640945 27549 net.cpp:106] Creating Layer rpn/output_rpn_relu/3x3_0_split
I0727 15:51:14.640949 27549 net.cpp:454] rpn/output_rpn_relu/3x3_0_split <- rpn/output
I0727 15:51:14.640954 27549 net.cpp:411] rpn/output_rpn_relu/3x3_0_split -> rpn/output_rpn_relu/3x3_0_split_0
I0727 15:51:14.640959 27549 net.cpp:411] rpn/output_rpn_relu/3x3_0_split -> rpn/output_rpn_relu/3x3_0_split_1
I0727 15:51:14.641005 27549 net.cpp:150] Setting up rpn/output_rpn_relu/3x3_0_split
I0727 15:51:14.641016 27549 net.cpp:157] Top shape: 1 512 24 33 (405504)
I0727 15:51:14.641019 27549 net.cpp:157] Top shape: 1 512 24 33 (405504)
I0727 15:51:14.641022 27549 net.cpp:165] Memory required for data: 464032308
I0727 15:51:14.641026 27549 layer_factory.hpp:77] Creating layer rpn_cls_score
I0727 15:51:14.641054 27549 net.cpp:106] Creating Layer rpn_cls_score
I0727 15:51:14.641072 27549 net.cpp:454] rpn_cls_score <- rpn/output_rpn_relu/3x3_0_split_0
I0727 15:51:14.641080 27549 net.cpp:411] rpn_cls_score -> rpn_cls_score
I0727 15:51:14.649718 27549 net.cpp:150] Setting up rpn_cls_score
I0727 15:51:14.649739 27549 net.cpp:157] Top shape: 1 36 24 33 (28512)
I0727 15:51:14.649744 27549 net.cpp:165] Memory required for data: 464146356
I0727 15:51:14.649750 27549 layer_factory.hpp:77] Creating layer rpn_cls_score_rpn_cls_score_0_split
I0727 15:51:14.649758 27549 net.cpp:106] Creating Layer rpn_cls_score_rpn_cls_score_0_split
I0727 15:51:14.649762 27549 net.cpp:454] rpn_cls_score_rpn_cls_score_0_split <- rpn_cls_score
I0727 15:51:14.649768 27549 net.cpp:411] rpn_cls_score_rpn_cls_score_0_split -> rpn_cls_score_rpn_cls_score_0_split_0
I0727 15:51:14.649775 27549 net.cpp:411] rpn_cls_score_rpn_cls_score_0_split -> rpn_cls_score_rpn_cls_score_0_split_1
I0727 15:51:14.649823 27549 net.cpp:150] Setting up rpn_cls_score_rpn_cls_score_0_split
I0727 15:51:14.649834 27549 net.cpp:157] Top shape: 1 36 24 33 (28512)
I0727 15:51:14.649838 27549 net.cpp:157] Top shape: 1 36 24 33 (28512)
I0727 15:51:14.649842 27549 net.cpp:165] Memory required for data: 464374452
I0727 15:51:14.649844 27549 layer_factory.hpp:77] Creating layer rpn_bbox_pred
I0727 15:51:14.649854 27549 net.cpp:106] Creating Layer rpn_bbox_pred
I0727 15:51:14.649858 27549 net.cpp:454] rpn_bbox_pred <- rpn/output_rpn_relu/3x3_0_split_1
I0727 15:51:14.649865 27549 net.cpp:411] rpn_bbox_pred -> rpn_bbox_pred
I0727 15:51:14.652973 27549 net.cpp:150] Setting up rpn_bbox_pred
I0727 15:51:14.652993 27549 net.cpp:157] Top shape: 1 72 24 33 (57024)
I0727 15:51:14.652997 27549 net.cpp:165] Memory required for data: 464602548
I0727 15:51:14.653004 27549 layer_factory.hpp:77] Creating layer rpn_bbox_pred_rpn_bbox_pred_0_split
I0727 15:51:14.653012 27549 net.cpp:106] Creating Layer rpn_bbox_pred_rpn_bbox_pred_0_split
I0727 15:51:14.653017 27549 net.cpp:454] rpn_bbox_pred_rpn_bbox_pred_0_split <- rpn_bbox_pred
I0727 15:51:14.653022 27549 net.cpp:411] rpn_bbox_pred_rpn_bbox_pred_0_split -> rpn_bbox_pred_rpn_bbox_pred_0_split_0
I0727 15:51:14.653028 27549 net.cpp:411] rpn_bbox_pred_rpn_bbox_pred_0_split -> rpn_bbox_pred_rpn_bbox_pred_0_split_1
I0727 15:51:14.653086 27549 net.cpp:150] Setting up rpn_bbox_pred_rpn_bbox_pred_0_split
I0727 15:51:14.653098 27549 net.cpp:157] Top shape: 1 72 24 33 (57024)
I0727 15:51:14.653102 27549 net.cpp:157] Top shape: 1 72 24 33 (57024)
I0727 15:51:14.653105 27549 net.cpp:165] Memory required for data: 465058740
I0727 15:51:14.653108 27549 layer_factory.hpp:77] Creating layer rpn_cls_score_reshape
I0727 15:51:14.653118 27549 net.cpp:106] Creating Layer rpn_cls_score_reshape
I0727 15:51:14.653122 27549 net.cpp:454] rpn_cls_score_reshape <- rpn_cls_score_rpn_cls_score_0_split_0
I0727 15:51:14.653129 27549 net.cpp:411] rpn_cls_score_reshape -> rpn_cls_score_reshape
I0727 15:51:14.653162 27549 net.cpp:150] Setting up rpn_cls_score_reshape
I0727 15:51:14.653172 27549 net.cpp:157] Top shape: 1 2 432 33 (28512)
I0727 15:51:14.653174 27549 net.cpp:165] Memory required for data: 465172788
I0727 15:51:14.653177 27549 layer_factory.hpp:77] Creating layer rpn_cls_score_reshape_rpn_cls_score_reshape_0_split
I0727 15:51:14.653185 27549 net.cpp:106] Creating Layer rpn_cls_score_reshape_rpn_cls_score_reshape_0_split
I0727 15:51:14.653188 27549 net.cpp:454] rpn_cls_score_reshape_rpn_cls_score_reshape_0_split <- rpn_cls_score_reshape
I0727 15:51:14.653192 27549 net.cpp:411] rpn_cls_score_reshape_rpn_cls_score_reshape_0_split -> rpn_cls_score_reshape_rpn_cls_score_reshape_0_split_0
I0727 15:51:14.653198 27549 net.cpp:411] rpn_cls_score_reshape_rpn_cls_score_reshape_0_split -> rpn_cls_score_reshape_rpn_cls_score_reshape_0_split_1
I0727 15:51:14.653235 27549 net.cpp:150] Setting up rpn_cls_score_reshape_rpn_cls_score_reshape_0_split
I0727 15:51:14.653244 27549 net.cpp:157] Top shape: 1 2 432 33 (28512)
I0727 15:51:14.653249 27549 net.cpp:157] Top shape: 1 2 432 33 (28512)
I0727 15:51:14.653250 27549 net.cpp:165] Memory required for data: 465400884
I0727 15:51:14.653254 27549 layer_factory.hpp:77] Creating layer rpn-data
I0727 15:51:14.653911 27549 net.cpp:106] Creating Layer rpn-data
I0727 15:51:14.653930 27549 net.cpp:454] rpn-data <- rpn_cls_score_rpn_cls_score_0_split_1
I0727 15:51:14.653937 27549 net.cpp:454] rpn-data <- gt_boxes_input-data_2_split_0
I0727 15:51:14.653941 27549 net.cpp:454] rpn-data <- im_info_input-data_1_split_0
I0727 15:51:14.653945 27549 net.cpp:454] rpn-data <- data_input-data_0_split_1
I0727 15:51:14.653951 27549 net.cpp:411] rpn-data -> rpn_labels
I0727 15:51:14.653957 27549 net.cpp:411] rpn-data -> rpn_bbox_targets
I0727 15:51:14.653970 27549 net.cpp:411] rpn-data -> rpn_bbox_inside_weights
I0727 15:51:14.653975 27549 net.cpp:411] rpn-data -> rpn_bbox_outside_weights
I0727 15:51:14.658920 27549 net.cpp:150] Setting up rpn-data
I0727 15:51:14.658942 27549 net.cpp:157] Top shape: 1 1 432 33 (14256)
I0727 15:51:14.658947 27549 net.cpp:157] Top shape: 1 72 24 33 (57024)
I0727 15:51:14.658951 27549 net.cpp:157] Top shape: 1 72 24 33 (57024)
I0727 15:51:14.658954 27549 net.cpp:157] Top shape: 1 72 24 33 (57024)
I0727 15:51:14.658957 27549 net.cpp:165] Memory required for data: 466142196
I0727 15:51:14.658962 27549 layer_factory.hpp:77] Creating layer rpn_loss_cls
I0727 15:51:14.658973 27549 net.cpp:106] Creating Layer rpn_loss_cls
I0727 15:51:14.658978 27549 net.cpp:454] rpn_loss_cls <- rpn_cls_score_reshape_rpn_cls_score_reshape_0_split_0
I0727 15:51:14.658983 27549 net.cpp:454] rpn_loss_cls <- rpn_labels
…
I0727 15:51:14.660487 27549 net.cpp:157] Top shape: (1)
I0727 15:51:14.660491 27549 net.cpp:160]     with loss weight 1
I0727 15:51:14.660497 27549 net.cpp:165] Memory required for data: 466142204
I0727 15:51:14.660501 27549 layer_factory.hpp:77] Creating layer rpn_cls_prob
I0727 15:51:14.660506 27549 net.cpp:106] Creating Layer rpn_cls_prob
I0727 15:51:14.660511 27549 net.cpp:454] rpn_cls_prob <- rpn_cls_score_reshape_rpn_cls_score_reshape_0_split_1
I0727 15:51:14.660516 27549 net.cpp:411] rpn_cls_prob -> rpn_cls_prob
I0727 15:51:14.661494 27549 net.cpp:150] Setting up rpn_cls_prob
I0727 15:51:14.661514 27549 net.cpp:157] Top shape: 1 2 432 33 (28512)
I0727 15:51:14.661517 27549 net.cpp:165] Memory required for data: 466256252
I0727 15:51:14.661520 27549 layer_factory.hpp:77] Creating layer rpn_cls_prob_reshape
I0727 15:51:14.661530 27549 net.cpp:106] Creating Layer rpn_cls_prob_reshape
I0727 15:51:14.661533 27549 net.cpp:454] rpn_cls_prob_reshape <- rpn_cls_prob
I0727 15:51:14.661538 27549 net.cpp:411] rpn_cls_prob_reshape -> rpn_cls_prob_reshape
I0727 15:51:14.661571 27549 net.cpp:150] Setting up rpn_cls_prob_reshape
I0727 15:51:14.661581 27549 net.cpp:157] Top shape: 1 36 24 33 (28512)
I0727 15:51:14.661583 27549 net.cpp:165] Memory required for data: 466370300
I0727 15:51:14.661586 27549 layer_factory.hpp:77] Creating layer proposal
I0727 15:51:14.661763 27549 net.cpp:106] Creating Layer proposal
I0727 15:51:14.661779 27549 net.cpp:454] proposal <- rpn_cls_prob_reshape
I0727 15:51:14.661785 27549 net.cpp:454] proposal <- rpn_bbox_pred_rpn_bbox_pred_0_split_1
I0727 15:51:14.661789 27549 net.cpp:454] proposal <- im_info_input-data_1_split_1
I0727 15:51:14.661794 27549 net.cpp:411] proposal -> rpn_rois
I0727 15:51:14.662379 27549 net.cpp:150] Setting up proposal
I0727 15:51:14.662401 27549 net.cpp:157] Top shape: 1 5 (5)
I0727 15:51:14.662405 27549 net.cpp:165] Memory required for data: 466370320
I0727 15:51:14.662408 27549 layer_factory.hpp:77] Creating layer roi-data
I0727 15:51:14.662585 27549 net.cpp:106] Creating Layer roi-data
I0727 15:51:14.662601 27549 net.cpp:454] roi-data <- rpn_rois
I0727 15:51:14.662607 27549 net.cpp:454] roi-data <- gt_boxes_input-data_2_split_1
I0727 15:51:14.662613 27549 net.cpp:411] roi-data -> rois
I0727 15:51:14.662619 27549 net.cpp:411] roi-data -> labels
I0727 15:51:14.662626 27549 net.cpp:411] roi-data -> bbox_targets
I0727 15:51:14.662631 27549 net.cpp:411] roi-data -> bbox_inside_weights
I0727 15:51:14.662636 27549 net.cpp:411] roi-data -> bbox_outside_weights
I0727 15:51:14.663040 27549 net.cpp:150] Setting up roi-data
I0727 15:51:14.663060 27549 net.cpp:157] Top shape: 1 5 (5)
I0727 15:51:14.663064 27549 net.cpp:157] Top shape: 1 1 (1)
I0727 15:51:14.663067 27549 net.cpp:157] Top shape: 1 84 (84)
I0727 15:51:14.663071 27549 net.cpp:157] Top shape: 1 84 (84)
I0727 15:51:14.663074 27549 net.cpp:157] Top shape: 1 84 (84)
I0727 15:51:14.663077 27549 net.cpp:165] Memory required for data: 466371352
I0727 15:51:14.663080 27549 layer_factory.hpp:77] Creating layer rois_roi-data_0_split
I0727 15:51:14.663086 27549 net.cpp:106] Creating Layer rois_roi-data_0_split
I0727 15:51:14.663090 27549 net.cpp:454] rois_roi-data_0_split <- rois
I0727 15:51:14.663095 27549 net.cpp:411] rois_roi-data_0_split -> rois_roi-data_0_split_0
I0727 15:51:14.663101 27549 net.cpp:411] rois_roi-data_0_split -> rois_roi-data_0_split_1
I0727 15:51:14.663141 27549 net.cpp:150] Setting up rois_roi-data_0_split
I0727 15:51:14.663151 27549 net.cpp:157] Top shape: 1 5 (5)
I0727 15:51:14.663156 27549 net.cpp:157] Top shape: 1 5 (5)
I0727 15:51:14.663157 27549 net.cpp:165] Memory required for data: 466371392
I0727 15:51:14.663161 27549 layer_factory.hpp:77] Creating layer roi_pool5_readonly
I0727 15:51:14.663170 27549 net.cpp:106] Creating Layer roi_pool5_readonly
I0727 15:51:14.663173 27549 net.cpp:454] roi_pool5_readonly <- conv5_3_relu5_3_0_split_1
I0727 15:51:14.663178 27549 net.cpp:454] roi_pool5_readonly <- rois_roi-data_0_split_0
I0727 15:51:14.663185 27549 net.cpp:411] roi_pool5_readonly -> pool5_readonly
I0727 15:51:14.663195 27549 roi_pooling_layer.cpp:30] Spatial scale: 0.0625
I0727 15:51:14.663244 27549 net.cpp:150] Setting up roi_pool5_readonly
I0727 15:51:14.663254 27549 net.cpp:157] Top shape: 1 512 7 7 (25088)
I0727 15:51:14.663256 27549 net.cpp:165] Memory required for data: 466471744
I0727 15:51:14.663259 27549 layer_factory.hpp:77] Creating layer fc6_readonly
I0727 15:51:14.663271 27549 net.cpp:106] Creating Layer fc6_readonly
I0727 15:51:14.663275 27549 net.cpp:454] fc6_readonly <- pool5_readonly
I0727 15:51:14.663281 27549 net.cpp:411] fc6_readonly -> fc6_readonly
I0727 15:51:14.945924 27549 net.cpp:150] Setting up fc6_readonly
I0727 15:51:14.945983 27549 net.cpp:157] Top shape: 1 4096 (4096)
I0727 15:51:14.945987 27549 net.cpp:165] Memory required for data: 466488128
I0727 15:51:14.946013 27549 layer_factory.hpp:77] Creating layer relu6_readonly
I0727 15:51:14.946028 27549 net.cpp:106] Creating Layer relu6_readonly
I0727 15:51:14.946034 27549 net.cpp:454] relu6_readonly <- fc6_readonly
I0727 15:51:14.946041 27549 net.cpp:397] relu6_readonly -> fc6_readonly (in-place)
I0727 15:51:14.946316 27549 net.cpp:150] Setting up relu6_readonly
I0727 15:51:14.946331 27549 net.cpp:157] Top shape: 1 4096 (4096)
I0727 15:51:14.946336 27549 net.cpp:165] Memory required for data: 466504512
I0727 15:51:14.946341 27549 layer_factory.hpp:77] Creating layer drop6_readonly
I0727 15:51:14.946355 27549 net.cpp:106] Creating Layer drop6_readonly
I0727 15:51:14.946358 27549 net.cpp:454] drop6_readonly <- fc6_readonly
I0727 15:51:14.946363 27549 net.cpp:397] drop6_readonly -> fc6_readonly (in-place)
I0727 15:51:14.946411 27549 net.cpp:150] Setting up drop6_readonly
I0727 15:51:14.946418 27549 net.cpp:157] Top shape: 1 4096 (4096)
I0727 15:51:14.946419 27549 net.cpp:165] Memory required for data: 466520896
I0727 15:51:14.946422 27549 layer_factory.hpp:77] Creating layer fc7_readonly
I0727 15:51:14.946432 27549 net.cpp:106] Creating Layer fc7_readonly
I0727 15:51:14.946435 27549 net.cpp:454] fc7_readonly <- fc6_readonly
I0727 15:51:14.946439 27549 net.cpp:411] fc7_readonly -> fc7_readonly
I0727 15:51:14.995182 27549 net.cpp:150] Setting up fc7_readonly
I0727 15:51:14.995241 27549 net.cpp:157] Top shape: 1 4096 (4096)
I0727 15:51:14.995245 27549 net.cpp:165] Memory required for data: 466537280
I0727 15:51:14.995260 27549 layer_factory.hpp:77] Creating layer relu7_readonly
I0727 15:51:14.995273 27549 net.cpp:106] Creating Layer relu7_readonly
I0727 15:51:14.995278 27549 net.cpp:454] relu7_readonly <- fc7_readonly
I0727 15:51:14.995290 27549 net.cpp:397] relu7_readonly -> fc7_readonly (in-place)
I0727 15:51:14.996426 27549 net.cpp:150] Setting up relu7_readonly
I0727 15:51:14.996448 27549 net.cpp:157] Top shape: 1 4096 (4096)
I0727 15:51:14.996451 27549 net.cpp:165] Memory required for data: 466553664
I0727 15:51:14.996455 27549 layer_factory.hpp:77] Creating layer drop7_readonly
I0727 15:51:14.996465 27549 net.cpp:106] Creating Layer drop7_readonly
I0727 15:51:14.996469 27549 net.cpp:454] drop7_readonly <- fc7_readonly
I0727 15:51:14.996474 27549 net.cpp:397] drop7_readonly -> fc7_readonly (in-place)
I0727 15:51:14.996510 27549 net.cpp:150] Setting up drop7_readonly
I0727 15:51:14.996515 27549 net.cpp:157] Top shape: 1 4096 (4096)
I0727 15:51:14.996517 27549 net.cpp:165] Memory required for data: 466570048
I0727 15:51:14.996520 27549 layer_factory.hpp:77] Creating layer fc7_readonly_drop7_readonly_0_split
I0727 15:51:14.996528 27549 net.cpp:106] Creating Layer fc7_readonly_drop7_readonly_0_split
I0727 15:51:14.996531 27549 net.cpp:454] fc7_readonly_drop7_readonly_0_split <- fc7_readonly
I0727 15:51:14.996537 27549 net.cpp:411] fc7_readonly_drop7_readonly_0_split -> fc7_readonly_drop7_readonly_0_split_0
I0727 15:51:14.996542 27549 net.cpp:411] fc7_readonly_drop7_readonly_0_split -> fc7_readonly_drop7_readonly_0_split_1
I0727 15:51:14.996587 27549 net.cpp:150] Setting up fc7_readonly_drop7_readonly_0_split
I0727 15:51:14.996593 27549 net.cpp:157] Top shape: 1 4096 (4096)
I0727 15:51:14.996596 27549 net.cpp:157] Top shape: 1 4096 (4096)
I0727 15:51:14.996599 27549 net.cpp:165] Memory required for data: 466602816
I0727 15:51:14.996603 27549 layer_factory.hpp:77] Creating layer cls_score_readonly
I0727 15:51:14.996613 27549 net.cpp:106] Creating Layer cls_score_readonly
I0727 15:51:14.996615 27549 net.cpp:454] cls_score_readonly <- fc7_readonly_drop7_readonly_0_split_0
I0727 15:51:14.996623 27549 net.cpp:411] cls_score_readonly -> cls_score_readonly
I0727 15:51:14.999428 27549 net.cpp:150] Setting up cls_score_readonly
I0727 15:51:14.999449 27549 net.cpp:157] Top shape: 1 21 (21)
I0727 15:51:14.999452 27549 net.cpp:165] Memory required for data: 466602900
I0727 15:51:14.999459 27549 layer_factory.hpp:77] Creating layer bbox_pred_readonly
I0727 15:51:14.999469 27549 net.cpp:106] Creating Layer bbox_pred_readonly
I0727 15:51:14.999472 27549 net.cpp:454] bbox_pred_readonly <- fc7_readonly_drop7_readonly_0_split_1
I0727 15:51:14.999478 27549 net.cpp:411] bbox_pred_readonly -> bbox_pred_readonly
I0727 15:51:15.008435 27549 net.cpp:150] Setting up bbox_pred_readonly
I0727 15:51:15.008455 27549 net.cpp:157] Top shape: 1 84 (84)
I0727 15:51:15.008460 27549 net.cpp:165] Memory required for data: 466603236
I0727 15:51:15.008464 27549 layer_factory.hpp:77] Creating layer cls_prob_readonly
I0727 15:51:15.008471 27549 net.cpp:106] Creating Layer cls_prob_readonly
I0727 15:51:15.008476 27549 net.cpp:454] cls_prob_readonly <- cls_score_readonly
I0727 15:51:15.008481 27549 net.cpp:411] cls_prob_readonly -> cls_prob_readonly
I0727 15:51:15.008745 27549 net.cpp:150] Setting up cls_prob_readonly
I0727 15:51:15.008765 27549 net.cpp:157] Top shape: 1 21 (21)
I0727 15:51:15.008769 27549 net.cpp:165] Memory required for data: 466603320
I0727 15:51:15.008772 27549 layer_factory.hpp:77] Creating layer hard_roi_mining
I0727 15:51:15.008839 27549 net.cpp:106] Creating Layer hard_roi_mining
I0727 15:51:15.008846 27549 net.cpp:454] hard_roi_mining <- cls_prob_readonly
I0727 15:51:15.008850 27549 net.cpp:454] hard_roi_mining <- bbox_pred_readonly
I0727 15:51:15.008854 27549 net.cpp:454] hard_roi_mining <- rois_roi-data_0_split_1
I0727 15:51:15.008858 27549 net.cpp:454] hard_roi_mining <- labels
I0727 15:51:15.008862 27549 net.cpp:454] hard_roi_mining <- bbox_targets
I0727 15:51:15.008865 27549 net.cpp:454] hard_roi_mining <- bbox_inside_weights
I0727 15:51:15.008869 27549 net.cpp:454] hard_roi_mining <- bbox_outside_weights
I0727 15:51:15.008874 27549 net.cpp:411] hard_roi_mining -> rois_hard
I0727 15:51:15.008880 27549 net.cpp:411] hard_roi_mining -> labels_hard
I0727 15:51:15.008886 27549 net.cpp:411] hard_roi_mining -> bbox_targets_hard
I0727 15:51:15.008891 27549 net.cpp:411] hard_roi_mining -> bbox_inside_weights_hard
I0727 15:51:15.008898 27549 net.cpp:411] hard_roi_mining -> bbox_outside_weights_hard
OHEMDataLayer: name_to_top: {'bbox_outside_weights_hard': 4, 'bbox_inside_weights_hard': 3, 'labels_hard': 1, 'rois_hard': 0, 'bbox_targets_hard': 2}
I0727 15:51:15.009533 27549 net.cpp:150] Setting up hard_roi_mining
I0727 15:51:15.009543 27549 net.cpp:157] Top shape: 1 5 (5)
I0727 15:51:15.009547 27549 net.cpp:157] Top shape: 1 (1)
I0727 15:51:15.009552 27549 net.cpp:157] Top shape: 1 84 (84)
I0727 15:51:15.009554 27549 net.cpp:157] Top shape: 1 84 (84)
I0727 15:51:15.009557 27549 net.cpp:157] Top shape: 1 84 (84)
I0727 15:51:15.009559 27549 net.cpp:165] Memory required for data: 466604352
I0727 15:51:15.009563 27549 layer_factory.hpp:77] Creating layer roi_pool5
I0727 15:51:15.009582 27549 net.cpp:106] Creating Layer roi_pool5
I0727 15:51:15.009585 27549 net.cpp:454] roi_pool5 <- conv5_3_relu5_3_0_split_2
I0727 15:51:15.009590 27549 net.cpp:454] roi_pool5 <- rois_hard
I0727 15:51:15.009598 27549 net.cpp:411] roi_pool5 -> pool5
I0727 15:51:15.009605 27549 roi_pooling_layer.cpp:30] Spatial scale: 0.0625
I0727 15:51:15.009660 27549 net.cpp:150] Setting up roi_pool5
I0727 15:51:15.009665 27549 net.cpp:157] Top shape: 1 512 7 7 (25088)
I0727 15:51:15.009668 27549 net.cpp:165] Memory required for data: 466704704
I0727 15:51:15.009671 27549 layer_factory.hpp:77] Creating layer fc6
I0727 15:51:15.009680 27549 net.cpp:106] Creating Layer fc6
I0727 15:51:15.009682 27549 net.cpp:454] fc6 <- pool5
I0727 15:51:15.009687 27549 net.cpp:411] fc6 -> fc6
I0727 15:51:15.284242 27549 net.cpp:150] Setting up fc6
I0727 15:51:15.284301 27549 net.cpp:157] Top shape: 1 4096 (4096)
I0727 15:51:15.284304 27549 net.cpp:165] Memory required for data: 466721088
I0727 15:51:15.284313 27549 net.cpp:514] Sharing parameters 'fc6_w' owned by layer 'fc6_readonly', param index 0
I0727 15:51:15.284319 27549 net.cpp:514] Sharing parameters 'fc6_b' owned by layer 'fc6_readonly', param index 1
I0727 15:51:15.284324 27549 layer_factory.hpp:77] Creating layer relu6
I0727 15:51:15.284337 27549 net.cpp:106] Creating Layer relu6
I0727 15:51:15.284342 27549 net.cpp:454] relu6 <- fc6
I0727 15:51:15.284351 27549 net.cpp:397] relu6 -> fc6 (in-place)
I0727 15:51:15.285512 27549 net.cpp:150] Setting up relu6
I0727 15:51:15.285532 27549 net.cpp:157] Top shape: 1 4096 (4096)
I0727 15:51:15.285537 27549 net.cpp:165] Memory required for data: 466737472
I0727 15:51:15.285540 27549 layer_factory.hpp:77] Creating layer drop6
I0727 15:51:15.285547 27549 net.cpp:106] Creating Layer drop6
I0727 15:51:15.285550 27549 net.cpp:454] drop6 <- fc6
I0727 15:51:15.285555 27549 net.cpp:397] drop6 -> fc6 (in-place)
I0727 15:51:15.285593 27549 net.cpp:150] Setting up drop6
I0727 15:51:15.285599 27549 net.cpp:157] Top shape: 1 4096 (4096)
I0727 15:51:15.285603 27549 net.cpp:165] Memory required for data: 466753856
I0727 15:51:15.285605 27549 layer_factory.hpp:77] Creating layer fc7
I0727 15:51:15.285615 27549 net.cpp:106] Creating Layer fc7
I0727 15:51:15.285619 27549 net.cpp:454] fc7 <- fc6
I0727 15:51:15.285622 27549 net.cpp:411] fc7 -> fc7
I0727 15:51:15.332278 27549 net.cpp:150] Setting up fc7
I0727 15:51:15.332330 27549 net.cpp:157] Top shape: 1 4096 (4096)
I0727 15:51:15.332336 27549 net.cpp:165] Memory required for data: 466770240
I0727 15:51:15.332345 27549 net.cpp:514] Sharing parameters 'fc7_w' owned by layer 'fc7_readonly', param index 0
I0727 15:51:15.332350 27549 net.cpp:514] Sharing parameters 'fc7_b' owned by layer 'fc7_readonly', param index 1
I0727 15:51:15.332355 27549 layer_factory.hpp:77] Creating layer relu7
I0727 15:51:15.332370 27549 net.cpp:106] Creating Layer relu7
I0727 15:51:15.332376 27549 net.cpp:454] relu7 <- fc7
I0727 15:51:15.332383 27549 net.cpp:397] relu7 -> fc7 (in-place)
I0727 15:51:15.332661 27549 net.cpp:150] Setting up relu7
I0727 15:51:15.332669 27549 net.cpp:157] Top shape: 1 4096 (4096)
I0727 15:51:15.332672 27549 net.cpp:165] Memory required for data: 466786624
I0727 15:51:15.332675 27549 layer_factory.hpp:77] Creating layer drop7
I0727 15:51:15.332686 27549 net.cpp:106] Creating Layer drop7
I0727 15:51:15.332690 27549 net.cpp:454] drop7 <- fc7
I0727 15:51:15.332695 27549 net.cpp:397] drop7 -> fc7 (in-place)
I0727 15:51:15.332728 27549 net.cpp:150] Setting up drop7
I0727 15:51:15.332733 27549 net.cpp:157] Top shape: 1 4096 (4096)
I0727 15:51:15.332736 27549 net.cpp:165] Memory required for data: 466803008
I0727 15:51:15.332738 27549 layer_factory.hpp:77] Creating layer fc7_drop7_0_split
I0727 15:51:15.332744 27549 net.cpp:106] Creating Layer fc7_drop7_0_split
I0727 15:51:15.332746 27549 net.cpp:454] fc7_drop7_0_split <- fc7
I0727 15:51:15.332753 27549 net.cpp:411] fc7_drop7_0_split -> fc7_drop7_0_split_0
I0727 15:51:15.332759 27549 net.cpp:411] fc7_drop7_0_split -> fc7_drop7_0_split_1
I0727 15:51:15.332808 27549 net.cpp:150] Setting up fc7_drop7_0_split
I0727 15:51:15.332813 27549 net.cpp:157] Top shape: 1 4096 (4096)
I0727 15:51:15.332816 27549 net.cpp:157] Top shape: 1 4096 (4096)
I0727 15:51:15.332818 27549 net.cpp:165] Memory required for data: 466835776
I0727 15:51:15.332821 27549 layer_factory.hpp:77] Creating layer cls_score
I0727 15:51:15.332828 27549 net.cpp:106] Creating Layer cls_score
I0727 15:51:15.332834 27549 net.cpp:454] cls_score <- fc7_drop7_0_split_0
I0727 15:51:15.332839 27549 net.cpp:411] cls_score -> cls_score
I0727 15:51:15.335038 27549 net.cpp:150] Setting up cls_score
I0727 15:51:15.335054 27549 net.cpp:157] Top shape: 1 21 (21)
I0727 15:51:15.335058 27549 net.cpp:165] Memory required for data: 466835860
I0727 15:51:15.335062 27549 net.cpp:514] Sharing parameters 'cls_score_w' owned by layer 'cls_score_readonly', param index 0
I0727 15:51:15.335067 27549 net.cpp:514] Sharing parameters 'cls_score_b' owned by layer 'cls_score_readonly', param index 1
I0727 15:51:15.335070 27549 layer_factory.hpp:77] Creating layer bbox_pred
I0727 15:51:15.335078 27549 net.cpp:106] Creating Layer bbox_pred
I0727 15:51:15.335080 27549 net.cpp:454] bbox_pred <- fc7_drop7_0_split_1
I0727 15:51:15.335088 27549 net.cpp:411] bbox_pred -> bbox_pred
I0727 15:51:15.344099 27549 net.cpp:150] Setting up bbox_pred
I0727 15:51:15.344120 27549 net.cpp:157] Top shape: 1 84 (84)
I0727 15:51:15.344123 27549 net.cpp:165] Memory required for data: 466836196
I0727 15:51:15.344127 27549 net.cpp:514] Sharing parameters 'bbox_pred_w' owned by layer 'bbox_pred_readonly', param index 0
I0727 15:51:15.344131 27549 net.cpp:514] Sharing parameters 'bbox_pred_b' owned by layer 'bbox_pred_readonly', param index 1
I0727 15:51:15.344135 27549 layer_factory.hpp:77] Creating layer loss_cls
…
