…
stepsize: 50000
snapshot: 0
snapshot_prefix: "fpn"
average_loss: 100
iter_size: 2
I0628 22:01:09.497751 58648 solver.cpp:81] Creating training net from train_net file: models/pascal_voc/VGG16/FP_Net_end2end/train.prototxt
I0628 22:01:09.499181 58648 net.cpp:49] Initializing net from parameters: 
name: "VGG_ILSVRC_16_layers"
state {
  phase: TRAIN
}
layer {
  name: "input-data"
  type: "Python"
  top: "data"
  top: "im_info"
  top: "gt_boxes"
  python_param {
    module: "roi_data_layer.layer"
    layer: "RoIDataLayer"
    param_str: "\'num_classes\': 21"
  }
}
layer {
  name: "conv1_1"
  type: "Convolution"
  bottom: "data"
  top: "conv1_1"
  param {
    lr_mult: 0
    decay_mult: 0
  }
  param {
    lr_mult: 0
    decay_mult: 0
  }
  convolution_param {
    num_output: 64
    pad: 1
    kernel_size: 3
  }
}
layer {
  name: "relu1_1"
  type: "ReLU"
  bottom: "conv1_1"
  top: "conv1_1"
}
layer {
  name: "conv1_2"
  type: "Convolution"
  bottom: "conv1_1"
  top: "conv1_2"
  param {
    lr_mult: 0
    decay_mult: 0
  }
  param {
    lr_mult: 0
    decay_mult: 0
  }
  convolution_param {
    num_output: 64
    pad: 1
    kernel_size: 3
  }
}
layer {
  name: "relu1_2"
  type: "ReLU"
  bottom: "conv1_2"
  top: "conv1_2"
}
layer {
  name: "pool1"
  type: "Pooling"
  bottom: "conv1_2"
  top: "pool1"
  pooling_param {
    pool: MAX
    kernel_size: 2
    stride: 2
  }
}
layer {
  name: "conv2_1"
  type: "Convolution"
  bottom: "pool1"
  top: "conv2_1"
  param {
    lr_mult: 0
    decay_mult: 0
  }
  param {
    lr_mult: 0
    decay_mult: 0
  }
  convolution_param {
    num_output: 128
    pad: 1
    kernel_size: 3
  }
}
layer {
  name: "relu2_1"
  type: "ReLU"
  bottom: "conv2_1"
  top: "conv2_1"
}
layer {
  name: "conv2_2"
  type: "Convolution"
  bottom: "conv2_1"
  top: "conv2_2"
  param {
    lr_mult: 0
    decay_mult: 0
  }
  param {
    lr_mult: 0
    decay_mult: 0
  }
  convolution_param {
    num_output: 128
    pad: 1
    kernel_size: 3
  }
}
layer {
  name: "relu2_2"
  type: "ReLU"
  bottom: "conv2_2"
  top: "conv2_2"
}
layer {
  name: "pool2"
  type: "Pooling"
  bottom: "conv2_2"
  top: "pool2"
  pooling_param {
    pool: MAX
    kernel_size: 2
    stride: 2
  }
}
layer {
  name: "conv3_1"
  type: "Convolution"
  bottom: "pool2"
  top: "conv3_1"
  param {
    lr_mult: 1
  }
  param {
    lr_mult: 2
  }
  convolution_param {
    num_output: 256
    pad: 1
    kernel_size: 3
  }
}
layer {
  name: "relu3_1"
  type: "ReLU"
  bottom: "conv3_1"
  top: "conv3_1"
}
layer {
  name: "conv3_2"
  type: "Convolution"
  bottom: "conv3_1"
  top: "conv3_2"
  param {
    lr_mult: 1
  }
  param {
    lr_mult: 2
  }
  convolution_param {
    num_output: 256
    pad: 1
    kernel_size: 3
  }
}
layer {
  name: "relu3_2"
  type: "ReLU"
  bottom: "conv3_2"
  top: "conv3_2"
}
layer {
  name: "conv3_3"
  type: "Convolution"
  bottom: "conv3_2"
  top: "conv3_3"
  param {
    lr_mult: 1
  }
  param {
    lr_mult: 2
  }
  convolution_param {
    num_output: 256
    pad: 1
    kernel_size: 3
  }
}
layer {
  name: "relu3_3"
  type: "ReLU"
  bottom: "conv3_3"
  top: "conv3_3"
}
layer {
  name: "pool3"
  type: "Pooling"
  bottom: "conv3_3"
  top: "pool3"
  pooling_param {
    pool: MAX
    kernel_size: 2
    stride: 2
  }
}
layer {
  name: "conv4_1"
  type: "Convolution"
  bottom: "pool3"
  top: "conv4_1"
  param {
    lr_mult: 1
  }
  param {
    lr_mult: 2
  }
  convolution_param {
    num_output: 512
    pad: 1
    kernel_size: 3
  }
}
layer {
  name: "relu4_1"
  type: "ReLU"
  bottom: "conv4_1"
  top: "conv4_1"
}
layer {
  name: "conv4_2"
  type: "Convolution"
  bottom: "conv4_1"
  top: "conv4_2"
  param {
    lr_mult: 1
  }
  param {
    lr_mult: 2
  }
  convolution_param {
    num_output: 512
    pad: 1
    kernel_size: 3
  }
}
layer {
  name: "relu4_2"
  type: "ReLU"
  bottom: "conv4_2"
  top: "conv4_2"
}
layer {
  name: "conv4_3"
  type: "Convolution"
  bottom: "conv4_2"
  top: "conv4_3"
  param {
    lr_mult: 1
  }
  param {
    lr_mult: 2
  }
  convolution_param {
    num_output: 512
    pad: 1
    kernel_size: 3
  }
}
layer {
  name: "relu4_3"
  type: "ReLU"
  bottom: "conv4_3"
  top: "conv4_3"
}
layer {
  name: "pool4"
  type: "Pooling"
  bottom: "conv4_3"
  top: "pool4"
  pooling_param {
    pool: MAX
    kernel_size: 2
    stride: 2
  }
}
layer {
  name: "conv5_1"
  type: "Convolution"
  bottom: "pool4"
  top: "conv5_1"
  param {
    lr_mult: 1
  }
  param {
    lr_mult: 2
  }
  convolution_param {
    num_output: 512
    pad: 1
    kernel_size: 3
  }
}
layer {
  name: "relu5_1"
  type: "ReLU"
  bottom: "conv5_1"
  top: "conv5_1"
}
layer {
  name: "conv5_2"
  type: "Convolution"
  bottom: "conv5_1"
  top: "conv5_2"
  param {
    lr_mult: 1
  }
  param {
    lr_mult: 2
  }
  convolution_param {
    num_output: 512
    pad: 1
    kernel_size: 3
  }
}
layer {
  name: "relu5_2"
  type: "ReLU"
  bottom: "conv5_2"
  top: "conv5_2"
}
layer {
  name: "conv5_3"
  type: "Convolution"
  bottom: "conv5_2"
  top: "conv5_3"
  param {
    lr_mult: 1
  }
  param {
    lr_mult: 2
  }
  convolution_param {
    num_output: 512
    pad: 1
    kernel_size: 3
  }
}
layer {
  name: "relu5_3"
  type: "ReLU"
  bottom: "conv5_3"
  top: "conv5_3"
}
layer {
  name: "pool5"
  type: "Pooling"
  bottom: "conv5_3"
  top: "pool5"
  pooling_param {
    pool: MAX
    kernel_size: 2
    stride: 2
  }
}
layer {
  name: "P5"
  type: "Convolution"
  bottom: "pool5"
  top: "P5"
  param {
    lr_mult: 1
  }
  param {
    lr_mult: 2
  }
  convolution_param {
    num_output: 256
    kernel_size: 1
    weight_filler {
      type: "xavier"
    }
    bias_filler {
      type: "constant"
    }
  }
}
layer {
  name: "upP5"
  type: "Deconvolution"
  bottom: "P5"
  top: "upP5"
  param {
    lr_mult: 0
    decay_mult: 0
  }
  convolution_param {
    num_output: 256
    bias_term: false
    pad: 1
    kernel_size: 4
    stride: 2
    weight_filler {
      type: "bilinear"
    }
  }
}
layer {
  name: "newC4"
  type: "Convolution"
  bottom: "conv5_3"
  top: "newC4"
  param {
    lr_mult: 1
  }
  param {
    lr_mult: 2
  }
  convolution_param {
    num_output: 256
    kernel_size: 1
    weight_filler {
      type: "xavier"
    }
    bias_filler {
      type: "constant"
    }
  }
}
layer {
  name: "upP5crop"
  type: "Crop"
  bottom: "upP5"
  bottom: "newC4"
  top: "upP5crop"
  crop_param {
    axis: 2
    offset: 0
  }
}
layer {
  name: "P4"
  type: "Eltwise"
  bottom: "newC4"
  bottom: "upP5crop"
  top: "P4"
  eltwise_param {
    operation: SUM
  }
}
layer {
  name: "newP4"
  type: "Convolution"
  bottom: "P4"
  top: "newP4"
  param {
    lr_mult: 1
  }
  param {
    lr_mult: 2
  }
  convolution_param {
    num_output: 256
    pad: 1
    kernel_size: 3
    weight_filler {
      type: "xavier"
    }
    bias_filler {
      type: "constant"
    }
  }
}
layer {
  name: "rpn_conv/3x3"
  type: "Convolution"
  bottom: "newP4"
  top: "rpn/output"
  param {
    lr_mult: 1
  }
  param {
    lr_mult: 2
  }
  convolution_param {
    num_output: 512
    pad: 1
    kernel_size: 3
    stride: 1
    weight_filler {
      type: "gaussian"
      std: 0.01
    }
    bias_filler {
      type: "constant"
      value: 0
    }
  }
}
layer {
  name: "rpn_relu/3x3"
  type: "ReLU"
  bottom: "rpn/output"
  top: "rpn/output"
}
layer {
  name: "rpn_cls_score"
  type: "Convolution"
  bottom: "rpn/output"
  top: "rpn_cls_score"
  param {
    lr_mult: 1
  }
  param {
    lr_mult: 2
  }
  convolution_param {
    num_output: 18
    pad: 0
    kernel_size: 1
    stride: 1
    weight_filler {
      type: "gaussian"
      std: 0.01
    }
    bias_filler {
      type: "constant"
      value: 0
    }
  }
}
layer {
  name: "rpn_bbox_pred"
  type: "Convolution"
  bottom: "rpn/output"
  top: "rpn_bbox_pred"
  param {
    lr_mult: 1
  }
  param {
    lr_mult: 2
  }
  convolution_param {
    num_output: 36
    pad: 0
    kernel_size: 1
    stride: 1
    weight_filler {
      type: "gaussian"
      std: 0.01
    }
    bias_filler {
      type: "constant"
      value: 0
    }
  }
}
layer {
  name: "rpn_cls_score_reshape"
  type: "Reshape"
  bottom: "rpn_cls_score"
  top: "rpn_cls_score_reshape"
  reshape_param {
    shape {
      dim: 0
      dim: 2
      dim: -1
      dim: 0
    }
  }
}
layer {
  name: "rpn-data"
  type: "Python"
  bottom: "rpn_cls_score"
  bottom: "gt_boxes"
  bottom: "im_info"
  bottom: "data"
  top: "rpn_labels"
  top: "rpn_bbox_targets"
  top: "rpn_bbox_inside_weights"
  top: "rpn_bbox_outside_weights"
  python_param {
    module: "rpn.anchor_target_layer"
    layer: "AnchorTargetLayer"
    param_str: "\'feat_stride\': 4"
  }
}
layer {
  name: "rpn_loss_cls"
  type: "SoftmaxWithLoss"
  bottom: "rpn_cls_score_reshape"
  bottom: "rpn_labels"
  top: "rpn_cls_loss"
  loss_weight: 1
  propagate_down: true
  propagate_down: false
  loss_param {
    ignore_label: -1
    normalize: true
  }
}
layer {
  name: "rpn_loss_bbox"
  type: "SmoothL1Loss"
  bottom: "rpn_bbox_pred"
  bottom: "rpn_bbox_targets"
  bottom: "rpn_bbox_inside_weights"
  bottom: "rpn_bbox_outside_weights"
  top: "rpn_loss_bbox"
  loss_weight: 1
  smooth_l1_loss_param {
    sigma: 3
  }
}
layer {
  name: "rpn_cls_prob"
  type: "Softmax"
  bottom: "rpn_cls_score_reshape"
  top: "rpn_cls_prob"
}
layer {
  name: "rpn_cls_prob_reshape"
  type: "Reshape"
  bottom: "rpn_cls_prob"
  top: "rpn_cls_prob_reshape"
  reshape_param {
    shape {
      dim: 0
      dim: 18
      dim: -1
      dim: 0
    }
  }
}
layer {
  name: "proposal"
  type: "Python"
  bottom: "rpn_cls_prob_reshape"
  bottom: "rpn_bbox_pred"
  bottom: "im_info"
  top: "rpn_rois"
  python_param {
    module: "rpn.proposal_layer"
    layer: "ProposalLayer"
    param_str: "\'feat_stride\': 4"
  }
}
layer {
  name: "roi-data"
  type: "Python"
  bottom: "rpn_rois"
  bottom: "gt_boxes"
  top: "rois"
  top: "labels"
  top: "bbox_targets"
  top: "bbox_inside_weights"
  top: "bbox_outside_weights"
  python_param {
    module: "rpn.proposal_target_layer"
    layer: "ProposalTargetLayer"
    param_str: "\'num_classes\': 21"
  }
}
layer {
  name: "roi_pool5"
  type: "ROIPooling"
  bottom: "newP4"
  bottom: "rois"
  top: "rcnn_pool5"
  roi_pooling_param {
    pooled_h: 7
    pooled_w: 7
    spatial_scale: 0.25
  }
}
layer {
  name: "rcnn_fc6"
  type: "InnerProduct"
  bottom: "rcnn_pool5"
  top: "rcnn_fc6"
  param {
    lr_mult: 1
  }
  param {
    lr_mult: 2
  }
  inner_product_param {
    num_output: 4096
    weight_filler {
      type: "xavier"
    }
    bias_filler {
      type: "constant"
    }
  }
}
layer {
  name: "relu6"
  type: "ReLU"
  bottom: "rcnn_fc6"
  top: "rcnn_fc6"
}
layer {
  name: "drop6"
  type: "Dropout"
  bottom: "rcnn_fc6"
  top: "rcnn_fc6"
  dropout_param {
    dropout_ratio: 0.5
  }
}
layer {
  name: "fc7"
  type: "InnerProduct"
  bottom: "rcnn_fc6"
  top: "fc7"
  param {
    lr_mult: 1
  }
  param {
    lr_mult: 2
  }
  inner_product_param {
    num_output: 4096
    weight_filler {
      type: "xavier"
    }
    bias_filler {
      type: "constant"
    }
  }
}
layer {
  name: "relu7"
  type: "ReLU"
  bottom: "fc7"
  top: "fc7"
}
layer {
  name: "drop7"
  type: "Dropout"
  bottom: "fc7"
  top: "fc7"
  dropout_param {
    dropout_ratio: 0.5
  }
}
layer {
  name: "cls_score"
  type: "InnerProduct"
  bottom: "fc7"
  top: "cls_score"
  param {
    lr_mult: 1
  }
  param {
    lr_mult: 2
  }
  inner_product_param {
    num_output: 21
    weight_filler {
      type: "gaussian"
      std: 0.01
    }
    bias_filler {
      type: "constant"
      value: 0
    }
  }
}
layer {
  name: "bbox_pred"
  type: "InnerProduct"
  bottom: "fc7"
  top: "bbox_pred"
  param {
    lr_mult: 1
  }
  param {
    lr_mult: 2
  }
  inner_product_param {
    num_output: 84
    weight_filler {
      type: "gaussian"
      std: 0.001
    }
    bias_filler {
      type: "constant"
      value: 0
    }
  }
}
layer {
  name: "loss_cls"
  type: "SoftmaxWithLoss"
  bottom: "cls_score"
  bottom: "labels"
  top: "loss_cls"
  loss_weight: 1
  propagate_down: true
  propagate_down: false
}
layer {
  name: "loss_bbox"
  type: "SmoothL1Loss"
  bottom: "bbox_pred"
  bottom: "bbox_targets"
  bottom: "bbox_inside_weights"
  bottom: "bbox_outside_weights"
  top: "loss_bbox"
  loss_weight: 1
}
I0628 22:01:09.499496 58648 layer_factory.hpp:77] Creating layer input-data
I0628 22:01:09.500947 58648 net.cpp:106] Creating Layer input-data
I0628 22:01:09.500972 58648 net.cpp:411] input-data -> data
I0628 22:01:09.501016 58648 net.cpp:411] input-data -> im_info
I0628 22:01:09.501031 58648 net.cpp:411] input-data -> gt_boxes
RoiDataLayer: name_to_top: {'gt_boxes': 2, 'data': 0, 'im_info': 1}
I0628 22:01:09.625376 58648 net.cpp:150] Setting up input-data
I0628 22:01:09.625411 58648 net.cpp:157] Top shape: 1 3 600 1000 (1800000)
I0628 22:01:09.625434 58648 net.cpp:157] Top shape: 1 3 (3)
I0628 22:01:09.625444 58648 net.cpp:157] Top shape: 1 4 (4)
I0628 22:01:09.625448 58648 net.cpp:165] Memory required for data: 7200028
I0628 22:01:09.625454 58648 layer_factory.hpp:77] Creating layer data_input-data_0_split
I0628 22:01:09.625470 58648 net.cpp:106] Creating Layer data_input-data_0_split
I0628 22:01:09.625486 58648 net.cpp:454] data_input-data_0_split <- data
I0628 22:01:09.625496 58648 net.cpp:411] data_input-data_0_split -> data_input-data_0_split_0
I0628 22:01:09.625505 58648 net.cpp:411] data_input-data_0_split -> data_input-data_0_split_1
I0628 22:01:09.625581 58648 net.cpp:150] Setting up data_input-data_0_split
I0628 22:01:09.625593 58648 net.cpp:157] Top shape: 1 3 600 1000 (1800000)
I0628 22:01:09.625597 58648 net.cpp:157] Top shape: 1 3 600 1000 (1800000)
I0628 22:01:09.625602 58648 net.cpp:165] Memory required for data: 21600028
I0628 22:01:09.625604 58648 layer_factory.hpp:77] Creating layer im_info_input-data_1_split
I0628 22:01:09.625628 58648 net.cpp:106] Creating Layer im_info_input-data_1_split
I0628 22:01:09.625639 58648 net.cpp:454] im_info_input-data_1_split <- im_info
I0628 22:01:09.625648 58648 net.cpp:411] im_info_input-data_1_split -> im_info_input-data_1_split_0
I0628 22:01:09.625658 58648 net.cpp:411] im_info_input-data_1_split -> im_info_input-data_1_split_1
I0628 22:01:09.625712 58648 net.cpp:150] Setting up im_info_input-data_1_split
I0628 22:01:09.625725 58648 net.cpp:157] Top shape: 1 3 (3)
I0628 22:01:09.625728 58648 net.cpp:157] Top shape: 1 3 (3)
I0628 22:01:09.625731 58648 net.cpp:165] Memory required for data: 21600052
I0628 22:01:09.625735 58648 layer_factory.hpp:77] Creating layer gt_boxes_input-data_2_split
I0628 22:01:09.625741 58648 net.cpp:106] Creating Layer gt_boxes_input-data_2_split
I0628 22:01:09.625744 58648 net.cpp:454] gt_boxes_input-data_2_split <- gt_boxes
I0628 22:01:09.625751 58648 net.cpp:411] gt_boxes_input-data_2_split -> gt_boxes_input-data_2_split_0
I0628 22:01:09.625756 58648 net.cpp:411] gt_boxes_input-data_2_split -> gt_boxes_input-data_2_split_1
I0628 22:01:09.625824 58648 net.cpp:150] Setting up gt_boxes_input-data_2_split
I0628 22:01:09.625838 58648 net.cpp:157] Top shape: 1 4 (4)
I0628 22:01:09.625844 58648 net.cpp:157] Top shape: 1 4 (4)
I0628 22:01:09.625861 58648 net.cpp:165] Memory required for data: 21600084
I0628 22:01:09.625870 58648 layer_factory.hpp:77] Creating layer conv1_1
I0628 22:01:09.625887 58648 net.cpp:106] Creating Layer conv1_1
I0628 22:01:09.625895 58648 net.cpp:454] conv1_1 <- data_input-data_0_split_0
I0628 22:01:09.625901 58648 net.cpp:411] conv1_1 -> conv1_1
I0628 22:01:10.097594 58648 net.cpp:150] Setting up conv1_1
I0628 22:01:10.097643 58648 net.cpp:157] Top shape: 1 64 600 1000 (38400000)
I0628 22:01:10.097648 58648 net.cpp:165] Memory required for data: 175200084
I0628 22:01:10.097669 58648 layer_factory.hpp:77] Creating layer relu1_1
I0628 22:01:10.097682 58648 net.cpp:106] Creating Layer relu1_1
I0628 22:01:10.097687 58648 net.cpp:454] relu1_1 <- conv1_1
I0628 22:01:10.097723 58648 net.cpp:397] relu1_1 -> conv1_1 (in-place)
I0628 22:01:10.098603 58648 net.cpp:150] Setting up relu1_1
I0628 22:01:10.098624 58648 net.cpp:157] Top shape: 1 64 600 1000 (38400000)
I0628 22:01:10.098628 58648 net.cpp:165] Memory required for data: 328800084
I0628 22:01:10.098633 58648 layer_factory.hpp:77] Creating layer conv1_2
I0628 22:01:10.098642 58648 net.cpp:106] Creating Layer conv1_2
I0628 22:01:10.098646 58648 net.cpp:454] conv1_2 <- conv1_1
I0628 22:01:10.098652 58648 net.cpp:411] conv1_2 -> conv1_2
I0628 22:01:10.108059 58648 net.cpp:150] Setting up conv1_2
I0628 22:01:10.108084 58648 net.cpp:157] Top shape: 1 64 600 1000 (38400000)
I0628 22:01:10.108089 58648 net.cpp:165] Memory required for data: 482400084
I0628 22:01:10.108098 58648 layer_factory.hpp:77] Creating layer relu1_2
I0628 22:01:10.108127 58648 net.cpp:106] Creating Layer relu1_2
I0628 22:01:10.108144 58648 net.cpp:454] relu1_2 <- conv1_2
I0628 22:01:10.108160 58648 net.cpp:397] relu1_2 -> conv1_2 (in-place)
I0628 22:01:10.108343 58648 net.cpp:150] Setting up relu1_2
I0628 22:01:10.108361 58648 net.cpp:157] Top shape: 1 64 600 1000 (38400000)
I0628 22:01:10.108366 58648 net.cpp:165] Memory required for data: 636000084
I0628 22:01:10.108368 58648 layer_factory.hpp:77] Creating layer pool1
I0628 22:01:10.108383 58648 net.cpp:106] Creating Layer pool1
I0628 22:01:10.108404 58648 net.cpp:454] pool1 <- conv1_2
I0628 22:01:10.108422 58648 net.cpp:411] pool1 -> pool1
I0628 22:01:10.108515 58648 net.cpp:150] Setting up pool1
I0628 22:01:10.108530 58648 net.cpp:157] Top shape: 1 64 300 500 (9600000)
I0628 22:01:10.108535 58648 net.cpp:165] Memory required for data: 674400084
I0628 22:01:10.108538 58648 layer_factory.hpp:77] Creating layer conv2_1
I0628 22:01:10.108546 58648 net.cpp:106] Creating Layer conv2_1
I0628 22:01:10.108566 58648 net.cpp:454] conv2_1 <- pool1
I0628 22:01:10.108582 58648 net.cpp:411] conv2_1 -> conv2_1
I0628 22:01:10.116365 58648 net.cpp:150] Setting up conv2_1
I0628 22:01:10.116390 58648 net.cpp:157] Top shape: 1 128 300 500 (19200000)
I0628 22:01:10.116394 58648 net.cpp:165] Memory required for data: 751200084
I0628 22:01:10.116405 58648 layer_factory.hpp:77] Creating layer relu2_1
I0628 22:01:10.116433 58648 net.cpp:106] Creating Layer relu2_1
I0628 22:01:10.116449 58648 net.cpp:454] relu2_1 <- conv2_1
I0628 22:01:10.116477 58648 net.cpp:397] relu2_1 -> conv2_1 (in-place)
I0628 22:01:10.118110 58648 net.cpp:150] Setting up relu2_1
I0628 22:01:10.118129 58648 net.cpp:157] Top shape: 1 128 300 500 (19200000)
I0628 22:01:10.118132 58648 net.cpp:165] Memory required for data: 828000084
I0628 22:01:10.118136 58648 layer_factory.hpp:77] Creating layer conv2_2
I0628 22:01:10.118144 58648 net.cpp:106] Creating Layer conv2_2
I0628 22:01:10.118166 58648 net.cpp:454] conv2_2 <- conv2_1
I0628 22:01:10.118185 58648 net.cpp:411] conv2_2 -> conv2_2
I0628 22:01:10.126977 58648 net.cpp:150] Setting up conv2_2
I0628 22:01:10.127002 58648 net.cpp:157] Top shape: 1 128 300 500 (19200000)
I0628 22:01:10.127005 58648 net.cpp:165] Memory required for data: 904800084
I0628 22:01:10.127012 58648 layer_factory.hpp:77] Creating layer relu2_2
I0628 22:01:10.127041 58648 net.cpp:106] Creating Layer relu2_2
I0628 22:01:10.127058 58648 net.cpp:454] relu2_2 <- conv2_2
I0628 22:01:10.127074 58648 net.cpp:397] relu2_2 -> conv2_2 (in-place)
I0628 22:01:10.127959 58648 net.cpp:150] Setting up relu2_2
I0628 22:01:10.127980 58648 net.cpp:157] Top shape: 1 128 300 500 (19200000)
I0628 22:01:10.127985 58648 net.cpp:165] Memory required for data: 981600084
I0628 22:01:10.127988 58648 layer_factory.hpp:77] Creating layer pool2
I0628 22:01:10.127997 58648 net.cpp:106] Creating Layer pool2
I0628 22:01:10.128002 58648 net.cpp:454] pool2 <- conv2_2
I0628 22:01:10.128010 58648 net.cpp:411] pool2 -> pool2
I0628 22:01:10.128079 58648 net.cpp:150] Setting up pool2
I0628 22:01:10.128092 58648 net.cpp:157] Top shape: 1 128 150 250 (4800000)
I0628 22:01:10.128095 58648 net.cpp:165] Memory required for data: 1000800084
I0628 22:01:10.128098 58648 layer_factory.hpp:77] Creating layer conv3_1
I0628 22:01:10.128108 58648 net.cpp:106] Creating Layer conv3_1
I0628 22:01:10.128113 58648 net.cpp:454] conv3_1 <- pool2
I0628 22:01:10.128120 58648 net.cpp:411] conv3_1 -> conv3_1
I0628 22:01:10.135524 58648 net.cpp:150] Setting up conv3_1
I0628 22:01:10.135547 58648 net.cpp:157] Top shape: 1 256 150 250 (9600000)
I0628 22:01:10.135551 58648 net.cpp:165] Memory required for data: 1039200084
I0628 22:01:10.135561 58648 layer_factory.hpp:77] Creating layer relu3_1
I0628 22:01:10.135591 58648 net.cpp:106] Creating Layer relu3_1
I0628 22:01:10.135607 58648 net.cpp:454] relu3_1 <- conv3_1
I0628 22:01:10.135627 58648 net.cpp:397] relu3_1 -> conv3_1 (in-place)
I0628 22:01:10.137110 58648 net.cpp:150] Setting up relu3_1
I0628 22:01:10.137130 58648 net.cpp:157] Top shape: 1 256 150 250 (9600000)
I0628 22:01:10.137133 58648 net.cpp:165] Memory required for data: 1077600084
I0628 22:01:10.137137 58648 layer_factory.hpp:77] Creating layer conv3_2
I0628 22:01:10.137151 58648 net.cpp:106] Creating Layer conv3_2
I0628 22:01:10.137174 58648 net.cpp:454] conv3_2 <- conv3_1
I0628 22:01:10.137192 58648 net.cpp:411] conv3_2 -> conv3_2
I0628 22:01:10.147943 58648 net.cpp:150] Setting up conv3_2
I0628 22:01:10.147969 58648 net.cpp:157] Top shape: 1 256 150 250 (9600000)
I0628 22:01:10.147974 58648 net.cpp:165] Memory required for data: 1116000084
I0628 22:01:10.147980 58648 layer_factory.hpp:77] Creating layer relu3_2
I0628 22:01:10.147986 58648 net.cpp:106] Creating Layer relu3_2
I0628 22:01:10.148012 58648 net.cpp:454] relu3_2 <- conv3_2
I0628 22:01:10.148033 58648 net.cpp:397] relu3_2 -> conv3_2 (in-place)
I0628 22:01:10.149549 58648 net.cpp:150] Setting up relu3_2
I0628 22:01:10.149566 58648 net.cpp:157] Top shape: 1 256 150 250 (9600000)
I0628 22:01:10.149570 58648 net.cpp:165] Memory required for data: 1154400084
I0628 22:01:10.149574 58648 layer_factory.hpp:77] Creating layer conv3_3
I0628 22:01:10.149585 58648 net.cpp:106] Creating Layer conv3_3
I0628 22:01:10.149590 58648 net.cpp:454] conv3_3 <- conv3_2
I0628 22:01:10.149597 58648 net.cpp:411] conv3_3 -> conv3_3
I0628 22:01:10.158288 58648 net.cpp:150] Setting up conv3_3
I0628 22:01:10.158313 58648 net.cpp:157] Top shape: 1 256 150 250 (9600000)
I0628 22:01:10.158316 58648 net.cpp:165] Memory required for data: 1192800084
I0628 22:01:10.158326 58648 layer_factory.hpp:77] Creating layer relu3_3
I0628 22:01:10.158355 58648 net.cpp:106] Creating Layer relu3_3
I0628 22:01:10.158372 58648 net.cpp:454] relu3_3 <- conv3_3
I0628 22:01:10.158388 58648 net.cpp:397] relu3_3 -> conv3_3 (in-place)
I0628 22:01:10.159983 58648 net.cpp:150] Setting up relu3_3
I0628 22:01:10.160006 58648 net.cpp:157] Top shape: 1 256 150 250 (9600000)
I0628 22:01:10.160009 58648 net.cpp:165] Memory required for data: 1231200084
I0628 22:01:10.160012 58648 layer_factory.hpp:77] Creating layer pool3
I0628 22:01:10.160019 58648 net.cpp:106] Creating Layer pool3
I0628 22:01:10.160043 58648 net.cpp:454] pool3 <- conv3_3
I0628 22:01:10.160064 58648 net.cpp:411] pool3 -> pool3
I0628 22:01:10.160161 58648 net.cpp:150] Setting up pool3
I0628 22:01:10.160176 58648 net.cpp:157] Top shape: 1 256 75 125 (2400000)
I0628 22:01:10.160178 58648 net.cpp:165] Memory required for data: 1240800084
I0628 22:01:10.160182 58648 layer_factory.hpp:77] Creating layer conv4_1
I0628 22:01:10.160192 58648 net.cpp:106] Creating Layer conv4_1
I0628 22:01:10.160212 58648 net.cpp:454] conv4_1 <- pool3
I0628 22:01:10.160233 58648 net.cpp:411] conv4_1 -> conv4_1
I0628 22:01:10.173733 58648 net.cpp:150] Setting up conv4_1
I0628 22:01:10.173758 58648 net.cpp:157] Top shape: 1 512 75 125 (4800000)
I0628 22:01:10.173763 58648 net.cpp:165] Memory required for data: 1260000084
I0628 22:01:10.173769 58648 layer_factory.hpp:77] Creating layer relu4_1
I0628 22:01:10.173797 58648 net.cpp:106] Creating Layer relu4_1
I0628 22:01:10.173815 58648 net.cpp:454] relu4_1 <- conv4_1
I0628 22:01:10.173833 58648 net.cpp:397] relu4_1 -> conv4_1 (in-place)
I0628 22:01:10.176815 58648 net.cpp:150] Setting up relu4_1
I0628 22:01:10.176837 58648 net.cpp:157] Top shape: 1 512 75 125 (4800000)
I0628 22:01:10.176841 58648 net.cpp:165] Memory required for data: 1279200084
I0628 22:01:10.176844 58648 layer_factory.hpp:77] Creating layer conv4_2
I0628 22:01:10.176856 58648 net.cpp:106] Creating Layer conv4_2
I0628 22:01:10.176861 58648 net.cpp:454] conv4_2 <- conv4_1
I0628 22:01:10.176870 58648 net.cpp:411] conv4_2 -> conv4_2
I0628 22:01:10.190274 58648 net.cpp:150] Setting up conv4_2
I0628 22:01:10.190315 58648 net.cpp:157] Top shape: 1 512 75 125 (4800000)
I0628 22:01:10.190320 58648 net.cpp:165] Memory required for data: 1298400084
I0628 22:01:10.190337 58648 layer_factory.hpp:77] Creating layer relu4_2
I0628 22:01:10.190376 58648 net.cpp:106] Creating Layer relu4_2
I0628 22:01:10.190393 58648 net.cpp:454] relu4_2 <- conv4_2
I0628 22:01:10.190410 58648 net.cpp:397] relu4_2 -> conv4_2 (in-place)
I0628 22:01:10.191856 58648 net.cpp:150] Setting up relu4_2
I0628 22:01:10.191877 58648 net.cpp:157] Top shape: 1 512 75 125 (4800000)
I0628 22:01:10.191881 58648 net.cpp:165] Memory required for data: 1317600084
I0628 22:01:10.191885 58648 layer_factory.hpp:77] Creating layer conv4_3
I0628 22:01:10.191912 58648 net.cpp:106] Creating Layer conv4_3
I0628 22:01:10.191928 58648 net.cpp:454] conv4_3 <- conv4_2
I0628 22:01:10.191947 58648 net.cpp:411] conv4_3 -> conv4_3
I0628 22:01:10.204772 58648 net.cpp:150] Setting up conv4_3
I0628 22:01:10.204802 58648 net.cpp:157] Top shape: 1 512 75 125 (4800000)
I0628 22:01:10.204805 58648 net.cpp:165] Memory required for data: 1336800084
I0628 22:01:10.204813 58648 layer_factory.hpp:77] Creating layer relu4_3
I0628 22:01:10.204823 58648 net.cpp:106] Creating Layer relu4_3
I0628 22:01:10.204852 58648 net.cpp:454] relu4_3 <- conv4_3
I0628 22:01:10.204870 58648 net.cpp:397] relu4_3 -> conv4_3 (in-place)
I0628 22:01:10.207129 58648 net.cpp:150] Setting up relu4_3
I0628 22:01:10.207150 58648 net.cpp:157] Top shape: 1 512 75 125 (4800000)
I0628 22:01:10.207154 58648 net.cpp:165] Memory required for data: 1356000084
I0628 22:01:10.207159 58648 layer_factory.hpp:77] Creating layer pool4
I0628 22:01:10.207168 58648 net.cpp:106] Creating Layer pool4
I0628 22:01:10.207192 58648 net.cpp:454] pool4 <- conv4_3
I0628 22:01:10.207211 58648 net.cpp:411] pool4 -> pool4
I0628 22:01:10.207307 58648 net.cpp:150] Setting up pool4
I0628 22:01:10.207322 58648 net.cpp:157] Top shape: 1 512 38 63 (1225728)
I0628 22:01:10.207325 58648 net.cpp:165] Memory required for data: 1360902996
I0628 22:01:10.207329 58648 layer_factory.hpp:77] Creating layer conv5_1
I0628 22:01:10.207341 58648 net.cpp:106] Creating Layer conv5_1
I0628 22:01:10.207361 58648 net.cpp:454] conv5_1 <- pool4
I0628 22:01:10.207381 58648 net.cpp:411] conv5_1 -> conv5_1
I0628 22:01:10.219199 58648 net.cpp:150] Setting up conv5_1
I0628 22:01:10.219230 58648 net.cpp:157] Top shape: 1 512 38 63 (1225728)
I0628 22:01:10.219234 58648 net.cpp:165] Memory required for data: 1365805908
I0628 22:01:10.219243 58648 layer_factory.hpp:77] Creating layer relu5_1
I0628 22:01:10.219249 58648 net.cpp:106] Creating Layer relu5_1
I0628 22:01:10.219280 58648 net.cpp:454] relu5_1 <- conv5_1
I0628 22:01:10.219298 58648 net.cpp:397] relu5_1 -> conv5_1 (in-place)
I0628 22:01:10.222491 58648 net.cpp:150] Setting up relu5_1
I0628 22:01:10.222510 58648 net.cpp:157] Top shape: 1 512 38 63 (1225728)
I0628 22:01:10.222513 58648 net.cpp:165] Memory required for data: 1370708820
I0628 22:01:10.222517 58648 layer_factory.hpp:77] Creating layer conv5_2
I0628 22:01:10.222529 58648 net.cpp:106] Creating Layer conv5_2
I0628 22:01:10.222553 58648 net.cpp:454] conv5_2 <- conv5_1
I0628 22:01:10.222573 58648 net.cpp:411] conv5_2 -> conv5_2
I0628 22:01:10.235520 58648 net.cpp:150] Setting up conv5_2
I0628 22:01:10.235545 58648 net.cpp:157] Top shape: 1 512 38 63 (1225728)
I0628 22:01:10.235550 58648 net.cpp:165] Memory required for data: 1375611732
I0628 22:01:10.235556 58648 layer_factory.hpp:77] Creating layer relu5_2
I0628 22:01:10.235569 58648 net.cpp:106] Creating Layer relu5_2
I0628 22:01:10.235597 58648 net.cpp:454] relu5_2 <- conv5_2
I0628 22:01:10.235616 58648 net.cpp:397] relu5_2 -> conv5_2 (in-place)
I0628 22:01:10.237627 58648 net.cpp:150] Setting up relu5_2
I0628 22:01:10.237643 58648 net.cpp:157] Top shape: 1 512 38 63 (1225728)
I0628 22:01:10.237646 58648 net.cpp:165] Memory required for data: 1380514644
I0628 22:01:10.237650 58648 layer_factory.hpp:77] Creating layer conv5_3
I0628 22:01:10.237669 58648 net.cpp:106] Creating Layer conv5_3
I0628 22:01:10.237673 58648 net.cpp:454] conv5_3 <- conv5_2
I0628 22:01:10.237689 58648 net.cpp:411] conv5_3 -> conv5_3
I0628 22:01:10.250124 58648 net.cpp:150] Setting up conv5_3
I0628 22:01:10.250171 58648 net.cpp:157] Top shape: 1 512 38 63 (1225728)
I0628 22:01:10.250176 58648 net.cpp:165] Memory required for data: 1385417556
I0628 22:01:10.250186 58648 layer_factory.hpp:77] Creating layer relu5_3
I0628 22:01:10.250197 58648 net.cpp:106] Creating Layer relu5_3
I0628 22:01:10.250236 58648 net.cpp:454] relu5_3 <- conv5_3
I0628 22:01:10.250255 58648 net.cpp:397] relu5_3 -> conv5_3 (in-place)
I0628 22:01:10.251190 58648 net.cpp:150] Setting up relu5_3
I0628 22:01:10.251210 58648 net.cpp:157] Top shape: 1 512 38 63 (1225728)
I0628 22:01:10.251215 58648 net.cpp:165] Memory required for data: 1390320468
I0628 22:01:10.251219 58648 layer_factory.hpp:77] Creating layer conv5_3_relu5_3_0_split
I0628 22:01:10.251225 58648 net.cpp:106] Creating Layer conv5_3_relu5_3_0_split
I0628 22:01:10.251250 58648 net.cpp:454] conv5_3_relu5_3_0_split <- conv5_3
I0628 22:01:10.251276 58648 net.cpp:411] conv5_3_relu5_3_0_split -> conv5_3_relu5_3_0_split_0
I0628 22:01:10.251294 58648 net.cpp:411] conv5_3_relu5_3_0_split -> conv5_3_relu5_3_0_split_1
I0628 22:01:10.251389 58648 net.cpp:150] Setting up conv5_3_relu5_3_0_split
I0628 22:01:10.251407 58648 net.cpp:157] Top shape: 1 512 38 63 (1225728)
I0628 22:01:10.251411 58648 net.cpp:157] Top shape: 1 512 38 63 (1225728)
I0628 22:01:10.251415 58648 net.cpp:165] Memory required for data: 1400126292
I0628 22:01:10.251418 58648 layer_factory.hpp:77] Creating layer pool5
I0628 22:01:10.251441 58648 net.cpp:106] Creating Layer pool5
I0628 22:01:10.251456 58648 net.cpp:454] pool5 <- conv5_3_relu5_3_0_split_0
I0628 22:01:10.251473 58648 net.cpp:411] pool5 -> pool5
I0628 22:01:10.251564 58648 net.cpp:150] Setting up pool5
I0628 22:01:10.251577 58648 net.cpp:157] Top shape: 1 512 19 32 (311296)
I0628 22:01:10.251580 58648 net.cpp:165] Memory required for data: 1401371476
I0628 22:01:10.251585 58648 layer_factory.hpp:77] Creating layer P5
I0628 22:01:10.251602 58648 net.cpp:106] Creating Layer P5
I0628 22:01:10.251623 58648 net.cpp:454] P5 <- pool5
I0628 22:01:10.251641 58648 net.cpp:411] P5 -> P5
I0628 22:01:10.257086 58648 net.cpp:150] Setting up P5
I0628 22:01:10.257120 58648 net.cpp:157] Top shape: 1 256 19 32 (155648)
I0628 22:01:10.257125 58648 net.cpp:165] Memory required for data: 1401994068
I0628 22:01:10.257133 58648 layer_factory.hpp:77] Creating layer upP5
I0628 22:01:10.257151 58648 net.cpp:106] Creating Layer upP5
I0628 22:01:10.257182 58648 net.cpp:454] upP5 <- P5
I0628 22:01:10.257203 58648 net.cpp:411] upP5 -> upP5
I0628 22:01:10.284075 58648 net.cpp:150] Setting up upP5
I0628 22:01:10.284106 58648 net.cpp:157] Top shape: 1 256 38 64 (622592)
I0628 22:01:10.284109 58648 net.cpp:165] Memory required for data: 1404484436
I0628 22:01:10.284116 58648 layer_factory.hpp:77] Creating layer newC4
I0628 22:01:10.284129 58648 net.cpp:106] Creating Layer newC4
I0628 22:01:10.284159 58648 net.cpp:454] newC4 <- conv5_3_relu5_3_0_split_1
I0628 22:01:10.284183 58648 net.cpp:411] newC4 -> newC4
I0628 22:01:10.289113 58648 net.cpp:150] Setting up newC4
I0628 22:01:10.289137 58648 net.cpp:157] Top shape: 1 256 38 63 (612864)
I0628 22:01:10.289149 58648 net.cpp:165] Memory required for data: 1406935892
I0628 22:01:10.289180 58648 layer_factory.hpp:77] Creating layer newC4_newC4_0_split
I0628 22:01:10.289203 58648 net.cpp:106] Creating Layer newC4_newC4_0_split
I0628 22:01:10.289219 58648 net.cpp:454] newC4_newC4_0_split <- newC4
I0628 22:01:10.289235 58648 net.cpp:411] newC4_newC4_0_split -> newC4_newC4_0_split_0
I0628 22:01:10.289258 58648 net.cpp:411] newC4_newC4_0_split -> newC4_newC4_0_split_1
I0628 22:01:10.289355 58648 net.cpp:150] Setting up newC4_newC4_0_split
I0628 22:01:10.289373 58648 net.cpp:157] Top shape: 1 256 38 63 (612864)
I0628 22:01:10.289378 58648 net.cpp:157] Top shape: 1 256 38 63 (612864)
I0628 22:01:10.289381 58648 net.cpp:165] Memory required for data: 1411838804
I0628 22:01:10.289386 58648 layer_factory.hpp:77] Creating layer upP5crop
I0628 22:01:10.289396 58648 net.cpp:106] Creating Layer upP5crop
I0628 22:01:10.289399 58648 net.cpp:454] upP5crop <- upP5
I0628 22:01:10.289404 58648 net.cpp:454] upP5crop <- newC4_newC4_0_split_0
I0628 22:01:10.289409 58648 net.cpp:411] upP5crop -> upP5crop
I0628 22:01:10.289609 58648 net.cpp:150] Setting up upP5crop
I0628 22:01:10.289624 58648 net.cpp:157] Top shape: 1 256 38 63 (612864)
I0628 22:01:10.289628 58648 net.cpp:165] Memory required for data: 1414290260
I0628 22:01:10.289631 58648 layer_factory.hpp:77] Creating layer P4
I0628 22:01:10.289644 58648 net.cpp:106] Creating Layer P4
I0628 22:01:10.289664 58648 net.cpp:454] P4 <- newC4_newC4_0_split_1
I0628 22:01:10.289680 58648 net.cpp:454] P4 <- upP5crop
I0628 22:01:10.289695 58648 net.cpp:411] P4 -> P4
I0628 22:01:10.289767 58648 net.cpp:150] Setting up P4
I0628 22:01:10.289782 58648 net.cpp:157] Top shape: 1 256 38 63 (612864)
I0628 22:01:10.289785 58648 net.cpp:165] Memory required for data: 1416741716
I0628 22:01:10.289788 58648 layer_factory.hpp:77] Creating layer newP4
I0628 22:01:10.289798 58648 net.cpp:106] Creating Layer newP4
I0628 22:01:10.289816 58648 net.cpp:454] newP4 <- P4
I0628 22:01:10.289837 58648 net.cpp:411] newP4 -> newP4
I0628 22:01:10.299305 58648 net.cpp:150] Setting up newP4
I0628 22:01:10.299334 58648 net.cpp:157] Top shape: 1 256 38 63 (612864)
I0628 22:01:10.299338 58648 net.cpp:165] Memory required for data: 1419193172
I0628 22:01:10.299365 58648 layer_factory.hpp:77] Creating layer newP4_newP4_0_split
I0628 22:01:10.299384 58648 net.cpp:106] Creating Layer newP4_newP4_0_split
I0628 22:01:10.299389 58648 net.cpp:454] newP4_newP4_0_split <- newP4
I0628 22:01:10.299420 58648 net.cpp:411] newP4_newP4_0_split -> newP4_newP4_0_split_0
I0628 22:01:10.299434 58648 net.cpp:411] newP4_newP4_0_split -> newP4_newP4_0_split_1
I0628 22:01:10.299520 58648 net.cpp:150] Setting up newP4_newP4_0_split
I0628 22:01:10.299535 58648 net.cpp:157] Top shape: 1 256 38 63 (612864)
I0628 22:01:10.299558 58648 net.cpp:157] Top shape: 1 256 38 63 (612864)
I0628 22:01:10.299567 58648 net.cpp:165] Memory required for data: 1424096084
I0628 22:01:10.299571 58648 layer_factory.hpp:77] Creating layer rpn_conv/3x3
I0628 22:01:10.299583 58648 net.cpp:106] Creating Layer rpn_conv/3x3
I0628 22:01:10.299589 58648 net.cpp:454] rpn_conv/3x3 <- newP4_newP4_0_split_0
I0628 22:01:10.299595 58648 net.cpp:411] rpn_conv/3x3 -> rpn/output
I0628 22:01:10.334151 58648 net.cpp:150] Setting up rpn_conv/3x3
I0628 22:01:10.334183 58648 net.cpp:157] Top shape: 1 512 38 63 (1225728)
I0628 22:01:10.334188 58648 net.cpp:165] Memory required for data: 1428998996
I0628 22:01:10.334195 58648 layer_factory.hpp:77] Creating layer rpn_relu/3x3
I0628 22:01:10.334235 58648 net.cpp:106] Creating Layer rpn_relu/3x3
I0628 22:01:10.334249 58648 net.cpp:454] rpn_relu/3x3 <- rpn/output
I0628 22:01:10.334255 58648 net.cpp:397] rpn_relu/3x3 -> rpn/output (in-place)
I0628 22:01:10.335165 58648 net.cpp:150] Setting up rpn_relu/3x3
I0628 22:01:10.335186 58648 net.cpp:157] Top shape: 1 512 38 63 (1225728)
I0628 22:01:10.335189 58648 net.cpp:165] Memory required for data: 1433901908
I0628 22:01:10.335193 58648 layer_factory.hpp:77] Creating layer rpn/output_rpn_relu/3x3_0_split
I0628 22:01:10.335220 58648 net.cpp:106] Creating Layer rpn/output_rpn_relu/3x3_0_split
I0628 22:01:10.335232 58648 net.cpp:454] rpn/output_rpn_relu/3x3_0_split <- rpn/output
I0628 22:01:10.335242 58648 net.cpp:411] rpn/output_rpn_relu/3x3_0_split -> rpn/output_rpn_relu/3x3_0_split_0
I0628 22:01:10.335263 58648 net.cpp:411] rpn/output_rpn_relu/3x3_0_split -> rpn/output_rpn_relu/3x3_0_split_1
I0628 22:01:10.335363 58648 net.cpp:150] Setting up rpn/output_rpn_relu/3x3_0_split
I0628 22:01:10.335376 58648 net.cpp:157] Top shape: 1 512 38 63 (1225728)
I0628 22:01:10.335381 58648 net.cpp:157] Top shape: 1 512 38 63 (1225728)
I0628 22:01:10.335383 58648 net.cpp:165] Memory required for data: 1443707732
I0628 22:01:10.335387 58648 layer_factory.hpp:77] Creating layer rpn_cls_score
I0628 22:01:10.335399 58648 net.cpp:106] Creating Layer rpn_cls_score
I0628 22:01:10.335403 58648 net.cpp:454] rpn_cls_score <- rpn/output_rpn_relu/3x3_0_split_0
I0628 22:01:10.335413 58648 net.cpp:411] rpn_cls_score -> rpn_cls_score
I0628 22:01:10.338599 58648 net.cpp:150] Setting up rpn_cls_score
I0628 22:01:10.338621 58648 net.cpp:157] Top shape: 1 18 38 63 (43092)
I0628 22:01:10.338629 58648 net.cpp:165] Memory required for data: 1443880100
I0628 22:01:10.338635 58648 layer_factory.hpp:77] Creating layer rpn_cls_score_rpn_cls_score_0_split
I0628 22:01:10.338641 58648 net.cpp:106] Creating Layer rpn_cls_score_rpn_cls_score_0_split
I0628 22:01:10.338651 58648 net.cpp:454] rpn_cls_score_rpn_cls_score_0_split <- rpn_cls_score
I0628 22:01:10.338657 58648 net.cpp:411] rpn_cls_score_rpn_cls_score_0_split -> rpn_cls_score_rpn_cls_score_0_split_0
I0628 22:01:10.338663 58648 net.cpp:411] rpn_cls_score_rpn_cls_score_0_split -> rpn_cls_score_rpn_cls_score_0_split_1
I0628 22:01:10.338732 58648 net.cpp:150] Setting up rpn_cls_score_rpn_cls_score_0_split
I0628 22:01:10.338745 58648 net.cpp:157] Top shape: 1 18 38 63 (43092)
I0628 22:01:10.338749 58648 net.cpp:157] Top shape: 1 18 38 63 (43092)
I0628 22:01:10.338752 58648 net.cpp:165] Memory required for data: 1444224836
I0628 22:01:10.338755 58648 layer_factory.hpp:77] Creating layer rpn_bbox_pred
I0628 22:01:10.338768 58648 net.cpp:106] Creating Layer rpn_bbox_pred
I0628 22:01:10.338795 58648 net.cpp:454] rpn_bbox_pred <- rpn/output_rpn_relu/3x3_0_split_1
I0628 22:01:10.338804 58648 net.cpp:411] rpn_bbox_pred -> rpn_bbox_pred
I0628 22:01:10.344214 58648 net.cpp:150] Setting up rpn_bbox_pred
I0628 22:01:10.344238 58648 net.cpp:157] Top shape: 1 36 38 63 (86184)
I0628 22:01:10.344243 58648 net.cpp:165] Memory required for data: 1444569572
I0628 22:01:10.344249 58648 layer_factory.hpp:77] Creating layer rpn_bbox_pred_rpn_bbox_pred_0_split
I0628 22:01:10.344256 58648 net.cpp:106] Creating Layer rpn_bbox_pred_rpn_bbox_pred_0_split
I0628 22:01:10.344260 58648 net.cpp:454] rpn_bbox_pred_rpn_bbox_pred_0_split <- rpn_bbox_pred
I0628 22:01:10.344269 58648 net.cpp:411] rpn_bbox_pred_rpn_bbox_pred_0_split -> rpn_bbox_pred_rpn_bbox_pred_0_split_0
I0628 22:01:10.344282 58648 net.cpp:411] rpn_bbox_pred_rpn_bbox_pred_0_split -> rpn_bbox_pred_rpn_bbox_pred_0_split_1
I0628 22:01:10.344357 58648 net.cpp:150] Setting up rpn_bbox_pred_rpn_bbox_pred_0_split
I0628 22:01:10.344372 58648 net.cpp:157] Top shape: 1 36 38 63 (86184)
I0628 22:01:10.344375 58648 net.cpp:157] Top shape: 1 36 38 63 (86184)
I0628 22:01:10.344378 58648 net.cpp:165] Memory required for data: 1445259044
I0628 22:01:10.344383 58648 layer_factory.hpp:77] Creating layer rpn_cls_score_reshape
I0628 22:01:10.344393 58648 net.cpp:106] Creating Layer rpn_cls_score_reshape
I0628 22:01:10.344398 58648 net.cpp:454] rpn_cls_score_reshape <- rpn_cls_score_rpn_cls_score_0_split_0
I0628 22:01:10.344410 58648 net.cpp:411] rpn_cls_score_reshape -> rpn_cls_score_reshape
I0628 22:01:10.344473 58648 net.cpp:150] Setting up rpn_cls_score_reshape
I0628 22:01:10.344486 58648 net.cpp:157] Top shape: 1 2 342 63 (43092)
I0628 22:01:10.344490 58648 net.cpp:165] Memory required for data: 1445431412
I0628 22:01:10.344493 58648 layer_factory.hpp:77] Creating layer rpn_cls_score_reshape_rpn_cls_score_reshape_0_split
I0628 22:01:10.344497 58648 net.cpp:106] Creating Layer rpn_cls_score_reshape_rpn_cls_score_reshape_0_split
I0628 22:01:10.344501 58648 net.cpp:454] rpn_cls_score_reshape_rpn_cls_score_reshape_0_split <- rpn_cls_score_reshape
I0628 22:01:10.344508 58648 net.cpp:411] rpn_cls_score_reshape_rpn_cls_score_reshape_0_split -> rpn_cls_score_reshape_rpn_cls_score_reshape_0_split_0
I0628 22:01:10.344513 58648 net.cpp:411] rpn_cls_score_reshape_rpn_cls_score_reshape_0_split -> rpn_cls_score_reshape_rpn_cls_score_reshape_0_split_1
I0628 22:01:10.344575 58648 net.cpp:150] Setting up rpn_cls_score_reshape_rpn_cls_score_reshape_0_split
I0628 22:01:10.344586 58648 net.cpp:157] Top shape: 1 2 342 63 (43092)
I0628 22:01:10.344590 58648 net.cpp:157] Top shape: 1 2 342 63 (43092)
I0628 22:01:10.344594 58648 net.cpp:165] Memory required for data: 1445776148
I0628 22:01:10.344596 58648 layer_factory.hpp:77] Creating layer rpn-data
I0628 22:01:10.345324 58648 net.cpp:106] Creating Layer rpn-data
I0628 22:01:10.345345 58648 net.cpp:454] rpn-data <- rpn_cls_score_rpn_cls_score_0_split_1
I0628 22:01:10.345351 58648 net.cpp:454] rpn-data <- gt_boxes_input-data_2_split_0
I0628 22:01:10.345356 58648 net.cpp:454] rpn-data <- im_info_input-data_1_split_0
I0628 22:01:10.345360 58648 net.cpp:454] rpn-data <- data_input-data_0_split_1
I0628 22:01:10.345366 58648 net.cpp:411] rpn-data -> rpn_labels
I0628 22:01:10.345373 58648 net.cpp:411] rpn-data -> rpn_bbox_targets
I0628 22:01:10.345381 58648 net.cpp:411] rpn-data -> rpn_bbox_inside_weights
I0628 22:01:10.345386 58648 net.cpp:411] rpn-data -> rpn_bbox_outside_weights
I0628 22:01:10.346232 58648 net.cpp:150] Setting up rpn-data
I0628 22:01:10.346257 58648 net.cpp:157] Top shape: 1 1 342 63 (21546)
I0628 22:01:10.346262 58648 net.cpp:157] Top shape: 1 36 38 63 (86184)
I0628 22:01:10.346266 58648 net.cpp:157] Top shape: 1 36 38 63 (86184)
I0628 22:01:10.346269 58648 net.cpp:157] Top shape: 1 36 38 63 (86184)
I0628 22:01:10.346272 58648 net.cpp:165] Memory required for data: 1446896540
I0628 22:01:10.346276 58648 layer_factory.hpp:77] Creating layer rpn_loss_cls
I0628 22:01:10.346288 58648 net.cpp:106] Creating Layer rpn_loss_cls
I0628 22:01:10.346300 58648 net.cpp:454] rpn_loss_cls <- rpn_cls_score_reshape_rpn_cls_score_reshape_0_split_0
I0628 22:01:10.346307 58648 net.cpp:454] rpn_loss_cls <- rpn_labels
…
I0628 22:01:10.348255 58648 net.cpp:157] Top shape: (1)
I0628 22:01:10.348259 58648 net.cpp:160]     with loss weight 1
I0628 22:01:10.348264 58648 net.cpp:165] Memory required for data: 1446896548
I0628 22:01:10.348268 58648 layer_factory.hpp:77] Creating layer rpn_cls_prob
I0628 22:01:10.348275 58648 net.cpp:106] Creating Layer rpn_cls_prob
I0628 22:01:10.348279 58648 net.cpp:454] rpn_cls_prob <- rpn_cls_score_reshape_rpn_cls_score_reshape_0_split_1
I0628 22:01:10.348284 58648 net.cpp:411] rpn_cls_prob -> rpn_cls_prob
I0628 22:01:10.348597 58648 net.cpp:150] Setting up rpn_cls_prob
I0628 22:01:10.348613 58648 net.cpp:157] Top shape: 1 2 342 63 (43092)
I0628 22:01:10.348616 58648 net.cpp:165] Memory required for data: 1447068916
I0628 22:01:10.348619 58648 layer_factory.hpp:77] Creating layer rpn_cls_prob_reshape
I0628 22:01:10.348628 58648 net.cpp:106] Creating Layer rpn_cls_prob_reshape
I0628 22:01:10.348633 58648 net.cpp:454] rpn_cls_prob_reshape <- rpn_cls_prob
I0628 22:01:10.348639 58648 net.cpp:411] rpn_cls_prob_reshape -> rpn_cls_prob_reshape
I0628 22:01:10.348685 58648 net.cpp:150] Setting up rpn_cls_prob_reshape
I0628 22:01:10.348697 58648 net.cpp:157] Top shape: 1 18 38 63 (43092)
I0628 22:01:10.348701 58648 net.cpp:165] Memory required for data: 1447241284
I0628 22:01:10.348704 58648 layer_factory.hpp:77] Creating layer proposal
I0628 22:01:10.349587 58648 net.cpp:106] Creating Layer proposal
I0628 22:01:10.349611 58648 net.cpp:454] proposal <- rpn_cls_prob_reshape
I0628 22:01:10.349617 58648 net.cpp:454] proposal <- rpn_bbox_pred_rpn_bbox_pred_0_split_1
I0628 22:01:10.349622 58648 net.cpp:454] proposal <- im_info_input-data_1_split_1
I0628 22:01:10.349627 58648 net.cpp:411] proposal -> rpn_rois
I0628 22:01:10.350921 58648 net.cpp:150] Setting up proposal
I0628 22:01:10.350944 58648 net.cpp:157] Top shape: 1 5 (5)
I0628 22:01:10.350949 58648 net.cpp:165] Memory required for data: 1447241304
I0628 22:01:10.350953 58648 layer_factory.hpp:77] Creating layer roi-data
I0628 22:01:10.351137 58648 net.cpp:106] Creating Layer roi-data
I0628 22:01:10.351156 58648 net.cpp:454] roi-data <- rpn_rois
I0628 22:01:10.351162 58648 net.cpp:454] roi-data <- gt_boxes_input-data_2_split_1
I0628 22:01:10.351167 58648 net.cpp:411] roi-data -> rois
I0628 22:01:10.351174 58648 net.cpp:411] roi-data -> labels
I0628 22:01:10.351181 58648 net.cpp:411] roi-data -> bbox_targets
I0628 22:01:10.351196 58648 net.cpp:411] roi-data -> bbox_inside_weights
I0628 22:01:10.351202 58648 net.cpp:411] roi-data -> bbox_outside_weights
I0628 22:01:10.351641 58648 net.cpp:150] Setting up roi-data
I0628 22:01:10.351661 58648 net.cpp:157] Top shape: 1 5 (5)
I0628 22:01:10.351666 58648 net.cpp:157] Top shape: 1 1 (1)
I0628 22:01:10.351670 58648 net.cpp:157] Top shape: 1 84 (84)
I0628 22:01:10.351673 58648 net.cpp:157] Top shape: 1 84 (84)
I0628 22:01:10.351677 58648 net.cpp:157] Top shape: 1 84 (84)
I0628 22:01:10.351680 58648 net.cpp:165] Memory required for data: 1447242336
I0628 22:01:10.351685 58648 layer_factory.hpp:77] Creating layer roi_pool5
I0628 22:01:10.351696 58648 net.cpp:106] Creating Layer roi_pool5
I0628 22:01:10.351708 58648 net.cpp:454] roi_pool5 <- newP4_newP4_0_split_1
I0628 22:01:10.351714 58648 net.cpp:454] roi_pool5 <- rois
I0628 22:01:10.351718 58648 net.cpp:411] roi_pool5 -> rcnn_pool5
I0628 22:01:10.351727 58648 roi_pooling_layer.cpp:30] Spatial scale: 0.25
I0628 22:01:10.351810 58648 net.cpp:150] Setting up roi_pool5
I0628 22:01:10.351822 58648 net.cpp:157] Top shape: 1 256 7 7 (12544)
I0628 22:01:10.351825 58648 net.cpp:165] Memory required for data: 1447292512
I0628 22:01:10.351830 58648 layer_factory.hpp:77] Creating layer rcnn_fc6
I0628 22:01:10.351841 58648 net.cpp:106] Creating Layer rcnn_fc6
I0628 22:01:10.351845 58648 net.cpp:454] rcnn_fc6 <- rcnn_pool5
I0628 22:01:10.351850 58648 net.cpp:411] rcnn_fc6 -> rcnn_fc6
I0628 22:01:10.717170 58648 net.cpp:150] Setting up rcnn_fc6
I0628 22:01:10.717218 58648 net.cpp:157] Top shape: 1 4096 (4096)
I0628 22:01:10.717224 58648 net.cpp:165] Memory required for data: 1447308896
I0628 22:01:10.717236 58648 layer_factory.hpp:77] Creating layer relu6
I0628 22:01:10.717250 58648 net.cpp:106] Creating Layer relu6
I0628 22:01:10.717257 58648 net.cpp:454] relu6 <- rcnn_fc6
I0628 22:01:10.717264 58648 net.cpp:397] relu6 -> rcnn_fc6 (in-place)
I0628 22:01:10.718354 58648 net.cpp:150] Setting up relu6
I0628 22:01:10.718375 58648 net.cpp:157] Top shape: 1 4096 (4096)
I0628 22:01:10.718379 58648 net.cpp:165] Memory required for data: 1447325280
I0628 22:01:10.718384 58648 layer_factory.hpp:77] Creating layer drop6
I0628 22:01:10.718400 58648 net.cpp:106] Creating Layer drop6
I0628 22:01:10.718405 58648 net.cpp:454] drop6 <- rcnn_fc6
I0628 22:01:10.718410 58648 net.cpp:397] drop6 -> rcnn_fc6 (in-place)
I0628 22:01:10.718466 58648 net.cpp:150] Setting up drop6
I0628 22:01:10.718474 58648 net.cpp:157] Top shape: 1 4096 (4096)
I0628 22:01:10.718477 58648 net.cpp:165] Memory required for data: 1447341664
I0628 22:01:10.718480 58648 layer_factory.hpp:77] Creating layer fc7
I0628 22:01:10.718499 58648 net.cpp:106] Creating Layer fc7
I0628 22:01:10.718503 58648 net.cpp:454] fc7 <- rcnn_fc6
I0628 22:01:10.718509 58648 net.cpp:411] fc7 -> fc7
I0628 22:01:10.841728 58648 net.cpp:150] Setting up fc7
I0628 22:01:10.841784 58648 net.cpp:157] Top shape: 1 4096 (4096)
I0628 22:01:10.841789 58648 net.cpp:165] Memory required for data: 1447358048
I0628 22:01:10.841800 58648 layer_factory.hpp:77] Creating layer relu7
I0628 22:01:10.841811 58648 net.cpp:106] Creating Layer relu7
I0628 22:01:10.841817 58648 net.cpp:454] relu7 <- fc7
I0628 22:01:10.841827 58648 net.cpp:397] relu7 -> fc7 (in-place)
I0628 22:01:10.842321 58648 net.cpp:150] Setting up relu7
I0628 22:01:10.842352 58648 net.cpp:157] Top shape: 1 4096 (4096)
I0628 22:01:10.842360 58648 net.cpp:165] Memory required for data: 1447374432
I0628 22:01:10.842365 58648 layer_factory.hpp:77] Creating layer drop7
I0628 22:01:10.842376 58648 net.cpp:106] Creating Layer drop7
I0628 22:01:10.842383 58648 net.cpp:454] drop7 <- fc7
I0628 22:01:10.842401 58648 net.cpp:397] drop7 -> fc7 (in-place)
I0628 22:01:10.842515 58648 net.cpp:150] Setting up drop7
I0628 22:01:10.842528 58648 net.cpp:157] Top shape: 1 4096 (4096)
I0628 22:01:10.842535 58648 net.cpp:165] Memory required for data: 1447390816
I0628 22:01:10.842540 58648 layer_factory.hpp:77] Creating layer fc7_drop7_0_split
I0628 22:01:10.842553 58648 net.cpp:106] Creating Layer fc7_drop7_0_split
I0628 22:01:10.842561 58648 net.cpp:454] fc7_drop7_0_split <- fc7
I0628 22:01:10.842573 58648 net.cpp:411] fc7_drop7_0_split -> fc7_drop7_0_split_0
I0628 22:01:10.842583 58648 net.cpp:411] fc7_drop7_0_split -> fc7_drop7_0_split_1
I0628 22:01:10.842815 58648 net.cpp:150] Setting up fc7_drop7_0_split
I0628 22:01:10.842834 58648 net.cpp:157] Top shape: 1 4096 (4096)
I0628 22:01:10.842840 58648 net.cpp:157] Top shape: 1 4096 (4096)
I0628 22:01:10.842844 58648 net.cpp:165] Memory required for data: 1447423584
I0628 22:01:10.842849 58648 layer_factory.hpp:77] Creating layer cls_score
I0628 22:01:10.842872 58648 net.cpp:106] Creating Layer cls_score
I0628 22:01:10.842882 58648 net.cpp:454] cls_score <- fc7_drop7_0_split_0
I0628 22:01:10.842895 58648 net.cpp:411] cls_score -> cls_score
I0628 22:01:10.846884 58648 net.cpp:150] Setting up cls_score
I0628 22:01:10.846920 58648 net.cpp:157] Top shape: 1 21 (21)
I0628 22:01:10.846928 58648 net.cpp:165] Memory required for data: 1447423668
I0628 22:01:10.846940 58648 layer_factory.hpp:77] Creating layer bbox_pred
I0628 22:01:10.846951 58648 net.cpp:106] Creating Layer bbox_pred
I0628 22:01:10.846958 58648 net.cpp:454] bbox_pred <- fc7_drop7_0_split_1
I0628 22:01:10.846978 58648 net.cpp:411] bbox_pred -> bbox_pred
I0628 22:01:10.861366 58648 net.cpp:150] Setting up bbox_pred
I0628 22:01:10.861402 58648 net.cpp:157] Top shape: 1 84 (84)
I0628 22:01:10.861408 58648 net.cpp:165] Memory required for data: 1447424004
I0628 22:01:10.861415 58648 layer_factory.hpp:77] Creating layer loss_cls
I0628 22:01:10.861428 58648 net.cpp:106] Creating Layer loss_cls
I0628 22:01:10.861439 58648 net.cpp:454] loss_cls <- cls_score
I0628 22:01:10.861457 58648 net.cpp:454] loss_cls <- labels
I0628 22:01:10.861470 58648 net.cpp:411] loss_cls -> loss_cls
…
