…
stepsize: 50000
snapshot: 0
snapshot_prefix: "fpn"
average_loss: 100
iter_size: 2
I0628 12:08:19.229121 54241 solver.cpp:81] Creating training net from train_net file: models/pascal_voc/VGG16/FP_Net_end2end/train.prototxt
I0628 12:08:19.230734 54241 net.cpp:49] Initializing net from parameters: 
name: "VGG_ILSVRC_16_layers"
state {
  phase: TRAIN
}
layer {
  name: "input-data"
  type: "Python"
  top: "data"
  top: "im_info"
  top: "gt_boxes"
  python_param {
    module: "roi_data_layer.layer"
    layer: "RoIDataLayer"
    param_str: "\'num_classes\': 21"
  }
}
layer {
  name: "conv1_1"
  type: "Convolution"
  bottom: "data"
  top: "conv1_1"
  param {
    lr_mult: 0
    decay_mult: 0
  }
  param {
    lr_mult: 0
    decay_mult: 0
  }
  convolution_param {
    num_output: 64
    pad: 1
    kernel_size: 3
  }
}
layer {
  name: "relu1_1"
  type: "ReLU"
  bottom: "conv1_1"
  top: "conv1_1"
}
layer {
  name: "conv1_2"
  type: "Convolution"
  bottom: "conv1_1"
  top: "conv1_2"
  param {
    lr_mult: 0
    decay_mult: 0
  }
  param {
    lr_mult: 0
    decay_mult: 0
  }
  convolution_param {
    num_output: 64
    pad: 1
    kernel_size: 3
  }
}
layer {
  name: "relu1_2"
  type: "ReLU"
  bottom: "conv1_2"
  top: "conv1_2"
}
layer {
  name: "pool1"
  type: "Pooling"
  bottom: "conv1_2"
  top: "pool1"
  pooling_param {
    pool: MAX
    kernel_size: 2
    stride: 2
  }
}
layer {
  name: "conv2_1"
  type: "Convolution"
  bottom: "pool1"
  top: "conv2_1"
  param {
    lr_mult: 0
    decay_mult: 0
  }
  param {
    lr_mult: 0
    decay_mult: 0
  }
  convolution_param {
    num_output: 128
    pad: 1
    kernel_size: 3
  }
}
layer {
  name: "relu2_1"
  type: "ReLU"
  bottom: "conv2_1"
  top: "conv2_1"
}
layer {
  name: "conv2_2"
  type: "Convolution"
  bottom: "conv2_1"
  top: "conv2_2"
  param {
    lr_mult: 0
    decay_mult: 0
  }
  param {
    lr_mult: 0
    decay_mult: 0
  }
  convolution_param {
    num_output: 128
    pad: 1
    kernel_size: 3
  }
}
layer {
  name: "relu2_2"
  type: "ReLU"
  bottom: "conv2_2"
  top: "conv2_2"
}
layer {
  name: "pool2"
  type: "Pooling"
  bottom: "conv2_2"
  top: "pool2"
  pooling_param {
    pool: MAX
    kernel_size: 2
    stride: 2
  }
}
layer {
  name: "conv3_1"
  type: "Convolution"
  bottom: "pool2"
  top: "conv3_1"
  param {
    lr_mult: 1
  }
  param {
    lr_mult: 2
  }
  convolution_param {
    num_output: 256
    pad: 1
    kernel_size: 3
  }
}
layer {
  name: "relu3_1"
  type: "ReLU"
  bottom: "conv3_1"
  top: "conv3_1"
}
layer {
  name: "conv3_2"
  type: "Convolution"
  bottom: "conv3_1"
  top: "conv3_2"
  param {
    lr_mult: 1
  }
  param {
    lr_mult: 2
  }
  convolution_param {
    num_output: 256
    pad: 1
    kernel_size: 3
  }
}
layer {
  name: "relu3_2"
  type: "ReLU"
  bottom: "conv3_2"
  top: "conv3_2"
}
layer {
  name: "conv3_3"
  type: "Convolution"
  bottom: "conv3_2"
  top: "conv3_3"
  param {
    lr_mult: 1
  }
  param {
    lr_mult: 2
  }
  convolution_param {
    num_output: 256
    pad: 1
    kernel_size: 3
  }
}
layer {
  name: "relu3_3"
  type: "ReLU"
  bottom: "conv3_3"
  top: "conv3_3"
}
layer {
  name: "pool3"
  type: "Pooling"
  bottom: "conv3_3"
  top: "pool3"
  pooling_param {
    pool: MAX
    kernel_size: 2
    stride: 2
  }
}
layer {
  name: "conv4_1"
  type: "Convolution"
  bottom: "pool3"
  top: "conv4_1"
  param {
    lr_mult: 1
  }
  param {
    lr_mult: 2
  }
  convolution_param {
    num_output: 512
    pad: 1
    kernel_size: 3
  }
}
layer {
  name: "relu4_1"
  type: "ReLU"
  bottom: "conv4_1"
  top: "conv4_1"
}
layer {
  name: "conv4_2"
  type: "Convolution"
  bottom: "conv4_1"
  top: "conv4_2"
  param {
    lr_mult: 1
  }
  param {
    lr_mult: 2
  }
  convolution_param {
    num_output: 512
    pad: 1
    kernel_size: 3
  }
}
layer {
  name: "relu4_2"
  type: "ReLU"
  bottom: "conv4_2"
  top: "conv4_2"
}
layer {
  name: "conv4_3"
  type: "Convolution"
  bottom: "conv4_2"
  top: "conv4_3"
  param {
    lr_mult: 1
  }
  param {
    lr_mult: 2
  }
  convolution_param {
    num_output: 512
    pad: 1
    kernel_size: 3
  }
}
layer {
  name: "relu4_3"
  type: "ReLU"
  bottom: "conv4_3"
  top: "conv4_3"
}
layer {
  name: "pool4"
  type: "Pooling"
  bottom: "conv4_3"
  top: "pool4"
  pooling_param {
    pool: MAX
    kernel_size: 2
    stride: 2
  }
}
layer {
  name: "conv5_1"
  type: "Convolution"
  bottom: "pool4"
  top: "conv5_1"
  param {
    lr_mult: 1
  }
  param {
    lr_mult: 2
  }
  convolution_param {
    num_output: 512
    pad: 1
    kernel_size: 3
  }
}
layer {
  name: "relu5_1"
  type: "ReLU"
  bottom: "conv5_1"
  top: "conv5_1"
}
layer {
  name: "conv5_2"
  type: "Convolution"
  bottom: "conv5_1"
  top: "conv5_2"
  param {
    lr_mult: 1
  }
  param {
    lr_mult: 2
  }
  convolution_param {
    num_output: 512
    pad: 1
    kernel_size: 3
  }
}
layer {
  name: "relu5_2"
  type: "ReLU"
  bottom: "conv5_2"
  top: "conv5_2"
}
layer {
  name: "conv5_3"
  type: "Convolution"
  bottom: "conv5_2"
  top: "conv5_3"
  param {
    lr_mult: 1
  }
  param {
    lr_mult: 2
  }
  convolution_param {
    num_output: 512
    pad: 1
    kernel_size: 3
  }
}
layer {
  name: "relu5_3"
  type: "ReLU"
  bottom: "conv5_3"
  top: "conv5_3"
}
layer {
  name: "pool5"
  type: "Pooling"
  bottom: "conv5_3"
  top: "pool5"
  pooling_param {
    pool: MAX
    kernel_size: 2
    stride: 2
  }
}
layer {
  name: "P5"
  type: "Convolution"
  bottom: "pool5"
  top: "P5"
  param {
    lr_mult: 1
  }
  param {
    lr_mult: 2
  }
  convolution_param {
    num_output: 256
    kernel_size: 1
    weight_filler {
      type: "xavier"
    }
    bias_filler {
      type: "constant"
    }
  }
}
layer {
  name: "upP5"
  type: "Deconvolution"
  bottom: "P5"
  top: "upP5"
  param {
    lr_mult: 0
    decay_mult: 0
  }
  convolution_param {
    num_output: 256
    bias_term: false
    pad: 1
    kernel_size: 4
    stride: 2
    weight_filler {
      type: "bilinear"
    }
  }
}
layer {
  name: "newC4"
  type: "Convolution"
  bottom: "conv5_3"
  top: "newC4"
  param {
    lr_mult: 1
  }
  param {
    lr_mult: 2
  }
  convolution_param {
    num_output: 256
    kernel_size: 1
    weight_filler {
      type: "xavier"
    }
    bias_filler {
      type: "constant"
    }
  }
}
layer {
  name: "upP5crop"
  type: "Crop"
  bottom: "upP5"
  bottom: "newC4"
  top: "upP5crop"
  crop_param {
    axis: 2
    offset: 0
  }
}
layer {
  name: "P4"
  type: "Eltwise"
  bottom: "newC4"
  bottom: "upP5crop"
  top: "P4"
  eltwise_param {
    operation: SUM
  }
}
layer {
  name: "upP4"
  type: "Deconvolution"
  bottom: "P4"
  top: "upP4"
  param {
    lr_mult: 0
    decay_mult: 0
  }
  convolution_param {
    num_output: 256
    bias_term: false
    pad: 1
    kernel_size: 4
    stride: 2
    weight_filler {
      type: "bilinear"
    }
  }
}
layer {
  name: "newC3"
  type: "Convolution"
  bottom: "conv4_3"
  top: "newC3"
  param {
    lr_mult: 1
  }
  param {
    lr_mult: 2
  }
  convolution_param {
    num_output: 256
    kernel_size: 1
    weight_filler {
      type: "xavier"
    }
    bias_filler {
      type: "constant"
    }
  }
}
layer {
  name: "upP4crop"
  type: "Crop"
  bottom: "upP4"
  bottom: "newC3"
  top: "upP4crop"
  crop_param {
    axis: 2
    offset: 0
  }
}
layer {
  name: "P3"
  type: "Eltwise"
  bottom: "newC3"
  bottom: "upP4crop"
  top: "P3"
  eltwise_param {
    operation: SUM
  }
}
layer {
  name: "upP3"
  type: "Deconvolution"
  bottom: "P3"
  top: "upP3"
  param {
    lr_mult: 0
    decay_mult: 0
  }
  convolution_param {
    num_output: 256
    bias_term: false
    pad: 1
    kernel_size: 4
    stride: 2
    weight_filler {
      type: "bilinear"
    }
  }
}
layer {
  name: "upP3crop"
  type: "Crop"
  bottom: "upP3"
  bottom: "conv3_3"
  top: "upP3crop"
  crop_param {
    axis: 2
    offset: 0
  }
}
layer {
  name: "P2"
  type: "Eltwise"
  bottom: "conv3_3"
  bottom: "upP3crop"
  top: "P2"
  eltwise_param {
    operation: SUM
  }
}
layer {
  name: "newP2"
  type: "Convolution"
  bottom: "P2"
  top: "newP2"
  param {
    lr_mult: 1
  }
  param {
    lr_mult: 2
  }
  convolution_param {
    num_output: 256
    pad: 1
    kernel_size: 3
    weight_filler {
      type: "xavier"
    }
    bias_filler {
      type: "constant"
    }
  }
}
layer {
  name: "rpn_conv/3x3"
  type: "Convolution"
  bottom: "newP2"
  top: "rpn/output"
  param {
    lr_mult: 1
  }
  param {
    lr_mult: 2
  }
  convolution_param {
    num_output: 512
    pad: 1
    kernel_size: 3
    stride: 1
    weight_filler {
      type: "gaussian"
      std: 0.01
    }
    bias_filler {
      type: "constant"
      value: 0
    }
  }
}
layer {
  name: "rpn_relu/3x3"
  type: "ReLU"
  bottom: "rpn/output"
  top: "rpn/output"
}
layer {
  name: "rpn_cls_score"
  type: "Convolution"
  bottom: "rpn/output"
  top: "rpn_cls_score"
  param {
    lr_mult: 1
  }
  param {
    lr_mult: 2
  }
  convolution_param {
    num_output: 18
    pad: 0
    kernel_size: 1
    stride: 1
    weight_filler {
      type: "gaussian"
      std: 0.01
    }
    bias_filler {
      type: "constant"
      value: 0
    }
  }
}
layer {
  name: "rpn_bbox_pred"
  type: "Convolution"
  bottom: "rpn/output"
  top: "rpn_bbox_pred"
  param {
    lr_mult: 1
  }
  param {
    lr_mult: 2
  }
  convolution_param {
    num_output: 36
    pad: 0
    kernel_size: 1
    stride: 1
    weight_filler {
      type: "gaussian"
      std: 0.01
    }
    bias_filler {
      type: "constant"
      value: 0
    }
  }
}
layer {
  name: "rpn_cls_score_reshape"
  type: "Reshape"
  bottom: "rpn_cls_score"
  top: "rpn_cls_score_reshape"
  reshape_param {
    shape {
      dim: 0
      dim: 2
      dim: -1
      dim: 0
    }
  }
}
layer {
  name: "rpn-data"
  type: "Python"
  bottom: "rpn_cls_score"
  bottom: "gt_boxes"
  bottom: "im_info"
  bottom: "data"
  top: "rpn_labels"
  top: "rpn_bbox_targets"
  top: "rpn_bbox_inside_weights"
  top: "rpn_bbox_outside_weights"
  python_param {
    module: "rpn.anchor_target_layer"
    layer: "AnchorTargetLayer"
    param_str: "\'feat_stride\': 4"
  }
}
layer {
  name: "rpn_loss_cls"
  type: "SoftmaxWithLoss"
  bottom: "rpn_cls_score_reshape"
  bottom: "rpn_labels"
  top: "rpn_cls_loss"
  loss_weight: 1
  propagate_down: true
  propagate_down: false
  loss_param {
    ignore_label: -1
    normalize: true
  }
}
layer {
  name: "rpn_loss_bbox"
  type: "SmoothL1Loss"
  bottom: "rpn_bbox_pred"
  bottom: "rpn_bbox_targets"
  bottom: "rpn_bbox_inside_weights"
  bottom: "rpn_bbox_outside_weights"
  top: "rpn_loss_bbox"
  loss_weight: 1
  smooth_l1_loss_param {
    sigma: 3
  }
}
layer {
  name: "rpn_cls_prob"
  type: "Softmax"
  bottom: "rpn_cls_score_reshape"
  top: "rpn_cls_prob"
}
layer {
  name: "rpn_cls_prob_reshape"
  type: "Reshape"
  bottom: "rpn_cls_prob"
  top: "rpn_cls_prob_reshape"
  reshape_param {
    shape {
      dim: 0
      dim: 18
      dim: -1
      dim: 0
    }
  }
}
layer {
  name: "proposal"
  type: "Python"
  bottom: "rpn_cls_prob_reshape"
  bottom: "rpn_bbox_pred"
  bottom: "im_info"
  top: "rpn_rois"
  python_param {
    module: "rpn.proposal_layer"
    layer: "ProposalLayer"
    param_str: "\'feat_stride\': 4"
  }
}
layer {
  name: "roi-data"
  type: "Python"
  bottom: "rpn_rois"
  bottom: "gt_boxes"
  top: "rois"
  top: "labels"
  top: "bbox_targets"
  top: "bbox_inside_weights"
  top: "bbox_outside_weights"
  python_param {
    module: "rpn.proposal_target_layer"
    layer: "ProposalTargetLayer"
    param_str: "\'num_classes\': 21"
  }
}
layer {
  name: "roi_pool5"
  type: "ROIPooling"
  bottom: "newP2"
  bottom: "rois"
  top: "rcnn_pool5"
  roi_pooling_param {
    pooled_h: 7
    pooled_w: 7
    spatial_scale: 0.25
  }
}
layer {
  name: "rcnn_fc6"
  type: "InnerProduct"
  bottom: "rcnn_pool5"
  top: "rcnn_fc6"
  param {
    lr_mult: 1
  }
  param {
    lr_mult: 2
  }
  inner_product_param {
    num_output: 4096
    weight_filler {
      type: "xavier"
    }
    bias_filler {
      type: "constant"
    }
  }
}
layer {
  name: "relu6"
  type: "ReLU"
  bottom: "rcnn_fc6"
  top: "rcnn_fc6"
}
layer {
  name: "drop6"
  type: "Dropout"
  bottom: "rcnn_fc6"
  top: "rcnn_fc6"
  dropout_param {
    dropout_ratio: 0.5
  }
}
layer {
  name: "fc7"
  type: "InnerProduct"
  bottom: "rcnn_fc6"
  top: "fc7"
  param {
    lr_mult: 1
  }
  param {
    lr_mult: 2
  }
  inner_product_param {
    num_output: 4096
    weight_filler {
      type: "xavier"
    }
    bias_filler {
      type: "constant"
    }
  }
}
layer {
  name: "relu7"
  type: "ReLU"
  bottom: "fc7"
  top: "fc7"
}
layer {
  name: "drop7"
  type: "Dropout"
  bottom: "fc7"
  top: "fc7"
  dropout_param {
    dropout_ratio: 0.5
  }
}
layer {
  name: "cls_score"
  type: "InnerProduct"
  bottom: "fc7"
  top: "cls_score"
  param {
    lr_mult: 1
  }
  param {
    lr_mult: 2
  }
  inner_product_param {
    num_output: 21
    weight_filler {
      type: "gaussian"
      std: 0.01
    }
    bias_filler {
      type: "constant"
      value: 0
    }
  }
}
layer {
  name: "bbox_pred"
  type: "InnerProduct"
  bottom: "fc7"
  top: "bbox_pred"
  param {
    lr_mult: 1
  }
  param {
    lr_mult: 2
  }
  inner_product_param {
    num_output: 84
    weight_filler {
      type: "gaussian"
      std: 0.001
    }
    bias_filler {
      type: "constant"
      value: 0
    }
  }
}
layer {
  name: "loss_cls"
  type: "SoftmaxWithLoss"
  bottom: "cls_score"
  bottom: "labels"
  top: "loss_cls"
  loss_weight: 1
  propagate_down: true
  propagate_down: false
}
layer {
  name: "loss_bbox"
  type: "SmoothL1Loss"
  bottom: "bbox_pred"
  bottom: "bbox_targets"
  bottom: "bbox_inside_weights"
  bottom: "bbox_outside_weights"
  top: "loss_bbox"
  loss_weight: 1
}
I0628 12:08:19.231111 54241 layer_factory.hpp:77] Creating layer input-data
I0628 12:08:19.233410 54241 net.cpp:106] Creating Layer input-data
I0628 12:08:19.233438 54241 net.cpp:411] input-data -> data
I0628 12:08:19.233458 54241 net.cpp:411] input-data -> im_info
I0628 12:08:19.233489 54241 net.cpp:411] input-data -> gt_boxes
RoiDataLayer: name_to_top: {'gt_boxes': 2, 'data': 0, 'im_info': 1}
I0628 12:08:19.247459 54241 net.cpp:150] Setting up input-data
I0628 12:08:19.247484 54241 net.cpp:157] Top shape: 1 3 600 1000 (1800000)
I0628 12:08:19.247490 54241 net.cpp:157] Top shape: 1 3 (3)
I0628 12:08:19.247509 54241 net.cpp:157] Top shape: 1 4 (4)
I0628 12:08:19.247522 54241 net.cpp:165] Memory required for data: 7200028
I0628 12:08:19.247536 54241 layer_factory.hpp:77] Creating layer data_input-data_0_split
I0628 12:08:19.247555 54241 net.cpp:106] Creating Layer data_input-data_0_split
I0628 12:08:19.247573 54241 net.cpp:454] data_input-data_0_split <- data
I0628 12:08:19.247592 54241 net.cpp:411] data_input-data_0_split -> data_input-data_0_split_0
I0628 12:08:19.247601 54241 net.cpp:411] data_input-data_0_split -> data_input-data_0_split_1
I0628 12:08:19.247644 54241 net.cpp:150] Setting up data_input-data_0_split
I0628 12:08:19.247658 54241 net.cpp:157] Top shape: 1 3 600 1000 (1800000)
I0628 12:08:19.247663 54241 net.cpp:157] Top shape: 1 3 600 1000 (1800000)
I0628 12:08:19.247665 54241 net.cpp:165] Memory required for data: 21600028
I0628 12:08:19.247669 54241 layer_factory.hpp:77] Creating layer im_info_input-data_1_split
I0628 12:08:19.247692 54241 net.cpp:106] Creating Layer im_info_input-data_1_split
I0628 12:08:19.247706 54241 net.cpp:454] im_info_input-data_1_split <- im_info
I0628 12:08:19.247733 54241 net.cpp:411] im_info_input-data_1_split -> im_info_input-data_1_split_0
I0628 12:08:19.247752 54241 net.cpp:411] im_info_input-data_1_split -> im_info_input-data_1_split_1
I0628 12:08:19.247802 54241 net.cpp:150] Setting up im_info_input-data_1_split
I0628 12:08:19.247817 54241 net.cpp:157] Top shape: 1 3 (3)
I0628 12:08:19.247822 54241 net.cpp:157] Top shape: 1 3 (3)
I0628 12:08:19.247824 54241 net.cpp:165] Memory required for data: 21600052
I0628 12:08:19.247828 54241 layer_factory.hpp:77] Creating layer gt_boxes_input-data_2_split
I0628 12:08:19.247833 54241 net.cpp:106] Creating Layer gt_boxes_input-data_2_split
I0628 12:08:19.247870 54241 net.cpp:454] gt_boxes_input-data_2_split <- gt_boxes
I0628 12:08:19.247890 54241 net.cpp:411] gt_boxes_input-data_2_split -> gt_boxes_input-data_2_split_0
I0628 12:08:19.247896 54241 net.cpp:411] gt_boxes_input-data_2_split -> gt_boxes_input-data_2_split_1
I0628 12:08:19.247933 54241 net.cpp:150] Setting up gt_boxes_input-data_2_split
I0628 12:08:19.247944 54241 net.cpp:157] Top shape: 1 4 (4)
I0628 12:08:19.247949 54241 net.cpp:157] Top shape: 1 4 (4)
I0628 12:08:19.247952 54241 net.cpp:165] Memory required for data: 21600084
I0628 12:08:19.247956 54241 layer_factory.hpp:77] Creating layer conv1_1
I0628 12:08:19.247987 54241 net.cpp:106] Creating Layer conv1_1
I0628 12:08:19.248015 54241 net.cpp:454] conv1_1 <- data_input-data_0_split_0
I0628 12:08:19.248033 54241 net.cpp:411] conv1_1 -> conv1_1
I0628 12:08:24.237041 54241 net.cpp:150] Setting up conv1_1
I0628 12:08:24.237093 54241 net.cpp:157] Top shape: 1 64 600 1000 (38400000)
I0628 12:08:24.237099 54241 net.cpp:165] Memory required for data: 175200084
I0628 12:08:24.237123 54241 layer_factory.hpp:77] Creating layer relu1_1
I0628 12:08:24.237140 54241 net.cpp:106] Creating Layer relu1_1
I0628 12:08:24.237176 54241 net.cpp:454] relu1_1 <- conv1_1
I0628 12:08:24.237197 54241 net.cpp:397] relu1_1 -> conv1_1 (in-place)
I0628 12:08:24.237932 54241 net.cpp:150] Setting up relu1_1
I0628 12:08:24.237954 54241 net.cpp:157] Top shape: 1 64 600 1000 (38400000)
I0628 12:08:24.237959 54241 net.cpp:165] Memory required for data: 328800084
I0628 12:08:24.237963 54241 layer_factory.hpp:77] Creating layer conv1_2
I0628 12:08:24.237975 54241 net.cpp:106] Creating Layer conv1_2
I0628 12:08:24.237979 54241 net.cpp:454] conv1_2 <- conv1_1
I0628 12:08:24.237985 54241 net.cpp:411] conv1_2 -> conv1_2
I0628 12:08:24.242389 54241 net.cpp:150] Setting up conv1_2
I0628 12:08:24.242414 54241 net.cpp:157] Top shape: 1 64 600 1000 (38400000)
I0628 12:08:24.242419 54241 net.cpp:165] Memory required for data: 482400084
I0628 12:08:24.242429 54241 layer_factory.hpp:77] Creating layer relu1_2
I0628 12:08:24.242436 54241 net.cpp:106] Creating Layer relu1_2
I0628 12:08:24.242440 54241 net.cpp:454] relu1_2 <- conv1_2
I0628 12:08:24.242445 54241 net.cpp:397] relu1_2 -> conv1_2 (in-place)
I0628 12:08:24.242611 54241 net.cpp:150] Setting up relu1_2
I0628 12:08:24.242627 54241 net.cpp:157] Top shape: 1 64 600 1000 (38400000)
I0628 12:08:24.242631 54241 net.cpp:165] Memory required for data: 636000084
I0628 12:08:24.242635 54241 layer_factory.hpp:77] Creating layer pool1
I0628 12:08:24.242648 54241 net.cpp:106] Creating Layer pool1
I0628 12:08:24.242652 54241 net.cpp:454] pool1 <- conv1_2
I0628 12:08:24.242658 54241 net.cpp:411] pool1 -> pool1
I0628 12:08:24.242707 54241 net.cpp:150] Setting up pool1
I0628 12:08:24.242713 54241 net.cpp:157] Top shape: 1 64 300 500 (9600000)
I0628 12:08:24.242717 54241 net.cpp:165] Memory required for data: 674400084
I0628 12:08:24.242719 54241 layer_factory.hpp:77] Creating layer conv2_1
I0628 12:08:24.242727 54241 net.cpp:106] Creating Layer conv2_1
I0628 12:08:24.242730 54241 net.cpp:454] conv2_1 <- pool1
I0628 12:08:24.242735 54241 net.cpp:411] conv2_1 -> conv2_1
I0628 12:08:24.245676 54241 net.cpp:150] Setting up conv2_1
I0628 12:08:24.245700 54241 net.cpp:157] Top shape: 1 128 300 500 (19200000)
I0628 12:08:24.245705 54241 net.cpp:165] Memory required for data: 751200084
I0628 12:08:24.245715 54241 layer_factory.hpp:77] Creating layer relu2_1
I0628 12:08:24.245721 54241 net.cpp:106] Creating Layer relu2_1
I0628 12:08:24.245725 54241 net.cpp:454] relu2_1 <- conv2_1
I0628 12:08:24.245730 54241 net.cpp:397] relu2_1 -> conv2_1 (in-place)
I0628 12:08:24.245898 54241 net.cpp:150] Setting up relu2_1
I0628 12:08:24.245913 54241 net.cpp:157] Top shape: 1 128 300 500 (19200000)
I0628 12:08:24.245916 54241 net.cpp:165] Memory required for data: 828000084
I0628 12:08:24.245920 54241 layer_factory.hpp:77] Creating layer conv2_2
I0628 12:08:24.245929 54241 net.cpp:106] Creating Layer conv2_2
I0628 12:08:24.245931 54241 net.cpp:454] conv2_2 <- conv2_1
I0628 12:08:24.245936 54241 net.cpp:411] conv2_2 -> conv2_2
I0628 12:08:24.249441 54241 net.cpp:150] Setting up conv2_2
I0628 12:08:24.249466 54241 net.cpp:157] Top shape: 1 128 300 500 (19200000)
I0628 12:08:24.249470 54241 net.cpp:165] Memory required for data: 904800084
I0628 12:08:24.249478 54241 layer_factory.hpp:77] Creating layer relu2_2
I0628 12:08:24.249485 54241 net.cpp:106] Creating Layer relu2_2
I0628 12:08:24.249488 54241 net.cpp:454] relu2_2 <- conv2_2
I0628 12:08:24.249495 54241 net.cpp:397] relu2_2 -> conv2_2 (in-place)
I0628 12:08:24.250212 54241 net.cpp:150] Setting up relu2_2
I0628 12:08:24.250233 54241 net.cpp:157] Top shape: 1 128 300 500 (19200000)
I0628 12:08:24.250237 54241 net.cpp:165] Memory required for data: 981600084
I0628 12:08:24.250241 54241 layer_factory.hpp:77] Creating layer pool2
I0628 12:08:24.250252 54241 net.cpp:106] Creating Layer pool2
I0628 12:08:24.250255 54241 net.cpp:454] pool2 <- conv2_2
I0628 12:08:24.250263 54241 net.cpp:411] pool2 -> pool2
I0628 12:08:24.250308 54241 net.cpp:150] Setting up pool2
I0628 12:08:24.250314 54241 net.cpp:157] Top shape: 1 128 150 250 (4800000)
I0628 12:08:24.250318 54241 net.cpp:165] Memory required for data: 1000800084
I0628 12:08:24.250320 54241 layer_factory.hpp:77] Creating layer conv3_1
I0628 12:08:24.250329 54241 net.cpp:106] Creating Layer conv3_1
I0628 12:08:24.250332 54241 net.cpp:454] conv3_1 <- pool2
I0628 12:08:24.250339 54241 net.cpp:411] conv3_1 -> conv3_1
I0628 12:08:24.253442 54241 net.cpp:150] Setting up conv3_1
I0628 12:08:24.253466 54241 net.cpp:157] Top shape: 1 256 150 250 (9600000)
I0628 12:08:24.253473 54241 net.cpp:165] Memory required for data: 1039200084
I0628 12:08:24.253484 54241 layer_factory.hpp:77] Creating layer relu3_1
I0628 12:08:24.253490 54241 net.cpp:106] Creating Layer relu3_1
I0628 12:08:24.253494 54241 net.cpp:454] relu3_1 <- conv3_1
I0628 12:08:24.253499 54241 net.cpp:397] relu3_1 -> conv3_1 (in-place)
I0628 12:08:24.253689 54241 net.cpp:150] Setting up relu3_1
I0628 12:08:24.253705 54241 net.cpp:157] Top shape: 1 256 150 250 (9600000)
I0628 12:08:24.253708 54241 net.cpp:165] Memory required for data: 1077600084
I0628 12:08:24.253712 54241 layer_factory.hpp:77] Creating layer conv3_2
I0628 12:08:24.253724 54241 net.cpp:106] Creating Layer conv3_2
I0628 12:08:24.253728 54241 net.cpp:454] conv3_2 <- conv3_1
I0628 12:08:24.253736 54241 net.cpp:411] conv3_2 -> conv3_2
I0628 12:08:24.257501 54241 net.cpp:150] Setting up conv3_2
I0628 12:08:24.257529 54241 net.cpp:157] Top shape: 1 256 150 250 (9600000)
I0628 12:08:24.257534 54241 net.cpp:165] Memory required for data: 1116000084
I0628 12:08:24.257541 54241 layer_factory.hpp:77] Creating layer relu3_2
I0628 12:08:24.257550 54241 net.cpp:106] Creating Layer relu3_2
I0628 12:08:24.257555 54241 net.cpp:454] relu3_2 <- conv3_2
I0628 12:08:24.257560 54241 net.cpp:397] relu3_2 -> conv3_2 (in-place)
I0628 12:08:24.257745 54241 net.cpp:150] Setting up relu3_2
I0628 12:08:24.257761 54241 net.cpp:157] Top shape: 1 256 150 250 (9600000)
I0628 12:08:24.257766 54241 net.cpp:165] Memory required for data: 1154400084
I0628 12:08:24.257769 54241 layer_factory.hpp:77] Creating layer conv3_3
I0628 12:08:24.257778 54241 net.cpp:106] Creating Layer conv3_3
I0628 12:08:24.257783 54241 net.cpp:454] conv3_3 <- conv3_2
I0628 12:08:24.257791 54241 net.cpp:411] conv3_3 -> conv3_3
I0628 12:08:24.261581 54241 net.cpp:150] Setting up conv3_3
I0628 12:08:24.261606 54241 net.cpp:157] Top shape: 1 256 150 250 (9600000)
I0628 12:08:24.261611 54241 net.cpp:165] Memory required for data: 1192800084
I0628 12:08:24.261620 54241 layer_factory.hpp:77] Creating layer relu3_3
I0628 12:08:24.261626 54241 net.cpp:106] Creating Layer relu3_3
I0628 12:08:24.261629 54241 net.cpp:454] relu3_3 <- conv3_3
I0628 12:08:24.261637 54241 net.cpp:397] relu3_3 -> conv3_3 (in-place)
I0628 12:08:24.262368 54241 net.cpp:150] Setting up relu3_3
I0628 12:08:24.262388 54241 net.cpp:157] Top shape: 1 256 150 250 (9600000)
I0628 12:08:24.262393 54241 net.cpp:165] Memory required for data: 1231200084
I0628 12:08:24.262397 54241 layer_factory.hpp:77] Creating layer conv3_3_relu3_3_0_split
I0628 12:08:24.262403 54241 net.cpp:106] Creating Layer conv3_3_relu3_3_0_split
I0628 12:08:24.262408 54241 net.cpp:454] conv3_3_relu3_3_0_split <- conv3_3
I0628 12:08:24.262415 54241 net.cpp:411] conv3_3_relu3_3_0_split -> conv3_3_relu3_3_0_split_0
I0628 12:08:24.262423 54241 net.cpp:411] conv3_3_relu3_3_0_split -> conv3_3_relu3_3_0_split_1
I0628 12:08:24.262428 54241 net.cpp:411] conv3_3_relu3_3_0_split -> conv3_3_relu3_3_0_split_2
I0628 12:08:24.262492 54241 net.cpp:150] Setting up conv3_3_relu3_3_0_split
I0628 12:08:24.262498 54241 net.cpp:157] Top shape: 1 256 150 250 (9600000)
I0628 12:08:24.262502 54241 net.cpp:157] Top shape: 1 256 150 250 (9600000)
I0628 12:08:24.262506 54241 net.cpp:157] Top shape: 1 256 150 250 (9600000)
I0628 12:08:24.262508 54241 net.cpp:165] Memory required for data: 1346400084
I0628 12:08:24.262512 54241 layer_factory.hpp:77] Creating layer pool3
I0628 12:08:24.262519 54241 net.cpp:106] Creating Layer pool3
I0628 12:08:24.262523 54241 net.cpp:454] pool3 <- conv3_3_relu3_3_0_split_0
I0628 12:08:24.262527 54241 net.cpp:411] pool3 -> pool3
I0628 12:08:24.262567 54241 net.cpp:150] Setting up pool3
I0628 12:08:24.262573 54241 net.cpp:157] Top shape: 1 256 75 125 (2400000)
I0628 12:08:24.262575 54241 net.cpp:165] Memory required for data: 1356000084
I0628 12:08:24.262578 54241 layer_factory.hpp:77] Creating layer conv4_1
I0628 12:08:24.262586 54241 net.cpp:106] Creating Layer conv4_1
I0628 12:08:24.262590 54241 net.cpp:454] conv4_1 <- pool3
I0628 12:08:24.262596 54241 net.cpp:411] conv4_1 -> conv4_1
I0628 12:08:24.269184 54241 net.cpp:150] Setting up conv4_1
I0628 12:08:24.269229 54241 net.cpp:157] Top shape: 1 512 75 125 (4800000)
I0628 12:08:24.269234 54241 net.cpp:165] Memory required for data: 1375200084
I0628 12:08:24.269244 54241 layer_factory.hpp:77] Creating layer relu4_1
I0628 12:08:24.269261 54241 net.cpp:106] Creating Layer relu4_1
I0628 12:08:24.269268 54241 net.cpp:454] relu4_1 <- conv4_1
I0628 12:08:24.269275 54241 net.cpp:397] relu4_1 -> conv4_1 (in-place)
I0628 12:08:24.270027 54241 net.cpp:150] Setting up relu4_1
I0628 12:08:24.270051 54241 net.cpp:157] Top shape: 1 512 75 125 (4800000)
I0628 12:08:24.270054 54241 net.cpp:165] Memory required for data: 1394400084
I0628 12:08:24.270058 54241 layer_factory.hpp:77] Creating layer conv4_2
I0628 12:08:24.270068 54241 net.cpp:106] Creating Layer conv4_2
I0628 12:08:24.270072 54241 net.cpp:454] conv4_2 <- conv4_1
I0628 12:08:24.270081 54241 net.cpp:411] conv4_2 -> conv4_2
I0628 12:08:24.278131 54241 net.cpp:150] Setting up conv4_2
I0628 12:08:24.278156 54241 net.cpp:157] Top shape: 1 512 75 125 (4800000)
I0628 12:08:24.278161 54241 net.cpp:165] Memory required for data: 1413600084
I0628 12:08:24.278173 54241 layer_factory.hpp:77] Creating layer relu4_2
I0628 12:08:24.278184 54241 net.cpp:106] Creating Layer relu4_2
I0628 12:08:24.278188 54241 net.cpp:454] relu4_2 <- conv4_2
I0628 12:08:24.278193 54241 net.cpp:397] relu4_2 -> conv4_2 (in-place)
I0628 12:08:24.278380 54241 net.cpp:150] Setting up relu4_2
I0628 12:08:24.278388 54241 net.cpp:157] Top shape: 1 512 75 125 (4800000)
I0628 12:08:24.278393 54241 net.cpp:165] Memory required for data: 1432800084
I0628 12:08:24.278396 54241 layer_factory.hpp:77] Creating layer conv4_3
I0628 12:08:24.278404 54241 net.cpp:106] Creating Layer conv4_3
I0628 12:08:24.278410 54241 net.cpp:454] conv4_3 <- conv4_2
I0628 12:08:24.278415 54241 net.cpp:411] conv4_3 -> conv4_3
I0628 12:08:24.285723 54241 net.cpp:150] Setting up conv4_3
I0628 12:08:24.285748 54241 net.cpp:157] Top shape: 1 512 75 125 (4800000)
I0628 12:08:24.285753 54241 net.cpp:165] Memory required for data: 1452000084
I0628 12:08:24.285760 54241 layer_factory.hpp:77] Creating layer relu4_3
I0628 12:08:24.285768 54241 net.cpp:106] Creating Layer relu4_3
I0628 12:08:24.285771 54241 net.cpp:454] relu4_3 <- conv4_3
I0628 12:08:24.285778 54241 net.cpp:397] relu4_3 -> conv4_3 (in-place)
I0628 12:08:24.286512 54241 net.cpp:150] Setting up relu4_3
I0628 12:08:24.286532 54241 net.cpp:157] Top shape: 1 512 75 125 (4800000)
I0628 12:08:24.286536 54241 net.cpp:165] Memory required for data: 1471200084
I0628 12:08:24.286540 54241 layer_factory.hpp:77] Creating layer conv4_3_relu4_3_0_split
I0628 12:08:24.286546 54241 net.cpp:106] Creating Layer conv4_3_relu4_3_0_split
I0628 12:08:24.286550 54241 net.cpp:454] conv4_3_relu4_3_0_split <- conv4_3
I0628 12:08:24.286558 54241 net.cpp:411] conv4_3_relu4_3_0_split -> conv4_3_relu4_3_0_split_0
I0628 12:08:24.286564 54241 net.cpp:411] conv4_3_relu4_3_0_split -> conv4_3_relu4_3_0_split_1
I0628 12:08:24.286612 54241 net.cpp:150] Setting up conv4_3_relu4_3_0_split
I0628 12:08:24.286620 54241 net.cpp:157] Top shape: 1 512 75 125 (4800000)
I0628 12:08:24.286624 54241 net.cpp:157] Top shape: 1 512 75 125 (4800000)
I0628 12:08:24.286628 54241 net.cpp:165] Memory required for data: 1509600084
I0628 12:08:24.286630 54241 layer_factory.hpp:77] Creating layer pool4
I0628 12:08:24.286638 54241 net.cpp:106] Creating Layer pool4
I0628 12:08:24.286640 54241 net.cpp:454] pool4 <- conv4_3_relu4_3_0_split_0
I0628 12:08:24.286645 54241 net.cpp:411] pool4 -> pool4
I0628 12:08:24.286685 54241 net.cpp:150] Setting up pool4
I0628 12:08:24.286691 54241 net.cpp:157] Top shape: 1 512 38 63 (1225728)
I0628 12:08:24.286695 54241 net.cpp:165] Memory required for data: 1514502996
I0628 12:08:24.286697 54241 layer_factory.hpp:77] Creating layer conv5_1
I0628 12:08:24.286706 54241 net.cpp:106] Creating Layer conv5_1
I0628 12:08:24.286710 54241 net.cpp:454] conv5_1 <- pool4
I0628 12:08:24.286718 54241 net.cpp:411] conv5_1 -> conv5_1
I0628 12:08:24.294028 54241 net.cpp:150] Setting up conv5_1
I0628 12:08:24.294056 54241 net.cpp:157] Top shape: 1 512 38 63 (1225728)
I0628 12:08:24.294060 54241 net.cpp:165] Memory required for data: 1519405908
I0628 12:08:24.294068 54241 layer_factory.hpp:77] Creating layer relu5_1
I0628 12:08:24.294077 54241 net.cpp:106] Creating Layer relu5_1
I0628 12:08:24.294081 54241 net.cpp:454] relu5_1 <- conv5_1
I0628 12:08:24.294087 54241 net.cpp:397] relu5_1 -> conv5_1 (in-place)
I0628 12:08:24.294275 54241 net.cpp:150] Setting up relu5_1
I0628 12:08:24.294291 54241 net.cpp:157] Top shape: 1 512 38 63 (1225728)
I0628 12:08:24.294294 54241 net.cpp:165] Memory required for data: 1524308820
I0628 12:08:24.294298 54241 layer_factory.hpp:77] Creating layer conv5_2
I0628 12:08:24.294313 54241 net.cpp:106] Creating Layer conv5_2
I0628 12:08:24.294317 54241 net.cpp:454] conv5_2 <- conv5_1
I0628 12:08:24.294324 54241 net.cpp:411] conv5_2 -> conv5_2
I0628 12:08:24.301689 54241 net.cpp:150] Setting up conv5_2
I0628 12:08:24.301715 54241 net.cpp:157] Top shape: 1 512 38 63 (1225728)
I0628 12:08:24.301720 54241 net.cpp:165] Memory required for data: 1529211732
I0628 12:08:24.301728 54241 layer_factory.hpp:77] Creating layer relu5_2
I0628 12:08:24.301733 54241 net.cpp:106] Creating Layer relu5_2
I0628 12:08:24.301740 54241 net.cpp:454] relu5_2 <- conv5_2
I0628 12:08:24.301746 54241 net.cpp:397] relu5_2 -> conv5_2 (in-place)
I0628 12:08:24.301928 54241 net.cpp:150] Setting up relu5_2
I0628 12:08:24.301944 54241 net.cpp:157] Top shape: 1 512 38 63 (1225728)
I0628 12:08:24.301949 54241 net.cpp:165] Memory required for data: 1534114644
I0628 12:08:24.301954 54241 layer_factory.hpp:77] Creating layer conv5_3
I0628 12:08:24.301961 54241 net.cpp:106] Creating Layer conv5_3
I0628 12:08:24.301964 54241 net.cpp:454] conv5_3 <- conv5_2
I0628 12:08:24.301975 54241 net.cpp:411] conv5_3 -> conv5_3
I0628 12:08:24.309293 54241 net.cpp:150] Setting up conv5_3
I0628 12:08:24.309319 54241 net.cpp:157] Top shape: 1 512 38 63 (1225728)
I0628 12:08:24.309324 54241 net.cpp:165] Memory required for data: 1539017556
I0628 12:08:24.309330 54241 layer_factory.hpp:77] Creating layer relu5_3
I0628 12:08:24.309340 54241 net.cpp:106] Creating Layer relu5_3
I0628 12:08:24.309345 54241 net.cpp:454] relu5_3 <- conv5_3
I0628 12:08:24.309350 54241 net.cpp:397] relu5_3 -> conv5_3 (in-place)
I0628 12:08:24.310086 54241 net.cpp:150] Setting up relu5_3
I0628 12:08:24.310106 54241 net.cpp:157] Top shape: 1 512 38 63 (1225728)
I0628 12:08:24.310111 54241 net.cpp:165] Memory required for data: 1543920468
I0628 12:08:24.310115 54241 layer_factory.hpp:77] Creating layer conv5_3_relu5_3_0_split
I0628 12:08:24.310122 54241 net.cpp:106] Creating Layer conv5_3_relu5_3_0_split
I0628 12:08:24.310125 54241 net.cpp:454] conv5_3_relu5_3_0_split <- conv5_3
I0628 12:08:24.310130 54241 net.cpp:411] conv5_3_relu5_3_0_split -> conv5_3_relu5_3_0_split_0
I0628 12:08:24.310139 54241 net.cpp:411] conv5_3_relu5_3_0_split -> conv5_3_relu5_3_0_split_1
I0628 12:08:24.310194 54241 net.cpp:150] Setting up conv5_3_relu5_3_0_split
I0628 12:08:24.310200 54241 net.cpp:157] Top shape: 1 512 38 63 (1225728)
I0628 12:08:24.310205 54241 net.cpp:157] Top shape: 1 512 38 63 (1225728)
I0628 12:08:24.310209 54241 net.cpp:165] Memory required for data: 1553726292
I0628 12:08:24.310211 54241 layer_factory.hpp:77] Creating layer pool5
I0628 12:08:24.310219 54241 net.cpp:106] Creating Layer pool5
I0628 12:08:24.310221 54241 net.cpp:454] pool5 <- conv5_3_relu5_3_0_split_0
I0628 12:08:24.310228 54241 net.cpp:411] pool5 -> pool5
I0628 12:08:24.310266 54241 net.cpp:150] Setting up pool5
I0628 12:08:24.310274 54241 net.cpp:157] Top shape: 1 512 19 32 (311296)
I0628 12:08:24.310277 54241 net.cpp:165] Memory required for data: 1554971476
I0628 12:08:24.310281 54241 layer_factory.hpp:77] Creating layer P5
I0628 12:08:24.310292 54241 net.cpp:106] Creating Layer P5
I0628 12:08:24.310294 54241 net.cpp:454] P5 <- pool5
I0628 12:08:24.310300 54241 net.cpp:411] P5 -> P5
I0628 12:08:24.313413 54241 net.cpp:150] Setting up P5
I0628 12:08:24.313437 54241 net.cpp:157] Top shape: 1 256 19 32 (155648)
I0628 12:08:24.313441 54241 net.cpp:165] Memory required for data: 1555594068
I0628 12:08:24.313448 54241 layer_factory.hpp:77] Creating layer upP5
I0628 12:08:24.313467 54241 net.cpp:106] Creating Layer upP5
I0628 12:08:24.313472 54241 net.cpp:454] upP5 <- P5
I0628 12:08:24.313477 54241 net.cpp:411] upP5 -> upP5
I0628 12:08:24.339406 54241 net.cpp:150] Setting up upP5
I0628 12:08:24.339428 54241 net.cpp:157] Top shape: 1 256 38 64 (622592)
I0628 12:08:24.339432 54241 net.cpp:165] Memory required for data: 1558084436
I0628 12:08:24.339437 54241 layer_factory.hpp:77] Creating layer newC4
I0628 12:08:24.339449 54241 net.cpp:106] Creating Layer newC4
I0628 12:08:24.339454 54241 net.cpp:454] newC4 <- conv5_3_relu5_3_0_split_1
I0628 12:08:24.339460 54241 net.cpp:411] newC4 -> newC4
I0628 12:08:24.341986 54241 net.cpp:150] Setting up newC4
I0628 12:08:24.342010 54241 net.cpp:157] Top shape: 1 256 38 63 (612864)
I0628 12:08:24.342015 54241 net.cpp:165] Memory required for data: 1560535892
I0628 12:08:24.342021 54241 layer_factory.hpp:77] Creating layer newC4_newC4_0_split
I0628 12:08:24.342027 54241 net.cpp:106] Creating Layer newC4_newC4_0_split
I0628 12:08:24.342031 54241 net.cpp:454] newC4_newC4_0_split <- newC4
I0628 12:08:24.342044 54241 net.cpp:411] newC4_newC4_0_split -> newC4_newC4_0_split_0
I0628 12:08:24.342051 54241 net.cpp:411] newC4_newC4_0_split -> newC4_newC4_0_split_1
I0628 12:08:24.342097 54241 net.cpp:150] Setting up newC4_newC4_0_split
I0628 12:08:24.342106 54241 net.cpp:157] Top shape: 1 256 38 63 (612864)
I0628 12:08:24.342111 54241 net.cpp:157] Top shape: 1 256 38 63 (612864)
I0628 12:08:24.342114 54241 net.cpp:165] Memory required for data: 1565438804
I0628 12:08:24.342118 54241 layer_factory.hpp:77] Creating layer upP5crop
I0628 12:08:24.342126 54241 net.cpp:106] Creating Layer upP5crop
I0628 12:08:24.342130 54241 net.cpp:454] upP5crop <- upP5
I0628 12:08:24.342135 54241 net.cpp:454] upP5crop <- newC4_newC4_0_split_0
I0628 12:08:24.342139 54241 net.cpp:411] upP5crop -> upP5crop
I0628 12:08:24.342241 54241 net.cpp:150] Setting up upP5crop
I0628 12:08:24.342252 54241 net.cpp:157] Top shape: 1 256 38 63 (612864)
I0628 12:08:24.342257 54241 net.cpp:165] Memory required for data: 1567890260
I0628 12:08:24.342259 54241 layer_factory.hpp:77] Creating layer P4
I0628 12:08:24.342270 54241 net.cpp:106] Creating Layer P4
I0628 12:08:24.342274 54241 net.cpp:454] P4 <- newC4_newC4_0_split_1
I0628 12:08:24.342278 54241 net.cpp:454] P4 <- upP5crop
I0628 12:08:24.342283 54241 net.cpp:411] P4 -> P4
I0628 12:08:24.342313 54241 net.cpp:150] Setting up P4
I0628 12:08:24.342317 54241 net.cpp:157] Top shape: 1 256 38 63 (612864)
I0628 12:08:24.342320 54241 net.cpp:165] Memory required for data: 1570341716
I0628 12:08:24.342324 54241 layer_factory.hpp:77] Creating layer upP4
I0628 12:08:24.342332 54241 net.cpp:106] Creating Layer upP4
I0628 12:08:24.342335 54241 net.cpp:454] upP4 <- P4
I0628 12:08:24.342340 54241 net.cpp:411] upP4 -> upP4
I0628 12:08:24.368456 54241 net.cpp:150] Setting up upP4
I0628 12:08:24.368495 54241 net.cpp:157] Top shape: 1 256 76 126 (2451456)
I0628 12:08:24.368499 54241 net.cpp:165] Memory required for data: 1580147540
I0628 12:08:24.368507 54241 layer_factory.hpp:77] Creating layer newC3
I0628 12:08:24.368523 54241 net.cpp:106] Creating Layer newC3
I0628 12:08:24.368530 54241 net.cpp:454] newC3 <- conv4_3_relu4_3_0_split_1
I0628 12:08:24.368537 54241 net.cpp:411] newC3 -> newC3
I0628 12:08:24.371783 54241 net.cpp:150] Setting up newC3
I0628 12:08:24.371810 54241 net.cpp:157] Top shape: 1 256 75 125 (2400000)
I0628 12:08:24.371815 54241 net.cpp:165] Memory required for data: 1589747540
I0628 12:08:24.371829 54241 layer_factory.hpp:77] Creating layer newC3_newC3_0_split
I0628 12:08:24.371853 54241 net.cpp:106] Creating Layer newC3_newC3_0_split
I0628 12:08:24.371858 54241 net.cpp:454] newC3_newC3_0_split <- newC3
I0628 12:08:24.371863 54241 net.cpp:411] newC3_newC3_0_split -> newC3_newC3_0_split_0
I0628 12:08:24.371870 54241 net.cpp:411] newC3_newC3_0_split -> newC3_newC3_0_split_1
I0628 12:08:24.371920 54241 net.cpp:150] Setting up newC3_newC3_0_split
I0628 12:08:24.371933 54241 net.cpp:157] Top shape: 1 256 75 125 (2400000)
I0628 12:08:24.371937 54241 net.cpp:157] Top shape: 1 256 75 125 (2400000)
I0628 12:08:24.371940 54241 net.cpp:165] Memory required for data: 1608947540
I0628 12:08:24.371944 54241 layer_factory.hpp:77] Creating layer upP4crop
I0628 12:08:24.371956 54241 net.cpp:106] Creating Layer upP4crop
I0628 12:08:24.371960 54241 net.cpp:454] upP4crop <- upP4
I0628 12:08:24.371964 54241 net.cpp:454] upP4crop <- newC3_newC3_0_split_0
I0628 12:08:24.371969 54241 net.cpp:411] upP4crop -> upP4crop
I0628 12:08:24.372074 54241 net.cpp:150] Setting up upP4crop
I0628 12:08:24.372087 54241 net.cpp:157] Top shape: 1 256 75 125 (2400000)
I0628 12:08:24.372090 54241 net.cpp:165] Memory required for data: 1618547540
I0628 12:08:24.372093 54241 layer_factory.hpp:77] Creating layer P3
I0628 12:08:24.372099 54241 net.cpp:106] Creating Layer P3
I0628 12:08:24.372103 54241 net.cpp:454] P3 <- newC3_newC3_0_split_1
I0628 12:08:24.372107 54241 net.cpp:454] P3 <- upP4crop
I0628 12:08:24.372114 54241 net.cpp:411] P3 -> P3
I0628 12:08:24.372141 54241 net.cpp:150] Setting up P3
I0628 12:08:24.372154 54241 net.cpp:157] Top shape: 1 256 75 125 (2400000)
I0628 12:08:24.372158 54241 net.cpp:165] Memory required for data: 1628147540
I0628 12:08:24.372160 54241 layer_factory.hpp:77] Creating layer upP3
I0628 12:08:24.372167 54241 net.cpp:106] Creating Layer upP3
I0628 12:08:24.372171 54241 net.cpp:454] upP3 <- P3
I0628 12:08:24.372179 54241 net.cpp:411] upP3 -> upP3
I0628 12:08:24.398102 54241 net.cpp:150] Setting up upP3
I0628 12:08:24.398123 54241 net.cpp:157] Top shape: 1 256 150 250 (9600000)
I0628 12:08:24.398128 54241 net.cpp:165] Memory required for data: 1666547540
I0628 12:08:24.398133 54241 layer_factory.hpp:77] Creating layer upP3crop
I0628 12:08:24.398139 54241 net.cpp:106] Creating Layer upP3crop
I0628 12:08:24.398144 54241 net.cpp:454] upP3crop <- upP3
I0628 12:08:24.398149 54241 net.cpp:454] upP3crop <- conv3_3_relu3_3_0_split_1
I0628 12:08:24.398154 54241 net.cpp:411] upP3crop -> upP3crop
I0628 12:08:24.398263 54241 net.cpp:150] Setting up upP3crop
I0628 12:08:24.398277 54241 net.cpp:157] Top shape: 1 256 150 250 (9600000)
I0628 12:08:24.398280 54241 net.cpp:165] Memory required for data: 1704947540
I0628 12:08:24.398284 54241 layer_factory.hpp:77] Creating layer P2
I0628 12:08:24.398289 54241 net.cpp:106] Creating Layer P2
I0628 12:08:24.398293 54241 net.cpp:454] P2 <- conv3_3_relu3_3_0_split_2
I0628 12:08:24.398298 54241 net.cpp:454] P2 <- upP3crop
I0628 12:08:24.398304 54241 net.cpp:411] P2 -> P2
I0628 12:08:24.398334 54241 net.cpp:150] Setting up P2
I0628 12:08:24.398350 54241 net.cpp:157] Top shape: 1 256 150 250 (9600000)
I0628 12:08:24.398352 54241 net.cpp:165] Memory required for data: 1743347540
I0628 12:08:24.398355 54241 layer_factory.hpp:77] Creating layer newP2
I0628 12:08:24.398365 54241 net.cpp:106] Creating Layer newP2
I0628 12:08:24.398368 54241 net.cpp:454] newP2 <- P2
I0628 12:08:24.398376 54241 net.cpp:411] newP2 -> newP2
I0628 12:08:24.404518 54241 net.cpp:150] Setting up newP2
I0628 12:08:24.404543 54241 net.cpp:157] Top shape: 1 256 150 250 (9600000)
I0628 12:08:24.404548 54241 net.cpp:165] Memory required for data: 1781747540
I0628 12:08:24.404556 54241 layer_factory.hpp:77] Creating layer newP2_newP2_0_split
I0628 12:08:24.404562 54241 net.cpp:106] Creating Layer newP2_newP2_0_split
I0628 12:08:24.404572 54241 net.cpp:454] newP2_newP2_0_split <- newP2
I0628 12:08:24.404578 54241 net.cpp:411] newP2_newP2_0_split -> newP2_newP2_0_split_0
I0628 12:08:24.404588 54241 net.cpp:411] newP2_newP2_0_split -> newP2_newP2_0_split_1
I0628 12:08:24.404642 54241 net.cpp:150] Setting up newP2_newP2_0_split
I0628 12:08:24.404655 54241 net.cpp:157] Top shape: 1 256 150 250 (9600000)
I0628 12:08:24.404660 54241 net.cpp:157] Top shape: 1 256 150 250 (9600000)
I0628 12:08:24.404664 54241 net.cpp:165] Memory required for data: 1858547540
I0628 12:08:24.404667 54241 layer_factory.hpp:77] Creating layer rpn_conv/3x3
I0628 12:08:24.404680 54241 net.cpp:106] Creating Layer rpn_conv/3x3
I0628 12:08:24.404690 54241 net.cpp:454] rpn_conv/3x3 <- newP2_newP2_0_split_0
I0628 12:08:24.404696 54241 net.cpp:411] rpn_conv/3x3 -> rpn/output
I0628 12:08:24.437571 54241 net.cpp:150] Setting up rpn_conv/3x3
I0628 12:08:24.437618 54241 net.cpp:157] Top shape: 1 512 150 250 (19200000)
I0628 12:08:24.437623 54241 net.cpp:165] Memory required for data: 1935347540
I0628 12:08:24.437633 54241 layer_factory.hpp:77] Creating layer rpn_relu/3x3
I0628 12:08:24.437641 54241 net.cpp:106] Creating Layer rpn_relu/3x3
I0628 12:08:24.437647 54241 net.cpp:454] rpn_relu/3x3 <- rpn/output
I0628 12:08:24.437655 54241 net.cpp:397] rpn_relu/3x3 -> rpn/output (in-place)
I0628 12:08:24.437863 54241 net.cpp:150] Setting up rpn_relu/3x3
I0628 12:08:24.437880 54241 net.cpp:157] Top shape: 1 512 150 250 (19200000)
I0628 12:08:24.437885 54241 net.cpp:165] Memory required for data: 2012147540
I0628 12:08:24.437887 54241 layer_factory.hpp:77] Creating layer rpn/output_rpn_relu/3x3_0_split
I0628 12:08:24.437893 54241 net.cpp:106] Creating Layer rpn/output_rpn_relu/3x3_0_split
I0628 12:08:24.437897 54241 net.cpp:454] rpn/output_rpn_relu/3x3_0_split <- rpn/output
I0628 12:08:24.437904 54241 net.cpp:411] rpn/output_rpn_relu/3x3_0_split -> rpn/output_rpn_relu/3x3_0_split_0
I0628 12:08:24.437911 54241 net.cpp:411] rpn/output_rpn_relu/3x3_0_split -> rpn/output_rpn_relu/3x3_0_split_1
I0628 12:08:24.437968 54241 net.cpp:150] Setting up rpn/output_rpn_relu/3x3_0_split
I0628 12:08:24.437983 54241 net.cpp:157] Top shape: 1 512 150 250 (19200000)
I0628 12:08:24.437988 54241 net.cpp:157] Top shape: 1 512 150 250 (19200000)
I0628 12:08:24.437990 54241 net.cpp:165] Memory required for data: 2165747540
I0628 12:08:24.437994 54241 layer_factory.hpp:77] Creating layer rpn_cls_score
I0628 12:08:24.438005 54241 net.cpp:106] Creating Layer rpn_cls_score
I0628 12:08:24.438009 54241 net.cpp:454] rpn_cls_score <- rpn/output_rpn_relu/3x3_0_split_0
I0628 12:08:24.438015 54241 net.cpp:411] rpn_cls_score -> rpn_cls_score
I0628 12:08:24.440807 54241 net.cpp:150] Setting up rpn_cls_score
I0628 12:08:24.440832 54241 net.cpp:157] Top shape: 1 18 150 250 (675000)
I0628 12:08:24.440837 54241 net.cpp:165] Memory required for data: 2168447540
I0628 12:08:24.440845 54241 layer_factory.hpp:77] Creating layer rpn_cls_score_rpn_cls_score_0_split
I0628 12:08:24.440851 54241 net.cpp:106] Creating Layer rpn_cls_score_rpn_cls_score_0_split
I0628 12:08:24.440861 54241 net.cpp:454] rpn_cls_score_rpn_cls_score_0_split <- rpn_cls_score
I0628 12:08:24.440867 54241 net.cpp:411] rpn_cls_score_rpn_cls_score_0_split -> rpn_cls_score_rpn_cls_score_0_split_0
I0628 12:08:24.440873 54241 net.cpp:411] rpn_cls_score_rpn_cls_score_0_split -> rpn_cls_score_rpn_cls_score_0_split_1
I0628 12:08:24.440929 54241 net.cpp:150] Setting up rpn_cls_score_rpn_cls_score_0_split
I0628 12:08:24.440943 54241 net.cpp:157] Top shape: 1 18 150 250 (675000)
I0628 12:08:24.440948 54241 net.cpp:157] Top shape: 1 18 150 250 (675000)
I0628 12:08:24.440950 54241 net.cpp:165] Memory required for data: 2173847540
I0628 12:08:24.440953 54241 layer_factory.hpp:77] Creating layer rpn_bbox_pred
I0628 12:08:24.440966 54241 net.cpp:106] Creating Layer rpn_bbox_pred
I0628 12:08:24.440970 54241 net.cpp:454] rpn_bbox_pred <- rpn/output_rpn_relu/3x3_0_split_1
I0628 12:08:24.440976 54241 net.cpp:411] rpn_bbox_pred -> rpn_bbox_pred
I0628 12:08:24.444592 54241 net.cpp:150] Setting up rpn_bbox_pred
I0628 12:08:24.444617 54241 net.cpp:157] Top shape: 1 36 150 250 (1350000)
I0628 12:08:24.444622 54241 net.cpp:165] Memory required for data: 2179247540
I0628 12:08:24.444628 54241 layer_factory.hpp:77] Creating layer rpn_bbox_pred_rpn_bbox_pred_0_split
I0628 12:08:24.444638 54241 net.cpp:106] Creating Layer rpn_bbox_pred_rpn_bbox_pred_0_split
I0628 12:08:24.444648 54241 net.cpp:454] rpn_bbox_pred_rpn_bbox_pred_0_split <- rpn_bbox_pred
I0628 12:08:24.444653 54241 net.cpp:411] rpn_bbox_pred_rpn_bbox_pred_0_split -> rpn_bbox_pred_rpn_bbox_pred_0_split_0
I0628 12:08:24.444660 54241 net.cpp:411] rpn_bbox_pred_rpn_bbox_pred_0_split -> rpn_bbox_pred_rpn_bbox_pred_0_split_1
I0628 12:08:24.444720 54241 net.cpp:150] Setting up rpn_bbox_pred_rpn_bbox_pred_0_split
I0628 12:08:24.444735 54241 net.cpp:157] Top shape: 1 36 150 250 (1350000)
I0628 12:08:24.444739 54241 net.cpp:157] Top shape: 1 36 150 250 (1350000)
I0628 12:08:24.444742 54241 net.cpp:165] Memory required for data: 2190047540
I0628 12:08:24.444746 54241 layer_factory.hpp:77] Creating layer rpn_cls_score_reshape
I0628 12:08:24.444759 54241 net.cpp:106] Creating Layer rpn_cls_score_reshape
I0628 12:08:24.444768 54241 net.cpp:454] rpn_cls_score_reshape <- rpn_cls_score_rpn_cls_score_0_split_0
I0628 12:08:24.444777 54241 net.cpp:411] rpn_cls_score_reshape -> rpn_cls_score_reshape
I0628 12:08:24.444818 54241 net.cpp:150] Setting up rpn_cls_score_reshape
I0628 12:08:24.444830 54241 net.cpp:157] Top shape: 1 2 1350 250 (675000)
I0628 12:08:24.444834 54241 net.cpp:165] Memory required for data: 2192747540
I0628 12:08:24.444838 54241 layer_factory.hpp:77] Creating layer rpn_cls_score_reshape_rpn_cls_score_reshape_0_split
I0628 12:08:24.444845 54241 net.cpp:106] Creating Layer rpn_cls_score_reshape_rpn_cls_score_reshape_0_split
I0628 12:08:24.444849 54241 net.cpp:454] rpn_cls_score_reshape_rpn_cls_score_reshape_0_split <- rpn_cls_score_reshape
I0628 12:08:24.444854 54241 net.cpp:411] rpn_cls_score_reshape_rpn_cls_score_reshape_0_split -> rpn_cls_score_reshape_rpn_cls_score_reshape_0_split_0
I0628 12:08:24.444861 54241 net.cpp:411] rpn_cls_score_reshape_rpn_cls_score_reshape_0_split -> rpn_cls_score_reshape_rpn_cls_score_reshape_0_split_1
I0628 12:08:24.444913 54241 net.cpp:150] Setting up rpn_cls_score_reshape_rpn_cls_score_reshape_0_split
I0628 12:08:24.444926 54241 net.cpp:157] Top shape: 1 2 1350 250 (675000)
I0628 12:08:24.444931 54241 net.cpp:157] Top shape: 1 2 1350 250 (675000)
I0628 12:08:24.444934 54241 net.cpp:165] Memory required for data: 2198147540
I0628 12:08:24.444937 54241 layer_factory.hpp:77] Creating layer rpn-data
I0628 12:08:24.446226 54241 net.cpp:106] Creating Layer rpn-data
I0628 12:08:24.446249 54241 net.cpp:454] rpn-data <- rpn_cls_score_rpn_cls_score_0_split_1
I0628 12:08:24.446256 54241 net.cpp:454] rpn-data <- gt_boxes_input-data_2_split_0
I0628 12:08:24.446261 54241 net.cpp:454] rpn-data <- im_info_input-data_1_split_0
I0628 12:08:24.446265 54241 net.cpp:454] rpn-data <- data_input-data_0_split_1
I0628 12:08:24.446271 54241 net.cpp:411] rpn-data -> rpn_labels
I0628 12:08:24.446280 54241 net.cpp:411] rpn-data -> rpn_bbox_targets
I0628 12:08:24.446285 54241 net.cpp:411] rpn-data -> rpn_bbox_inside_weights
I0628 12:08:24.446291 54241 net.cpp:411] rpn-data -> rpn_bbox_outside_weights
I0628 12:08:24.448807 54241 net.cpp:150] Setting up rpn-data
I0628 12:08:24.448834 54241 net.cpp:157] Top shape: 1 1 1350 250 (337500)
I0628 12:08:24.448839 54241 net.cpp:157] Top shape: 1 36 150 250 (1350000)
I0628 12:08:24.448843 54241 net.cpp:157] Top shape: 1 36 150 250 (1350000)
I0628 12:08:24.448848 54241 net.cpp:157] Top shape: 1 36 150 250 (1350000)
I0628 12:08:24.448850 54241 net.cpp:165] Memory required for data: 2215697540
I0628 12:08:24.448854 54241 layer_factory.hpp:77] Creating layer rpn_loss_cls
I0628 12:08:24.448874 54241 net.cpp:106] Creating Layer rpn_loss_cls
I0628 12:08:24.448885 54241 net.cpp:454] rpn_loss_cls <- rpn_cls_score_reshape_rpn_cls_score_reshape_0_split_0
I0628 12:08:24.448892 54241 net.cpp:454] rpn_loss_cls <- rpn_labels
…
I0628 12:08:24.460599 54241 net.cpp:157] Top shape: (1)
I0628 12:08:24.460604 54241 net.cpp:160]     with loss weight 1
I0628 12:08:24.460610 54241 net.cpp:165] Memory required for data: 2215697548
I0628 12:08:24.460615 54241 layer_factory.hpp:77] Creating layer rpn_cls_prob
I0628 12:08:24.460623 54241 net.cpp:106] Creating Layer rpn_cls_prob
I0628 12:08:24.460628 54241 net.cpp:454] rpn_cls_prob <- rpn_cls_score_reshape_rpn_cls_score_reshape_0_split_1
I0628 12:08:24.460634 54241 net.cpp:411] rpn_cls_prob -> rpn_cls_prob
I0628 12:08:24.461550 54241 net.cpp:150] Setting up rpn_cls_prob
I0628 12:08:24.461572 54241 net.cpp:157] Top shape: 1 2 1350 250 (675000)
I0628 12:08:24.461576 54241 net.cpp:165] Memory required for data: 2218397548
I0628 12:08:24.461580 54241 layer_factory.hpp:77] Creating layer rpn_cls_prob_reshape
I0628 12:08:24.461588 54241 net.cpp:106] Creating Layer rpn_cls_prob_reshape
I0628 12:08:24.461592 54241 net.cpp:454] rpn_cls_prob_reshape <- rpn_cls_prob
I0628 12:08:24.461601 54241 net.cpp:411] rpn_cls_prob_reshape -> rpn_cls_prob_reshape
I0628 12:08:24.461639 54241 net.cpp:150] Setting up rpn_cls_prob_reshape
I0628 12:08:24.461653 54241 net.cpp:157] Top shape: 1 18 150 250 (675000)
I0628 12:08:24.461657 54241 net.cpp:165] Memory required for data: 2221097548
I0628 12:08:24.461660 54241 layer_factory.hpp:77] Creating layer proposal
I0628 12:08:24.463167 54241 net.cpp:106] Creating Layer proposal
I0628 12:08:24.463192 54241 net.cpp:454] proposal <- rpn_cls_prob_reshape
I0628 12:08:24.463199 54241 net.cpp:454] proposal <- rpn_bbox_pred_rpn_bbox_pred_0_split_1
I0628 12:08:24.463204 54241 net.cpp:454] proposal <- im_info_input-data_1_split_1
I0628 12:08:24.463212 54241 net.cpp:411] proposal -> rpn_rois
I0628 12:08:24.464151 54241 net.cpp:150] Setting up proposal
I0628 12:08:24.464177 54241 net.cpp:157] Top shape: 1 5 (5)
I0628 12:08:24.464182 54241 net.cpp:165] Memory required for data: 2221097568
I0628 12:08:24.464187 54241 layer_factory.hpp:77] Creating layer roi-data
I0628 12:08:24.464455 54241 net.cpp:106] Creating Layer roi-data
I0628 12:08:24.464476 54241 net.cpp:454] roi-data <- rpn_rois
I0628 12:08:24.464483 54241 net.cpp:454] roi-data <- gt_boxes_input-data_2_split_1
I0628 12:08:24.464489 54241 net.cpp:411] roi-data -> rois
I0628 12:08:24.464498 54241 net.cpp:411] roi-data -> labels
I0628 12:08:24.464519 54241 net.cpp:411] roi-data -> bbox_targets
I0628 12:08:24.464526 54241 net.cpp:411] roi-data -> bbox_inside_weights
I0628 12:08:24.464532 54241 net.cpp:411] roi-data -> bbox_outside_weights
I0628 12:08:24.464943 54241 net.cpp:150] Setting up roi-data
I0628 12:08:24.464965 54241 net.cpp:157] Top shape: 1 5 (5)
I0628 12:08:24.464972 54241 net.cpp:157] Top shape: 1 1 (1)
I0628 12:08:24.464974 54241 net.cpp:157] Top shape: 1 84 (84)
I0628 12:08:24.464978 54241 net.cpp:157] Top shape: 1 84 (84)
I0628 12:08:24.464982 54241 net.cpp:157] Top shape: 1 84 (84)
I0628 12:08:24.464984 54241 net.cpp:165] Memory required for data: 2221098600
I0628 12:08:24.464988 54241 layer_factory.hpp:77] Creating layer roi_pool5
I0628 12:08:24.465004 54241 net.cpp:106] Creating Layer roi_pool5
I0628 12:08:24.465010 54241 net.cpp:454] roi_pool5 <- newP2_newP2_0_split_1
I0628 12:08:24.465016 54241 net.cpp:454] roi_pool5 <- rois
I0628 12:08:24.465020 54241 net.cpp:411] roi_pool5 -> rcnn_pool5
I0628 12:08:24.465030 54241 roi_pooling_layer.cpp:30] Spatial scale: 0.25
I0628 12:08:24.465097 54241 net.cpp:150] Setting up roi_pool5
I0628 12:08:24.465111 54241 net.cpp:157] Top shape: 1 256 7 7 (12544)
I0628 12:08:24.465113 54241 net.cpp:165] Memory required for data: 2221148776
I0628 12:08:24.465117 54241 layer_factory.hpp:77] Creating layer rcnn_fc6
I0628 12:08:24.465127 54241 net.cpp:106] Creating Layer rcnn_fc6
I0628 12:08:24.465131 54241 net.cpp:454] rcnn_fc6 <- rcnn_pool5
I0628 12:08:24.465137 54241 net.cpp:411] rcnn_fc6 -> rcnn_fc6
I0628 12:08:24.805172 54241 net.cpp:150] Setting up rcnn_fc6
I0628 12:08:24.805228 54241 net.cpp:157] Top shape: 1 4096 (4096)
I0628 12:08:24.805233 54241 net.cpp:165] Memory required for data: 2221165160
I0628 12:08:24.805246 54241 layer_factory.hpp:77] Creating layer relu6
I0628 12:08:24.805258 54241 net.cpp:106] Creating Layer relu6
I0628 12:08:24.805265 54241 net.cpp:454] relu6 <- rcnn_fc6
I0628 12:08:24.805274 54241 net.cpp:397] relu6 -> rcnn_fc6 (in-place)
I0628 12:08:24.806277 54241 net.cpp:150] Setting up relu6
I0628 12:08:24.806299 54241 net.cpp:157] Top shape: 1 4096 (4096)
I0628 12:08:24.806303 54241 net.cpp:165] Memory required for data: 2221181544
I0628 12:08:24.806308 54241 layer_factory.hpp:77] Creating layer drop6
I0628 12:08:24.806322 54241 net.cpp:106] Creating Layer drop6
I0628 12:08:24.806327 54241 net.cpp:454] drop6 <- rcnn_fc6
I0628 12:08:24.806335 54241 net.cpp:397] drop6 -> rcnn_fc6 (in-place)
I0628 12:08:24.806380 54241 net.cpp:150] Setting up drop6
I0628 12:08:24.806388 54241 net.cpp:157] Top shape: 1 4096 (4096)
I0628 12:08:24.806391 54241 net.cpp:165] Memory required for data: 2221197928
I0628 12:08:24.806394 54241 layer_factory.hpp:77] Creating layer fc7
I0628 12:08:24.806402 54241 net.cpp:106] Creating Layer fc7
I0628 12:08:24.806406 54241 net.cpp:454] fc7 <- rcnn_fc6
I0628 12:08:24.806413 54241 net.cpp:411] fc7 -> fc7
I0628 12:08:24.920667 54241 net.cpp:150] Setting up fc7
I0628 12:08:24.920725 54241 net.cpp:157] Top shape: 1 4096 (4096)
I0628 12:08:24.920730 54241 net.cpp:165] Memory required for data: 2221214312
I0628 12:08:24.920744 54241 layer_factory.hpp:77] Creating layer relu7
I0628 12:08:24.920760 54241 net.cpp:106] Creating Layer relu7
I0628 12:08:24.920770 54241 net.cpp:454] relu7 <- fc7
I0628 12:08:24.920781 54241 net.cpp:397] relu7 -> fc7 (in-place)
I0628 12:08:24.921151 54241 net.cpp:150] Setting up relu7
I0628 12:08:24.921160 54241 net.cpp:157] Top shape: 1 4096 (4096)
I0628 12:08:24.921164 54241 net.cpp:165] Memory required for data: 2221230696
I0628 12:08:24.921167 54241 layer_factory.hpp:77] Creating layer drop7
I0628 12:08:24.921177 54241 net.cpp:106] Creating Layer drop7
I0628 12:08:24.921181 54241 net.cpp:454] drop7 <- fc7
I0628 12:08:24.921187 54241 net.cpp:397] drop7 -> fc7 (in-place)
I0628 12:08:24.921228 54241 net.cpp:150] Setting up drop7
I0628 12:08:24.921234 54241 net.cpp:157] Top shape: 1 4096 (4096)
I0628 12:08:24.921237 54241 net.cpp:165] Memory required for data: 2221247080
I0628 12:08:24.921241 54241 layer_factory.hpp:77] Creating layer fc7_drop7_0_split
I0628 12:08:24.921252 54241 net.cpp:106] Creating Layer fc7_drop7_0_split
I0628 12:08:24.921255 54241 net.cpp:454] fc7_drop7_0_split <- fc7
I0628 12:08:24.921260 54241 net.cpp:411] fc7_drop7_0_split -> fc7_drop7_0_split_0
I0628 12:08:24.921268 54241 net.cpp:411] fc7_drop7_0_split -> fc7_drop7_0_split_1
I0628 12:08:24.921316 54241 net.cpp:150] Setting up fc7_drop7_0_split
I0628 12:08:24.921322 54241 net.cpp:157] Top shape: 1 4096 (4096)
I0628 12:08:24.921326 54241 net.cpp:157] Top shape: 1 4096 (4096)
I0628 12:08:24.921329 54241 net.cpp:165] Memory required for data: 2221279848
I0628 12:08:24.921334 54241 layer_factory.hpp:77] Creating layer cls_score
I0628 12:08:24.921344 54241 net.cpp:106] Creating Layer cls_score
I0628 12:08:24.921349 54241 net.cpp:454] cls_score <- fc7_drop7_0_split_0
I0628 12:08:24.921356 54241 net.cpp:411] cls_score -> cls_score
I0628 12:08:24.923578 54241 net.cpp:150] Setting up cls_score
I0628 12:08:24.923599 54241 net.cpp:157] Top shape: 1 21 (21)
I0628 12:08:24.923602 54241 net.cpp:165] Memory required for data: 2221279932
I0628 12:08:24.923609 54241 layer_factory.hpp:77] Creating layer bbox_pred
I0628 12:08:24.923617 54241 net.cpp:106] Creating Layer bbox_pred
I0628 12:08:24.923621 54241 net.cpp:454] bbox_pred <- fc7_drop7_0_split_1
I0628 12:08:24.923630 54241 net.cpp:411] bbox_pred -> bbox_pred
I0628 12:08:24.932760 54241 net.cpp:150] Setting up bbox_pred
I0628 12:08:24.932782 54241 net.cpp:157] Top shape: 1 84 (84)
I0628 12:08:24.932786 54241 net.cpp:165] Memory required for data: 2221280268
I0628 12:08:24.932792 54241 layer_factory.hpp:77] Creating layer loss_cls
I0628 12:08:24.932801 54241 net.cpp:106] Creating Layer loss_cls
I0628 12:08:24.932804 54241 net.cpp:454] loss_cls <- cls_score
I0628 12:08:24.932811 54241 net.cpp:454] loss_cls <- labels
I0628 12:08:24.932816 54241 net.cpp:411] loss_cls -> loss_cls
…
