…
stepsize: 50000
snapshot: 0
snapshot_prefix: "fpn"
average_loss: 100
iter_size: 2
I0727 16:05:44.111708 28075 solver.cpp:81] Creating training net from train_net file: models/pascal_voc/VGG16/FP_Net_end2end/train.prototxt
I0727 16:05:44.113231 28075 net.cpp:49] Initializing net from parameters: 
name: "VGG_ILSVRC_16_layers"
state {
  phase: TRAIN
}
layer {
  name: "input-data"
  type: "Python"
  top: "data"
  top: "im_info"
  top: "gt_boxes"
  python_param {
    module: "roi_data_layer.layer"
    layer: "RoIDataLayer"
    param_str: "\'num_classes\': 21"
  }
}
layer {
  name: "conv1_1"
  type: "Convolution"
  bottom: "data"
  top: "conv1_1"
  param {
    lr_mult: 0
    decay_mult: 0
  }
  param {
    lr_mult: 0
    decay_mult: 0
  }
  convolution_param {
    num_output: 64
    pad: 1
    kernel_size: 3
  }
}
layer {
  name: "relu1_1"
  type: "ReLU"
  bottom: "conv1_1"
  top: "conv1_1"
}
layer {
  name: "conv1_2"
  type: "Convolution"
  bottom: "conv1_1"
  top: "conv1_2"
  param {
    lr_mult: 0
    decay_mult: 0
  }
  param {
    lr_mult: 0
    decay_mult: 0
  }
  convolution_param {
    num_output: 64
    pad: 1
    kernel_size: 3
  }
}
layer {
  name: "relu1_2"
  type: "ReLU"
  bottom: "conv1_2"
  top: "conv1_2"
}
layer {
  name: "pool1"
  type: "Pooling"
  bottom: "conv1_2"
  top: "pool1"
  pooling_param {
    pool: MAX
    kernel_size: 2
    stride: 2
  }
}
layer {
  name: "conv2_1"
  type: "Convolution"
  bottom: "pool1"
  top: "conv2_1"
  param {
    lr_mult: 0
    decay_mult: 0
  }
  param {
    lr_mult: 0
    decay_mult: 0
  }
  convolution_param {
    num_output: 128
    pad: 1
    kernel_size: 3
  }
}
layer {
  name: "relu2_1"
  type: "ReLU"
  bottom: "conv2_1"
  top: "conv2_1"
}
layer {
  name: "conv2_2"
  type: "Convolution"
  bottom: "conv2_1"
  top: "conv2_2"
  param {
    lr_mult: 0
    decay_mult: 0
  }
  param {
    lr_mult: 0
    decay_mult: 0
  }
  convolution_param {
    num_output: 128
    pad: 1
    kernel_size: 3
  }
}
layer {
  name: "relu2_2"
  type: "ReLU"
  bottom: "conv2_2"
  top: "conv2_2"
}
layer {
  name: "pool2"
  type: "Pooling"
  bottom: "conv2_2"
  top: "pool2"
  pooling_param {
    pool: MAX
    kernel_size: 2
    stride: 2
  }
}
layer {
  name: "conv3_1"
  type: "Convolution"
  bottom: "pool2"
  top: "conv3_1"
  param {
    lr_mult: 1
  }
  param {
    lr_mult: 2
  }
  convolution_param {
    num_output: 256
    pad: 1
    kernel_size: 3
  }
}
layer {
  name: "relu3_1"
  type: "ReLU"
  bottom: "conv3_1"
  top: "conv3_1"
}
layer {
  name: "conv3_2"
  type: "Convolution"
  bottom: "conv3_1"
  top: "conv3_2"
  param {
    lr_mult: 1
  }
  param {
    lr_mult: 2
  }
  convolution_param {
    num_output: 256
    pad: 1
    kernel_size: 3
  }
}
layer {
  name: "relu3_2"
  type: "ReLU"
  bottom: "conv3_2"
  top: "conv3_2"
}
layer {
  name: "conv3_3"
  type: "Convolution"
  bottom: "conv3_2"
  top: "conv3_3"
  param {
    lr_mult: 1
  }
  param {
    lr_mult: 2
  }
  convolution_param {
    num_output: 256
    pad: 1
    kernel_size: 3
  }
}
layer {
  name: "relu3_3"
  type: "ReLU"
  bottom: "conv3_3"
  top: "conv3_3"
}
layer {
  name: "pool3"
  type: "Pooling"
  bottom: "conv3_3"
  top: "pool3"
  pooling_param {
    pool: MAX
    kernel_size: 2
    stride: 2
  }
}
layer {
  name: "conv4_1"
  type: "Convolution"
  bottom: "pool3"
  top: "conv4_1"
  param {
    lr_mult: 1
  }
  param {
    lr_mult: 2
  }
  convolution_param {
    num_output: 512
    pad: 1
    kernel_size: 3
  }
}
layer {
  name: "relu4_1"
  type: "ReLU"
  bottom: "conv4_1"
  top: "conv4_1"
}
layer {
  name: "conv4_2"
  type: "Convolution"
  bottom: "conv4_1"
  top: "conv4_2"
  param {
    lr_mult: 1
  }
  param {
    lr_mult: 2
  }
  convolution_param {
    num_output: 512
    pad: 1
    kernel_size: 3
  }
}
layer {
  name: "relu4_2"
  type: "ReLU"
  bottom: "conv4_2"
  top: "conv4_2"
}
layer {
  name: "conv4_3"
  type: "Convolution"
  bottom: "conv4_2"
  top: "conv4_3"
  param {
    lr_mult: 1
  }
  param {
    lr_mult: 2
  }
  convolution_param {
    num_output: 512
    pad: 1
    kernel_size: 3
  }
}
layer {
  name: "relu4_3"
  type: "ReLU"
  bottom: "conv4_3"
  top: "conv4_3"
}
layer {
  name: "pool4"
  type: "Pooling"
  bottom: "conv4_3"
  top: "pool4"
  pooling_param {
    pool: MAX
    kernel_size: 2
    stride: 2
  }
}
layer {
  name: "conv5_1"
  type: "Convolution"
  bottom: "pool4"
  top: "conv5_1"
  param {
    lr_mult: 1
  }
  param {
    lr_mult: 2
  }
  convolution_param {
    num_output: 512
    pad: 1
    kernel_size: 3
  }
}
layer {
  name: "relu5_1"
  type: "ReLU"
  bottom: "conv5_1"
  top: "conv5_1"
}
layer {
  name: "conv5_2"
  type: "Convolution"
  bottom: "conv5_1"
  top: "conv5_2"
  param {
    lr_mult: 1
  }
  param {
    lr_mult: 2
  }
  convolution_param {
    num_output: 512
    pad: 1
    kernel_size: 3
  }
}
layer {
  name: "relu5_2"
  type: "ReLU"
  bottom: "conv5_2"
  top: "conv5_2"
}
layer {
  name: "conv5_3"
  type: "Convolution"
  bottom: "conv5_2"
  top: "conv5_3"
  param {
    lr_mult: 1
  }
  param {
    lr_mult: 2
  }
  convolution_param {
    num_output: 512
    pad: 1
    kernel_size: 3
  }
}
layer {
  name: "relu5_3"
  type: "ReLU"
  bottom: "conv5_3"
  top: "conv5_3"
}
layer {
  name: "rpn_conv/3x3"
  type: "Convolution"
  bottom: "conv5_3"
  top: "rpn/output"
  param {
    lr_mult: 1
  }
  param {
    lr_mult: 2
  }
  convolution_param {
    num_output: 512
    pad: 1
    kernel_size: 3
    stride: 1
    weight_filler {
      type: "gaussian"
      std: 0.01
    }
    bias_filler {
      type: "constant"
      value: 0
    }
  }
}
layer {
  name: "rpn_relu/3x3"
  type: "ReLU"
  bottom: "rpn/output"
  top: "rpn/output"
}
layer {
  name: "rpn_cls_score"
  type: "Convolution"
  bottom: "rpn/output"
  top: "rpn_cls_score"
  param {
    lr_mult: 1
  }
  param {
    lr_mult: 2
  }
  convolution_param {
    num_output: 36
    pad: 0
    kernel_size: 1
    stride: 1
    weight_filler {
      type: "gaussian"
      std: 0.01
    }
    bias_filler {
      type: "constant"
      value: 0
    }
  }
}
layer {
  name: "rpn_bbox_pred"
  type: "Convolution"
  bottom: "rpn/output"
  top: "rpn_bbox_pred"
  param {
    lr_mult: 1
  }
  param {
    lr_mult: 2
  }
  convolution_param {
    num_output: 72
    pad: 0
    kernel_size: 1
    stride: 1
    weight_filler {
      type: "gaussian"
      std: 0.01
    }
    bias_filler {
      type: "constant"
      value: 0
    }
  }
}
layer {
  name: "rpn_cls_score_reshape"
  type: "Reshape"
  bottom: "rpn_cls_score"
  top: "rpn_cls_score_reshape"
  reshape_param {
    shape {
      dim: 0
      dim: 2
      dim: -1
      dim: 0
    }
  }
}
layer {
  name: "rpn-data"
  type: "Python"
  bottom: "rpn_cls_score"
  bottom: "gt_boxes"
  bottom: "im_info"
  bottom: "data"
  top: "rpn_labels"
  top: "rpn_bbox_targets"
  top: "rpn_bbox_inside_weights"
  top: "rpn_bbox_outside_weights"
  python_param {
    module: "rpn.anchor_target_layer"
    layer: "AnchorTargetLayer"
    param_str: "\'feat_stride\': 16"
  }
}
layer {
  name: "rpn_loss_cls"
  type: "SoftmaxWithLoss"
  bottom: "rpn_cls_score_reshape"
  bottom: "rpn_labels"
  top: "rpn_cls_loss"
  loss_weight: 1
  propagate_down: true
  propagate_down: false
  loss_param {
    ignore_label: -1
    normalize: true
  }
}
layer {
  name: "rpn_loss_bbox"
  type: "SmoothL1Loss"
  bottom: "rpn_bbox_pred"
  bottom: "rpn_bbox_targets"
  bottom: "rpn_bbox_inside_weights"
  bottom: "rpn_bbox_outside_weights"
  top: "rpn_loss_bbox"
  loss_weight: 1
  smooth_l1_loss_param {
    sigma: 3
  }
}
layer {
  name: "rpn_cls_prob"
  type: "Softmax"
  bottom: "rpn_cls_score_reshape"
  top: "rpn_cls_prob"
}
layer {
  name: "rpn_cls_prob_reshape"
  type: "Reshape"
  bottom: "rpn_cls_prob"
  top: "rpn_cls_prob_reshape"
  reshape_param {
    shape {
      dim: 0
      dim: 36
      dim: -1
      dim: 0
    }
  }
}
layer {
  name: "proposal"
  type: "Python"
  bottom: "rpn_cls_prob_reshape"
  bottom: "rpn_bbox_pred"
  bottom: "im_info"
  top: "rpn_rois"
  python_param {
    module: "rpn.proposal_layer"
    layer: "ProposalLayer"
    param_str: "\'feat_stride\': 16"
  }
}
layer {
  name: "roi-data"
  type: "Python"
  bottom: "rpn_rois"
  bottom: "gt_boxes"
  top: "rois"
  top: "labels"
  top: "bbox_targets"
  top: "bbox_inside_weights"
  top: "bbox_outside_weights"
  python_param {
    module: "rpn.proposal_target_layer"
    layer: "ProposalTargetLayer"
    param_str: "\'num_classes\': 21"
  }
}
layer {
  name: "roi_pool5_readonly"
  type: "ROIPooling"
  bottom: "conv5_3"
  bottom: "rois"
  top: "pool5_readonly"
  propagate_down: false
  propagate_down: false
  roi_pooling_param {
    pooled_h: 7
    pooled_w: 7
    spatial_scale: 0.0625
  }
}
layer {
  name: "fc6_readonly"
  type: "InnerProduct"
  bottom: "pool5_readonly"
  top: "fc6_readonly"
  param {
    name: "fc6_w"
  }
  param {
    name: "fc6_b"
  }
  propagate_down: false
  inner_product_param {
    num_output: 4096
  }
}
layer {
  name: "relu6_readonly"
  type: "ReLU"
  bottom: "fc6_readonly"
  top: "fc6_readonly"
  propagate_down: false
}
layer {
  name: "drop6_readonly"
  type: "Dropout"
  bottom: "fc6_readonly"
  top: "fc6_readonly"
  propagate_down: false
  dropout_param {
    dropout_ratio: 0.5
  }
}
layer {
  name: "fc7_readonly"
  type: "InnerProduct"
  bottom: "fc6_readonly"
  top: "fc7_readonly"
  param {
    name: "fc7_w"
  }
  param {
    name: "fc7_b"
  }
  propagate_down: false
  inner_product_param {
    num_output: 4096
  }
}
layer {
  name: "relu7_readonly"
  type: "ReLU"
  bottom: "fc7_readonly"
  top: "fc7_readonly"
  propagate_down: false
}
layer {
  name: "drop7_readonly"
  type: "Dropout"
  bottom: "fc7_readonly"
  top: "fc7_readonly"
  propagate_down: false
  dropout_param {
    dropout_ratio: 0.5
  }
}
layer {
  name: "cls_score_readonly"
  type: "InnerProduct"
  bottom: "fc7_readonly"
  top: "cls_score_readonly"
  param {
    name: "cls_score_w"
  }
  param {
    name: "cls_score_b"
  }
  propagate_down: false
  inner_product_param {
    num_output: 21
    weight_filler {
      type: "gaussian"
      std: 0.01
    }
    bias_filler {
      type: "constant"
      value: 0
    }
  }
}
layer {
  name: "bbox_pred_readonly"
  type: "InnerProduct"
  bottom: "fc7_readonly"
  top: "bbox_pred_readonly"
  param {
    name: "bbox_pred_w"
  }
  param {
    name: "bbox_pred_b"
  }
  propagate_down: false
  inner_product_param {
    num_output: 84
    weight_filler {
      type: "gaussian"
      std: 0.001
    }
    bias_filler {
      type: "constant"
      value: 0
    }
  }
}
layer {
  name: "cls_prob_readonly"
  type: "Softmax"
  bottom: "cls_score_readonly"
  top: "cls_prob_readonly"
  propagate_down: false
}
layer {
  name: "hard_roi_mining"
  type: "Python"
  bottom: "cls_prob_readonly"
  bottom: "bbox_pred_readonly"
  bottom: "rois"
  bottom: "labels"
  bottom: "bbox_targets"
  bottom: "bbox_inside_weights"
  bottom: "bbox_outside_weights"
  top: "rois_hard"
  top: "labels_hard"
  top: "bbox_targets_hard"
  top: "bbox_inside_weights_hard"
  top: "bbox_outside_weights_hard"
  propagate_down: false
  propagate_down: false
  propagate_down: false
  propagate_down: false
  propagate_down: false
  propagate_down: false
  propagate_down: false
  python_param {
    module: "roi_data_layer.layer"
    layer: "OHEMDataLayer"
    param_str: "\'num_classes\': 21"
  }
}
layer {
  name: "roi_pool5"
  type: "ROIPooling"
  bottom: "conv5_3"
  bottom: "rois_hard"
  top: "pool5"
  roi_pooling_param {
    pooled_h: 7
    pooled_w: 7
    spatial_scale: 0.0625
  }
}
layer {
  name: "fc6"
  type: "InnerProduct"
  bottom: "pool5"
  top: "fc6"
  param {
    name: "fc6_w"
    lr_mult: 1
  }
  param {
    name: "fc6_b"
    lr_mult: 2
  }
  inner_product_param {
    num_output: 4096
  }
}
layer {
  name: "relu6"
  type: "ReLU"
  bottom: "fc6"
  top: "fc6"
}
layer {
  name: "drop6"
  type: "Dropout"
  bottom: "fc6"
  top: "fc6"
  dropout_param {
    dropout_ratio: 0.5
  }
}
layer {
  name: "fc7"
  type: "InnerProduct"
  bottom: "fc6"
  top: "fc7"
  param {
    name: "fc7_w"
    lr_mult: 1
  }
  param {
    name: "fc7_b"
    lr_mult: 2
  }
  inner_product_param {
    num_output: 4096
  }
}
layer {
  name: "relu7"
  type: "ReLU"
  bottom: "fc7"
  top: "fc7"
}
layer {
  name: "drop7"
  type: "Dropout"
  bottom: "fc7"
  top: "fc7"
  dropout_param {
    dropout_ratio: 0.5
  }
}
layer {
  name: "cls_score"
  type: "InnerProduct"
  bottom: "fc7"
  top: "cls_score"
  param {
    name: "cls_score_w"
    lr_mult: 1
  }
  param {
    name: "cls_score_b"
    lr_mult: 2
  }
  inner_product_param {
    num_output: 21
    weight_filler {
      type: "gaussian"
      std: 0.01
    }
    bias_filler {
      type: "constant"
      value: 0
    }
  }
}
layer {
  name: "bbox_pred"
  type: "InnerProduct"
  bottom: "fc7"
  top: "bbox_pred"
  param {
    name: "bbox_pred_w"
    lr_mult: 1
  }
  param {
    name: "bbox_pred_b"
    lr_mult: 2
  }
  inner_product_param {
    num_output: 84
    weight_filler {
      type: "gaussian"
      std: 0.001
    }
    bias_filler {
      type: "constant"
      value: 0
    }
  }
}
layer {
  name: "loss_cls"
  type: "SoftmaxWithLoss"
  bottom: "cls_score"
  bottom: "labels_hard"
  top: "loss_cls"
  loss_weight: 1
  propagate_down: true
  propagate_down: false
}
layer {
  name: "loss_bbox"
  type: "SmoothL1Loss"
  bottom: "bbox_pred"
  bottom: "bbox_targets_hard"
  bottom: "bbox_inside_weights_hard"
  bottom: "bbox_outside_weights_hard"
  top: "loss_bbox"
  loss_weight: 1
}
I0727 16:05:44.113580 28075 layer_factory.hpp:77] Creating layer input-data
I0727 16:05:44.122505 28075 net.cpp:106] Creating Layer input-data
I0727 16:05:44.122540 28075 net.cpp:411] input-data -> data
I0727 16:05:44.122586 28075 net.cpp:411] input-data -> im_info
I0727 16:05:44.122602 28075 net.cpp:411] input-data -> gt_boxes
RoiDataLayer: name_to_top: {'gt_boxes': 2, 'data': 0, 'im_info': 1}
I0727 16:05:44.243288 28075 net.cpp:150] Setting up input-data
I0727 16:05:44.243348 28075 net.cpp:157] Top shape: 1 3 375 520 (585000)
I0727 16:05:44.243363 28075 net.cpp:157] Top shape: 1 3 (3)
I0727 16:05:44.243368 28075 net.cpp:157] Top shape: 1 4 (4)
I0727 16:05:44.243371 28075 net.cpp:165] Memory required for data: 2340028
I0727 16:05:44.243379 28075 layer_factory.hpp:77] Creating layer data_input-data_0_split
I0727 16:05:44.243410 28075 net.cpp:106] Creating Layer data_input-data_0_split
I0727 16:05:44.243438 28075 net.cpp:454] data_input-data_0_split <- data
I0727 16:05:44.243463 28075 net.cpp:411] data_input-data_0_split -> data_input-data_0_split_0
I0727 16:05:44.243484 28075 net.cpp:411] data_input-data_0_split -> data_input-data_0_split_1
I0727 16:05:44.243530 28075 net.cpp:150] Setting up data_input-data_0_split
I0727 16:05:44.243541 28075 net.cpp:157] Top shape: 1 3 375 520 (585000)
I0727 16:05:44.243546 28075 net.cpp:157] Top shape: 1 3 375 520 (585000)
I0727 16:05:44.243549 28075 net.cpp:165] Memory required for data: 7020028
I0727 16:05:44.243553 28075 layer_factory.hpp:77] Creating layer im_info_input-data_1_split
I0727 16:05:44.243558 28075 net.cpp:106] Creating Layer im_info_input-data_1_split
I0727 16:05:44.243577 28075 net.cpp:454] im_info_input-data_1_split <- im_info
I0727 16:05:44.243594 28075 net.cpp:411] im_info_input-data_1_split -> im_info_input-data_1_split_0
I0727 16:05:44.243613 28075 net.cpp:411] im_info_input-data_1_split -> im_info_input-data_1_split_1
I0727 16:05:44.243672 28075 net.cpp:150] Setting up im_info_input-data_1_split
I0727 16:05:44.243687 28075 net.cpp:157] Top shape: 1 3 (3)
I0727 16:05:44.243692 28075 net.cpp:157] Top shape: 1 3 (3)
I0727 16:05:44.243695 28075 net.cpp:165] Memory required for data: 7020052
I0727 16:05:44.243698 28075 layer_factory.hpp:77] Creating layer gt_boxes_input-data_2_split
I0727 16:05:44.243718 28075 net.cpp:106] Creating Layer gt_boxes_input-data_2_split
I0727 16:05:44.243749 28075 net.cpp:454] gt_boxes_input-data_2_split <- gt_boxes
I0727 16:05:44.243762 28075 net.cpp:411] gt_boxes_input-data_2_split -> gt_boxes_input-data_2_split_0
I0727 16:05:44.243768 28075 net.cpp:411] gt_boxes_input-data_2_split -> gt_boxes_input-data_2_split_1
I0727 16:05:44.243806 28075 net.cpp:150] Setting up gt_boxes_input-data_2_split
I0727 16:05:44.243818 28075 net.cpp:157] Top shape: 1 4 (4)
I0727 16:05:44.243821 28075 net.cpp:157] Top shape: 1 4 (4)
I0727 16:05:44.243824 28075 net.cpp:165] Memory required for data: 7020084
I0727 16:05:44.243827 28075 layer_factory.hpp:77] Creating layer conv1_1
I0727 16:05:44.243845 28075 net.cpp:106] Creating Layer conv1_1
I0727 16:05:44.243850 28075 net.cpp:454] conv1_1 <- data_input-data_0_split_0
I0727 16:05:44.243856 28075 net.cpp:411] conv1_1 -> conv1_1
I0727 16:05:44.679463 28075 net.cpp:150] Setting up conv1_1
I0727 16:05:44.679509 28075 net.cpp:157] Top shape: 1 64 375 520 (12480000)
I0727 16:05:44.679514 28075 net.cpp:165] Memory required for data: 56940084
I0727 16:05:44.679538 28075 layer_factory.hpp:77] Creating layer relu1_1
I0727 16:05:44.679553 28075 net.cpp:106] Creating Layer relu1_1
I0727 16:05:44.679586 28075 net.cpp:454] relu1_1 <- conv1_1
I0727 16:05:44.679606 28075 net.cpp:397] relu1_1 -> conv1_1 (in-place)
I0727 16:05:44.680481 28075 net.cpp:150] Setting up relu1_1
I0727 16:05:44.680502 28075 net.cpp:157] Top shape: 1 64 375 520 (12480000)
I0727 16:05:44.680507 28075 net.cpp:165] Memory required for data: 106860084
I0727 16:05:44.680511 28075 layer_factory.hpp:77] Creating layer conv1_2
I0727 16:05:44.680523 28075 net.cpp:106] Creating Layer conv1_2
I0727 16:05:44.680547 28075 net.cpp:454] conv1_2 <- conv1_1
I0727 16:05:44.680585 28075 net.cpp:411] conv1_2 -> conv1_2
I0727 16:05:44.684698 28075 net.cpp:150] Setting up conv1_2
I0727 16:05:44.684725 28075 net.cpp:157] Top shape: 1 64 375 520 (12480000)
I0727 16:05:44.684731 28075 net.cpp:165] Memory required for data: 156780084
I0727 16:05:44.684741 28075 layer_factory.hpp:77] Creating layer relu1_2
I0727 16:05:44.684770 28075 net.cpp:106] Creating Layer relu1_2
I0727 16:05:44.684798 28075 net.cpp:454] relu1_2 <- conv1_2
I0727 16:05:44.684815 28075 net.cpp:397] relu1_2 -> conv1_2 (in-place)
I0727 16:05:44.685009 28075 net.cpp:150] Setting up relu1_2
I0727 16:05:44.685026 28075 net.cpp:157] Top shape: 1 64 375 520 (12480000)
I0727 16:05:44.685030 28075 net.cpp:165] Memory required for data: 206700084
I0727 16:05:44.685046 28075 layer_factory.hpp:77] Creating layer pool1
I0727 16:05:44.685060 28075 net.cpp:106] Creating Layer pool1
I0727 16:05:44.685084 28075 net.cpp:454] pool1 <- conv1_2
I0727 16:05:44.685101 28075 net.cpp:411] pool1 -> pool1
I0727 16:05:44.685184 28075 net.cpp:150] Setting up pool1
I0727 16:05:44.685199 28075 net.cpp:157] Top shape: 1 64 188 260 (3128320)
I0727 16:05:44.685201 28075 net.cpp:165] Memory required for data: 219213364
I0727 16:05:44.685205 28075 layer_factory.hpp:77] Creating layer conv2_1
I0727 16:05:44.685214 28075 net.cpp:106] Creating Layer conv2_1
I0727 16:05:44.685216 28075 net.cpp:454] conv2_1 <- pool1
I0727 16:05:44.685221 28075 net.cpp:411] conv2_1 -> conv2_1
I0727 16:05:44.694162 28075 net.cpp:150] Setting up conv2_1
I0727 16:05:44.694186 28075 net.cpp:157] Top shape: 1 128 188 260 (6256640)
I0727 16:05:44.694190 28075 net.cpp:165] Memory required for data: 244239924
I0727 16:05:44.694200 28075 layer_factory.hpp:77] Creating layer relu2_1
I0727 16:05:44.694207 28075 net.cpp:106] Creating Layer relu2_1
I0727 16:05:44.694211 28075 net.cpp:454] relu2_1 <- conv2_1
I0727 16:05:44.694217 28075 net.cpp:397] relu2_1 -> conv2_1 (in-place)
I0727 16:05:44.695904 28075 net.cpp:150] Setting up relu2_1
I0727 16:05:44.695920 28075 net.cpp:157] Top shape: 1 128 188 260 (6256640)
I0727 16:05:44.695924 28075 net.cpp:165] Memory required for data: 269266484
I0727 16:05:44.695929 28075 layer_factory.hpp:77] Creating layer conv2_2
I0727 16:05:44.695936 28075 net.cpp:106] Creating Layer conv2_2
I0727 16:05:44.695940 28075 net.cpp:454] conv2_2 <- conv2_1
I0727 16:05:44.695945 28075 net.cpp:411] conv2_2 -> conv2_2
I0727 16:05:44.701881 28075 net.cpp:150] Setting up conv2_2
I0727 16:05:44.701908 28075 net.cpp:157] Top shape: 1 128 188 260 (6256640)
I0727 16:05:44.701912 28075 net.cpp:165] Memory required for data: 294293044
I0727 16:05:44.701921 28075 layer_factory.hpp:77] Creating layer relu2_2
I0727 16:05:44.701927 28075 net.cpp:106] Creating Layer relu2_2
I0727 16:05:44.701931 28075 net.cpp:454] relu2_2 <- conv2_2
I0727 16:05:44.701936 28075 net.cpp:397] relu2_2 -> conv2_2 (in-place)
I0727 16:05:44.702853 28075 net.cpp:150] Setting up relu2_2
I0727 16:05:44.702874 28075 net.cpp:157] Top shape: 1 128 188 260 (6256640)
I0727 16:05:44.702878 28075 net.cpp:165] Memory required for data: 319319604
I0727 16:05:44.702883 28075 layer_factory.hpp:77] Creating layer pool2
I0727 16:05:44.702890 28075 net.cpp:106] Creating Layer pool2
I0727 16:05:44.702894 28075 net.cpp:454] pool2 <- conv2_2
I0727 16:05:44.702899 28075 net.cpp:411] pool2 -> pool2
I0727 16:05:44.702977 28075 net.cpp:150] Setting up pool2
I0727 16:05:44.702992 28075 net.cpp:157] Top shape: 1 128 94 130 (1564160)
I0727 16:05:44.702996 28075 net.cpp:165] Memory required for data: 325576244
I0727 16:05:44.702999 28075 layer_factory.hpp:77] Creating layer conv3_1
I0727 16:05:44.703008 28075 net.cpp:106] Creating Layer conv3_1
I0727 16:05:44.703028 28075 net.cpp:454] conv3_1 <- pool2
I0727 16:05:44.703044 28075 net.cpp:411] conv3_1 -> conv3_1
I0727 16:05:44.708075 28075 net.cpp:150] Setting up conv3_1
I0727 16:05:44.708099 28075 net.cpp:157] Top shape: 1 256 94 130 (3128320)
I0727 16:05:44.708103 28075 net.cpp:165] Memory required for data: 338089524
I0727 16:05:44.708113 28075 layer_factory.hpp:77] Creating layer relu3_1
I0727 16:05:44.708120 28075 net.cpp:106] Creating Layer relu3_1
I0727 16:05:44.708123 28075 net.cpp:454] relu3_1 <- conv3_1
I0727 16:05:44.708130 28075 net.cpp:397] relu3_1 -> conv3_1 (in-place)
I0727 16:05:44.709115 28075 net.cpp:150] Setting up relu3_1
I0727 16:05:44.709132 28075 net.cpp:157] Top shape: 1 256 94 130 (3128320)
I0727 16:05:44.709136 28075 net.cpp:165] Memory required for data: 350602804
I0727 16:05:44.709141 28075 layer_factory.hpp:77] Creating layer conv3_2
I0727 16:05:44.709154 28075 net.cpp:106] Creating Layer conv3_2
I0727 16:05:44.709158 28075 net.cpp:454] conv3_2 <- conv3_1
I0727 16:05:44.709164 28075 net.cpp:411] conv3_2 -> conv3_2
I0727 16:05:44.713754 28075 net.cpp:150] Setting up conv3_2
I0727 16:05:44.713778 28075 net.cpp:157] Top shape: 1 256 94 130 (3128320)
I0727 16:05:44.713783 28075 net.cpp:165] Memory required for data: 363116084
I0727 16:05:44.713789 28075 layer_factory.hpp:77] Creating layer relu3_2
I0727 16:05:44.713798 28075 net.cpp:106] Creating Layer relu3_2
I0727 16:05:44.713802 28075 net.cpp:454] relu3_2 <- conv3_2
I0727 16:05:44.713807 28075 net.cpp:397] relu3_2 -> conv3_2 (in-place)
I0727 16:05:44.714170 28075 net.cpp:150] Setting up relu3_2
I0727 16:05:44.714186 28075 net.cpp:157] Top shape: 1 256 94 130 (3128320)
I0727 16:05:44.714190 28075 net.cpp:165] Memory required for data: 375629364
I0727 16:05:44.714193 28075 layer_factory.hpp:77] Creating layer conv3_3
I0727 16:05:44.714202 28075 net.cpp:106] Creating Layer conv3_3
I0727 16:05:44.714206 28075 net.cpp:454] conv3_3 <- conv3_2
I0727 16:05:44.714212 28075 net.cpp:411] conv3_3 -> conv3_3
I0727 16:05:44.722324 28075 net.cpp:150] Setting up conv3_3
I0727 16:05:44.722348 28075 net.cpp:157] Top shape: 1 256 94 130 (3128320)
I0727 16:05:44.722353 28075 net.cpp:165] Memory required for data: 388142644
I0727 16:05:44.722360 28075 layer_factory.hpp:77] Creating layer relu3_3
I0727 16:05:44.722367 28075 net.cpp:106] Creating Layer relu3_3
I0727 16:05:44.722370 28075 net.cpp:454] relu3_3 <- conv3_3
I0727 16:05:44.722378 28075 net.cpp:397] relu3_3 -> conv3_3 (in-place)
I0727 16:05:44.723240 28075 net.cpp:150] Setting up relu3_3
I0727 16:05:44.723260 28075 net.cpp:157] Top shape: 1 256 94 130 (3128320)
I0727 16:05:44.723264 28075 net.cpp:165] Memory required for data: 400655924
I0727 16:05:44.723268 28075 layer_factory.hpp:77] Creating layer pool3
I0727 16:05:44.723274 28075 net.cpp:106] Creating Layer pool3
I0727 16:05:44.723278 28075 net.cpp:454] pool3 <- conv3_3
I0727 16:05:44.723284 28075 net.cpp:411] pool3 -> pool3
I0727 16:05:44.723332 28075 net.cpp:150] Setting up pool3
I0727 16:05:44.723361 28075 net.cpp:157] Top shape: 1 256 47 65 (782080)
I0727 16:05:44.723376 28075 net.cpp:165] Memory required for data: 403784244
I0727 16:05:44.723388 28075 layer_factory.hpp:77] Creating layer conv4_1
I0727 16:05:44.723412 28075 net.cpp:106] Creating Layer conv4_1
I0727 16:05:44.723425 28075 net.cpp:454] conv4_1 <- pool3
I0727 16:05:44.723443 28075 net.cpp:411] conv4_1 -> conv4_1
I0727 16:05:44.731009 28075 net.cpp:150] Setting up conv4_1
I0727 16:05:44.731032 28075 net.cpp:157] Top shape: 1 512 47 65 (1564160)
I0727 16:05:44.731037 28075 net.cpp:165] Memory required for data: 410040884
I0727 16:05:44.731045 28075 layer_factory.hpp:77] Creating layer relu4_1
I0727 16:05:44.731050 28075 net.cpp:106] Creating Layer relu4_1
I0727 16:05:44.731055 28075 net.cpp:454] relu4_1 <- conv4_1
I0727 16:05:44.731067 28075 net.cpp:397] relu4_1 -> conv4_1 (in-place)
I0727 16:05:44.731972 28075 net.cpp:150] Setting up relu4_1
I0727 16:05:44.731993 28075 net.cpp:157] Top shape: 1 512 47 65 (1564160)
I0727 16:05:44.731997 28075 net.cpp:165] Memory required for data: 416297524
I0727 16:05:44.732002 28075 layer_factory.hpp:77] Creating layer conv4_2
I0727 16:05:44.732012 28075 net.cpp:106] Creating Layer conv4_2
I0727 16:05:44.732017 28075 net.cpp:454] conv4_2 <- conv4_1
I0727 16:05:44.732023 28075 net.cpp:411] conv4_2 -> conv4_2
I0727 16:05:44.742180 28075 net.cpp:150] Setting up conv4_2
I0727 16:05:44.742208 28075 net.cpp:157] Top shape: 1 512 47 65 (1564160)
I0727 16:05:44.742213 28075 net.cpp:165] Memory required for data: 422554164
I0727 16:05:44.742228 28075 layer_factory.hpp:77] Creating layer relu4_2
I0727 16:05:44.742234 28075 net.cpp:106] Creating Layer relu4_2
I0727 16:05:44.742238 28075 net.cpp:454] relu4_2 <- conv4_2
I0727 16:05:44.742244 28075 net.cpp:397] relu4_2 -> conv4_2 (in-place)
I0727 16:05:44.743494 28075 net.cpp:150] Setting up relu4_2
I0727 16:05:44.743513 28075 net.cpp:157] Top shape: 1 512 47 65 (1564160)
I0727 16:05:44.743517 28075 net.cpp:165] Memory required for data: 428810804
I0727 16:05:44.743521 28075 layer_factory.hpp:77] Creating layer conv4_3
I0727 16:05:44.743530 28075 net.cpp:106] Creating Layer conv4_3
I0727 16:05:44.743554 28075 net.cpp:454] conv4_3 <- conv4_2
I0727 16:05:44.743574 28075 net.cpp:411] conv4_3 -> conv4_3
I0727 16:05:44.755503 28075 net.cpp:150] Setting up conv4_3
I0727 16:05:44.755527 28075 net.cpp:157] Top shape: 1 512 47 65 (1564160)
I0727 16:05:44.755532 28075 net.cpp:165] Memory required for data: 435067444
I0727 16:05:44.755539 28075 layer_factory.hpp:77] Creating layer relu4_3
I0727 16:05:44.755548 28075 net.cpp:106] Creating Layer relu4_3
I0727 16:05:44.755553 28075 net.cpp:454] relu4_3 <- conv4_3
I0727 16:05:44.755558 28075 net.cpp:397] relu4_3 -> conv4_3 (in-place)
I0727 16:05:44.760218 28075 net.cpp:150] Setting up relu4_3
I0727 16:05:44.760239 28075 net.cpp:157] Top shape: 1 512 47 65 (1564160)
I0727 16:05:44.760244 28075 net.cpp:165] Memory required for data: 441324084
I0727 16:05:44.760247 28075 layer_factory.hpp:77] Creating layer pool4
I0727 16:05:44.760257 28075 net.cpp:106] Creating Layer pool4
I0727 16:05:44.760262 28075 net.cpp:454] pool4 <- conv4_3
I0727 16:05:44.760267 28075 net.cpp:411] pool4 -> pool4
I0727 16:05:44.760318 28075 net.cpp:150] Setting up pool4
I0727 16:05:44.760352 28075 net.cpp:157] Top shape: 1 512 24 33 (405504)
I0727 16:05:44.760366 28075 net.cpp:165] Memory required for data: 442946100
I0727 16:05:44.760378 28075 layer_factory.hpp:77] Creating layer conv5_1
I0727 16:05:44.760397 28075 net.cpp:106] Creating Layer conv5_1
I0727 16:05:44.760421 28075 net.cpp:454] conv5_1 <- pool4
I0727 16:05:44.760439 28075 net.cpp:411] conv5_1 -> conv5_1
I0727 16:05:44.773243 28075 net.cpp:150] Setting up conv5_1
I0727 16:05:44.773269 28075 net.cpp:157] Top shape: 1 512 24 33 (405504)
I0727 16:05:44.773274 28075 net.cpp:165] Memory required for data: 444568116
I0727 16:05:44.773282 28075 layer_factory.hpp:77] Creating layer relu5_1
I0727 16:05:44.773288 28075 net.cpp:106] Creating Layer relu5_1
I0727 16:05:44.773291 28075 net.cpp:454] relu5_1 <- conv5_1
I0727 16:05:44.773298 28075 net.cpp:397] relu5_1 -> conv5_1 (in-place)
I0727 16:05:44.774775 28075 net.cpp:150] Setting up relu5_1
I0727 16:05:44.774792 28075 net.cpp:157] Top shape: 1 512 24 33 (405504)
I0727 16:05:44.774796 28075 net.cpp:165] Memory required for data: 446190132
I0727 16:05:44.774799 28075 layer_factory.hpp:77] Creating layer conv5_2
I0727 16:05:44.774816 28075 net.cpp:106] Creating Layer conv5_2
I0727 16:05:44.774843 28075 net.cpp:454] conv5_2 <- conv5_1
I0727 16:05:44.774864 28075 net.cpp:411] conv5_2 -> conv5_2
I0727 16:05:44.783962 28075 net.cpp:150] Setting up conv5_2
I0727 16:05:44.783989 28075 net.cpp:157] Top shape: 1 512 24 33 (405504)
I0727 16:05:44.783993 28075 net.cpp:165] Memory required for data: 447812148
I0727 16:05:44.784000 28075 layer_factory.hpp:77] Creating layer relu5_2
I0727 16:05:44.784009 28075 net.cpp:106] Creating Layer relu5_2
I0727 16:05:44.784037 28075 net.cpp:454] relu5_2 <- conv5_2
I0727 16:05:44.784055 28075 net.cpp:397] relu5_2 -> conv5_2 (in-place)
I0727 16:05:44.785049 28075 net.cpp:150] Setting up relu5_2
I0727 16:05:44.785068 28075 net.cpp:157] Top shape: 1 512 24 33 (405504)
I0727 16:05:44.785070 28075 net.cpp:165] Memory required for data: 449434164
I0727 16:05:44.785075 28075 layer_factory.hpp:77] Creating layer conv5_3
I0727 16:05:44.785094 28075 net.cpp:106] Creating Layer conv5_3
I0727 16:05:44.785115 28075 net.cpp:454] conv5_3 <- conv5_2
I0727 16:05:44.785145 28075 net.cpp:411] conv5_3 -> conv5_3
I0727 16:05:44.793797 28075 net.cpp:150] Setting up conv5_3
I0727 16:05:44.793830 28075 net.cpp:157] Top shape: 1 512 24 33 (405504)
I0727 16:05:44.793835 28075 net.cpp:165] Memory required for data: 451056180
I0727 16:05:44.793843 28075 layer_factory.hpp:77] Creating layer relu5_3
I0727 16:05:44.793859 28075 net.cpp:106] Creating Layer relu5_3
I0727 16:05:44.793887 28075 net.cpp:454] relu5_3 <- conv5_3
I0727 16:05:44.793905 28075 net.cpp:397] relu5_3 -> conv5_3 (in-place)
I0727 16:05:44.794941 28075 net.cpp:150] Setting up relu5_3
I0727 16:05:44.794963 28075 net.cpp:157] Top shape: 1 512 24 33 (405504)
I0727 16:05:44.794968 28075 net.cpp:165] Memory required for data: 452678196
I0727 16:05:44.794971 28075 layer_factory.hpp:77] Creating layer conv5_3_relu5_3_0_split
I0727 16:05:44.794981 28075 net.cpp:106] Creating Layer conv5_3_relu5_3_0_split
I0727 16:05:44.795004 28075 net.cpp:454] conv5_3_relu5_3_0_split <- conv5_3
I0727 16:05:44.795022 28075 net.cpp:411] conv5_3_relu5_3_0_split -> conv5_3_relu5_3_0_split_0
I0727 16:05:44.795045 28075 net.cpp:411] conv5_3_relu5_3_0_split -> conv5_3_relu5_3_0_split_1
I0727 16:05:44.795068 28075 net.cpp:411] conv5_3_relu5_3_0_split -> conv5_3_relu5_3_0_split_2
I0727 16:05:44.795158 28075 net.cpp:150] Setting up conv5_3_relu5_3_0_split
I0727 16:05:44.795172 28075 net.cpp:157] Top shape: 1 512 24 33 (405504)
I0727 16:05:44.795177 28075 net.cpp:157] Top shape: 1 512 24 33 (405504)
I0727 16:05:44.795181 28075 net.cpp:157] Top shape: 1 512 24 33 (405504)
I0727 16:05:44.795183 28075 net.cpp:165] Memory required for data: 457544244
I0727 16:05:44.795187 28075 layer_factory.hpp:77] Creating layer rpn_conv/3x3
I0727 16:05:44.795199 28075 net.cpp:106] Creating Layer rpn_conv/3x3
I0727 16:05:44.795217 28075 net.cpp:454] rpn_conv/3x3 <- conv5_3_relu5_3_0_split_0
I0727 16:05:44.795238 28075 net.cpp:411] rpn_conv/3x3 -> rpn/output
I0727 16:05:44.858587 28075 net.cpp:150] Setting up rpn_conv/3x3
I0727 16:05:44.858611 28075 net.cpp:157] Top shape: 1 512 24 33 (405504)
I0727 16:05:44.858616 28075 net.cpp:165] Memory required for data: 459166260
I0727 16:05:44.858623 28075 layer_factory.hpp:77] Creating layer rpn_relu/3x3
I0727 16:05:44.858631 28075 net.cpp:106] Creating Layer rpn_relu/3x3
I0727 16:05:44.858660 28075 net.cpp:454] rpn_relu/3x3 <- rpn/output
I0727 16:05:44.858698 28075 net.cpp:397] rpn_relu/3x3 -> rpn/output (in-place)
I0727 16:05:44.861409 28075 net.cpp:150] Setting up rpn_relu/3x3
I0727 16:05:44.861429 28075 net.cpp:157] Top shape: 1 512 24 33 (405504)
I0727 16:05:44.861433 28075 net.cpp:165] Memory required for data: 460788276
I0727 16:05:44.861436 28075 layer_factory.hpp:77] Creating layer rpn/output_rpn_relu/3x3_0_split
I0727 16:05:44.861444 28075 net.cpp:106] Creating Layer rpn/output_rpn_relu/3x3_0_split
I0727 16:05:44.861449 28075 net.cpp:454] rpn/output_rpn_relu/3x3_0_split <- rpn/output
I0727 16:05:44.861454 28075 net.cpp:411] rpn/output_rpn_relu/3x3_0_split -> rpn/output_rpn_relu/3x3_0_split_0
I0727 16:05:44.861480 28075 net.cpp:411] rpn/output_rpn_relu/3x3_0_split -> rpn/output_rpn_relu/3x3_0_split_1
I0727 16:05:44.861549 28075 net.cpp:150] Setting up rpn/output_rpn_relu/3x3_0_split
I0727 16:05:44.861564 28075 net.cpp:157] Top shape: 1 512 24 33 (405504)
I0727 16:05:44.861568 28075 net.cpp:157] Top shape: 1 512 24 33 (405504)
I0727 16:05:44.861572 28075 net.cpp:165] Memory required for data: 464032308
I0727 16:05:44.861574 28075 layer_factory.hpp:77] Creating layer rpn_cls_score
I0727 16:05:44.861585 28075 net.cpp:106] Creating Layer rpn_cls_score
I0727 16:05:44.861604 28075 net.cpp:454] rpn_cls_score <- rpn/output_rpn_relu/3x3_0_split_0
I0727 16:05:44.861623 28075 net.cpp:411] rpn_cls_score -> rpn_cls_score
I0727 16:05:44.869443 28075 net.cpp:150] Setting up rpn_cls_score
I0727 16:05:44.869469 28075 net.cpp:157] Top shape: 1 36 24 33 (28512)
I0727 16:05:44.869474 28075 net.cpp:165] Memory required for data: 464146356
I0727 16:05:44.869482 28075 layer_factory.hpp:77] Creating layer rpn_cls_score_rpn_cls_score_0_split
I0727 16:05:44.869488 28075 net.cpp:106] Creating Layer rpn_cls_score_rpn_cls_score_0_split
I0727 16:05:44.869513 28075 net.cpp:454] rpn_cls_score_rpn_cls_score_0_split <- rpn_cls_score
I0727 16:05:44.869531 28075 net.cpp:411] rpn_cls_score_rpn_cls_score_0_split -> rpn_cls_score_rpn_cls_score_0_split_0
I0727 16:05:44.869549 28075 net.cpp:411] rpn_cls_score_rpn_cls_score_0_split -> rpn_cls_score_rpn_cls_score_0_split_1
I0727 16:05:44.869624 28075 net.cpp:150] Setting up rpn_cls_score_rpn_cls_score_0_split
I0727 16:05:44.869639 28075 net.cpp:157] Top shape: 1 36 24 33 (28512)
I0727 16:05:44.869644 28075 net.cpp:157] Top shape: 1 36 24 33 (28512)
I0727 16:05:44.869647 28075 net.cpp:165] Memory required for data: 464374452
I0727 16:05:44.869650 28075 layer_factory.hpp:77] Creating layer rpn_bbox_pred
I0727 16:05:44.869663 28075 net.cpp:106] Creating Layer rpn_bbox_pred
I0727 16:05:44.869681 28075 net.cpp:454] rpn_bbox_pred <- rpn/output_rpn_relu/3x3_0_split_1
I0727 16:05:44.869699 28075 net.cpp:411] rpn_bbox_pred -> rpn_bbox_pred
I0727 16:05:44.876904 28075 net.cpp:150] Setting up rpn_bbox_pred
I0727 16:05:44.876926 28075 net.cpp:157] Top shape: 1 72 24 33 (57024)
I0727 16:05:44.876931 28075 net.cpp:165] Memory required for data: 464602548
I0727 16:05:44.876937 28075 layer_factory.hpp:77] Creating layer rpn_bbox_pred_rpn_bbox_pred_0_split
I0727 16:05:44.876946 28075 net.cpp:106] Creating Layer rpn_bbox_pred_rpn_bbox_pred_0_split
I0727 16:05:44.876950 28075 net.cpp:454] rpn_bbox_pred_rpn_bbox_pred_0_split <- rpn_bbox_pred
I0727 16:05:44.876956 28075 net.cpp:411] rpn_bbox_pred_rpn_bbox_pred_0_split -> rpn_bbox_pred_rpn_bbox_pred_0_split_0
I0727 16:05:44.876962 28075 net.cpp:411] rpn_bbox_pred_rpn_bbox_pred_0_split -> rpn_bbox_pred_rpn_bbox_pred_0_split_1
I0727 16:05:44.877055 28075 net.cpp:150] Setting up rpn_bbox_pred_rpn_bbox_pred_0_split
I0727 16:05:44.877070 28075 net.cpp:157] Top shape: 1 72 24 33 (57024)
I0727 16:05:44.877074 28075 net.cpp:157] Top shape: 1 72 24 33 (57024)
I0727 16:05:44.877077 28075 net.cpp:165] Memory required for data: 465058740
I0727 16:05:44.877080 28075 layer_factory.hpp:77] Creating layer rpn_cls_score_reshape
I0727 16:05:44.877091 28075 net.cpp:106] Creating Layer rpn_cls_score_reshape
I0727 16:05:44.877112 28075 net.cpp:454] rpn_cls_score_reshape <- rpn_cls_score_rpn_cls_score_0_split_0
I0727 16:05:44.877142 28075 net.cpp:411] rpn_cls_score_reshape -> rpn_cls_score_reshape
I0727 16:05:44.877197 28075 net.cpp:150] Setting up rpn_cls_score_reshape
I0727 16:05:44.877210 28075 net.cpp:157] Top shape: 1 2 432 33 (28512)
I0727 16:05:44.877213 28075 net.cpp:165] Memory required for data: 465172788
I0727 16:05:44.877218 28075 layer_factory.hpp:77] Creating layer rpn_cls_score_reshape_rpn_cls_score_reshape_0_split
I0727 16:05:44.877221 28075 net.cpp:106] Creating Layer rpn_cls_score_reshape_rpn_cls_score_reshape_0_split
I0727 16:05:44.877225 28075 net.cpp:454] rpn_cls_score_reshape_rpn_cls_score_reshape_0_split <- rpn_cls_score_reshape
I0727 16:05:44.877229 28075 net.cpp:411] rpn_cls_score_reshape_rpn_cls_score_reshape_0_split -> rpn_cls_score_reshape_rpn_cls_score_reshape_0_split_0
I0727 16:05:44.877235 28075 net.cpp:411] rpn_cls_score_reshape_rpn_cls_score_reshape_0_split -> rpn_cls_score_reshape_rpn_cls_score_reshape_0_split_1
I0727 16:05:44.877275 28075 net.cpp:150] Setting up rpn_cls_score_reshape_rpn_cls_score_reshape_0_split
I0727 16:05:44.877284 28075 net.cpp:157] Top shape: 1 2 432 33 (28512)
I0727 16:05:44.877286 28075 net.cpp:157] Top shape: 1 2 432 33 (28512)
I0727 16:05:44.877290 28075 net.cpp:165] Memory required for data: 465400884
I0727 16:05:44.877292 28075 layer_factory.hpp:77] Creating layer rpn-data
I0727 16:05:44.878077 28075 net.cpp:106] Creating Layer rpn-data
I0727 16:05:44.878098 28075 net.cpp:454] rpn-data <- rpn_cls_score_rpn_cls_score_0_split_1
I0727 16:05:44.878105 28075 net.cpp:454] rpn-data <- gt_boxes_input-data_2_split_0
I0727 16:05:44.878110 28075 net.cpp:454] rpn-data <- im_info_input-data_1_split_0
I0727 16:05:44.878114 28075 net.cpp:454] rpn-data <- data_input-data_0_split_1
I0727 16:05:44.878119 28075 net.cpp:411] rpn-data -> rpn_labels
I0727 16:05:44.878126 28075 net.cpp:411] rpn-data -> rpn_bbox_targets
I0727 16:05:44.878159 28075 net.cpp:411] rpn-data -> rpn_bbox_inside_weights
I0727 16:05:44.878178 28075 net.cpp:411] rpn-data -> rpn_bbox_outside_weights
I0727 16:05:44.883227 28075 net.cpp:150] Setting up rpn-data
I0727 16:05:44.883256 28075 net.cpp:157] Top shape: 1 1 432 33 (14256)
I0727 16:05:44.883262 28075 net.cpp:157] Top shape: 1 72 24 33 (57024)
I0727 16:05:44.883266 28075 net.cpp:157] Top shape: 1 72 24 33 (57024)
I0727 16:05:44.883270 28075 net.cpp:157] Top shape: 1 72 24 33 (57024)
I0727 16:05:44.883272 28075 net.cpp:165] Memory required for data: 466142196
I0727 16:05:44.883276 28075 layer_factory.hpp:77] Creating layer rpn_loss_cls
I0727 16:05:44.883289 28075 net.cpp:106] Creating Layer rpn_loss_cls
I0727 16:05:44.883317 28075 net.cpp:454] rpn_loss_cls <- rpn_cls_score_reshape_rpn_cls_score_reshape_0_split_0
I0727 16:05:44.883337 28075 net.cpp:454] rpn_loss_cls <- rpn_labels
…
I0727 16:05:44.885005 28075 net.cpp:157] Top shape: (1)
I0727 16:05:44.885010 28075 net.cpp:160]     with loss weight 1
I0727 16:05:44.885015 28075 net.cpp:165] Memory required for data: 466142204
I0727 16:05:44.885020 28075 layer_factory.hpp:77] Creating layer rpn_cls_prob
I0727 16:05:44.885027 28075 net.cpp:106] Creating Layer rpn_cls_prob
I0727 16:05:44.885077 28075 net.cpp:454] rpn_cls_prob <- rpn_cls_score_reshape_rpn_cls_score_reshape_0_split_1
I0727 16:05:44.885102 28075 net.cpp:411] rpn_cls_prob -> rpn_cls_prob
I0727 16:05:44.886080 28075 net.cpp:150] Setting up rpn_cls_prob
I0727 16:05:44.886102 28075 net.cpp:157] Top shape: 1 2 432 33 (28512)
I0727 16:05:44.886106 28075 net.cpp:165] Memory required for data: 466256252
I0727 16:05:44.886111 28075 layer_factory.hpp:77] Creating layer rpn_cls_prob_reshape
I0727 16:05:44.886119 28075 net.cpp:106] Creating Layer rpn_cls_prob_reshape
I0727 16:05:44.886143 28075 net.cpp:454] rpn_cls_prob_reshape <- rpn_cls_prob
I0727 16:05:44.886173 28075 net.cpp:411] rpn_cls_prob_reshape -> rpn_cls_prob_reshape
I0727 16:05:44.886222 28075 net.cpp:150] Setting up rpn_cls_prob_reshape
I0727 16:05:44.886235 28075 net.cpp:157] Top shape: 1 36 24 33 (28512)
I0727 16:05:44.886238 28075 net.cpp:165] Memory required for data: 466370300
I0727 16:05:44.886242 28075 layer_factory.hpp:77] Creating layer proposal
I0727 16:05:44.886469 28075 net.cpp:106] Creating Layer proposal
I0727 16:05:44.886488 28075 net.cpp:454] proposal <- rpn_cls_prob_reshape
I0727 16:05:44.886495 28075 net.cpp:454] proposal <- rpn_bbox_pred_rpn_bbox_pred_0_split_1
I0727 16:05:44.886499 28075 net.cpp:454] proposal <- im_info_input-data_1_split_1
I0727 16:05:44.886504 28075 net.cpp:411] proposal -> rpn_rois
I0727 16:05:44.887130 28075 net.cpp:150] Setting up proposal
I0727 16:05:44.887154 28075 net.cpp:157] Top shape: 1 5 (5)
I0727 16:05:44.887158 28075 net.cpp:165] Memory required for data: 466370320
I0727 16:05:44.887163 28075 layer_factory.hpp:77] Creating layer roi-data
I0727 16:05:44.888453 28075 net.cpp:106] Creating Layer roi-data
I0727 16:05:44.888476 28075 net.cpp:454] roi-data <- rpn_rois
I0727 16:05:44.888484 28075 net.cpp:454] roi-data <- gt_boxes_input-data_2_split_1
I0727 16:05:44.888489 28075 net.cpp:411] roi-data -> rois
I0727 16:05:44.888521 28075 net.cpp:411] roi-data -> labels
I0727 16:05:44.888531 28075 net.cpp:411] roi-data -> bbox_targets
I0727 16:05:44.888537 28075 net.cpp:411] roi-data -> bbox_inside_weights
I0727 16:05:44.888542 28075 net.cpp:411] roi-data -> bbox_outside_weights
I0727 16:05:44.888932 28075 net.cpp:150] Setting up roi-data
I0727 16:05:44.888955 28075 net.cpp:157] Top shape: 1 5 (5)
I0727 16:05:44.888960 28075 net.cpp:157] Top shape: 1 1 (1)
I0727 16:05:44.888964 28075 net.cpp:157] Top shape: 1 84 (84)
I0727 16:05:44.888967 28075 net.cpp:157] Top shape: 1 84 (84)
I0727 16:05:44.888970 28075 net.cpp:157] Top shape: 1 84 (84)
I0727 16:05:44.888973 28075 net.cpp:165] Memory required for data: 466371352
I0727 16:05:44.888978 28075 layer_factory.hpp:77] Creating layer rois_roi-data_0_split
I0727 16:05:44.888984 28075 net.cpp:106] Creating Layer rois_roi-data_0_split
I0727 16:05:44.889008 28075 net.cpp:454] rois_roi-data_0_split <- rois
I0727 16:05:44.889026 28075 net.cpp:411] rois_roi-data_0_split -> rois_roi-data_0_split_0
I0727 16:05:44.889060 28075 net.cpp:411] rois_roi-data_0_split -> rois_roi-data_0_split_1
I0727 16:05:44.889117 28075 net.cpp:150] Setting up rois_roi-data_0_split
I0727 16:05:44.889129 28075 net.cpp:157] Top shape: 1 5 (5)
I0727 16:05:44.889133 28075 net.cpp:157] Top shape: 1 5 (5)
I0727 16:05:44.889137 28075 net.cpp:165] Memory required for data: 466371392
I0727 16:05:44.889140 28075 layer_factory.hpp:77] Creating layer roi_pool5_readonly
I0727 16:05:44.889150 28075 net.cpp:106] Creating Layer roi_pool5_readonly
I0727 16:05:44.889169 28075 net.cpp:454] roi_pool5_readonly <- conv5_3_relu5_3_0_split_1
I0727 16:05:44.889185 28075 net.cpp:454] roi_pool5_readonly <- rois_roi-data_0_split_0
I0727 16:05:44.889204 28075 net.cpp:411] roi_pool5_readonly -> pool5_readonly
I0727 16:05:44.889225 28075 roi_pooling_layer.cpp:30] Spatial scale: 0.0625
I0727 16:05:44.889288 28075 net.cpp:150] Setting up roi_pool5_readonly
I0727 16:05:44.889300 28075 net.cpp:157] Top shape: 1 512 7 7 (25088)
I0727 16:05:44.889303 28075 net.cpp:165] Memory required for data: 466471744
I0727 16:05:44.889307 28075 layer_factory.hpp:77] Creating layer fc6_readonly
I0727 16:05:44.889317 28075 net.cpp:106] Creating Layer fc6_readonly
I0727 16:05:44.889320 28075 net.cpp:454] fc6_readonly <- pool5_readonly
I0727 16:05:44.889327 28075 net.cpp:411] fc6_readonly -> fc6_readonly
I0727 16:05:45.172678 28075 net.cpp:150] Setting up fc6_readonly
I0727 16:05:45.172739 28075 net.cpp:157] Top shape: 1 4096 (4096)
I0727 16:05:45.172744 28075 net.cpp:165] Memory required for data: 466488128
I0727 16:05:45.172768 28075 layer_factory.hpp:77] Creating layer relu6_readonly
I0727 16:05:45.172781 28075 net.cpp:106] Creating Layer relu6_readonly
I0727 16:05:45.172819 28075 net.cpp:454] relu6_readonly <- fc6_readonly
I0727 16:05:45.172839 28075 net.cpp:397] relu6_readonly -> fc6_readonly (in-place)
I0727 16:05:45.173152 28075 net.cpp:150] Setting up relu6_readonly
I0727 16:05:45.173172 28075 net.cpp:157] Top shape: 1 4096 (4096)
I0727 16:05:45.173177 28075 net.cpp:165] Memory required for data: 466504512
I0727 16:05:45.173180 28075 layer_factory.hpp:77] Creating layer drop6_readonly
I0727 16:05:45.173195 28075 net.cpp:106] Creating Layer drop6_readonly
I0727 16:05:45.173218 28075 net.cpp:454] drop6_readonly <- fc6_readonly
I0727 16:05:45.173238 28075 net.cpp:397] drop6_readonly -> fc6_readonly (in-place)
I0727 16:05:45.173316 28075 net.cpp:150] Setting up drop6_readonly
I0727 16:05:45.173331 28075 net.cpp:157] Top shape: 1 4096 (4096)
I0727 16:05:45.173336 28075 net.cpp:165] Memory required for data: 466520896
I0727 16:05:45.173339 28075 layer_factory.hpp:77] Creating layer fc7_readonly
I0727 16:05:45.173347 28075 net.cpp:106] Creating Layer fc7_readonly
I0727 16:05:45.173352 28075 net.cpp:454] fc7_readonly <- fc6_readonly
I0727 16:05:45.173357 28075 net.cpp:411] fc7_readonly -> fc7_readonly
I0727 16:05:45.218858 28075 net.cpp:150] Setting up fc7_readonly
I0727 16:05:45.218915 28075 net.cpp:157] Top shape: 1 4096 (4096)
I0727 16:05:45.218919 28075 net.cpp:165] Memory required for data: 466537280
I0727 16:05:45.218933 28075 layer_factory.hpp:77] Creating layer relu7_readonly
I0727 16:05:45.218946 28075 net.cpp:106] Creating Layer relu7_readonly
I0727 16:05:45.218955 28075 net.cpp:454] relu7_readonly <- fc7_readonly
I0727 16:05:45.218963 28075 net.cpp:397] relu7_readonly -> fc7_readonly (in-place)
I0727 16:05:45.220099 28075 net.cpp:150] Setting up relu7_readonly
I0727 16:05:45.220120 28075 net.cpp:157] Top shape: 1 4096 (4096)
I0727 16:05:45.220124 28075 net.cpp:165] Memory required for data: 466553664
I0727 16:05:45.220129 28075 layer_factory.hpp:77] Creating layer drop7_readonly
I0727 16:05:45.220140 28075 net.cpp:106] Creating Layer drop7_readonly
I0727 16:05:45.220145 28075 net.cpp:454] drop7_readonly <- fc7_readonly
I0727 16:05:45.220151 28075 net.cpp:397] drop7_readonly -> fc7_readonly (in-place)
I0727 16:05:45.220193 28075 net.cpp:150] Setting up drop7_readonly
I0727 16:05:45.220206 28075 net.cpp:157] Top shape: 1 4096 (4096)
I0727 16:05:45.220209 28075 net.cpp:165] Memory required for data: 466570048
I0727 16:05:45.220212 28075 layer_factory.hpp:77] Creating layer fc7_readonly_drop7_readonly_0_split
I0727 16:05:45.220217 28075 net.cpp:106] Creating Layer fc7_readonly_drop7_readonly_0_split
I0727 16:05:45.220223 28075 net.cpp:454] fc7_readonly_drop7_readonly_0_split <- fc7_readonly
I0727 16:05:45.220228 28075 net.cpp:411] fc7_readonly_drop7_readonly_0_split -> fc7_readonly_drop7_readonly_0_split_0
I0727 16:05:45.220237 28075 net.cpp:411] fc7_readonly_drop7_readonly_0_split -> fc7_readonly_drop7_readonly_0_split_1
I0727 16:05:45.220284 28075 net.cpp:150] Setting up fc7_readonly_drop7_readonly_0_split
I0727 16:05:45.220295 28075 net.cpp:157] Top shape: 1 4096 (4096)
I0727 16:05:45.220299 28075 net.cpp:157] Top shape: 1 4096 (4096)
I0727 16:05:45.220302 28075 net.cpp:165] Memory required for data: 466602816
I0727 16:05:45.220305 28075 layer_factory.hpp:77] Creating layer cls_score_readonly
I0727 16:05:45.220316 28075 net.cpp:106] Creating Layer cls_score_readonly
I0727 16:05:45.220321 28075 net.cpp:454] cls_score_readonly <- fc7_readonly_drop7_readonly_0_split_0
I0727 16:05:45.220329 28075 net.cpp:411] cls_score_readonly -> cls_score_readonly
I0727 16:05:45.223104 28075 net.cpp:150] Setting up cls_score_readonly
I0727 16:05:45.223125 28075 net.cpp:157] Top shape: 1 21 (21)
I0727 16:05:45.223129 28075 net.cpp:165] Memory required for data: 466602900
I0727 16:05:45.223134 28075 layer_factory.hpp:77] Creating layer bbox_pred_readonly
I0727 16:05:45.223147 28075 net.cpp:106] Creating Layer bbox_pred_readonly
I0727 16:05:45.223151 28075 net.cpp:454] bbox_pred_readonly <- fc7_readonly_drop7_readonly_0_split_1
I0727 16:05:45.223157 28075 net.cpp:411] bbox_pred_readonly -> bbox_pred_readonly
I0727 16:05:45.232165 28075 net.cpp:150] Setting up bbox_pred_readonly
I0727 16:05:45.232187 28075 net.cpp:157] Top shape: 1 84 (84)
I0727 16:05:45.232190 28075 net.cpp:165] Memory required for data: 466603236
I0727 16:05:45.232197 28075 layer_factory.hpp:77] Creating layer cls_prob_readonly
I0727 16:05:45.232204 28075 net.cpp:106] Creating Layer cls_prob_readonly
I0727 16:05:45.232209 28075 net.cpp:454] cls_prob_readonly <- cls_score_readonly
I0727 16:05:45.232216 28075 net.cpp:411] cls_prob_readonly -> cls_prob_readonly
I0727 16:05:45.232506 28075 net.cpp:150] Setting up cls_prob_readonly
I0727 16:05:45.232522 28075 net.cpp:157] Top shape: 1 21 (21)
I0727 16:05:45.232527 28075 net.cpp:165] Memory required for data: 466603320
I0727 16:05:45.232530 28075 layer_factory.hpp:77] Creating layer hard_roi_mining
I0727 16:05:45.232592 28075 net.cpp:106] Creating Layer hard_roi_mining
I0727 16:05:45.232605 28075 net.cpp:454] hard_roi_mining <- cls_prob_readonly
I0727 16:05:45.232611 28075 net.cpp:454] hard_roi_mining <- bbox_pred_readonly
I0727 16:05:45.232616 28075 net.cpp:454] hard_roi_mining <- rois_roi-data_0_split_1
I0727 16:05:45.232620 28075 net.cpp:454] hard_roi_mining <- labels
I0727 16:05:45.232625 28075 net.cpp:454] hard_roi_mining <- bbox_targets
I0727 16:05:45.232630 28075 net.cpp:454] hard_roi_mining <- bbox_inside_weights
I0727 16:05:45.232635 28075 net.cpp:454] hard_roi_mining <- bbox_outside_weights
I0727 16:05:45.232640 28075 net.cpp:411] hard_roi_mining -> rois_hard
I0727 16:05:45.232646 28075 net.cpp:411] hard_roi_mining -> labels_hard
I0727 16:05:45.232652 28075 net.cpp:411] hard_roi_mining -> bbox_targets_hard
I0727 16:05:45.232658 28075 net.cpp:411] hard_roi_mining -> bbox_inside_weights_hard
I0727 16:05:45.232664 28075 net.cpp:411] hard_roi_mining -> bbox_outside_weights_hard
OHEMDataLayer: name_to_top: {'bbox_outside_weights_hard': 4, 'bbox_inside_weights_hard': 3, 'labels_hard': 1, 'rois_hard': 0, 'bbox_targets_hard': 2}
I0727 16:05:45.233317 28075 net.cpp:150] Setting up hard_roi_mining
I0727 16:05:45.233337 28075 net.cpp:157] Top shape: 1 5 (5)
I0727 16:05:45.233341 28075 net.cpp:157] Top shape: 1 (1)
I0727 16:05:45.233345 28075 net.cpp:157] Top shape: 1 84 (84)
I0727 16:05:45.233348 28075 net.cpp:157] Top shape: 1 84 (84)
I0727 16:05:45.233353 28075 net.cpp:157] Top shape: 1 84 (84)
I0727 16:05:45.233355 28075 net.cpp:165] Memory required for data: 466604352
I0727 16:05:45.233361 28075 layer_factory.hpp:77] Creating layer roi_pool5
I0727 16:05:45.233381 28075 net.cpp:106] Creating Layer roi_pool5
I0727 16:05:45.233386 28075 net.cpp:454] roi_pool5 <- conv5_3_relu5_3_0_split_2
I0727 16:05:45.233392 28075 net.cpp:454] roi_pool5 <- rois_hard
I0727 16:05:45.233398 28075 net.cpp:411] roi_pool5 -> pool5
I0727 16:05:45.233407 28075 roi_pooling_layer.cpp:30] Spatial scale: 0.0625
I0727 16:05:45.233465 28075 net.cpp:150] Setting up roi_pool5
I0727 16:05:45.233479 28075 net.cpp:157] Top shape: 1 512 7 7 (25088)
I0727 16:05:45.233481 28075 net.cpp:165] Memory required for data: 466704704
I0727 16:05:45.233485 28075 layer_factory.hpp:77] Creating layer fc6
I0727 16:05:45.233494 28075 net.cpp:106] Creating Layer fc6
I0727 16:05:45.233499 28075 net.cpp:454] fc6 <- pool5
I0727 16:05:45.233503 28075 net.cpp:411] fc6 -> fc6
I0727 16:05:45.513612 28075 net.cpp:150] Setting up fc6
I0727 16:05:45.513674 28075 net.cpp:157] Top shape: 1 4096 (4096)
I0727 16:05:45.513679 28075 net.cpp:165] Memory required for data: 466721088
I0727 16:05:45.513687 28075 net.cpp:514] Sharing parameters 'fc6_w' owned by layer 'fc6_readonly', param index 0
I0727 16:05:45.513694 28075 net.cpp:514] Sharing parameters 'fc6_b' owned by layer 'fc6_readonly', param index 1
I0727 16:05:45.513698 28075 layer_factory.hpp:77] Creating layer relu6
I0727 16:05:45.513711 28075 net.cpp:106] Creating Layer relu6
I0727 16:05:45.513717 28075 net.cpp:454] relu6 <- fc6
I0727 16:05:45.513727 28075 net.cpp:397] relu6 -> fc6 (in-place)
I0727 16:05:45.515038 28075 net.cpp:150] Setting up relu6
I0727 16:05:45.515060 28075 net.cpp:157] Top shape: 1 4096 (4096)
I0727 16:05:45.515065 28075 net.cpp:165] Memory required for data: 466737472
I0727 16:05:45.515069 28075 layer_factory.hpp:77] Creating layer drop6
I0727 16:05:45.515076 28075 net.cpp:106] Creating Layer drop6
I0727 16:05:45.515108 28075 net.cpp:454] drop6 <- fc6
I0727 16:05:45.515130 28075 net.cpp:397] drop6 -> fc6 (in-place)
I0727 16:05:45.515189 28075 net.cpp:150] Setting up drop6
I0727 16:05:45.515204 28075 net.cpp:157] Top shape: 1 4096 (4096)
I0727 16:05:45.515208 28075 net.cpp:165] Memory required for data: 466753856
I0727 16:05:45.515211 28075 layer_factory.hpp:77] Creating layer fc7
I0727 16:05:45.515223 28075 net.cpp:106] Creating Layer fc7
I0727 16:05:45.515242 28075 net.cpp:454] fc7 <- fc6
I0727 16:05:45.515260 28075 net.cpp:411] fc7 -> fc7
I0727 16:05:45.559998 28075 net.cpp:150] Setting up fc7
I0727 16:05:45.560060 28075 net.cpp:157] Top shape: 1 4096 (4096)
I0727 16:05:45.560065 28075 net.cpp:165] Memory required for data: 466770240
I0727 16:05:45.560072 28075 net.cpp:514] Sharing parameters 'fc7_w' owned by layer 'fc7_readonly', param index 0
I0727 16:05:45.560078 28075 net.cpp:514] Sharing parameters 'fc7_b' owned by layer 'fc7_readonly', param index 1
I0727 16:05:45.560082 28075 layer_factory.hpp:77] Creating layer relu7
I0727 16:05:45.560096 28075 net.cpp:106] Creating Layer relu7
I0727 16:05:45.560137 28075 net.cpp:454] relu7 <- fc7
I0727 16:05:45.560158 28075 net.cpp:397] relu7 -> fc7 (in-place)
I0727 16:05:45.560449 28075 net.cpp:150] Setting up relu7
I0727 16:05:45.560467 28075 net.cpp:157] Top shape: 1 4096 (4096)
I0727 16:05:45.560472 28075 net.cpp:165] Memory required for data: 466786624
I0727 16:05:45.560474 28075 layer_factory.hpp:77] Creating layer drop7
I0727 16:05:45.560482 28075 net.cpp:106] Creating Layer drop7
I0727 16:05:45.560503 28075 net.cpp:454] drop7 <- fc7
I0727 16:05:45.560518 28075 net.cpp:397] drop7 -> fc7 (in-place)
I0727 16:05:45.560591 28075 net.cpp:150] Setting up drop7
I0727 16:05:45.560606 28075 net.cpp:157] Top shape: 1 4096 (4096)
I0727 16:05:45.560609 28075 net.cpp:165] Memory required for data: 466803008
I0727 16:05:45.560612 28075 layer_factory.hpp:77] Creating layer fc7_drop7_0_split
I0727 16:05:45.560621 28075 net.cpp:106] Creating Layer fc7_drop7_0_split
I0727 16:05:45.560638 28075 net.cpp:454] fc7_drop7_0_split <- fc7
I0727 16:05:45.560653 28075 net.cpp:411] fc7_drop7_0_split -> fc7_drop7_0_split_0
I0727 16:05:45.560689 28075 net.cpp:411] fc7_drop7_0_split -> fc7_drop7_0_split_1
I0727 16:05:45.560781 28075 net.cpp:150] Setting up fc7_drop7_0_split
I0727 16:05:45.560794 28075 net.cpp:157] Top shape: 1 4096 (4096)
I0727 16:05:45.560798 28075 net.cpp:157] Top shape: 1 4096 (4096)
I0727 16:05:45.560801 28075 net.cpp:165] Memory required for data: 466835776
I0727 16:05:45.560804 28075 layer_factory.hpp:77] Creating layer cls_score
I0727 16:05:45.560829 28075 net.cpp:106] Creating Layer cls_score
I0727 16:05:45.560843 28075 net.cpp:454] cls_score <- fc7_drop7_0_split_0
I0727 16:05:45.560861 28075 net.cpp:411] cls_score -> cls_score
I0727 16:05:45.563117 28075 net.cpp:150] Setting up cls_score
I0727 16:05:45.563135 28075 net.cpp:157] Top shape: 1 21 (21)
I0727 16:05:45.563139 28075 net.cpp:165] Memory required for data: 466835860
I0727 16:05:45.563144 28075 net.cpp:514] Sharing parameters 'cls_score_w' owned by layer 'cls_score_readonly', param index 0
I0727 16:05:45.563148 28075 net.cpp:514] Sharing parameters 'cls_score_b' owned by layer 'cls_score_readonly', param index 1
I0727 16:05:45.563197 28075 layer_factory.hpp:77] Creating layer bbox_pred
I0727 16:05:45.563211 28075 net.cpp:106] Creating Layer bbox_pred
I0727 16:05:45.563216 28075 net.cpp:454] bbox_pred <- fc7_drop7_0_split_1
I0727 16:05:45.563225 28075 net.cpp:411] bbox_pred -> bbox_pred
I0727 16:05:45.572435 28075 net.cpp:150] Setting up bbox_pred
I0727 16:05:45.572458 28075 net.cpp:157] Top shape: 1 84 (84)
I0727 16:05:45.572461 28075 net.cpp:165] Memory required for data: 466836196
I0727 16:05:45.572465 28075 net.cpp:514] Sharing parameters 'bbox_pred_w' owned by layer 'bbox_pred_readonly', param index 0
I0727 16:05:45.572491 28075 net.cpp:514] Sharing parameters 'bbox_pred_b' owned by layer 'bbox_pred_readonly', param index 1
I0727 16:05:45.572499 28075 layer_factory.hpp:77] Creating layer loss_cls
…
           'RPN_PRE_NMS_TOP_N': 12000,
           'SCALES': [375],
           'SNAPSHOT_INFIX': '',
           'SNAPSHOT_ITERS': 5000,
           'USE_FLIPPED': True,
           'USE_OHEM': True,
           'USE_PREFETCH': False},
 'USE_GPU_NMS': True}
WARNING: Logging before InitGoogleLogging() is written to STDERR
I0728 02:46:30.948139 42466 net.cpp:49] Initializing net from parameters: 
name: "VGG_ILSVRC_16_layers"
input: "data"
input: "im_info"
state {
  phase: TEST
}
input_shape {
  dim: 1
  dim: 3
  dim: 224
  dim: 224
}
input_shape {
  dim: 1
  dim: 3
}
layer {
  name: "conv1_1"
  type: "Convolution"
  bottom: "data"
  top: "conv1_1"
  param {
    lr_mult: 0
    decay_mult: 0
  }
  param {
    lr_mult: 0
    decay_mult: 0
  }
  convolution_param {
    num_output: 64
    pad: 1
    kernel_size: 3
  }
}
layer {
  name: "relu1_1"
  type: "ReLU"
  bottom: "conv1_1"
  top: "conv1_1"
}
layer {
  name: "conv1_2"
  type: "Convolution"
  bottom: "conv1_1"
  top: "conv1_2"
  param {
    lr_mult: 0
    decay_mult: 0
  }
  param {
    lr_mult: 0
    decay_mult: 0
  }
  convolution_param {
    num_output: 64
    pad: 1
    kernel_size: 3
  }
}
layer {
  name: "relu1_2"
  type: "ReLU"
  bottom: "conv1_2"
  top: "conv1_2"
}
layer {
  name: "pool1"
  type: "Pooling"
  bottom: "conv1_2"
  top: "pool1"
  pooling_param {
    pool: MAX
    kernel_size: 2
    stride: 2
  }
}
layer {
  name: "conv2_1"
  type: "Convolution"
  bottom: "pool1"
  top: "conv2_1"
  param {
    lr_mult: 0
    decay_mult: 0
  }
  param {
    lr_mult: 0
    decay_mult: 0
  }
  convolution_param {
    num_output: 128
    pad: 1
    kernel_size: 3
  }
}
layer {
  name: "relu2_1"
  type: "ReLU"
  bottom: "conv2_1"
  top: "conv2_1"
}
layer {
  name: "conv2_2"
  type: "Convolution"
  bottom: "conv2_1"
  top: "conv2_2"
  param {
    lr_mult: 0
    decay_mult: 0
  }
  param {
    lr_mult: 0
    decay_mult: 0
  }
  convolution_param {
    num_output: 128
    pad: 1
    kernel_size: 3
  }
}
layer {
  name: "relu2_2"
  type: "ReLU"
  bottom: "conv2_2"
  top: "conv2_2"
}
layer {
  name: "pool2"
  type: "Pooling"
  bottom: "conv2_2"
  top: "pool2"
  pooling_param {
    pool: MAX
    kernel_size: 2
    stride: 2
  }
}
layer {
  name: "conv3_1"
  type: "Convolution"
  bottom: "pool2"
  top: "conv3_1"
  param {
    lr_mult: 1
    decay_mult: 1
  }
  param {
    lr_mult: 2
    decay_mult: 0
  }
  convolution_param {
    num_output: 256
    pad: 1
    kernel_size: 3
  }
}
layer {
  name: "relu3_1"
  type: "ReLU"
  bottom: "conv3_1"
  top: "conv3_1"
}
layer {
  name: "conv3_2"
  type: "Convolution"
  bottom: "conv3_1"
  top: "conv3_2"
  param {
    lr_mult: 1
    decay_mult: 1
  }
  param {
    lr_mult: 2
    decay_mult: 0
  }
  convolution_param {
    num_output: 256
    pad: 1
    kernel_size: 3
  }
}
layer {
  name: "relu3_2"
  type: "ReLU"
  bottom: "conv3_2"
  top: "conv3_2"
}
layer {
  name: "conv3_3"
  type: "Convolution"
  bottom: "conv3_2"
  top: "conv3_3"
  param {
    lr_mult: 1
    decay_mult: 1
  }
  param {
    lr_mult: 2
    decay_mult: 0
  }
  convolution_param {
    num_output: 256
    pad: 1
    kernel_size: 3
  }
}
layer {
  name: "relu3_3"
  type: "ReLU"
  bottom: "conv3_3"
  top: "conv3_3"
}
layer {
  name: "pool3"
  type: "Pooling"
  bottom: "conv3_3"
  top: "pool3"
  pooling_param {
    pool: MAX
    kernel_size: 2
    stride: 2
  }
}
layer {
  name: "conv4_1"
  type: "Convolution"
  bottom: "pool3"
  top: "conv4_1"
  param {
    lr_mult: 1
    decay_mult: 1
  }
  param {
    lr_mult: 2
    decay_mult: 0
  }
  convolution_param {
    num_output: 512
    pad: 1
    kernel_size: 3
  }
}
layer {
  name: "relu4_1"
  type: "ReLU"
  bottom: "conv4_1"
  top: "conv4_1"
}
layer {
  name: "conv4_2"
  type: "Convolution"
  bottom: "conv4_1"
  top: "conv4_2"
  param {
    lr_mult: 1
    decay_mult: 1
  }
  param {
    lr_mult: 2
    decay_mult: 0
  }
  convolution_param {
    num_output: 512
    pad: 1
    kernel_size: 3
  }
}
layer {
  name: "relu4_2"
  type: "ReLU"
  bottom: "conv4_2"
  top: "conv4_2"
}
layer {
  name: "conv4_3"
  type: "Convolution"
  bottom: "conv4_2"
  top: "conv4_3"
  param {
    lr_mult: 1
    decay_mult: 1
  }
  param {
    lr_mult: 2
    decay_mult: 0
  }
  convolution_param {
    num_output: 512
    pad: 1
    kernel_size: 3
  }
}
layer {
  name: "relu4_3"
  type: "ReLU"
  bottom: "conv4_3"
  top: "conv4_3"
}
layer {
  name: "pool4"
  type: "Pooling"
  bottom: "conv4_3"
  top: "pool4"
  pooling_param {
    pool: MAX
    kernel_size: 2
    stride: 2
  }
}
layer {
  name: "conv5_1"
  type: "Convolution"
  bottom: "pool4"
  top: "conv5_1"
  param {
    lr_mult: 1
    decay_mult: 1
  }
  param {
    lr_mult: 2
    decay_mult: 0
  }
  convolution_param {
    num_output: 512
    pad: 1
    kernel_size: 3
  }
}
layer {
  name: "relu5_1"
  type: "ReLU"
  bottom: "conv5_1"
  top: "conv5_1"
}
layer {
  name: "conv5_2"
  type: "Convolution"
  bottom: "conv5_1"
  top: "conv5_2"
  param {
    lr_mult: 1
    decay_mult: 1
  }
  param {
    lr_mult: 2
    decay_mult: 0
  }
  convolution_param {
    num_output: 512
    pad: 1
    kernel_size: 3
  }
}
layer {
  name: "relu5_2"
  type: "ReLU"
  bottom: "conv5_2"
  top: "conv5_2"
}
layer {
  name: "conv5_3"
  type: "Convolution"
  bottom: "conv5_2"
  top: "conv5_3"
  param {
    lr_mult: 1
    decay_mult: 1
  }
  param {
    lr_mult: 2
    decay_mult: 0
  }
  convolution_param {
    num_output: 512
    pad: 1
    kernel_size: 3
  }
}
layer {
  name: "relu5_3"
  type: "ReLU"
  bottom: "conv5_3"
  top: "conv5_3"
}
layer {
  name: "rpn_conv/3x3"
  type: "Convolution"
  bottom: "conv5_3"
  top: "rpn/output"
  param {
    lr_mult: 1
    decay_mult: 1
  }
  param {
    lr_mult: 2
    decay_mult: 0
  }
  convolution_param {
    num_output: 512
    pad: 1
    kernel_size: 3
    stride: 1
    weight_filler {
      type: "gaussian"
      std: 0.01
    }
    bias_filler {
      type: "constant"
      value: 0
    }
  }
}
layer {
  name: "rpn_relu/3x3"
  type: "ReLU"
  bottom: "rpn/output"
  top: "rpn/output"
}
layer {
  name: "rpn_cls_score"
  type: "Convolution"
  bottom: "rpn/output"
  top: "rpn_cls_score"
  param {
    lr_mult: 1
    decay_mult: 1
  }
  param {
    lr_mult: 2
    decay_mult: 0
  }
  convolution_param {
    num_output: 36
    pad: 0
    kernel_size: 1
    stride: 1
    weight_filler {
      type: "gaussian"
      std: 0.01
    }
    bias_filler {
      type: "constant"
      value: 0
    }
  }
}
layer {
  name: "rpn_bbox_pred"
  type: "Convolution"
  bottom: "rpn/output"
  top: "rpn_bbox_pred"
  param {
    lr_mult: 1
    decay_mult: 1
  }
  param {
    lr_mult: 2
    decay_mult: 0
  }
  convolution_param {
    num_output: 72
    pad: 0
    kernel_size: 1
    stride: 1
    weight_filler {
      type: "gaussian"
      std: 0.01
    }
    bias_filler {
      type: "constant"
      value: 0
    }
  }
}
layer {
  name: "rpn_cls_score_reshape"
  type: "Reshape"
  bottom: "rpn_cls_score"
  top: "rpn_cls_score_reshape"
  reshape_param {
    shape {
      dim: 0
      dim: 2
      dim: -1
      dim: 0
    }
  }
}
layer {
  name: "rpn_cls_prob"
  type: "Softmax"
  bottom: "rpn_cls_score_reshape"
  top: "rpn_cls_prob"
}
layer {
  name: "rpn_cls_prob_reshape"
  type: "Reshape"
  bottom: "rpn_cls_prob"
  top: "rpn_cls_prob_reshape"
  reshape_param {
    shape {
      dim: 0
      dim: 36
      dim: -1
      dim: 0
    }
  }
}
layer {
  name: "proposal"
  type: "Python"
  bottom: "rpn_cls_prob_reshape"
  bottom: "rpn_bbox_pred"
  bottom: "im_info"
  top: "rois"
  python_param {
    module: "rpn.proposal_layer"
    layer: "ProposalLayer"
    param_str: "\'feat_stride\': 16"
  }
}
layer {
  name: "roi_pool5"
  type: "ROIPooling"
  bottom: "conv5_3"
  bottom: "rois"
  top: "pool5"
  roi_pooling_param {
    pooled_h: 7
    pooled_w: 7
    spatial_scale: 0.0625
  }
}
layer {
  name: "fc6"
  type: "InnerProduct"
  bottom: "pool5"
  top: "fc6"
  param {
    lr_mult: 1
    decay_mult: 1
  }
  param {
    lr_mult: 2
    decay_mult: 0
  }
  inner_product_param {
    num_output: 4096
  }
}
layer {
  name: "relu6"
  type: "ReLU"
  bottom: "fc6"
  top: "fc6"
}
layer {
  name: "drop6"
  type: "Dropout"
  bottom: "fc6"
  top: "fc6"
  dropout_param {
    dropout_ratio: 0.5
  }
}
layer {
  name: "fc7"
  type: "InnerProduct"
  bottom: "fc6"
  top: "fc7"
  param {
    lr_mult: 1
    decay_mult: 1
  }
  param {
    lr_mult: 2
    decay_mult: 0
  }
  inner_product_param {
    num_output: 4096
  }
}
layer {
  name: "relu7"
  type: "ReLU"
  bottom: "fc7"
  top: "fc7"
}
layer {
  name: "drop7"
  type: "Dropout"
  bottom: "fc7"
  top: "fc7"
  dropout_param {
    dropout_ratio: 0.5
  }
}
layer {
  name: "cls_score"
  type: "InnerProduct"
  bottom: "fc7"
  top: "cls_score"
  param {
    lr_mult: 1
    decay_mult: 1
  }
  param {
    lr_mult: 2
    decay_mult: 0
  }
  inner_product_param {
    num_output: 21
    weight_filler {
      type: "gaussian"
      std: 0.01
    }
    bias_filler {
      type: "constant"
      value: 0
    }
  }
}
layer {
  name: "bbox_pred"
  type: "InnerProduct"
  bottom: "fc7"
  top: "bbox_pred"
  param {
    lr_mult: 1
    decay_mult: 1
  }
  param {
    lr_mult: 2
    decay_mult: 0
  }
  inner_product_param {
    num_output: 84
    weight_filler {
      type: "gaussian"
      std: 0.001
    }
    bias_filler {
      type: "constant"
      value: 0
    }
  }
}
layer {
  name: "cls_prob"
  type: "Softmax"
  bottom: "cls_score"
  top: "cls_prob"
}
I0728 02:46:30.948382 42466 net.cpp:413] Input 0 -> data
I0728 02:46:31.028278 42466 net.cpp:413] Input 1 -> im_info
I0728 02:46:31.028344 42466 layer_factory.hpp:77] Creating layer conv1_1
I0728 02:46:31.028376 42466 net.cpp:106] Creating Layer conv1_1
I0728 02:46:31.028388 42466 net.cpp:454] conv1_1 <- data
I0728 02:46:31.028398 42466 net.cpp:411] conv1_1 -> conv1_1
I0728 02:46:31.380264 42466 net.cpp:150] Setting up conv1_1
I0728 02:46:31.380383 42466 net.cpp:157] Top shape: 1 64 224 224 (3211264)
I0728 02:46:31.380389 42466 net.cpp:165] Memory required for data: 12845056
I0728 02:46:31.380445 42466 layer_factory.hpp:77] Creating layer relu1_1
I0728 02:46:31.380528 42466 net.cpp:106] Creating Layer relu1_1
I0728 02:46:31.380535 42466 net.cpp:454] relu1_1 <- conv1_1
I0728 02:46:31.380542 42466 net.cpp:397] relu1_1 -> conv1_1 (in-place)
I0728 02:46:31.381427 42466 net.cpp:150] Setting up relu1_1
I0728 02:46:31.381449 42466 net.cpp:157] Top shape: 1 64 224 224 (3211264)
I0728 02:46:31.381453 42466 net.cpp:165] Memory required for data: 25690112
I0728 02:46:31.381458 42466 layer_factory.hpp:77] Creating layer conv1_2
I0728 02:46:31.381513 42466 net.cpp:106] Creating Layer conv1_2
I0728 02:46:31.381520 42466 net.cpp:454] conv1_2 <- conv1_1
I0728 02:46:31.381525 42466 net.cpp:411] conv1_2 -> conv1_2
I0728 02:46:31.385817 42466 net.cpp:150] Setting up conv1_2
I0728 02:46:31.385840 42466 net.cpp:157] Top shape: 1 64 224 224 (3211264)
I0728 02:46:31.385845 42466 net.cpp:165] Memory required for data: 38535168
I0728 02:46:31.385854 42466 layer_factory.hpp:77] Creating layer relu1_2
I0728 02:46:31.385860 42466 net.cpp:106] Creating Layer relu1_2
I0728 02:46:31.385864 42466 net.cpp:454] relu1_2 <- conv1_2
I0728 02:46:31.385880 42466 net.cpp:397] relu1_2 -> conv1_2 (in-place)
I0728 02:46:31.386199 42466 net.cpp:150] Setting up relu1_2
I0728 02:46:31.386215 42466 net.cpp:157] Top shape: 1 64 224 224 (3211264)
I0728 02:46:31.386219 42466 net.cpp:165] Memory required for data: 51380224
I0728 02:46:31.386224 42466 layer_factory.hpp:77] Creating layer pool1
I0728 02:46:31.386257 42466 net.cpp:106] Creating Layer pool1
I0728 02:46:31.386263 42466 net.cpp:454] pool1 <- conv1_2
I0728 02:46:31.386268 42466 net.cpp:411] pool1 -> pool1
I0728 02:46:31.386324 42466 net.cpp:150] Setting up pool1
I0728 02:46:31.386330 42466 net.cpp:157] Top shape: 1 64 112 112 (802816)
I0728 02:46:31.386332 42466 net.cpp:165] Memory required for data: 54591488
I0728 02:46:31.386337 42466 layer_factory.hpp:77] Creating layer conv2_1
I0728 02:46:31.386343 42466 net.cpp:106] Creating Layer conv2_1
I0728 02:46:31.386345 42466 net.cpp:454] conv2_1 <- pool1
I0728 02:46:31.386350 42466 net.cpp:411] conv2_1 -> conv2_1
I0728 02:46:31.391197 42466 net.cpp:150] Setting up conv2_1
I0728 02:46:31.391222 42466 net.cpp:157] Top shape: 1 128 112 112 (1605632)
I0728 02:46:31.391227 42466 net.cpp:165] Memory required for data: 61014016
I0728 02:46:31.391237 42466 layer_factory.hpp:77] Creating layer relu2_1
I0728 02:46:31.391245 42466 net.cpp:106] Creating Layer relu2_1
I0728 02:46:31.391248 42466 net.cpp:454] relu2_1 <- conv2_1
I0728 02:46:31.391253 42466 net.cpp:397] relu2_1 -> conv2_1 (in-place)
I0728 02:46:31.391451 42466 net.cpp:150] Setting up relu2_1
I0728 02:46:31.391468 42466 net.cpp:157] Top shape: 1 128 112 112 (1605632)
I0728 02:46:31.391474 42466 net.cpp:165] Memory required for data: 67436544
I0728 02:46:31.391476 42466 layer_factory.hpp:77] Creating layer conv2_2
I0728 02:46:31.391494 42466 net.cpp:106] Creating Layer conv2_2
I0728 02:46:31.391499 42466 net.cpp:454] conv2_2 <- conv2_1
I0728 02:46:31.391507 42466 net.cpp:411] conv2_2 -> conv2_2
I0728 02:46:31.396241 42466 net.cpp:150] Setting up conv2_2
I0728 02:46:31.396266 42466 net.cpp:157] Top shape: 1 128 112 112 (1605632)
I0728 02:46:31.396270 42466 net.cpp:165] Memory required for data: 73859072
I0728 02:46:31.396286 42466 layer_factory.hpp:77] Creating layer relu2_2
I0728 02:46:31.396296 42466 net.cpp:106] Creating Layer relu2_2
I0728 02:46:31.396301 42466 net.cpp:454] relu2_2 <- conv2_2
I0728 02:46:31.396307 42466 net.cpp:397] relu2_2 -> conv2_2 (in-place)
I0728 02:46:31.397115 42466 net.cpp:150] Setting up relu2_2
I0728 02:46:31.397135 42466 net.cpp:157] Top shape: 1 128 112 112 (1605632)
I0728 02:46:31.397138 42466 net.cpp:165] Memory required for data: 80281600
I0728 02:46:31.397142 42466 layer_factory.hpp:77] Creating layer pool2
I0728 02:46:31.397161 42466 net.cpp:106] Creating Layer pool2
I0728 02:46:31.397166 42466 net.cpp:454] pool2 <- conv2_2
I0728 02:46:31.397173 42466 net.cpp:411] pool2 -> pool2
I0728 02:46:31.397227 42466 net.cpp:150] Setting up pool2
I0728 02:46:31.397234 42466 net.cpp:157] Top shape: 1 128 56 56 (401408)
I0728 02:46:31.397236 42466 net.cpp:165] Memory required for data: 81887232
I0728 02:46:31.397239 42466 layer_factory.hpp:77] Creating layer conv3_1
I0728 02:46:31.397245 42466 net.cpp:106] Creating Layer conv3_1
I0728 02:46:31.397248 42466 net.cpp:454] conv3_1 <- pool2
I0728 02:46:31.397255 42466 net.cpp:411] conv3_1 -> conv3_1
I0728 02:46:31.402063 42466 net.cpp:150] Setting up conv3_1
I0728 02:46:31.402087 42466 net.cpp:157] Top shape: 1 256 56 56 (802816)
I0728 02:46:31.402091 42466 net.cpp:165] Memory required for data: 85098496
I0728 02:46:31.402101 42466 layer_factory.hpp:77] Creating layer relu3_1
I0728 02:46:31.402109 42466 net.cpp:106] Creating Layer relu3_1
I0728 02:46:31.402113 42466 net.cpp:454] relu3_1 <- conv3_1
I0728 02:46:31.402118 42466 net.cpp:397] relu3_1 -> conv3_1 (in-place)
I0728 02:46:31.402469 42466 net.cpp:150] Setting up relu3_1
I0728 02:46:31.402485 42466 net.cpp:157] Top shape: 1 256 56 56 (802816)
I0728 02:46:31.402489 42466 net.cpp:165] Memory required for data: 88309760
I0728 02:46:31.402493 42466 layer_factory.hpp:77] Creating layer conv3_2
I0728 02:46:31.402514 42466 net.cpp:106] Creating Layer conv3_2
I0728 02:46:31.402519 42466 net.cpp:454] conv3_2 <- conv3_1
I0728 02:46:31.402524 42466 net.cpp:411] conv3_2 -> conv3_2
I0728 02:46:31.407845 42466 net.cpp:150] Setting up conv3_2
I0728 02:46:31.407869 42466 net.cpp:157] Top shape: 1 256 56 56 (802816)
I0728 02:46:31.407873 42466 net.cpp:165] Memory required for data: 91521024
I0728 02:46:31.407881 42466 layer_factory.hpp:77] Creating layer relu3_2
I0728 02:46:31.407889 42466 net.cpp:106] Creating Layer relu3_2
I0728 02:46:31.407893 42466 net.cpp:454] relu3_2 <- conv3_2
I0728 02:46:31.407897 42466 net.cpp:397] relu3_2 -> conv3_2 (in-place)
I0728 02:46:31.408812 42466 net.cpp:150] Setting up relu3_2
I0728 02:46:31.408828 42466 net.cpp:157] Top shape: 1 256 56 56 (802816)
I0728 02:46:31.408831 42466 net.cpp:165] Memory required for data: 94732288
I0728 02:46:31.408835 42466 layer_factory.hpp:77] Creating layer conv3_3
I0728 02:46:31.408846 42466 net.cpp:106] Creating Layer conv3_3
I0728 02:46:31.408849 42466 net.cpp:454] conv3_3 <- conv3_2
I0728 02:46:31.408854 42466 net.cpp:411] conv3_3 -> conv3_3
I0728 02:46:31.416239 42466 net.cpp:150] Setting up conv3_3
I0728 02:46:31.416263 42466 net.cpp:157] Top shape: 1 256 56 56 (802816)
I0728 02:46:31.416267 42466 net.cpp:165] Memory required for data: 97943552
I0728 02:46:31.416275 42466 layer_factory.hpp:77] Creating layer relu3_3
I0728 02:46:31.416283 42466 net.cpp:106] Creating Layer relu3_3
I0728 02:46:31.416287 42466 net.cpp:454] relu3_3 <- conv3_3
I0728 02:46:31.416292 42466 net.cpp:397] relu3_3 -> conv3_3 (in-place)
I0728 02:46:31.417135 42466 net.cpp:150] Setting up relu3_3
I0728 02:46:31.417155 42466 net.cpp:157] Top shape: 1 256 56 56 (802816)
I0728 02:46:31.417158 42466 net.cpp:165] Memory required for data: 101154816
I0728 02:46:31.417162 42466 layer_factory.hpp:77] Creating layer pool3
I0728 02:46:31.417196 42466 net.cpp:106] Creating Layer pool3
I0728 02:46:31.417201 42466 net.cpp:454] pool3 <- conv3_3
I0728 02:46:31.417207 42466 net.cpp:411] pool3 -> pool3
I0728 02:46:31.417264 42466 net.cpp:150] Setting up pool3
I0728 02:46:31.417269 42466 net.cpp:157] Top shape: 1 256 28 28 (200704)
I0728 02:46:31.417273 42466 net.cpp:165] Memory required for data: 101957632
I0728 02:46:31.417275 42466 layer_factory.hpp:77] Creating layer conv4_1
I0728 02:46:31.417284 42466 net.cpp:106] Creating Layer conv4_1
I0728 02:46:31.417286 42466 net.cpp:454] conv4_1 <- pool3
I0728 02:46:31.417291 42466 net.cpp:411] conv4_1 -> conv4_1
I0728 02:46:31.424149 42466 net.cpp:150] Setting up conv4_1
I0728 02:46:31.424175 42466 net.cpp:157] Top shape: 1 512 28 28 (401408)
I0728 02:46:31.424178 42466 net.cpp:165] Memory required for data: 103563264
I0728 02:46:31.424185 42466 layer_factory.hpp:77] Creating layer relu4_1
I0728 02:46:31.424193 42466 net.cpp:106] Creating Layer relu4_1
I0728 02:46:31.424197 42466 net.cpp:454] relu4_1 <- conv4_1
I0728 02:46:31.424202 42466 net.cpp:397] relu4_1 -> conv4_1 (in-place)
I0728 02:46:31.425237 42466 net.cpp:150] Setting up relu4_1
I0728 02:46:31.425257 42466 net.cpp:157] Top shape: 1 512 28 28 (401408)
I0728 02:46:31.425261 42466 net.cpp:165] Memory required for data: 105168896
I0728 02:46:31.425264 42466 layer_factory.hpp:77] Creating layer conv4_2
I0728 02:46:31.425283 42466 net.cpp:106] Creating Layer conv4_2
I0728 02:46:31.425290 42466 net.cpp:454] conv4_2 <- conv4_1
I0728 02:46:31.425298 42466 net.cpp:411] conv4_2 -> conv4_2
I0728 02:46:31.435214 42466 net.cpp:150] Setting up conv4_2
I0728 02:46:31.435240 42466 net.cpp:157] Top shape: 1 512 28 28 (401408)
I0728 02:46:31.435245 42466 net.cpp:165] Memory required for data: 106774528
I0728 02:46:31.435256 42466 layer_factory.hpp:77] Creating layer relu4_2
I0728 02:46:31.435276 42466 net.cpp:106] Creating Layer relu4_2
I0728 02:46:31.435281 42466 net.cpp:454] relu4_2 <- conv4_2
I0728 02:46:31.435288 42466 net.cpp:397] relu4_2 -> conv4_2 (in-place)
I0728 02:46:31.435587 42466 net.cpp:150] Setting up relu4_2
I0728 02:46:31.435603 42466 net.cpp:157] Top shape: 1 512 28 28 (401408)
I0728 02:46:31.435607 42466 net.cpp:165] Memory required for data: 108380160
I0728 02:46:31.435611 42466 layer_factory.hpp:77] Creating layer conv4_3
I0728 02:46:31.435619 42466 net.cpp:106] Creating Layer conv4_3
I0728 02:46:31.435622 42466 net.cpp:454] conv4_3 <- conv4_2
I0728 02:46:31.435629 42466 net.cpp:411] conv4_3 -> conv4_3
I0728 02:46:31.445605 42466 net.cpp:150] Setting up conv4_3
I0728 02:46:31.445634 42466 net.cpp:157] Top shape: 1 512 28 28 (401408)
I0728 02:46:31.445639 42466 net.cpp:165] Memory required for data: 109985792
I0728 02:46:31.445647 42466 layer_factory.hpp:77] Creating layer relu4_3
I0728 02:46:31.445652 42466 net.cpp:106] Creating Layer relu4_3
I0728 02:46:31.445657 42466 net.cpp:454] relu4_3 <- conv4_3
I0728 02:46:31.445674 42466 net.cpp:397] relu4_3 -> conv4_3 (in-place)
I0728 02:46:31.446727 42466 net.cpp:150] Setting up relu4_3
I0728 02:46:31.446748 42466 net.cpp:157] Top shape: 1 512 28 28 (401408)
I0728 02:46:31.446751 42466 net.cpp:165] Memory required for data: 111591424
I0728 02:46:31.446755 42466 layer_factory.hpp:77] Creating layer pool4
I0728 02:46:31.446772 42466 net.cpp:106] Creating Layer pool4
I0728 02:46:31.446779 42466 net.cpp:454] pool4 <- conv4_3
I0728 02:46:31.446786 42466 net.cpp:411] pool4 -> pool4
I0728 02:46:31.446851 42466 net.cpp:150] Setting up pool4
I0728 02:46:31.446856 42466 net.cpp:157] Top shape: 1 512 14 14 (100352)
I0728 02:46:31.446859 42466 net.cpp:165] Memory required for data: 111992832
I0728 02:46:31.446862 42466 layer_factory.hpp:77] Creating layer conv5_1
I0728 02:46:31.446878 42466 net.cpp:106] Creating Layer conv5_1
I0728 02:46:31.446884 42466 net.cpp:454] conv5_1 <- pool4
I0728 02:46:31.446892 42466 net.cpp:411] conv5_1 -> conv5_1
I0728 02:46:31.455036 42466 net.cpp:150] Setting up conv5_1
I0728 02:46:31.455062 42466 net.cpp:157] Top shape: 1 512 14 14 (100352)
I0728 02:46:31.455066 42466 net.cpp:165] Memory required for data: 112394240
I0728 02:46:31.455075 42466 layer_factory.hpp:77] Creating layer relu5_1
I0728 02:46:31.455080 42466 net.cpp:106] Creating Layer relu5_1
I0728 02:46:31.455083 42466 net.cpp:454] relu5_1 <- conv5_1
I0728 02:46:31.455091 42466 net.cpp:397] relu5_1 -> conv5_1 (in-place)
I0728 02:46:31.455842 42466 net.cpp:150] Setting up relu5_1
I0728 02:46:31.455858 42466 net.cpp:157] Top shape: 1 512 14 14 (100352)
I0728 02:46:31.455862 42466 net.cpp:165] Memory required for data: 112795648
I0728 02:46:31.455865 42466 layer_factory.hpp:77] Creating layer conv5_2
I0728 02:46:31.455898 42466 net.cpp:106] Creating Layer conv5_2
I0728 02:46:31.455905 42466 net.cpp:454] conv5_2 <- conv5_1
I0728 02:46:31.455914 42466 net.cpp:411] conv5_2 -> conv5_2
I0728 02:46:31.466027 42466 net.cpp:150] Setting up conv5_2
I0728 02:46:31.466053 42466 net.cpp:157] Top shape: 1 512 14 14 (100352)
I0728 02:46:31.466058 42466 net.cpp:165] Memory required for data: 113197056
I0728 02:46:31.466064 42466 layer_factory.hpp:77] Creating layer relu5_2
I0728 02:46:31.466070 42466 net.cpp:106] Creating Layer relu5_2
I0728 02:46:31.466074 42466 net.cpp:454] relu5_2 <- conv5_2
I0728 02:46:31.466081 42466 net.cpp:397] relu5_2 -> conv5_2 (in-place)
I0728 02:46:31.467283 42466 net.cpp:150] Setting up relu5_2
I0728 02:46:31.467298 42466 net.cpp:157] Top shape: 1 512 14 14 (100352)
I0728 02:46:31.467303 42466 net.cpp:165] Memory required for data: 113598464
I0728 02:46:31.467305 42466 layer_factory.hpp:77] Creating layer conv5_3
I0728 02:46:31.467326 42466 net.cpp:106] Creating Layer conv5_3
I0728 02:46:31.467334 42466 net.cpp:454] conv5_3 <- conv5_2
I0728 02:46:31.467339 42466 net.cpp:411] conv5_3 -> conv5_3
I0728 02:46:31.477712 42466 net.cpp:150] Setting up conv5_3
I0728 02:46:31.477736 42466 net.cpp:157] Top shape: 1 512 14 14 (100352)
I0728 02:46:31.477741 42466 net.cpp:165] Memory required for data: 113999872
I0728 02:46:31.477748 42466 layer_factory.hpp:77] Creating layer relu5_3
I0728 02:46:31.477754 42466 net.cpp:106] Creating Layer relu5_3
I0728 02:46:31.477758 42466 net.cpp:454] relu5_3 <- conv5_3
I0728 02:46:31.477763 42466 net.cpp:397] relu5_3 -> conv5_3 (in-place)
I0728 02:46:31.478838 42466 net.cpp:150] Setting up relu5_3
I0728 02:46:31.478858 42466 net.cpp:157] Top shape: 1 512 14 14 (100352)
I0728 02:46:31.478862 42466 net.cpp:165] Memory required for data: 114401280
I0728 02:46:31.478865 42466 layer_factory.hpp:77] Creating layer conv5_3_relu5_3_0_split
I0728 02:46:31.478878 42466 net.cpp:106] Creating Layer conv5_3_relu5_3_0_split
I0728 02:46:31.478881 42466 net.cpp:454] conv5_3_relu5_3_0_split <- conv5_3
I0728 02:46:31.478889 42466 net.cpp:411] conv5_3_relu5_3_0_split -> conv5_3_relu5_3_0_split_0
I0728 02:46:31.478895 42466 net.cpp:411] conv5_3_relu5_3_0_split -> conv5_3_relu5_3_0_split_1
I0728 02:46:31.478947 42466 net.cpp:150] Setting up conv5_3_relu5_3_0_split
I0728 02:46:31.478955 42466 net.cpp:157] Top shape: 1 512 14 14 (100352)
I0728 02:46:31.478958 42466 net.cpp:157] Top shape: 1 512 14 14 (100352)
I0728 02:46:31.478961 42466 net.cpp:165] Memory required for data: 115204096
I0728 02:46:31.478965 42466 layer_factory.hpp:77] Creating layer rpn_conv/3x3
I0728 02:46:31.478983 42466 net.cpp:106] Creating Layer rpn_conv/3x3
I0728 02:46:31.478991 42466 net.cpp:454] rpn_conv/3x3 <- conv5_3_relu5_3_0_split_0
I0728 02:46:31.478996 42466 net.cpp:411] rpn_conv/3x3 -> rpn/output
I0728 02:46:31.543076 42466 net.cpp:150] Setting up rpn_conv/3x3
I0728 02:46:31.543103 42466 net.cpp:157] Top shape: 1 512 14 14 (100352)
I0728 02:46:31.543107 42466 net.cpp:165] Memory required for data: 115605504
I0728 02:46:31.543114 42466 layer_factory.hpp:77] Creating layer rpn_relu/3x3
I0728 02:46:31.543139 42466 net.cpp:106] Creating Layer rpn_relu/3x3
I0728 02:46:31.543144 42466 net.cpp:454] rpn_relu/3x3 <- rpn/output
I0728 02:46:31.543151 42466 net.cpp:397] rpn_relu/3x3 -> rpn/output (in-place)
I0728 02:46:31.544116 42466 net.cpp:150] Setting up rpn_relu/3x3
I0728 02:46:31.544131 42466 net.cpp:157] Top shape: 1 512 14 14 (100352)
I0728 02:46:31.544136 42466 net.cpp:165] Memory required for data: 116006912
I0728 02:46:31.544139 42466 layer_factory.hpp:77] Creating layer rpn/output_rpn_relu/3x3_0_split
I0728 02:46:31.544144 42466 net.cpp:106] Creating Layer rpn/output_rpn_relu/3x3_0_split
I0728 02:46:31.544147 42466 net.cpp:454] rpn/output_rpn_relu/3x3_0_split <- rpn/output
I0728 02:46:31.544157 42466 net.cpp:411] rpn/output_rpn_relu/3x3_0_split -> rpn/output_rpn_relu/3x3_0_split_0
I0728 02:46:31.544163 42466 net.cpp:411] rpn/output_rpn_relu/3x3_0_split -> rpn/output_rpn_relu/3x3_0_split_1
I0728 02:46:31.544214 42466 net.cpp:150] Setting up rpn/output_rpn_relu/3x3_0_split
I0728 02:46:31.544220 42466 net.cpp:157] Top shape: 1 512 14 14 (100352)
I0728 02:46:31.544224 42466 net.cpp:157] Top shape: 1 512 14 14 (100352)
I0728 02:46:31.544226 42466 net.cpp:165] Memory required for data: 116809728
I0728 02:46:31.544229 42466 layer_factory.hpp:77] Creating layer rpn_cls_score
I0728 02:46:31.544239 42466 net.cpp:106] Creating Layer rpn_cls_score
I0728 02:46:31.544242 42466 net.cpp:454] rpn_cls_score <- rpn/output_rpn_relu/3x3_0_split_0
I0728 02:46:31.544247 42466 net.cpp:411] rpn_cls_score -> rpn_cls_score
I0728 02:46:31.548048 42466 net.cpp:150] Setting up rpn_cls_score
I0728 02:46:31.548084 42466 net.cpp:157] Top shape: 1 36 14 14 (7056)
I0728 02:46:31.548087 42466 net.cpp:165] Memory required for data: 116837952
I0728 02:46:31.548094 42466 layer_factory.hpp:77] Creating layer rpn_bbox_pred
I0728 02:46:31.548115 42466 net.cpp:106] Creating Layer rpn_bbox_pred
I0728 02:46:31.548122 42466 net.cpp:454] rpn_bbox_pred <- rpn/output_rpn_relu/3x3_0_split_1
I0728 02:46:31.548128 42466 net.cpp:411] rpn_bbox_pred -> rpn_bbox_pred
I0728 02:46:31.552795 42466 net.cpp:150] Setting up rpn_bbox_pred
I0728 02:46:31.552819 42466 net.cpp:157] Top shape: 1 72 14 14 (14112)
I0728 02:46:31.552824 42466 net.cpp:165] Memory required for data: 116894400
I0728 02:46:31.552829 42466 layer_factory.hpp:77] Creating layer rpn_cls_score_reshape
I0728 02:46:31.552851 42466 net.cpp:106] Creating Layer rpn_cls_score_reshape
I0728 02:46:31.552856 42466 net.cpp:454] rpn_cls_score_reshape <- rpn_cls_score
I0728 02:46:31.552865 42466 net.cpp:411] rpn_cls_score_reshape -> rpn_cls_score_reshape
I0728 02:46:31.552903 42466 net.cpp:150] Setting up rpn_cls_score_reshape
I0728 02:46:31.552909 42466 net.cpp:157] Top shape: 1 2 252 14 (7056)
I0728 02:46:31.552912 42466 net.cpp:165] Memory required for data: 116922624
I0728 02:46:31.552925 42466 layer_factory.hpp:77] Creating layer rpn_cls_prob
I0728 02:46:31.552947 42466 net.cpp:106] Creating Layer rpn_cls_prob
I0728 02:46:31.552952 42466 net.cpp:454] rpn_cls_prob <- rpn_cls_score_reshape
I0728 02:46:31.552956 42466 net.cpp:411] rpn_cls_prob -> rpn_cls_prob
I0728 02:46:31.553237 42466 net.cpp:150] Setting up rpn_cls_prob
I0728 02:46:31.553256 42466 net.cpp:157] Top shape: 1 2 252 14 (7056)
I0728 02:46:31.553259 42466 net.cpp:165] Memory required for data: 116950848
I0728 02:46:31.553262 42466 layer_factory.hpp:77] Creating layer rpn_cls_prob_reshape
I0728 02:46:31.553268 42466 net.cpp:106] Creating Layer rpn_cls_prob_reshape
I0728 02:46:31.553272 42466 net.cpp:454] rpn_cls_prob_reshape <- rpn_cls_prob
I0728 02:46:31.553278 42466 net.cpp:411] rpn_cls_prob_reshape -> rpn_cls_prob_reshape
I0728 02:46:31.553309 42466 net.cpp:150] Setting up rpn_cls_prob_reshape
I0728 02:46:31.553315 42466 net.cpp:157] Top shape: 1 36 14 14 (7056)
I0728 02:46:31.553318 42466 net.cpp:165] Memory required for data: 116979072
I0728 02:46:31.553320 42466 layer_factory.hpp:77] Creating layer proposal
I0728 02:46:31.555145 42466 net.cpp:106] Creating Layer proposal
I0728 02:46:31.555168 42466 net.cpp:454] proposal <- rpn_cls_prob_reshape
I0728 02:46:31.555174 42466 net.cpp:454] proposal <- rpn_bbox_pred
I0728 02:46:31.555178 42466 net.cpp:454] proposal <- im_info
I0728 02:46:31.555183 42466 net.cpp:411] proposal -> rois
I0728 02:46:31.556529 42466 net.cpp:150] Setting up proposal
I0728 02:46:31.556553 42466 net.cpp:157] Top shape: 1 5 (5)
I0728 02:46:31.556558 42466 net.cpp:165] Memory required for data: 116979092
I0728 02:46:31.556561 42466 layer_factory.hpp:77] Creating layer roi_pool5
I0728 02:46:31.556571 42466 net.cpp:106] Creating Layer roi_pool5
I0728 02:46:31.556576 42466 net.cpp:454] roi_pool5 <- conv5_3_relu5_3_0_split_1
I0728 02:46:31.556581 42466 net.cpp:454] roi_pool5 <- rois
I0728 02:46:31.556586 42466 net.cpp:411] roi_pool5 -> pool5
I0728 02:46:31.556596 42466 roi_pooling_layer.cpp:30] Spatial scale: 0.0625
I0728 02:46:31.556679 42466 net.cpp:150] Setting up roi_pool5
I0728 02:46:31.556687 42466 net.cpp:157] Top shape: 1 512 7 7 (25088)
I0728 02:46:31.556689 42466 net.cpp:165] Memory required for data: 117079444
I0728 02:46:31.556692 42466 layer_factory.hpp:77] Creating layer fc6
I0728 02:46:31.556711 42466 net.cpp:106] Creating Layer fc6
I0728 02:46:31.556717 42466 net.cpp:454] fc6 <- pool5
I0728 02:46:31.556736 42466 net.cpp:411] fc6 -> fc6
I0728 02:46:31.867003 42466 net.cpp:150] Setting up fc6
I0728 02:46:31.867076 42466 net.cpp:157] Top shape: 1 4096 (4096)
I0728 02:46:31.867081 42466 net.cpp:165] Memory required for data: 117095828
I0728 02:46:31.867112 42466 layer_factory.hpp:77] Creating layer relu6
I0728 02:46:31.867128 42466 net.cpp:106] Creating Layer relu6
I0728 02:46:31.867135 42466 net.cpp:454] relu6 <- fc6
I0728 02:46:31.867144 42466 net.cpp:397] relu6 -> fc6 (in-place)
I0728 02:46:31.868340 42466 net.cpp:150] Setting up relu6
I0728 02:46:31.868362 42466 net.cpp:157] Top shape: 1 4096 (4096)
I0728 02:46:31.868367 42466 net.cpp:165] Memory required for data: 117112212
I0728 02:46:31.868371 42466 layer_factory.hpp:77] Creating layer drop6
I0728 02:46:31.868388 42466 net.cpp:106] Creating Layer drop6
I0728 02:46:31.868392 42466 net.cpp:454] drop6 <- fc6
I0728 02:46:31.868399 42466 net.cpp:397] drop6 -> fc6 (in-place)
I0728 02:46:31.868440 42466 net.cpp:150] Setting up drop6
I0728 02:46:31.868445 42466 net.cpp:157] Top shape: 1 4096 (4096)
I0728 02:46:31.868448 42466 net.cpp:165] Memory required for data: 117128596
I0728 02:46:31.868451 42466 layer_factory.hpp:77] Creating layer fc7
I0728 02:46:31.868461 42466 net.cpp:106] Creating Layer fc7
I0728 02:46:31.868464 42466 net.cpp:454] fc7 <- fc6
I0728 02:46:31.868469 42466 net.cpp:411] fc7 -> fc7
I0728 02:46:31.913805 42466 net.cpp:150] Setting up fc7
I0728 02:46:31.913871 42466 net.cpp:157] Top shape: 1 4096 (4096)
I0728 02:46:31.913875 42466 net.cpp:165] Memory required for data: 117144980
I0728 02:46:31.913889 42466 layer_factory.hpp:77] Creating layer relu7
I0728 02:46:31.913907 42466 net.cpp:106] Creating Layer relu7
I0728 02:46:31.913913 42466 net.cpp:454] relu7 <- fc7
I0728 02:46:31.913921 42466 net.cpp:397] relu7 -> fc7 (in-place)
I0728 02:46:31.914211 42466 net.cpp:150] Setting up relu7
I0728 02:46:31.914227 42466 net.cpp:157] Top shape: 1 4096 (4096)
I0728 02:46:31.914230 42466 net.cpp:165] Memory required for data: 117161364
I0728 02:46:31.914233 42466 layer_factory.hpp:77] Creating layer drop7
I0728 02:46:31.914240 42466 net.cpp:106] Creating Layer drop7
I0728 02:46:31.914244 42466 net.cpp:454] drop7 <- fc7
I0728 02:46:31.914254 42466 net.cpp:397] drop7 -> fc7 (in-place)
I0728 02:46:31.914288 42466 net.cpp:150] Setting up drop7
I0728 02:46:31.914296 42466 net.cpp:157] Top shape: 1 4096 (4096)
I0728 02:46:31.914299 42466 net.cpp:165] Memory required for data: 117177748
I0728 02:46:31.914302 42466 layer_factory.hpp:77] Creating layer fc7_drop7_0_split
I0728 02:46:31.914309 42466 net.cpp:106] Creating Layer fc7_drop7_0_split
I0728 02:46:31.914311 42466 net.cpp:454] fc7_drop7_0_split <- fc7
I0728 02:46:31.914315 42466 net.cpp:411] fc7_drop7_0_split -> fc7_drop7_0_split_0
I0728 02:46:31.914321 42466 net.cpp:411] fc7_drop7_0_split -> fc7_drop7_0_split_1
I0728 02:46:31.914369 42466 net.cpp:150] Setting up fc7_drop7_0_split
I0728 02:46:31.914373 42466 net.cpp:157] Top shape: 1 4096 (4096)
I0728 02:46:31.914377 42466 net.cpp:157] Top shape: 1 4096 (4096)
I0728 02:46:31.914381 42466 net.cpp:165] Memory required for data: 117210516
I0728 02:46:31.914382 42466 layer_factory.hpp:77] Creating layer cls_score
I0728 02:46:31.914398 42466 net.cpp:106] Creating Layer cls_score
I0728 02:46:31.914402 42466 net.cpp:454] cls_score <- fc7_drop7_0_split_0
I0728 02:46:31.914409 42466 net.cpp:411] cls_score -> cls_score
I0728 02:46:31.917281 42466 net.cpp:150] Setting up cls_score
I0728 02:46:31.917302 42466 net.cpp:157] Top shape: 1 21 (21)
I0728 02:46:31.917306 42466 net.cpp:165] Memory required for data: 117210600
I0728 02:46:31.917313 42466 layer_factory.hpp:77] Creating layer bbox_pred
I0728 02:46:31.917322 42466 net.cpp:106] Creating Layer bbox_pred
I0728 02:46:31.917325 42466 net.cpp:454] bbox_pred <- fc7_drop7_0_split_1
I0728 02:46:31.917341 42466 net.cpp:411] bbox_pred -> bbox_pred
I0728 02:46:31.926195 42466 net.cpp:150] Setting up bbox_pred
I0728 02:46:31.926216 42466 net.cpp:157] Top shape: 1 84 (84)
I0728 02:46:31.926220 42466 net.cpp:165] Memory required for data: 117210936
I0728 02:46:31.926228 42466 layer_factory.hpp:77] Creating layer cls_prob
I0728 02:46:31.926234 42466 net.cpp:106] Creating Layer cls_prob
I0728 02:46:31.926237 42466 net.cpp:454] cls_prob <- cls_score
I0728 02:46:31.926242 42466 net.cpp:411] cls_prob -> cls_prob
I0728 02:46:31.927227 42466 net.cpp:150] Setting up cls_prob
I0728 02:46:31.927248 42466 net.cpp:157] Top shape: 1 21 (21)
I0728 02:46:31.927251 42466 net.cpp:165] Memory required for data: 117211020
I0728 02:46:31.927254 42466 net.cpp:228] cls_prob does not need backward computation.
I0728 02:46:31.927258 42466 net.cpp:228] bbox_pred does not need backward computation.
I0728 02:46:31.927261 42466 net.cpp:228] cls_score does not need backward computation.
I0728 02:46:31.927264 42466 net.cpp:228] fc7_drop7_0_split does not need backward computation.
…
