…
stepsize: 50000
snapshot: 0
snapshot_prefix: "fpn"
average_loss: 100
iter_size: 2
I0628 11:42:45.432438 50518 solver.cpp:81] Creating training net from train_net file: models/pascal_voc/VGG16/FP_Net_end2end/train.prototxt
I0628 11:42:45.433962 50518 net.cpp:49] Initializing net from parameters: 
name: "VGG_ILSVRC_16_layers"
state {
  phase: TRAIN
}
layer {
  name: "input-data"
  type: "Python"
  top: "data"
  top: "im_info"
  top: "gt_boxes"
  python_param {
    module: "roi_data_layer.layer"
    layer: "RoIDataLayer"
    param_str: "\'num_classes\': 21"
  }
}
layer {
  name: "conv1_1"
  type: "Convolution"
  bottom: "data"
  top: "conv1_1"
  param {
    lr_mult: 0
    decay_mult: 0
  }
  param {
    lr_mult: 0
    decay_mult: 0
  }
  convolution_param {
    num_output: 64
    pad: 1
    kernel_size: 3
  }
}
layer {
  name: "relu1_1"
  type: "ReLU"
  bottom: "conv1_1"
  top: "conv1_1"
}
layer {
  name: "conv1_2"
  type: "Convolution"
  bottom: "conv1_1"
  top: "conv1_2"
  param {
    lr_mult: 0
    decay_mult: 0
  }
  param {
    lr_mult: 0
    decay_mult: 0
  }
  convolution_param {
    num_output: 64
    pad: 1
    kernel_size: 3
  }
}
layer {
  name: "relu1_2"
  type: "ReLU"
  bottom: "conv1_2"
  top: "conv1_2"
}
layer {
  name: "pool1"
  type: "Pooling"
  bottom: "conv1_2"
  top: "pool1"
  pooling_param {
    pool: MAX
    kernel_size: 2
    stride: 2
  }
}
layer {
  name: "conv2_1"
  type: "Convolution"
  bottom: "pool1"
  top: "conv2_1"
  param {
    lr_mult: 0
    decay_mult: 0
  }
  param {
    lr_mult: 0
    decay_mult: 0
  }
  convolution_param {
    num_output: 128
    pad: 1
    kernel_size: 3
  }
}
layer {
  name: "relu2_1"
  type: "ReLU"
  bottom: "conv2_1"
  top: "conv2_1"
}
layer {
  name: "conv2_2"
  type: "Convolution"
  bottom: "conv2_1"
  top: "conv2_2"
  param {
    lr_mult: 0
    decay_mult: 0
  }
  param {
    lr_mult: 0
    decay_mult: 0
  }
  convolution_param {
    num_output: 128
    pad: 1
    kernel_size: 3
  }
}
layer {
  name: "relu2_2"
  type: "ReLU"
  bottom: "conv2_2"
  top: "conv2_2"
}
layer {
  name: "pool2"
  type: "Pooling"
  bottom: "conv2_2"
  top: "pool2"
  pooling_param {
    pool: MAX
    kernel_size: 2
    stride: 2
  }
}
layer {
  name: "conv3_1"
  type: "Convolution"
  bottom: "pool2"
  top: "conv3_1"
  param {
    lr_mult: 1
  }
  param {
    lr_mult: 2
  }
  convolution_param {
    num_output: 256
    pad: 1
    kernel_size: 3
  }
}
layer {
  name: "relu3_1"
  type: "ReLU"
  bottom: "conv3_1"
  top: "conv3_1"
}
layer {
  name: "conv3_2"
  type: "Convolution"
  bottom: "conv3_1"
  top: "conv3_2"
  param {
    lr_mult: 1
  }
  param {
    lr_mult: 2
  }
  convolution_param {
    num_output: 256
    pad: 1
    kernel_size: 3
  }
}
layer {
  name: "relu3_2"
  type: "ReLU"
  bottom: "conv3_2"
  top: "conv3_2"
}
layer {
  name: "conv3_3"
  type: "Convolution"
  bottom: "conv3_2"
  top: "conv3_3"
  param {
    lr_mult: 1
  }
  param {
    lr_mult: 2
  }
  convolution_param {
    num_output: 256
    pad: 1
    kernel_size: 3
  }
}
layer {
  name: "relu3_3"
  type: "ReLU"
  bottom: "conv3_3"
  top: "conv3_3"
}
layer {
  name: "pool3"
  type: "Pooling"
  bottom: "conv3_3"
  top: "pool3"
  pooling_param {
    pool: MAX
    kernel_size: 2
    stride: 2
  }
}
layer {
  name: "conv4_1"
  type: "Convolution"
  bottom: "pool3"
  top: "conv4_1"
  param {
    lr_mult: 1
  }
  param {
    lr_mult: 2
  }
  convolution_param {
    num_output: 512
    pad: 1
    kernel_size: 3
  }
}
layer {
  name: "relu4_1"
  type: "ReLU"
  bottom: "conv4_1"
  top: "conv4_1"
}
layer {
  name: "conv4_2"
  type: "Convolution"
  bottom: "conv4_1"
  top: "conv4_2"
  param {
    lr_mult: 1
  }
  param {
    lr_mult: 2
  }
  convolution_param {
    num_output: 512
    pad: 1
    kernel_size: 3
  }
}
layer {
  name: "relu4_2"
  type: "ReLU"
  bottom: "conv4_2"
  top: "conv4_2"
}
layer {
  name: "conv4_3"
  type: "Convolution"
  bottom: "conv4_2"
  top: "conv4_3"
  param {
    lr_mult: 1
  }
  param {
    lr_mult: 2
  }
  convolution_param {
    num_output: 512
    pad: 1
    kernel_size: 3
  }
}
layer {
  name: "relu4_3"
  type: "ReLU"
  bottom: "conv4_3"
  top: "conv4_3"
}
layer {
  name: "pool4"
  type: "Pooling"
  bottom: "conv4_3"
  top: "pool4"
  pooling_param {
    pool: MAX
    kernel_size: 2
    stride: 2
  }
}
layer {
  name: "conv5_1"
  type: "Convolution"
  bottom: "pool4"
  top: "conv5_1"
  param {
    lr_mult: 1
  }
  param {
    lr_mult: 2
  }
  convolution_param {
    num_output: 512
    pad: 1
    kernel_size: 3
  }
}
layer {
  name: "relu5_1"
  type: "ReLU"
  bottom: "conv5_1"
  top: "conv5_1"
}
layer {
  name: "conv5_2"
  type: "Convolution"
  bottom: "conv5_1"
  top: "conv5_2"
  param {
    lr_mult: 1
  }
  param {
    lr_mult: 2
  }
  convolution_param {
    num_output: 512
    pad: 1
    kernel_size: 3
  }
}
layer {
  name: "relu5_2"
  type: "ReLU"
  bottom: "conv5_2"
  top: "conv5_2"
}
layer {
  name: "conv5_3"
  type: "Convolution"
  bottom: "conv5_2"
  top: "conv5_3"
  param {
    lr_mult: 1
  }
  param {
    lr_mult: 2
  }
  convolution_param {
    num_output: 512
    pad: 1
    kernel_size: 3
  }
}
layer {
  name: "relu5_3"
  type: "ReLU"
  bottom: "conv5_3"
  top: "conv5_3"
}
layer {
  name: "pool5"
  type: "Pooling"
  bottom: "conv5_3"
  top: "pool5"
  pooling_param {
    pool: MAX
    kernel_size: 2
    stride: 2
  }
}
layer {
  name: "P5"
  type: "Convolution"
  bottom: "pool5"
  top: "P5"
  param {
    lr_mult: 1
  }
  param {
    lr_mult: 2
  }
  convolution_param {
    num_output: 256
    kernel_size: 1
    weight_filler {
      type: "xavier"
    }
    bias_filler {
      type: "constant"
    }
  }
}
layer {
  name: "upP5"
  type: "Deconvolution"
  bottom: "P5"
  top: "upP5"
  param {
    lr_mult: 0
    decay_mult: 0
  }
  convolution_param {
    num_output: 256
    bias_term: false
    pad: 1
    kernel_size: 4
    stride: 2
    weight_filler {
      type: "bilinear"
    }
  }
}
layer {
  name: "newC4"
  type: "Convolution"
  bottom: "conv5_3"
  top: "newC4"
  param {
    lr_mult: 1
  }
  param {
    lr_mult: 2
  }
  convolution_param {
    num_output: 256
    kernel_size: 1
    weight_filler {
      type: "xavier"
    }
    bias_filler {
      type: "constant"
    }
  }
}
layer {
  name: "upP5crop"
  type: "Crop"
  bottom: "upP5"
  bottom: "newC4"
  top: "upP5crop"
  crop_param {
    axis: 2
    offset: 0
  }
}
layer {
  name: "P4"
  type: "Eltwise"
  bottom: "newC4"
  bottom: "upP5crop"
  top: "P4"
  eltwise_param {
    operation: SUM
  }
}
layer {
  name: "upP4"
  type: "Deconvolution"
  bottom: "P4"
  top: "upP4"
  param {
    lr_mult: 0
    decay_mult: 0
  }
  convolution_param {
    num_output: 256
    bias_term: false
    pad: 1
    kernel_size: 4
    stride: 2
    weight_filler {
      type: "bilinear"
    }
  }
}
layer {
  name: "newC3"
  type: "Convolution"
  bottom: "conv4_3"
  top: "newC3"
  param {
    lr_mult: 1
  }
  param {
    lr_mult: 2
  }
  convolution_param {
    num_output: 256
    kernel_size: 1
    weight_filler {
      type: "xavier"
    }
    bias_filler {
      type: "constant"
    }
  }
}
layer {
  name: "upP4crop"
  type: "Crop"
  bottom: "upP4"
  bottom: "newC3"
  top: "upP4crop"
  crop_param {
    axis: 2
    offset: 0
  }
}
layer {
  name: "P3"
  type: "Eltwise"
  bottom: "newC3"
  bottom: "upP4crop"
  top: "P3"
  eltwise_param {
    operation: SUM
  }
}
layer {
  name: "upP3"
  type: "Deconvolution"
  bottom: "P3"
  top: "upP3"
  param {
    lr_mult: 0
    decay_mult: 0
  }
  convolution_param {
    num_output: 256
    bias_term: false
    pad: 1
    kernel_size: 4
    stride: 2
    weight_filler {
      type: "bilinear"
    }
  }
}
layer {
  name: "upP3crop"
  type: "Crop"
  bottom: "upP3"
  bottom: "conv3_3"
  top: "upP3crop"
  crop_param {
    axis: 2
    offset: 0
  }
}
layer {
  name: "P2"
  type: "Eltwise"
  bottom: "conv3_3"
  bottom: "upP3crop"
  top: "P2"
  eltwise_param {
    operation: SUM
  }
}
layer {
  name: "newP2"
  type: "Convolution"
  bottom: "P2"
  top: "newP2"
  param {
    lr_mult: 1
  }
  param {
    lr_mult: 2
  }
  convolution_param {
    num_output: 256
    pad: 1
    kernel_size: 3
    weight_filler {
      type: "xavier"
    }
    bias_filler {
      type: "constant"
    }
  }
}
layer {
  name: "rpn_conv/3x3"
  type: "Convolution"
  bottom: "newP2"
  top: "rpn/output"
  param {
    lr_mult: 1
  }
  param {
    lr_mult: 2
  }
  convolution_param {
    num_output: 512
    pad: 1
    kernel_size: 3
    stride: 1
    weight_filler {
      type: "gaussian"
      std: 0.01
    }
    bias_filler {
      type: "constant"
      value: 0
    }
  }
}
layer {
  name: "rpn_relu/3x3"
  type: "ReLU"
  bottom: "rpn/output"
  top: "rpn/output"
}
layer {
  name: "rpn_cls_score"
  type: "Convolution"
  bottom: "rpn/output"
  top: "rpn_cls_score"
  param {
    lr_mult: 1
  }
  param {
    lr_mult: 2
  }
  convolution_param {
    num_output: 18
    pad: 0
    kernel_size: 1
    stride: 1
    weight_filler {
      type: "gaussian"
      std: 0.01
    }
    bias_filler {
      type: "constant"
      value: 0
    }
  }
}
layer {
  name: "rpn_bbox_pred"
  type: "Convolution"
  bottom: "rpn/output"
  top: "rpn_bbox_pred"
  param {
    lr_mult: 1
  }
  param {
    lr_mult: 2
  }
  convolution_param {
    num_output: 36
    pad: 0
    kernel_size: 1
    stride: 1
    weight_filler {
      type: "gaussian"
      std: 0.01
    }
    bias_filler {
      type: "constant"
      value: 0
    }
  }
}
layer {
  name: "rpn_cls_score_reshape"
  type: "Reshape"
  bottom: "rpn_cls_score"
  top: "rpn_cls_score_reshape"
  reshape_param {
    shape {
      dim: 0
      dim: 2
      dim: -1
      dim: 0
    }
  }
}
layer {
  name: "rpn-data"
  type: "Python"
  bottom: "rpn_cls_score"
  bottom: "gt_boxes"
  bottom: "im_info"
  bottom: "data"
  top: "rpn_labels"
  top: "rpn_bbox_targets"
  top: "rpn_bbox_inside_weights"
  top: "rpn_bbox_outside_weights"
  python_param {
    module: "rpn.anchor_target_layer"
    layer: "AnchorTargetLayer"
    param_str: "\'feat_stride\': 4"
  }
}
layer {
  name: "rpn_loss_cls"
  type: "SoftmaxWithLoss"
  bottom: "rpn_cls_score_reshape"
  bottom: "rpn_labels"
  top: "rpn_cls_loss"
  loss_weight: 1
  propagate_down: true
  propagate_down: false
  loss_param {
    ignore_label: -1
    normalize: true
  }
}
layer {
  name: "rpn_loss_bbox"
  type: "SmoothL1Loss"
  bottom: "rpn_bbox_pred"
  bottom: "rpn_bbox_targets"
  bottom: "rpn_bbox_inside_weights"
  bottom: "rpn_bbox_outside_weights"
  top: "rpn_loss_bbox"
  loss_weight: 1
  smooth_l1_loss_param {
    sigma: 3
  }
}
layer {
  name: "rpn_cls_prob"
  type: "Softmax"
  bottom: "rpn_cls_score_reshape"
  top: "rpn_cls_prob"
}
layer {
  name: "rpn_cls_prob_reshape"
  type: "Reshape"
  bottom: "rpn_cls_prob"
  top: "rpn_cls_prob_reshape"
  reshape_param {
    shape {
      dim: 0
      dim: 18
      dim: -1
      dim: 0
    }
  }
}
layer {
  name: "proposal"
  type: "Python"
  bottom: "rpn_cls_prob_reshape"
  bottom: "rpn_bbox_pred"
  bottom: "im_info"
  top: "rpn_rois"
  python_param {
    module: "rpn.proposal_layer"
    layer: "ProposalLayer"
    param_str: "\'feat_stride\': 4"
  }
}
layer {
  name: "roi-data"
  type: "Python"
  bottom: "rpn_rois"
  bottom: "gt_boxes"
  top: "rois"
  top: "labels"
  top: "bbox_targets"
  top: "bbox_inside_weights"
  top: "bbox_outside_weights"
  python_param {
    module: "rpn.proposal_target_layer"
    layer: "ProposalTargetLayer"
    param_str: "\'num_classes\': 21"
  }
}
layer {
  name: "roi_pool5"
  type: "ROIPooling"
  bottom: "newP2"
  bottom: "rois"
  top: "rcnn_pool5"
  roi_pooling_param {
    pooled_h: 7
    pooled_w: 7
    spatial_scale: 0.25
  }
}
layer {
  name: "rcnn_fc6"
  type: "InnerProduct"
  bottom: "rcnn_pool5"
  top: "rcnn_fc6"
  param {
    lr_mult: 1
  }
  param {
    lr_mult: 2
  }
  inner_product_param {
    num_output: 4096
    weight_filler {
      type: "xavier"
    }
    bias_filler {
      type: "constant"
    }
  }
}
layer {
  name: "relu6"
  type: "ReLU"
  bottom: "rcnn_fc6"
  top: "rcnn_fc6"
}
layer {
  name: "drop6"
  type: "Dropout"
  bottom: "rcnn_fc6"
  top: "rcnn_fc6"
  dropout_param {
    dropout_ratio: 0.5
  }
}
layer {
  name: "fc7"
  type: "InnerProduct"
  bottom: "rcnn_fc6"
  top: "fc7"
  param {
    lr_mult: 1
  }
  param {
    lr_mult: 2
  }
  inner_product_param {
    num_output: 4096
    weight_filler {
      type: "xavier"
    }
    bias_filler {
      type: "constant"
    }
  }
}
layer {
  name: "relu7"
  type: "ReLU"
  bottom: "fc7"
  top: "fc7"
}
layer {
  name: "drop7"
  type: "Dropout"
  bottom: "fc7"
  top: "fc7"
  dropout_param {
    dropout_ratio: 0.5
  }
}
layer {
  name: "cls_score"
  type: "InnerProduct"
  bottom: "fc7"
  top: "cls_score"
  param {
    lr_mult: 1
  }
  param {
    lr_mult: 2
  }
  inner_product_param {
    num_output: 21
    weight_filler {
      type: "gaussian"
      std: 0.01
    }
    bias_filler {
      type: "constant"
      value: 0
    }
  }
}
layer {
  name: "bbox_pred"
  type: "InnerProduct"
  bottom: "fc7"
  top: "bbox_pred"
  param {
    lr_mult: 1
  }
  param {
    lr_mult: 2
  }
  inner_product_param {
    num_output: 84
    weight_filler {
      type: "gaussian"
      std: 0.001
    }
    bias_filler {
      type: "constant"
      value: 0
    }
  }
}
layer {
  name: "loss_cls"
  type: "SoftmaxWithLoss"
  bottom: "cls_score"
  bottom: "labels"
  top: "loss_cls"
  loss_weight: 1
  propagate_down: true
  propagate_down: false
}
layer {
  name: "loss_bbox"
  type: "SmoothL1Loss"
  bottom: "bbox_pred"
  bottom: "bbox_targets"
  bottom: "bbox_inside_weights"
  bottom: "bbox_outside_weights"
  top: "loss_bbox"
  loss_weight: 1
}
I0628 11:42:45.434334 50518 layer_factory.hpp:77] Creating layer input-data
I0628 11:42:45.435345 50518 net.cpp:106] Creating Layer input-data
I0628 11:42:45.435370 50518 net.cpp:411] input-data -> data
I0628 11:42:45.435387 50518 net.cpp:411] input-data -> im_info
I0628 11:42:45.435397 50518 net.cpp:411] input-data -> gt_boxes
RoiDataLayer: name_to_top: {'gt_boxes': 2, 'data': 0, 'im_info': 1}
I0628 11:42:45.449684 50518 net.cpp:150] Setting up input-data
I0628 11:42:45.449723 50518 net.cpp:157] Top shape: 1 3 600 1000 (1800000)
I0628 11:42:45.449728 50518 net.cpp:157] Top shape: 1 3 (3)
I0628 11:42:45.449733 50518 net.cpp:157] Top shape: 1 4 (4)
I0628 11:42:45.449734 50518 net.cpp:165] Memory required for data: 7200028
I0628 11:42:45.449741 50518 layer_factory.hpp:77] Creating layer data_input-data_0_split
I0628 11:42:45.449757 50518 net.cpp:106] Creating Layer data_input-data_0_split
I0628 11:42:45.449784 50518 net.cpp:454] data_input-data_0_split <- data
I0628 11:42:45.449796 50518 net.cpp:411] data_input-data_0_split -> data_input-data_0_split_0
I0628 11:42:45.449806 50518 net.cpp:411] data_input-data_0_split -> data_input-data_0_split_1
I0628 11:42:45.449843 50518 net.cpp:150] Setting up data_input-data_0_split
I0628 11:42:45.449856 50518 net.cpp:157] Top shape: 1 3 600 1000 (1800000)
I0628 11:42:45.449861 50518 net.cpp:157] Top shape: 1 3 600 1000 (1800000)
I0628 11:42:45.449862 50518 net.cpp:165] Memory required for data: 21600028
I0628 11:42:45.449865 50518 layer_factory.hpp:77] Creating layer im_info_input-data_1_split
I0628 11:42:45.449874 50518 net.cpp:106] Creating Layer im_info_input-data_1_split
I0628 11:42:45.449877 50518 net.cpp:454] im_info_input-data_1_split <- im_info
I0628 11:42:45.449882 50518 net.cpp:411] im_info_input-data_1_split -> im_info_input-data_1_split_0
I0628 11:42:45.449887 50518 net.cpp:411] im_info_input-data_1_split -> im_info_input-data_1_split_1
I0628 11:42:45.449914 50518 net.cpp:150] Setting up im_info_input-data_1_split
I0628 11:42:45.449936 50518 net.cpp:157] Top shape: 1 3 (3)
I0628 11:42:45.449941 50518 net.cpp:157] Top shape: 1 3 (3)
I0628 11:42:45.449944 50518 net.cpp:165] Memory required for data: 21600052
I0628 11:42:45.449946 50518 layer_factory.hpp:77] Creating layer gt_boxes_input-data_2_split
I0628 11:42:45.449950 50518 net.cpp:106] Creating Layer gt_boxes_input-data_2_split
I0628 11:42:45.449954 50518 net.cpp:454] gt_boxes_input-data_2_split <- gt_boxes
I0628 11:42:45.449957 50518 net.cpp:411] gt_boxes_input-data_2_split -> gt_boxes_input-data_2_split_0
I0628 11:42:45.449965 50518 net.cpp:411] gt_boxes_input-data_2_split -> gt_boxes_input-data_2_split_1
I0628 11:42:45.449991 50518 net.cpp:150] Setting up gt_boxes_input-data_2_split
I0628 11:42:45.449996 50518 net.cpp:157] Top shape: 1 4 (4)
I0628 11:42:45.450001 50518 net.cpp:157] Top shape: 1 4 (4)
I0628 11:42:45.450002 50518 net.cpp:165] Memory required for data: 21600084
I0628 11:42:45.450006 50518 layer_factory.hpp:77] Creating layer conv1_1
I0628 11:42:45.450022 50518 net.cpp:106] Creating Layer conv1_1
I0628 11:42:45.450026 50518 net.cpp:454] conv1_1 <- data_input-data_0_split_0
I0628 11:42:45.450031 50518 net.cpp:411] conv1_1 -> conv1_1
I0628 11:42:45.780388 50518 net.cpp:150] Setting up conv1_1
I0628 11:42:45.780434 50518 net.cpp:157] Top shape: 1 64 600 1000 (38400000)
I0628 11:42:45.780439 50518 net.cpp:165] Memory required for data: 175200084
I0628 11:42:45.780457 50518 layer_factory.hpp:77] Creating layer relu1_1
I0628 11:42:45.780470 50518 net.cpp:106] Creating Layer relu1_1
I0628 11:42:45.780475 50518 net.cpp:454] relu1_1 <- conv1_1
I0628 11:42:45.780481 50518 net.cpp:397] relu1_1 -> conv1_1 (in-place)
I0628 11:42:45.781189 50518 net.cpp:150] Setting up relu1_1
I0628 11:42:45.781209 50518 net.cpp:157] Top shape: 1 64 600 1000 (38400000)
I0628 11:42:45.781213 50518 net.cpp:165] Memory required for data: 328800084
I0628 11:42:45.781217 50518 layer_factory.hpp:77] Creating layer conv1_2
I0628 11:42:45.781229 50518 net.cpp:106] Creating Layer conv1_2
I0628 11:42:45.781231 50518 net.cpp:454] conv1_2 <- conv1_1
I0628 11:42:45.781237 50518 net.cpp:411] conv1_2 -> conv1_2
I0628 11:42:45.785800 50518 net.cpp:150] Setting up conv1_2
I0628 11:42:45.785825 50518 net.cpp:157] Top shape: 1 64 600 1000 (38400000)
I0628 11:42:45.785830 50518 net.cpp:165] Memory required for data: 482400084
I0628 11:42:45.785840 50518 layer_factory.hpp:77] Creating layer relu1_2
I0628 11:42:45.785845 50518 net.cpp:106] Creating Layer relu1_2
I0628 11:42:45.785850 50518 net.cpp:454] relu1_2 <- conv1_2
I0628 11:42:45.785854 50518 net.cpp:397] relu1_2 -> conv1_2 (in-place)
I0628 11:42:45.786020 50518 net.cpp:150] Setting up relu1_2
I0628 11:42:45.786037 50518 net.cpp:157] Top shape: 1 64 600 1000 (38400000)
I0628 11:42:45.786041 50518 net.cpp:165] Memory required for data: 636000084
I0628 11:42:45.786044 50518 layer_factory.hpp:77] Creating layer pool1
I0628 11:42:45.786056 50518 net.cpp:106] Creating Layer pool1
I0628 11:42:45.786061 50518 net.cpp:454] pool1 <- conv1_2
I0628 11:42:45.786065 50518 net.cpp:411] pool1 -> pool1
I0628 11:42:45.786111 50518 net.cpp:150] Setting up pool1
I0628 11:42:45.786118 50518 net.cpp:157] Top shape: 1 64 300 500 (9600000)
I0628 11:42:45.786120 50518 net.cpp:165] Memory required for data: 674400084
I0628 11:42:45.786123 50518 layer_factory.hpp:77] Creating layer conv2_1
I0628 11:42:45.786130 50518 net.cpp:106] Creating Layer conv2_1
I0628 11:42:45.786134 50518 net.cpp:454] conv2_1 <- pool1
I0628 11:42:45.786139 50518 net.cpp:411] conv2_1 -> conv2_1
I0628 11:42:45.789974 50518 net.cpp:150] Setting up conv2_1
I0628 11:42:45.789997 50518 net.cpp:157] Top shape: 1 128 300 500 (19200000)
I0628 11:42:45.790002 50518 net.cpp:165] Memory required for data: 751200084
I0628 11:42:45.790011 50518 layer_factory.hpp:77] Creating layer relu2_1
I0628 11:42:45.790017 50518 net.cpp:106] Creating Layer relu2_1
I0628 11:42:45.790021 50518 net.cpp:454] relu2_1 <- conv2_1
I0628 11:42:45.790026 50518 net.cpp:397] relu2_1 -> conv2_1 (in-place)
I0628 11:42:45.790189 50518 net.cpp:150] Setting up relu2_1
I0628 11:42:45.790205 50518 net.cpp:157] Top shape: 1 128 300 500 (19200000)
I0628 11:42:45.790208 50518 net.cpp:165] Memory required for data: 828000084
I0628 11:42:45.790212 50518 layer_factory.hpp:77] Creating layer conv2_2
I0628 11:42:45.790220 50518 net.cpp:106] Creating Layer conv2_2
I0628 11:42:45.790222 50518 net.cpp:454] conv2_2 <- conv2_1
I0628 11:42:45.790227 50518 net.cpp:411] conv2_2 -> conv2_2
I0628 11:42:45.796002 50518 net.cpp:150] Setting up conv2_2
I0628 11:42:45.796025 50518 net.cpp:157] Top shape: 1 128 300 500 (19200000)
I0628 11:42:45.796030 50518 net.cpp:165] Memory required for data: 904800084
I0628 11:42:45.796036 50518 layer_factory.hpp:77] Creating layer relu2_2
I0628 11:42:45.796042 50518 net.cpp:106] Creating Layer relu2_2
I0628 11:42:45.796046 50518 net.cpp:454] relu2_2 <- conv2_2
I0628 11:42:45.796051 50518 net.cpp:397] relu2_2 -> conv2_2 (in-place)
I0628 11:42:45.796749 50518 net.cpp:150] Setting up relu2_2
I0628 11:42:45.796769 50518 net.cpp:157] Top shape: 1 128 300 500 (19200000)
I0628 11:42:45.796773 50518 net.cpp:165] Memory required for data: 981600084
I0628 11:42:45.796777 50518 layer_factory.hpp:77] Creating layer pool2
I0628 11:42:45.796783 50518 net.cpp:106] Creating Layer pool2
I0628 11:42:45.796787 50518 net.cpp:454] pool2 <- conv2_2
I0628 11:42:45.796792 50518 net.cpp:411] pool2 -> pool2
I0628 11:42:45.796833 50518 net.cpp:150] Setting up pool2
I0628 11:42:45.796839 50518 net.cpp:157] Top shape: 1 128 150 250 (4800000)
I0628 11:42:45.796842 50518 net.cpp:165] Memory required for data: 1000800084
I0628 11:42:45.796845 50518 layer_factory.hpp:77] Creating layer conv3_1
I0628 11:42:45.796851 50518 net.cpp:106] Creating Layer conv3_1
I0628 11:42:45.796855 50518 net.cpp:454] conv3_1 <- pool2
I0628 11:42:45.796859 50518 net.cpp:411] conv3_1 -> conv3_1
I0628 11:42:45.799790 50518 net.cpp:150] Setting up conv3_1
I0628 11:42:45.799811 50518 net.cpp:157] Top shape: 1 256 150 250 (9600000)
I0628 11:42:45.799815 50518 net.cpp:165] Memory required for data: 1039200084
I0628 11:42:45.799825 50518 layer_factory.hpp:77] Creating layer relu3_1
I0628 11:42:45.799832 50518 net.cpp:106] Creating Layer relu3_1
I0628 11:42:45.799836 50518 net.cpp:454] relu3_1 <- conv3_1
I0628 11:42:45.799840 50518 net.cpp:397] relu3_1 -> conv3_1 (in-place)
I0628 11:42:45.800539 50518 net.cpp:150] Setting up relu3_1
I0628 11:42:45.800555 50518 net.cpp:157] Top shape: 1 256 150 250 (9600000)
I0628 11:42:45.800559 50518 net.cpp:165] Memory required for data: 1077600084
I0628 11:42:45.800562 50518 layer_factory.hpp:77] Creating layer conv3_2
I0628 11:42:45.800571 50518 net.cpp:106] Creating Layer conv3_2
I0628 11:42:45.800575 50518 net.cpp:454] conv3_2 <- conv3_1
I0628 11:42:45.800580 50518 net.cpp:411] conv3_2 -> conv3_2
I0628 11:42:45.805186 50518 net.cpp:150] Setting up conv3_2
I0628 11:42:45.805212 50518 net.cpp:157] Top shape: 1 256 150 250 (9600000)
I0628 11:42:45.805215 50518 net.cpp:165] Memory required for data: 1116000084
I0628 11:42:45.805222 50518 layer_factory.hpp:77] Creating layer relu3_2
I0628 11:42:45.805229 50518 net.cpp:106] Creating Layer relu3_2
I0628 11:42:45.805233 50518 net.cpp:454] relu3_2 <- conv3_2
I0628 11:42:45.805238 50518 net.cpp:397] relu3_2 -> conv3_2 (in-place)
I0628 11:42:45.805982 50518 net.cpp:150] Setting up relu3_2
I0628 11:42:45.805999 50518 net.cpp:157] Top shape: 1 256 150 250 (9600000)
I0628 11:42:45.806002 50518 net.cpp:165] Memory required for data: 1154400084
I0628 11:42:45.806006 50518 layer_factory.hpp:77] Creating layer conv3_3
I0628 11:42:45.806015 50518 net.cpp:106] Creating Layer conv3_3
I0628 11:42:45.806017 50518 net.cpp:454] conv3_3 <- conv3_2
I0628 11:42:45.806022 50518 net.cpp:411] conv3_3 -> conv3_3
I0628 11:42:45.812026 50518 net.cpp:150] Setting up conv3_3
I0628 11:42:45.812047 50518 net.cpp:157] Top shape: 1 256 150 250 (9600000)
I0628 11:42:45.812052 50518 net.cpp:165] Memory required for data: 1192800084
I0628 11:42:45.812059 50518 layer_factory.hpp:77] Creating layer relu3_3
I0628 11:42:45.812067 50518 net.cpp:106] Creating Layer relu3_3
I0628 11:42:45.812070 50518 net.cpp:454] relu3_3 <- conv3_3
I0628 11:42:45.812075 50518 net.cpp:397] relu3_3 -> conv3_3 (in-place)
I0628 11:42:45.812765 50518 net.cpp:150] Setting up relu3_3
I0628 11:42:45.812785 50518 net.cpp:157] Top shape: 1 256 150 250 (9600000)
I0628 11:42:45.812788 50518 net.cpp:165] Memory required for data: 1231200084
I0628 11:42:45.812793 50518 layer_factory.hpp:77] Creating layer conv3_3_relu3_3_0_split
I0628 11:42:45.812799 50518 net.cpp:106] Creating Layer conv3_3_relu3_3_0_split
I0628 11:42:45.812803 50518 net.cpp:454] conv3_3_relu3_3_0_split <- conv3_3
I0628 11:42:45.812808 50518 net.cpp:411] conv3_3_relu3_3_0_split -> conv3_3_relu3_3_0_split_0
I0628 11:42:45.812814 50518 net.cpp:411] conv3_3_relu3_3_0_split -> conv3_3_relu3_3_0_split_1
I0628 11:42:45.812820 50518 net.cpp:411] conv3_3_relu3_3_0_split -> conv3_3_relu3_3_0_split_2
I0628 11:42:45.812871 50518 net.cpp:150] Setting up conv3_3_relu3_3_0_split
I0628 11:42:45.812877 50518 net.cpp:157] Top shape: 1 256 150 250 (9600000)
I0628 11:42:45.812881 50518 net.cpp:157] Top shape: 1 256 150 250 (9600000)
I0628 11:42:45.812885 50518 net.cpp:157] Top shape: 1 256 150 250 (9600000)
I0628 11:42:45.812887 50518 net.cpp:165] Memory required for data: 1346400084
I0628 11:42:45.812891 50518 layer_factory.hpp:77] Creating layer pool3
I0628 11:42:45.812896 50518 net.cpp:106] Creating Layer pool3
I0628 11:42:45.812899 50518 net.cpp:454] pool3 <- conv3_3_relu3_3_0_split_0
I0628 11:42:45.812903 50518 net.cpp:411] pool3 -> pool3
I0628 11:42:45.812935 50518 net.cpp:150] Setting up pool3
I0628 11:42:45.812940 50518 net.cpp:157] Top shape: 1 256 75 125 (2400000)
I0628 11:42:45.812943 50518 net.cpp:165] Memory required for data: 1356000084
I0628 11:42:45.812947 50518 layer_factory.hpp:77] Creating layer conv4_1
I0628 11:42:45.812953 50518 net.cpp:106] Creating Layer conv4_1
I0628 11:42:45.812957 50518 net.cpp:454] conv4_1 <- pool3
I0628 11:42:45.812963 50518 net.cpp:411] conv4_1 -> conv4_1
I0628 11:42:45.820232 50518 net.cpp:150] Setting up conv4_1
I0628 11:42:45.820256 50518 net.cpp:157] Top shape: 1 512 75 125 (4800000)
I0628 11:42:45.820261 50518 net.cpp:165] Memory required for data: 1375200084
I0628 11:42:45.820268 50518 layer_factory.hpp:77] Creating layer relu4_1
I0628 11:42:45.820276 50518 net.cpp:106] Creating Layer relu4_1
I0628 11:42:45.820279 50518 net.cpp:454] relu4_1 <- conv4_1
I0628 11:42:45.820284 50518 net.cpp:397] relu4_1 -> conv4_1 (in-place)
I0628 11:42:45.821946 50518 net.cpp:150] Setting up relu4_1
I0628 11:42:45.821966 50518 net.cpp:157] Top shape: 1 512 75 125 (4800000)
I0628 11:42:45.821970 50518 net.cpp:165] Memory required for data: 1394400084
I0628 11:42:45.821974 50518 layer_factory.hpp:77] Creating layer conv4_2
I0628 11:42:45.821982 50518 net.cpp:106] Creating Layer conv4_2
I0628 11:42:45.821986 50518 net.cpp:454] conv4_2 <- conv4_1
I0628 11:42:45.821992 50518 net.cpp:411] conv4_2 -> conv4_2
I0628 11:42:45.830737 50518 net.cpp:150] Setting up conv4_2
I0628 11:42:45.830761 50518 net.cpp:157] Top shape: 1 512 75 125 (4800000)
I0628 11:42:45.830766 50518 net.cpp:165] Memory required for data: 1413600084
I0628 11:42:45.830793 50518 layer_factory.hpp:77] Creating layer relu4_2
I0628 11:42:45.830802 50518 net.cpp:106] Creating Layer relu4_2
I0628 11:42:45.830806 50518 net.cpp:454] relu4_2 <- conv4_2
I0628 11:42:45.830811 50518 net.cpp:397] relu4_2 -> conv4_2 (in-place)
I0628 11:42:45.832197 50518 net.cpp:150] Setting up relu4_2
I0628 11:42:45.832216 50518 net.cpp:157] Top shape: 1 512 75 125 (4800000)
I0628 11:42:45.832219 50518 net.cpp:165] Memory required for data: 1432800084
I0628 11:42:45.832222 50518 layer_factory.hpp:77] Creating layer conv4_3
I0628 11:42:45.832231 50518 net.cpp:106] Creating Layer conv4_3
I0628 11:42:45.832234 50518 net.cpp:454] conv4_3 <- conv4_2
I0628 11:42:45.832242 50518 net.cpp:411] conv4_3 -> conv4_3
I0628 11:42:45.840100 50518 net.cpp:150] Setting up conv4_3
I0628 11:42:45.840122 50518 net.cpp:157] Top shape: 1 512 75 125 (4800000)
I0628 11:42:45.840126 50518 net.cpp:165] Memory required for data: 1452000084
I0628 11:42:45.840133 50518 layer_factory.hpp:77] Creating layer relu4_3
I0628 11:42:45.840140 50518 net.cpp:106] Creating Layer relu4_3
I0628 11:42:45.840144 50518 net.cpp:454] relu4_3 <- conv4_3
I0628 11:42:45.840149 50518 net.cpp:397] relu4_3 -> conv4_3 (in-place)
I0628 11:42:45.841367 50518 net.cpp:150] Setting up relu4_3
I0628 11:42:45.841387 50518 net.cpp:157] Top shape: 1 512 75 125 (4800000)
I0628 11:42:45.841390 50518 net.cpp:165] Memory required for data: 1471200084
I0628 11:42:45.841394 50518 layer_factory.hpp:77] Creating layer conv4_3_relu4_3_0_split
I0628 11:42:45.841400 50518 net.cpp:106] Creating Layer conv4_3_relu4_3_0_split
I0628 11:42:45.841403 50518 net.cpp:454] conv4_3_relu4_3_0_split <- conv4_3
I0628 11:42:45.841409 50518 net.cpp:411] conv4_3_relu4_3_0_split -> conv4_3_relu4_3_0_split_0
I0628 11:42:45.841415 50518 net.cpp:411] conv4_3_relu4_3_0_split -> conv4_3_relu4_3_0_split_1
I0628 11:42:45.841459 50518 net.cpp:150] Setting up conv4_3_relu4_3_0_split
I0628 11:42:45.841465 50518 net.cpp:157] Top shape: 1 512 75 125 (4800000)
I0628 11:42:45.841470 50518 net.cpp:157] Top shape: 1 512 75 125 (4800000)
I0628 11:42:45.841471 50518 net.cpp:165] Memory required for data: 1509600084
I0628 11:42:45.841475 50518 layer_factory.hpp:77] Creating layer pool4
I0628 11:42:45.841481 50518 net.cpp:106] Creating Layer pool4
I0628 11:42:45.841485 50518 net.cpp:454] pool4 <- conv4_3_relu4_3_0_split_0
I0628 11:42:45.841490 50518 net.cpp:411] pool4 -> pool4
I0628 11:42:45.841523 50518 net.cpp:150] Setting up pool4
I0628 11:42:45.841528 50518 net.cpp:157] Top shape: 1 512 38 63 (1225728)
I0628 11:42:45.841531 50518 net.cpp:165] Memory required for data: 1514502996
I0628 11:42:45.841534 50518 layer_factory.hpp:77] Creating layer conv5_1
I0628 11:42:45.841542 50518 net.cpp:106] Creating Layer conv5_1
I0628 11:42:45.841545 50518 net.cpp:454] conv5_1 <- pool4
I0628 11:42:45.841550 50518 net.cpp:411] conv5_1 -> conv5_1
I0628 11:42:45.848789 50518 net.cpp:150] Setting up conv5_1
I0628 11:42:45.848814 50518 net.cpp:157] Top shape: 1 512 38 63 (1225728)
I0628 11:42:45.848817 50518 net.cpp:165] Memory required for data: 1519405908
I0628 11:42:45.848824 50518 layer_factory.hpp:77] Creating layer relu5_1
I0628 11:42:45.848831 50518 net.cpp:106] Creating Layer relu5_1
I0628 11:42:45.848834 50518 net.cpp:454] relu5_1 <- conv5_1
I0628 11:42:45.848841 50518 net.cpp:397] relu5_1 -> conv5_1 (in-place)
I0628 11:42:45.850029 50518 net.cpp:150] Setting up relu5_1
I0628 11:42:45.850045 50518 net.cpp:157] Top shape: 1 512 38 63 (1225728)
I0628 11:42:45.850049 50518 net.cpp:165] Memory required for data: 1524308820
I0628 11:42:45.850052 50518 layer_factory.hpp:77] Creating layer conv5_2
I0628 11:42:45.850066 50518 net.cpp:106] Creating Layer conv5_2
I0628 11:42:45.850069 50518 net.cpp:454] conv5_2 <- conv5_1
I0628 11:42:45.850076 50518 net.cpp:411] conv5_2 -> conv5_2
I0628 11:42:45.858433 50518 net.cpp:150] Setting up conv5_2
I0628 11:42:45.858458 50518 net.cpp:157] Top shape: 1 512 38 63 (1225728)
I0628 11:42:45.858463 50518 net.cpp:165] Memory required for data: 1529211732
I0628 11:42:45.858469 50518 layer_factory.hpp:77] Creating layer relu5_2
I0628 11:42:45.858475 50518 net.cpp:106] Creating Layer relu5_2
I0628 11:42:45.858479 50518 net.cpp:454] relu5_2 <- conv5_2
I0628 11:42:45.858485 50518 net.cpp:397] relu5_2 -> conv5_2 (in-place)
I0628 11:42:45.859840 50518 net.cpp:150] Setting up relu5_2
I0628 11:42:45.859858 50518 net.cpp:157] Top shape: 1 512 38 63 (1225728)
I0628 11:42:45.859861 50518 net.cpp:165] Memory required for data: 1534114644
I0628 11:42:45.859865 50518 layer_factory.hpp:77] Creating layer conv5_3
I0628 11:42:45.859874 50518 net.cpp:106] Creating Layer conv5_3
I0628 11:42:45.859877 50518 net.cpp:454] conv5_3 <- conv5_2
I0628 11:42:45.859884 50518 net.cpp:411] conv5_3 -> conv5_3
I0628 11:42:45.868033 50518 net.cpp:150] Setting up conv5_3
I0628 11:42:45.868057 50518 net.cpp:157] Top shape: 1 512 38 63 (1225728)
I0628 11:42:45.868062 50518 net.cpp:165] Memory required for data: 1539017556
I0628 11:42:45.868068 50518 layer_factory.hpp:77] Creating layer relu5_3
I0628 11:42:45.868075 50518 net.cpp:106] Creating Layer relu5_3
I0628 11:42:45.868079 50518 net.cpp:454] relu5_3 <- conv5_3
I0628 11:42:45.868084 50518 net.cpp:397] relu5_3 -> conv5_3 (in-place)
I0628 11:42:45.868808 50518 net.cpp:150] Setting up relu5_3
I0628 11:42:45.868827 50518 net.cpp:157] Top shape: 1 512 38 63 (1225728)
I0628 11:42:45.868831 50518 net.cpp:165] Memory required for data: 1543920468
I0628 11:42:45.868834 50518 layer_factory.hpp:77] Creating layer conv5_3_relu5_3_0_split
I0628 11:42:45.868841 50518 net.cpp:106] Creating Layer conv5_3_relu5_3_0_split
I0628 11:42:45.868845 50518 net.cpp:454] conv5_3_relu5_3_0_split <- conv5_3
I0628 11:42:45.868851 50518 net.cpp:411] conv5_3_relu5_3_0_split -> conv5_3_relu5_3_0_split_0
I0628 11:42:45.868858 50518 net.cpp:411] conv5_3_relu5_3_0_split -> conv5_3_relu5_3_0_split_1
I0628 11:42:45.868907 50518 net.cpp:150] Setting up conv5_3_relu5_3_0_split
I0628 11:42:45.868913 50518 net.cpp:157] Top shape: 1 512 38 63 (1225728)
I0628 11:42:45.868918 50518 net.cpp:157] Top shape: 1 512 38 63 (1225728)
I0628 11:42:45.868921 50518 net.cpp:165] Memory required for data: 1553726292
I0628 11:42:45.868924 50518 layer_factory.hpp:77] Creating layer pool5
I0628 11:42:45.868930 50518 net.cpp:106] Creating Layer pool5
I0628 11:42:45.868933 50518 net.cpp:454] pool5 <- conv5_3_relu5_3_0_split_0
I0628 11:42:45.868939 50518 net.cpp:411] pool5 -> pool5
I0628 11:42:45.868975 50518 net.cpp:150] Setting up pool5
I0628 11:42:45.868979 50518 net.cpp:157] Top shape: 1 512 19 32 (311296)
I0628 11:42:45.868983 50518 net.cpp:165] Memory required for data: 1554971476
I0628 11:42:45.868985 50518 layer_factory.hpp:77] Creating layer P5
I0628 11:42:45.868994 50518 net.cpp:106] Creating Layer P5
I0628 11:42:45.868998 50518 net.cpp:454] P5 <- pool5
I0628 11:42:45.869004 50518 net.cpp:411] P5 -> P5
I0628 11:42:45.872246 50518 net.cpp:150] Setting up P5
I0628 11:42:45.872268 50518 net.cpp:157] Top shape: 1 256 19 32 (155648)
I0628 11:42:45.872273 50518 net.cpp:165] Memory required for data: 1555594068
I0628 11:42:45.872280 50518 layer_factory.hpp:77] Creating layer upP5
I0628 11:42:45.872294 50518 net.cpp:106] Creating Layer upP5
I0628 11:42:45.872298 50518 net.cpp:454] upP5 <- P5
I0628 11:42:45.872306 50518 net.cpp:411] upP5 -> upP5
I0628 11:42:45.898128 50518 net.cpp:150] Setting up upP5
I0628 11:42:45.898150 50518 net.cpp:157] Top shape: 1 256 38 64 (622592)
I0628 11:42:45.898154 50518 net.cpp:165] Memory required for data: 1558084436
I0628 11:42:45.898159 50518 layer_factory.hpp:77] Creating layer newC4
I0628 11:42:45.898170 50518 net.cpp:106] Creating Layer newC4
I0628 11:42:45.898175 50518 net.cpp:454] newC4 <- conv5_3_relu5_3_0_split_1
I0628 11:42:45.898181 50518 net.cpp:411] newC4 -> newC4
I0628 11:42:45.902125 50518 net.cpp:150] Setting up newC4
I0628 11:42:45.902148 50518 net.cpp:157] Top shape: 1 256 38 63 (612864)
I0628 11:42:45.902153 50518 net.cpp:165] Memory required for data: 1560535892
I0628 11:42:45.902158 50518 layer_factory.hpp:77] Creating layer newC4_newC4_0_split
I0628 11:42:45.902165 50518 net.cpp:106] Creating Layer newC4_newC4_0_split
I0628 11:42:45.902169 50518 net.cpp:454] newC4_newC4_0_split <- newC4
I0628 11:42:45.902174 50518 net.cpp:411] newC4_newC4_0_split -> newC4_newC4_0_split_0
I0628 11:42:45.902181 50518 net.cpp:411] newC4_newC4_0_split -> newC4_newC4_0_split_1
I0628 11:42:45.902222 50518 net.cpp:150] Setting up newC4_newC4_0_split
I0628 11:42:45.902228 50518 net.cpp:157] Top shape: 1 256 38 63 (612864)
I0628 11:42:45.902232 50518 net.cpp:157] Top shape: 1 256 38 63 (612864)
I0628 11:42:45.902235 50518 net.cpp:165] Memory required for data: 1565438804
I0628 11:42:45.902237 50518 layer_factory.hpp:77] Creating layer upP5crop
I0628 11:42:45.902247 50518 net.cpp:106] Creating Layer upP5crop
I0628 11:42:45.902251 50518 net.cpp:454] upP5crop <- upP5
I0628 11:42:45.902256 50518 net.cpp:454] upP5crop <- newC4_newC4_0_split_0
I0628 11:42:45.902261 50518 net.cpp:411] upP5crop -> upP5crop
I0628 11:42:45.902354 50518 net.cpp:150] Setting up upP5crop
I0628 11:42:45.902359 50518 net.cpp:157] Top shape: 1 256 38 63 (612864)
I0628 11:42:45.902362 50518 net.cpp:165] Memory required for data: 1567890260
I0628 11:42:45.902365 50518 layer_factory.hpp:77] Creating layer P4
I0628 11:42:45.902374 50518 net.cpp:106] Creating Layer P4
I0628 11:42:45.902377 50518 net.cpp:454] P4 <- newC4_newC4_0_split_1
I0628 11:42:45.902381 50518 net.cpp:454] P4 <- upP5crop
I0628 11:42:45.902386 50518 net.cpp:411] P4 -> P4
I0628 11:42:45.902411 50518 net.cpp:150] Setting up P4
I0628 11:42:45.902416 50518 net.cpp:157] Top shape: 1 256 38 63 (612864)
I0628 11:42:45.902418 50518 net.cpp:165] Memory required for data: 1570341716
I0628 11:42:45.902421 50518 layer_factory.hpp:77] Creating layer upP4
I0628 11:42:45.902429 50518 net.cpp:106] Creating Layer upP4
I0628 11:42:45.902432 50518 net.cpp:454] upP4 <- P4
I0628 11:42:45.902437 50518 net.cpp:411] upP4 -> upP4
I0628 11:42:45.928671 50518 net.cpp:150] Setting up upP4
I0628 11:42:45.928694 50518 net.cpp:157] Top shape: 1 256 76 126 (2451456)
I0628 11:42:45.928697 50518 net.cpp:165] Memory required for data: 1580147540
I0628 11:42:45.928704 50518 layer_factory.hpp:77] Creating layer newC3
I0628 11:42:45.928714 50518 net.cpp:106] Creating Layer newC3
I0628 11:42:45.928717 50518 net.cpp:454] newC3 <- conv4_3_relu4_3_0_split_1
I0628 11:42:45.928724 50518 net.cpp:411] newC3 -> newC3
I0628 11:42:45.932090 50518 net.cpp:150] Setting up newC3
I0628 11:42:45.932112 50518 net.cpp:157] Top shape: 1 256 75 125 (2400000)
I0628 11:42:45.932117 50518 net.cpp:165] Memory required for data: 1589747540
I0628 11:42:45.932132 50518 layer_factory.hpp:77] Creating layer newC3_newC3_0_split
I0628 11:42:45.932139 50518 net.cpp:106] Creating Layer newC3_newC3_0_split
I0628 11:42:45.932143 50518 net.cpp:454] newC3_newC3_0_split <- newC3
I0628 11:42:45.932149 50518 net.cpp:411] newC3_newC3_0_split -> newC3_newC3_0_split_0
I0628 11:42:45.932157 50518 net.cpp:411] newC3_newC3_0_split -> newC3_newC3_0_split_1
I0628 11:42:45.932199 50518 net.cpp:150] Setting up newC3_newC3_0_split
I0628 11:42:45.932211 50518 net.cpp:157] Top shape: 1 256 75 125 (2400000)
I0628 11:42:45.932216 50518 net.cpp:157] Top shape: 1 256 75 125 (2400000)
I0628 11:42:45.932219 50518 net.cpp:165] Memory required for data: 1608947540
I0628 11:42:45.932222 50518 layer_factory.hpp:77] Creating layer upP4crop
I0628 11:42:45.932229 50518 net.cpp:106] Creating Layer upP4crop
I0628 11:42:45.932232 50518 net.cpp:454] upP4crop <- upP4
I0628 11:42:45.932236 50518 net.cpp:454] upP4crop <- newC3_newC3_0_split_0
I0628 11:42:45.932241 50518 net.cpp:411] upP4crop -> upP4crop
I0628 11:42:45.932337 50518 net.cpp:150] Setting up upP4crop
I0628 11:42:45.932348 50518 net.cpp:157] Top shape: 1 256 75 125 (2400000)
I0628 11:42:45.932351 50518 net.cpp:165] Memory required for data: 1618547540
I0628 11:42:45.932354 50518 layer_factory.hpp:77] Creating layer P3
I0628 11:42:45.932361 50518 net.cpp:106] Creating Layer P3
I0628 11:42:45.932365 50518 net.cpp:454] P3 <- newC3_newC3_0_split_1
I0628 11:42:45.932369 50518 net.cpp:454] P3 <- upP4crop
I0628 11:42:45.932374 50518 net.cpp:411] P3 -> P3
I0628 11:42:45.932399 50518 net.cpp:150] Setting up P3
I0628 11:42:45.932410 50518 net.cpp:157] Top shape: 1 256 75 125 (2400000)
I0628 11:42:45.932412 50518 net.cpp:165] Memory required for data: 1628147540
I0628 11:42:45.932415 50518 layer_factory.hpp:77] Creating layer upP3
I0628 11:42:45.932423 50518 net.cpp:106] Creating Layer upP3
I0628 11:42:45.932426 50518 net.cpp:454] upP3 <- P3
I0628 11:42:45.932432 50518 net.cpp:411] upP3 -> upP3
I0628 11:42:45.958433 50518 net.cpp:150] Setting up upP3
I0628 11:42:45.958473 50518 net.cpp:157] Top shape: 1 256 150 250 (9600000)
I0628 11:42:45.958477 50518 net.cpp:165] Memory required for data: 1666547540
I0628 11:42:45.958485 50518 layer_factory.hpp:77] Creating layer upP3crop
I0628 11:42:45.958497 50518 net.cpp:106] Creating Layer upP3crop
I0628 11:42:45.958501 50518 net.cpp:454] upP3crop <- upP3
I0628 11:42:45.958508 50518 net.cpp:454] upP3crop <- conv3_3_relu3_3_0_split_1
I0628 11:42:45.958513 50518 net.cpp:411] upP3crop -> upP3crop
I0628 11:42:45.958617 50518 net.cpp:150] Setting up upP3crop
I0628 11:42:45.958629 50518 net.cpp:157] Top shape: 1 256 150 250 (9600000)
I0628 11:42:45.958632 50518 net.cpp:165] Memory required for data: 1704947540
I0628 11:42:45.958636 50518 layer_factory.hpp:77] Creating layer P2
I0628 11:42:45.958643 50518 net.cpp:106] Creating Layer P2
I0628 11:42:45.958647 50518 net.cpp:454] P2 <- conv3_3_relu3_3_0_split_2
I0628 11:42:45.958652 50518 net.cpp:454] P2 <- upP3crop
I0628 11:42:45.958657 50518 net.cpp:411] P2 -> P2
I0628 11:42:45.958681 50518 net.cpp:150] Setting up P2
I0628 11:42:45.958686 50518 net.cpp:157] Top shape: 1 256 150 250 (9600000)
I0628 11:42:45.958689 50518 net.cpp:165] Memory required for data: 1743347540
I0628 11:42:45.958693 50518 layer_factory.hpp:77] Creating layer newP2
I0628 11:42:45.958703 50518 net.cpp:106] Creating Layer newP2
I0628 11:42:45.958706 50518 net.cpp:454] newP2 <- P2
I0628 11:42:45.958712 50518 net.cpp:411] newP2 -> newP2
I0628 11:42:45.966117 50518 net.cpp:150] Setting up newP2
I0628 11:42:45.966161 50518 net.cpp:157] Top shape: 1 256 150 250 (9600000)
I0628 11:42:45.966166 50518 net.cpp:165] Memory required for data: 1781747540
I0628 11:42:45.966176 50518 layer_factory.hpp:77] Creating layer newP2_newP2_0_split
I0628 11:42:45.966186 50518 net.cpp:106] Creating Layer newP2_newP2_0_split
I0628 11:42:45.966192 50518 net.cpp:454] newP2_newP2_0_split <- newP2
I0628 11:42:45.966198 50518 net.cpp:411] newP2_newP2_0_split -> newP2_newP2_0_split_0
I0628 11:42:45.966207 50518 net.cpp:411] newP2_newP2_0_split -> newP2_newP2_0_split_1
I0628 11:42:45.966254 50518 net.cpp:150] Setting up newP2_newP2_0_split
I0628 11:42:45.966266 50518 net.cpp:157] Top shape: 1 256 150 250 (9600000)
I0628 11:42:45.966271 50518 net.cpp:157] Top shape: 1 256 150 250 (9600000)
I0628 11:42:45.966274 50518 net.cpp:165] Memory required for data: 1858547540
I0628 11:42:45.966277 50518 layer_factory.hpp:77] Creating layer rpn_conv/3x3
I0628 11:42:45.966289 50518 net.cpp:106] Creating Layer rpn_conv/3x3
I0628 11:42:45.966292 50518 net.cpp:454] rpn_conv/3x3 <- newP2_newP2_0_split_0
I0628 11:42:45.966300 50518 net.cpp:411] rpn_conv/3x3 -> rpn/output
I0628 11:42:46.002593 50518 net.cpp:150] Setting up rpn_conv/3x3
I0628 11:42:46.002617 50518 net.cpp:157] Top shape: 1 512 150 250 (19200000)
I0628 11:42:46.002622 50518 net.cpp:165] Memory required for data: 1935347540
I0628 11:42:46.002630 50518 layer_factory.hpp:77] Creating layer rpn_relu/3x3
I0628 11:42:46.002638 50518 net.cpp:106] Creating Layer rpn_relu/3x3
I0628 11:42:46.002642 50518 net.cpp:454] rpn_relu/3x3 <- rpn/output
I0628 11:42:46.002647 50518 net.cpp:397] rpn_relu/3x3 -> rpn/output (in-place)
I0628 11:42:46.003253 50518 net.cpp:150] Setting up rpn_relu/3x3
I0628 11:42:46.003269 50518 net.cpp:157] Top shape: 1 512 150 250 (19200000)
I0628 11:42:46.003273 50518 net.cpp:165] Memory required for data: 2012147540
I0628 11:42:46.003276 50518 layer_factory.hpp:77] Creating layer rpn/output_rpn_relu/3x3_0_split
I0628 11:42:46.003283 50518 net.cpp:106] Creating Layer rpn/output_rpn_relu/3x3_0_split
I0628 11:42:46.003286 50518 net.cpp:454] rpn/output_rpn_relu/3x3_0_split <- rpn/output
I0628 11:42:46.003293 50518 net.cpp:411] rpn/output_rpn_relu/3x3_0_split -> rpn/output_rpn_relu/3x3_0_split_0
I0628 11:42:46.003298 50518 net.cpp:411] rpn/output_rpn_relu/3x3_0_split -> rpn/output_rpn_relu/3x3_0_split_1
I0628 11:42:46.003345 50518 net.cpp:150] Setting up rpn/output_rpn_relu/3x3_0_split
I0628 11:42:46.003358 50518 net.cpp:157] Top shape: 1 512 150 250 (19200000)
I0628 11:42:46.003362 50518 net.cpp:157] Top shape: 1 512 150 250 (19200000)
I0628 11:42:46.003365 50518 net.cpp:165] Memory required for data: 2165747540
I0628 11:42:46.003368 50518 layer_factory.hpp:77] Creating layer rpn_cls_score
I0628 11:42:46.003379 50518 net.cpp:106] Creating Layer rpn_cls_score
I0628 11:42:46.003383 50518 net.cpp:454] rpn_cls_score <- rpn/output_rpn_relu/3x3_0_split_0
I0628 11:42:46.003391 50518 net.cpp:411] rpn_cls_score -> rpn_cls_score
I0628 11:42:46.007544 50518 net.cpp:150] Setting up rpn_cls_score
I0628 11:42:46.007566 50518 net.cpp:157] Top shape: 1 18 150 250 (675000)
I0628 11:42:46.007570 50518 net.cpp:165] Memory required for data: 2168447540
I0628 11:42:46.007578 50518 layer_factory.hpp:77] Creating layer rpn_cls_score_rpn_cls_score_0_split
I0628 11:42:46.007586 50518 net.cpp:106] Creating Layer rpn_cls_score_rpn_cls_score_0_split
I0628 11:42:46.007591 50518 net.cpp:454] rpn_cls_score_rpn_cls_score_0_split <- rpn_cls_score
I0628 11:42:46.007596 50518 net.cpp:411] rpn_cls_score_rpn_cls_score_0_split -> rpn_cls_score_rpn_cls_score_0_split_0
I0628 11:42:46.007601 50518 net.cpp:411] rpn_cls_score_rpn_cls_score_0_split -> rpn_cls_score_rpn_cls_score_0_split_1
I0628 11:42:46.007648 50518 net.cpp:150] Setting up rpn_cls_score_rpn_cls_score_0_split
I0628 11:42:46.007654 50518 net.cpp:157] Top shape: 1 18 150 250 (675000)
I0628 11:42:46.007658 50518 net.cpp:157] Top shape: 1 18 150 250 (675000)
I0628 11:42:46.007661 50518 net.cpp:165] Memory required for data: 2173847540
I0628 11:42:46.007664 50518 layer_factory.hpp:77] Creating layer rpn_bbox_pred
I0628 11:42:46.007673 50518 net.cpp:106] Creating Layer rpn_bbox_pred
I0628 11:42:46.007678 50518 net.cpp:454] rpn_bbox_pred <- rpn/output_rpn_relu/3x3_0_split_1
I0628 11:42:46.007684 50518 net.cpp:411] rpn_bbox_pred -> rpn_bbox_pred
I0628 11:42:46.013999 50518 net.cpp:150] Setting up rpn_bbox_pred
I0628 11:42:46.014024 50518 net.cpp:157] Top shape: 1 36 150 250 (1350000)
I0628 11:42:46.014029 50518 net.cpp:165] Memory required for data: 2179247540
I0628 11:42:46.014036 50518 layer_factory.hpp:77] Creating layer rpn_bbox_pred_rpn_bbox_pred_0_split
I0628 11:42:46.014044 50518 net.cpp:106] Creating Layer rpn_bbox_pred_rpn_bbox_pred_0_split
I0628 11:42:46.014048 50518 net.cpp:454] rpn_bbox_pred_rpn_bbox_pred_0_split <- rpn_bbox_pred
I0628 11:42:46.014053 50518 net.cpp:411] rpn_bbox_pred_rpn_bbox_pred_0_split -> rpn_bbox_pred_rpn_bbox_pred_0_split_0
I0628 11:42:46.014061 50518 net.cpp:411] rpn_bbox_pred_rpn_bbox_pred_0_split -> rpn_bbox_pred_rpn_bbox_pred_0_split_1
I0628 11:42:46.014108 50518 net.cpp:150] Setting up rpn_bbox_pred_rpn_bbox_pred_0_split
I0628 11:42:46.014120 50518 net.cpp:157] Top shape: 1 36 150 250 (1350000)
I0628 11:42:46.014124 50518 net.cpp:157] Top shape: 1 36 150 250 (1350000)
I0628 11:42:46.014127 50518 net.cpp:165] Memory required for data: 2190047540
I0628 11:42:46.014130 50518 layer_factory.hpp:77] Creating layer rpn_cls_score_reshape
I0628 11:42:46.014142 50518 net.cpp:106] Creating Layer rpn_cls_score_reshape
I0628 11:42:46.014147 50518 net.cpp:454] rpn_cls_score_reshape <- rpn_cls_score_rpn_cls_score_0_split_0
I0628 11:42:46.014152 50518 net.cpp:411] rpn_cls_score_reshape -> rpn_cls_score_reshape
I0628 11:42:46.014188 50518 net.cpp:150] Setting up rpn_cls_score_reshape
I0628 11:42:46.014199 50518 net.cpp:157] Top shape: 1 2 1350 250 (675000)
I0628 11:42:46.014202 50518 net.cpp:165] Memory required for data: 2192747540
I0628 11:42:46.014205 50518 layer_factory.hpp:77] Creating layer rpn_cls_score_reshape_rpn_cls_score_reshape_0_split
I0628 11:42:46.014211 50518 net.cpp:106] Creating Layer rpn_cls_score_reshape_rpn_cls_score_reshape_0_split
I0628 11:42:46.014214 50518 net.cpp:454] rpn_cls_score_reshape_rpn_cls_score_reshape_0_split <- rpn_cls_score_reshape
I0628 11:42:46.014219 50518 net.cpp:411] rpn_cls_score_reshape_rpn_cls_score_reshape_0_split -> rpn_cls_score_reshape_rpn_cls_score_reshape_0_split_0
I0628 11:42:46.014225 50518 net.cpp:411] rpn_cls_score_reshape_rpn_cls_score_reshape_0_split -> rpn_cls_score_reshape_rpn_cls_score_reshape_0_split_1
I0628 11:42:46.014272 50518 net.cpp:150] Setting up rpn_cls_score_reshape_rpn_cls_score_reshape_0_split
I0628 11:42:46.014283 50518 net.cpp:157] Top shape: 1 2 1350 250 (675000)
I0628 11:42:46.014289 50518 net.cpp:157] Top shape: 1 2 1350 250 (675000)
I0628 11:42:46.014292 50518 net.cpp:165] Memory required for data: 2198147540
I0628 11:42:46.014295 50518 layer_factory.hpp:77] Creating layer rpn-data
I0628 11:42:46.014976 50518 net.cpp:106] Creating Layer rpn-data
I0628 11:42:46.014998 50518 net.cpp:454] rpn-data <- rpn_cls_score_rpn_cls_score_0_split_1
I0628 11:42:46.015005 50518 net.cpp:454] rpn-data <- gt_boxes_input-data_2_split_0
I0628 11:42:46.015009 50518 net.cpp:454] rpn-data <- im_info_input-data_1_split_0
I0628 11:42:46.015013 50518 net.cpp:454] rpn-data <- data_input-data_0_split_1
I0628 11:42:46.015019 50518 net.cpp:411] rpn-data -> rpn_labels
I0628 11:42:46.015027 50518 net.cpp:411] rpn-data -> rpn_bbox_targets
I0628 11:42:46.015033 50518 net.cpp:411] rpn-data -> rpn_bbox_inside_weights
I0628 11:42:46.015038 50518 net.cpp:411] rpn-data -> rpn_bbox_outside_weights
I0628 11:42:46.017287 50518 net.cpp:150] Setting up rpn-data
I0628 11:42:46.017312 50518 net.cpp:157] Top shape: 1 1 1350 250 (337500)
I0628 11:42:46.017316 50518 net.cpp:157] Top shape: 1 36 150 250 (1350000)
I0628 11:42:46.017320 50518 net.cpp:157] Top shape: 1 36 150 250 (1350000)
I0628 11:42:46.017323 50518 net.cpp:157] Top shape: 1 36 150 250 (1350000)
I0628 11:42:46.017326 50518 net.cpp:165] Memory required for data: 2215697540
I0628 11:42:46.017330 50518 layer_factory.hpp:77] Creating layer rpn_loss_cls
I0628 11:42:46.017354 50518 net.cpp:106] Creating Layer rpn_loss_cls
I0628 11:42:46.017366 50518 net.cpp:454] rpn_loss_cls <- rpn_cls_score_reshape_rpn_cls_score_reshape_0_split_0
I0628 11:42:46.017371 50518 net.cpp:454] rpn_loss_cls <- rpn_labels
…
I0628 11:42:46.028961 50518 net.cpp:157] Top shape: (1)
I0628 11:42:46.028966 50518 net.cpp:160]     with loss weight 1
I0628 11:42:46.028973 50518 net.cpp:165] Memory required for data: 2215697548
I0628 11:42:46.028977 50518 layer_factory.hpp:77] Creating layer rpn_cls_prob
I0628 11:42:46.028985 50518 net.cpp:106] Creating Layer rpn_cls_prob
I0628 11:42:46.028990 50518 net.cpp:454] rpn_cls_prob <- rpn_cls_score_reshape_rpn_cls_score_reshape_0_split_1
I0628 11:42:46.028998 50518 net.cpp:411] rpn_cls_prob -> rpn_cls_prob
I0628 11:42:46.029888 50518 net.cpp:150] Setting up rpn_cls_prob
I0628 11:42:46.029909 50518 net.cpp:157] Top shape: 1 2 1350 250 (675000)
I0628 11:42:46.029913 50518 net.cpp:165] Memory required for data: 2218397548
I0628 11:42:46.029917 50518 layer_factory.hpp:77] Creating layer rpn_cls_prob_reshape
I0628 11:42:46.029927 50518 net.cpp:106] Creating Layer rpn_cls_prob_reshape
I0628 11:42:46.029929 50518 net.cpp:454] rpn_cls_prob_reshape <- rpn_cls_prob
I0628 11:42:46.029937 50518 net.cpp:411] rpn_cls_prob_reshape -> rpn_cls_prob_reshape
I0628 11:42:46.029968 50518 net.cpp:150] Setting up rpn_cls_prob_reshape
I0628 11:42:46.029984 50518 net.cpp:157] Top shape: 1 18 150 250 (675000)
I0628 11:42:46.029989 50518 net.cpp:165] Memory required for data: 2221097548
I0628 11:42:46.029991 50518 layer_factory.hpp:77] Creating layer proposal
I0628 11:42:46.030947 50518 net.cpp:106] Creating Layer proposal
I0628 11:42:46.030969 50518 net.cpp:454] proposal <- rpn_cls_prob_reshape
I0628 11:42:46.030977 50518 net.cpp:454] proposal <- rpn_bbox_pred_rpn_bbox_pred_0_split_1
I0628 11:42:46.030980 50518 net.cpp:454] proposal <- im_info_input-data_1_split_1
I0628 11:42:46.030987 50518 net.cpp:411] proposal -> rpn_rois
I0628 11:42:46.035559 50518 net.cpp:150] Setting up proposal
I0628 11:42:46.035581 50518 net.cpp:157] Top shape: 1 5 (5)
I0628 11:42:46.035586 50518 net.cpp:165] Memory required for data: 2221097568
I0628 11:42:46.035590 50518 layer_factory.hpp:77] Creating layer roi-data
I0628 11:42:46.035790 50518 net.cpp:106] Creating Layer roi-data
I0628 11:42:46.035809 50518 net.cpp:454] roi-data <- rpn_rois
I0628 11:42:46.035815 50518 net.cpp:454] roi-data <- gt_boxes_input-data_2_split_1
I0628 11:42:46.035820 50518 net.cpp:411] roi-data -> rois
I0628 11:42:46.035828 50518 net.cpp:411] roi-data -> labels
I0628 11:42:46.035835 50518 net.cpp:411] roi-data -> bbox_targets
I0628 11:42:46.035840 50518 net.cpp:411] roi-data -> bbox_inside_weights
I0628 11:42:46.035845 50518 net.cpp:411] roi-data -> bbox_outside_weights
I0628 11:42:46.036226 50518 net.cpp:150] Setting up roi-data
I0628 11:42:46.036247 50518 net.cpp:157] Top shape: 1 5 (5)
I0628 11:42:46.036252 50518 net.cpp:157] Top shape: 1 1 (1)
I0628 11:42:46.036254 50518 net.cpp:157] Top shape: 1 84 (84)
I0628 11:42:46.036258 50518 net.cpp:157] Top shape: 1 84 (84)
I0628 11:42:46.036262 50518 net.cpp:157] Top shape: 1 84 (84)
I0628 11:42:46.036264 50518 net.cpp:165] Memory required for data: 2221098600
I0628 11:42:46.036267 50518 layer_factory.hpp:77] Creating layer roi_pool5
I0628 11:42:46.036278 50518 net.cpp:106] Creating Layer roi_pool5
I0628 11:42:46.036283 50518 net.cpp:454] roi_pool5 <- newP2_newP2_0_split_1
I0628 11:42:46.036288 50518 net.cpp:454] roi_pool5 <- rois
I0628 11:42:46.036293 50518 net.cpp:411] roi_pool5 -> rcnn_pool5
I0628 11:42:46.036303 50518 roi_pooling_layer.cpp:30] Spatial scale: 0.25
I0628 11:42:46.036350 50518 net.cpp:150] Setting up roi_pool5
I0628 11:42:46.036362 50518 net.cpp:157] Top shape: 1 256 7 7 (12544)
I0628 11:42:46.036366 50518 net.cpp:165] Memory required for data: 2221148776
I0628 11:42:46.036370 50518 layer_factory.hpp:77] Creating layer rcnn_fc6
I0628 11:42:46.036379 50518 net.cpp:106] Creating Layer rcnn_fc6
I0628 11:42:46.036383 50518 net.cpp:454] rcnn_fc6 <- rcnn_pool5
I0628 11:42:46.036388 50518 net.cpp:411] rcnn_fc6 -> rcnn_fc6
I0628 11:42:46.373728 50518 net.cpp:150] Setting up rcnn_fc6
I0628 11:42:46.373777 50518 net.cpp:157] Top shape: 1 4096 (4096)
I0628 11:42:46.373782 50518 net.cpp:165] Memory required for data: 2221165160
I0628 11:42:46.373795 50518 layer_factory.hpp:77] Creating layer relu6
I0628 11:42:46.373807 50518 net.cpp:106] Creating Layer relu6
I0628 11:42:46.373814 50518 net.cpp:454] relu6 <- rcnn_fc6
I0628 11:42:46.373821 50518 net.cpp:397] relu6 -> rcnn_fc6 (in-place)
I0628 11:42:46.374927 50518 net.cpp:150] Setting up relu6
I0628 11:42:46.374948 50518 net.cpp:157] Top shape: 1 4096 (4096)
I0628 11:42:46.374951 50518 net.cpp:165] Memory required for data: 2221181544
I0628 11:42:46.374955 50518 layer_factory.hpp:77] Creating layer drop6
I0628 11:42:46.374972 50518 net.cpp:106] Creating Layer drop6
I0628 11:42:46.374976 50518 net.cpp:454] drop6 <- rcnn_fc6
I0628 11:42:46.374984 50518 net.cpp:397] drop6 -> rcnn_fc6 (in-place)
I0628 11:42:46.375025 50518 net.cpp:150] Setting up drop6
I0628 11:42:46.375037 50518 net.cpp:157] Top shape: 1 4096 (4096)
I0628 11:42:46.375041 50518 net.cpp:165] Memory required for data: 2221197928
I0628 11:42:46.375044 50518 layer_factory.hpp:77] Creating layer fc7
I0628 11:42:46.375054 50518 net.cpp:106] Creating Layer fc7
I0628 11:42:46.375057 50518 net.cpp:454] fc7 <- rcnn_fc6
I0628 11:42:46.375064 50518 net.cpp:411] fc7 -> fc7
I0628 11:42:46.488441 50518 net.cpp:150] Setting up fc7
I0628 11:42:46.488493 50518 net.cpp:157] Top shape: 1 4096 (4096)
I0628 11:42:46.488498 50518 net.cpp:165] Memory required for data: 2221214312
I0628 11:42:46.488510 50518 layer_factory.hpp:77] Creating layer relu7
I0628 11:42:46.488521 50518 net.cpp:106] Creating Layer relu7
I0628 11:42:46.488528 50518 net.cpp:454] relu7 <- fc7
I0628 11:42:46.488534 50518 net.cpp:397] relu7 -> fc7 (in-place)
I0628 11:42:46.488795 50518 net.cpp:150] Setting up relu7
I0628 11:42:46.488809 50518 net.cpp:157] Top shape: 1 4096 (4096)
I0628 11:42:46.488813 50518 net.cpp:165] Memory required for data: 2221230696
I0628 11:42:46.488816 50518 layer_factory.hpp:77] Creating layer drop7
I0628 11:42:46.488824 50518 net.cpp:106] Creating Layer drop7
I0628 11:42:46.488827 50518 net.cpp:454] drop7 <- fc7
I0628 11:42:46.488832 50518 net.cpp:397] drop7 -> fc7 (in-place)
I0628 11:42:46.488867 50518 net.cpp:150] Setting up drop7
I0628 11:42:46.488873 50518 net.cpp:157] Top shape: 1 4096 (4096)
I0628 11:42:46.488875 50518 net.cpp:165] Memory required for data: 2221247080
I0628 11:42:46.488878 50518 layer_factory.hpp:77] Creating layer fc7_drop7_0_split
I0628 11:42:46.488885 50518 net.cpp:106] Creating Layer fc7_drop7_0_split
I0628 11:42:46.488888 50518 net.cpp:454] fc7_drop7_0_split <- fc7
I0628 11:42:46.488893 50518 net.cpp:411] fc7_drop7_0_split -> fc7_drop7_0_split_0
I0628 11:42:46.488899 50518 net.cpp:411] fc7_drop7_0_split -> fc7_drop7_0_split_1
I0628 11:42:46.488946 50518 net.cpp:150] Setting up fc7_drop7_0_split
I0628 11:42:46.488965 50518 net.cpp:157] Top shape: 1 4096 (4096)
I0628 11:42:46.488968 50518 net.cpp:157] Top shape: 1 4096 (4096)
I0628 11:42:46.488971 50518 net.cpp:165] Memory required for data: 2221279848
I0628 11:42:46.488975 50518 layer_factory.hpp:77] Creating layer cls_score
I0628 11:42:46.488983 50518 net.cpp:106] Creating Layer cls_score
I0628 11:42:46.488986 50518 net.cpp:454] cls_score <- fc7_drop7_0_split_0
I0628 11:42:46.488993 50518 net.cpp:411] cls_score -> cls_score
I0628 11:42:46.491169 50518 net.cpp:150] Setting up cls_score
I0628 11:42:46.491183 50518 net.cpp:157] Top shape: 1 21 (21)
I0628 11:42:46.491188 50518 net.cpp:165] Memory required for data: 2221279932
I0628 11:42:46.491194 50518 layer_factory.hpp:77] Creating layer bbox_pred
I0628 11:42:46.491201 50518 net.cpp:106] Creating Layer bbox_pred
I0628 11:42:46.491204 50518 net.cpp:454] bbox_pred <- fc7_drop7_0_split_1
I0628 11:42:46.491210 50518 net.cpp:411] bbox_pred -> bbox_pred
I0628 11:42:46.500293 50518 net.cpp:150] Setting up bbox_pred
I0628 11:42:46.500315 50518 net.cpp:157] Top shape: 1 84 (84)
I0628 11:42:46.500319 50518 net.cpp:165] Memory required for data: 2221280268
I0628 11:42:46.500326 50518 layer_factory.hpp:77] Creating layer loss_cls
I0628 11:42:46.500335 50518 net.cpp:106] Creating Layer loss_cls
I0628 11:42:46.500339 50518 net.cpp:454] loss_cls <- cls_score
I0628 11:42:46.500345 50518 net.cpp:454] loss_cls <- labels
I0628 11:42:46.500350 50518 net.cpp:411] loss_cls -> loss_cls
…
