…
stepsize: 50000
snapshot: 0
snapshot_prefix: "fpn"
average_loss: 100
iter_size: 2
I0628 20:12:30.389089 40991 solver.cpp:81] Creating training net from train_net file: models/pascal_voc/VGG16/FP_Net_end2end/train.prototxt
I0628 20:12:30.390491 40991 net.cpp:49] Initializing net from parameters: 
name: "VGG_ILSVRC_16_layers"
state {
  phase: TRAIN
}
layer {
  name: "input-data"
  type: "Python"
  top: "data"
  top: "im_info"
  top: "gt_boxes"
  python_param {
    module: "roi_data_layer.layer"
    layer: "RoIDataLayer"
    param_str: "\'num_classes\': 21"
  }
}
layer {
  name: "conv1_1"
  type: "Convolution"
  bottom: "data"
  top: "conv1_1"
  param {
    lr_mult: 0
    decay_mult: 0
  }
  param {
    lr_mult: 0
    decay_mult: 0
  }
  convolution_param {
    num_output: 64
    pad: 1
    kernel_size: 3
  }
}
layer {
  name: "relu1_1"
  type: "ReLU"
  bottom: "conv1_1"
  top: "conv1_1"
}
layer {
  name: "conv1_2"
  type: "Convolution"
  bottom: "conv1_1"
  top: "conv1_2"
  param {
    lr_mult: 0
    decay_mult: 0
  }
  param {
    lr_mult: 0
    decay_mult: 0
  }
  convolution_param {
    num_output: 64
    pad: 1
    kernel_size: 3
  }
}
layer {
  name: "relu1_2"
  type: "ReLU"
  bottom: "conv1_2"
  top: "conv1_2"
}
layer {
  name: "pool1"
  type: "Pooling"
  bottom: "conv1_2"
  top: "pool1"
  pooling_param {
    pool: MAX
    kernel_size: 2
    stride: 2
  }
}
layer {
  name: "conv2_1"
  type: "Convolution"
  bottom: "pool1"
  top: "conv2_1"
  param {
    lr_mult: 0
    decay_mult: 0
  }
  param {
    lr_mult: 0
    decay_mult: 0
  }
  convolution_param {
    num_output: 128
    pad: 1
    kernel_size: 3
  }
}
layer {
  name: "relu2_1"
  type: "ReLU"
  bottom: "conv2_1"
  top: "conv2_1"
}
layer {
  name: "conv2_2"
  type: "Convolution"
  bottom: "conv2_1"
  top: "conv2_2"
  param {
    lr_mult: 0
    decay_mult: 0
  }
  param {
    lr_mult: 0
    decay_mult: 0
  }
  convolution_param {
    num_output: 128
    pad: 1
    kernel_size: 3
  }
}
layer {
  name: "relu2_2"
  type: "ReLU"
  bottom: "conv2_2"
  top: "conv2_2"
}
layer {
  name: "pool2"
  type: "Pooling"
  bottom: "conv2_2"
  top: "pool2"
  pooling_param {
    pool: MAX
    kernel_size: 2
    stride: 2
  }
}
layer {
  name: "conv3_1"
  type: "Convolution"
  bottom: "pool2"
  top: "conv3_1"
  param {
    lr_mult: 1
  }
  param {
    lr_mult: 2
  }
  convolution_param {
    num_output: 256
    pad: 1
    kernel_size: 3
  }
}
layer {
  name: "relu3_1"
  type: "ReLU"
  bottom: "conv3_1"
  top: "conv3_1"
}
layer {
  name: "conv3_2"
  type: "Convolution"
  bottom: "conv3_1"
  top: "conv3_2"
  param {
    lr_mult: 1
  }
  param {
    lr_mult: 2
  }
  convolution_param {
    num_output: 256
    pad: 1
    kernel_size: 3
  }
}
layer {
  name: "relu3_2"
  type: "ReLU"
  bottom: "conv3_2"
  top: "conv3_2"
}
layer {
  name: "conv3_3"
  type: "Convolution"
  bottom: "conv3_2"
  top: "conv3_3"
  param {
    lr_mult: 1
  }
  param {
    lr_mult: 2
  }
  convolution_param {
    num_output: 256
    pad: 1
    kernel_size: 3
  }
}
layer {
  name: "relu3_3"
  type: "ReLU"
  bottom: "conv3_3"
  top: "conv3_3"
}
layer {
  name: "pool3"
  type: "Pooling"
  bottom: "conv3_3"
  top: "pool3"
  pooling_param {
    pool: MAX
    kernel_size: 2
    stride: 2
  }
}
layer {
  name: "conv4_1"
  type: "Convolution"
  bottom: "pool3"
  top: "conv4_1"
  param {
    lr_mult: 1
  }
  param {
    lr_mult: 2
  }
  convolution_param {
    num_output: 512
    pad: 1
    kernel_size: 3
  }
}
layer {
  name: "relu4_1"
  type: "ReLU"
  bottom: "conv4_1"
  top: "conv4_1"
}
layer {
  name: "conv4_2"
  type: "Convolution"
  bottom: "conv4_1"
  top: "conv4_2"
  param {
    lr_mult: 1
  }
  param {
    lr_mult: 2
  }
  convolution_param {
    num_output: 512
    pad: 1
    kernel_size: 3
  }
}
layer {
  name: "relu4_2"
  type: "ReLU"
  bottom: "conv4_2"
  top: "conv4_2"
}
layer {
  name: "conv4_3"
  type: "Convolution"
  bottom: "conv4_2"
  top: "conv4_3"
  param {
    lr_mult: 1
  }
  param {
    lr_mult: 2
  }
  convolution_param {
    num_output: 512
    pad: 1
    kernel_size: 3
  }
}
layer {
  name: "relu4_3"
  type: "ReLU"
  bottom: "conv4_3"
  top: "conv4_3"
}
layer {
  name: "pool4"
  type: "Pooling"
  bottom: "conv4_3"
  top: "pool4"
  pooling_param {
    pool: MAX
    kernel_size: 2
    stride: 2
  }
}
layer {
  name: "conv5_1"
  type: "Convolution"
  bottom: "pool4"
  top: "conv5_1"
  param {
    lr_mult: 1
  }
  param {
    lr_mult: 2
  }
  convolution_param {
    num_output: 512
    pad: 1
    kernel_size: 3
  }
}
layer {
  name: "relu5_1"
  type: "ReLU"
  bottom: "conv5_1"
  top: "conv5_1"
}
layer {
  name: "conv5_2"
  type: "Convolution"
  bottom: "conv5_1"
  top: "conv5_2"
  param {
    lr_mult: 1
  }
  param {
    lr_mult: 2
  }
  convolution_param {
    num_output: 512
    pad: 1
    kernel_size: 3
  }
}
layer {
  name: "relu5_2"
  type: "ReLU"
  bottom: "conv5_2"
  top: "conv5_2"
}
layer {
  name: "conv5_3"
  type: "Convolution"
  bottom: "conv5_2"
  top: "conv5_3"
  param {
    lr_mult: 1
  }
  param {
    lr_mult: 2
  }
  convolution_param {
    num_output: 512
    pad: 1
    kernel_size: 3
  }
}
layer {
  name: "relu5_3"
  type: "ReLU"
  bottom: "conv5_3"
  top: "conv5_3"
}
layer {
  name: "pool5"
  type: "Pooling"
  bottom: "conv5_3"
  top: "pool5"
  pooling_param {
    pool: MAX
    kernel_size: 2
    stride: 2
  }
}
layer {
  name: "P5"
  type: "Convolution"
  bottom: "pool5"
  top: "P5"
  param {
    lr_mult: 1
  }
  param {
    lr_mult: 2
  }
  convolution_param {
    num_output: 256
    kernel_size: 1
    weight_filler {
      type: "xavier"
    }
    bias_filler {
      type: "constant"
    }
  }
}
layer {
  name: "upP5"
  type: "Deconvolution"
  bottom: "P5"
  top: "upP5"
  param {
    lr_mult: 0
    decay_mult: 0
  }
  convolution_param {
    num_output: 256
    bias_term: false
    pad: 1
    kernel_size: 4
    stride: 2
    weight_filler {
      type: "bilinear"
    }
  }
}
layer {
  name: "newC4"
  type: "Convolution"
  bottom: "conv5_3"
  top: "newC4"
  param {
    lr_mult: 1
  }
  param {
    lr_mult: 2
  }
  convolution_param {
    num_output: 256
    kernel_size: 1
    weight_filler {
      type: "xavier"
    }
    bias_filler {
      type: "constant"
    }
  }
}
layer {
  name: "upP5crop"
  type: "Crop"
  bottom: "upP5"
  bottom: "newC4"
  top: "upP5crop"
  crop_param {
    axis: 2
    offset: 0
  }
}
layer {
  name: "P4"
  type: "Eltwise"
  bottom: "newC4"
  bottom: "upP5crop"
  top: "P4"
  eltwise_param {
    operation: SUM
  }
}
layer {
  name: "newP4"
  type: "Convolution"
  bottom: "P4"
  top: "newP4"
  param {
    lr_mult: 1
  }
  param {
    lr_mult: 2
  }
  convolution_param {
    num_output: 256
    pad: 1
    kernel_size: 3
    weight_filler {
      type: "xavier"
    }
    bias_filler {
      type: "constant"
    }
  }
}
layer {
  name: "rpn_conv/3x3"
  type: "Convolution"
  bottom: "newP4"
  top: "rpn/output"
  param {
    lr_mult: 1
  }
  param {
    lr_mult: 2
  }
  convolution_param {
    num_output: 512
    pad: 1
    kernel_size: 3
    stride: 1
    weight_filler {
      type: "gaussian"
      std: 0.01
    }
    bias_filler {
      type: "constant"
      value: 0
    }
  }
}
layer {
  name: "rpn_relu/3x3"
  type: "ReLU"
  bottom: "rpn/output"
  top: "rpn/output"
}
layer {
  name: "rpn_cls_score"
  type: "Convolution"
  bottom: "rpn/output"
  top: "rpn_cls_score"
  param {
    lr_mult: 1
  }
  param {
    lr_mult: 2
  }
  convolution_param {
    num_output: 18
    pad: 0
    kernel_size: 1
    stride: 1
    weight_filler {
      type: "gaussian"
      std: 0.01
    }
    bias_filler {
      type: "constant"
      value: 0
    }
  }
}
layer {
  name: "rpn_bbox_pred"
  type: "Convolution"
  bottom: "rpn/output"
  top: "rpn_bbox_pred"
  param {
    lr_mult: 1
  }
  param {
    lr_mult: 2
  }
  convolution_param {
    num_output: 36
    pad: 0
    kernel_size: 1
    stride: 1
    weight_filler {
      type: "gaussian"
      std: 0.01
    }
    bias_filler {
      type: "constant"
      value: 0
    }
  }
}
layer {
  name: "rpn_cls_score_reshape"
  type: "Reshape"
  bottom: "rpn_cls_score"
  top: "rpn_cls_score_reshape"
  reshape_param {
    shape {
      dim: 0
      dim: 2
      dim: -1
      dim: 0
    }
  }
}
layer {
  name: "rpn-data"
  type: "Python"
  bottom: "rpn_cls_score"
  bottom: "gt_boxes"
  bottom: "im_info"
  bottom: "data"
  top: "rpn_labels"
  top: "rpn_bbox_targets"
  top: "rpn_bbox_inside_weights"
  top: "rpn_bbox_outside_weights"
  python_param {
    module: "rpn.anchor_target_layer"
    layer: "AnchorTargetLayer"
    param_str: "\'feat_stride\': 4"
  }
}
layer {
  name: "rpn_loss_cls"
  type: "SoftmaxWithLoss"
  bottom: "rpn_cls_score_reshape"
  bottom: "rpn_labels"
  top: "rpn_cls_loss"
  loss_weight: 1
  propagate_down: true
  propagate_down: false
  loss_param {
    ignore_label: -1
    normalize: true
  }
}
layer {
  name: "rpn_loss_bbox"
  type: "SmoothL1Loss"
  bottom: "rpn_bbox_pred"
  bottom: "rpn_bbox_targets"
  bottom: "rpn_bbox_inside_weights"
  bottom: "rpn_bbox_outside_weights"
  top: "rpn_loss_bbox"
  loss_weight: 1
  smooth_l1_loss_param {
    sigma: 3
  }
}
layer {
  name: "rpn_cls_prob"
  type: "Softmax"
  bottom: "rpn_cls_score_reshape"
  top: "rpn_cls_prob"
}
layer {
  name: "rpn_cls_prob_reshape"
  type: "Reshape"
  bottom: "rpn_cls_prob"
  top: "rpn_cls_prob_reshape"
  reshape_param {
    shape {
      dim: 0
      dim: 18
      dim: -1
      dim: 0
    }
  }
}
layer {
  name: "proposal"
  type: "Python"
  bottom: "rpn_cls_prob_reshape"
  bottom: "rpn_bbox_pred"
  bottom: "im_info"
  top: "rpn_rois"
  python_param {
    module: "rpn.proposal_layer"
    layer: "ProposalLayer"
    param_str: "\'feat_stride\': 4"
  }
}
layer {
  name: "roi-data"
  type: "Python"
  bottom: "rpn_rois"
  bottom: "gt_boxes"
  top: "rois"
  top: "labels"
  top: "bbox_targets"
  top: "bbox_inside_weights"
  top: "bbox_outside_weights"
  python_param {
    module: "rpn.proposal_target_layer"
    layer: "ProposalTargetLayer"
    param_str: "\'num_classes\': 21"
  }
}
layer {
  name: "roi_pool5"
  type: "ROIPooling"
  bottom: "newP4"
  bottom: "rois"
  top: "rcnn_pool5"
  roi_pooling_param {
    pooled_h: 7
    pooled_w: 7
    spatial_scale: 0.25
  }
}
layer {
  name: "rcnn_fc6"
  type: "InnerProduct"
  bottom: "rcnn_pool5"
  top: "rcnn_fc6"
  param {
    lr_mult: 1
  }
  param {
    lr_mult: 2
  }
  inner_product_param {
    num_output: 4096
    weight_filler {
      type: "xavier"
    }
    bias_filler {
      type: "constant"
    }
  }
}
layer {
  name: "relu6"
  type: "ReLU"
  bottom: "rcnn_fc6"
  top: "rcnn_fc6"
}
layer {
  name: "drop6"
  type: "Dropout"
  bottom: "rcnn_fc6"
  top: "rcnn_fc6"
  dropout_param {
    dropout_ratio: 0.5
  }
}
layer {
  name: "fc7"
  type: "InnerProduct"
  bottom: "rcnn_fc6"
  top: "fc7"
  param {
    lr_mult: 1
  }
  param {
    lr_mult: 2
  }
  inner_product_param {
    num_output: 4096
    weight_filler {
      type: "xavier"
    }
    bias_filler {
      type: "constant"
    }
  }
}
layer {
  name: "relu7"
  type: "ReLU"
  bottom: "fc7"
  top: "fc7"
}
layer {
  name: "drop7"
  type: "Dropout"
  bottom: "fc7"
  top: "fc7"
  dropout_param {
    dropout_ratio: 0.5
  }
}
layer {
  name: "cls_score"
  type: "InnerProduct"
  bottom: "fc7"
  top: "cls_score"
  param {
    lr_mult: 1
  }
  param {
    lr_mult: 2
  }
  inner_product_param {
    num_output: 21
    weight_filler {
      type: "gaussian"
      std: 0.01
    }
    bias_filler {
      type: "constant"
      value: 0
    }
  }
}
layer {
  name: "bbox_pred"
  type: "InnerProduct"
  bottom: "fc7"
  top: "bbox_pred"
  param {
    lr_mult: 1
  }
  param {
    lr_mult: 2
  }
  inner_product_param {
    num_output: 84
    weight_filler {
      type: "gaussian"
      std: 0.001
    }
    bias_filler {
      type: "constant"
      value: 0
    }
  }
}
layer {
  name: "loss_cls"
  type: "SoftmaxWithLoss"
  bottom: "cls_score"
  bottom: "labels"
  top: "loss_cls"
  loss_weight: 1
  propagate_down: true
  propagate_down: false
}
layer {
  name: "loss_bbox"
  type: "SmoothL1Loss"
  bottom: "bbox_pred"
  bottom: "bbox_targets"
  bottom: "bbox_inside_weights"
  bottom: "bbox_outside_weights"
  top: "loss_bbox"
  loss_weight: 1
}
I0628 20:12:30.390836 40991 layer_factory.hpp:77] Creating layer input-data
I0628 20:12:30.392002 40991 net.cpp:106] Creating Layer input-data
I0628 20:12:30.392029 40991 net.cpp:411] input-data -> data
I0628 20:12:30.392046 40991 net.cpp:411] input-data -> im_info
I0628 20:12:30.392053 40991 net.cpp:411] input-data -> gt_boxes
RoiDataLayer: name_to_top: {'gt_boxes': 2, 'data': 0, 'im_info': 1}
I0628 20:12:30.546684 40991 net.cpp:150] Setting up input-data
I0628 20:12:30.546749 40991 net.cpp:157] Top shape: 1 3 600 1000 (1800000)
I0628 20:12:30.546767 40991 net.cpp:157] Top shape: 1 3 (3)
I0628 20:12:30.546804 40991 net.cpp:157] Top shape: 1 4 (4)
I0628 20:12:30.546818 40991 net.cpp:165] Memory required for data: 7200028
I0628 20:12:30.546836 40991 layer_factory.hpp:77] Creating layer data_input-data_0_split
I0628 20:12:30.546864 40991 net.cpp:106] Creating Layer data_input-data_0_split
I0628 20:12:30.546882 40991 net.cpp:454] data_input-data_0_split <- data
I0628 20:12:30.546916 40991 net.cpp:411] data_input-data_0_split -> data_input-data_0_split_0
I0628 20:12:30.546937 40991 net.cpp:411] data_input-data_0_split -> data_input-data_0_split_1
I0628 20:12:30.547024 40991 net.cpp:150] Setting up data_input-data_0_split
I0628 20:12:30.547040 40991 net.cpp:157] Top shape: 1 3 600 1000 (1800000)
I0628 20:12:30.547045 40991 net.cpp:157] Top shape: 1 3 600 1000 (1800000)
I0628 20:12:30.547049 40991 net.cpp:165] Memory required for data: 21600028
I0628 20:12:30.547052 40991 layer_factory.hpp:77] Creating layer im_info_input-data_1_split
I0628 20:12:30.547058 40991 net.cpp:106] Creating Layer im_info_input-data_1_split
I0628 20:12:30.547076 40991 net.cpp:454] im_info_input-data_1_split <- im_info
I0628 20:12:30.547096 40991 net.cpp:411] im_info_input-data_1_split -> im_info_input-data_1_split_0
I0628 20:12:30.547111 40991 net.cpp:411] im_info_input-data_1_split -> im_info_input-data_1_split_1
I0628 20:12:30.547179 40991 net.cpp:150] Setting up im_info_input-data_1_split
I0628 20:12:30.547194 40991 net.cpp:157] Top shape: 1 3 (3)
I0628 20:12:30.547197 40991 net.cpp:157] Top shape: 1 3 (3)
I0628 20:12:30.547200 40991 net.cpp:165] Memory required for data: 21600052
I0628 20:12:30.547204 40991 layer_factory.hpp:77] Creating layer gt_boxes_input-data_2_split
I0628 20:12:30.547209 40991 net.cpp:106] Creating Layer gt_boxes_input-data_2_split
I0628 20:12:30.547227 40991 net.cpp:454] gt_boxes_input-data_2_split <- gt_boxes
I0628 20:12:30.547241 40991 net.cpp:411] gt_boxes_input-data_2_split -> gt_boxes_input-data_2_split_0
I0628 20:12:30.547266 40991 net.cpp:411] gt_boxes_input-data_2_split -> gt_boxes_input-data_2_split_1
I0628 20:12:30.547339 40991 net.cpp:150] Setting up gt_boxes_input-data_2_split
I0628 20:12:30.547351 40991 net.cpp:157] Top shape: 1 4 (4)
I0628 20:12:30.547356 40991 net.cpp:157] Top shape: 1 4 (4)
I0628 20:12:30.547358 40991 net.cpp:165] Memory required for data: 21600084
I0628 20:12:30.547363 40991 layer_factory.hpp:77] Creating layer conv1_1
I0628 20:12:30.547399 40991 net.cpp:106] Creating Layer conv1_1
I0628 20:12:30.547413 40991 net.cpp:454] conv1_1 <- data_input-data_0_split_0
I0628 20:12:30.547441 40991 net.cpp:411] conv1_1 -> conv1_1
I0628 20:12:31.184692 40991 net.cpp:150] Setting up conv1_1
I0628 20:12:31.184741 40991 net.cpp:157] Top shape: 1 64 600 1000 (38400000)
I0628 20:12:31.184746 40991 net.cpp:165] Memory required for data: 175200084
I0628 20:12:31.184767 40991 layer_factory.hpp:77] Creating layer relu1_1
I0628 20:12:31.184782 40991 net.cpp:106] Creating Layer relu1_1
I0628 20:12:31.184816 40991 net.cpp:454] relu1_1 <- conv1_1
I0628 20:12:31.184835 40991 net.cpp:397] relu1_1 -> conv1_1 (in-place)
I0628 20:12:31.185716 40991 net.cpp:150] Setting up relu1_1
I0628 20:12:31.185739 40991 net.cpp:157] Top shape: 1 64 600 1000 (38400000)
I0628 20:12:31.185742 40991 net.cpp:165] Memory required for data: 328800084
I0628 20:12:31.185746 40991 layer_factory.hpp:77] Creating layer conv1_2
I0628 20:12:31.185758 40991 net.cpp:106] Creating Layer conv1_2
I0628 20:12:31.185761 40991 net.cpp:454] conv1_2 <- conv1_1
I0628 20:12:31.185767 40991 net.cpp:411] conv1_2 -> conv1_2
I0628 20:12:31.193786 40991 net.cpp:150] Setting up conv1_2
I0628 20:12:31.193806 40991 net.cpp:157] Top shape: 1 64 600 1000 (38400000)
I0628 20:12:31.193811 40991 net.cpp:165] Memory required for data: 482400084
I0628 20:12:31.193821 40991 layer_factory.hpp:77] Creating layer relu1_2
I0628 20:12:31.193851 40991 net.cpp:106] Creating Layer relu1_2
I0628 20:12:31.193867 40991 net.cpp:454] relu1_2 <- conv1_2
I0628 20:12:31.193883 40991 net.cpp:397] relu1_2 -> conv1_2 (in-place)
I0628 20:12:31.194078 40991 net.cpp:150] Setting up relu1_2
I0628 20:12:31.194097 40991 net.cpp:157] Top shape: 1 64 600 1000 (38400000)
I0628 20:12:31.194100 40991 net.cpp:165] Memory required for data: 636000084
I0628 20:12:31.194104 40991 layer_factory.hpp:77] Creating layer pool1
I0628 20:12:31.194119 40991 net.cpp:106] Creating Layer pool1
I0628 20:12:31.194141 40991 net.cpp:454] pool1 <- conv1_2
I0628 20:12:31.194159 40991 net.cpp:411] pool1 -> pool1
I0628 20:12:31.194243 40991 net.cpp:150] Setting up pool1
I0628 20:12:31.194258 40991 net.cpp:157] Top shape: 1 64 300 500 (9600000)
I0628 20:12:31.194262 40991 net.cpp:165] Memory required for data: 674400084
I0628 20:12:31.194267 40991 layer_factory.hpp:77] Creating layer conv2_1
I0628 20:12:31.194274 40991 net.cpp:106] Creating Layer conv2_1
I0628 20:12:31.194293 40991 net.cpp:454] conv2_1 <- pool1
I0628 20:12:31.194309 40991 net.cpp:411] conv2_1 -> conv2_1
I0628 20:12:31.201752 40991 net.cpp:150] Setting up conv2_1
I0628 20:12:31.201778 40991 net.cpp:157] Top shape: 1 128 300 500 (19200000)
I0628 20:12:31.201783 40991 net.cpp:165] Memory required for data: 751200084
I0628 20:12:31.201794 40991 layer_factory.hpp:77] Creating layer relu2_1
I0628 20:12:31.201824 40991 net.cpp:106] Creating Layer relu2_1
I0628 20:12:31.201849 40991 net.cpp:454] relu2_1 <- conv2_1
I0628 20:12:31.201872 40991 net.cpp:397] relu2_1 -> conv2_1 (in-place)
I0628 20:12:31.203189 40991 net.cpp:150] Setting up relu2_1
I0628 20:12:31.203207 40991 net.cpp:157] Top shape: 1 128 300 500 (19200000)
I0628 20:12:31.203212 40991 net.cpp:165] Memory required for data: 828000084
I0628 20:12:31.203215 40991 layer_factory.hpp:77] Creating layer conv2_2
I0628 20:12:31.203225 40991 net.cpp:106] Creating Layer conv2_2
I0628 20:12:31.203248 40991 net.cpp:454] conv2_2 <- conv2_1
I0628 20:12:31.203265 40991 net.cpp:411] conv2_2 -> conv2_2
I0628 20:12:31.208389 40991 net.cpp:150] Setting up conv2_2
I0628 20:12:31.208413 40991 net.cpp:157] Top shape: 1 128 300 500 (19200000)
I0628 20:12:31.208418 40991 net.cpp:165] Memory required for data: 904800084
I0628 20:12:31.208425 40991 layer_factory.hpp:77] Creating layer relu2_2
I0628 20:12:31.208456 40991 net.cpp:106] Creating Layer relu2_2
I0628 20:12:31.208489 40991 net.cpp:454] relu2_2 <- conv2_2
I0628 20:12:31.208506 40991 net.cpp:397] relu2_2 -> conv2_2 (in-place)
I0628 20:12:31.209372 40991 net.cpp:150] Setting up relu2_2
I0628 20:12:31.209393 40991 net.cpp:157] Top shape: 1 128 300 500 (19200000)
I0628 20:12:31.209398 40991 net.cpp:165] Memory required for data: 981600084
I0628 20:12:31.209401 40991 layer_factory.hpp:77] Creating layer pool2
I0628 20:12:31.209427 40991 net.cpp:106] Creating Layer pool2
I0628 20:12:31.209442 40991 net.cpp:454] pool2 <- conv2_2
I0628 20:12:31.209465 40991 net.cpp:411] pool2 -> pool2
I0628 20:12:31.209552 40991 net.cpp:150] Setting up pool2
I0628 20:12:31.209568 40991 net.cpp:157] Top shape: 1 128 150 250 (4800000)
I0628 20:12:31.209570 40991 net.cpp:165] Memory required for data: 1000800084
I0628 20:12:31.209574 40991 layer_factory.hpp:77] Creating layer conv3_1
I0628 20:12:31.209583 40991 net.cpp:106] Creating Layer conv3_1
I0628 20:12:31.209601 40991 net.cpp:454] conv3_1 <- pool2
I0628 20:12:31.209616 40991 net.cpp:411] conv3_1 -> conv3_1
I0628 20:12:31.217813 40991 net.cpp:150] Setting up conv3_1
I0628 20:12:31.217838 40991 net.cpp:157] Top shape: 1 256 150 250 (9600000)
I0628 20:12:31.217841 40991 net.cpp:165] Memory required for data: 1039200084
I0628 20:12:31.217851 40991 layer_factory.hpp:77] Creating layer relu3_1
I0628 20:12:31.217881 40991 net.cpp:106] Creating Layer relu3_1
I0628 20:12:31.217900 40991 net.cpp:454] relu3_1 <- conv3_1
I0628 20:12:31.217918 40991 net.cpp:397] relu3_1 -> conv3_1 (in-place)
I0628 20:12:31.218308 40991 net.cpp:150] Setting up relu3_1
I0628 20:12:31.218327 40991 net.cpp:157] Top shape: 1 256 150 250 (9600000)
I0628 20:12:31.218330 40991 net.cpp:165] Memory required for data: 1077600084
I0628 20:12:31.218334 40991 layer_factory.hpp:77] Creating layer conv3_2
I0628 20:12:31.218372 40991 net.cpp:106] Creating Layer conv3_2
I0628 20:12:31.218387 40991 net.cpp:454] conv3_2 <- conv3_1
I0628 20:12:31.218394 40991 net.cpp:411] conv3_2 -> conv3_2
I0628 20:12:31.226156 40991 net.cpp:150] Setting up conv3_2
I0628 20:12:31.226179 40991 net.cpp:157] Top shape: 1 256 150 250 (9600000)
I0628 20:12:31.226184 40991 net.cpp:165] Memory required for data: 1116000084
I0628 20:12:31.226191 40991 layer_factory.hpp:77] Creating layer relu3_2
I0628 20:12:31.226222 40991 net.cpp:106] Creating Layer relu3_2
I0628 20:12:31.226238 40991 net.cpp:454] relu3_2 <- conv3_2
I0628 20:12:31.226255 40991 net.cpp:397] relu3_2 -> conv3_2 (in-place)
I0628 20:12:31.226691 40991 net.cpp:150] Setting up relu3_2
I0628 20:12:31.226708 40991 net.cpp:157] Top shape: 1 256 150 250 (9600000)
I0628 20:12:31.226711 40991 net.cpp:165] Memory required for data: 1154400084
I0628 20:12:31.226716 40991 layer_factory.hpp:77] Creating layer conv3_3
I0628 20:12:31.226727 40991 net.cpp:106] Creating Layer conv3_3
I0628 20:12:31.226749 40991 net.cpp:454] conv3_3 <- conv3_2
I0628 20:12:31.226769 40991 net.cpp:411] conv3_3 -> conv3_3
I0628 20:12:31.238299 40991 net.cpp:150] Setting up conv3_3
I0628 20:12:31.238322 40991 net.cpp:157] Top shape: 1 256 150 250 (9600000)
I0628 20:12:31.238327 40991 net.cpp:165] Memory required for data: 1192800084
I0628 20:12:31.238337 40991 layer_factory.hpp:77] Creating layer relu3_3
I0628 20:12:31.238365 40991 net.cpp:106] Creating Layer relu3_3
I0628 20:12:31.238381 40991 net.cpp:454] relu3_3 <- conv3_3
I0628 20:12:31.238397 40991 net.cpp:397] relu3_3 -> conv3_3 (in-place)
I0628 20:12:31.239490 40991 net.cpp:150] Setting up relu3_3
I0628 20:12:31.239511 40991 net.cpp:157] Top shape: 1 256 150 250 (9600000)
I0628 20:12:31.239516 40991 net.cpp:165] Memory required for data: 1231200084
I0628 20:12:31.239519 40991 layer_factory.hpp:77] Creating layer pool3
I0628 20:12:31.239526 40991 net.cpp:106] Creating Layer pool3
I0628 20:12:31.239550 40991 net.cpp:454] pool3 <- conv3_3
I0628 20:12:31.239570 40991 net.cpp:411] pool3 -> pool3
I0628 20:12:31.239661 40991 net.cpp:150] Setting up pool3
I0628 20:12:31.239677 40991 net.cpp:157] Top shape: 1 256 75 125 (2400000)
I0628 20:12:31.239681 40991 net.cpp:165] Memory required for data: 1240800084
I0628 20:12:31.239684 40991 layer_factory.hpp:77] Creating layer conv4_1
I0628 20:12:31.239698 40991 net.cpp:106] Creating Layer conv4_1
I0628 20:12:31.239717 40991 net.cpp:454] conv4_1 <- pool3
I0628 20:12:31.239737 40991 net.cpp:411] conv4_1 -> conv4_1
I0628 20:12:31.248752 40991 net.cpp:150] Setting up conv4_1
I0628 20:12:31.248777 40991 net.cpp:157] Top shape: 1 512 75 125 (4800000)
I0628 20:12:31.248782 40991 net.cpp:165] Memory required for data: 1260000084
I0628 20:12:31.248790 40991 layer_factory.hpp:77] Creating layer relu4_1
I0628 20:12:31.248818 40991 net.cpp:106] Creating Layer relu4_1
I0628 20:12:31.248843 40991 net.cpp:454] relu4_1 <- conv4_1
I0628 20:12:31.248870 40991 net.cpp:397] relu4_1 -> conv4_1 (in-place)
I0628 20:12:31.249778 40991 net.cpp:150] Setting up relu4_1
I0628 20:12:31.249799 40991 net.cpp:157] Top shape: 1 512 75 125 (4800000)
I0628 20:12:31.249802 40991 net.cpp:165] Memory required for data: 1279200084
I0628 20:12:31.249806 40991 layer_factory.hpp:77] Creating layer conv4_2
I0628 20:12:31.249817 40991 net.cpp:106] Creating Layer conv4_2
I0628 20:12:31.249821 40991 net.cpp:454] conv4_2 <- conv4_1
I0628 20:12:31.249830 40991 net.cpp:411] conv4_2 -> conv4_2
I0628 20:12:31.262037 40991 net.cpp:150] Setting up conv4_2
I0628 20:12:31.262061 40991 net.cpp:157] Top shape: 1 512 75 125 (4800000)
I0628 20:12:31.262065 40991 net.cpp:165] Memory required for data: 1298400084
I0628 20:12:31.262079 40991 layer_factory.hpp:77] Creating layer relu4_2
I0628 20:12:31.262109 40991 net.cpp:106] Creating Layer relu4_2
I0628 20:12:31.262138 40991 net.cpp:454] relu4_2 <- conv4_2
I0628 20:12:31.262156 40991 net.cpp:397] relu4_2 -> conv4_2 (in-place)
I0628 20:12:31.263449 40991 net.cpp:150] Setting up relu4_2
I0628 20:12:31.263470 40991 net.cpp:157] Top shape: 1 512 75 125 (4800000)
I0628 20:12:31.263474 40991 net.cpp:165] Memory required for data: 1317600084
I0628 20:12:31.263478 40991 layer_factory.hpp:77] Creating layer conv4_3
I0628 20:12:31.263504 40991 net.cpp:106] Creating Layer conv4_3
I0628 20:12:31.263520 40991 net.cpp:454] conv4_3 <- conv4_2
I0628 20:12:31.263540 40991 net.cpp:411] conv4_3 -> conv4_3
I0628 20:12:31.274111 40991 net.cpp:150] Setting up conv4_3
I0628 20:12:31.274133 40991 net.cpp:157] Top shape: 1 512 75 125 (4800000)
I0628 20:12:31.274137 40991 net.cpp:165] Memory required for data: 1336800084
I0628 20:12:31.274144 40991 layer_factory.hpp:77] Creating layer relu4_3
I0628 20:12:31.274178 40991 net.cpp:106] Creating Layer relu4_3
I0628 20:12:31.274190 40991 net.cpp:454] relu4_3 <- conv4_3
I0628 20:12:31.274196 40991 net.cpp:397] relu4_3 -> conv4_3 (in-place)
I0628 20:12:31.277333 40991 net.cpp:150] Setting up relu4_3
I0628 20:12:31.277354 40991 net.cpp:157] Top shape: 1 512 75 125 (4800000)
I0628 20:12:31.277359 40991 net.cpp:165] Memory required for data: 1356000084
I0628 20:12:31.277384 40991 layer_factory.hpp:77] Creating layer pool4
I0628 20:12:31.277400 40991 net.cpp:106] Creating Layer pool4
I0628 20:12:31.277417 40991 net.cpp:454] pool4 <- conv4_3
I0628 20:12:31.277429 40991 net.cpp:411] pool4 -> pool4
I0628 20:12:31.277511 40991 net.cpp:150] Setting up pool4
I0628 20:12:31.277525 40991 net.cpp:157] Top shape: 1 512 38 63 (1225728)
I0628 20:12:31.277529 40991 net.cpp:165] Memory required for data: 1360902996
I0628 20:12:31.277532 40991 layer_factory.hpp:77] Creating layer conv5_1
I0628 20:12:31.277560 40991 net.cpp:106] Creating Layer conv5_1
I0628 20:12:31.277570 40991 net.cpp:454] conv5_1 <- pool4
I0628 20:12:31.277578 40991 net.cpp:411] conv5_1 -> conv5_1
I0628 20:12:31.287952 40991 net.cpp:150] Setting up conv5_1
I0628 20:12:31.287976 40991 net.cpp:157] Top shape: 1 512 38 63 (1225728)
I0628 20:12:31.287981 40991 net.cpp:165] Memory required for data: 1365805908
I0628 20:12:31.288012 40991 layer_factory.hpp:77] Creating layer relu5_1
I0628 20:12:31.288025 40991 net.cpp:106] Creating Layer relu5_1
I0628 20:12:31.288030 40991 net.cpp:454] relu5_1 <- conv5_1
I0628 20:12:31.288035 40991 net.cpp:397] relu5_1 -> conv5_1 (in-place)
I0628 20:12:31.291172 40991 net.cpp:150] Setting up relu5_1
I0628 20:12:31.291190 40991 net.cpp:157] Top shape: 1 512 38 63 (1225728)
I0628 20:12:31.291194 40991 net.cpp:165] Memory required for data: 1370708820
I0628 20:12:31.291198 40991 layer_factory.hpp:77] Creating layer conv5_2
I0628 20:12:31.291229 40991 net.cpp:106] Creating Layer conv5_2
I0628 20:12:31.291239 40991 net.cpp:454] conv5_2 <- conv5_1
I0628 20:12:31.291249 40991 net.cpp:411] conv5_2 -> conv5_2
I0628 20:12:31.304122 40991 net.cpp:150] Setting up conv5_2
I0628 20:12:31.304147 40991 net.cpp:157] Top shape: 1 512 38 63 (1225728)
I0628 20:12:31.304152 40991 net.cpp:165] Memory required for data: 1375611732
I0628 20:12:31.304158 40991 layer_factory.hpp:77] Creating layer relu5_2
I0628 20:12:31.304191 40991 net.cpp:106] Creating Layer relu5_2
I0628 20:12:31.304203 40991 net.cpp:454] relu5_2 <- conv5_2
I0628 20:12:31.304209 40991 net.cpp:397] relu5_2 -> conv5_2 (in-place)
I0628 20:12:31.306304 40991 net.cpp:150] Setting up relu5_2
I0628 20:12:31.306325 40991 net.cpp:157] Top shape: 1 512 38 63 (1225728)
I0628 20:12:31.306370 40991 net.cpp:165] Memory required for data: 1380514644
I0628 20:12:31.306381 40991 layer_factory.hpp:77] Creating layer conv5_3
I0628 20:12:31.306399 40991 net.cpp:106] Creating Layer conv5_3
I0628 20:12:31.306411 40991 net.cpp:454] conv5_3 <- conv5_2
I0628 20:12:31.306421 40991 net.cpp:411] conv5_3 -> conv5_3
I0628 20:12:31.318626 40991 net.cpp:150] Setting up conv5_3
I0628 20:12:31.318652 40991 net.cpp:157] Top shape: 1 512 38 63 (1225728)
I0628 20:12:31.318656 40991 net.cpp:165] Memory required for data: 1385417556
I0628 20:12:31.318665 40991 layer_factory.hpp:77] Creating layer relu5_3
I0628 20:12:31.318694 40991 net.cpp:106] Creating Layer relu5_3
I0628 20:12:31.318706 40991 net.cpp:454] relu5_3 <- conv5_3
I0628 20:12:31.318712 40991 net.cpp:397] relu5_3 -> conv5_3 (in-place)
I0628 20:12:31.320979 40991 net.cpp:150] Setting up relu5_3
I0628 20:12:31.321002 40991 net.cpp:157] Top shape: 1 512 38 63 (1225728)
I0628 20:12:31.321005 40991 net.cpp:165] Memory required for data: 1390320468
I0628 20:12:31.321028 40991 layer_factory.hpp:77] Creating layer conv5_3_relu5_3_0_split
I0628 20:12:31.321043 40991 net.cpp:106] Creating Layer conv5_3_relu5_3_0_split
I0628 20:12:31.321046 40991 net.cpp:454] conv5_3_relu5_3_0_split <- conv5_3
I0628 20:12:31.321054 40991 net.cpp:411] conv5_3_relu5_3_0_split -> conv5_3_relu5_3_0_split_0
I0628 20:12:31.321076 40991 net.cpp:411] conv5_3_relu5_3_0_split -> conv5_3_relu5_3_0_split_1
I0628 20:12:31.321164 40991 net.cpp:150] Setting up conv5_3_relu5_3_0_split
I0628 20:12:31.321178 40991 net.cpp:157] Top shape: 1 512 38 63 (1225728)
I0628 20:12:31.321182 40991 net.cpp:157] Top shape: 1 512 38 63 (1225728)
I0628 20:12:31.321185 40991 net.cpp:165] Memory required for data: 1400126292
I0628 20:12:31.321205 40991 layer_factory.hpp:77] Creating layer pool5
I0628 20:12:31.321218 40991 net.cpp:106] Creating Layer pool5
I0628 20:12:31.321221 40991 net.cpp:454] pool5 <- conv5_3_relu5_3_0_split_0
I0628 20:12:31.321229 40991 net.cpp:411] pool5 -> pool5
I0628 20:12:31.321317 40991 net.cpp:150] Setting up pool5
I0628 20:12:31.321332 40991 net.cpp:157] Top shape: 1 512 19 32 (311296)
I0628 20:12:31.321336 40991 net.cpp:165] Memory required for data: 1401371476
I0628 20:12:31.321339 40991 layer_factory.hpp:77] Creating layer P5
I0628 20:12:31.321368 40991 net.cpp:106] Creating Layer P5
I0628 20:12:31.321378 40991 net.cpp:454] P5 <- pool5
I0628 20:12:31.321385 40991 net.cpp:411] P5 -> P5
I0628 20:12:31.329715 40991 net.cpp:150] Setting up P5
I0628 20:12:31.329738 40991 net.cpp:157] Top shape: 1 256 19 32 (155648)
I0628 20:12:31.329742 40991 net.cpp:165] Memory required for data: 1401994068
I0628 20:12:31.329749 40991 layer_factory.hpp:77] Creating layer upP5
I0628 20:12:31.329790 40991 net.cpp:106] Creating Layer upP5
I0628 20:12:31.329802 40991 net.cpp:454] upP5 <- P5
I0628 20:12:31.329808 40991 net.cpp:411] upP5 -> upP5
I0628 20:12:31.356585 40991 net.cpp:150] Setting up upP5
I0628 20:12:31.356607 40991 net.cpp:157] Top shape: 1 256 38 64 (622592)
I0628 20:12:31.356611 40991 net.cpp:165] Memory required for data: 1404484436
I0628 20:12:31.356617 40991 layer_factory.hpp:77] Creating layer newC4
I0628 20:12:31.356628 40991 net.cpp:106] Creating Layer newC4
I0628 20:12:31.356657 40991 net.cpp:454] newC4 <- conv5_3_relu5_3_0_split_1
I0628 20:12:31.356673 40991 net.cpp:411] newC4 -> newC4
I0628 20:12:31.363309 40991 net.cpp:150] Setting up newC4
I0628 20:12:31.363332 40991 net.cpp:157] Top shape: 1 256 38 63 (612864)
I0628 20:12:31.363337 40991 net.cpp:165] Memory required for data: 1406935892
I0628 20:12:31.363366 40991 layer_factory.hpp:77] Creating layer newC4_newC4_0_split
I0628 20:12:31.363384 40991 net.cpp:106] Creating Layer newC4_newC4_0_split
I0628 20:12:31.363402 40991 net.cpp:454] newC4_newC4_0_split <- newC4
I0628 20:12:31.363415 40991 net.cpp:411] newC4_newC4_0_split -> newC4_newC4_0_split_0
I0628 20:12:31.363426 40991 net.cpp:411] newC4_newC4_0_split -> newC4_newC4_0_split_1
I0628 20:12:31.363519 40991 net.cpp:150] Setting up newC4_newC4_0_split
I0628 20:12:31.363538 40991 net.cpp:157] Top shape: 1 256 38 63 (612864)
I0628 20:12:31.363543 40991 net.cpp:157] Top shape: 1 256 38 63 (612864)
I0628 20:12:31.363544 40991 net.cpp:165] Memory required for data: 1411838804
I0628 20:12:31.363548 40991 layer_factory.hpp:77] Creating layer upP5crop
I0628 20:12:31.363559 40991 net.cpp:106] Creating Layer upP5crop
I0628 20:12:31.363579 40991 net.cpp:454] upP5crop <- upP5
I0628 20:12:31.363590 40991 net.cpp:454] upP5crop <- newC4_newC4_0_split_0
I0628 20:12:31.363596 40991 net.cpp:411] upP5crop -> upP5crop
I0628 20:12:31.363777 40991 net.cpp:150] Setting up upP5crop
I0628 20:12:31.363790 40991 net.cpp:157] Top shape: 1 256 38 63 (612864)
I0628 20:12:31.363795 40991 net.cpp:165] Memory required for data: 1414290260
I0628 20:12:31.363797 40991 layer_factory.hpp:77] Creating layer P4
I0628 20:12:31.363826 40991 net.cpp:106] Creating Layer P4
I0628 20:12:31.363837 40991 net.cpp:454] P4 <- newC4_newC4_0_split_1
I0628 20:12:31.363842 40991 net.cpp:454] P4 <- upP5crop
I0628 20:12:31.363849 40991 net.cpp:411] P4 -> P4
I0628 20:12:31.363912 40991 net.cpp:150] Setting up P4
I0628 20:12:31.363926 40991 net.cpp:157] Top shape: 1 256 38 63 (612864)
I0628 20:12:31.363929 40991 net.cpp:165] Memory required for data: 1416741716
I0628 20:12:31.363934 40991 layer_factory.hpp:77] Creating layer newP4
I0628 20:12:31.363941 40991 net.cpp:106] Creating Layer newP4
I0628 20:12:31.363950 40991 net.cpp:454] newP4 <- P4
I0628 20:12:31.363960 40991 net.cpp:411] newP4 -> newP4
I0628 20:12:31.374233 40991 net.cpp:150] Setting up newP4
I0628 20:12:31.374255 40991 net.cpp:157] Top shape: 1 256 38 63 (612864)
I0628 20:12:31.374259 40991 net.cpp:165] Memory required for data: 1419193172
I0628 20:12:31.374302 40991 layer_factory.hpp:77] Creating layer newP4_newP4_0_split
I0628 20:12:31.374317 40991 net.cpp:106] Creating Layer newP4_newP4_0_split
I0628 20:12:31.374321 40991 net.cpp:454] newP4_newP4_0_split <- newP4
I0628 20:12:31.374343 40991 net.cpp:411] newP4_newP4_0_split -> newP4_newP4_0_split_0
I0628 20:12:31.374356 40991 net.cpp:411] newP4_newP4_0_split -> newP4_newP4_0_split_1
I0628 20:12:31.374439 40991 net.cpp:150] Setting up newP4_newP4_0_split
I0628 20:12:31.374471 40991 net.cpp:157] Top shape: 1 256 38 63 (612864)
I0628 20:12:31.374482 40991 net.cpp:157] Top shape: 1 256 38 63 (612864)
I0628 20:12:31.374485 40991 net.cpp:165] Memory required for data: 1424096084
I0628 20:12:31.374490 40991 layer_factory.hpp:77] Creating layer rpn_conv/3x3
I0628 20:12:31.374500 40991 net.cpp:106] Creating Layer rpn_conv/3x3
I0628 20:12:31.374518 40991 net.cpp:454] rpn_conv/3x3 <- newP4_newP4_0_split_0
I0628 20:12:31.374531 40991 net.cpp:411] rpn_conv/3x3 -> rpn/output
I0628 20:12:31.410938 40991 net.cpp:150] Setting up rpn_conv/3x3
I0628 20:12:31.410990 40991 net.cpp:157] Top shape: 1 512 38 63 (1225728)
I0628 20:12:31.410995 40991 net.cpp:165] Memory required for data: 1428998996
I0628 20:12:31.411006 40991 layer_factory.hpp:77] Creating layer rpn_relu/3x3
I0628 20:12:31.411020 40991 net.cpp:106] Creating Layer rpn_relu/3x3
I0628 20:12:31.411062 40991 net.cpp:454] rpn_relu/3x3 <- rpn/output
I0628 20:12:31.411077 40991 net.cpp:397] rpn_relu/3x3 -> rpn/output (in-place)
I0628 20:12:31.412488 40991 net.cpp:150] Setting up rpn_relu/3x3
I0628 20:12:31.412508 40991 net.cpp:157] Top shape: 1 512 38 63 (1225728)
I0628 20:12:31.412533 40991 net.cpp:165] Memory required for data: 1433901908
I0628 20:12:31.412544 40991 layer_factory.hpp:77] Creating layer rpn/output_rpn_relu/3x3_0_split
I0628 20:12:31.412551 40991 net.cpp:106] Creating Layer rpn/output_rpn_relu/3x3_0_split
I0628 20:12:31.412569 40991 net.cpp:454] rpn/output_rpn_relu/3x3_0_split <- rpn/output
I0628 20:12:31.412583 40991 net.cpp:411] rpn/output_rpn_relu/3x3_0_split -> rpn/output_rpn_relu/3x3_0_split_0
I0628 20:12:31.412605 40991 net.cpp:411] rpn/output_rpn_relu/3x3_0_split -> rpn/output_rpn_relu/3x3_0_split_1
I0628 20:12:31.412698 40991 net.cpp:150] Setting up rpn/output_rpn_relu/3x3_0_split
I0628 20:12:31.412711 40991 net.cpp:157] Top shape: 1 512 38 63 (1225728)
I0628 20:12:31.412715 40991 net.cpp:157] Top shape: 1 512 38 63 (1225728)
I0628 20:12:31.412719 40991 net.cpp:165] Memory required for data: 1443707732
I0628 20:12:31.412722 40991 layer_factory.hpp:77] Creating layer rpn_cls_score
I0628 20:12:31.412736 40991 net.cpp:106] Creating Layer rpn_cls_score
I0628 20:12:31.412740 40991 net.cpp:454] rpn_cls_score <- rpn/output_rpn_relu/3x3_0_split_0
I0628 20:12:31.412750 40991 net.cpp:411] rpn_cls_score -> rpn_cls_score
I0628 20:12:31.419993 40991 net.cpp:150] Setting up rpn_cls_score
I0628 20:12:31.420019 40991 net.cpp:157] Top shape: 1 18 38 63 (43092)
I0628 20:12:31.420023 40991 net.cpp:165] Memory required for data: 1443880100
I0628 20:12:31.420032 40991 layer_factory.hpp:77] Creating layer rpn_cls_score_rpn_cls_score_0_split
I0628 20:12:31.420037 40991 net.cpp:106] Creating Layer rpn_cls_score_rpn_cls_score_0_split
I0628 20:12:31.420042 40991 net.cpp:454] rpn_cls_score_rpn_cls_score_0_split <- rpn_cls_score
I0628 20:12:31.420047 40991 net.cpp:411] rpn_cls_score_rpn_cls_score_0_split -> rpn_cls_score_rpn_cls_score_0_split_0
I0628 20:12:31.420078 40991 net.cpp:411] rpn_cls_score_rpn_cls_score_0_split -> rpn_cls_score_rpn_cls_score_0_split_1
I0628 20:12:31.420166 40991 net.cpp:150] Setting up rpn_cls_score_rpn_cls_score_0_split
I0628 20:12:31.420179 40991 net.cpp:157] Top shape: 1 18 38 63 (43092)
I0628 20:12:31.420184 40991 net.cpp:157] Top shape: 1 18 38 63 (43092)
I0628 20:12:31.420187 40991 net.cpp:165] Memory required for data: 1444224836
I0628 20:12:31.420191 40991 layer_factory.hpp:77] Creating layer rpn_bbox_pred
I0628 20:12:31.420222 40991 net.cpp:106] Creating Layer rpn_bbox_pred
I0628 20:12:31.420233 40991 net.cpp:454] rpn_bbox_pred <- rpn/output_rpn_relu/3x3_0_split_1
I0628 20:12:31.420241 40991 net.cpp:411] rpn_bbox_pred -> rpn_bbox_pred
I0628 20:12:31.426996 40991 net.cpp:150] Setting up rpn_bbox_pred
I0628 20:12:31.427019 40991 net.cpp:157] Top shape: 1 36 38 63 (86184)
I0628 20:12:31.427023 40991 net.cpp:165] Memory required for data: 1444569572
I0628 20:12:31.427031 40991 layer_factory.hpp:77] Creating layer rpn_bbox_pred_rpn_bbox_pred_0_split
I0628 20:12:31.427059 40991 net.cpp:106] Creating Layer rpn_bbox_pred_rpn_bbox_pred_0_split
I0628 20:12:31.427070 40991 net.cpp:454] rpn_bbox_pred_rpn_bbox_pred_0_split <- rpn_bbox_pred
I0628 20:12:31.427080 40991 net.cpp:411] rpn_bbox_pred_rpn_bbox_pred_0_split -> rpn_bbox_pred_rpn_bbox_pred_0_split_0
I0628 20:12:31.427101 40991 net.cpp:411] rpn_bbox_pred_rpn_bbox_pred_0_split -> rpn_bbox_pred_rpn_bbox_pred_0_split_1
I0628 20:12:31.427191 40991 net.cpp:150] Setting up rpn_bbox_pred_rpn_bbox_pred_0_split
I0628 20:12:31.427204 40991 net.cpp:157] Top shape: 1 36 38 63 (86184)
I0628 20:12:31.427208 40991 net.cpp:157] Top shape: 1 36 38 63 (86184)
I0628 20:12:31.427211 40991 net.cpp:165] Memory required for data: 1445259044
I0628 20:12:31.427232 40991 layer_factory.hpp:77] Creating layer rpn_cls_score_reshape
I0628 20:12:31.427250 40991 net.cpp:106] Creating Layer rpn_cls_score_reshape
I0628 20:12:31.427268 40991 net.cpp:454] rpn_cls_score_reshape <- rpn_cls_score_rpn_cls_score_0_split_0
I0628 20:12:31.427283 40991 net.cpp:411] rpn_cls_score_reshape -> rpn_cls_score_reshape
I0628 20:12:31.427357 40991 net.cpp:150] Setting up rpn_cls_score_reshape
I0628 20:12:31.427371 40991 net.cpp:157] Top shape: 1 2 342 63 (43092)
I0628 20:12:31.427376 40991 net.cpp:165] Memory required for data: 1445431412
I0628 20:12:31.427378 40991 layer_factory.hpp:77] Creating layer rpn_cls_score_reshape_rpn_cls_score_reshape_0_split
I0628 20:12:31.427384 40991 net.cpp:106] Creating Layer rpn_cls_score_reshape_rpn_cls_score_reshape_0_split
I0628 20:12:31.427403 40991 net.cpp:454] rpn_cls_score_reshape_rpn_cls_score_reshape_0_split <- rpn_cls_score_reshape
I0628 20:12:31.427417 40991 net.cpp:411] rpn_cls_score_reshape_rpn_cls_score_reshape_0_split -> rpn_cls_score_reshape_rpn_cls_score_reshape_0_split_0
I0628 20:12:31.427424 40991 net.cpp:411] rpn_cls_score_reshape_rpn_cls_score_reshape_0_split -> rpn_cls_score_reshape_rpn_cls_score_reshape_0_split_1
I0628 20:12:31.427503 40991 net.cpp:150] Setting up rpn_cls_score_reshape_rpn_cls_score_reshape_0_split
I0628 20:12:31.427515 40991 net.cpp:157] Top shape: 1 2 342 63 (43092)
I0628 20:12:31.427520 40991 net.cpp:157] Top shape: 1 2 342 63 (43092)
I0628 20:12:31.427523 40991 net.cpp:165] Memory required for data: 1445776148
I0628 20:12:31.427541 40991 layer_factory.hpp:77] Creating layer rpn-data
I0628 20:12:31.428333 40991 net.cpp:106] Creating Layer rpn-data
I0628 20:12:31.428354 40991 net.cpp:454] rpn-data <- rpn_cls_score_rpn_cls_score_0_split_1
I0628 20:12:31.428361 40991 net.cpp:454] rpn-data <- gt_boxes_input-data_2_split_0
I0628 20:12:31.428388 40991 net.cpp:454] rpn-data <- im_info_input-data_1_split_0
I0628 20:12:31.428400 40991 net.cpp:454] rpn-data <- data_input-data_0_split_1
I0628 20:12:31.428406 40991 net.cpp:411] rpn-data -> rpn_labels
I0628 20:12:31.428426 40991 net.cpp:411] rpn-data -> rpn_bbox_targets
I0628 20:12:31.428438 40991 net.cpp:411] rpn-data -> rpn_bbox_inside_weights
I0628 20:12:31.428444 40991 net.cpp:411] rpn-data -> rpn_bbox_outside_weights
I0628 20:12:31.429332 40991 net.cpp:150] Setting up rpn-data
I0628 20:12:31.429356 40991 net.cpp:157] Top shape: 1 1 342 63 (21546)
I0628 20:12:31.429386 40991 net.cpp:157] Top shape: 1 36 38 63 (86184)
I0628 20:12:31.429397 40991 net.cpp:157] Top shape: 1 36 38 63 (86184)
I0628 20:12:31.429401 40991 net.cpp:157] Top shape: 1 36 38 63 (86184)
I0628 20:12:31.429404 40991 net.cpp:165] Memory required for data: 1446896540
I0628 20:12:31.429409 40991 layer_factory.hpp:77] Creating layer rpn_loss_cls
I0628 20:12:31.429433 40991 net.cpp:106] Creating Layer rpn_loss_cls
I0628 20:12:31.429445 40991 net.cpp:454] rpn_loss_cls <- rpn_cls_score_reshape_rpn_cls_score_reshape_0_split_0
I0628 20:12:31.429450 40991 net.cpp:454] rpn_loss_cls <- rpn_labels
…
I0628 20:12:31.431494 40991 net.cpp:157] Top shape: (1)
I0628 20:12:31.431499 40991 net.cpp:160]     with loss weight 1
I0628 20:12:31.431520 40991 net.cpp:165] Memory required for data: 1446896548
I0628 20:12:31.431530 40991 layer_factory.hpp:77] Creating layer rpn_cls_prob
I0628 20:12:31.431538 40991 net.cpp:106] Creating Layer rpn_cls_prob
I0628 20:12:31.431553 40991 net.cpp:454] rpn_cls_prob <- rpn_cls_score_reshape_rpn_cls_score_reshape_0_split_1
I0628 20:12:31.431563 40991 net.cpp:411] rpn_cls_prob -> rpn_cls_prob
I0628 20:12:31.431869 40991 net.cpp:150] Setting up rpn_cls_prob
I0628 20:12:31.431887 40991 net.cpp:157] Top shape: 1 2 342 63 (43092)
I0628 20:12:31.431910 40991 net.cpp:165] Memory required for data: 1447068916
I0628 20:12:31.431919 40991 layer_factory.hpp:77] Creating layer rpn_cls_prob_reshape
I0628 20:12:31.431926 40991 net.cpp:106] Creating Layer rpn_cls_prob_reshape
I0628 20:12:31.431942 40991 net.cpp:454] rpn_cls_prob_reshape <- rpn_cls_prob
I0628 20:12:31.431957 40991 net.cpp:411] rpn_cls_prob_reshape -> rpn_cls_prob_reshape
I0628 20:12:31.432010 40991 net.cpp:150] Setting up rpn_cls_prob_reshape
I0628 20:12:31.432024 40991 net.cpp:157] Top shape: 1 18 38 63 (43092)
I0628 20:12:31.432026 40991 net.cpp:165] Memory required for data: 1447241284
I0628 20:12:31.432029 40991 layer_factory.hpp:77] Creating layer proposal
I0628 20:12:31.433063 40991 net.cpp:106] Creating Layer proposal
I0628 20:12:31.433085 40991 net.cpp:454] proposal <- rpn_cls_prob_reshape
I0628 20:12:31.433091 40991 net.cpp:454] proposal <- rpn_bbox_pred_rpn_bbox_pred_0_split_1
I0628 20:12:31.433121 40991 net.cpp:454] proposal <- im_info_input-data_1_split_1
I0628 20:12:31.433135 40991 net.cpp:411] proposal -> rpn_rois
I0628 20:12:31.433920 40991 net.cpp:150] Setting up proposal
I0628 20:12:31.433950 40991 net.cpp:157] Top shape: 1 5 (5)
I0628 20:12:31.433965 40991 net.cpp:165] Memory required for data: 1447241304
I0628 20:12:31.433969 40991 layer_factory.hpp:77] Creating layer roi-data
I0628 20:12:31.434170 40991 net.cpp:106] Creating Layer roi-data
I0628 20:12:31.434190 40991 net.cpp:454] roi-data <- rpn_rois
I0628 20:12:31.434195 40991 net.cpp:454] roi-data <- gt_boxes_input-data_2_split_1
I0628 20:12:31.434227 40991 net.cpp:411] roi-data -> rois
I0628 20:12:31.434242 40991 net.cpp:411] roi-data -> labels
I0628 20:12:31.434249 40991 net.cpp:411] roi-data -> bbox_targets
I0628 20:12:31.434257 40991 net.cpp:411] roi-data -> bbox_inside_weights
I0628 20:12:31.434262 40991 net.cpp:411] roi-data -> bbox_outside_weights
I0628 20:12:31.434713 40991 net.cpp:150] Setting up roi-data
I0628 20:12:31.434734 40991 net.cpp:157] Top shape: 1 5 (5)
I0628 20:12:31.434762 40991 net.cpp:157] Top shape: 1 1 (1)
I0628 20:12:31.434787 40991 net.cpp:157] Top shape: 1 84 (84)
I0628 20:12:31.434799 40991 net.cpp:157] Top shape: 1 84 (84)
I0628 20:12:31.434803 40991 net.cpp:157] Top shape: 1 84 (84)
I0628 20:12:31.434821 40991 net.cpp:165] Memory required for data: 1447242336
I0628 20:12:31.434831 40991 layer_factory.hpp:77] Creating layer roi_pool5
I0628 20:12:31.434844 40991 net.cpp:106] Creating Layer roi_pool5
I0628 20:12:31.434854 40991 net.cpp:454] roi_pool5 <- newP4_newP4_0_split_1
I0628 20:12:31.434860 40991 net.cpp:454] roi_pool5 <- rois
I0628 20:12:31.434880 40991 net.cpp:411] roi_pool5 -> rcnn_pool5
I0628 20:12:31.434895 40991 roi_pooling_layer.cpp:30] Spatial scale: 0.25
I0628 20:12:31.434986 40991 net.cpp:150] Setting up roi_pool5
I0628 20:12:31.434999 40991 net.cpp:157] Top shape: 1 256 7 7 (12544)
I0628 20:12:31.435003 40991 net.cpp:165] Memory required for data: 1447292512
I0628 20:12:31.435006 40991 layer_factory.hpp:77] Creating layer rcnn_fc6
I0628 20:12:31.435034 40991 net.cpp:106] Creating Layer rcnn_fc6
I0628 20:12:31.435045 40991 net.cpp:454] rcnn_fc6 <- rcnn_pool5
I0628 20:12:31.435050 40991 net.cpp:411] rcnn_fc6 -> rcnn_fc6
I0628 20:12:31.810729 40991 net.cpp:150] Setting up rcnn_fc6
I0628 20:12:31.810798 40991 net.cpp:157] Top shape: 1 4096 (4096)
I0628 20:12:31.810804 40991 net.cpp:165] Memory required for data: 1447308896
I0628 20:12:31.810823 40991 layer_factory.hpp:77] Creating layer relu6
I0628 20:12:31.810838 40991 net.cpp:106] Creating Layer relu6
I0628 20:12:31.810883 40991 net.cpp:454] relu6 <- rcnn_fc6
I0628 20:12:31.810904 40991 net.cpp:397] relu6 -> rcnn_fc6 (in-place)
I0628 20:12:31.812228 40991 net.cpp:150] Setting up relu6
I0628 20:12:31.812252 40991 net.cpp:157] Top shape: 1 4096 (4096)
I0628 20:12:31.812255 40991 net.cpp:165] Memory required for data: 1447325280
I0628 20:12:31.812259 40991 layer_factory.hpp:77] Creating layer drop6
I0628 20:12:31.812284 40991 net.cpp:106] Creating Layer drop6
I0628 20:12:31.812291 40991 net.cpp:454] drop6 <- rcnn_fc6
I0628 20:12:31.812296 40991 net.cpp:397] drop6 -> rcnn_fc6 (in-place)
I0628 20:12:31.812361 40991 net.cpp:150] Setting up drop6
I0628 20:12:31.812378 40991 net.cpp:157] Top shape: 1 4096 (4096)
I0628 20:12:31.812382 40991 net.cpp:165] Memory required for data: 1447341664
I0628 20:12:31.812386 40991 layer_factory.hpp:77] Creating layer fc7
I0628 20:12:31.812443 40991 net.cpp:106] Creating Layer fc7
I0628 20:12:31.812453 40991 net.cpp:454] fc7 <- rcnn_fc6
I0628 20:12:31.812461 40991 net.cpp:411] fc7 -> fc7
I0628 20:12:31.932399 40991 net.cpp:150] Setting up fc7
I0628 20:12:31.932453 40991 net.cpp:157] Top shape: 1 4096 (4096)
I0628 20:12:31.932458 40991 net.cpp:165] Memory required for data: 1447358048
I0628 20:12:31.932471 40991 layer_factory.hpp:77] Creating layer relu7
I0628 20:12:31.932483 40991 net.cpp:106] Creating Layer relu7
I0628 20:12:31.932490 40991 net.cpp:454] relu7 <- fc7
I0628 20:12:31.932500 40991 net.cpp:397] relu7 -> fc7 (in-place)
I0628 20:12:31.932806 40991 net.cpp:150] Setting up relu7
I0628 20:12:31.932822 40991 net.cpp:157] Top shape: 1 4096 (4096)
I0628 20:12:31.932827 40991 net.cpp:165] Memory required for data: 1447374432
I0628 20:12:31.932837 40991 layer_factory.hpp:77] Creating layer drop7
I0628 20:12:31.932876 40991 net.cpp:106] Creating Layer drop7
I0628 20:12:31.932893 40991 net.cpp:454] drop7 <- fc7
I0628 20:12:31.932910 40991 net.cpp:397] drop7 -> fc7 (in-place)
I0628 20:12:31.932981 40991 net.cpp:150] Setting up drop7
I0628 20:12:31.932996 40991 net.cpp:157] Top shape: 1 4096 (4096)
I0628 20:12:31.933001 40991 net.cpp:165] Memory required for data: 1447390816
I0628 20:12:31.933003 40991 layer_factory.hpp:77] Creating layer fc7_drop7_0_split
I0628 20:12:31.933012 40991 net.cpp:106] Creating Layer fc7_drop7_0_split
I0628 20:12:31.933032 40991 net.cpp:454] fc7_drop7_0_split <- fc7
I0628 20:12:31.933048 40991 net.cpp:411] fc7_drop7_0_split -> fc7_drop7_0_split_0
I0628 20:12:31.933064 40991 net.cpp:411] fc7_drop7_0_split -> fc7_drop7_0_split_1
I0628 20:12:31.933171 40991 net.cpp:150] Setting up fc7_drop7_0_split
I0628 20:12:31.933187 40991 net.cpp:157] Top shape: 1 4096 (4096)
I0628 20:12:31.933190 40991 net.cpp:157] Top shape: 1 4096 (4096)
I0628 20:12:31.933193 40991 net.cpp:165] Memory required for data: 1447423584
I0628 20:12:31.933197 40991 layer_factory.hpp:77] Creating layer cls_score
I0628 20:12:31.933207 40991 net.cpp:106] Creating Layer cls_score
I0628 20:12:31.933228 40991 net.cpp:454] cls_score <- fc7_drop7_0_split_0
I0628 20:12:31.933243 40991 net.cpp:411] cls_score -> cls_score
I0628 20:12:31.935576 40991 net.cpp:150] Setting up cls_score
I0628 20:12:31.935595 40991 net.cpp:157] Top shape: 1 21 (21)
I0628 20:12:31.935598 40991 net.cpp:165] Memory required for data: 1447423668
I0628 20:12:31.935606 40991 layer_factory.hpp:77] Creating layer bbox_pred
I0628 20:12:31.935634 40991 net.cpp:106] Creating Layer bbox_pred
I0628 20:12:31.935650 40991 net.cpp:454] bbox_pred <- fc7_drop7_0_split_1
I0628 20:12:31.935667 40991 net.cpp:411] bbox_pred -> bbox_pred
I0628 20:12:31.945140 40991 net.cpp:150] Setting up bbox_pred
I0628 20:12:31.945165 40991 net.cpp:157] Top shape: 1 84 (84)
I0628 20:12:31.945169 40991 net.cpp:165] Memory required for data: 1447424004
I0628 20:12:31.945176 40991 layer_factory.hpp:77] Creating layer loss_cls
I0628 20:12:31.945206 40991 net.cpp:106] Creating Layer loss_cls
I0628 20:12:31.945222 40991 net.cpp:454] loss_cls <- cls_score
I0628 20:12:31.945238 40991 net.cpp:454] loss_cls <- labels
I0628 20:12:31.945276 40991 net.cpp:411] loss_cls -> loss_cls
…
