…
stepsize: 50000
snapshot: 0
snapshot_prefix: "fpn"
average_loss: 100
iter_size: 2
I0628 11:36:53.859844 49375 solver.cpp:81] Creating training net from train_net file: models/pascal_voc/VGG16/FP_Net_end2end/train.prototxt
I0628 11:36:53.861446 49375 net.cpp:49] Initializing net from parameters: 
name: "VGG_ILSVRC_16_layers"
state {
  phase: TRAIN
}
layer {
  name: "input-data"
  type: "Python"
  top: "data"
  top: "im_info"
  top: "gt_boxes"
  python_param {
    module: "roi_data_layer.layer"
    layer: "RoIDataLayer"
    param_str: "\'num_classes\': 21"
  }
}
layer {
  name: "conv1_1"
  type: "Convolution"
  bottom: "data"
  top: "conv1_1"
  param {
    lr_mult: 0
    decay_mult: 0
  }
  param {
    lr_mult: 0
    decay_mult: 0
  }
  convolution_param {
    num_output: 64
    pad: 1
    kernel_size: 3
  }
}
layer {
  name: "relu1_1"
  type: "ReLU"
  bottom: "conv1_1"
  top: "conv1_1"
}
layer {
  name: "conv1_2"
  type: "Convolution"
  bottom: "conv1_1"
  top: "conv1_2"
  param {
    lr_mult: 0
    decay_mult: 0
  }
  param {
    lr_mult: 0
    decay_mult: 0
  }
  convolution_param {
    num_output: 64
    pad: 1
    kernel_size: 3
  }
}
layer {
  name: "relu1_2"
  type: "ReLU"
  bottom: "conv1_2"
  top: "conv1_2"
}
layer {
  name: "pool1"
  type: "Pooling"
  bottom: "conv1_2"
  top: "pool1"
  pooling_param {
    pool: MAX
    kernel_size: 2
    stride: 2
  }
}
layer {
  name: "conv2_1"
  type: "Convolution"
  bottom: "pool1"
  top: "conv2_1"
  param {
    lr_mult: 0
    decay_mult: 0
  }
  param {
    lr_mult: 0
    decay_mult: 0
  }
  convolution_param {
    num_output: 128
    pad: 1
    kernel_size: 3
  }
}
layer {
  name: "relu2_1"
  type: "ReLU"
  bottom: "conv2_1"
  top: "conv2_1"
}
layer {
  name: "conv2_2"
  type: "Convolution"
  bottom: "conv2_1"
  top: "conv2_2"
  param {
    lr_mult: 0
    decay_mult: 0
  }
  param {
    lr_mult: 0
    decay_mult: 0
  }
  convolution_param {
    num_output: 128
    pad: 1
    kernel_size: 3
  }
}
layer {
  name: "relu2_2"
  type: "ReLU"
  bottom: "conv2_2"
  top: "conv2_2"
}
layer {
  name: "pool2"
  type: "Pooling"
  bottom: "conv2_2"
  top: "pool2"
  pooling_param {
    pool: MAX
    kernel_size: 2
    stride: 2
  }
}
layer {
  name: "conv3_1"
  type: "Convolution"
  bottom: "pool2"
  top: "conv3_1"
  param {
    lr_mult: 1
  }
  param {
    lr_mult: 2
  }
  convolution_param {
    num_output: 256
    pad: 1
    kernel_size: 3
  }
}
layer {
  name: "relu3_1"
  type: "ReLU"
  bottom: "conv3_1"
  top: "conv3_1"
}
layer {
  name: "conv3_2"
  type: "Convolution"
  bottom: "conv3_1"
  top: "conv3_2"
  param {
    lr_mult: 1
  }
  param {
    lr_mult: 2
  }
  convolution_param {
    num_output: 256
    pad: 1
    kernel_size: 3
  }
}
layer {
  name: "relu3_2"
  type: "ReLU"
  bottom: "conv3_2"
  top: "conv3_2"
}
layer {
  name: "conv3_3"
  type: "Convolution"
  bottom: "conv3_2"
  top: "conv3_3"
  param {
    lr_mult: 1
  }
  param {
    lr_mult: 2
  }
  convolution_param {
    num_output: 256
    pad: 1
    kernel_size: 3
  }
}
layer {
  name: "relu3_3"
  type: "ReLU"
  bottom: "conv3_3"
  top: "conv3_3"
}
layer {
  name: "pool3"
  type: "Pooling"
  bottom: "conv3_3"
  top: "pool3"
  pooling_param {
    pool: MAX
    kernel_size: 2
    stride: 2
  }
}
layer {
  name: "conv4_1"
  type: "Convolution"
  bottom: "pool3"
  top: "conv4_1"
  param {
    lr_mult: 1
  }
  param {
    lr_mult: 2
  }
  convolution_param {
    num_output: 512
    pad: 1
    kernel_size: 3
  }
}
layer {
  name: "relu4_1"
  type: "ReLU"
  bottom: "conv4_1"
  top: "conv4_1"
}
layer {
  name: "conv4_2"
  type: "Convolution"
  bottom: "conv4_1"
  top: "conv4_2"
  param {
    lr_mult: 1
  }
  param {
    lr_mult: 2
  }
  convolution_param {
    num_output: 512
    pad: 1
    kernel_size: 3
  }
}
layer {
  name: "relu4_2"
  type: "ReLU"
  bottom: "conv4_2"
  top: "conv4_2"
}
layer {
  name: "conv4_3"
  type: "Convolution"
  bottom: "conv4_2"
  top: "conv4_3"
  param {
    lr_mult: 1
  }
  param {
    lr_mult: 2
  }
  convolution_param {
    num_output: 512
    pad: 1
    kernel_size: 3
  }
}
layer {
  name: "relu4_3"
  type: "ReLU"
  bottom: "conv4_3"
  top: "conv4_3"
}
layer {
  name: "pool4"
  type: "Pooling"
  bottom: "conv4_3"
  top: "pool4"
  pooling_param {
    pool: MAX
    kernel_size: 2
    stride: 2
  }
}
layer {
  name: "conv5_1"
  type: "Convolution"
  bottom: "pool4"
  top: "conv5_1"
  param {
    lr_mult: 1
  }
  param {
    lr_mult: 2
  }
  convolution_param {
    num_output: 512
    pad: 1
    kernel_size: 3
  }
}
layer {
  name: "relu5_1"
  type: "ReLU"
  bottom: "conv5_1"
  top: "conv5_1"
}
layer {
  name: "conv5_2"
  type: "Convolution"
  bottom: "conv5_1"
  top: "conv5_2"
  param {
    lr_mult: 1
  }
  param {
    lr_mult: 2
  }
  convolution_param {
    num_output: 512
    pad: 1
    kernel_size: 3
  }
}
layer {
  name: "relu5_2"
  type: "ReLU"
  bottom: "conv5_2"
  top: "conv5_2"
}
layer {
  name: "conv5_3"
  type: "Convolution"
  bottom: "conv5_2"
  top: "conv5_3"
  param {
    lr_mult: 1
  }
  param {
    lr_mult: 2
  }
  convolution_param {
    num_output: 512
    pad: 1
    kernel_size: 3
  }
}
layer {
  name: "relu5_3"
  type: "ReLU"
  bottom: "conv5_3"
  top: "conv5_3"
}
layer {
  name: "pool5"
  type: "Pooling"
  bottom: "conv5_3"
  top: "pool5"
  pooling_param {
    pool: MAX
    kernel_size: 2
    stride: 2
  }
}
layer {
  name: "P5"
  type: "Convolution"
  bottom: "pool5"
  top: "P5"
  param {
    lr_mult: 1
  }
  param {
    lr_mult: 2
  }
  convolution_param {
    num_output: 256
    kernel_size: 1
    weight_filler {
      type: "xavier"
    }
    bias_filler {
      type: "constant"
    }
  }
}
layer {
  name: "upP5"
  type: "Deconvolution"
  bottom: "P5"
  top: "upP5"
  param {
    lr_mult: 0
    decay_mult: 0
  }
  convolution_param {
    num_output: 256
    bias_term: false
    pad: 1
    kernel_size: 4
    stride: 2
    weight_filler {
      type: "bilinear"
    }
  }
}
layer {
  name: "newC4"
  type: "Convolution"
  bottom: "conv5_3"
  top: "newC4"
  param {
    lr_mult: 1
  }
  param {
    lr_mult: 2
  }
  convolution_param {
    num_output: 256
    kernel_size: 1
    weight_filler {
      type: "xavier"
    }
    bias_filler {
      type: "constant"
    }
  }
}
layer {
  name: "upP5crop"
  type: "Crop"
  bottom: "upP5"
  bottom: "newC4"
  top: "upP5crop"
  crop_param {
    axis: 2
    offset: 0
  }
}
layer {
  name: "P4"
  type: "Eltwise"
  bottom: "newC4"
  bottom: "upP5crop"
  top: "P4"
  eltwise_param {
    operation: SUM
  }
}
layer {
  name: "upP4"
  type: "Deconvolution"
  bottom: "P4"
  top: "upP4"
  param {
    lr_mult: 0
    decay_mult: 0
  }
  convolution_param {
    num_output: 256
    bias_term: false
    pad: 1
    kernel_size: 4
    stride: 2
    weight_filler {
      type: "bilinear"
    }
  }
}
layer {
  name: "newC3"
  type: "Convolution"
  bottom: "conv4_3"
  top: "newC3"
  param {
    lr_mult: 1
  }
  param {
    lr_mult: 2
  }
  convolution_param {
    num_output: 256
    kernel_size: 1
    weight_filler {
      type: "xavier"
    }
    bias_filler {
      type: "constant"
    }
  }
}
layer {
  name: "upP4crop"
  type: "Crop"
  bottom: "upP4"
  bottom: "newC3"
  top: "upP4crop"
  crop_param {
    axis: 2
    offset: 0
  }
}
layer {
  name: "P3"
  type: "Eltwise"
  bottom: "newC3"
  bottom: "upP4crop"
  top: "P3"
  eltwise_param {
    operation: SUM
  }
}
layer {
  name: "upP3"
  type: "Deconvolution"
  bottom: "P3"
  top: "upP3"
  param {
    lr_mult: 0
    decay_mult: 0
  }
  convolution_param {
    num_output: 256
    bias_term: false
    pad: 1
    kernel_size: 4
    stride: 2
    weight_filler {
      type: "bilinear"
    }
  }
}
layer {
  name: "upP3crop"
  type: "Crop"
  bottom: "upP3"
  bottom: "conv3_3"
  top: "upP3crop"
  crop_param {
    axis: 2
    offset: 0
  }
}
layer {
  name: "P2"
  type: "Eltwise"
  bottom: "conv3_3"
  bottom: "upP3crop"
  top: "P2"
  eltwise_param {
    operation: SUM
  }
}
layer {
  name: "newP2"
  type: "Convolution"
  bottom: "P2"
  top: "newP2"
  param {
    lr_mult: 1
  }
  param {
    lr_mult: 2
  }
  convolution_param {
    num_output: 256
    pad: 1
    kernel_size: 3
    weight_filler {
      type: "xavier"
    }
    bias_filler {
      type: "constant"
    }
  }
}
layer {
  name: "rpn_conv/3x3"
  type: "Convolution"
  bottom: "newP2"
  top: "rpn/output"
  param {
    lr_mult: 1
  }
  param {
    lr_mult: 2
  }
  convolution_param {
    num_output: 512
    pad: 1
    kernel_size: 3
    stride: 1
    weight_filler {
      type: "gaussian"
      std: 0.01
    }
    bias_filler {
      type: "constant"
      value: 0
    }
  }
}
layer {
  name: "rpn_relu/3x3"
  type: "ReLU"
  bottom: "rpn/output"
  top: "rpn/output"
}
layer {
  name: "rpn_cls_score"
  type: "Convolution"
  bottom: "rpn/output"
  top: "rpn_cls_score"
  param {
    lr_mult: 1
  }
  param {
    lr_mult: 2
  }
  convolution_param {
    num_output: 18
    pad: 0
    kernel_size: 1
    stride: 1
    weight_filler {
      type: "gaussian"
      std: 0.01
    }
    bias_filler {
      type: "constant"
      value: 0
    }
  }
}
layer {
  name: "rpn_bbox_pred"
  type: "Convolution"
  bottom: "rpn/output"
  top: "rpn_bbox_pred"
  param {
    lr_mult: 1
  }
  param {
    lr_mult: 2
  }
  convolution_param {
    num_output: 36
    pad: 0
    kernel_size: 1
    stride: 1
    weight_filler {
      type: "gaussian"
      std: 0.01
    }
    bias_filler {
      type: "constant"
      value: 0
    }
  }
}
layer {
  name: "rpn_cls_score_reshape"
  type: "Reshape"
  bottom: "rpn_cls_score"
  top: "rpn_cls_score_reshape"
  reshape_param {
    shape {
      dim: 0
      dim: 2
      dim: -1
      dim: 0
    }
  }
}
layer {
  name: "rpn-data"
  type: "Python"
  bottom: "rpn_cls_score"
  bottom: "gt_boxes"
  bottom: "im_info"
  bottom: "data"
  top: "rpn_labels"
  top: "rpn_bbox_targets"
  top: "rpn_bbox_inside_weights"
  top: "rpn_bbox_outside_weights"
  python_param {
    module: "rpn.anchor_target_layer"
    layer: "AnchorTargetLayer"
    param_str: "\'feat_stride\': 4"
  }
}
layer {
  name: "rpn_loss_cls"
  type: "SoftmaxWithLoss"
  bottom: "rpn_cls_score_reshape"
  bottom: "rpn_labels"
  top: "rpn_cls_loss"
  loss_weight: 1
  propagate_down: true
  propagate_down: false
  loss_param {
    ignore_label: -1
    normalize: true
  }
}
layer {
  name: "rpn_loss_bbox"
  type: "SmoothL1Loss"
  bottom: "rpn_bbox_pred"
  bottom: "rpn_bbox_targets"
  bottom: "rpn_bbox_inside_weights"
  bottom: "rpn_bbox_outside_weights"
  top: "rpn_loss_bbox"
  loss_weight: 1
  smooth_l1_loss_param {
    sigma: 3
  }
}
layer {
  name: "rpn_cls_prob"
  type: "Softmax"
  bottom: "rpn_cls_score_reshape"
  top: "rpn_cls_prob"
}
layer {
  name: "rpn_cls_prob_reshape"
  type: "Reshape"
  bottom: "rpn_cls_prob"
  top: "rpn_cls_prob_reshape"
  reshape_param {
    shape {
      dim: 0
      dim: 18
      dim: -1
      dim: 0
    }
  }
}
layer {
  name: "proposal"
  type: "Python"
  bottom: "rpn_cls_prob_reshape"
  bottom: "rpn_bbox_pred"
  bottom: "im_info"
  top: "rpn_rois"
  python_param {
    module: "rpn.proposal_layer"
    layer: "ProposalLayer"
    param_str: "\'feat_stride\': 4"
  }
}
layer {
  name: "roi-data"
  type: "Python"
  bottom: "rpn_rois"
  bottom: "gt_boxes"
  top: "rois"
  top: "labels"
  top: "bbox_targets"
  top: "bbox_inside_weights"
  top: "bbox_outside_weights"
  python_param {
    module: "rpn.proposal_target_layer"
    layer: "ProposalTargetLayer"
    param_str: "\'num_classes\': 21"
  }
}
layer {
  name: "roi_pool5"
  type: "ROIPooling"
  bottom: "newP2"
  bottom: "rois"
  top: "rcnn_pool5"
  roi_pooling_param {
    pooled_h: 7
    pooled_w: 7
    spatial_scale: 0.25
  }
}
layer {
  name: "rcnn_fc6"
  type: "InnerProduct"
  bottom: "rcnn_pool5"
  top: "rcnn_fc6"
  param {
    lr_mult: 1
  }
  param {
    lr_mult: 2
  }
  inner_product_param {
    num_output: 4096
    weight_filler {
      type: "xavier"
    }
    bias_filler {
      type: "constant"
    }
  }
}
layer {
  name: "relu6"
  type: "ReLU"
  bottom: "rcnn_fc6"
  top: "rcnn_fc6"
}
layer {
  name: "drop6"
  type: "Dropout"
  bottom: "rcnn_fc6"
  top: "rcnn_fc6"
  dropout_param {
    dropout_ratio: 0.5
  }
}
layer {
  name: "fc7"
  type: "InnerProduct"
  bottom: "rcnn_fc6"
  top: "fc7"
  param {
    lr_mult: 1
  }
  param {
    lr_mult: 2
  }
  inner_product_param {
    num_output: 4096
    weight_filler {
      type: "xavier"
    }
    bias_filler {
      type: "constant"
    }
  }
}
layer {
  name: "relu7"
  type: "ReLU"
  bottom: "fc7"
  top: "fc7"
}
layer {
  name: "drop7"
  type: "Dropout"
  bottom: "fc7"
  top: "fc7"
  dropout_param {
    dropout_ratio: 0.5
  }
}
layer {
  name: "cls_score"
  type: "InnerProduct"
  bottom: "fc7"
  top: "cls_score"
  param {
    lr_mult: 1
  }
  param {
    lr_mult: 2
  }
  inner_product_param {
    num_output: 21
    weight_filler {
      type: "gaussian"
      std: 0.01
    }
    bias_filler {
      type: "constant"
      value: 0
    }
  }
}
layer {
  name: "bbox_pred"
  type: "InnerProduct"
  bottom: "fc7"
  top: "bbox_pred"
  param {
    lr_mult: 1
  }
  param {
    lr_mult: 2
  }
  inner_product_param {
    num_output: 84
    weight_filler {
      type: "gaussian"
      std: 0.001
    }
    bias_filler {
      type: "constant"
      value: 0
    }
  }
}
layer {
  name: "loss_cls"
  type: "SoftmaxWithLoss"
  bottom: "cls_score"
  bottom: "labels"
  top: "loss_cls"
  loss_weight: 1
  propagate_down: true
  propagate_down: false
}
layer {
  name: "loss_bbox"
  type: "SmoothL1Loss"
  bottom: "bbox_pred"
  bottom: "bbox_targets"
  bottom: "bbox_inside_weights"
  bottom: "bbox_outside_weights"
  top: "loss_bbox"
  loss_weight: 1
}
I0628 11:36:53.861814 49375 layer_factory.hpp:77] Creating layer input-data
I0628 11:36:53.863168 49375 net.cpp:106] Creating Layer input-data
I0628 11:36:53.863195 49375 net.cpp:411] input-data -> data
I0628 11:36:53.863240 49375 net.cpp:411] input-data -> im_info
I0628 11:36:53.863255 49375 net.cpp:411] input-data -> gt_boxes
RoiDataLayer: name_to_top: {'gt_boxes': 2, 'data': 0, 'im_info': 1}
I0628 11:36:53.931120 49375 net.cpp:150] Setting up input-data
I0628 11:36:53.931159 49375 net.cpp:157] Top shape: 1 3 600 1000 (1800000)
I0628 11:36:53.931180 49375 net.cpp:157] Top shape: 1 3 (3)
I0628 11:36:53.931195 49375 net.cpp:157] Top shape: 1 4 (4)
I0628 11:36:53.931206 49375 net.cpp:165] Memory required for data: 7200028
I0628 11:36:53.931222 49375 layer_factory.hpp:77] Creating layer data_input-data_0_split
I0628 11:36:53.931252 49375 net.cpp:106] Creating Layer data_input-data_0_split
I0628 11:36:53.931269 49375 net.cpp:454] data_input-data_0_split <- data
I0628 11:36:53.931282 49375 net.cpp:411] data_input-data_0_split -> data_input-data_0_split_0
I0628 11:36:53.931305 49375 net.cpp:411] data_input-data_0_split -> data_input-data_0_split_1
I0628 11:36:53.931357 49375 net.cpp:150] Setting up data_input-data_0_split
I0628 11:36:53.931373 49375 net.cpp:157] Top shape: 1 3 600 1000 (1800000)
I0628 11:36:53.931378 49375 net.cpp:157] Top shape: 1 3 600 1000 (1800000)
I0628 11:36:53.931381 49375 net.cpp:165] Memory required for data: 21600028
I0628 11:36:53.931385 49375 layer_factory.hpp:77] Creating layer im_info_input-data_1_split
I0628 11:36:53.931407 49375 net.cpp:106] Creating Layer im_info_input-data_1_split
I0628 11:36:53.931421 49375 net.cpp:454] im_info_input-data_1_split <- im_info
I0628 11:36:53.931437 49375 net.cpp:411] im_info_input-data_1_split -> im_info_input-data_1_split_0
I0628 11:36:53.931459 49375 net.cpp:411] im_info_input-data_1_split -> im_info_input-data_1_split_1
I0628 11:36:53.931507 49375 net.cpp:150] Setting up im_info_input-data_1_split
I0628 11:36:53.931520 49375 net.cpp:157] Top shape: 1 3 (3)
I0628 11:36:53.931524 49375 net.cpp:157] Top shape: 1 3 (3)
I0628 11:36:53.931527 49375 net.cpp:165] Memory required for data: 21600052
I0628 11:36:53.931530 49375 layer_factory.hpp:77] Creating layer gt_boxes_input-data_2_split
I0628 11:36:53.931552 49375 net.cpp:106] Creating Layer gt_boxes_input-data_2_split
I0628 11:36:53.931596 49375 net.cpp:454] gt_boxes_input-data_2_split <- gt_boxes
I0628 11:36:53.931612 49375 net.cpp:411] gt_boxes_input-data_2_split -> gt_boxes_input-data_2_split_0
I0628 11:36:53.931618 49375 net.cpp:411] gt_boxes_input-data_2_split -> gt_boxes_input-data_2_split_1
I0628 11:36:53.931670 49375 net.cpp:150] Setting up gt_boxes_input-data_2_split
I0628 11:36:53.931682 49375 net.cpp:157] Top shape: 1 4 (4)
I0628 11:36:53.931687 49375 net.cpp:157] Top shape: 1 4 (4)
I0628 11:36:53.931690 49375 net.cpp:165] Memory required for data: 21600084
I0628 11:36:53.931694 49375 layer_factory.hpp:77] Creating layer conv1_1
I0628 11:36:53.931730 49375 net.cpp:106] Creating Layer conv1_1
I0628 11:36:53.931741 49375 net.cpp:454] conv1_1 <- data_input-data_0_split_0
I0628 11:36:53.931747 49375 net.cpp:411] conv1_1 -> conv1_1
I0628 11:36:54.308811 49375 net.cpp:150] Setting up conv1_1
I0628 11:36:54.308866 49375 net.cpp:157] Top shape: 1 64 600 1000 (38400000)
I0628 11:36:54.308871 49375 net.cpp:165] Memory required for data: 175200084
I0628 11:36:54.308893 49375 layer_factory.hpp:77] Creating layer relu1_1
I0628 11:36:54.308907 49375 net.cpp:106] Creating Layer relu1_1
I0628 11:36:54.308943 49375 net.cpp:454] relu1_1 <- conv1_1
I0628 11:36:54.308959 49375 net.cpp:397] relu1_1 -> conv1_1 (in-place)
I0628 11:36:54.309686 49375 net.cpp:150] Setting up relu1_1
I0628 11:36:54.309708 49375 net.cpp:157] Top shape: 1 64 600 1000 (38400000)
I0628 11:36:54.309712 49375 net.cpp:165] Memory required for data: 328800084
I0628 11:36:54.309738 49375 layer_factory.hpp:77] Creating layer conv1_2
I0628 11:36:54.309758 49375 net.cpp:106] Creating Layer conv1_2
I0628 11:36:54.309777 49375 net.cpp:454] conv1_2 <- conv1_1
I0628 11:36:54.309789 49375 net.cpp:411] conv1_2 -> conv1_2
I0628 11:36:54.314244 49375 net.cpp:150] Setting up conv1_2
I0628 11:36:54.314275 49375 net.cpp:157] Top shape: 1 64 600 1000 (38400000)
I0628 11:36:54.314280 49375 net.cpp:165] Memory required for data: 482400084
I0628 11:36:54.314294 49375 layer_factory.hpp:77] Creating layer relu1_2
I0628 11:36:54.314334 49375 net.cpp:106] Creating Layer relu1_2
I0628 11:36:54.314357 49375 net.cpp:454] relu1_2 <- conv1_2
I0628 11:36:54.314378 49375 net.cpp:397] relu1_2 -> conv1_2 (in-place)
I0628 11:36:54.314612 49375 net.cpp:150] Setting up relu1_2
I0628 11:36:54.314632 49375 net.cpp:157] Top shape: 1 64 600 1000 (38400000)
I0628 11:36:54.314636 49375 net.cpp:165] Memory required for data: 636000084
I0628 11:36:54.314640 49375 layer_factory.hpp:77] Creating layer pool1
I0628 11:36:54.314654 49375 net.cpp:106] Creating Layer pool1
I0628 11:36:54.314668 49375 net.cpp:454] pool1 <- conv1_2
I0628 11:36:54.314677 49375 net.cpp:411] pool1 -> pool1
I0628 11:36:54.314759 49375 net.cpp:150] Setting up pool1
I0628 11:36:54.314795 49375 net.cpp:157] Top shape: 1 64 300 500 (9600000)
I0628 11:36:54.314815 49375 net.cpp:165] Memory required for data: 674400084
I0628 11:36:54.314826 49375 layer_factory.hpp:77] Creating layer conv2_1
I0628 11:36:54.314838 49375 net.cpp:106] Creating Layer conv2_1
I0628 11:36:54.314857 49375 net.cpp:454] conv2_1 <- pool1
I0628 11:36:54.314870 49375 net.cpp:411] conv2_1 -> conv2_1
I0628 11:36:54.317957 49375 net.cpp:150] Setting up conv2_1
I0628 11:36:54.317981 49375 net.cpp:157] Top shape: 1 128 300 500 (19200000)
I0628 11:36:54.317986 49375 net.cpp:165] Memory required for data: 751200084
I0628 11:36:54.317996 49375 layer_factory.hpp:77] Creating layer relu2_1
I0628 11:36:54.318028 49375 net.cpp:106] Creating Layer relu2_1
I0628 11:36:54.318040 49375 net.cpp:454] relu2_1 <- conv2_1
I0628 11:36:54.318047 49375 net.cpp:397] relu2_1 -> conv2_1 (in-place)
I0628 11:36:54.318235 49375 net.cpp:150] Setting up relu2_1
I0628 11:36:54.318251 49375 net.cpp:157] Top shape: 1 128 300 500 (19200000)
I0628 11:36:54.318255 49375 net.cpp:165] Memory required for data: 828000084
I0628 11:36:54.318259 49375 layer_factory.hpp:77] Creating layer conv2_2
I0628 11:36:54.318289 49375 net.cpp:106] Creating Layer conv2_2
I0628 11:36:54.318300 49375 net.cpp:454] conv2_2 <- conv2_1
I0628 11:36:54.318308 49375 net.cpp:411] conv2_2 -> conv2_2
I0628 11:36:54.321861 49375 net.cpp:150] Setting up conv2_2
I0628 11:36:54.321887 49375 net.cpp:157] Top shape: 1 128 300 500 (19200000)
I0628 11:36:54.321892 49375 net.cpp:165] Memory required for data: 904800084
I0628 11:36:54.321898 49375 layer_factory.hpp:77] Creating layer relu2_2
I0628 11:36:54.321928 49375 net.cpp:106] Creating Layer relu2_2
I0628 11:36:54.321940 49375 net.cpp:454] relu2_2 <- conv2_2
I0628 11:36:54.321951 49375 net.cpp:397] relu2_2 -> conv2_2 (in-place)
I0628 11:36:54.322698 49375 net.cpp:150] Setting up relu2_2
I0628 11:36:54.322720 49375 net.cpp:157] Top shape: 1 128 300 500 (19200000)
I0628 11:36:54.322723 49375 net.cpp:165] Memory required for data: 981600084
I0628 11:36:54.322747 49375 layer_factory.hpp:77] Creating layer pool2
I0628 11:36:54.322760 49375 net.cpp:106] Creating Layer pool2
I0628 11:36:54.322765 49375 net.cpp:454] pool2 <- conv2_2
I0628 11:36:54.322796 49375 net.cpp:411] pool2 -> pool2
I0628 11:36:54.322867 49375 net.cpp:150] Setting up pool2
I0628 11:36:54.322885 49375 net.cpp:157] Top shape: 1 128 150 250 (4800000)
I0628 11:36:54.322888 49375 net.cpp:165] Memory required for data: 1000800084
I0628 11:36:54.322892 49375 layer_factory.hpp:77] Creating layer conv3_1
I0628 11:36:54.322921 49375 net.cpp:106] Creating Layer conv3_1
I0628 11:36:54.322932 49375 net.cpp:454] conv3_1 <- pool2
I0628 11:36:54.322940 49375 net.cpp:411] conv3_1 -> conv3_1
I0628 11:36:54.325975 49375 net.cpp:150] Setting up conv3_1
I0628 11:36:54.326000 49375 net.cpp:157] Top shape: 1 256 150 250 (9600000)
I0628 11:36:54.326004 49375 net.cpp:165] Memory required for data: 1039200084
I0628 11:36:54.326038 49375 layer_factory.hpp:77] Creating layer relu3_1
I0628 11:36:54.326052 49375 net.cpp:106] Creating Layer relu3_1
I0628 11:36:54.326056 49375 net.cpp:454] relu3_1 <- conv3_1
I0628 11:36:54.326064 49375 net.cpp:397] relu3_1 -> conv3_1 (in-place)
I0628 11:36:54.326270 49375 net.cpp:150] Setting up relu3_1
I0628 11:36:54.326287 49375 net.cpp:157] Top shape: 1 256 150 250 (9600000)
I0628 11:36:54.326292 49375 net.cpp:165] Memory required for data: 1077600084
I0628 11:36:54.326295 49375 layer_factory.hpp:77] Creating layer conv3_2
I0628 11:36:54.326326 49375 net.cpp:106] Creating Layer conv3_2
I0628 11:36:54.326337 49375 net.cpp:454] conv3_2 <- conv3_1
I0628 11:36:54.326345 49375 net.cpp:411] conv3_2 -> conv3_2
I0628 11:36:54.330238 49375 net.cpp:150] Setting up conv3_2
I0628 11:36:54.330271 49375 net.cpp:157] Top shape: 1 256 150 250 (9600000)
I0628 11:36:54.330276 49375 net.cpp:165] Memory required for data: 1116000084
I0628 11:36:54.330284 49375 layer_factory.hpp:77] Creating layer relu3_2
I0628 11:36:54.330322 49375 net.cpp:106] Creating Layer relu3_2
I0628 11:36:54.330333 49375 net.cpp:454] relu3_2 <- conv3_2
I0628 11:36:54.330340 49375 net.cpp:397] relu3_2 -> conv3_2 (in-place)
I0628 11:36:54.330552 49375 net.cpp:150] Setting up relu3_2
I0628 11:36:54.330570 49375 net.cpp:157] Top shape: 1 256 150 250 (9600000)
I0628 11:36:54.330574 49375 net.cpp:165] Memory required for data: 1154400084
I0628 11:36:54.330579 49375 layer_factory.hpp:77] Creating layer conv3_3
I0628 11:36:54.330590 49375 net.cpp:106] Creating Layer conv3_3
I0628 11:36:54.330596 49375 net.cpp:454] conv3_3 <- conv3_2
I0628 11:36:54.330602 49375 net.cpp:411] conv3_3 -> conv3_3
I0628 11:36:54.334257 49375 net.cpp:150] Setting up conv3_3
I0628 11:36:54.334305 49375 net.cpp:157] Top shape: 1 256 150 250 (9600000)
I0628 11:36:54.334308 49375 net.cpp:165] Memory required for data: 1192800084
I0628 11:36:54.334319 49375 layer_factory.hpp:77] Creating layer relu3_3
I0628 11:36:54.334367 49375 net.cpp:106] Creating Layer relu3_3
I0628 11:36:54.334383 49375 net.cpp:454] relu3_3 <- conv3_3
I0628 11:36:54.334389 49375 net.cpp:397] relu3_3 -> conv3_3 (in-place)
I0628 11:36:54.335165 49375 net.cpp:150] Setting up relu3_3
I0628 11:36:54.335188 49375 net.cpp:157] Top shape: 1 256 150 250 (9600000)
I0628 11:36:54.335192 49375 net.cpp:165] Memory required for data: 1231200084
I0628 11:36:54.335196 49375 layer_factory.hpp:77] Creating layer conv3_3_relu3_3_0_split
I0628 11:36:54.335206 49375 net.cpp:106] Creating Layer conv3_3_relu3_3_0_split
I0628 11:36:54.335209 49375 net.cpp:454] conv3_3_relu3_3_0_split <- conv3_3
I0628 11:36:54.335216 49375 net.cpp:411] conv3_3_relu3_3_0_split -> conv3_3_relu3_3_0_split_0
I0628 11:36:54.335247 49375 net.cpp:411] conv3_3_relu3_3_0_split -> conv3_3_relu3_3_0_split_1
I0628 11:36:54.335260 49375 net.cpp:411] conv3_3_relu3_3_0_split -> conv3_3_relu3_3_0_split_2
I0628 11:36:54.335327 49375 net.cpp:150] Setting up conv3_3_relu3_3_0_split
I0628 11:36:54.335340 49375 net.cpp:157] Top shape: 1 256 150 250 (9600000)
I0628 11:36:54.335345 49375 net.cpp:157] Top shape: 1 256 150 250 (9600000)
I0628 11:36:54.335348 49375 net.cpp:157] Top shape: 1 256 150 250 (9600000)
I0628 11:36:54.335351 49375 net.cpp:165] Memory required for data: 1346400084
I0628 11:36:54.335372 49375 layer_factory.hpp:77] Creating layer pool3
I0628 11:36:54.335388 49375 net.cpp:106] Creating Layer pool3
I0628 11:36:54.335392 49375 net.cpp:454] pool3 <- conv3_3_relu3_3_0_split_0
I0628 11:36:54.335415 49375 net.cpp:411] pool3 -> pool3
I0628 11:36:54.335471 49375 net.cpp:150] Setting up pool3
I0628 11:36:54.335484 49375 net.cpp:157] Top shape: 1 256 75 125 (2400000)
I0628 11:36:54.335487 49375 net.cpp:165] Memory required for data: 1356000084
I0628 11:36:54.335491 49375 layer_factory.hpp:77] Creating layer conv4_1
I0628 11:36:54.335518 49375 net.cpp:106] Creating Layer conv4_1
I0628 11:36:54.335530 49375 net.cpp:454] conv4_1 <- pool3
I0628 11:36:54.335537 49375 net.cpp:411] conv4_1 -> conv4_1
I0628 11:36:54.342573 49375 net.cpp:150] Setting up conv4_1
I0628 11:36:54.342619 49375 net.cpp:157] Top shape: 1 512 75 125 (4800000)
I0628 11:36:54.342624 49375 net.cpp:165] Memory required for data: 1375200084
I0628 11:36:54.342635 49375 layer_factory.hpp:77] Creating layer relu4_1
I0628 11:36:54.342646 49375 net.cpp:106] Creating Layer relu4_1
I0628 11:36:54.342685 49375 net.cpp:454] relu4_1 <- conv4_1
I0628 11:36:54.342705 49375 net.cpp:397] relu4_1 -> conv4_1 (in-place)
I0628 11:36:54.343499 49375 net.cpp:150] Setting up relu4_1
I0628 11:36:54.343521 49375 net.cpp:157] Top shape: 1 512 75 125 (4800000)
I0628 11:36:54.343525 49375 net.cpp:165] Memory required for data: 1394400084
I0628 11:36:54.343529 49375 layer_factory.hpp:77] Creating layer conv4_2
I0628 11:36:54.343571 49375 net.cpp:106] Creating Layer conv4_2
I0628 11:36:54.343606 49375 net.cpp:454] conv4_2 <- conv4_1
I0628 11:36:54.343632 49375 net.cpp:411] conv4_2 -> conv4_2
I0628 11:36:54.352783 49375 net.cpp:150] Setting up conv4_2
I0628 11:36:54.352828 49375 net.cpp:157] Top shape: 1 512 75 125 (4800000)
I0628 11:36:54.352833 49375 net.cpp:165] Memory required for data: 1413600084
I0628 11:36:54.352855 49375 layer_factory.hpp:77] Creating layer relu4_2
I0628 11:36:54.352895 49375 net.cpp:106] Creating Layer relu4_2
I0628 11:36:54.352907 49375 net.cpp:454] relu4_2 <- conv4_2
I0628 11:36:54.352915 49375 net.cpp:397] relu4_2 -> conv4_2 (in-place)
I0628 11:36:54.353127 49375 net.cpp:150] Setting up relu4_2
I0628 11:36:54.353144 49375 net.cpp:157] Top shape: 1 512 75 125 (4800000)
I0628 11:36:54.353148 49375 net.cpp:165] Memory required for data: 1432800084
I0628 11:36:54.353152 49375 layer_factory.hpp:77] Creating layer conv4_3
I0628 11:36:54.353186 49375 net.cpp:106] Creating Layer conv4_3
I0628 11:36:54.353196 49375 net.cpp:454] conv4_3 <- conv4_2
I0628 11:36:54.353204 49375 net.cpp:411] conv4_3 -> conv4_3
I0628 11:36:54.361433 49375 net.cpp:150] Setting up conv4_3
I0628 11:36:54.361526 49375 net.cpp:157] Top shape: 1 512 75 125 (4800000)
I0628 11:36:54.361554 49375 net.cpp:165] Memory required for data: 1452000084
I0628 11:36:54.361579 49375 layer_factory.hpp:77] Creating layer relu4_3
I0628 11:36:54.361611 49375 net.cpp:106] Creating Layer relu4_3
I0628 11:36:54.361639 49375 net.cpp:454] relu4_3 <- conv4_3
I0628 11:36:54.361675 49375 net.cpp:397] relu4_3 -> conv4_3 (in-place)
I0628 11:36:54.362463 49375 net.cpp:150] Setting up relu4_3
I0628 11:36:54.362501 49375 net.cpp:157] Top shape: 1 512 75 125 (4800000)
I0628 11:36:54.362540 49375 net.cpp:165] Memory required for data: 1471200084
I0628 11:36:54.362560 49375 layer_factory.hpp:77] Creating layer conv4_3_relu4_3_0_split
I0628 11:36:54.362577 49375 net.cpp:106] Creating Layer conv4_3_relu4_3_0_split
I0628 11:36:54.362601 49375 net.cpp:454] conv4_3_relu4_3_0_split <- conv4_3
I0628 11:36:54.362632 49375 net.cpp:411] conv4_3_relu4_3_0_split -> conv4_3_relu4_3_0_split_0
I0628 11:36:54.362663 49375 net.cpp:411] conv4_3_relu4_3_0_split -> conv4_3_relu4_3_0_split_1
I0628 11:36:54.362756 49375 net.cpp:150] Setting up conv4_3_relu4_3_0_split
I0628 11:36:54.362866 49375 net.cpp:157] Top shape: 1 512 75 125 (4800000)
I0628 11:36:54.362895 49375 net.cpp:157] Top shape: 1 512 75 125 (4800000)
I0628 11:36:54.362926 49375 net.cpp:165] Memory required for data: 1509600084
I0628 11:36:54.362957 49375 layer_factory.hpp:77] Creating layer pool4
I0628 11:36:54.362974 49375 net.cpp:106] Creating Layer pool4
I0628 11:36:54.362989 49375 net.cpp:454] pool4 <- conv4_3_relu4_3_0_split_0
I0628 11:36:54.363013 49375 net.cpp:411] pool4 -> pool4
I0628 11:36:54.363082 49375 net.cpp:150] Setting up pool4
I0628 11:36:54.363106 49375 net.cpp:157] Top shape: 1 512 38 63 (1225728)
I0628 11:36:54.363124 49375 net.cpp:165] Memory required for data: 1514502996
I0628 11:36:54.363138 49375 layer_factory.hpp:77] Creating layer conv5_1
I0628 11:36:54.363171 49375 net.cpp:106] Creating Layer conv5_1
I0628 11:36:54.363191 49375 net.cpp:454] conv5_1 <- pool4
I0628 11:36:54.363211 49375 net.cpp:411] conv5_1 -> conv5_1
I0628 11:36:54.371670 49375 net.cpp:150] Setting up conv5_1
I0628 11:36:54.371722 49375 net.cpp:157] Top shape: 1 512 38 63 (1225728)
I0628 11:36:54.371727 49375 net.cpp:165] Memory required for data: 1519405908
I0628 11:36:54.371738 49375 layer_factory.hpp:77] Creating layer relu5_1
I0628 11:36:54.371748 49375 net.cpp:106] Creating Layer relu5_1
I0628 11:36:54.371785 49375 net.cpp:454] relu5_1 <- conv5_1
I0628 11:36:54.371801 49375 net.cpp:397] relu5_1 -> conv5_1 (in-place)
I0628 11:36:54.372022 49375 net.cpp:150] Setting up relu5_1
I0628 11:36:54.372038 49375 net.cpp:157] Top shape: 1 512 38 63 (1225728)
I0628 11:36:54.372042 49375 net.cpp:165] Memory required for data: 1524308820
I0628 11:36:54.372046 49375 layer_factory.hpp:77] Creating layer conv5_2
I0628 11:36:54.372066 49375 net.cpp:106] Creating Layer conv5_2
I0628 11:36:54.372076 49375 net.cpp:454] conv5_2 <- conv5_1
I0628 11:36:54.372083 49375 net.cpp:411] conv5_2 -> conv5_2
I0628 11:36:54.380594 49375 net.cpp:150] Setting up conv5_2
I0628 11:36:54.380635 49375 net.cpp:157] Top shape: 1 512 38 63 (1225728)
I0628 11:36:54.380638 49375 net.cpp:165] Memory required for data: 1529211732
I0628 11:36:54.380648 49375 layer_factory.hpp:77] Creating layer relu5_2
I0628 11:36:54.380692 49375 net.cpp:106] Creating Layer relu5_2
I0628 11:36:54.380705 49375 net.cpp:454] relu5_2 <- conv5_2
I0628 11:36:54.380712 49375 net.cpp:397] relu5_2 -> conv5_2 (in-place)
I0628 11:36:54.380913 49375 net.cpp:150] Setting up relu5_2
I0628 11:36:54.380933 49375 net.cpp:157] Top shape: 1 512 38 63 (1225728)
I0628 11:36:54.380935 49375 net.cpp:165] Memory required for data: 1534114644
I0628 11:36:54.380939 49375 layer_factory.hpp:77] Creating layer conv5_3
I0628 11:36:54.380970 49375 net.cpp:106] Creating Layer conv5_3
I0628 11:36:54.380980 49375 net.cpp:454] conv5_3 <- conv5_2
I0628 11:36:54.380988 49375 net.cpp:411] conv5_3 -> conv5_3
I0628 11:36:54.390156 49375 net.cpp:150] Setting up conv5_3
I0628 11:36:54.390211 49375 net.cpp:157] Top shape: 1 512 38 63 (1225728)
I0628 11:36:54.390215 49375 net.cpp:165] Memory required for data: 1539017556
I0628 11:36:54.390228 49375 layer_factory.hpp:77] Creating layer relu5_3
I0628 11:36:54.390239 49375 net.cpp:106] Creating Layer relu5_3
I0628 11:36:54.390283 49375 net.cpp:454] relu5_3 <- conv5_3
I0628 11:36:54.390303 49375 net.cpp:397] relu5_3 -> conv5_3 (in-place)
I0628 11:36:54.391113 49375 net.cpp:150] Setting up relu5_3
I0628 11:36:54.391135 49375 net.cpp:157] Top shape: 1 512 38 63 (1225728)
I0628 11:36:54.391139 49375 net.cpp:165] Memory required for data: 1543920468
I0628 11:36:54.391144 49375 layer_factory.hpp:77] Creating layer conv5_3_relu5_3_0_split
I0628 11:36:54.391151 49375 net.cpp:106] Creating Layer conv5_3_relu5_3_0_split
I0628 11:36:54.391155 49375 net.cpp:454] conv5_3_relu5_3_0_split <- conv5_3
I0628 11:36:54.391163 49375 net.cpp:411] conv5_3_relu5_3_0_split -> conv5_3_relu5_3_0_split_0
I0628 11:36:54.391170 49375 net.cpp:411] conv5_3_relu5_3_0_split -> conv5_3_relu5_3_0_split_1
I0628 11:36:54.391258 49375 net.cpp:150] Setting up conv5_3_relu5_3_0_split
I0628 11:36:54.391273 49375 net.cpp:157] Top shape: 1 512 38 63 (1225728)
I0628 11:36:54.391279 49375 net.cpp:157] Top shape: 1 512 38 63 (1225728)
I0628 11:36:54.391283 49375 net.cpp:165] Memory required for data: 1553726292
I0628 11:36:54.391286 49375 layer_factory.hpp:77] Creating layer pool5
I0628 11:36:54.391314 49375 net.cpp:106] Creating Layer pool5
I0628 11:36:54.391324 49375 net.cpp:454] pool5 <- conv5_3_relu5_3_0_split_0
I0628 11:36:54.391330 49375 net.cpp:411] pool5 -> pool5
I0628 11:36:54.391386 49375 net.cpp:150] Setting up pool5
I0628 11:36:54.391399 49375 net.cpp:157] Top shape: 1 512 19 32 (311296)
I0628 11:36:54.391402 49375 net.cpp:165] Memory required for data: 1554971476
I0628 11:36:54.391407 49375 layer_factory.hpp:77] Creating layer P5
I0628 11:36:54.391438 49375 net.cpp:106] Creating Layer P5
I0628 11:36:54.391449 49375 net.cpp:454] P5 <- pool5
I0628 11:36:54.391458 49375 net.cpp:411] P5 -> P5
I0628 11:36:54.394695 49375 net.cpp:150] Setting up P5
I0628 11:36:54.394721 49375 net.cpp:157] Top shape: 1 256 19 32 (155648)
I0628 11:36:54.394724 49375 net.cpp:165] Memory required for data: 1555594068
I0628 11:36:54.394755 49375 layer_factory.hpp:77] Creating layer upP5
I0628 11:36:54.394804 49375 net.cpp:106] Creating Layer upP5
I0628 11:36:54.394826 49375 net.cpp:454] upP5 <- P5
I0628 11:36:54.394840 49375 net.cpp:411] upP5 -> upP5
I0628 11:36:54.423085 49375 net.cpp:150] Setting up upP5
I0628 11:36:54.423141 49375 net.cpp:157] Top shape: 1 256 38 64 (622592)
I0628 11:36:54.423144 49375 net.cpp:165] Memory required for data: 1558084436
I0628 11:36:54.423156 49375 layer_factory.hpp:77] Creating layer newC4
I0628 11:36:54.423176 49375 net.cpp:106] Creating Layer newC4
I0628 11:36:54.423221 49375 net.cpp:454] newC4 <- conv5_3_relu5_3_0_split_1
I0628 11:36:54.423241 49375 net.cpp:411] newC4 -> newC4
I0628 11:36:54.426239 49375 net.cpp:150] Setting up newC4
I0628 11:36:54.426285 49375 net.cpp:157] Top shape: 1 256 38 63 (612864)
I0628 11:36:54.426290 49375 net.cpp:165] Memory required for data: 1560535892
I0628 11:36:54.426300 49375 layer_factory.hpp:77] Creating layer newC4_newC4_0_split
I0628 11:36:54.426347 49375 net.cpp:106] Creating Layer newC4_newC4_0_split
I0628 11:36:54.426359 49375 net.cpp:454] newC4_newC4_0_split <- newC4
I0628 11:36:54.426368 49375 net.cpp:411] newC4_newC4_0_split -> newC4_newC4_0_split_0
I0628 11:36:54.426390 49375 net.cpp:411] newC4_newC4_0_split -> newC4_newC4_0_split_1
I0628 11:36:54.426465 49375 net.cpp:150] Setting up newC4_newC4_0_split
I0628 11:36:54.426477 49375 net.cpp:157] Top shape: 1 256 38 63 (612864)
I0628 11:36:54.426482 49375 net.cpp:157] Top shape: 1 256 38 63 (612864)
I0628 11:36:54.426486 49375 net.cpp:165] Memory required for data: 1565438804
I0628 11:36:54.426488 49375 layer_factory.hpp:77] Creating layer upP5crop
I0628 11:36:54.426502 49375 net.cpp:106] Creating Layer upP5crop
I0628 11:36:54.426517 49375 net.cpp:454] upP5crop <- upP5
I0628 11:36:54.426522 49375 net.cpp:454] upP5crop <- newC4_newC4_0_split_0
I0628 11:36:54.426529 49375 net.cpp:411] upP5crop -> upP5crop
I0628 11:36:54.426664 49375 net.cpp:150] Setting up upP5crop
I0628 11:36:54.426679 49375 net.cpp:157] Top shape: 1 256 38 63 (612864)
I0628 11:36:54.426682 49375 net.cpp:165] Memory required for data: 1567890260
I0628 11:36:54.426687 49375 layer_factory.hpp:77] Creating layer P4
I0628 11:36:54.426717 49375 net.cpp:106] Creating Layer P4
I0628 11:36:54.426728 49375 net.cpp:454] P4 <- newC4_newC4_0_split_1
I0628 11:36:54.426731 49375 net.cpp:454] P4 <- upP5crop
I0628 11:36:54.426736 49375 net.cpp:411] P4 -> P4
I0628 11:36:54.426800 49375 net.cpp:150] Setting up P4
I0628 11:36:54.426815 49375 net.cpp:157] Top shape: 1 256 38 63 (612864)
I0628 11:36:54.426817 49375 net.cpp:165] Memory required for data: 1570341716
I0628 11:36:54.426821 49375 layer_factory.hpp:77] Creating layer upP4
I0628 11:36:54.426852 49375 net.cpp:106] Creating Layer upP4
I0628 11:36:54.426863 49375 net.cpp:454] upP4 <- P4
I0628 11:36:54.426892 49375 net.cpp:411] upP4 -> upP4
I0628 11:36:54.453521 49375 net.cpp:150] Setting up upP4
I0628 11:36:54.453575 49375 net.cpp:157] Top shape: 1 256 76 126 (2451456)
I0628 11:36:54.453580 49375 net.cpp:165] Memory required for data: 1580147540
I0628 11:36:54.453593 49375 layer_factory.hpp:77] Creating layer newC3
I0628 11:36:54.453614 49375 net.cpp:106] Creating Layer newC3
I0628 11:36:54.453631 49375 net.cpp:454] newC3 <- conv4_3_relu4_3_0_split_1
I0628 11:36:54.453642 49375 net.cpp:411] newC3 -> newC3
I0628 11:36:54.457093 49375 net.cpp:150] Setting up newC3
I0628 11:36:54.457118 49375 net.cpp:157] Top shape: 1 256 75 125 (2400000)
I0628 11:36:54.457123 49375 net.cpp:165] Memory required for data: 1589747540
I0628 11:36:54.457140 49375 layer_factory.hpp:77] Creating layer newC3_newC3_0_split
I0628 11:36:54.457156 49375 net.cpp:106] Creating Layer newC3_newC3_0_split
I0628 11:36:54.457161 49375 net.cpp:454] newC3_newC3_0_split <- newC3
I0628 11:36:54.457167 49375 net.cpp:411] newC3_newC3_0_split -> newC3_newC3_0_split_0
I0628 11:36:54.457209 49375 net.cpp:411] newC3_newC3_0_split -> newC3_newC3_0_split_1
I0628 11:36:54.457274 49375 net.cpp:150] Setting up newC3_newC3_0_split
I0628 11:36:54.457288 49375 net.cpp:157] Top shape: 1 256 75 125 (2400000)
I0628 11:36:54.457293 49375 net.cpp:157] Top shape: 1 256 75 125 (2400000)
I0628 11:36:54.457295 49375 net.cpp:165] Memory required for data: 1608947540
I0628 11:36:54.457298 49375 layer_factory.hpp:77] Creating layer upP4crop
I0628 11:36:54.457326 49375 net.cpp:106] Creating Layer upP4crop
I0628 11:36:54.457337 49375 net.cpp:454] upP4crop <- upP4
I0628 11:36:54.457343 49375 net.cpp:454] upP4crop <- newC3_newC3_0_split_0
I0628 11:36:54.457347 49375 net.cpp:411] upP4crop -> upP4crop
I0628 11:36:54.457479 49375 net.cpp:150] Setting up upP4crop
I0628 11:36:54.457495 49375 net.cpp:157] Top shape: 1 256 75 125 (2400000)
I0628 11:36:54.457499 49375 net.cpp:165] Memory required for data: 1618547540
I0628 11:36:54.457501 49375 layer_factory.hpp:77] Creating layer P3
I0628 11:36:54.457525 49375 net.cpp:106] Creating Layer P3
I0628 11:36:54.457535 49375 net.cpp:454] P3 <- newC3_newC3_0_split_1
I0628 11:36:54.457540 49375 net.cpp:454] P3 <- upP4crop
I0628 11:36:54.457548 49375 net.cpp:411] P3 -> P3
I0628 11:36:54.457602 49375 net.cpp:150] Setting up P3
I0628 11:36:54.457617 49375 net.cpp:157] Top shape: 1 256 75 125 (2400000)
I0628 11:36:54.457619 49375 net.cpp:165] Memory required for data: 1628147540
I0628 11:36:54.457623 49375 layer_factory.hpp:77] Creating layer upP3
I0628 11:36:54.457630 49375 net.cpp:106] Creating Layer upP3
I0628 11:36:54.457639 49375 net.cpp:454] upP3 <- P3
I0628 11:36:54.457648 49375 net.cpp:411] upP3 -> upP3
I0628 11:36:54.483685 49375 net.cpp:150] Setting up upP3
I0628 11:36:54.483717 49375 net.cpp:157] Top shape: 1 256 150 250 (9600000)
I0628 11:36:54.483721 49375 net.cpp:165] Memory required for data: 1666547540
I0628 11:36:54.483728 49375 layer_factory.hpp:77] Creating layer upP3crop
I0628 11:36:54.483765 49375 net.cpp:106] Creating Layer upP3crop
I0628 11:36:54.483778 49375 net.cpp:454] upP3crop <- upP3
I0628 11:36:54.483785 49375 net.cpp:454] upP3crop <- conv3_3_relu3_3_0_split_1
I0628 11:36:54.483803 49375 net.cpp:411] upP3crop -> upP3crop
I0628 11:36:54.483932 49375 net.cpp:150] Setting up upP3crop
I0628 11:36:54.483945 49375 net.cpp:157] Top shape: 1 256 150 250 (9600000)
I0628 11:36:54.483948 49375 net.cpp:165] Memory required for data: 1704947540
I0628 11:36:54.483952 49375 layer_factory.hpp:77] Creating layer P2
I0628 11:36:54.483960 49375 net.cpp:106] Creating Layer P2
I0628 11:36:54.484010 49375 net.cpp:454] P2 <- conv3_3_relu3_3_0_split_2
I0628 11:36:54.484025 49375 net.cpp:454] P2 <- upP3crop
I0628 11:36:54.484031 49375 net.cpp:411] P2 -> P2
I0628 11:36:54.484071 49375 net.cpp:150] Setting up P2
I0628 11:36:54.484084 49375 net.cpp:157] Top shape: 1 256 150 250 (9600000)
I0628 11:36:54.484087 49375 net.cpp:165] Memory required for data: 1743347540
I0628 11:36:54.484091 49375 layer_factory.hpp:77] Creating layer newP2
I0628 11:36:54.484102 49375 net.cpp:106] Creating Layer newP2
I0628 11:36:54.484108 49375 net.cpp:454] newP2 <- P2
I0628 11:36:54.484115 49375 net.cpp:411] newP2 -> newP2
I0628 11:36:54.491057 49375 net.cpp:150] Setting up newP2
I0628 11:36:54.491082 49375 net.cpp:157] Top shape: 1 256 150 250 (9600000)
I0628 11:36:54.491086 49375 net.cpp:165] Memory required for data: 1781747540
I0628 11:36:54.491093 49375 layer_factory.hpp:77] Creating layer newP2_newP2_0_split
I0628 11:36:54.491124 49375 net.cpp:106] Creating Layer newP2_newP2_0_split
I0628 11:36:54.491137 49375 net.cpp:454] newP2_newP2_0_split <- newP2
I0628 11:36:54.491145 49375 net.cpp:411] newP2_newP2_0_split -> newP2_newP2_0_split_0
I0628 11:36:54.491168 49375 net.cpp:411] newP2_newP2_0_split -> newP2_newP2_0_split_1
I0628 11:36:54.491233 49375 net.cpp:150] Setting up newP2_newP2_0_split
I0628 11:36:54.491246 49375 net.cpp:157] Top shape: 1 256 150 250 (9600000)
I0628 11:36:54.491250 49375 net.cpp:157] Top shape: 1 256 150 250 (9600000)
I0628 11:36:54.491253 49375 net.cpp:165] Memory required for data: 1858547540
I0628 11:36:54.491257 49375 layer_factory.hpp:77] Creating layer rpn_conv/3x3
I0628 11:36:54.491284 49375 net.cpp:106] Creating Layer rpn_conv/3x3
I0628 11:36:54.491295 49375 net.cpp:454] rpn_conv/3x3 <- newP2_newP2_0_split_0
I0628 11:36:54.491302 49375 net.cpp:411] rpn_conv/3x3 -> rpn/output
I0628 11:36:54.524139 49375 net.cpp:150] Setting up rpn_conv/3x3
I0628 11:36:54.524173 49375 net.cpp:157] Top shape: 1 512 150 250 (19200000)
I0628 11:36:54.524178 49375 net.cpp:165] Memory required for data: 1935347540
I0628 11:36:54.524186 49375 layer_factory.hpp:77] Creating layer rpn_relu/3x3
I0628 11:36:54.524224 49375 net.cpp:106] Creating Layer rpn_relu/3x3
I0628 11:36:54.524240 49375 net.cpp:454] rpn_relu/3x3 <- rpn/output
I0628 11:36:54.524246 49375 net.cpp:397] rpn_relu/3x3 -> rpn/output (in-place)
I0628 11:36:54.524531 49375 net.cpp:150] Setting up rpn_relu/3x3
I0628 11:36:54.524549 49375 net.cpp:157] Top shape: 1 512 150 250 (19200000)
I0628 11:36:54.524552 49375 net.cpp:165] Memory required for data: 2012147540
I0628 11:36:54.524556 49375 layer_factory.hpp:77] Creating layer rpn/output_rpn_relu/3x3_0_split
I0628 11:36:54.524585 49375 net.cpp:106] Creating Layer rpn/output_rpn_relu/3x3_0_split
I0628 11:36:54.524596 49375 net.cpp:454] rpn/output_rpn_relu/3x3_0_split <- rpn/output
I0628 11:36:54.524601 49375 net.cpp:411] rpn/output_rpn_relu/3x3_0_split -> rpn/output_rpn_relu/3x3_0_split_0
I0628 11:36:54.524621 49375 net.cpp:411] rpn/output_rpn_relu/3x3_0_split -> rpn/output_rpn_relu/3x3_0_split_1
I0628 11:36:54.524689 49375 net.cpp:150] Setting up rpn/output_rpn_relu/3x3_0_split
I0628 11:36:54.524703 49375 net.cpp:157] Top shape: 1 512 150 250 (19200000)
I0628 11:36:54.524706 49375 net.cpp:157] Top shape: 1 512 150 250 (19200000)
I0628 11:36:54.524709 49375 net.cpp:165] Memory required for data: 2165747540
I0628 11:36:54.524713 49375 layer_factory.hpp:77] Creating layer rpn_cls_score
I0628 11:36:54.524744 49375 net.cpp:106] Creating Layer rpn_cls_score
I0628 11:36:54.524755 49375 net.cpp:454] rpn_cls_score <- rpn/output_rpn_relu/3x3_0_split_0
I0628 11:36:54.524763 49375 net.cpp:411] rpn_cls_score -> rpn_cls_score
I0628 11:36:54.529888 49375 net.cpp:150] Setting up rpn_cls_score
I0628 11:36:54.529912 49375 net.cpp:157] Top shape: 1 18 150 250 (675000)
I0628 11:36:54.529939 49375 net.cpp:165] Memory required for data: 2168447540
I0628 11:36:54.529953 49375 layer_factory.hpp:77] Creating layer rpn_cls_score_rpn_cls_score_0_split
I0628 11:36:54.529960 49375 net.cpp:106] Creating Layer rpn_cls_score_rpn_cls_score_0_split
I0628 11:36:54.530015 49375 net.cpp:454] rpn_cls_score_rpn_cls_score_0_split <- rpn_cls_score
I0628 11:36:54.530035 49375 net.cpp:411] rpn_cls_score_rpn_cls_score_0_split -> rpn_cls_score_rpn_cls_score_0_split_0
I0628 11:36:54.530057 49375 net.cpp:411] rpn_cls_score_rpn_cls_score_0_split -> rpn_cls_score_rpn_cls_score_0_split_1
I0628 11:36:54.530124 49375 net.cpp:150] Setting up rpn_cls_score_rpn_cls_score_0_split
I0628 11:36:54.530138 49375 net.cpp:157] Top shape: 1 18 150 250 (675000)
I0628 11:36:54.530143 49375 net.cpp:157] Top shape: 1 18 150 250 (675000)
I0628 11:36:54.530145 49375 net.cpp:165] Memory required for data: 2173847540
I0628 11:36:54.530148 49375 layer_factory.hpp:77] Creating layer rpn_bbox_pred
I0628 11:36:54.530180 49375 net.cpp:106] Creating Layer rpn_bbox_pred
I0628 11:36:54.530191 49375 net.cpp:454] rpn_bbox_pred <- rpn/output_rpn_relu/3x3_0_split_1
I0628 11:36:54.530197 49375 net.cpp:411] rpn_bbox_pred -> rpn_bbox_pred
I0628 11:36:54.535747 49375 net.cpp:150] Setting up rpn_bbox_pred
I0628 11:36:54.535773 49375 net.cpp:157] Top shape: 1 36 150 250 (1350000)
I0628 11:36:54.535776 49375 net.cpp:165] Memory required for data: 2179247540
I0628 11:36:54.535784 49375 layer_factory.hpp:77] Creating layer rpn_bbox_pred_rpn_bbox_pred_0_split
I0628 11:36:54.535820 49375 net.cpp:106] Creating Layer rpn_bbox_pred_rpn_bbox_pred_0_split
I0628 11:36:54.535832 49375 net.cpp:454] rpn_bbox_pred_rpn_bbox_pred_0_split <- rpn_bbox_pred
I0628 11:36:54.535840 49375 net.cpp:411] rpn_bbox_pred_rpn_bbox_pred_0_split -> rpn_bbox_pred_rpn_bbox_pred_0_split_0
I0628 11:36:54.535864 49375 net.cpp:411] rpn_bbox_pred_rpn_bbox_pred_0_split -> rpn_bbox_pred_rpn_bbox_pred_0_split_1
I0628 11:36:54.535930 49375 net.cpp:150] Setting up rpn_bbox_pred_rpn_bbox_pred_0_split
I0628 11:36:54.535944 49375 net.cpp:157] Top shape: 1 36 150 250 (1350000)
I0628 11:36:54.535948 49375 net.cpp:157] Top shape: 1 36 150 250 (1350000)
I0628 11:36:54.535951 49375 net.cpp:165] Memory required for data: 2190047540
I0628 11:36:54.535955 49375 layer_factory.hpp:77] Creating layer rpn_cls_score_reshape
I0628 11:36:54.535990 49375 net.cpp:106] Creating Layer rpn_cls_score_reshape
I0628 11:36:54.536002 49375 net.cpp:454] rpn_cls_score_reshape <- rpn_cls_score_rpn_cls_score_0_split_0
I0628 11:36:54.536010 49375 net.cpp:411] rpn_cls_score_reshape -> rpn_cls_score_reshape
I0628 11:36:54.536072 49375 net.cpp:150] Setting up rpn_cls_score_reshape
I0628 11:36:54.536085 49375 net.cpp:157] Top shape: 1 2 1350 250 (675000)
I0628 11:36:54.536089 49375 net.cpp:165] Memory required for data: 2192747540
I0628 11:36:54.536092 49375 layer_factory.hpp:77] Creating layer rpn_cls_score_reshape_rpn_cls_score_reshape_0_split
I0628 11:36:54.536114 49375 net.cpp:106] Creating Layer rpn_cls_score_reshape_rpn_cls_score_reshape_0_split
I0628 11:36:54.536124 49375 net.cpp:454] rpn_cls_score_reshape_rpn_cls_score_reshape_0_split <- rpn_cls_score_reshape
I0628 11:36:54.536133 49375 net.cpp:411] rpn_cls_score_reshape_rpn_cls_score_reshape_0_split -> rpn_cls_score_reshape_rpn_cls_score_reshape_0_split_0
I0628 11:36:54.536140 49375 net.cpp:411] rpn_cls_score_reshape_rpn_cls_score_reshape_0_split -> rpn_cls_score_reshape_rpn_cls_score_reshape_0_split_1
I0628 11:36:54.536204 49375 net.cpp:150] Setting up rpn_cls_score_reshape_rpn_cls_score_reshape_0_split
I0628 11:36:54.536218 49375 net.cpp:157] Top shape: 1 2 1350 250 (675000)
I0628 11:36:54.536223 49375 net.cpp:157] Top shape: 1 2 1350 250 (675000)
I0628 11:36:54.536226 49375 net.cpp:165] Memory required for data: 2198147540
I0628 11:36:54.536244 49375 layer_factory.hpp:77] Creating layer rpn-data
I0628 11:36:54.536948 49375 net.cpp:106] Creating Layer rpn-data
I0628 11:36:54.536972 49375 net.cpp:454] rpn-data <- rpn_cls_score_rpn_cls_score_0_split_1
I0628 11:36:54.537001 49375 net.cpp:454] rpn-data <- gt_boxes_input-data_2_split_0
I0628 11:36:54.537014 49375 net.cpp:454] rpn-data <- im_info_input-data_1_split_0
I0628 11:36:54.537017 49375 net.cpp:454] rpn-data <- data_input-data_0_split_1
I0628 11:36:54.537024 49375 net.cpp:411] rpn-data -> rpn_labels
I0628 11:36:54.537031 49375 net.cpp:411] rpn-data -> rpn_bbox_targets
I0628 11:36:54.537037 49375 net.cpp:411] rpn-data -> rpn_bbox_inside_weights
I0628 11:36:54.537060 49375 net.cpp:411] rpn-data -> rpn_bbox_outside_weights
I0628 11:36:54.539471 49375 net.cpp:150] Setting up rpn-data
I0628 11:36:54.539496 49375 net.cpp:157] Top shape: 1 1 1350 250 (337500)
I0628 11:36:54.539526 49375 net.cpp:157] Top shape: 1 36 150 250 (1350000)
I0628 11:36:54.539538 49375 net.cpp:157] Top shape: 1 36 150 250 (1350000)
I0628 11:36:54.539542 49375 net.cpp:157] Top shape: 1 36 150 250 (1350000)
I0628 11:36:54.539546 49375 net.cpp:165] Memory required for data: 2215697540
I0628 11:36:54.539549 49375 layer_factory.hpp:77] Creating layer rpn_loss_cls
I0628 11:36:54.539572 49375 net.cpp:106] Creating Layer rpn_loss_cls
I0628 11:36:54.539582 49375 net.cpp:454] rpn_loss_cls <- rpn_cls_score_reshape_rpn_cls_score_reshape_0_split_0
I0628 11:36:54.539588 49375 net.cpp:454] rpn_loss_cls <- rpn_labels
…
I0628 11:36:54.551568 49375 net.cpp:157] Top shape: (1)
I0628 11:36:54.551573 49375 net.cpp:160]     with loss weight 1
I0628 11:36:54.551604 49375 net.cpp:165] Memory required for data: 2215697548
I0628 11:36:54.551615 49375 layer_factory.hpp:77] Creating layer rpn_cls_prob
I0628 11:36:54.551622 49375 net.cpp:106] Creating Layer rpn_cls_prob
I0628 11:36:54.551640 49375 net.cpp:454] rpn_cls_prob <- rpn_cls_score_reshape_rpn_cls_score_reshape_0_split_1
I0628 11:36:54.551661 49375 net.cpp:411] rpn_cls_prob -> rpn_cls_prob
I0628 11:36:54.552536 49375 net.cpp:150] Setting up rpn_cls_prob
I0628 11:36:54.552556 49375 net.cpp:157] Top shape: 1 2 1350 250 (675000)
I0628 11:36:54.552561 49375 net.cpp:165] Memory required for data: 2218397548
I0628 11:36:54.552585 49375 layer_factory.hpp:77] Creating layer rpn_cls_prob_reshape
I0628 11:36:54.552603 49375 net.cpp:106] Creating Layer rpn_cls_prob_reshape
I0628 11:36:54.552619 49375 net.cpp:454] rpn_cls_prob_reshape <- rpn_cls_prob
I0628 11:36:54.552635 49375 net.cpp:411] rpn_cls_prob_reshape -> rpn_cls_prob_reshape
I0628 11:36:54.552681 49375 net.cpp:150] Setting up rpn_cls_prob_reshape
I0628 11:36:54.552695 49375 net.cpp:157] Top shape: 1 18 150 250 (675000)
I0628 11:36:54.552697 49375 net.cpp:165] Memory required for data: 2221097548
I0628 11:36:54.552701 49375 layer_factory.hpp:77] Creating layer proposal
I0628 11:36:54.553601 49375 net.cpp:106] Creating Layer proposal
I0628 11:36:54.553624 49375 net.cpp:454] proposal <- rpn_cls_prob_reshape
I0628 11:36:54.553632 49375 net.cpp:454] proposal <- rpn_bbox_pred_rpn_bbox_pred_0_split_1
I0628 11:36:54.553661 49375 net.cpp:454] proposal <- im_info_input-data_1_split_1
I0628 11:36:54.553674 49375 net.cpp:411] proposal -> rpn_rois
I0628 11:36:54.555243 49375 net.cpp:150] Setting up proposal
I0628 11:36:54.555268 49375 net.cpp:157] Top shape: 1 5 (5)
I0628 11:36:54.555271 49375 net.cpp:165] Memory required for data: 2221097568
I0628 11:36:54.555299 49375 layer_factory.hpp:77] Creating layer roi-data
I0628 11:36:54.555485 49375 net.cpp:106] Creating Layer roi-data
I0628 11:36:54.555505 49375 net.cpp:454] roi-data <- rpn_rois
I0628 11:36:54.555511 49375 net.cpp:454] roi-data <- gt_boxes_input-data_2_split_1
I0628 11:36:54.555539 49375 net.cpp:411] roi-data -> rois
I0628 11:36:54.555554 49375 net.cpp:411] roi-data -> labels
I0628 11:36:54.555562 49375 net.cpp:411] roi-data -> bbox_targets
I0628 11:36:54.555583 49375 net.cpp:411] roi-data -> bbox_inside_weights
I0628 11:36:54.555594 49375 net.cpp:411] roi-data -> bbox_outside_weights
I0628 11:36:54.556005 49375 net.cpp:150] Setting up roi-data
I0628 11:36:54.556025 49375 net.cpp:157] Top shape: 1 5 (5)
I0628 11:36:54.556030 49375 net.cpp:157] Top shape: 1 1 (1)
I0628 11:36:54.556056 49375 net.cpp:157] Top shape: 1 84 (84)
I0628 11:36:54.556066 49375 net.cpp:157] Top shape: 1 84 (84)
I0628 11:36:54.556071 49375 net.cpp:157] Top shape: 1 84 (84)
I0628 11:36:54.556073 49375 net.cpp:165] Memory required for data: 2221098600
I0628 11:36:54.556077 49375 layer_factory.hpp:77] Creating layer roi_pool5
I0628 11:36:54.556102 49375 net.cpp:106] Creating Layer roi_pool5
I0628 11:36:54.556113 49375 net.cpp:454] roi_pool5 <- newP2_newP2_0_split_1
I0628 11:36:54.556118 49375 net.cpp:454] roi_pool5 <- rois
I0628 11:36:54.556135 49375 net.cpp:411] roi_pool5 -> rcnn_pool5
I0628 11:36:54.556149 49375 roi_pooling_layer.cpp:30] Spatial scale: 0.25
I0628 11:36:54.556217 49375 net.cpp:150] Setting up roi_pool5
I0628 11:36:54.556231 49375 net.cpp:157] Top shape: 1 256 7 7 (12544)
I0628 11:36:54.556233 49375 net.cpp:165] Memory required for data: 2221148776
I0628 11:36:54.556237 49375 layer_factory.hpp:77] Creating layer rcnn_fc6
I0628 11:36:54.556247 49375 net.cpp:106] Creating Layer rcnn_fc6
I0628 11:36:54.556257 49375 net.cpp:454] rcnn_fc6 <- rcnn_pool5
I0628 11:36:54.556262 49375 net.cpp:411] rcnn_fc6 -> rcnn_fc6
I0628 11:36:54.887627 49375 net.cpp:150] Setting up rcnn_fc6
I0628 11:36:54.887681 49375 net.cpp:157] Top shape: 1 4096 (4096)
I0628 11:36:54.887686 49375 net.cpp:165] Memory required for data: 2221165160
I0628 11:36:54.887701 49375 layer_factory.hpp:77] Creating layer relu6
I0628 11:36:54.887713 49375 net.cpp:106] Creating Layer relu6
I0628 11:36:54.887720 49375 net.cpp:454] relu6 <- rcnn_fc6
I0628 11:36:54.887764 49375 net.cpp:397] relu6 -> rcnn_fc6 (in-place)
I0628 11:36:54.888828 49375 net.cpp:150] Setting up relu6
I0628 11:36:54.888851 49375 net.cpp:157] Top shape: 1 4096 (4096)
I0628 11:36:54.888855 49375 net.cpp:165] Memory required for data: 2221181544
I0628 11:36:54.888859 49375 layer_factory.hpp:77] Creating layer drop6
I0628 11:36:54.888896 49375 net.cpp:106] Creating Layer drop6
I0628 11:36:54.888912 49375 net.cpp:454] drop6 <- rcnn_fc6
I0628 11:36:54.888931 49375 net.cpp:397] drop6 -> rcnn_fc6 (in-place)
I0628 11:36:54.888996 49375 net.cpp:150] Setting up drop6
I0628 11:36:54.889010 49375 net.cpp:157] Top shape: 1 4096 (4096)
I0628 11:36:54.889014 49375 net.cpp:165] Memory required for data: 2221197928
I0628 11:36:54.889017 49375 layer_factory.hpp:77] Creating layer fc7
I0628 11:36:54.889026 49375 net.cpp:106] Creating Layer fc7
I0628 11:36:54.889045 49375 net.cpp:454] fc7 <- rcnn_fc6
I0628 11:36:54.889065 49375 net.cpp:411] fc7 -> fc7
I0628 11:36:55.014180 49375 net.cpp:150] Setting up fc7
I0628 11:36:55.014247 49375 net.cpp:157] Top shape: 1 4096 (4096)
I0628 11:36:55.014255 49375 net.cpp:165] Memory required for data: 2221214312
I0628 11:36:55.014273 49375 layer_factory.hpp:77] Creating layer relu7
I0628 11:36:55.014292 49375 net.cpp:106] Creating Layer relu7
I0628 11:36:55.014300 49375 net.cpp:454] relu7 <- fc7
I0628 11:36:55.014351 49375 net.cpp:397] relu7 -> fc7 (in-place)
I0628 11:36:55.014757 49375 net.cpp:150] Setting up relu7
I0628 11:36:55.014796 49375 net.cpp:157] Top shape: 1 4096 (4096)
I0628 11:36:55.014804 49375 net.cpp:165] Memory required for data: 2221230696
I0628 11:36:55.014834 49375 layer_factory.hpp:77] Creating layer drop7
I0628 11:36:55.014869 49375 net.cpp:106] Creating Layer drop7
I0628 11:36:55.014905 49375 net.cpp:454] drop7 <- fc7
I0628 11:36:55.014991 49375 net.cpp:397] drop7 -> fc7 (in-place)
I0628 11:36:55.015072 49375 net.cpp:150] Setting up drop7
I0628 11:36:55.015087 49375 net.cpp:157] Top shape: 1 4096 (4096)
I0628 11:36:55.015094 49375 net.cpp:165] Memory required for data: 2221247080
I0628 11:36:55.015100 49375 layer_factory.hpp:77] Creating layer fc7_drop7_0_split
I0628 11:36:55.015133 49375 net.cpp:106] Creating Layer fc7_drop7_0_split
I0628 11:36:55.015161 49375 net.cpp:454] fc7_drop7_0_split <- fc7
I0628 11:36:55.015192 49375 net.cpp:411] fc7_drop7_0_split -> fc7_drop7_0_split_0
I0628 11:36:55.015224 49375 net.cpp:411] fc7_drop7_0_split -> fc7_drop7_0_split_1
I0628 11:36:55.015338 49375 net.cpp:150] Setting up fc7_drop7_0_split
I0628 11:36:55.015359 49375 net.cpp:157] Top shape: 1 4096 (4096)
I0628 11:36:55.015367 49375 net.cpp:157] Top shape: 1 4096 (4096)
I0628 11:36:55.015372 49375 net.cpp:165] Memory required for data: 2221279848
I0628 11:36:55.015377 49375 layer_factory.hpp:77] Creating layer cls_score
I0628 11:36:55.015416 49375 net.cpp:106] Creating Layer cls_score
I0628 11:36:55.015441 49375 net.cpp:454] cls_score <- fc7_drop7_0_split_0
I0628 11:36:55.015471 49375 net.cpp:411] cls_score -> cls_score
I0628 11:36:55.017755 49375 net.cpp:150] Setting up cls_score
I0628 11:36:55.017781 49375 net.cpp:157] Top shape: 1 21 (21)
I0628 11:36:55.017787 49375 net.cpp:165] Memory required for data: 2221279932
I0628 11:36:55.017802 49375 layer_factory.hpp:77] Creating layer bbox_pred
I0628 11:36:55.017817 49375 net.cpp:106] Creating Layer bbox_pred
I0628 11:36:55.017849 49375 net.cpp:454] bbox_pred <- fc7_drop7_0_split_1
I0628 11:36:55.017877 49375 net.cpp:411] bbox_pred -> bbox_pred
I0628 11:36:55.027485 49375 net.cpp:150] Setting up bbox_pred
I0628 11:36:55.027549 49375 net.cpp:157] Top shape: 1 84 (84)
I0628 11:36:55.027555 49375 net.cpp:165] Memory required for data: 2221280268
I0628 11:36:55.027575 49375 layer_factory.hpp:77] Creating layer loss_cls
I0628 11:36:55.027593 49375 net.cpp:106] Creating Layer loss_cls
I0628 11:36:55.027606 49375 net.cpp:454] loss_cls <- cls_score
I0628 11:36:55.027652 49375 net.cpp:454] loss_cls <- labels
I0628 11:36:55.027680 49375 net.cpp:411] loss_cls -> loss_cls
…
