…
stepsize: 50000
snapshot: 0
snapshot_prefix: "fpn"
average_loss: 100
iter_size: 2
I0629 14:08:44.472512 14927 solver.cpp:81] Creating training net from train_net file: models/pascal_voc/VGG16/FP_Net_end2end/train.prototxt
I0629 14:08:44.473887 14927 net.cpp:49] Initializing net from parameters: 
name: "VGG_ILSVRC_16_layers"
state {
  phase: TRAIN
}
layer {
  name: "input-data"
  type: "Python"
  top: "data"
  top: "im_info"
  top: "gt_boxes"
  python_param {
    module: "roi_data_layer.layer"
    layer: "RoIDataLayer"
    param_str: "\'num_classes\': 21"
  }
}
layer {
  name: "conv1_1"
  type: "Convolution"
  bottom: "data"
  top: "conv1_1"
  param {
    lr_mult: 0
    decay_mult: 0
  }
  param {
    lr_mult: 0
    decay_mult: 0
  }
  convolution_param {
    num_output: 64
    pad: 1
    kernel_size: 3
  }
}
layer {
  name: "relu1_1"
  type: "ReLU"
  bottom: "conv1_1"
  top: "conv1_1"
}
layer {
  name: "conv1_2"
  type: "Convolution"
  bottom: "conv1_1"
  top: "conv1_2"
  param {
    lr_mult: 0
    decay_mult: 0
  }
  param {
    lr_mult: 0
    decay_mult: 0
  }
  convolution_param {
    num_output: 64
    pad: 1
    kernel_size: 3
  }
}
layer {
  name: "relu1_2"
  type: "ReLU"
  bottom: "conv1_2"
  top: "conv1_2"
}
layer {
  name: "pool1"
  type: "Pooling"
  bottom: "conv1_2"
  top: "pool1"
  pooling_param {
    pool: MAX
    kernel_size: 2
    stride: 2
  }
}
layer {
  name: "conv2_1"
  type: "Convolution"
  bottom: "pool1"
  top: "conv2_1"
  param {
    lr_mult: 0
    decay_mult: 0
  }
  param {
    lr_mult: 0
    decay_mult: 0
  }
  convolution_param {
    num_output: 128
    pad: 1
    kernel_size: 3
  }
}
layer {
  name: "relu2_1"
  type: "ReLU"
  bottom: "conv2_1"
  top: "conv2_1"
}
layer {
  name: "conv2_2"
  type: "Convolution"
  bottom: "conv2_1"
  top: "conv2_2"
  param {
    lr_mult: 0
    decay_mult: 0
  }
  param {
    lr_mult: 0
    decay_mult: 0
  }
  convolution_param {
    num_output: 128
    pad: 1
    kernel_size: 3
  }
}
layer {
  name: "relu2_2"
  type: "ReLU"
  bottom: "conv2_2"
  top: "conv2_2"
}
layer {
  name: "pool2"
  type: "Pooling"
  bottom: "conv2_2"
  top: "pool2"
  pooling_param {
    pool: MAX
    kernel_size: 2
    stride: 2
  }
}
layer {
  name: "conv3_1"
  type: "Convolution"
  bottom: "pool2"
  top: "conv3_1"
  param {
    lr_mult: 1
  }
  param {
    lr_mult: 2
  }
  convolution_param {
    num_output: 256
    pad: 1
    kernel_size: 3
  }
}
layer {
  name: "relu3_1"
  type: "ReLU"
  bottom: "conv3_1"
  top: "conv3_1"
}
layer {
  name: "conv3_2"
  type: "Convolution"
  bottom: "conv3_1"
  top: "conv3_2"
  param {
    lr_mult: 1
  }
  param {
    lr_mult: 2
  }
  convolution_param {
    num_output: 256
    pad: 1
    kernel_size: 3
  }
}
layer {
  name: "relu3_2"
  type: "ReLU"
  bottom: "conv3_2"
  top: "conv3_2"
}
layer {
  name: "conv3_3"
  type: "Convolution"
  bottom: "conv3_2"
  top: "conv3_3"
  param {
    lr_mult: 1
  }
  param {
    lr_mult: 2
  }
  convolution_param {
    num_output: 256
    pad: 1
    kernel_size: 3
  }
}
layer {
  name: "relu3_3"
  type: "ReLU"
  bottom: "conv3_3"
  top: "conv3_3"
}
layer {
  name: "pool3"
  type: "Pooling"
  bottom: "conv3_3"
  top: "pool3"
  pooling_param {
    pool: MAX
    kernel_size: 2
    stride: 2
  }
}
layer {
  name: "conv4_1"
  type: "Convolution"
  bottom: "pool3"
  top: "conv4_1"
  param {
    lr_mult: 1
  }
  param {
    lr_mult: 2
  }
  convolution_param {
    num_output: 512
    pad: 1
    kernel_size: 3
  }
}
layer {
  name: "relu4_1"
  type: "ReLU"
  bottom: "conv4_1"
  top: "conv4_1"
}
layer {
  name: "conv4_2"
  type: "Convolution"
  bottom: "conv4_1"
  top: "conv4_2"
  param {
    lr_mult: 1
  }
  param {
    lr_mult: 2
  }
  convolution_param {
    num_output: 512
    pad: 1
    kernel_size: 3
  }
}
layer {
  name: "relu4_2"
  type: "ReLU"
  bottom: "conv4_2"
  top: "conv4_2"
}
layer {
  name: "conv4_3"
  type: "Convolution"
  bottom: "conv4_2"
  top: "conv4_3"
  param {
    lr_mult: 1
  }
  param {
    lr_mult: 2
  }
  convolution_param {
    num_output: 512
    pad: 1
    kernel_size: 3
  }
}
layer {
  name: "relu4_3"
  type: "ReLU"
  bottom: "conv4_3"
  top: "conv4_3"
}
layer {
  name: "pool4"
  type: "Pooling"
  bottom: "conv4_3"
  top: "pool4"
  pooling_param {
    pool: MAX
    kernel_size: 2
    stride: 2
  }
}
layer {
  name: "conv5_1"
  type: "Convolution"
  bottom: "pool4"
  top: "conv5_1"
  param {
    lr_mult: 1
  }
  param {
    lr_mult: 2
  }
  convolution_param {
    num_output: 512
    pad: 1
    kernel_size: 3
  }
}
layer {
  name: "relu5_1"
  type: "ReLU"
  bottom: "conv5_1"
  top: "conv5_1"
}
layer {
  name: "conv5_2"
  type: "Convolution"
  bottom: "conv5_1"
  top: "conv5_2"
  param {
    lr_mult: 1
  }
  param {
    lr_mult: 2
  }
  convolution_param {
    num_output: 512
    pad: 1
    kernel_size: 3
  }
}
layer {
  name: "relu5_2"
  type: "ReLU"
  bottom: "conv5_2"
  top: "conv5_2"
}
layer {
  name: "conv5_3"
  type: "Convolution"
  bottom: "conv5_2"
  top: "conv5_3"
  param {
    lr_mult: 1
  }
  param {
    lr_mult: 2
  }
  convolution_param {
    num_output: 512
    pad: 1
    kernel_size: 3
  }
}
layer {
  name: "relu5_3"
  type: "ReLU"
  bottom: "conv5_3"
  top: "conv5_3"
}
layer {
  name: "newC4"
  type: "Convolution"
  bottom: "conv5_3"
  top: "newC4"
  param {
    lr_mult: 1
  }
  param {
    lr_mult: 2
  }
  convolution_param {
    num_output: 256
    kernel_size: 1
    weight_filler {
      type: "xavier"
    }
    bias_filler {
      type: "constant"
    }
  }
}
layer {
  name: "upP4"
  type: "Deconvolution"
  bottom: "newC4"
  top: "upP4"
  param {
    lr_mult: 0
    decay_mult: 0
  }
  convolution_param {
    num_output: 256
    bias_term: false
    pad: 1
    kernel_size: 4
    stride: 2
    weight_filler {
      type: "bilinear"
    }
  }
}
layer {
  name: "newC3"
  type: "Convolution"
  bottom: "conv4_3"
  top: "newC3"
  param {
    lr_mult: 1
  }
  param {
    lr_mult: 2
  }
  convolution_param {
    num_output: 256
    kernel_size: 1
    weight_filler {
      type: "xavier"
    }
    bias_filler {
      type: "constant"
    }
  }
}
layer {
  name: "upP4crop"
  type: "Crop"
  bottom: "upP4"
  bottom: "newC3"
  top: "upP4crop"
  crop_param {
    axis: 2
    offset: 0
  }
}
layer {
  name: "P3"
  type: "Eltwise"
  bottom: "newC3"
  bottom: "upP4crop"
  top: "P3"
  eltwise_param {
    operation: SUM
  }
}
layer {
  name: "newP3"
  type: "Convolution"
  bottom: "P3"
  top: "newP3"
  param {
    lr_mult: 1
  }
  param {
    lr_mult: 2
  }
  convolution_param {
    num_output: 256
    pad: 1
    kernel_size: 3
    weight_filler {
      type: "xavier"
    }
    bias_filler {
      type: "constant"
    }
  }
}
layer {
  name: "rpn_conv/3x3"
  type: "Convolution"
  bottom: "newP3"
  top: "rpn/output"
  param {
    lr_mult: 1
  }
  param {
    lr_mult: 2
  }
  convolution_param {
    num_output: 512
    pad: 1
    kernel_size: 3
    stride: 1
    weight_filler {
      type: "gaussian"
      std: 0.01
    }
    bias_filler {
      type: "constant"
      value: 0
    }
  }
}
layer {
  name: "rpn_relu/3x3"
  type: "ReLU"
  bottom: "rpn/output"
  top: "rpn/output"
}
layer {
  name: "rpn_cls_score"
  type: "Convolution"
  bottom: "rpn/output"
  top: "rpn_cls_score"
  param {
    lr_mult: 1
  }
  param {
    lr_mult: 2
  }
  convolution_param {
    num_output: 18
    pad: 0
    kernel_size: 1
    stride: 1
    weight_filler {
      type: "gaussian"
      std: 0.01
    }
    bias_filler {
      type: "constant"
      value: 0
    }
  }
}
layer {
  name: "rpn_bbox_pred"
  type: "Convolution"
  bottom: "rpn/output"
  top: "rpn_bbox_pred"
  param {
    lr_mult: 1
  }
  param {
    lr_mult: 2
  }
  convolution_param {
    num_output: 36
    pad: 0
    kernel_size: 1
    stride: 1
    weight_filler {
      type: "gaussian"
      std: 0.01
    }
    bias_filler {
      type: "constant"
      value: 0
    }
  }
}
layer {
  name: "rpn_cls_score_reshape"
  type: "Reshape"
  bottom: "rpn_cls_score"
  top: "rpn_cls_score_reshape"
  reshape_param {
    shape {
      dim: 0
      dim: 2
      dim: -1
      dim: 0
    }
  }
}
layer {
  name: "rpn-data"
  type: "Python"
  bottom: "rpn_cls_score"
  bottom: "gt_boxes"
  bottom: "im_info"
  bottom: "data"
  top: "rpn_labels"
  top: "rpn_bbox_targets"
  top: "rpn_bbox_inside_weights"
  top: "rpn_bbox_outside_weights"
  python_param {
    module: "rpn.anchor_target_layer"
    layer: "AnchorTargetLayer"
    param_str: "\'feat_stride\': 16"
  }
}
layer {
  name: "rpn_loss_cls"
  type: "SoftmaxWithLoss"
  bottom: "rpn_cls_score_reshape"
  bottom: "rpn_labels"
  top: "rpn_cls_loss"
  loss_weight: 1
  propagate_down: true
  propagate_down: false
  loss_param {
    ignore_label: -1
    normalize: true
  }
}
layer {
  name: "rpn_loss_bbox"
  type: "SmoothL1Loss"
  bottom: "rpn_bbox_pred"
  bottom: "rpn_bbox_targets"
  bottom: "rpn_bbox_inside_weights"
  bottom: "rpn_bbox_outside_weights"
  top: "rpn_loss_bbox"
  loss_weight: 1
  smooth_l1_loss_param {
    sigma: 3
  }
}
layer {
  name: "rpn_cls_prob"
  type: "Softmax"
  bottom: "rpn_cls_score_reshape"
  top: "rpn_cls_prob"
}
layer {
  name: "rpn_cls_prob_reshape"
  type: "Reshape"
  bottom: "rpn_cls_prob"
  top: "rpn_cls_prob_reshape"
  reshape_param {
    shape {
      dim: 0
      dim: 18
      dim: -1
      dim: 0
    }
  }
}
layer {
  name: "proposal"
  type: "Python"
  bottom: "rpn_cls_prob_reshape"
  bottom: "rpn_bbox_pred"
  bottom: "im_info"
  top: "rpn_rois"
  python_param {
    module: "rpn.proposal_layer"
    layer: "ProposalLayer"
    param_str: "\'feat_stride\': 16"
  }
}
layer {
  name: "roi-data"
  type: "Python"
  bottom: "rpn_rois"
  bottom: "gt_boxes"
  top: "rois"
  top: "labels"
  top: "bbox_targets"
  top: "bbox_inside_weights"
  top: "bbox_outside_weights"
  python_param {
    module: "rpn.proposal_target_layer"
    layer: "ProposalTargetLayer"
    param_str: "\'num_classes\': 21"
  }
}
layer {
  name: "roi_pool5"
  type: "ROIPooling"
  bottom: "newP3"
  bottom: "rois"
  top: "rcnn_pool5"
  roi_pooling_param {
    pooled_h: 7
    pooled_w: 7
    spatial_scale: 0.0625
  }
}
layer {
  name: "rcnn_fc6"
  type: "InnerProduct"
  bottom: "rcnn_pool5"
  top: "rcnn_fc6"
  param {
    lr_mult: 1
  }
  param {
    lr_mult: 2
  }
  inner_product_param {
    num_output: 4096
    weight_filler {
      type: "xavier"
    }
    bias_filler {
      type: "constant"
    }
  }
}
layer {
  name: "relu6"
  type: "ReLU"
  bottom: "rcnn_fc6"
  top: "rcnn_fc6"
}
layer {
  name: "drop6"
  type: "Dropout"
  bottom: "rcnn_fc6"
  top: "rcnn_fc6"
  dropout_param {
    dropout_ratio: 0.5
  }
}
layer {
  name: "fc7"
  type: "InnerProduct"
  bottom: "rcnn_fc6"
  top: "fc7"
  param {
    lr_mult: 1
  }
  param {
    lr_mult: 2
  }
  inner_product_param {
    num_output: 4096
    weight_filler {
      type: "xavier"
    }
    bias_filler {
      type: "constant"
    }
  }
}
layer {
  name: "relu7"
  type: "ReLU"
  bottom: "fc7"
  top: "fc7"
}
layer {
  name: "drop7"
  type: "Dropout"
  bottom: "fc7"
  top: "fc7"
  dropout_param {
    dropout_ratio: 0.5
  }
}
layer {
  name: "cls_score"
  type: "InnerProduct"
  bottom: "fc7"
  top: "cls_score"
  param {
    lr_mult: 1
  }
  param {
    lr_mult: 2
  }
  inner_product_param {
    num_output: 21
    weight_filler {
      type: "gaussian"
      std: 0.01
    }
    bias_filler {
      type: "constant"
      value: 0
    }
  }
}
layer {
  name: "bbox_pred"
  type: "InnerProduct"
  bottom: "fc7"
  top: "bbox_pred"
  param {
    lr_mult: 1
  }
  param {
    lr_mult: 2
  }
  inner_product_param {
    num_output: 84
    weight_filler {
      type: "gaussian"
      std: 0.001
    }
    bias_filler {
      type: "constant"
      value: 0
    }
  }
}
layer {
  name: "loss_cls"
  type: "SoftmaxWithLoss"
  bottom: "cls_score"
  bottom: "labels"
  top: "loss_cls"
  loss_weight: 1
  propagate_down: true
  propagate_down: false
}
layer {
  name: "loss_bbox"
  type: "SmoothL1Loss"
  bottom: "bbox_pred"
  bottom: "bbox_targets"
  bottom: "bbox_inside_weights"
  bottom: "bbox_outside_weights"
  top: "loss_bbox"
  loss_weight: 1
}
I0629 14:08:44.474213 14927 layer_factory.hpp:77] Creating layer input-data
I0629 14:08:44.475281 14927 net.cpp:106] Creating Layer input-data
I0629 14:08:44.475298 14927 net.cpp:411] input-data -> data
I0629 14:08:44.475314 14927 net.cpp:411] input-data -> im_info
I0629 14:08:44.475320 14927 net.cpp:411] input-data -> gt_boxes
RoiDataLayer: name_to_top: {'gt_boxes': 2, 'data': 0, 'im_info': 1}
I0629 14:08:44.489464 14927 net.cpp:150] Setting up input-data
I0629 14:08:44.489500 14927 net.cpp:157] Top shape: 1 3 800 2000 (4800000)
I0629 14:08:44.489507 14927 net.cpp:157] Top shape: 1 3 (3)
I0629 14:08:44.489511 14927 net.cpp:157] Top shape: 1 4 (4)
I0629 14:08:44.489517 14927 net.cpp:165] Memory required for data: 19200028
I0629 14:08:44.489526 14927 layer_factory.hpp:77] Creating layer data_input-data_0_split
I0629 14:08:44.489544 14927 net.cpp:106] Creating Layer data_input-data_0_split
I0629 14:08:44.489555 14927 net.cpp:454] data_input-data_0_split <- data
I0629 14:08:44.489567 14927 net.cpp:411] data_input-data_0_split -> data_input-data_0_split_0
I0629 14:08:44.489578 14927 net.cpp:411] data_input-data_0_split -> data_input-data_0_split_1
I0629 14:08:44.489616 14927 net.cpp:150] Setting up data_input-data_0_split
I0629 14:08:44.489626 14927 net.cpp:157] Top shape: 1 3 800 2000 (4800000)
I0629 14:08:44.489632 14927 net.cpp:157] Top shape: 1 3 800 2000 (4800000)
I0629 14:08:44.489635 14927 net.cpp:165] Memory required for data: 57600028
I0629 14:08:44.489639 14927 layer_factory.hpp:77] Creating layer im_info_input-data_1_split
I0629 14:08:44.489650 14927 net.cpp:106] Creating Layer im_info_input-data_1_split
I0629 14:08:44.489662 14927 net.cpp:454] im_info_input-data_1_split <- im_info
I0629 14:08:44.489667 14927 net.cpp:411] im_info_input-data_1_split -> im_info_input-data_1_split_0
I0629 14:08:44.489672 14927 net.cpp:411] im_info_input-data_1_split -> im_info_input-data_1_split_1
I0629 14:08:44.489706 14927 net.cpp:150] Setting up im_info_input-data_1_split
I0629 14:08:44.489717 14927 net.cpp:157] Top shape: 1 3 (3)
I0629 14:08:44.489722 14927 net.cpp:157] Top shape: 1 3 (3)
I0629 14:08:44.489725 14927 net.cpp:165] Memory required for data: 57600052
I0629 14:08:44.489728 14927 layer_factory.hpp:77] Creating layer gt_boxes_input-data_2_split
I0629 14:08:44.489734 14927 net.cpp:106] Creating Layer gt_boxes_input-data_2_split
I0629 14:08:44.489740 14927 net.cpp:454] gt_boxes_input-data_2_split <- gt_boxes
I0629 14:08:44.489744 14927 net.cpp:411] gt_boxes_input-data_2_split -> gt_boxes_input-data_2_split_0
I0629 14:08:44.489749 14927 net.cpp:411] gt_boxes_input-data_2_split -> gt_boxes_input-data_2_split_1
I0629 14:08:44.489779 14927 net.cpp:150] Setting up gt_boxes_input-data_2_split
I0629 14:08:44.489794 14927 net.cpp:157] Top shape: 1 4 (4)
I0629 14:08:44.489797 14927 net.cpp:157] Top shape: 1 4 (4)
I0629 14:08:44.489800 14927 net.cpp:165] Memory required for data: 57600084
I0629 14:08:44.489804 14927 layer_factory.hpp:77] Creating layer conv1_1
I0629 14:08:44.489821 14927 net.cpp:106] Creating Layer conv1_1
I0629 14:08:44.489825 14927 net.cpp:454] conv1_1 <- data_input-data_0_split_0
I0629 14:08:44.489835 14927 net.cpp:411] conv1_1 -> conv1_1
I0629 14:08:44.967787 14927 net.cpp:150] Setting up conv1_1
I0629 14:08:44.967838 14927 net.cpp:157] Top shape: 1 64 800 2000 (102400000)
I0629 14:08:44.967842 14927 net.cpp:165] Memory required for data: 467200084
I0629 14:08:44.967865 14927 layer_factory.hpp:77] Creating layer relu1_1
I0629 14:08:44.967880 14927 net.cpp:106] Creating Layer relu1_1
I0629 14:08:44.967885 14927 net.cpp:454] relu1_1 <- conv1_1
I0629 14:08:44.967892 14927 net.cpp:397] relu1_1 -> conv1_1 (in-place)
I0629 14:08:44.968556 14927 net.cpp:150] Setting up relu1_1
I0629 14:08:44.968583 14927 net.cpp:157] Top shape: 1 64 800 2000 (102400000)
I0629 14:08:44.968588 14927 net.cpp:165] Memory required for data: 876800084
I0629 14:08:44.968592 14927 layer_factory.hpp:77] Creating layer conv1_2
I0629 14:08:44.968605 14927 net.cpp:106] Creating Layer conv1_2
I0629 14:08:44.968608 14927 net.cpp:454] conv1_2 <- conv1_1
I0629 14:08:44.968614 14927 net.cpp:411] conv1_2 -> conv1_2
I0629 14:08:44.975627 14927 net.cpp:150] Setting up conv1_2
I0629 14:08:44.975652 14927 net.cpp:157] Top shape: 1 64 800 2000 (102400000)
I0629 14:08:44.975657 14927 net.cpp:165] Memory required for data: 1286400084
I0629 14:08:44.975667 14927 layer_factory.hpp:77] Creating layer relu1_2
I0629 14:08:44.975675 14927 net.cpp:106] Creating Layer relu1_2
I0629 14:08:44.975687 14927 net.cpp:454] relu1_2 <- conv1_2
I0629 14:08:44.975692 14927 net.cpp:397] relu1_2 -> conv1_2 (in-place)
I0629 14:08:44.975862 14927 net.cpp:150] Setting up relu1_2
I0629 14:08:44.975878 14927 net.cpp:157] Top shape: 1 64 800 2000 (102400000)
I0629 14:08:44.975881 14927 net.cpp:165] Memory required for data: 1696000084
I0629 14:08:44.975885 14927 layer_factory.hpp:77] Creating layer pool1
I0629 14:08:44.975900 14927 net.cpp:106] Creating Layer pool1
I0629 14:08:44.975919 14927 net.cpp:454] pool1 <- conv1_2
I0629 14:08:44.975924 14927 net.cpp:411] pool1 -> pool1
I0629 14:08:44.975971 14927 net.cpp:150] Setting up pool1
I0629 14:08:44.975983 14927 net.cpp:157] Top shape: 1 64 400 1000 (25600000)
I0629 14:08:44.975986 14927 net.cpp:165] Memory required for data: 1798400084
I0629 14:08:44.975991 14927 layer_factory.hpp:77] Creating layer conv2_1
I0629 14:08:44.975998 14927 net.cpp:106] Creating Layer conv2_1
I0629 14:08:44.976002 14927 net.cpp:454] conv2_1 <- pool1
I0629 14:08:44.976007 14927 net.cpp:411] conv2_1 -> conv2_1
I0629 14:08:44.981045 14927 net.cpp:150] Setting up conv2_1
I0629 14:08:44.981070 14927 net.cpp:157] Top shape: 1 128 400 1000 (51200000)
I0629 14:08:44.981075 14927 net.cpp:165] Memory required for data: 2003200084
I0629 14:08:44.981084 14927 layer_factory.hpp:77] Creating layer relu2_1
I0629 14:08:44.981096 14927 net.cpp:106] Creating Layer relu2_1
I0629 14:08:44.981101 14927 net.cpp:454] relu2_1 <- conv2_1
I0629 14:08:44.981106 14927 net.cpp:397] relu2_1 -> conv2_1 (in-place)
I0629 14:08:44.981276 14927 net.cpp:150] Setting up relu2_1
I0629 14:08:44.981293 14927 net.cpp:157] Top shape: 1 128 400 1000 (51200000)
I0629 14:08:44.981297 14927 net.cpp:165] Memory required for data: 2208000084
I0629 14:08:44.981302 14927 layer_factory.hpp:77] Creating layer conv2_2
I0629 14:08:44.981310 14927 net.cpp:106] Creating Layer conv2_2
I0629 14:08:44.981314 14927 net.cpp:454] conv2_2 <- conv2_1
I0629 14:08:44.981320 14927 net.cpp:411] conv2_2 -> conv2_2
I0629 14:08:44.985282 14927 net.cpp:150] Setting up conv2_2
I0629 14:08:44.985306 14927 net.cpp:157] Top shape: 1 128 400 1000 (51200000)
I0629 14:08:44.985311 14927 net.cpp:165] Memory required for data: 2412800084
I0629 14:08:44.985318 14927 layer_factory.hpp:77] Creating layer relu2_2
I0629 14:08:44.985325 14927 net.cpp:106] Creating Layer relu2_2
I0629 14:08:44.985329 14927 net.cpp:454] relu2_2 <- conv2_2
I0629 14:08:44.985338 14927 net.cpp:397] relu2_2 -> conv2_2 (in-place)
I0629 14:08:44.986063 14927 net.cpp:150] Setting up relu2_2
I0629 14:08:44.986088 14927 net.cpp:157] Top shape: 1 128 400 1000 (51200000)
I0629 14:08:44.986093 14927 net.cpp:165] Memory required for data: 2617600084
I0629 14:08:44.986096 14927 layer_factory.hpp:77] Creating layer pool2
I0629 14:08:44.986104 14927 net.cpp:106] Creating Layer pool2
I0629 14:08:44.986107 14927 net.cpp:454] pool2 <- conv2_2
I0629 14:08:44.986115 14927 net.cpp:411] pool2 -> pool2
I0629 14:08:44.986168 14927 net.cpp:150] Setting up pool2
I0629 14:08:44.986186 14927 net.cpp:157] Top shape: 1 128 200 500 (12800000)
I0629 14:08:44.986189 14927 net.cpp:165] Memory required for data: 2668800084
I0629 14:08:44.986192 14927 layer_factory.hpp:77] Creating layer conv3_1
I0629 14:08:44.986201 14927 net.cpp:106] Creating Layer conv3_1
I0629 14:08:44.986203 14927 net.cpp:454] conv3_1 <- pool2
I0629 14:08:44.986212 14927 net.cpp:411] conv3_1 -> conv3_1
I0629 14:08:44.990402 14927 net.cpp:150] Setting up conv3_1
I0629 14:08:44.990427 14927 net.cpp:157] Top shape: 1 256 200 500 (25600000)
I0629 14:08:44.990432 14927 net.cpp:165] Memory required for data: 2771200084
I0629 14:08:44.990444 14927 layer_factory.hpp:77] Creating layer relu3_1
I0629 14:08:44.990452 14927 net.cpp:106] Creating Layer relu3_1
I0629 14:08:44.990455 14927 net.cpp:454] relu3_1 <- conv3_1
I0629 14:08:44.990463 14927 net.cpp:397] relu3_1 -> conv3_1 (in-place)
I0629 14:08:44.990651 14927 net.cpp:150] Setting up relu3_1
I0629 14:08:44.990669 14927 net.cpp:157] Top shape: 1 256 200 500 (25600000)
I0629 14:08:44.990672 14927 net.cpp:165] Memory required for data: 2873600084
I0629 14:08:44.990676 14927 layer_factory.hpp:77] Creating layer conv3_2
I0629 14:08:44.990689 14927 net.cpp:106] Creating Layer conv3_2
I0629 14:08:44.990694 14927 net.cpp:454] conv3_2 <- conv3_1
I0629 14:08:44.990702 14927 net.cpp:411] conv3_2 -> conv3_2
I0629 14:08:44.996085 14927 net.cpp:150] Setting up conv3_2
I0629 14:08:44.996112 14927 net.cpp:157] Top shape: 1 256 200 500 (25600000)
I0629 14:08:44.996117 14927 net.cpp:165] Memory required for data: 2976000084
I0629 14:08:44.996124 14927 layer_factory.hpp:77] Creating layer relu3_2
I0629 14:08:44.996137 14927 net.cpp:106] Creating Layer relu3_2
I0629 14:08:44.996142 14927 net.cpp:454] relu3_2 <- conv3_2
I0629 14:08:44.996147 14927 net.cpp:397] relu3_2 -> conv3_2 (in-place)
I0629 14:08:44.997000 14927 net.cpp:150] Setting up relu3_2
I0629 14:08:44.997016 14927 net.cpp:157] Top shape: 1 256 200 500 (25600000)
I0629 14:08:44.997020 14927 net.cpp:165] Memory required for data: 3078400084
I0629 14:08:44.997025 14927 layer_factory.hpp:77] Creating layer conv3_3
I0629 14:08:44.997035 14927 net.cpp:106] Creating Layer conv3_3
I0629 14:08:44.997040 14927 net.cpp:454] conv3_3 <- conv3_2
I0629 14:08:44.997045 14927 net.cpp:411] conv3_3 -> conv3_3
I0629 14:08:45.001701 14927 net.cpp:150] Setting up conv3_3
I0629 14:08:45.001725 14927 net.cpp:157] Top shape: 1 256 200 500 (25600000)
I0629 14:08:45.001729 14927 net.cpp:165] Memory required for data: 3180800084
I0629 14:08:45.001737 14927 layer_factory.hpp:77] Creating layer relu3_3
I0629 14:08:45.001744 14927 net.cpp:106] Creating Layer relu3_3
I0629 14:08:45.001747 14927 net.cpp:454] relu3_3 <- conv3_3
I0629 14:08:45.001755 14927 net.cpp:397] relu3_3 -> conv3_3 (in-place)
I0629 14:08:45.002485 14927 net.cpp:150] Setting up relu3_3
I0629 14:08:45.002506 14927 net.cpp:157] Top shape: 1 256 200 500 (25600000)
I0629 14:08:45.002511 14927 net.cpp:165] Memory required for data: 3283200084
I0629 14:08:45.002514 14927 layer_factory.hpp:77] Creating layer pool3
I0629 14:08:45.002524 14927 net.cpp:106] Creating Layer pool3
I0629 14:08:45.002528 14927 net.cpp:454] pool3 <- conv3_3
I0629 14:08:45.002537 14927 net.cpp:411] pool3 -> pool3
I0629 14:08:45.002588 14927 net.cpp:150] Setting up pool3
I0629 14:08:45.002601 14927 net.cpp:157] Top shape: 1 256 100 250 (6400000)
I0629 14:08:45.002604 14927 net.cpp:165] Memory required for data: 3308800084
I0629 14:08:45.002609 14927 layer_factory.hpp:77] Creating layer conv4_1
I0629 14:08:45.002619 14927 net.cpp:106] Creating Layer conv4_1
I0629 14:08:45.002621 14927 net.cpp:454] conv4_1 <- pool3
I0629 14:08:45.002629 14927 net.cpp:411] conv4_1 -> conv4_1
I0629 14:08:45.009450 14927 net.cpp:150] Setting up conv4_1
I0629 14:08:45.009474 14927 net.cpp:157] Top shape: 1 512 100 250 (12800000)
I0629 14:08:45.009479 14927 net.cpp:165] Memory required for data: 3360000084
I0629 14:08:45.009487 14927 layer_factory.hpp:77] Creating layer relu4_1
I0629 14:08:45.009493 14927 net.cpp:106] Creating Layer relu4_1
I0629 14:08:45.009497 14927 net.cpp:454] relu4_1 <- conv4_1
I0629 14:08:45.009506 14927 net.cpp:397] relu4_1 -> conv4_1 (in-place)
I0629 14:08:45.010692 14927 net.cpp:150] Setting up relu4_1
I0629 14:08:45.010712 14927 net.cpp:157] Top shape: 1 512 100 250 (12800000)
I0629 14:08:45.010716 14927 net.cpp:165] Memory required for data: 3411200084
I0629 14:08:45.010721 14927 layer_factory.hpp:77] Creating layer conv4_2
I0629 14:08:45.010732 14927 net.cpp:106] Creating Layer conv4_2
I0629 14:08:45.010736 14927 net.cpp:454] conv4_2 <- conv4_1
I0629 14:08:45.010742 14927 net.cpp:411] conv4_2 -> conv4_2
I0629 14:08:45.020689 14927 net.cpp:150] Setting up conv4_2
I0629 14:08:45.020711 14927 net.cpp:157] Top shape: 1 512 100 250 (12800000)
I0629 14:08:45.020716 14927 net.cpp:165] Memory required for data: 3462400084
I0629 14:08:45.020730 14927 layer_factory.hpp:77] Creating layer relu4_2
I0629 14:08:45.020741 14927 net.cpp:106] Creating Layer relu4_2
I0629 14:08:45.020745 14927 net.cpp:454] relu4_2 <- conv4_2
I0629 14:08:45.020754 14927 net.cpp:397] relu4_2 -> conv4_2 (in-place)
I0629 14:08:45.021744 14927 net.cpp:150] Setting up relu4_2
I0629 14:08:45.021759 14927 net.cpp:157] Top shape: 1 512 100 250 (12800000)
I0629 14:08:45.021764 14927 net.cpp:165] Memory required for data: 3513600084
I0629 14:08:45.021769 14927 layer_factory.hpp:77] Creating layer conv4_3
I0629 14:08:45.021780 14927 net.cpp:106] Creating Layer conv4_3
I0629 14:08:45.021792 14927 net.cpp:454] conv4_3 <- conv4_2
I0629 14:08:45.021797 14927 net.cpp:411] conv4_3 -> conv4_3
I0629 14:08:45.031271 14927 net.cpp:150] Setting up conv4_3
I0629 14:08:45.031294 14927 net.cpp:157] Top shape: 1 512 100 250 (12800000)
I0629 14:08:45.031299 14927 net.cpp:165] Memory required for data: 3564800084
I0629 14:08:45.031307 14927 layer_factory.hpp:77] Creating layer relu4_3
I0629 14:08:45.031317 14927 net.cpp:106] Creating Layer relu4_3
I0629 14:08:45.031322 14927 net.cpp:454] relu4_3 <- conv4_3
I0629 14:08:45.031327 14927 net.cpp:397] relu4_3 -> conv4_3 (in-place)
I0629 14:08:45.032069 14927 net.cpp:150] Setting up relu4_3
I0629 14:08:45.032088 14927 net.cpp:157] Top shape: 1 512 100 250 (12800000)
I0629 14:08:45.032094 14927 net.cpp:165] Memory required for data: 3616000084
I0629 14:08:45.032097 14927 layer_factory.hpp:77] Creating layer conv4_3_relu4_3_0_split
I0629 14:08:45.032104 14927 net.cpp:106] Creating Layer conv4_3_relu4_3_0_split
I0629 14:08:45.032109 14927 net.cpp:454] conv4_3_relu4_3_0_split <- conv4_3
I0629 14:08:45.032116 14927 net.cpp:411] conv4_3_relu4_3_0_split -> conv4_3_relu4_3_0_split_0
I0629 14:08:45.032122 14927 net.cpp:411] conv4_3_relu4_3_0_split -> conv4_3_relu4_3_0_split_1
I0629 14:08:45.032169 14927 net.cpp:150] Setting up conv4_3_relu4_3_0_split
I0629 14:08:45.032182 14927 net.cpp:157] Top shape: 1 512 100 250 (12800000)
I0629 14:08:45.032186 14927 net.cpp:157] Top shape: 1 512 100 250 (12800000)
I0629 14:08:45.032189 14927 net.cpp:165] Memory required for data: 3718400084
I0629 14:08:45.032193 14927 layer_factory.hpp:77] Creating layer pool4
I0629 14:08:45.032202 14927 net.cpp:106] Creating Layer pool4
I0629 14:08:45.032205 14927 net.cpp:454] pool4 <- conv4_3_relu4_3_0_split_0
I0629 14:08:45.032212 14927 net.cpp:411] pool4 -> pool4
I0629 14:08:45.032250 14927 net.cpp:150] Setting up pool4
I0629 14:08:45.032263 14927 net.cpp:157] Top shape: 1 512 50 125 (3200000)
I0629 14:08:45.032266 14927 net.cpp:165] Memory required for data: 3731200084
I0629 14:08:45.032270 14927 layer_factory.hpp:77] Creating layer conv5_1
I0629 14:08:45.032280 14927 net.cpp:106] Creating Layer conv5_1
I0629 14:08:45.032284 14927 net.cpp:454] conv5_1 <- pool4
I0629 14:08:45.032291 14927 net.cpp:411] conv5_1 -> conv5_1
I0629 14:08:45.042198 14927 net.cpp:150] Setting up conv5_1
I0629 14:08:45.042223 14927 net.cpp:157] Top shape: 1 512 50 125 (3200000)
I0629 14:08:45.042228 14927 net.cpp:165] Memory required for data: 3744000084
I0629 14:08:45.042237 14927 layer_factory.hpp:77] Creating layer relu5_1
I0629 14:08:45.042243 14927 net.cpp:106] Creating Layer relu5_1
I0629 14:08:45.042248 14927 net.cpp:454] relu5_1 <- conv5_1
I0629 14:08:45.042255 14927 net.cpp:397] relu5_1 -> conv5_1 (in-place)
I0629 14:08:45.042456 14927 net.cpp:150] Setting up relu5_1
I0629 14:08:45.042472 14927 net.cpp:157] Top shape: 1 512 50 125 (3200000)
I0629 14:08:45.042477 14927 net.cpp:165] Memory required for data: 3756800084
I0629 14:08:45.042481 14927 layer_factory.hpp:77] Creating layer conv5_2
I0629 14:08:45.042492 14927 net.cpp:106] Creating Layer conv5_2
I0629 14:08:45.042496 14927 net.cpp:454] conv5_2 <- conv5_1
I0629 14:08:45.042505 14927 net.cpp:411] conv5_2 -> conv5_2
I0629 14:08:45.051156 14927 net.cpp:150] Setting up conv5_2
I0629 14:08:45.051180 14927 net.cpp:157] Top shape: 1 512 50 125 (3200000)
I0629 14:08:45.051185 14927 net.cpp:165] Memory required for data: 3769600084
I0629 14:08:45.051192 14927 layer_factory.hpp:77] Creating layer relu5_2
I0629 14:08:45.051205 14927 net.cpp:106] Creating Layer relu5_2
I0629 14:08:45.051213 14927 net.cpp:454] relu5_2 <- conv5_2
I0629 14:08:45.051224 14927 net.cpp:397] relu5_2 -> conv5_2 (in-place)
I0629 14:08:45.051818 14927 net.cpp:150] Setting up relu5_2
I0629 14:08:45.051846 14927 net.cpp:157] Top shape: 1 512 50 125 (3200000)
I0629 14:08:45.051853 14927 net.cpp:165] Memory required for data: 3782400084
I0629 14:08:45.051867 14927 layer_factory.hpp:77] Creating layer conv5_3
I0629 14:08:45.051892 14927 net.cpp:106] Creating Layer conv5_3
I0629 14:08:45.051908 14927 net.cpp:454] conv5_3 <- conv5_2
I0629 14:08:45.051920 14927 net.cpp:411] conv5_3 -> conv5_3
I0629 14:08:45.061168 14927 net.cpp:150] Setting up conv5_3
I0629 14:08:45.061192 14927 net.cpp:157] Top shape: 1 512 50 125 (3200000)
I0629 14:08:45.061197 14927 net.cpp:165] Memory required for data: 3795200084
I0629 14:08:45.061205 14927 layer_factory.hpp:77] Creating layer relu5_3
I0629 14:08:45.061213 14927 net.cpp:106] Creating Layer relu5_3
I0629 14:08:45.061218 14927 net.cpp:454] relu5_3 <- conv5_3
I0629 14:08:45.061223 14927 net.cpp:397] relu5_3 -> conv5_3 (in-place)
I0629 14:08:45.063243 14927 net.cpp:150] Setting up relu5_3
I0629 14:08:45.063263 14927 net.cpp:157] Top shape: 1 512 50 125 (3200000)
I0629 14:08:45.063267 14927 net.cpp:165] Memory required for data: 3808000084
I0629 14:08:45.063271 14927 layer_factory.hpp:77] Creating layer newC4
I0629 14:08:45.063287 14927 net.cpp:106] Creating Layer newC4
I0629 14:08:45.063292 14927 net.cpp:454] newC4 <- conv5_3
I0629 14:08:45.063299 14927 net.cpp:411] newC4 -> newC4
I0629 14:08:45.067577 14927 net.cpp:150] Setting up newC4
I0629 14:08:45.067600 14927 net.cpp:157] Top shape: 1 256 50 125 (1600000)
I0629 14:08:45.067603 14927 net.cpp:165] Memory required for data: 3814400084
I0629 14:08:45.067610 14927 layer_factory.hpp:77] Creating layer upP4
I0629 14:08:45.067626 14927 net.cpp:106] Creating Layer upP4
I0629 14:08:45.067641 14927 net.cpp:454] upP4 <- newC4
I0629 14:08:45.067646 14927 net.cpp:411] upP4 -> upP4
I0629 14:08:45.096113 14927 net.cpp:150] Setting up upP4
I0629 14:08:45.096140 14927 net.cpp:157] Top shape: 1 256 100 250 (6400000)
I0629 14:08:45.096145 14927 net.cpp:165] Memory required for data: 3840000084
I0629 14:08:45.096155 14927 layer_factory.hpp:77] Creating layer newC3
I0629 14:08:45.096170 14927 net.cpp:106] Creating Layer newC3
I0629 14:08:45.096189 14927 net.cpp:454] newC3 <- conv4_3_relu4_3_0_split_1
I0629 14:08:45.096199 14927 net.cpp:411] newC3 -> newC3
I0629 14:08:45.099362 14927 net.cpp:150] Setting up newC3
I0629 14:08:45.099387 14927 net.cpp:157] Top shape: 1 256 100 250 (6400000)
I0629 14:08:45.099392 14927 net.cpp:165] Memory required for data: 3865600084
I0629 14:08:45.099400 14927 layer_factory.hpp:77] Creating layer newC3_newC3_0_split
I0629 14:08:45.099411 14927 net.cpp:106] Creating Layer newC3_newC3_0_split
I0629 14:08:45.099414 14927 net.cpp:454] newC3_newC3_0_split <- newC3
I0629 14:08:45.099423 14927 net.cpp:411] newC3_newC3_0_split -> newC3_newC3_0_split_0
I0629 14:08:45.099436 14927 net.cpp:411] newC3_newC3_0_split -> newC3_newC3_0_split_1
I0629 14:08:45.099501 14927 net.cpp:150] Setting up newC3_newC3_0_split
I0629 14:08:45.099515 14927 net.cpp:157] Top shape: 1 256 100 250 (6400000)
I0629 14:08:45.099521 14927 net.cpp:157] Top shape: 1 256 100 250 (6400000)
I0629 14:08:45.099524 14927 net.cpp:165] Memory required for data: 3916800084
I0629 14:08:45.099527 14927 layer_factory.hpp:77] Creating layer upP4crop
I0629 14:08:45.099541 14927 net.cpp:106] Creating Layer upP4crop
I0629 14:08:45.099550 14927 net.cpp:454] upP4crop <- upP4
I0629 14:08:45.099555 14927 net.cpp:454] upP4crop <- newC3_newC3_0_split_0
I0629 14:08:45.099560 14927 net.cpp:411] upP4crop -> upP4crop
I0629 14:08:45.099668 14927 net.cpp:150] Setting up upP4crop
I0629 14:08:45.099679 14927 net.cpp:157] Top shape: 1 256 100 250 (6400000)
I0629 14:08:45.099684 14927 net.cpp:165] Memory required for data: 3942400084
I0629 14:08:45.099687 14927 layer_factory.hpp:77] Creating layer P3
I0629 14:08:45.099695 14927 net.cpp:106] Creating Layer P3
I0629 14:08:45.099699 14927 net.cpp:454] P3 <- newC3_newC3_0_split_1
I0629 14:08:45.099704 14927 net.cpp:454] P3 <- upP4crop
I0629 14:08:45.099707 14927 net.cpp:411] P3 -> P3
I0629 14:08:45.099738 14927 net.cpp:150] Setting up P3
I0629 14:08:45.099750 14927 net.cpp:157] Top shape: 1 256 100 250 (6400000)
I0629 14:08:45.099752 14927 net.cpp:165] Memory required for data: 3968000084
I0629 14:08:45.099757 14927 layer_factory.hpp:77] Creating layer newP3
I0629 14:08:45.099768 14927 net.cpp:106] Creating Layer newP3
I0629 14:08:45.099772 14927 net.cpp:454] newP3 <- P3
I0629 14:08:45.099781 14927 net.cpp:411] newP3 -> newP3
I0629 14:08:45.107529 14927 net.cpp:150] Setting up newP3
I0629 14:08:45.107553 14927 net.cpp:157] Top shape: 1 256 100 250 (6400000)
I0629 14:08:45.107558 14927 net.cpp:165] Memory required for data: 3993600084
I0629 14:08:45.107575 14927 layer_factory.hpp:77] Creating layer newP3_newP3_0_split
I0629 14:08:45.107594 14927 net.cpp:106] Creating Layer newP3_newP3_0_split
I0629 14:08:45.107599 14927 net.cpp:454] newP3_newP3_0_split <- newP3
I0629 14:08:45.107607 14927 net.cpp:411] newP3_newP3_0_split -> newP3_newP3_0_split_0
I0629 14:08:45.107627 14927 net.cpp:411] newP3_newP3_0_split -> newP3_newP3_0_split_1
I0629 14:08:45.107676 14927 net.cpp:150] Setting up newP3_newP3_0_split
I0629 14:08:45.107692 14927 net.cpp:157] Top shape: 1 256 100 250 (6400000)
I0629 14:08:45.107697 14927 net.cpp:157] Top shape: 1 256 100 250 (6400000)
I0629 14:08:45.107699 14927 net.cpp:165] Memory required for data: 4044800084
I0629 14:08:45.107703 14927 layer_factory.hpp:77] Creating layer rpn_conv/3x3
I0629 14:08:45.107715 14927 net.cpp:106] Creating Layer rpn_conv/3x3
I0629 14:08:45.107719 14927 net.cpp:454] rpn_conv/3x3 <- newP3_newP3_0_split_0
I0629 14:08:45.107725 14927 net.cpp:411] rpn_conv/3x3 -> rpn/output
I0629 14:08:45.145784 14927 net.cpp:150] Setting up rpn_conv/3x3
I0629 14:08:45.145808 14927 net.cpp:157] Top shape: 1 512 100 250 (12800000)
I0629 14:08:45.145813 14927 net.cpp:165] Memory required for data: 4096000084
I0629 14:08:45.145820 14927 layer_factory.hpp:77] Creating layer rpn_relu/3x3
I0629 14:08:45.145829 14927 net.cpp:106] Creating Layer rpn_relu/3x3
I0629 14:08:45.145834 14927 net.cpp:454] rpn_relu/3x3 <- rpn/output
I0629 14:08:45.145843 14927 net.cpp:397] rpn_relu/3x3 -> rpn/output (in-place)
I0629 14:08:45.146644 14927 net.cpp:150] Setting up rpn_relu/3x3
I0629 14:08:45.146675 14927 net.cpp:157] Top shape: 1 512 100 250 (12800000)
I0629 14:08:45.146690 14927 net.cpp:165] Memory required for data: 4147200084
I0629 14:08:45.146702 14927 layer_factory.hpp:77] Creating layer rpn/output_rpn_relu/3x3_0_split
I0629 14:08:45.146730 14927 net.cpp:106] Creating Layer rpn/output_rpn_relu/3x3_0_split
I0629 14:08:45.146754 14927 net.cpp:454] rpn/output_rpn_relu/3x3_0_split <- rpn/output
I0629 14:08:45.146769 14927 net.cpp:411] rpn/output_rpn_relu/3x3_0_split -> rpn/output_rpn_relu/3x3_0_split_0
I0629 14:08:45.146806 14927 net.cpp:411] rpn/output_rpn_relu/3x3_0_split -> rpn/output_rpn_relu/3x3_0_split_1
I0629 14:08:45.146878 14927 net.cpp:150] Setting up rpn/output_rpn_relu/3x3_0_split
I0629 14:08:45.146893 14927 net.cpp:157] Top shape: 1 512 100 250 (12800000)
I0629 14:08:45.146901 14927 net.cpp:157] Top shape: 1 512 100 250 (12800000)
I0629 14:08:45.146904 14927 net.cpp:165] Memory required for data: 4249600084
I0629 14:08:45.146908 14927 layer_factory.hpp:77] Creating layer rpn_cls_score
I0629 14:08:45.146920 14927 net.cpp:106] Creating Layer rpn_cls_score
I0629 14:08:45.146924 14927 net.cpp:454] rpn_cls_score <- rpn/output_rpn_relu/3x3_0_split_0
I0629 14:08:45.146930 14927 net.cpp:411] rpn_cls_score -> rpn_cls_score
I0629 14:08:45.149210 14927 net.cpp:150] Setting up rpn_cls_score
I0629 14:08:45.149235 14927 net.cpp:157] Top shape: 1 18 100 250 (450000)
I0629 14:08:45.149240 14927 net.cpp:165] Memory required for data: 4251400084
I0629 14:08:45.149251 14927 layer_factory.hpp:77] Creating layer rpn_cls_score_rpn_cls_score_0_split
I0629 14:08:45.149260 14927 net.cpp:106] Creating Layer rpn_cls_score_rpn_cls_score_0_split
I0629 14:08:45.149263 14927 net.cpp:454] rpn_cls_score_rpn_cls_score_0_split <- rpn_cls_score
I0629 14:08:45.149272 14927 net.cpp:411] rpn_cls_score_rpn_cls_score_0_split -> rpn_cls_score_rpn_cls_score_0_split_0
I0629 14:08:45.149293 14927 net.cpp:411] rpn_cls_score_rpn_cls_score_0_split -> rpn_cls_score_rpn_cls_score_0_split_1
I0629 14:08:45.149348 14927 net.cpp:150] Setting up rpn_cls_score_rpn_cls_score_0_split
I0629 14:08:45.149363 14927 net.cpp:157] Top shape: 1 18 100 250 (450000)
I0629 14:08:45.149368 14927 net.cpp:157] Top shape: 1 18 100 250 (450000)
I0629 14:08:45.149370 14927 net.cpp:165] Memory required for data: 4255000084
I0629 14:08:45.149374 14927 layer_factory.hpp:77] Creating layer rpn_bbox_pred
I0629 14:08:45.149387 14927 net.cpp:106] Creating Layer rpn_bbox_pred
I0629 14:08:45.149400 14927 net.cpp:454] rpn_bbox_pred <- rpn/output_rpn_relu/3x3_0_split_1
I0629 14:08:45.149406 14927 net.cpp:411] rpn_bbox_pred -> rpn_bbox_pred
I0629 14:08:45.151943 14927 net.cpp:150] Setting up rpn_bbox_pred
I0629 14:08:45.151968 14927 net.cpp:157] Top shape: 1 36 100 250 (900000)
I0629 14:08:45.151973 14927 net.cpp:165] Memory required for data: 4258600084
I0629 14:08:45.151981 14927 layer_factory.hpp:77] Creating layer rpn_bbox_pred_rpn_bbox_pred_0_split
I0629 14:08:45.151990 14927 net.cpp:106] Creating Layer rpn_bbox_pred_rpn_bbox_pred_0_split
I0629 14:08:45.151995 14927 net.cpp:454] rpn_bbox_pred_rpn_bbox_pred_0_split <- rpn_bbox_pred
I0629 14:08:45.152001 14927 net.cpp:411] rpn_bbox_pred_rpn_bbox_pred_0_split -> rpn_bbox_pred_rpn_bbox_pred_0_split_0
I0629 14:08:45.152011 14927 net.cpp:411] rpn_bbox_pred_rpn_bbox_pred_0_split -> rpn_bbox_pred_rpn_bbox_pred_0_split_1
I0629 14:08:45.152060 14927 net.cpp:150] Setting up rpn_bbox_pred_rpn_bbox_pred_0_split
I0629 14:08:45.152072 14927 net.cpp:157] Top shape: 1 36 100 250 (900000)
I0629 14:08:45.152076 14927 net.cpp:157] Top shape: 1 36 100 250 (900000)
I0629 14:08:45.152079 14927 net.cpp:165] Memory required for data: 4265800084
I0629 14:08:45.152083 14927 layer_factory.hpp:77] Creating layer rpn_cls_score_reshape
I0629 14:08:45.152099 14927 net.cpp:106] Creating Layer rpn_cls_score_reshape
I0629 14:08:45.152107 14927 net.cpp:454] rpn_cls_score_reshape <- rpn_cls_score_rpn_cls_score_0_split_0
I0629 14:08:45.152113 14927 net.cpp:411] rpn_cls_score_reshape -> rpn_cls_score_reshape
I0629 14:08:45.152149 14927 net.cpp:150] Setting up rpn_cls_score_reshape
I0629 14:08:45.152160 14927 net.cpp:157] Top shape: 1 2 900 250 (450000)
I0629 14:08:45.152164 14927 net.cpp:165] Memory required for data: 4267600084
I0629 14:08:45.152168 14927 layer_factory.hpp:77] Creating layer rpn_cls_score_reshape_rpn_cls_score_reshape_0_split
I0629 14:08:45.152173 14927 net.cpp:106] Creating Layer rpn_cls_score_reshape_rpn_cls_score_reshape_0_split
I0629 14:08:45.152178 14927 net.cpp:454] rpn_cls_score_reshape_rpn_cls_score_reshape_0_split <- rpn_cls_score_reshape
I0629 14:08:45.152184 14927 net.cpp:411] rpn_cls_score_reshape_rpn_cls_score_reshape_0_split -> rpn_cls_score_reshape_rpn_cls_score_reshape_0_split_0
I0629 14:08:45.152189 14927 net.cpp:411] rpn_cls_score_reshape_rpn_cls_score_reshape_0_split -> rpn_cls_score_reshape_rpn_cls_score_reshape_0_split_1
I0629 14:08:45.152230 14927 net.cpp:150] Setting up rpn_cls_score_reshape_rpn_cls_score_reshape_0_split
I0629 14:08:45.152240 14927 net.cpp:157] Top shape: 1 2 900 250 (450000)
I0629 14:08:45.152247 14927 net.cpp:157] Top shape: 1 2 900 250 (450000)
I0629 14:08:45.152251 14927 net.cpp:165] Memory required for data: 4271200084
I0629 14:08:45.152254 14927 layer_factory.hpp:77] Creating layer rpn-data
I0629 14:08:45.153036 14927 net.cpp:106] Creating Layer rpn-data
I0629 14:08:45.153057 14927 net.cpp:454] rpn-data <- rpn_cls_score_rpn_cls_score_0_split_1
I0629 14:08:45.153064 14927 net.cpp:454] rpn-data <- gt_boxes_input-data_2_split_0
I0629 14:08:45.153069 14927 net.cpp:454] rpn-data <- im_info_input-data_1_split_0
I0629 14:08:45.153074 14927 net.cpp:454] rpn-data <- data_input-data_0_split_1
I0629 14:08:45.153079 14927 net.cpp:411] rpn-data -> rpn_labels
I0629 14:08:45.153087 14927 net.cpp:411] rpn-data -> rpn_bbox_targets
I0629 14:08:45.153093 14927 net.cpp:411] rpn-data -> rpn_bbox_inside_weights
I0629 14:08:45.153100 14927 net.cpp:411] rpn-data -> rpn_bbox_outside_weights
I0629 14:08:45.155248 14927 net.cpp:150] Setting up rpn-data
I0629 14:08:45.155273 14927 net.cpp:157] Top shape: 1 1 900 250 (225000)
I0629 14:08:45.155279 14927 net.cpp:157] Top shape: 1 36 100 250 (900000)
I0629 14:08:45.155284 14927 net.cpp:157] Top shape: 1 36 100 250 (900000)
I0629 14:08:45.155288 14927 net.cpp:157] Top shape: 1 36 100 250 (900000)
I0629 14:08:45.155292 14927 net.cpp:165] Memory required for data: 4282900084
I0629 14:08:45.155297 14927 layer_factory.hpp:77] Creating layer rpn_loss_cls
I0629 14:08:45.155309 14927 net.cpp:106] Creating Layer rpn_loss_cls
I0629 14:08:45.155321 14927 net.cpp:454] rpn_loss_cls <- rpn_cls_score_reshape_rpn_cls_score_reshape_0_split_0
I0629 14:08:45.155328 14927 net.cpp:454] rpn_loss_cls <- rpn_labels
…
I0629 14:08:45.164208 14927 net.cpp:157] Top shape: (1)
I0629 14:08:45.164213 14927 net.cpp:160]     with loss weight 1
I0629 14:08:45.164227 14927 net.cpp:165] Memory required for data: 4282900092
I0629 14:08:45.164232 14927 layer_factory.hpp:77] Creating layer rpn_cls_prob
I0629 14:08:45.164245 14927 net.cpp:106] Creating Layer rpn_cls_prob
I0629 14:08:45.164252 14927 net.cpp:454] rpn_cls_prob <- rpn_cls_score_reshape_rpn_cls_score_reshape_0_split_1
I0629 14:08:45.164260 14927 net.cpp:411] rpn_cls_prob -> rpn_cls_prob
I0629 14:08:45.164623 14927 net.cpp:150] Setting up rpn_cls_prob
I0629 14:08:45.164641 14927 net.cpp:157] Top shape: 1 2 900 250 (450000)
I0629 14:08:45.164645 14927 net.cpp:165] Memory required for data: 4284700092
I0629 14:08:45.164649 14927 layer_factory.hpp:77] Creating layer rpn_cls_prob_reshape
I0629 14:08:45.164682 14927 net.cpp:106] Creating Layer rpn_cls_prob_reshape
I0629 14:08:45.164698 14927 net.cpp:454] rpn_cls_prob_reshape <- rpn_cls_prob
I0629 14:08:45.164705 14927 net.cpp:411] rpn_cls_prob_reshape -> rpn_cls_prob_reshape
I0629 14:08:45.164749 14927 net.cpp:150] Setting up rpn_cls_prob_reshape
I0629 14:08:45.164762 14927 net.cpp:157] Top shape: 1 18 100 250 (450000)
I0629 14:08:45.164765 14927 net.cpp:165] Memory required for data: 4286500092
I0629 14:08:45.164769 14927 layer_factory.hpp:77] Creating layer proposal
I0629 14:08:45.166008 14927 net.cpp:106] Creating Layer proposal
I0629 14:08:45.166030 14927 net.cpp:454] proposal <- rpn_cls_prob_reshape
I0629 14:08:45.166038 14927 net.cpp:454] proposal <- rpn_bbox_pred_rpn_bbox_pred_0_split_1
I0629 14:08:45.166043 14927 net.cpp:454] proposal <- im_info_input-data_1_split_1
I0629 14:08:45.166049 14927 net.cpp:411] proposal -> rpn_rois
I0629 14:08:45.166990 14927 net.cpp:150] Setting up proposal
I0629 14:08:45.167014 14927 net.cpp:157] Top shape: 1 5 (5)
I0629 14:08:45.167019 14927 net.cpp:165] Memory required for data: 4286500112
I0629 14:08:45.167024 14927 layer_factory.hpp:77] Creating layer roi-data
I0629 14:08:45.167259 14927 net.cpp:106] Creating Layer roi-data
I0629 14:08:45.167279 14927 net.cpp:454] roi-data <- rpn_rois
I0629 14:08:45.167284 14927 net.cpp:454] roi-data <- gt_boxes_input-data_2_split_1
I0629 14:08:45.167291 14927 net.cpp:411] roi-data -> rois
I0629 14:08:45.167299 14927 net.cpp:411] roi-data -> labels
I0629 14:08:45.167305 14927 net.cpp:411] roi-data -> bbox_targets
I0629 14:08:45.167313 14927 net.cpp:411] roi-data -> bbox_inside_weights
I0629 14:08:45.167318 14927 net.cpp:411] roi-data -> bbox_outside_weights
I0629 14:08:45.167706 14927 net.cpp:150] Setting up roi-data
I0629 14:08:45.167726 14927 net.cpp:157] Top shape: 1 5 (5)
I0629 14:08:45.167732 14927 net.cpp:157] Top shape: 1 1 (1)
I0629 14:08:45.167737 14927 net.cpp:157] Top shape: 1 84 (84)
I0629 14:08:45.167739 14927 net.cpp:157] Top shape: 1 84 (84)
I0629 14:08:45.167743 14927 net.cpp:157] Top shape: 1 84 (84)
I0629 14:08:45.167747 14927 net.cpp:165] Memory required for data: 4286501144
I0629 14:08:45.167750 14927 layer_factory.hpp:77] Creating layer roi_pool5
I0629 14:08:45.167764 14927 net.cpp:106] Creating Layer roi_pool5
I0629 14:08:45.167779 14927 net.cpp:454] roi_pool5 <- newP3_newP3_0_split_1
I0629 14:08:45.167784 14927 net.cpp:454] roi_pool5 <- rois
I0629 14:08:45.167789 14927 net.cpp:411] roi_pool5 -> rcnn_pool5
I0629 14:08:45.167809 14927 roi_pooling_layer.cpp:30] Spatial scale: 0.0625
I0629 14:08:45.167866 14927 net.cpp:150] Setting up roi_pool5
I0629 14:08:45.167881 14927 net.cpp:157] Top shape: 1 256 7 7 (12544)
I0629 14:08:45.167883 14927 net.cpp:165] Memory required for data: 4286551320
I0629 14:08:45.167887 14927 layer_factory.hpp:77] Creating layer rcnn_fc6
I0629 14:08:45.167899 14927 net.cpp:106] Creating Layer rcnn_fc6
I0629 14:08:45.167903 14927 net.cpp:454] rcnn_fc6 <- rcnn_pool5
I0629 14:08:45.167908 14927 net.cpp:411] rcnn_fc6 -> rcnn_fc6
I0629 14:08:45.515075 14927 net.cpp:150] Setting up rcnn_fc6
I0629 14:08:45.515127 14927 net.cpp:157] Top shape: 1 4096 (4096)
I0629 14:08:45.515131 14927 net.cpp:165] Memory required for data: 4286567704
I0629 14:08:45.515146 14927 layer_factory.hpp:77] Creating layer relu6
I0629 14:08:45.515156 14927 net.cpp:106] Creating Layer relu6
I0629 14:08:45.515164 14927 net.cpp:454] relu6 <- rcnn_fc6
I0629 14:08:45.515174 14927 net.cpp:397] relu6 -> rcnn_fc6 (in-place)
I0629 14:08:45.516288 14927 net.cpp:150] Setting up relu6
I0629 14:08:45.516315 14927 net.cpp:157] Top shape: 1 4096 (4096)
I0629 14:08:45.516320 14927 net.cpp:165] Memory required for data: 4286584088
I0629 14:08:45.516325 14927 layer_factory.hpp:77] Creating layer drop6
I0629 14:08:45.516353 14927 net.cpp:106] Creating Layer drop6
I0629 14:08:45.516371 14927 net.cpp:454] drop6 <- rcnn_fc6
I0629 14:08:45.516382 14927 net.cpp:397] drop6 -> rcnn_fc6 (in-place)
I0629 14:08:45.516433 14927 net.cpp:150] Setting up drop6
I0629 14:08:45.516446 14927 net.cpp:157] Top shape: 1 4096 (4096)
I0629 14:08:45.516450 14927 net.cpp:165] Memory required for data: 4286600472
I0629 14:08:45.516454 14927 layer_factory.hpp:77] Creating layer fc7
I0629 14:08:45.516474 14927 net.cpp:106] Creating Layer fc7
I0629 14:08:45.516486 14927 net.cpp:454] fc7 <- rcnn_fc6
I0629 14:08:45.516495 14927 net.cpp:411] fc7 -> fc7
I0629 14:08:45.629698 14927 net.cpp:150] Setting up fc7
I0629 14:08:45.629747 14927 net.cpp:157] Top shape: 1 4096 (4096)
I0629 14:08:45.629752 14927 net.cpp:165] Memory required for data: 4286616856
I0629 14:08:45.629765 14927 layer_factory.hpp:77] Creating layer relu7
I0629 14:08:45.629815 14927 net.cpp:106] Creating Layer relu7
I0629 14:08:45.629832 14927 net.cpp:454] relu7 <- fc7
I0629 14:08:45.629839 14927 net.cpp:397] relu7 -> fc7 (in-place)
I0629 14:08:45.630126 14927 net.cpp:150] Setting up relu7
I0629 14:08:45.630143 14927 net.cpp:157] Top shape: 1 4096 (4096)
I0629 14:08:45.630147 14927 net.cpp:165] Memory required for data: 4286633240
I0629 14:08:45.630152 14927 layer_factory.hpp:77] Creating layer drop7
I0629 14:08:45.630172 14927 net.cpp:106] Creating Layer drop7
I0629 14:08:45.630177 14927 net.cpp:454] drop7 <- fc7
I0629 14:08:45.630184 14927 net.cpp:397] drop7 -> fc7 (in-place)
I0629 14:08:45.630228 14927 net.cpp:150] Setting up drop7
I0629 14:08:45.630241 14927 net.cpp:157] Top shape: 1 4096 (4096)
I0629 14:08:45.630245 14927 net.cpp:165] Memory required for data: 4286649624
I0629 14:08:45.630249 14927 layer_factory.hpp:77] Creating layer fc7_drop7_0_split
I0629 14:08:45.630255 14927 net.cpp:106] Creating Layer fc7_drop7_0_split
I0629 14:08:45.630259 14927 net.cpp:454] fc7_drop7_0_split <- fc7
I0629 14:08:45.630265 14927 net.cpp:411] fc7_drop7_0_split -> fc7_drop7_0_split_0
I0629 14:08:45.630272 14927 net.cpp:411] fc7_drop7_0_split -> fc7_drop7_0_split_1
I0629 14:08:45.630326 14927 net.cpp:150] Setting up fc7_drop7_0_split
I0629 14:08:45.630337 14927 net.cpp:157] Top shape: 1 4096 (4096)
I0629 14:08:45.630342 14927 net.cpp:157] Top shape: 1 4096 (4096)
I0629 14:08:45.630344 14927 net.cpp:165] Memory required for data: 4286682392
I0629 14:08:45.630348 14927 layer_factory.hpp:77] Creating layer cls_score
I0629 14:08:45.630358 14927 net.cpp:106] Creating Layer cls_score
I0629 14:08:45.630362 14927 net.cpp:454] cls_score <- fc7_drop7_0_split_0
I0629 14:08:45.630368 14927 net.cpp:411] cls_score -> cls_score
I0629 14:08:45.632578 14927 net.cpp:150] Setting up cls_score
I0629 14:08:45.632594 14927 net.cpp:157] Top shape: 1 21 (21)
I0629 14:08:45.632597 14927 net.cpp:165] Memory required for data: 4286682476
I0629 14:08:45.632613 14927 layer_factory.hpp:77] Creating layer bbox_pred
I0629 14:08:45.632624 14927 net.cpp:106] Creating Layer bbox_pred
I0629 14:08:45.632629 14927 net.cpp:454] bbox_pred <- fc7_drop7_0_split_1
I0629 14:08:45.632637 14927 net.cpp:411] bbox_pred -> bbox_pred
I0629 14:08:45.641773 14927 net.cpp:150] Setting up bbox_pred
I0629 14:08:45.641795 14927 net.cpp:157] Top shape: 1 84 (84)
I0629 14:08:45.641799 14927 net.cpp:165] Memory required for data: 4286682812
I0629 14:08:45.641806 14927 layer_factory.hpp:77] Creating layer loss_cls
I0629 14:08:45.641822 14927 net.cpp:106] Creating Layer loss_cls
I0629 14:08:45.641840 14927 net.cpp:454] loss_cls <- cls_score
I0629 14:08:45.641846 14927 net.cpp:454] loss_cls <- labels
I0629 14:08:45.641851 14927 net.cpp:411] loss_cls -> loss_cls
…
