…
stepsize: 50000
snapshot: 0
snapshot_prefix: "fpn"
average_loss: 100
iter_size: 2
I0628 11:24:35.849735 47750 solver.cpp:81] Creating training net from train_net file: models/pascal_voc/VGG16/FP_Net_end2end/train.prototxt
I0628 11:24:35.851244 47750 net.cpp:49] Initializing net from parameters: 
name: "VGG_ILSVRC_16_layers"
state {
  phase: TRAIN
}
layer {
  name: "input-data"
  type: "Python"
  top: "data"
  top: "im_info"
  top: "gt_boxes"
  python_param {
    module: "roi_data_layer.layer"
    layer: "RoIDataLayer"
    param_str: "\'num_classes\': 21"
  }
}
layer {
  name: "conv1_1"
  type: "Convolution"
  bottom: "data"
  top: "conv1_1"
  param {
    lr_mult: 0
    decay_mult: 0
  }
  param {
    lr_mult: 0
    decay_mult: 0
  }
  convolution_param {
    num_output: 64
    pad: 1
    kernel_size: 3
  }
}
layer {
  name: "relu1_1"
  type: "ReLU"
  bottom: "conv1_1"
  top: "conv1_1"
}
layer {
  name: "conv1_2"
  type: "Convolution"
  bottom: "conv1_1"
  top: "conv1_2"
  param {
    lr_mult: 0
    decay_mult: 0
  }
  param {
    lr_mult: 0
    decay_mult: 0
  }
  convolution_param {
    num_output: 64
    pad: 1
    kernel_size: 3
  }
}
layer {
  name: "relu1_2"
  type: "ReLU"
  bottom: "conv1_2"
  top: "conv1_2"
}
layer {
  name: "pool1"
  type: "Pooling"
  bottom: "conv1_2"
  top: "pool1"
  pooling_param {
    pool: MAX
    kernel_size: 2
    stride: 2
  }
}
layer {
  name: "conv2_1"
  type: "Convolution"
  bottom: "pool1"
  top: "conv2_1"
  param {
    lr_mult: 0
    decay_mult: 0
  }
  param {
    lr_mult: 0
    decay_mult: 0
  }
  convolution_param {
    num_output: 128
    pad: 1
    kernel_size: 3
  }
}
layer {
  name: "relu2_1"
  type: "ReLU"
  bottom: "conv2_1"
  top: "conv2_1"
}
layer {
  name: "conv2_2"
  type: "Convolution"
  bottom: "conv2_1"
  top: "conv2_2"
  param {
    lr_mult: 0
    decay_mult: 0
  }
  param {
    lr_mult: 0
    decay_mult: 0
  }
  convolution_param {
    num_output: 128
    pad: 1
    kernel_size: 3
  }
}
layer {
  name: "relu2_2"
  type: "ReLU"
  bottom: "conv2_2"
  top: "conv2_2"
}
layer {
  name: "pool2"
  type: "Pooling"
  bottom: "conv2_2"
  top: "pool2"
  pooling_param {
    pool: MAX
    kernel_size: 2
    stride: 2
  }
}
layer {
  name: "conv3_1"
  type: "Convolution"
  bottom: "pool2"
  top: "conv3_1"
  param {
    lr_mult: 1
  }
  param {
    lr_mult: 2
  }
  convolution_param {
    num_output: 256
    pad: 1
    kernel_size: 3
  }
}
layer {
  name: "relu3_1"
  type: "ReLU"
  bottom: "conv3_1"
  top: "conv3_1"
}
layer {
  name: "conv3_2"
  type: "Convolution"
  bottom: "conv3_1"
  top: "conv3_2"
  param {
    lr_mult: 1
  }
  param {
    lr_mult: 2
  }
  convolution_param {
    num_output: 256
    pad: 1
    kernel_size: 3
  }
}
layer {
  name: "relu3_2"
  type: "ReLU"
  bottom: "conv3_2"
  top: "conv3_2"
}
layer {
  name: "conv3_3"
  type: "Convolution"
  bottom: "conv3_2"
  top: "conv3_3"
  param {
    lr_mult: 1
  }
  param {
    lr_mult: 2
  }
  convolution_param {
    num_output: 256
    pad: 1
    kernel_size: 3
  }
}
layer {
  name: "relu3_3"
  type: "ReLU"
  bottom: "conv3_3"
  top: "conv3_3"
}
layer {
  name: "pool3"
  type: "Pooling"
  bottom: "conv3_3"
  top: "pool3"
  pooling_param {
    pool: MAX
    kernel_size: 2
    stride: 2
  }
}
layer {
  name: "conv4_1"
  type: "Convolution"
  bottom: "pool3"
  top: "conv4_1"
  param {
    lr_mult: 1
  }
  param {
    lr_mult: 2
  }
  convolution_param {
    num_output: 512
    pad: 1
    kernel_size: 3
  }
}
layer {
  name: "relu4_1"
  type: "ReLU"
  bottom: "conv4_1"
  top: "conv4_1"
}
layer {
  name: "conv4_2"
  type: "Convolution"
  bottom: "conv4_1"
  top: "conv4_2"
  param {
    lr_mult: 1
  }
  param {
    lr_mult: 2
  }
  convolution_param {
    num_output: 512
    pad: 1
    kernel_size: 3
  }
}
layer {
  name: "relu4_2"
  type: "ReLU"
  bottom: "conv4_2"
  top: "conv4_2"
}
layer {
  name: "conv4_3"
  type: "Convolution"
  bottom: "conv4_2"
  top: "conv4_3"
  param {
    lr_mult: 1
  }
  param {
    lr_mult: 2
  }
  convolution_param {
    num_output: 512
    pad: 1
    kernel_size: 3
  }
}
layer {
  name: "relu4_3"
  type: "ReLU"
  bottom: "conv4_3"
  top: "conv4_3"
}
layer {
  name: "pool4"
  type: "Pooling"
  bottom: "conv4_3"
  top: "pool4"
  pooling_param {
    pool: MAX
    kernel_size: 2
    stride: 2
  }
}
layer {
  name: "conv5_1"
  type: "Convolution"
  bottom: "pool4"
  top: "conv5_1"
  param {
    lr_mult: 1
  }
  param {
    lr_mult: 2
  }
  convolution_param {
    num_output: 512
    pad: 1
    kernel_size: 3
  }
}
layer {
  name: "relu5_1"
  type: "ReLU"
  bottom: "conv5_1"
  top: "conv5_1"
}
layer {
  name: "conv5_2"
  type: "Convolution"
  bottom: "conv5_1"
  top: "conv5_2"
  param {
    lr_mult: 1
  }
  param {
    lr_mult: 2
  }
  convolution_param {
    num_output: 512
    pad: 1
    kernel_size: 3
  }
}
layer {
  name: "relu5_2"
  type: "ReLU"
  bottom: "conv5_2"
  top: "conv5_2"
}
layer {
  name: "conv5_3"
  type: "Convolution"
  bottom: "conv5_2"
  top: "conv5_3"
  param {
    lr_mult: 1
  }
  param {
    lr_mult: 2
  }
  convolution_param {
    num_output: 512
    pad: 1
    kernel_size: 3
  }
}
layer {
  name: "relu5_3"
  type: "ReLU"
  bottom: "conv5_3"
  top: "conv5_3"
}
layer {
  name: "pool5"
  type: "Pooling"
  bottom: "conv5_3"
  top: "pool5"
  pooling_param {
    pool: MAX
    kernel_size: 2
    stride: 2
  }
}
layer {
  name: "P5"
  type: "Convolution"
  bottom: "pool5"
  top: "P5"
  param {
    lr_mult: 1
  }
  param {
    lr_mult: 2
  }
  convolution_param {
    num_output: 256
    kernel_size: 1
  }
}
layer {
  name: "upP5"
  type: "Deconvolution"
  bottom: "P5"
  top: "upP5"
  param {
    lr_mult: 0
    decay_mult: 0
  }
  convolution_param {
    num_output: 256
    bias_term: false
    pad: 1
    kernel_size: 4
    stride: 2
  }
}
layer {
  name: "newC4"
  type: "Convolution"
  bottom: "conv5_3"
  top: "newC4"
  param {
    lr_mult: 1
  }
  param {
    lr_mult: 2
  }
  convolution_param {
    num_output: 256
    kernel_size: 1
  }
}
layer {
  name: "upP5crop"
  type: "Crop"
  bottom: "upP5"
  bottom: "newC4"
  top: "upP5crop"
  crop_param {
    axis: 2
    offset: 0
  }
}
layer {
  name: "P4"
  type: "Eltwise"
  bottom: "newC4"
  bottom: "upP5crop"
  top: "P4"
  eltwise_param {
    operation: SUM
  }
}
layer {
  name: "upP4"
  type: "Deconvolution"
  bottom: "P4"
  top: "upP4"
  param {
    lr_mult: 0
    decay_mult: 0
  }
  convolution_param {
    num_output: 256
    bias_term: false
    pad: 1
    kernel_size: 4
    stride: 2
  }
}
layer {
  name: "newC3"
  type: "Convolution"
  bottom: "conv4_3"
  top: "newC3"
  param {
    lr_mult: 1
  }
  param {
    lr_mult: 2
  }
  convolution_param {
    num_output: 256
    kernel_size: 1
  }
}
layer {
  name: "upP4crop"
  type: "Crop"
  bottom: "upP4"
  bottom: "newC3"
  top: "upP4crop"
  crop_param {
    axis: 2
    offset: 0
  }
}
layer {
  name: "P3"
  type: "Eltwise"
  bottom: "newC3"
  bottom: "upP4crop"
  top: "P3"
  eltwise_param {
    operation: SUM
  }
}
layer {
  name: "upP3"
  type: "Deconvolution"
  bottom: "P3"
  top: "upP3"
  param {
    lr_mult: 0
    decay_mult: 0
  }
  convolution_param {
    num_output: 256
    bias_term: false
    pad: 1
    kernel_size: 4
    stride: 2
  }
}
layer {
  name: "upP3crop"
  type: "Crop"
  bottom: "upP3"
  bottom: "conv3_3"
  top: "upP3crop"
  crop_param {
    axis: 2
    offset: 0
  }
}
layer {
  name: "P2"
  type: "Eltwise"
  bottom: "conv3_3"
  bottom: "upP3crop"
  top: "P2"
  eltwise_param {
    operation: SUM
  }
}
layer {
  name: "newP2"
  type: "Convolution"
  bottom: "P2"
  top: "newP2"
  param {
    lr_mult: 1
  }
  param {
    lr_mult: 2
  }
  convolution_param {
    num_output: 256
    pad: 1
    kernel_size: 3
  }
}
layer {
  name: "rpn_conv/3x3"
  type: "Convolution"
  bottom: "newP2"
  top: "rpn/output"
  param {
    lr_mult: 1
  }
  param {
    lr_mult: 2
  }
  convolution_param {
    num_output: 512
    pad: 1
    kernel_size: 3
    stride: 1
    weight_filler {
      type: "gaussian"
      std: 0.01
    }
    bias_filler {
      type: "constant"
      value: 0
    }
  }
}
layer {
  name: "rpn_relu/3x3"
  type: "ReLU"
  bottom: "rpn/output"
  top: "rpn/output"
}
layer {
  name: "rpn_cls_score"
  type: "Convolution"
  bottom: "rpn/output"
  top: "rpn_cls_score"
  param {
    lr_mult: 1
  }
  param {
    lr_mult: 2
  }
  convolution_param {
    num_output: 18
    pad: 0
    kernel_size: 1
    stride: 1
    weight_filler {
      type: "gaussian"
      std: 0.01
    }
    bias_filler {
      type: "constant"
      value: 0
    }
  }
}
layer {
  name: "rpn_bbox_pred"
  type: "Convolution"
  bottom: "rpn/output"
  top: "rpn_bbox_pred"
  param {
    lr_mult: 1
  }
  param {
    lr_mult: 2
  }
  convolution_param {
    num_output: 36
    pad: 0
    kernel_size: 1
    stride: 1
    weight_filler {
      type: "gaussian"
      std: 0.01
    }
    bias_filler {
      type: "constant"
      value: 0
    }
  }
}
layer {
  name: "rpn_cls_score_reshape"
  type: "Reshape"
  bottom: "rpn_cls_score"
  top: "rpn_cls_score_reshape"
  reshape_param {
    shape {
      dim: 0
      dim: 2
      dim: -1
      dim: 0
    }
  }
}
layer {
  name: "rpn-data"
  type: "Python"
  bottom: "rpn_cls_score"
  bottom: "gt_boxes"
  bottom: "im_info"
  bottom: "data"
  top: "rpn_labels"
  top: "rpn_bbox_targets"
  top: "rpn_bbox_inside_weights"
  top: "rpn_bbox_outside_weights"
  python_param {
    module: "rpn.anchor_target_layer"
    layer: "AnchorTargetLayer"
    param_str: "\'feat_stride\': 4"
  }
}
layer {
  name: "rpn_loss_cls"
  type: "SoftmaxWithLoss"
  bottom: "rpn_cls_score_reshape"
  bottom: "rpn_labels"
  top: "rpn_cls_loss"
  loss_weight: 1
  propagate_down: true
  propagate_down: false
  loss_param {
    ignore_label: -1
    normalize: true
  }
}
layer {
  name: "rpn_loss_bbox"
  type: "SmoothL1Loss"
  bottom: "rpn_bbox_pred"
  bottom: "rpn_bbox_targets"
  bottom: "rpn_bbox_inside_weights"
  bottom: "rpn_bbox_outside_weights"
  top: "rpn_loss_bbox"
  loss_weight: 1
  smooth_l1_loss_param {
    sigma: 3
  }
}
layer {
  name: "rpn_cls_prob"
  type: "Softmax"
  bottom: "rpn_cls_score_reshape"
  top: "rpn_cls_prob"
}
layer {
  name: "rpn_cls_prob_reshape"
  type: "Reshape"
  bottom: "rpn_cls_prob"
  top: "rpn_cls_prob_reshape"
  reshape_param {
    shape {
      dim: 0
      dim: 18
      dim: -1
      dim: 0
    }
  }
}
layer {
  name: "proposal"
  type: "Python"
  bottom: "rpn_cls_prob_reshape"
  bottom: "rpn_bbox_pred"
  bottom: "im_info"
  top: "rpn_rois"
  python_param {
    module: "rpn.proposal_layer"
    layer: "ProposalLayer"
    param_str: "\'feat_stride\': 4"
  }
}
layer {
  name: "roi-data"
  type: "Python"
  bottom: "rpn_rois"
  bottom: "gt_boxes"
  top: "rois"
  top: "labels"
  top: "bbox_targets"
  top: "bbox_inside_weights"
  top: "bbox_outside_weights"
  python_param {
    module: "rpn.proposal_target_layer"
    layer: "ProposalTargetLayer"
    param_str: "\'num_classes\': 21"
  }
}
layer {
  name: "roi_pool5"
  type: "ROIPooling"
  bottom: "newP2"
  bottom: "rois"
  top: "rcnn_pool5"
  roi_pooling_param {
    pooled_h: 7
    pooled_w: 7
    spatial_scale: 0.25
  }
}
layer {
  name: "rcnn_fc6"
  type: "InnerProduct"
  bottom: "rcnn_pool5"
  top: "rcnn_fc6"
  param {
    lr_mult: 1
  }
  param {
    lr_mult: 2
  }
  inner_product_param {
    num_output: 4096
    weight_filler {
      type: "xavier"
    }
    bias_filler {
      type: "constant"
    }
  }
}
layer {
  name: "relu6"
  type: "ReLU"
  bottom: "rcnn_fc6"
  top: "rcnn_fc6"
}
layer {
  name: "drop6"
  type: "Dropout"
  bottom: "rcnn_fc6"
  top: "rcnn_fc6"
  dropout_param {
    dropout_ratio: 0.5
  }
}
layer {
  name: "fc7"
  type: "InnerProduct"
  bottom: "rcnn_fc6"
  top: "fc7"
  param {
    lr_mult: 1
  }
  param {
    lr_mult: 2
  }
  inner_product_param {
    num_output: 4096
    weight_filler {
      type: "xavier"
    }
    bias_filler {
      type: "constant"
    }
  }
}
layer {
  name: "relu7"
  type: "ReLU"
  bottom: "fc7"
  top: "fc7"
}
layer {
  name: "drop7"
  type: "Dropout"
  bottom: "fc7"
  top: "fc7"
  dropout_param {
    dropout_ratio: 0.5
  }
}
layer {
  name: "cls_score"
  type: "InnerProduct"
  bottom: "fc7"
  top: "cls_score"
  param {
    lr_mult: 1
  }
  param {
    lr_mult: 2
  }
  inner_product_param {
    num_output: 21
    weight_filler {
      type: "gaussian"
      std: 0.01
    }
    bias_filler {
      type: "constant"
      value: 0
    }
  }
}
layer {
  name: "bbox_pred"
  type: "InnerProduct"
  bottom: "fc7"
  top: "bbox_pred"
  param {
    lr_mult: 1
  }
  param {
    lr_mult: 2
  }
  inner_product_param {
    num_output: 84
    weight_filler {
      type: "gaussian"
      std: 0.001
    }
    bias_filler {
      type: "constant"
      value: 0
    }
  }
}
layer {
  name: "loss_cls"
  type: "SoftmaxWithLoss"
  bottom: "cls_score"
  bottom: "labels"
  top: "loss_cls"
  loss_weight: 1
  propagate_down: true
  propagate_down: false
}
layer {
  name: "loss_bbox"
  type: "SmoothL1Loss"
  bottom: "bbox_pred"
  bottom: "bbox_targets"
  bottom: "bbox_inside_weights"
  bottom: "bbox_outside_weights"
  top: "loss_bbox"
  loss_weight: 1
}
I0628 11:24:35.851603 47750 layer_factory.hpp:77] Creating layer input-data
I0628 11:24:35.852500 47750 net.cpp:106] Creating Layer input-data
I0628 11:24:35.852533 47750 net.cpp:411] input-data -> data
I0628 11:24:35.852576 47750 net.cpp:411] input-data -> im_info
I0628 11:24:35.852612 47750 net.cpp:411] input-data -> gt_boxes
RoiDataLayer: name_to_top: {'gt_boxes': 2, 'data': 0, 'im_info': 1}
I0628 11:24:35.866049 47750 net.cpp:150] Setting up input-data
I0628 11:24:35.866071 47750 net.cpp:157] Top shape: 1 3 600 1000 (1800000)
I0628 11:24:35.866076 47750 net.cpp:157] Top shape: 1 3 (3)
I0628 11:24:35.866080 47750 net.cpp:157] Top shape: 1 4 (4)
I0628 11:24:35.866098 47750 net.cpp:165] Memory required for data: 7200028
I0628 11:24:35.866112 47750 layer_factory.hpp:77] Creating layer data_input-data_0_split
I0628 11:24:35.866132 47750 net.cpp:106] Creating Layer data_input-data_0_split
I0628 11:24:35.866147 47750 net.cpp:454] data_input-data_0_split <- data
I0628 11:24:35.866166 47750 net.cpp:411] data_input-data_0_split -> data_input-data_0_split_0
I0628 11:24:35.866188 47750 net.cpp:411] data_input-data_0_split -> data_input-data_0_split_1
I0628 11:24:35.866241 47750 net.cpp:150] Setting up data_input-data_0_split
I0628 11:24:35.866255 47750 net.cpp:157] Top shape: 1 3 600 1000 (1800000)
I0628 11:24:35.866261 47750 net.cpp:157] Top shape: 1 3 600 1000 (1800000)
I0628 11:24:35.866263 47750 net.cpp:165] Memory required for data: 21600028
I0628 11:24:35.866266 47750 layer_factory.hpp:77] Creating layer im_info_input-data_1_split
I0628 11:24:35.866288 47750 net.cpp:106] Creating Layer im_info_input-data_1_split
I0628 11:24:35.866302 47750 net.cpp:454] im_info_input-data_1_split <- im_info
I0628 11:24:35.866319 47750 net.cpp:411] im_info_input-data_1_split -> im_info_input-data_1_split_0
I0628 11:24:35.866341 47750 net.cpp:411] im_info_input-data_1_split -> im_info_input-data_1_split_1
I0628 11:24:35.866389 47750 net.cpp:150] Setting up im_info_input-data_1_split
I0628 11:24:35.866402 47750 net.cpp:157] Top shape: 1 3 (3)
I0628 11:24:35.866406 47750 net.cpp:157] Top shape: 1 3 (3)
I0628 11:24:35.866410 47750 net.cpp:165] Memory required for data: 21600052
I0628 11:24:35.866413 47750 layer_factory.hpp:77] Creating layer gt_boxes_input-data_2_split
I0628 11:24:35.866417 47750 net.cpp:106] Creating Layer gt_boxes_input-data_2_split
I0628 11:24:35.866436 47750 net.cpp:454] gt_boxes_input-data_2_split <- gt_boxes
I0628 11:24:35.866451 47750 net.cpp:411] gt_boxes_input-data_2_split -> gt_boxes_input-data_2_split_0
I0628 11:24:35.866466 47750 net.cpp:411] gt_boxes_input-data_2_split -> gt_boxes_input-data_2_split_1
I0628 11:24:35.866513 47750 net.cpp:150] Setting up gt_boxes_input-data_2_split
I0628 11:24:35.866524 47750 net.cpp:157] Top shape: 1 4 (4)
I0628 11:24:35.866529 47750 net.cpp:157] Top shape: 1 4 (4)
I0628 11:24:35.866531 47750 net.cpp:165] Memory required for data: 21600084
I0628 11:24:35.866534 47750 layer_factory.hpp:77] Creating layer conv1_1
I0628 11:24:35.866549 47750 net.cpp:106] Creating Layer conv1_1
I0628 11:24:35.866569 47750 net.cpp:454] conv1_1 <- data_input-data_0_split_0
I0628 11:24:35.866587 47750 net.cpp:411] conv1_1 -> conv1_1
I0628 11:24:38.476442 47750 net.cpp:150] Setting up conv1_1
I0628 11:24:38.476493 47750 net.cpp:157] Top shape: 1 64 600 1000 (38400000)
I0628 11:24:38.476498 47750 net.cpp:165] Memory required for data: 175200084
I0628 11:24:38.476521 47750 layer_factory.hpp:77] Creating layer relu1_1
I0628 11:24:38.476538 47750 net.cpp:106] Creating Layer relu1_1
I0628 11:24:38.476544 47750 net.cpp:454] relu1_1 <- conv1_1
I0628 11:24:38.476550 47750 net.cpp:397] relu1_1 -> conv1_1 (in-place)
I0628 11:24:38.477259 47750 net.cpp:150] Setting up relu1_1
I0628 11:24:38.477279 47750 net.cpp:157] Top shape: 1 64 600 1000 (38400000)
I0628 11:24:38.477283 47750 net.cpp:165] Memory required for data: 328800084
I0628 11:24:38.477288 47750 layer_factory.hpp:77] Creating layer conv1_2
I0628 11:24:38.477298 47750 net.cpp:106] Creating Layer conv1_2
I0628 11:24:38.477301 47750 net.cpp:454] conv1_2 <- conv1_1
I0628 11:24:38.477308 47750 net.cpp:411] conv1_2 -> conv1_2
I0628 11:24:38.482973 47750 net.cpp:150] Setting up conv1_2
I0628 11:24:38.482996 47750 net.cpp:157] Top shape: 1 64 600 1000 (38400000)
I0628 11:24:38.483000 47750 net.cpp:165] Memory required for data: 482400084
I0628 11:24:38.483011 47750 layer_factory.hpp:77] Creating layer relu1_2
I0628 11:24:38.483017 47750 net.cpp:106] Creating Layer relu1_2
I0628 11:24:38.483021 47750 net.cpp:454] relu1_2 <- conv1_2
I0628 11:24:38.483026 47750 net.cpp:397] relu1_2 -> conv1_2 (in-place)
I0628 11:24:38.483191 47750 net.cpp:150] Setting up relu1_2
I0628 11:24:38.483206 47750 net.cpp:157] Top shape: 1 64 600 1000 (38400000)
I0628 11:24:38.483211 47750 net.cpp:165] Memory required for data: 636000084
I0628 11:24:38.483214 47750 layer_factory.hpp:77] Creating layer pool1
I0628 11:24:38.483228 47750 net.cpp:106] Creating Layer pool1
I0628 11:24:38.483239 47750 net.cpp:454] pool1 <- conv1_2
I0628 11:24:38.483245 47750 net.cpp:411] pool1 -> pool1
I0628 11:24:38.483292 47750 net.cpp:150] Setting up pool1
I0628 11:24:38.483304 47750 net.cpp:157] Top shape: 1 64 300 500 (9600000)
I0628 11:24:38.483307 47750 net.cpp:165] Memory required for data: 674400084
I0628 11:24:38.483310 47750 layer_factory.hpp:77] Creating layer conv2_1
I0628 11:24:38.483317 47750 net.cpp:106] Creating Layer conv2_1
I0628 11:24:38.483321 47750 net.cpp:454] conv2_1 <- pool1
I0628 11:24:38.483326 47750 net.cpp:411] conv2_1 -> conv2_1
I0628 11:24:38.490206 47750 net.cpp:150] Setting up conv2_1
I0628 11:24:38.490229 47750 net.cpp:157] Top shape: 1 128 300 500 (19200000)
I0628 11:24:38.490234 47750 net.cpp:165] Memory required for data: 751200084
I0628 11:24:38.490244 47750 layer_factory.hpp:77] Creating layer relu2_1
I0628 11:24:38.490252 47750 net.cpp:106] Creating Layer relu2_1
I0628 11:24:38.490263 47750 net.cpp:454] relu2_1 <- conv2_1
I0628 11:24:38.490269 47750 net.cpp:397] relu2_1 -> conv2_1 (in-place)
I0628 11:24:38.491807 47750 net.cpp:150] Setting up relu2_1
I0628 11:24:38.491825 47750 net.cpp:157] Top shape: 1 128 300 500 (19200000)
I0628 11:24:38.491828 47750 net.cpp:165] Memory required for data: 828000084
I0628 11:24:38.491832 47750 layer_factory.hpp:77] Creating layer conv2_2
I0628 11:24:38.491840 47750 net.cpp:106] Creating Layer conv2_2
I0628 11:24:38.491843 47750 net.cpp:454] conv2_2 <- conv2_1
I0628 11:24:38.491849 47750 net.cpp:411] conv2_2 -> conv2_2
I0628 11:24:38.500036 47750 net.cpp:150] Setting up conv2_2
I0628 11:24:38.500059 47750 net.cpp:157] Top shape: 1 128 300 500 (19200000)
I0628 11:24:38.500064 47750 net.cpp:165] Memory required for data: 904800084
I0628 11:24:38.500072 47750 layer_factory.hpp:77] Creating layer relu2_2
I0628 11:24:38.500078 47750 net.cpp:106] Creating Layer relu2_2
I0628 11:24:38.500082 47750 net.cpp:454] relu2_2 <- conv2_2
I0628 11:24:38.500088 47750 net.cpp:397] relu2_2 -> conv2_2 (in-place)
I0628 11:24:38.500793 47750 net.cpp:150] Setting up relu2_2
I0628 11:24:38.500811 47750 net.cpp:157] Top shape: 1 128 300 500 (19200000)
I0628 11:24:38.500815 47750 net.cpp:165] Memory required for data: 981600084
I0628 11:24:38.500819 47750 layer_factory.hpp:77] Creating layer pool2
I0628 11:24:38.500825 47750 net.cpp:106] Creating Layer pool2
I0628 11:24:38.500829 47750 net.cpp:454] pool2 <- conv2_2
I0628 11:24:38.500836 47750 net.cpp:411] pool2 -> pool2
I0628 11:24:38.500880 47750 net.cpp:150] Setting up pool2
I0628 11:24:38.500891 47750 net.cpp:157] Top shape: 1 128 150 250 (4800000)
I0628 11:24:38.500895 47750 net.cpp:165] Memory required for data: 1000800084
I0628 11:24:38.500897 47750 layer_factory.hpp:77] Creating layer conv3_1
I0628 11:24:38.500905 47750 net.cpp:106] Creating Layer conv3_1
I0628 11:24:38.500910 47750 net.cpp:454] conv3_1 <- pool2
I0628 11:24:38.500915 47750 net.cpp:411] conv3_1 -> conv3_1
I0628 11:24:38.506384 47750 net.cpp:150] Setting up conv3_1
I0628 11:24:38.506407 47750 net.cpp:157] Top shape: 1 256 150 250 (9600000)
I0628 11:24:38.506412 47750 net.cpp:165] Memory required for data: 1039200084
I0628 11:24:38.506422 47750 layer_factory.hpp:77] Creating layer relu3_1
I0628 11:24:38.506428 47750 net.cpp:106] Creating Layer relu3_1
I0628 11:24:38.506431 47750 net.cpp:454] relu3_1 <- conv3_1
I0628 11:24:38.506438 47750 net.cpp:397] relu3_1 -> conv3_1 (in-place)
I0628 11:24:38.510623 47750 net.cpp:150] Setting up relu3_1
I0628 11:24:38.510640 47750 net.cpp:157] Top shape: 1 256 150 250 (9600000)
I0628 11:24:38.510644 47750 net.cpp:165] Memory required for data: 1077600084
I0628 11:24:38.510648 47750 layer_factory.hpp:77] Creating layer conv3_2
I0628 11:24:38.510658 47750 net.cpp:106] Creating Layer conv3_2
I0628 11:24:38.510663 47750 net.cpp:454] conv3_2 <- conv3_1
I0628 11:24:38.510668 47750 net.cpp:411] conv3_2 -> conv3_2
I0628 11:24:38.515244 47750 net.cpp:150] Setting up conv3_2
I0628 11:24:38.515267 47750 net.cpp:157] Top shape: 1 256 150 250 (9600000)
I0628 11:24:38.515272 47750 net.cpp:165] Memory required for data: 1116000084
I0628 11:24:38.515280 47750 layer_factory.hpp:77] Creating layer relu3_2
I0628 11:24:38.515286 47750 net.cpp:106] Creating Layer relu3_2
I0628 11:24:38.515290 47750 net.cpp:454] relu3_2 <- conv3_2
I0628 11:24:38.515295 47750 net.cpp:397] relu3_2 -> conv3_2 (in-place)
I0628 11:24:38.515935 47750 net.cpp:150] Setting up relu3_2
I0628 11:24:38.515951 47750 net.cpp:157] Top shape: 1 256 150 250 (9600000)
I0628 11:24:38.515954 47750 net.cpp:165] Memory required for data: 1154400084
I0628 11:24:38.515959 47750 layer_factory.hpp:77] Creating layer conv3_3
I0628 11:24:38.515966 47750 net.cpp:106] Creating Layer conv3_3
I0628 11:24:38.515970 47750 net.cpp:454] conv3_3 <- conv3_2
I0628 11:24:38.515976 47750 net.cpp:411] conv3_3 -> conv3_3
I0628 11:24:38.521852 47750 net.cpp:150] Setting up conv3_3
I0628 11:24:38.521873 47750 net.cpp:157] Top shape: 1 256 150 250 (9600000)
I0628 11:24:38.521878 47750 net.cpp:165] Memory required for data: 1192800084
I0628 11:24:38.521885 47750 layer_factory.hpp:77] Creating layer relu3_3
I0628 11:24:38.521893 47750 net.cpp:106] Creating Layer relu3_3
I0628 11:24:38.521896 47750 net.cpp:454] relu3_3 <- conv3_3
I0628 11:24:38.521901 47750 net.cpp:397] relu3_3 -> conv3_3 (in-place)
I0628 11:24:38.524441 47750 net.cpp:150] Setting up relu3_3
I0628 11:24:38.524459 47750 net.cpp:157] Top shape: 1 256 150 250 (9600000)
I0628 11:24:38.524463 47750 net.cpp:165] Memory required for data: 1231200084
I0628 11:24:38.524466 47750 layer_factory.hpp:77] Creating layer conv3_3_relu3_3_0_split
I0628 11:24:38.524473 47750 net.cpp:106] Creating Layer conv3_3_relu3_3_0_split
I0628 11:24:38.524477 47750 net.cpp:454] conv3_3_relu3_3_0_split <- conv3_3
I0628 11:24:38.524483 47750 net.cpp:411] conv3_3_relu3_3_0_split -> conv3_3_relu3_3_0_split_0
I0628 11:24:38.524490 47750 net.cpp:411] conv3_3_relu3_3_0_split -> conv3_3_relu3_3_0_split_1
I0628 11:24:38.524495 47750 net.cpp:411] conv3_3_relu3_3_0_split -> conv3_3_relu3_3_0_split_2
I0628 11:24:38.524549 47750 net.cpp:150] Setting up conv3_3_relu3_3_0_split
I0628 11:24:38.524561 47750 net.cpp:157] Top shape: 1 256 150 250 (9600000)
I0628 11:24:38.524565 47750 net.cpp:157] Top shape: 1 256 150 250 (9600000)
I0628 11:24:38.524569 47750 net.cpp:157] Top shape: 1 256 150 250 (9600000)
I0628 11:24:38.524571 47750 net.cpp:165] Memory required for data: 1346400084
I0628 11:24:38.524574 47750 layer_factory.hpp:77] Creating layer pool3
I0628 11:24:38.524580 47750 net.cpp:106] Creating Layer pool3
I0628 11:24:38.524583 47750 net.cpp:454] pool3 <- conv3_3_relu3_3_0_split_0
I0628 11:24:38.524588 47750 net.cpp:411] pool3 -> pool3
I0628 11:24:38.524626 47750 net.cpp:150] Setting up pool3
I0628 11:24:38.524634 47750 net.cpp:157] Top shape: 1 256 75 125 (2400000)
I0628 11:24:38.524637 47750 net.cpp:165] Memory required for data: 1356000084
I0628 11:24:38.524641 47750 layer_factory.hpp:77] Creating layer conv4_1
I0628 11:24:38.524649 47750 net.cpp:106] Creating Layer conv4_1
I0628 11:24:38.524652 47750 net.cpp:454] conv4_1 <- pool3
I0628 11:24:38.524657 47750 net.cpp:411] conv4_1 -> conv4_1
I0628 11:24:38.532753 47750 net.cpp:150] Setting up conv4_1
I0628 11:24:38.532778 47750 net.cpp:157] Top shape: 1 512 75 125 (4800000)
I0628 11:24:38.532781 47750 net.cpp:165] Memory required for data: 1375200084
I0628 11:24:38.532789 47750 layer_factory.hpp:77] Creating layer relu4_1
I0628 11:24:38.532795 47750 net.cpp:106] Creating Layer relu4_1
I0628 11:24:38.532799 47750 net.cpp:454] relu4_1 <- conv4_1
I0628 11:24:38.532805 47750 net.cpp:397] relu4_1 -> conv4_1 (in-place)
I0628 11:24:38.533534 47750 net.cpp:150] Setting up relu4_1
I0628 11:24:38.533553 47750 net.cpp:157] Top shape: 1 512 75 125 (4800000)
I0628 11:24:38.533557 47750 net.cpp:165] Memory required for data: 1394400084
I0628 11:24:38.533561 47750 layer_factory.hpp:77] Creating layer conv4_2
I0628 11:24:38.533571 47750 net.cpp:106] Creating Layer conv4_2
I0628 11:24:38.533574 47750 net.cpp:454] conv4_2 <- conv4_1
I0628 11:24:38.533581 47750 net.cpp:411] conv4_2 -> conv4_2
I0628 11:24:38.550137 47750 net.cpp:150] Setting up conv4_2
I0628 11:24:38.550161 47750 net.cpp:157] Top shape: 1 512 75 125 (4800000)
I0628 11:24:38.550165 47750 net.cpp:165] Memory required for data: 1413600084
I0628 11:24:38.550178 47750 layer_factory.hpp:77] Creating layer relu4_2
I0628 11:24:38.550184 47750 net.cpp:106] Creating Layer relu4_2
I0628 11:24:38.550195 47750 net.cpp:454] relu4_2 <- conv4_2
I0628 11:24:38.550201 47750 net.cpp:397] relu4_2 -> conv4_2 (in-place)
I0628 11:24:38.551013 47750 net.cpp:150] Setting up relu4_2
I0628 11:24:38.551028 47750 net.cpp:157] Top shape: 1 512 75 125 (4800000)
I0628 11:24:38.551033 47750 net.cpp:165] Memory required for data: 1432800084
I0628 11:24:38.551036 47750 layer_factory.hpp:77] Creating layer conv4_3
I0628 11:24:38.551045 47750 net.cpp:106] Creating Layer conv4_3
I0628 11:24:38.551048 47750 net.cpp:454] conv4_3 <- conv4_2
I0628 11:24:38.551055 47750 net.cpp:411] conv4_3 -> conv4_3
I0628 11:24:38.558590 47750 net.cpp:150] Setting up conv4_3
I0628 11:24:38.558616 47750 net.cpp:157] Top shape: 1 512 75 125 (4800000)
I0628 11:24:38.558621 47750 net.cpp:165] Memory required for data: 1452000084
I0628 11:24:38.558627 47750 layer_factory.hpp:77] Creating layer relu4_3
I0628 11:24:38.558634 47750 net.cpp:106] Creating Layer relu4_3
I0628 11:24:38.558639 47750 net.cpp:454] relu4_3 <- conv4_3
I0628 11:24:38.558643 47750 net.cpp:397] relu4_3 -> conv4_3 (in-place)
I0628 11:24:38.559628 47750 net.cpp:150] Setting up relu4_3
I0628 11:24:38.559648 47750 net.cpp:157] Top shape: 1 512 75 125 (4800000)
I0628 11:24:38.559651 47750 net.cpp:165] Memory required for data: 1471200084
I0628 11:24:38.559655 47750 layer_factory.hpp:77] Creating layer conv4_3_relu4_3_0_split
I0628 11:24:38.559662 47750 net.cpp:106] Creating Layer conv4_3_relu4_3_0_split
I0628 11:24:38.559666 47750 net.cpp:454] conv4_3_relu4_3_0_split <- conv4_3
I0628 11:24:38.559674 47750 net.cpp:411] conv4_3_relu4_3_0_split -> conv4_3_relu4_3_0_split_0
I0628 11:24:38.559680 47750 net.cpp:411] conv4_3_relu4_3_0_split -> conv4_3_relu4_3_0_split_1
I0628 11:24:38.559721 47750 net.cpp:150] Setting up conv4_3_relu4_3_0_split
I0628 11:24:38.559732 47750 net.cpp:157] Top shape: 1 512 75 125 (4800000)
I0628 11:24:38.559737 47750 net.cpp:157] Top shape: 1 512 75 125 (4800000)
I0628 11:24:38.559741 47750 net.cpp:165] Memory required for data: 1509600084
I0628 11:24:38.559743 47750 layer_factory.hpp:77] Creating layer pool4
I0628 11:24:38.559749 47750 net.cpp:106] Creating Layer pool4
I0628 11:24:38.559752 47750 net.cpp:454] pool4 <- conv4_3_relu4_3_0_split_0
I0628 11:24:38.559758 47750 net.cpp:411] pool4 -> pool4
I0628 11:24:38.559795 47750 net.cpp:150] Setting up pool4
I0628 11:24:38.559805 47750 net.cpp:157] Top shape: 1 512 38 63 (1225728)
I0628 11:24:38.559808 47750 net.cpp:165] Memory required for data: 1514502996
I0628 11:24:38.559813 47750 layer_factory.hpp:77] Creating layer conv5_1
I0628 11:24:38.559820 47750 net.cpp:106] Creating Layer conv5_1
I0628 11:24:38.559823 47750 net.cpp:454] conv5_1 <- pool4
I0628 11:24:38.559830 47750 net.cpp:411] conv5_1 -> conv5_1
I0628 11:24:38.567193 47750 net.cpp:150] Setting up conv5_1
I0628 11:24:38.567221 47750 net.cpp:157] Top shape: 1 512 38 63 (1225728)
I0628 11:24:38.567226 47750 net.cpp:165] Memory required for data: 1519405908
I0628 11:24:38.567234 47750 layer_factory.hpp:77] Creating layer relu5_1
I0628 11:24:38.567241 47750 net.cpp:106] Creating Layer relu5_1
I0628 11:24:38.567245 47750 net.cpp:454] relu5_1 <- conv5_1
I0628 11:24:38.567251 47750 net.cpp:397] relu5_1 -> conv5_1 (in-place)
I0628 11:24:38.567459 47750 net.cpp:150] Setting up relu5_1
I0628 11:24:38.567476 47750 net.cpp:157] Top shape: 1 512 38 63 (1225728)
I0628 11:24:38.567479 47750 net.cpp:165] Memory required for data: 1524308820
I0628 11:24:38.567482 47750 layer_factory.hpp:77] Creating layer conv5_2
I0628 11:24:38.567498 47750 net.cpp:106] Creating Layer conv5_2
I0628 11:24:38.567517 47750 net.cpp:454] conv5_2 <- conv5_1
I0628 11:24:38.567525 47750 net.cpp:411] conv5_2 -> conv5_2
I0628 11:24:38.576807 47750 net.cpp:150] Setting up conv5_2
I0628 11:24:38.576867 47750 net.cpp:157] Top shape: 1 512 38 63 (1225728)
I0628 11:24:38.576875 47750 net.cpp:165] Memory required for data: 1529211732
I0628 11:24:38.576891 47750 layer_factory.hpp:77] Creating layer relu5_2
I0628 11:24:38.576907 47750 net.cpp:106] Creating Layer relu5_2
I0628 11:24:38.576920 47750 net.cpp:454] relu5_2 <- conv5_2
I0628 11:24:38.576941 47750 net.cpp:397] relu5_2 -> conv5_2 (in-place)
I0628 11:24:38.577201 47750 net.cpp:150] Setting up relu5_2
I0628 11:24:38.577222 47750 net.cpp:157] Top shape: 1 512 38 63 (1225728)
I0628 11:24:38.577229 47750 net.cpp:165] Memory required for data: 1534114644
I0628 11:24:38.577235 47750 layer_factory.hpp:77] Creating layer conv5_3
I0628 11:24:38.577252 47750 net.cpp:106] Creating Layer conv5_3
I0628 11:24:38.577266 47750 net.cpp:454] conv5_3 <- conv5_2
I0628 11:24:38.577278 47750 net.cpp:411] conv5_3 -> conv5_3
I0628 11:24:38.587545 47750 net.cpp:150] Setting up conv5_3
I0628 11:24:38.587595 47750 net.cpp:157] Top shape: 1 512 38 63 (1225728)
I0628 11:24:38.587600 47750 net.cpp:165] Memory required for data: 1539017556
I0628 11:24:38.587611 47750 layer_factory.hpp:77] Creating layer relu5_3
I0628 11:24:38.587623 47750 net.cpp:106] Creating Layer relu5_3
I0628 11:24:38.587630 47750 net.cpp:454] relu5_3 <- conv5_3
I0628 11:24:38.587638 47750 net.cpp:397] relu5_3 -> conv5_3 (in-place)
I0628 11:24:38.588383 47750 net.cpp:150] Setting up relu5_3
I0628 11:24:38.588403 47750 net.cpp:157] Top shape: 1 512 38 63 (1225728)
I0628 11:24:38.588408 47750 net.cpp:165] Memory required for data: 1543920468
I0628 11:24:38.588412 47750 layer_factory.hpp:77] Creating layer conv5_3_relu5_3_0_split
I0628 11:24:38.588420 47750 net.cpp:106] Creating Layer conv5_3_relu5_3_0_split
I0628 11:24:38.588424 47750 net.cpp:454] conv5_3_relu5_3_0_split <- conv5_3
I0628 11:24:38.588433 47750 net.cpp:411] conv5_3_relu5_3_0_split -> conv5_3_relu5_3_0_split_0
I0628 11:24:38.588439 47750 net.cpp:411] conv5_3_relu5_3_0_split -> conv5_3_relu5_3_0_split_1
I0628 11:24:38.588490 47750 net.cpp:150] Setting up conv5_3_relu5_3_0_split
I0628 11:24:38.588502 47750 net.cpp:157] Top shape: 1 512 38 63 (1225728)
I0628 11:24:38.588507 47750 net.cpp:157] Top shape: 1 512 38 63 (1225728)
I0628 11:24:38.588510 47750 net.cpp:165] Memory required for data: 1553726292
I0628 11:24:38.588515 47750 layer_factory.hpp:77] Creating layer pool5
I0628 11:24:38.588521 47750 net.cpp:106] Creating Layer pool5
I0628 11:24:38.588526 47750 net.cpp:454] pool5 <- conv5_3_relu5_3_0_split_0
I0628 11:24:38.588531 47750 net.cpp:411] pool5 -> pool5
I0628 11:24:38.588572 47750 net.cpp:150] Setting up pool5
I0628 11:24:38.588582 47750 net.cpp:157] Top shape: 1 512 19 32 (311296)
I0628 11:24:38.588584 47750 net.cpp:165] Memory required for data: 1554971476
I0628 11:24:38.588587 47750 layer_factory.hpp:77] Creating layer P5
I0628 11:24:38.588598 47750 net.cpp:106] Creating Layer P5
I0628 11:24:38.588601 47750 net.cpp:454] P5 <- pool5
I0628 11:24:38.588608 47750 net.cpp:411] P5 -> P5
I0628 11:24:38.591163 47750 net.cpp:150] Setting up P5
I0628 11:24:38.591187 47750 net.cpp:157] Top shape: 1 256 19 32 (155648)
I0628 11:24:38.591192 47750 net.cpp:165] Memory required for data: 1555594068
I0628 11:24:38.591199 47750 layer_factory.hpp:77] Creating layer upP5
I0628 11:24:38.591217 47750 net.cpp:106] Creating Layer upP5
I0628 11:24:38.591228 47750 net.cpp:454] upP5 <- P5
I0628 11:24:38.591236 47750 net.cpp:411] upP5 -> upP5
I0628 11:24:38.595932 47750 net.cpp:150] Setting up upP5
I0628 11:24:38.595957 47750 net.cpp:157] Top shape: 1 256 38 64 (622592)
I0628 11:24:38.595962 47750 net.cpp:165] Memory required for data: 1558084436
I0628 11:24:38.595968 47750 layer_factory.hpp:77] Creating layer newC4
I0628 11:24:38.595979 47750 net.cpp:106] Creating Layer newC4
I0628 11:24:38.595984 47750 net.cpp:454] newC4 <- conv5_3_relu5_3_0_split_1
I0628 11:24:38.595993 47750 net.cpp:411] newC4 -> newC4
I0628 11:24:38.598028 47750 net.cpp:150] Setting up newC4
I0628 11:24:38.598049 47750 net.cpp:157] Top shape: 1 256 38 63 (612864)
I0628 11:24:38.598053 47750 net.cpp:165] Memory required for data: 1560535892
I0628 11:24:38.598060 47750 layer_factory.hpp:77] Creating layer newC4_newC4_0_split
I0628 11:24:38.598067 47750 net.cpp:106] Creating Layer newC4_newC4_0_split
I0628 11:24:38.598073 47750 net.cpp:454] newC4_newC4_0_split <- newC4
I0628 11:24:38.598078 47750 net.cpp:411] newC4_newC4_0_split -> newC4_newC4_0_split_0
I0628 11:24:38.598085 47750 net.cpp:411] newC4_newC4_0_split -> newC4_newC4_0_split_1
I0628 11:24:38.598135 47750 net.cpp:150] Setting up newC4_newC4_0_split
I0628 11:24:38.598146 47750 net.cpp:157] Top shape: 1 256 38 63 (612864)
I0628 11:24:38.598150 47750 net.cpp:157] Top shape: 1 256 38 63 (612864)
I0628 11:24:38.598153 47750 net.cpp:165] Memory required for data: 1565438804
I0628 11:24:38.598156 47750 layer_factory.hpp:77] Creating layer upP5crop
I0628 11:24:38.598170 47750 net.cpp:106] Creating Layer upP5crop
I0628 11:24:38.598175 47750 net.cpp:454] upP5crop <- upP5
I0628 11:24:38.598178 47750 net.cpp:454] upP5crop <- newC4_newC4_0_split_0
I0628 11:24:38.598184 47750 net.cpp:411] upP5crop -> upP5crop
I0628 11:24:38.598282 47750 net.cpp:150] Setting up upP5crop
I0628 11:24:38.598294 47750 net.cpp:157] Top shape: 1 256 38 63 (612864)
I0628 11:24:38.598296 47750 net.cpp:165] Memory required for data: 1567890260
I0628 11:24:38.598299 47750 layer_factory.hpp:77] Creating layer P4
I0628 11:24:38.598309 47750 net.cpp:106] Creating Layer P4
I0628 11:24:38.598312 47750 net.cpp:454] P4 <- newC4_newC4_0_split_1
I0628 11:24:38.598316 47750 net.cpp:454] P4 <- upP5crop
I0628 11:24:38.598322 47750 net.cpp:411] P4 -> P4
I0628 11:24:38.598348 47750 net.cpp:150] Setting up P4
I0628 11:24:38.598358 47750 net.cpp:157] Top shape: 1 256 38 63 (612864)
I0628 11:24:38.598361 47750 net.cpp:165] Memory required for data: 1570341716
I0628 11:24:38.598364 47750 layer_factory.hpp:77] Creating layer upP4
I0628 11:24:38.598372 47750 net.cpp:106] Creating Layer upP4
I0628 11:24:38.598376 47750 net.cpp:454] upP4 <- P4
I0628 11:24:38.598381 47750 net.cpp:411] upP4 -> upP4
I0628 11:24:38.601071 47750 net.cpp:150] Setting up upP4
I0628 11:24:38.601094 47750 net.cpp:157] Top shape: 1 256 76 126 (2451456)
I0628 11:24:38.601099 47750 net.cpp:165] Memory required for data: 1580147540
I0628 11:24:38.601104 47750 layer_factory.hpp:77] Creating layer newC3
I0628 11:24:38.601114 47750 net.cpp:106] Creating Layer newC3
I0628 11:24:38.601119 47750 net.cpp:454] newC3 <- conv4_3_relu4_3_0_split_1
I0628 11:24:38.601125 47750 net.cpp:411] newC3 -> newC3
I0628 11:24:38.603691 47750 net.cpp:150] Setting up newC3
I0628 11:24:38.603713 47750 net.cpp:157] Top shape: 1 256 75 125 (2400000)
I0628 11:24:38.603718 47750 net.cpp:165] Memory required for data: 1589747540
I0628 11:24:38.603734 47750 layer_factory.hpp:77] Creating layer newC3_newC3_0_split
I0628 11:24:38.603744 47750 net.cpp:106] Creating Layer newC3_newC3_0_split
I0628 11:24:38.603749 47750 net.cpp:454] newC3_newC3_0_split <- newC3
I0628 11:24:38.603754 47750 net.cpp:411] newC3_newC3_0_split -> newC3_newC3_0_split_0
I0628 11:24:38.603761 47750 net.cpp:411] newC3_newC3_0_split -> newC3_newC3_0_split_1
I0628 11:24:38.603812 47750 net.cpp:150] Setting up newC3_newC3_0_split
I0628 11:24:38.603823 47750 net.cpp:157] Top shape: 1 256 75 125 (2400000)
I0628 11:24:38.603827 47750 net.cpp:157] Top shape: 1 256 75 125 (2400000)
I0628 11:24:38.603830 47750 net.cpp:165] Memory required for data: 1608947540
I0628 11:24:38.603833 47750 layer_factory.hpp:77] Creating layer upP4crop
I0628 11:24:38.603840 47750 net.cpp:106] Creating Layer upP4crop
I0628 11:24:38.603843 47750 net.cpp:454] upP4crop <- upP4
I0628 11:24:38.603848 47750 net.cpp:454] upP4crop <- newC3_newC3_0_split_0
I0628 11:24:38.603853 47750 net.cpp:411] upP4crop -> upP4crop
I0628 11:24:38.603947 47750 net.cpp:150] Setting up upP4crop
I0628 11:24:38.603957 47750 net.cpp:157] Top shape: 1 256 75 125 (2400000)
I0628 11:24:38.603960 47750 net.cpp:165] Memory required for data: 1618547540
I0628 11:24:38.603965 47750 layer_factory.hpp:77] Creating layer P3
I0628 11:24:38.603971 47750 net.cpp:106] Creating Layer P3
I0628 11:24:38.603973 47750 net.cpp:454] P3 <- newC3_newC3_0_split_1
I0628 11:24:38.603978 47750 net.cpp:454] P3 <- upP4crop
I0628 11:24:38.603984 47750 net.cpp:411] P3 -> P3
I0628 11:24:38.604008 47750 net.cpp:150] Setting up P3
I0628 11:24:38.604017 47750 net.cpp:157] Top shape: 1 256 75 125 (2400000)
I0628 11:24:38.604020 47750 net.cpp:165] Memory required for data: 1628147540
I0628 11:24:38.604023 47750 layer_factory.hpp:77] Creating layer upP3
I0628 11:24:38.604032 47750 net.cpp:106] Creating Layer upP3
I0628 11:24:38.604034 47750 net.cpp:454] upP3 <- P3
I0628 11:24:38.604041 47750 net.cpp:411] upP3 -> upP3
I0628 11:24:38.606673 47750 net.cpp:150] Setting up upP3
I0628 11:24:38.606694 47750 net.cpp:157] Top shape: 1 256 150 250 (9600000)
I0628 11:24:38.606698 47750 net.cpp:165] Memory required for data: 1666547540
I0628 11:24:38.606703 47750 layer_factory.hpp:77] Creating layer upP3crop
I0628 11:24:38.606710 47750 net.cpp:106] Creating Layer upP3crop
I0628 11:24:38.606714 47750 net.cpp:454] upP3crop <- upP3
I0628 11:24:38.606719 47750 net.cpp:454] upP3crop <- conv3_3_relu3_3_0_split_1
I0628 11:24:38.606725 47750 net.cpp:411] upP3crop -> upP3crop
I0628 11:24:38.606856 47750 net.cpp:150] Setting up upP3crop
I0628 11:24:38.606868 47750 net.cpp:157] Top shape: 1 256 150 250 (9600000)
I0628 11:24:38.606873 47750 net.cpp:165] Memory required for data: 1704947540
I0628 11:24:38.606875 47750 layer_factory.hpp:77] Creating layer P2
I0628 11:24:38.606881 47750 net.cpp:106] Creating Layer P2
I0628 11:24:38.606885 47750 net.cpp:454] P2 <- conv3_3_relu3_3_0_split_2
I0628 11:24:38.606890 47750 net.cpp:454] P2 <- upP3crop
I0628 11:24:38.606895 47750 net.cpp:411] P2 -> P2
I0628 11:24:38.606920 47750 net.cpp:150] Setting up P2
I0628 11:24:38.606930 47750 net.cpp:157] Top shape: 1 256 150 250 (9600000)
I0628 11:24:38.606933 47750 net.cpp:165] Memory required for data: 1743347540
I0628 11:24:38.606936 47750 layer_factory.hpp:77] Creating layer newP2
I0628 11:24:38.606945 47750 net.cpp:106] Creating Layer newP2
I0628 11:24:38.606950 47750 net.cpp:454] newP2 <- P2
I0628 11:24:38.606954 47750 net.cpp:411] newP2 -> newP2
I0628 11:24:38.610646 47750 net.cpp:150] Setting up newP2
I0628 11:24:38.610668 47750 net.cpp:157] Top shape: 1 256 150 250 (9600000)
I0628 11:24:38.610673 47750 net.cpp:165] Memory required for data: 1781747540
I0628 11:24:38.610680 47750 layer_factory.hpp:77] Creating layer newP2_newP2_0_split
I0628 11:24:38.610687 47750 net.cpp:106] Creating Layer newP2_newP2_0_split
I0628 11:24:38.610699 47750 net.cpp:454] newP2_newP2_0_split <- newP2
I0628 11:24:38.610705 47750 net.cpp:411] newP2_newP2_0_split -> newP2_newP2_0_split_0
I0628 11:24:38.610713 47750 net.cpp:411] newP2_newP2_0_split -> newP2_newP2_0_split_1
I0628 11:24:38.610765 47750 net.cpp:150] Setting up newP2_newP2_0_split
I0628 11:24:38.610803 47750 net.cpp:157] Top shape: 1 256 150 250 (9600000)
I0628 11:24:38.610816 47750 net.cpp:157] Top shape: 1 256 150 250 (9600000)
I0628 11:24:38.610818 47750 net.cpp:165] Memory required for data: 1858547540
I0628 11:24:38.610822 47750 layer_factory.hpp:77] Creating layer rpn_conv/3x3
I0628 11:24:38.610833 47750 net.cpp:106] Creating Layer rpn_conv/3x3
I0628 11:24:38.610841 47750 net.cpp:454] rpn_conv/3x3 <- newP2_newP2_0_split_0
I0628 11:24:38.610848 47750 net.cpp:411] rpn_conv/3x3 -> rpn/output
I0628 11:24:38.643259 47750 net.cpp:150] Setting up rpn_conv/3x3
I0628 11:24:38.643282 47750 net.cpp:157] Top shape: 1 512 150 250 (19200000)
I0628 11:24:38.643287 47750 net.cpp:165] Memory required for data: 1935347540
I0628 11:24:38.643296 47750 layer_factory.hpp:77] Creating layer rpn_relu/3x3
I0628 11:24:38.643302 47750 net.cpp:106] Creating Layer rpn_relu/3x3
I0628 11:24:38.643307 47750 net.cpp:454] rpn_relu/3x3 <- rpn/output
I0628 11:24:38.643312 47750 net.cpp:397] rpn_relu/3x3 -> rpn/output (in-place)
I0628 11:24:38.643514 47750 net.cpp:150] Setting up rpn_relu/3x3
I0628 11:24:38.643530 47750 net.cpp:157] Top shape: 1 512 150 250 (19200000)
I0628 11:24:38.643533 47750 net.cpp:165] Memory required for data: 2012147540
I0628 11:24:38.643537 47750 layer_factory.hpp:77] Creating layer rpn/output_rpn_relu/3x3_0_split
I0628 11:24:38.643544 47750 net.cpp:106] Creating Layer rpn/output_rpn_relu/3x3_0_split
I0628 11:24:38.643548 47750 net.cpp:454] rpn/output_rpn_relu/3x3_0_split <- rpn/output
I0628 11:24:38.643554 47750 net.cpp:411] rpn/output_rpn_relu/3x3_0_split -> rpn/output_rpn_relu/3x3_0_split_0
I0628 11:24:38.643560 47750 net.cpp:411] rpn/output_rpn_relu/3x3_0_split -> rpn/output_rpn_relu/3x3_0_split_1
I0628 11:24:38.643615 47750 net.cpp:150] Setting up rpn/output_rpn_relu/3x3_0_split
I0628 11:24:38.643625 47750 net.cpp:157] Top shape: 1 512 150 250 (19200000)
I0628 11:24:38.643630 47750 net.cpp:157] Top shape: 1 512 150 250 (19200000)
I0628 11:24:38.643632 47750 net.cpp:165] Memory required for data: 2165747540
I0628 11:24:38.643635 47750 layer_factory.hpp:77] Creating layer rpn_cls_score
I0628 11:24:38.643646 47750 net.cpp:106] Creating Layer rpn_cls_score
I0628 11:24:38.643651 47750 net.cpp:454] rpn_cls_score <- rpn/output_rpn_relu/3x3_0_split_0
I0628 11:24:38.643657 47750 net.cpp:411] rpn_cls_score -> rpn_cls_score
I0628 11:24:38.646337 47750 net.cpp:150] Setting up rpn_cls_score
I0628 11:24:38.646358 47750 net.cpp:157] Top shape: 1 18 150 250 (675000)
I0628 11:24:38.646361 47750 net.cpp:165] Memory required for data: 2168447540
I0628 11:24:38.646369 47750 layer_factory.hpp:77] Creating layer rpn_cls_score_rpn_cls_score_0_split
I0628 11:24:38.646375 47750 net.cpp:106] Creating Layer rpn_cls_score_rpn_cls_score_0_split
I0628 11:24:38.646380 47750 net.cpp:454] rpn_cls_score_rpn_cls_score_0_split <- rpn_cls_score
I0628 11:24:38.646386 47750 net.cpp:411] rpn_cls_score_rpn_cls_score_0_split -> rpn_cls_score_rpn_cls_score_0_split_0
I0628 11:24:38.646400 47750 net.cpp:411] rpn_cls_score_rpn_cls_score_0_split -> rpn_cls_score_rpn_cls_score_0_split_1
I0628 11:24:38.646448 47750 net.cpp:150] Setting up rpn_cls_score_rpn_cls_score_0_split
I0628 11:24:38.646459 47750 net.cpp:157] Top shape: 1 18 150 250 (675000)
I0628 11:24:38.646463 47750 net.cpp:157] Top shape: 1 18 150 250 (675000)
I0628 11:24:38.646466 47750 net.cpp:165] Memory required for data: 2173847540
I0628 11:24:38.646469 47750 layer_factory.hpp:77] Creating layer rpn_bbox_pred
I0628 11:24:38.646479 47750 net.cpp:106] Creating Layer rpn_bbox_pred
I0628 11:24:38.646483 47750 net.cpp:454] rpn_bbox_pred <- rpn/output_rpn_relu/3x3_0_split_1
I0628 11:24:38.646492 47750 net.cpp:411] rpn_bbox_pred -> rpn_bbox_pred
I0628 11:24:38.649966 47750 net.cpp:150] Setting up rpn_bbox_pred
I0628 11:24:38.649987 47750 net.cpp:157] Top shape: 1 36 150 250 (1350000)
I0628 11:24:38.649992 47750 net.cpp:165] Memory required for data: 2179247540
I0628 11:24:38.650001 47750 layer_factory.hpp:77] Creating layer rpn_bbox_pred_rpn_bbox_pred_0_split
I0628 11:24:38.650007 47750 net.cpp:106] Creating Layer rpn_bbox_pred_rpn_bbox_pred_0_split
I0628 11:24:38.650012 47750 net.cpp:454] rpn_bbox_pred_rpn_bbox_pred_0_split <- rpn_bbox_pred
I0628 11:24:38.650017 47750 net.cpp:411] rpn_bbox_pred_rpn_bbox_pred_0_split -> rpn_bbox_pred_rpn_bbox_pred_0_split_0
I0628 11:24:38.650030 47750 net.cpp:411] rpn_bbox_pred_rpn_bbox_pred_0_split -> rpn_bbox_pred_rpn_bbox_pred_0_split_1
I0628 11:24:38.650079 47750 net.cpp:150] Setting up rpn_bbox_pred_rpn_bbox_pred_0_split
I0628 11:24:38.650091 47750 net.cpp:157] Top shape: 1 36 150 250 (1350000)
I0628 11:24:38.650095 47750 net.cpp:157] Top shape: 1 36 150 250 (1350000)
I0628 11:24:38.650099 47750 net.cpp:165] Memory required for data: 2190047540
I0628 11:24:38.650101 47750 layer_factory.hpp:77] Creating layer rpn_cls_score_reshape
I0628 11:24:38.650113 47750 net.cpp:106] Creating Layer rpn_cls_score_reshape
I0628 11:24:38.650117 47750 net.cpp:454] rpn_cls_score_reshape <- rpn_cls_score_rpn_cls_score_0_split_0
I0628 11:24:38.650122 47750 net.cpp:411] rpn_cls_score_reshape -> rpn_cls_score_reshape
I0628 11:24:38.650156 47750 net.cpp:150] Setting up rpn_cls_score_reshape
I0628 11:24:38.650167 47750 net.cpp:157] Top shape: 1 2 1350 250 (675000)
I0628 11:24:38.650171 47750 net.cpp:165] Memory required for data: 2192747540
I0628 11:24:38.650173 47750 layer_factory.hpp:77] Creating layer rpn_cls_score_reshape_rpn_cls_score_reshape_0_split
I0628 11:24:38.650179 47750 net.cpp:106] Creating Layer rpn_cls_score_reshape_rpn_cls_score_reshape_0_split
I0628 11:24:38.650182 47750 net.cpp:454] rpn_cls_score_reshape_rpn_cls_score_reshape_0_split <- rpn_cls_score_reshape
I0628 11:24:38.650188 47750 net.cpp:411] rpn_cls_score_reshape_rpn_cls_score_reshape_0_split -> rpn_cls_score_reshape_rpn_cls_score_reshape_0_split_0
I0628 11:24:38.650194 47750 net.cpp:411] rpn_cls_score_reshape_rpn_cls_score_reshape_0_split -> rpn_cls_score_reshape_rpn_cls_score_reshape_0_split_1
I0628 11:24:38.650238 47750 net.cpp:150] Setting up rpn_cls_score_reshape_rpn_cls_score_reshape_0_split
I0628 11:24:38.650248 47750 net.cpp:157] Top shape: 1 2 1350 250 (675000)
I0628 11:24:38.650252 47750 net.cpp:157] Top shape: 1 2 1350 250 (675000)
I0628 11:24:38.650255 47750 net.cpp:165] Memory required for data: 2198147540
I0628 11:24:38.650259 47750 layer_factory.hpp:77] Creating layer rpn-data
I0628 11:24:38.651043 47750 net.cpp:106] Creating Layer rpn-data
I0628 11:24:38.651064 47750 net.cpp:454] rpn-data <- rpn_cls_score_rpn_cls_score_0_split_1
I0628 11:24:38.651072 47750 net.cpp:454] rpn-data <- gt_boxes_input-data_2_split_0
I0628 11:24:38.651077 47750 net.cpp:454] rpn-data <- im_info_input-data_1_split_0
I0628 11:24:38.651080 47750 net.cpp:454] rpn-data <- data_input-data_0_split_1
I0628 11:24:38.651085 47750 net.cpp:411] rpn-data -> rpn_labels
I0628 11:24:38.651093 47750 net.cpp:411] rpn-data -> rpn_bbox_targets
I0628 11:24:38.651106 47750 net.cpp:411] rpn-data -> rpn_bbox_inside_weights
I0628 11:24:38.651113 47750 net.cpp:411] rpn-data -> rpn_bbox_outside_weights
I0628 11:24:38.653509 47750 net.cpp:150] Setting up rpn-data
I0628 11:24:38.653534 47750 net.cpp:157] Top shape: 1 1 1350 250 (337500)
I0628 11:24:38.653540 47750 net.cpp:157] Top shape: 1 36 150 250 (1350000)
I0628 11:24:38.653544 47750 net.cpp:157] Top shape: 1 36 150 250 (1350000)
I0628 11:24:38.653548 47750 net.cpp:157] Top shape: 1 36 150 250 (1350000)
I0628 11:24:38.653550 47750 net.cpp:165] Memory required for data: 2215697540
I0628 11:24:38.653554 47750 layer_factory.hpp:77] Creating layer rpn_loss_cls
I0628 11:24:38.653575 47750 net.cpp:106] Creating Layer rpn_loss_cls
I0628 11:24:38.653590 47750 net.cpp:454] rpn_loss_cls <- rpn_cls_score_reshape_rpn_cls_score_reshape_0_split_0
I0628 11:24:38.653596 47750 net.cpp:454] rpn_loss_cls <- rpn_labels
…
I0628 11:24:38.665207 47750 net.cpp:157] Top shape: (1)
I0628 11:24:38.665212 47750 net.cpp:160]     with loss weight 1
I0628 11:24:38.665220 47750 net.cpp:165] Memory required for data: 2215697548
I0628 11:24:38.665225 47750 layer_factory.hpp:77] Creating layer rpn_cls_prob
I0628 11:24:38.665231 47750 net.cpp:106] Creating Layer rpn_cls_prob
I0628 11:24:38.665236 47750 net.cpp:454] rpn_cls_prob <- rpn_cls_score_reshape_rpn_cls_score_reshape_0_split_1
I0628 11:24:38.665242 47750 net.cpp:411] rpn_cls_prob -> rpn_cls_prob
I0628 11:24:38.666077 47750 net.cpp:150] Setting up rpn_cls_prob
I0628 11:24:38.666097 47750 net.cpp:157] Top shape: 1 2 1350 250 (675000)
I0628 11:24:38.666101 47750 net.cpp:165] Memory required for data: 2218397548
I0628 11:24:38.666105 47750 layer_factory.hpp:77] Creating layer rpn_cls_prob_reshape
I0628 11:24:38.666115 47750 net.cpp:106] Creating Layer rpn_cls_prob_reshape
I0628 11:24:38.666118 47750 net.cpp:454] rpn_cls_prob_reshape <- rpn_cls_prob
I0628 11:24:38.666126 47750 net.cpp:411] rpn_cls_prob_reshape -> rpn_cls_prob_reshape
I0628 11:24:38.666164 47750 net.cpp:150] Setting up rpn_cls_prob_reshape
I0628 11:24:38.666175 47750 net.cpp:157] Top shape: 1 18 150 250 (675000)
I0628 11:24:38.666179 47750 net.cpp:165] Memory required for data: 2221097548
I0628 11:24:38.666182 47750 layer_factory.hpp:77] Creating layer proposal
I0628 11:24:38.667059 47750 net.cpp:106] Creating Layer proposal
I0628 11:24:38.667081 47750 net.cpp:454] proposal <- rpn_cls_prob_reshape
I0628 11:24:38.667088 47750 net.cpp:454] proposal <- rpn_bbox_pred_rpn_bbox_pred_0_split_1
I0628 11:24:38.667093 47750 net.cpp:454] proposal <- im_info_input-data_1_split_1
I0628 11:24:38.667098 47750 net.cpp:411] proposal -> rpn_rois
I0628 11:24:38.667876 47750 net.cpp:150] Setting up proposal
I0628 11:24:38.667898 47750 net.cpp:157] Top shape: 1 5 (5)
I0628 11:24:38.667903 47750 net.cpp:165] Memory required for data: 2221097568
I0628 11:24:38.667907 47750 layer_factory.hpp:77] Creating layer roi-data
I0628 11:24:38.668081 47750 net.cpp:106] Creating Layer roi-data
I0628 11:24:38.668098 47750 net.cpp:454] roi-data <- rpn_rois
I0628 11:24:38.668105 47750 net.cpp:454] roi-data <- gt_boxes_input-data_2_split_1
I0628 11:24:38.668112 47750 net.cpp:411] roi-data -> rois
I0628 11:24:38.668118 47750 net.cpp:411] roi-data -> labels
I0628 11:24:38.668124 47750 net.cpp:411] roi-data -> bbox_targets
I0628 11:24:38.668138 47750 net.cpp:411] roi-data -> bbox_inside_weights
I0628 11:24:38.668143 47750 net.cpp:411] roi-data -> bbox_outside_weights
I0628 11:24:38.668529 47750 net.cpp:150] Setting up roi-data
I0628 11:24:38.668548 47750 net.cpp:157] Top shape: 1 5 (5)
I0628 11:24:38.668553 47750 net.cpp:157] Top shape: 1 1 (1)
I0628 11:24:38.668556 47750 net.cpp:157] Top shape: 1 84 (84)
I0628 11:24:38.668560 47750 net.cpp:157] Top shape: 1 84 (84)
I0628 11:24:38.668563 47750 net.cpp:157] Top shape: 1 84 (84)
I0628 11:24:38.668566 47750 net.cpp:165] Memory required for data: 2221098600
I0628 11:24:38.668570 47750 layer_factory.hpp:77] Creating layer roi_pool5
I0628 11:24:38.668581 47750 net.cpp:106] Creating Layer roi_pool5
I0628 11:24:38.668592 47750 net.cpp:454] roi_pool5 <- newP2_newP2_0_split_1
I0628 11:24:38.668597 47750 net.cpp:454] roi_pool5 <- rois
I0628 11:24:38.668602 47750 net.cpp:411] roi_pool5 -> rcnn_pool5
I0628 11:24:38.668612 47750 roi_pooling_layer.cpp:30] Spatial scale: 0.25
I0628 11:24:38.668664 47750 net.cpp:150] Setting up roi_pool5
I0628 11:24:38.668675 47750 net.cpp:157] Top shape: 1 256 7 7 (12544)
I0628 11:24:38.668678 47750 net.cpp:165] Memory required for data: 2221148776
I0628 11:24:38.668681 47750 layer_factory.hpp:77] Creating layer rcnn_fc6
I0628 11:24:38.668691 47750 net.cpp:106] Creating Layer rcnn_fc6
I0628 11:24:38.668695 47750 net.cpp:454] rcnn_fc6 <- rcnn_pool5
I0628 11:24:38.668701 47750 net.cpp:411] rcnn_fc6 -> rcnn_fc6
I0628 11:24:39.008500 47750 net.cpp:150] Setting up rcnn_fc6
I0628 11:24:39.008556 47750 net.cpp:157] Top shape: 1 4096 (4096)
I0628 11:24:39.008563 47750 net.cpp:165] Memory required for data: 2221165160
I0628 11:24:39.008574 47750 layer_factory.hpp:77] Creating layer relu6
I0628 11:24:39.008584 47750 net.cpp:106] Creating Layer relu6
I0628 11:24:39.008589 47750 net.cpp:454] relu6 <- rcnn_fc6
I0628 11:24:39.008596 47750 net.cpp:397] relu6 -> rcnn_fc6 (in-place)
I0628 11:24:39.009593 47750 net.cpp:150] Setting up relu6
I0628 11:24:39.009614 47750 net.cpp:157] Top shape: 1 4096 (4096)
I0628 11:24:39.009618 47750 net.cpp:165] Memory required for data: 2221181544
I0628 11:24:39.009623 47750 layer_factory.hpp:77] Creating layer drop6
I0628 11:24:39.009636 47750 net.cpp:106] Creating Layer drop6
I0628 11:24:39.009673 47750 net.cpp:454] drop6 <- rcnn_fc6
I0628 11:24:39.009693 47750 net.cpp:397] drop6 -> rcnn_fc6 (in-place)
I0628 11:24:39.009752 47750 net.cpp:150] Setting up drop6
I0628 11:24:39.009768 47750 net.cpp:157] Top shape: 1 4096 (4096)
I0628 11:24:39.009773 47750 net.cpp:165] Memory required for data: 2221197928
I0628 11:24:39.009775 47750 layer_factory.hpp:77] Creating layer fc7
I0628 11:24:39.009784 47750 net.cpp:106] Creating Layer fc7
I0628 11:24:39.009789 47750 net.cpp:454] fc7 <- rcnn_fc6
I0628 11:24:39.009798 47750 net.cpp:411] fc7 -> fc7
I0628 11:24:39.122150 47750 net.cpp:150] Setting up fc7
I0628 11:24:39.122202 47750 net.cpp:157] Top shape: 1 4096 (4096)
I0628 11:24:39.122207 47750 net.cpp:165] Memory required for data: 2221214312
I0628 11:24:39.122218 47750 layer_factory.hpp:77] Creating layer relu7
I0628 11:24:39.122229 47750 net.cpp:106] Creating Layer relu7
I0628 11:24:39.122236 47750 net.cpp:454] relu7 <- fc7
I0628 11:24:39.122242 47750 net.cpp:397] relu7 -> fc7 (in-place)
I0628 11:24:39.122511 47750 net.cpp:150] Setting up relu7
I0628 11:24:39.122529 47750 net.cpp:157] Top shape: 1 4096 (4096)
I0628 11:24:39.122532 47750 net.cpp:165] Memory required for data: 2221230696
I0628 11:24:39.122535 47750 layer_factory.hpp:77] Creating layer drop7
I0628 11:24:39.122544 47750 net.cpp:106] Creating Layer drop7
I0628 11:24:39.122550 47750 net.cpp:454] drop7 <- fc7
I0628 11:24:39.122555 47750 net.cpp:397] drop7 -> fc7 (in-place)
I0628 11:24:39.122588 47750 net.cpp:150] Setting up drop7
I0628 11:24:39.122594 47750 net.cpp:157] Top shape: 1 4096 (4096)
I0628 11:24:39.122597 47750 net.cpp:165] Memory required for data: 2221247080
I0628 11:24:39.122601 47750 layer_factory.hpp:77] Creating layer fc7_drop7_0_split
I0628 11:24:39.122608 47750 net.cpp:106] Creating Layer fc7_drop7_0_split
I0628 11:24:39.122611 47750 net.cpp:454] fc7_drop7_0_split <- fc7
I0628 11:24:39.122617 47750 net.cpp:411] fc7_drop7_0_split -> fc7_drop7_0_split_0
I0628 11:24:39.122623 47750 net.cpp:411] fc7_drop7_0_split -> fc7_drop7_0_split_1
I0628 11:24:39.122669 47750 net.cpp:150] Setting up fc7_drop7_0_split
I0628 11:24:39.122675 47750 net.cpp:157] Top shape: 1 4096 (4096)
I0628 11:24:39.122678 47750 net.cpp:157] Top shape: 1 4096 (4096)
I0628 11:24:39.122681 47750 net.cpp:165] Memory required for data: 2221279848
I0628 11:24:39.122684 47750 layer_factory.hpp:77] Creating layer cls_score
I0628 11:24:39.122692 47750 net.cpp:106] Creating Layer cls_score
I0628 11:24:39.122699 47750 net.cpp:454] cls_score <- fc7_drop7_0_split_0
I0628 11:24:39.122704 47750 net.cpp:411] cls_score -> cls_score
I0628 11:24:39.124914 47750 net.cpp:150] Setting up cls_score
I0628 11:24:39.124932 47750 net.cpp:157] Top shape: 1 21 (21)
I0628 11:24:39.124934 47750 net.cpp:165] Memory required for data: 2221279932
I0628 11:24:39.124941 47750 layer_factory.hpp:77] Creating layer bbox_pred
I0628 11:24:39.124949 47750 net.cpp:106] Creating Layer bbox_pred
I0628 11:24:39.124955 47750 net.cpp:454] bbox_pred <- fc7_drop7_0_split_1
I0628 11:24:39.124961 47750 net.cpp:411] bbox_pred -> bbox_pred
I0628 11:24:39.134027 47750 net.cpp:150] Setting up bbox_pred
I0628 11:24:39.134048 47750 net.cpp:157] Top shape: 1 84 (84)
I0628 11:24:39.134053 47750 net.cpp:165] Memory required for data: 2221280268
I0628 11:24:39.134059 47750 layer_factory.hpp:77] Creating layer loss_cls
I0628 11:24:39.134069 47750 net.cpp:106] Creating Layer loss_cls
I0628 11:24:39.134073 47750 net.cpp:454] loss_cls <- cls_score
I0628 11:24:39.134079 47750 net.cpp:454] loss_cls <- labels
I0628 11:24:39.134084 47750 net.cpp:411] loss_cls -> loss_cls
…
