…
stepsize: 50000
snapshot: 0
snapshot_prefix: "fpn"
average_loss: 100
iter_size: 2
I0629 21:42:26.317831 57087 solver.cpp:81] Creating training net from train_net file: models/pascal_voc/VGG16/FP_Net_end2end/train.prototxt
I0629 21:42:26.319304 57087 net.cpp:49] Initializing net from parameters: 
name: "VGG_ILSVRC_16_layers"
state {
  phase: TRAIN
}
layer {
  name: "input-data"
  type: "Python"
  top: "data"
  top: "im_info"
  top: "gt_boxes"
  python_param {
    module: "roi_data_layer.layer"
    layer: "RoIDataLayer"
    param_str: "\'num_classes\': 21"
  }
}
layer {
  name: "conv1_1"
  type: "Convolution"
  bottom: "data"
  top: "conv1_1"
  param {
    lr_mult: 0
    decay_mult: 0
  }
  param {
    lr_mult: 0
    decay_mult: 0
  }
  convolution_param {
    num_output: 64
    pad: 1
    kernel_size: 3
  }
}
layer {
  name: "relu1_1"
  type: "ReLU"
  bottom: "conv1_1"
  top: "conv1_1"
}
layer {
  name: "conv1_2"
  type: "Convolution"
  bottom: "conv1_1"
  top: "conv1_2"
  param {
    lr_mult: 0
    decay_mult: 0
  }
  param {
    lr_mult: 0
    decay_mult: 0
  }
  convolution_param {
    num_output: 64
    pad: 1
    kernel_size: 3
  }
}
layer {
  name: "relu1_2"
  type: "ReLU"
  bottom: "conv1_2"
  top: "conv1_2"
}
layer {
  name: "pool1"
  type: "Pooling"
  bottom: "conv1_2"
  top: "pool1"
  pooling_param {
    pool: MAX
    kernel_size: 2
    stride: 2
  }
}
layer {
  name: "conv2_1"
  type: "Convolution"
  bottom: "pool1"
  top: "conv2_1"
  param {
    lr_mult: 0
    decay_mult: 0
  }
  param {
    lr_mult: 0
    decay_mult: 0
  }
  convolution_param {
    num_output: 128
    pad: 1
    kernel_size: 3
  }
}
layer {
  name: "relu2_1"
  type: "ReLU"
  bottom: "conv2_1"
  top: "conv2_1"
}
layer {
  name: "conv2_2"
  type: "Convolution"
  bottom: "conv2_1"
  top: "conv2_2"
  param {
    lr_mult: 0
    decay_mult: 0
  }
  param {
    lr_mult: 0
    decay_mult: 0
  }
  convolution_param {
    num_output: 128
    pad: 1
    kernel_size: 3
  }
}
layer {
  name: "relu2_2"
  type: "ReLU"
  bottom: "conv2_2"
  top: "conv2_2"
}
layer {
  name: "pool2"
  type: "Pooling"
  bottom: "conv2_2"
  top: "pool2"
  pooling_param {
    pool: MAX
    kernel_size: 2
    stride: 2
  }
}
layer {
  name: "conv3_1"
  type: "Convolution"
  bottom: "pool2"
  top: "conv3_1"
  param {
    lr_mult: 1
  }
  param {
    lr_mult: 2
  }
  convolution_param {
    num_output: 256
    pad: 1
    kernel_size: 3
  }
}
layer {
  name: "relu3_1"
  type: "ReLU"
  bottom: "conv3_1"
  top: "conv3_1"
}
layer {
  name: "conv3_2"
  type: "Convolution"
  bottom: "conv3_1"
  top: "conv3_2"
  param {
    lr_mult: 1
  }
  param {
    lr_mult: 2
  }
  convolution_param {
    num_output: 256
    pad: 1
    kernel_size: 3
  }
}
layer {
  name: "relu3_2"
  type: "ReLU"
  bottom: "conv3_2"
  top: "conv3_2"
}
layer {
  name: "conv3_3"
  type: "Convolution"
  bottom: "conv3_2"
  top: "conv3_3"
  param {
    lr_mult: 1
  }
  param {
    lr_mult: 2
  }
  convolution_param {
    num_output: 256
    pad: 1
    kernel_size: 3
  }
}
layer {
  name: "relu3_3"
  type: "ReLU"
  bottom: "conv3_3"
  top: "conv3_3"
}
layer {
  name: "pool3"
  type: "Pooling"
  bottom: "conv3_3"
  top: "pool3"
  pooling_param {
    pool: MAX
    kernel_size: 2
    stride: 2
  }
}
layer {
  name: "conv4_1"
  type: "Convolution"
  bottom: "pool3"
  top: "conv4_1"
  param {
    lr_mult: 1
  }
  param {
    lr_mult: 2
  }
  convolution_param {
    num_output: 512
    pad: 1
    kernel_size: 3
  }
}
layer {
  name: "relu4_1"
  type: "ReLU"
  bottom: "conv4_1"
  top: "conv4_1"
}
layer {
  name: "conv4_2"
  type: "Convolution"
  bottom: "conv4_1"
  top: "conv4_2"
  param {
    lr_mult: 1
  }
  param {
    lr_mult: 2
  }
  convolution_param {
    num_output: 512
    pad: 1
    kernel_size: 3
  }
}
layer {
  name: "relu4_2"
  type: "ReLU"
  bottom: "conv4_2"
  top: "conv4_2"
}
layer {
  name: "conv4_3"
  type: "Convolution"
  bottom: "conv4_2"
  top: "conv4_3"
  param {
    lr_mult: 1
  }
  param {
    lr_mult: 2
  }
  convolution_param {
    num_output: 512
    pad: 1
    kernel_size: 3
  }
}
layer {
  name: "relu4_3"
  type: "ReLU"
  bottom: "conv4_3"
  top: "conv4_3"
}
layer {
  name: "pool4"
  type: "Pooling"
  bottom: "conv4_3"
  top: "pool4"
  pooling_param {
    pool: MAX
    kernel_size: 2
    stride: 2
  }
}
layer {
  name: "conv5_1"
  type: "Convolution"
  bottom: "pool4"
  top: "conv5_1"
  param {
    lr_mult: 1
  }
  param {
    lr_mult: 2
  }
  convolution_param {
    num_output: 512
    pad: 1
    kernel_size: 3
  }
}
layer {
  name: "relu5_1"
  type: "ReLU"
  bottom: "conv5_1"
  top: "conv5_1"
}
layer {
  name: "conv5_2"
  type: "Convolution"
  bottom: "conv5_1"
  top: "conv5_2"
  param {
    lr_mult: 1
  }
  param {
    lr_mult: 2
  }
  convolution_param {
    num_output: 512
    pad: 1
    kernel_size: 3
  }
}
layer {
  name: "relu5_2"
  type: "ReLU"
  bottom: "conv5_2"
  top: "conv5_2"
}
layer {
  name: "conv5_3"
  type: "Convolution"
  bottom: "conv5_2"
  top: "conv5_3"
  param {
    lr_mult: 1
  }
  param {
    lr_mult: 2
  }
  convolution_param {
    num_output: 512
    pad: 1
    kernel_size: 3
  }
}
layer {
  name: "relu5_3"
  type: "ReLU"
  bottom: "conv5_3"
  top: "conv5_3"
}
layer {
  name: "newC4"
  type: "Convolution"
  bottom: "conv5_3"
  top: "newC4"
  param {
    lr_mult: 1
  }
  param {
    lr_mult: 2
  }
  convolution_param {
    num_output: 256
    kernel_size: 1
    weight_filler {
      type: "xavier"
    }
    bias_filler {
      type: "constant"
    }
  }
}
layer {
  name: "upP4_new"
  type: "Deconvolution"
  bottom: "newC4"
  top: "upP4"
  param {
    lr_mult: 0
    decay_mult: 0
  }
  convolution_param {
    num_output: 256
    bias_term: false
    group: 256
    weight_filler {
      type: "bilinear"
    }
    pad_h: 1
    pad_w: 1
    kernel_h: 4
    kernel_w: 4
    stride_h: 2
    stride_w: 2
  }
}
layer {
  name: "newC3"
  type: "Convolution"
  bottom: "conv4_3"
  top: "newC3"
  param {
    lr_mult: 1
  }
  param {
    lr_mult: 2
  }
  convolution_param {
    num_output: 256
    kernel_size: 1
    weight_filler {
      type: "xavier"
    }
    bias_filler {
      type: "constant"
    }
  }
}
layer {
  name: "upP4crop"
  type: "Crop"
  bottom: "upP4"
  bottom: "newC3"
  top: "upP4crop"
  crop_param {
    axis: 2
    offset: 0
  }
}
layer {
  name: "P3"
  type: "Eltwise"
  bottom: "newC3"
  bottom: "upP4crop"
  top: "P3"
  eltwise_param {
    operation: SUM
  }
}
layer {
  name: "newP3"
  type: "Convolution"
  bottom: "P3"
  top: "newP3"
  param {
    lr_mult: 1
  }
  param {
    lr_mult: 2
  }
  convolution_param {
    num_output: 256
    pad: 1
    kernel_size: 3
    weight_filler {
      type: "xavier"
    }
    bias_filler {
      type: "constant"
    }
  }
}
layer {
  name: "rpn_conv/3x3"
  type: "Convolution"
  bottom: "newP3"
  top: "rpn/output"
  param {
    lr_mult: 1
  }
  param {
    lr_mult: 2
  }
  convolution_param {
    num_output: 512
    pad: 1
    kernel_size: 3
    stride: 1
    weight_filler {
      type: "gaussian"
      std: 0.01
    }
    bias_filler {
      type: "constant"
      value: 0
    }
  }
}
layer {
  name: "rpn_relu/3x3"
  type: "ReLU"
  bottom: "rpn/output"
  top: "rpn/output"
}
layer {
  name: "rpn_cls_score"
  type: "Convolution"
  bottom: "rpn/output"
  top: "rpn_cls_score"
  param {
    lr_mult: 1
  }
  param {
    lr_mult: 2
  }
  convolution_param {
    num_output: 18
    pad: 0
    kernel_size: 1
    stride: 1
    weight_filler {
      type: "gaussian"
      std: 0.01
    }
    bias_filler {
      type: "constant"
      value: 0
    }
  }
}
layer {
  name: "rpn_bbox_pred"
  type: "Convolution"
  bottom: "rpn/output"
  top: "rpn_bbox_pred"
  param {
    lr_mult: 1
  }
  param {
    lr_mult: 2
  }
  convolution_param {
    num_output: 36
    pad: 0
    kernel_size: 1
    stride: 1
    weight_filler {
      type: "gaussian"
      std: 0.01
    }
    bias_filler {
      type: "constant"
      value: 0
    }
  }
}
layer {
  name: "rpn_cls_score_reshape"
  type: "Reshape"
  bottom: "rpn_cls_score"
  top: "rpn_cls_score_reshape"
  reshape_param {
    shape {
      dim: 0
      dim: 2
      dim: -1
      dim: 0
    }
  }
}
layer {
  name: "rpn-data"
  type: "Python"
  bottom: "rpn_cls_score"
  bottom: "gt_boxes"
  bottom: "im_info"
  bottom: "data"
  top: "rpn_labels"
  top: "rpn_bbox_targets"
  top: "rpn_bbox_inside_weights"
  top: "rpn_bbox_outside_weights"
  python_param {
    module: "rpn.anchor_target_layer"
    layer: "AnchorTargetLayer"
    param_str: "\'feat_stride\': 8"
  }
}
layer {
  name: "rpn_loss_cls"
  type: "SoftmaxWithLoss"
  bottom: "rpn_cls_score_reshape"
  bottom: "rpn_labels"
  top: "rpn_cls_loss"
  loss_weight: 1
  propagate_down: true
  propagate_down: false
  loss_param {
    ignore_label: -1
    normalize: true
  }
}
layer {
  name: "rpn_loss_bbox"
  type: "SmoothL1Loss"
  bottom: "rpn_bbox_pred"
  bottom: "rpn_bbox_targets"
  bottom: "rpn_bbox_inside_weights"
  bottom: "rpn_bbox_outside_weights"
  top: "rpn_loss_bbox"
  loss_weight: 1
  smooth_l1_loss_param {
    sigma: 3
  }
}
layer {
  name: "rpn_cls_prob"
  type: "Softmax"
  bottom: "rpn_cls_score_reshape"
  top: "rpn_cls_prob"
}
layer {
  name: "rpn_cls_prob_reshape"
  type: "Reshape"
  bottom: "rpn_cls_prob"
  top: "rpn_cls_prob_reshape"
  reshape_param {
    shape {
      dim: 0
      dim: 18
      dim: -1
      dim: 0
    }
  }
}
layer {
  name: "proposal"
  type: "Python"
  bottom: "rpn_cls_prob_reshape"
  bottom: "rpn_bbox_pred"
  bottom: "im_info"
  top: "rpn_rois"
  python_param {
    module: "rpn.proposal_layer"
    layer: "ProposalLayer"
    param_str: "\'feat_stride\': 8"
  }
}
layer {
  name: "roi-data"
  type: "Python"
  bottom: "rpn_rois"
  bottom: "gt_boxes"
  top: "rois"
  top: "labels"
  top: "bbox_targets"
  top: "bbox_inside_weights"
  top: "bbox_outside_weights"
  python_param {
    module: "rpn.proposal_target_layer"
    layer: "ProposalTargetLayer"
    param_str: "\'num_classes\': 21"
  }
}
layer {
  name: "roi_pool5"
  type: "ROIPooling"
  bottom: "newP3"
  bottom: "rois"
  top: "rcnn_pool5"
  roi_pooling_param {
    pooled_h: 7
    pooled_w: 7
    spatial_scale: 0.125
  }
}
layer {
  name: "rcnn_fc6"
  type: "InnerProduct"
  bottom: "rcnn_pool5"
  top: "rcnn_fc6"
  param {
    lr_mult: 1
  }
  param {
    lr_mult: 2
  }
  inner_product_param {
    num_output: 4096
    weight_filler {
      type: "xavier"
    }
    bias_filler {
      type: "constant"
    }
  }
}
layer {
  name: "relu6"
  type: "ReLU"
  bottom: "rcnn_fc6"
  top: "rcnn_fc6"
}
layer {
  name: "drop6"
  type: "Dropout"
  bottom: "rcnn_fc6"
  top: "rcnn_fc6"
  dropout_param {
    dropout_ratio: 0.5
  }
}
layer {
  name: "fc7"
  type: "InnerProduct"
  bottom: "rcnn_fc6"
  top: "fc7"
  param {
    lr_mult: 1
  }
  param {
    lr_mult: 2
  }
  inner_product_param {
    num_output: 4096
    weight_filler {
      type: "xavier"
    }
    bias_filler {
      type: "constant"
    }
  }
}
layer {
  name: "relu7"
  type: "ReLU"
  bottom: "fc7"
  top: "fc7"
}
layer {
  name: "drop7"
  type: "Dropout"
  bottom: "fc7"
  top: "fc7"
  dropout_param {
    dropout_ratio: 0.5
  }
}
layer {
  name: "cls_score"
  type: "InnerProduct"
  bottom: "fc7"
  top: "cls_score"
  param {
    lr_mult: 1
  }
  param {
    lr_mult: 2
  }
  inner_product_param {
    num_output: 21
    weight_filler {
      type: "gaussian"
      std: 0.01
    }
    bias_filler {
      type: "constant"
      value: 0
    }
  }
}
layer {
  name: "bbox_pred"
  type: "InnerProduct"
  bottom: "fc7"
  top: "bbox_pred"
  param {
    lr_mult: 1
  }
  param {
    lr_mult: 2
  }
  inner_product_param {
    num_output: 84
    weight_filler {
      type: "gaussian"
      std: 0.001
    }
    bias_filler {
      type: "constant"
      value: 0
    }
  }
}
layer {
  name: "loss_cls"
  type: "SoftmaxWithLoss"
  bottom: "cls_score"
  bottom: "labels"
  top: "loss_cls"
  loss_weight: 1
  propagate_down: true
  propagate_down: false
}
layer {
  name: "loss_bbox"
  type: "SmoothL1Loss"
  bottom: "bbox_pred"
  bottom: "bbox_targets"
  bottom: "bbox_inside_weights"
  bottom: "bbox_outside_weights"
  top: "loss_bbox"
  loss_weight: 1
}
I0629 21:42:26.319629 57087 layer_factory.hpp:77] Creating layer input-data
I0629 21:42:26.322800 57087 net.cpp:106] Creating Layer input-data
I0629 21:42:26.322827 57087 net.cpp:411] input-data -> data
I0629 21:42:26.322846 57087 net.cpp:411] input-data -> im_info
I0629 21:42:26.322878 57087 net.cpp:411] input-data -> gt_boxes
RoiDataLayer: name_to_top: {'gt_boxes': 2, 'data': 0, 'im_info': 1}
I0629 21:42:26.460705 57087 net.cpp:150] Setting up input-data
I0629 21:42:26.460747 57087 net.cpp:157] Top shape: 1 3 800 2000 (4800000)
I0629 21:42:26.460768 57087 net.cpp:157] Top shape: 1 3 (3)
I0629 21:42:26.460783 57087 net.cpp:157] Top shape: 1 4 (4)
I0629 21:42:26.460793 57087 net.cpp:165] Memory required for data: 19200028
I0629 21:42:26.460811 57087 layer_factory.hpp:77] Creating layer data_input-data_0_split
I0629 21:42:26.460840 57087 net.cpp:106] Creating Layer data_input-data_0_split
I0629 21:42:26.460860 57087 net.cpp:454] data_input-data_0_split <- data
I0629 21:42:26.460892 57087 net.cpp:411] data_input-data_0_split -> data_input-data_0_split_0
I0629 21:42:26.460911 57087 net.cpp:411] data_input-data_0_split -> data_input-data_0_split_1
I0629 21:42:26.460975 57087 net.cpp:150] Setting up data_input-data_0_split
I0629 21:42:26.460988 57087 net.cpp:157] Top shape: 1 3 800 2000 (4800000)
I0629 21:42:26.460994 57087 net.cpp:157] Top shape: 1 3 800 2000 (4800000)
I0629 21:42:26.460997 57087 net.cpp:165] Memory required for data: 57600028
I0629 21:42:26.461000 57087 layer_factory.hpp:77] Creating layer im_info_input-data_1_split
I0629 21:42:26.461024 57087 net.cpp:106] Creating Layer im_info_input-data_1_split
I0629 21:42:26.461040 57087 net.cpp:454] im_info_input-data_1_split <- im_info
I0629 21:42:26.461058 57087 net.cpp:411] im_info_input-data_1_split -> im_info_input-data_1_split_0
I0629 21:42:26.461081 57087 net.cpp:411] im_info_input-data_1_split -> im_info_input-data_1_split_1
I0629 21:42:26.461148 57087 net.cpp:150] Setting up im_info_input-data_1_split
I0629 21:42:26.461160 57087 net.cpp:157] Top shape: 1 3 (3)
I0629 21:42:26.461164 57087 net.cpp:157] Top shape: 1 3 (3)
I0629 21:42:26.461168 57087 net.cpp:165] Memory required for data: 57600052
I0629 21:42:26.461170 57087 layer_factory.hpp:77] Creating layer gt_boxes_input-data_2_split
I0629 21:42:26.461177 57087 net.cpp:106] Creating Layer gt_boxes_input-data_2_split
I0629 21:42:26.461196 57087 net.cpp:454] gt_boxes_input-data_2_split <- gt_boxes
I0629 21:42:26.461211 57087 net.cpp:411] gt_boxes_input-data_2_split -> gt_boxes_input-data_2_split_0
I0629 21:42:26.461230 57087 net.cpp:411] gt_boxes_input-data_2_split -> gt_boxes_input-data_2_split_1
I0629 21:42:26.461295 57087 net.cpp:150] Setting up gt_boxes_input-data_2_split
I0629 21:42:26.461308 57087 net.cpp:157] Top shape: 1 4 (4)
I0629 21:42:26.461313 57087 net.cpp:157] Top shape: 1 4 (4)
I0629 21:42:26.461315 57087 net.cpp:165] Memory required for data: 57600084
I0629 21:42:26.461318 57087 layer_factory.hpp:77] Creating layer conv1_1
I0629 21:42:26.461338 57087 net.cpp:106] Creating Layer conv1_1
I0629 21:42:26.461356 57087 net.cpp:454] conv1_1 <- data_input-data_0_split_0
I0629 21:42:26.461374 57087 net.cpp:411] conv1_1 -> conv1_1
I0629 21:42:26.946542 57087 net.cpp:150] Setting up conv1_1
I0629 21:42:26.946593 57087 net.cpp:157] Top shape: 1 64 800 2000 (102400000)
I0629 21:42:26.946597 57087 net.cpp:165] Memory required for data: 467200084
I0629 21:42:26.946619 57087 layer_factory.hpp:77] Creating layer relu1_1
I0629 21:42:26.946632 57087 net.cpp:106] Creating Layer relu1_1
I0629 21:42:26.946669 57087 net.cpp:454] relu1_1 <- conv1_1
I0629 21:42:26.946688 57087 net.cpp:397] relu1_1 -> conv1_1 (in-place)
I0629 21:42:26.947517 57087 net.cpp:150] Setting up relu1_1
I0629 21:42:26.947541 57087 net.cpp:157] Top shape: 1 64 800 2000 (102400000)
I0629 21:42:26.947546 57087 net.cpp:165] Memory required for data: 876800084
I0629 21:42:26.947549 57087 layer_factory.hpp:77] Creating layer conv1_2
I0629 21:42:26.947561 57087 net.cpp:106] Creating Layer conv1_2
I0629 21:42:26.947564 57087 net.cpp:454] conv1_2 <- conv1_1
I0629 21:42:26.947569 57087 net.cpp:411] conv1_2 -> conv1_2
I0629 21:42:26.960119 57087 net.cpp:150] Setting up conv1_2
I0629 21:42:26.960142 57087 net.cpp:157] Top shape: 1 64 800 2000 (102400000)
I0629 21:42:26.960147 57087 net.cpp:165] Memory required for data: 1286400084
I0629 21:42:26.960157 57087 layer_factory.hpp:77] Creating layer relu1_2
I0629 21:42:26.960187 57087 net.cpp:106] Creating Layer relu1_2
I0629 21:42:26.960204 57087 net.cpp:454] relu1_2 <- conv1_2
I0629 21:42:26.960219 57087 net.cpp:397] relu1_2 -> conv1_2 (in-place)
I0629 21:42:26.960407 57087 net.cpp:150] Setting up relu1_2
I0629 21:42:26.960427 57087 net.cpp:157] Top shape: 1 64 800 2000 (102400000)
I0629 21:42:26.960431 57087 net.cpp:165] Memory required for data: 1696000084
I0629 21:42:26.960435 57087 layer_factory.hpp:77] Creating layer pool1
I0629 21:42:26.960449 57087 net.cpp:106] Creating Layer pool1
I0629 21:42:26.960453 57087 net.cpp:454] pool1 <- conv1_2
I0629 21:42:26.960458 57087 net.cpp:411] pool1 -> pool1
I0629 21:42:26.960552 57087 net.cpp:150] Setting up pool1
I0629 21:42:26.960567 57087 net.cpp:157] Top shape: 1 64 400 1000 (25600000)
I0629 21:42:26.960572 57087 net.cpp:165] Memory required for data: 1798400084
I0629 21:42:26.960575 57087 layer_factory.hpp:77] Creating layer conv2_1
I0629 21:42:26.960582 57087 net.cpp:106] Creating Layer conv2_1
I0629 21:42:26.960603 57087 net.cpp:454] conv2_1 <- pool1
I0629 21:42:26.960619 57087 net.cpp:411] conv2_1 -> conv2_1
I0629 21:42:26.968669 57087 net.cpp:150] Setting up conv2_1
I0629 21:42:26.968695 57087 net.cpp:157] Top shape: 1 128 400 1000 (51200000)
I0629 21:42:26.968700 57087 net.cpp:165] Memory required for data: 2003200084
I0629 21:42:26.968709 57087 layer_factory.hpp:77] Creating layer relu2_1
I0629 21:42:26.968739 57087 net.cpp:106] Creating Layer relu2_1
I0629 21:42:26.968765 57087 net.cpp:454] relu2_1 <- conv2_1
I0629 21:42:26.968781 57087 net.cpp:397] relu2_1 -> conv2_1 (in-place)
I0629 21:42:26.968979 57087 net.cpp:150] Setting up relu2_1
I0629 21:42:26.968997 57087 net.cpp:157] Top shape: 1 128 400 1000 (51200000)
I0629 21:42:26.969002 57087 net.cpp:165] Memory required for data: 2208000084
I0629 21:42:26.969007 57087 layer_factory.hpp:77] Creating layer conv2_2
I0629 21:42:26.969017 57087 net.cpp:106] Creating Layer conv2_2
I0629 21:42:26.969039 57087 net.cpp:454] conv2_2 <- conv2_1
I0629 21:42:26.969058 57087 net.cpp:411] conv2_2 -> conv2_2
I0629 21:42:26.974001 57087 net.cpp:150] Setting up conv2_2
I0629 21:42:26.974028 57087 net.cpp:157] Top shape: 1 128 400 1000 (51200000)
I0629 21:42:26.974033 57087 net.cpp:165] Memory required for data: 2412800084
I0629 21:42:26.974040 57087 layer_factory.hpp:77] Creating layer relu2_2
I0629 21:42:26.974073 57087 net.cpp:106] Creating Layer relu2_2
I0629 21:42:26.974092 57087 net.cpp:454] relu2_2 <- conv2_2
I0629 21:42:26.974107 57087 net.cpp:397] relu2_2 -> conv2_2 (in-place)
I0629 21:42:26.974943 57087 net.cpp:150] Setting up relu2_2
I0629 21:42:26.974966 57087 net.cpp:157] Top shape: 1 128 400 1000 (51200000)
I0629 21:42:26.974969 57087 net.cpp:165] Memory required for data: 2617600084
I0629 21:42:26.974973 57087 layer_factory.hpp:77] Creating layer pool2
I0629 21:42:26.974982 57087 net.cpp:106] Creating Layer pool2
I0629 21:42:26.975005 57087 net.cpp:454] pool2 <- conv2_2
I0629 21:42:26.975023 57087 net.cpp:411] pool2 -> pool2
I0629 21:42:26.975117 57087 net.cpp:150] Setting up pool2
I0629 21:42:26.975133 57087 net.cpp:157] Top shape: 1 128 200 500 (12800000)
I0629 21:42:26.975136 57087 net.cpp:165] Memory required for data: 2668800084
I0629 21:42:26.975141 57087 layer_factory.hpp:77] Creating layer conv3_1
I0629 21:42:26.975150 57087 net.cpp:106] Creating Layer conv3_1
I0629 21:42:26.975170 57087 net.cpp:454] conv3_1 <- pool2
I0629 21:42:26.975190 57087 net.cpp:411] conv3_1 -> conv3_1
I0629 21:42:26.980235 57087 net.cpp:150] Setting up conv3_1
I0629 21:42:26.980260 57087 net.cpp:157] Top shape: 1 256 200 500 (25600000)
I0629 21:42:26.980264 57087 net.cpp:165] Memory required for data: 2771200084
I0629 21:42:26.980274 57087 layer_factory.hpp:77] Creating layer relu3_1
I0629 21:42:26.980307 57087 net.cpp:106] Creating Layer relu3_1
I0629 21:42:26.980326 57087 net.cpp:454] relu3_1 <- conv3_1
I0629 21:42:26.980342 57087 net.cpp:397] relu3_1 -> conv3_1 (in-place)
I0629 21:42:26.980811 57087 net.cpp:150] Setting up relu3_1
I0629 21:42:26.980829 57087 net.cpp:157] Top shape: 1 256 200 500 (25600000)
I0629 21:42:26.980834 57087 net.cpp:165] Memory required for data: 2873600084
I0629 21:42:26.980837 57087 layer_factory.hpp:77] Creating layer conv3_2
I0629 21:42:26.980851 57087 net.cpp:106] Creating Layer conv3_2
I0629 21:42:26.980873 57087 net.cpp:454] conv3_2 <- conv3_1
I0629 21:42:26.980901 57087 net.cpp:411] conv3_2 -> conv3_2
I0629 21:42:26.986588 57087 net.cpp:150] Setting up conv3_2
I0629 21:42:26.986616 57087 net.cpp:157] Top shape: 1 256 200 500 (25600000)
I0629 21:42:26.986621 57087 net.cpp:165] Memory required for data: 2976000084
I0629 21:42:26.986629 57087 layer_factory.hpp:77] Creating layer relu3_2
I0629 21:42:26.986657 57087 net.cpp:106] Creating Layer relu3_2
I0629 21:42:26.986673 57087 net.cpp:454] relu3_2 <- conv3_2
I0629 21:42:26.986690 57087 net.cpp:397] relu3_2 -> conv3_2 (in-place)
I0629 21:42:26.987211 57087 net.cpp:150] Setting up relu3_2
I0629 21:42:26.987231 57087 net.cpp:157] Top shape: 1 256 200 500 (25600000)
I0629 21:42:26.987236 57087 net.cpp:165] Memory required for data: 3078400084
I0629 21:42:26.987239 57087 layer_factory.hpp:77] Creating layer conv3_3
I0629 21:42:26.987248 57087 net.cpp:106] Creating Layer conv3_3
I0629 21:42:26.987272 57087 net.cpp:454] conv3_3 <- conv3_2
I0629 21:42:26.987288 57087 net.cpp:411] conv3_3 -> conv3_3
I0629 21:42:26.993566 57087 net.cpp:150] Setting up conv3_3
I0629 21:42:26.993590 57087 net.cpp:157] Top shape: 1 256 200 500 (25600000)
I0629 21:42:26.993595 57087 net.cpp:165] Memory required for data: 3180800084
I0629 21:42:26.993602 57087 layer_factory.hpp:77] Creating layer relu3_3
I0629 21:42:26.993631 57087 net.cpp:106] Creating Layer relu3_3
I0629 21:42:26.993654 57087 net.cpp:454] relu3_3 <- conv3_3
I0629 21:42:26.993679 57087 net.cpp:397] relu3_3 -> conv3_3 (in-place)
I0629 21:42:26.994892 57087 net.cpp:150] Setting up relu3_3
I0629 21:42:26.994947 57087 net.cpp:157] Top shape: 1 256 200 500 (25600000)
I0629 21:42:26.994952 57087 net.cpp:165] Memory required for data: 3283200084
I0629 21:42:26.994959 57087 layer_factory.hpp:77] Creating layer pool3
I0629 21:42:26.994974 57087 net.cpp:106] Creating Layer pool3
I0629 21:42:26.994981 57087 net.cpp:454] pool3 <- conv3_3
I0629 21:42:26.994993 57087 net.cpp:411] pool3 -> pool3
I0629 21:42:26.995164 57087 net.cpp:150] Setting up pool3
I0629 21:42:26.995180 57087 net.cpp:157] Top shape: 1 256 100 250 (6400000)
I0629 21:42:26.995184 57087 net.cpp:165] Memory required for data: 3308800084
I0629 21:42:26.995188 57087 layer_factory.hpp:77] Creating layer conv4_1
I0629 21:42:26.995199 57087 net.cpp:106] Creating Layer conv4_1
I0629 21:42:26.995210 57087 net.cpp:454] conv4_1 <- pool3
I0629 21:42:26.995219 57087 net.cpp:411] conv4_1 -> conv4_1
I0629 21:42:27.003413 57087 net.cpp:150] Setting up conv4_1
I0629 21:42:27.003459 57087 net.cpp:157] Top shape: 1 512 100 250 (12800000)
I0629 21:42:27.003464 57087 net.cpp:165] Memory required for data: 3360000084
I0629 21:42:27.003475 57087 layer_factory.hpp:77] Creating layer relu4_1
I0629 21:42:27.003489 57087 net.cpp:106] Creating Layer relu4_1
I0629 21:42:27.003528 57087 net.cpp:454] relu4_1 <- conv4_1
I0629 21:42:27.003576 57087 net.cpp:397] relu4_1 -> conv4_1 (in-place)
I0629 21:42:27.004549 57087 net.cpp:150] Setting up relu4_1
I0629 21:42:27.004580 57087 net.cpp:157] Top shape: 1 512 100 250 (12800000)
I0629 21:42:27.004592 57087 net.cpp:165] Memory required for data: 3411200084
I0629 21:42:27.004603 57087 layer_factory.hpp:77] Creating layer conv4_2
I0629 21:42:27.004647 57087 net.cpp:106] Creating Layer conv4_2
I0629 21:42:27.004662 57087 net.cpp:454] conv4_2 <- conv4_1
I0629 21:42:27.004676 57087 net.cpp:411] conv4_2 -> conv4_2
I0629 21:42:27.014372 57087 net.cpp:150] Setting up conv4_2
I0629 21:42:27.014423 57087 net.cpp:157] Top shape: 1 512 100 250 (12800000)
I0629 21:42:27.014441 57087 net.cpp:165] Memory required for data: 3462400084
I0629 21:42:27.014463 57087 layer_factory.hpp:77] Creating layer relu4_2
I0629 21:42:27.014484 57087 net.cpp:106] Creating Layer relu4_2
I0629 21:42:27.014498 57087 net.cpp:454] relu4_2 <- conv4_2
I0629 21:42:27.014514 57087 net.cpp:397] relu4_2 -> conv4_2 (in-place)
I0629 21:42:27.016515 57087 net.cpp:150] Setting up relu4_2
I0629 21:42:27.016553 57087 net.cpp:157] Top shape: 1 512 100 250 (12800000)
I0629 21:42:27.016569 57087 net.cpp:165] Memory required for data: 3513600084
I0629 21:42:27.016582 57087 layer_factory.hpp:77] Creating layer conv4_3
I0629 21:42:27.016604 57087 net.cpp:106] Creating Layer conv4_3
I0629 21:42:27.016619 57087 net.cpp:454] conv4_3 <- conv4_2
I0629 21:42:27.016635 57087 net.cpp:411] conv4_3 -> conv4_3
I0629 21:42:27.026916 57087 net.cpp:150] Setting up conv4_3
I0629 21:42:27.026958 57087 net.cpp:157] Top shape: 1 512 100 250 (12800000)
I0629 21:42:27.026963 57087 net.cpp:165] Memory required for data: 3564800084
I0629 21:42:27.026973 57087 layer_factory.hpp:77] Creating layer relu4_3
I0629 21:42:27.026983 57087 net.cpp:106] Creating Layer relu4_3
I0629 21:42:27.026988 57087 net.cpp:454] relu4_3 <- conv4_3
I0629 21:42:27.026994 57087 net.cpp:397] relu4_3 -> conv4_3 (in-place)
I0629 21:42:27.027874 57087 net.cpp:150] Setting up relu4_3
I0629 21:42:27.027926 57087 net.cpp:157] Top shape: 1 512 100 250 (12800000)
I0629 21:42:27.027943 57087 net.cpp:165] Memory required for data: 3616000084
I0629 21:42:27.027956 57087 layer_factory.hpp:77] Creating layer conv4_3_relu4_3_0_split
I0629 21:42:27.027976 57087 net.cpp:106] Creating Layer conv4_3_relu4_3_0_split
I0629 21:42:27.027992 57087 net.cpp:454] conv4_3_relu4_3_0_split <- conv4_3
I0629 21:42:27.028007 57087 net.cpp:411] conv4_3_relu4_3_0_split -> conv4_3_relu4_3_0_split_0
I0629 21:42:27.028025 57087 net.cpp:411] conv4_3_relu4_3_0_split -> conv4_3_relu4_3_0_split_1
I0629 21:42:27.028115 57087 net.cpp:150] Setting up conv4_3_relu4_3_0_split
I0629 21:42:27.028144 57087 net.cpp:157] Top shape: 1 512 100 250 (12800000)
I0629 21:42:27.028159 57087 net.cpp:157] Top shape: 1 512 100 250 (12800000)
I0629 21:42:27.028172 57087 net.cpp:165] Memory required for data: 3718400084
I0629 21:42:27.028184 57087 layer_factory.hpp:77] Creating layer pool4
I0629 21:42:27.028216 57087 net.cpp:106] Creating Layer pool4
I0629 21:42:27.028239 57087 net.cpp:454] pool4 <- conv4_3_relu4_3_0_split_0
I0629 21:42:27.028256 57087 net.cpp:411] pool4 -> pool4
I0629 21:42:27.028350 57087 net.cpp:150] Setting up pool4
I0629 21:42:27.028376 57087 net.cpp:157] Top shape: 1 512 50 125 (3200000)
I0629 21:42:27.028389 57087 net.cpp:165] Memory required for data: 3731200084
I0629 21:42:27.028403 57087 layer_factory.hpp:77] Creating layer conv5_1
I0629 21:42:27.028427 57087 net.cpp:106] Creating Layer conv5_1
I0629 21:42:27.028445 57087 net.cpp:454] conv5_1 <- pool4
I0629 21:42:27.028461 57087 net.cpp:411] conv5_1 -> conv5_1
I0629 21:42:27.043283 57087 net.cpp:150] Setting up conv5_1
I0629 21:42:27.043392 57087 net.cpp:157] Top shape: 1 512 50 125 (3200000)
I0629 21:42:27.043409 57087 net.cpp:165] Memory required for data: 3744000084
I0629 21:42:27.043431 57087 layer_factory.hpp:77] Creating layer relu5_1
I0629 21:42:27.043453 57087 net.cpp:106] Creating Layer relu5_1
I0629 21:42:27.043468 57087 net.cpp:454] relu5_1 <- conv5_1
I0629 21:42:27.043488 57087 net.cpp:397] relu5_1 -> conv5_1 (in-place)
I0629 21:42:27.043710 57087 net.cpp:150] Setting up relu5_1
I0629 21:42:27.043745 57087 net.cpp:157] Top shape: 1 512 50 125 (3200000)
I0629 21:42:27.043759 57087 net.cpp:165] Memory required for data: 3756800084
I0629 21:42:27.043772 57087 layer_factory.hpp:77] Creating layer conv5_2
I0629 21:42:27.043817 57087 net.cpp:106] Creating Layer conv5_2
I0629 21:42:27.043833 57087 net.cpp:454] conv5_2 <- conv5_1
I0629 21:42:27.043849 57087 net.cpp:411] conv5_2 -> conv5_2
I0629 21:42:27.052582 57087 net.cpp:150] Setting up conv5_2
I0629 21:42:27.052628 57087 net.cpp:157] Top shape: 1 512 50 125 (3200000)
I0629 21:42:27.052644 57087 net.cpp:165] Memory required for data: 3769600084
I0629 21:42:27.052661 57087 layer_factory.hpp:77] Creating layer relu5_2
I0629 21:42:27.052687 57087 net.cpp:106] Creating Layer relu5_2
I0629 21:42:27.052701 57087 net.cpp:454] relu5_2 <- conv5_2
I0629 21:42:27.052716 57087 net.cpp:397] relu5_2 -> conv5_2 (in-place)
I0629 21:42:27.053575 57087 net.cpp:150] Setting up relu5_2
I0629 21:42:27.053607 57087 net.cpp:157] Top shape: 1 512 50 125 (3200000)
I0629 21:42:27.053622 57087 net.cpp:165] Memory required for data: 3782400084
I0629 21:42:27.053634 57087 layer_factory.hpp:77] Creating layer conv5_3
I0629 21:42:27.053663 57087 net.cpp:106] Creating Layer conv5_3
I0629 21:42:27.053683 57087 net.cpp:454] conv5_3 <- conv5_2
I0629 21:42:27.053701 57087 net.cpp:411] conv5_3 -> conv5_3
I0629 21:42:27.063676 57087 net.cpp:150] Setting up conv5_3
I0629 21:42:27.063725 57087 net.cpp:157] Top shape: 1 512 50 125 (3200000)
I0629 21:42:27.063742 57087 net.cpp:165] Memory required for data: 3795200084
I0629 21:42:27.063760 57087 layer_factory.hpp:77] Creating layer relu5_3
I0629 21:42:27.063777 57087 net.cpp:106] Creating Layer relu5_3
I0629 21:42:27.063791 57087 net.cpp:454] relu5_3 <- conv5_3
I0629 21:42:27.063808 57087 net.cpp:397] relu5_3 -> conv5_3 (in-place)
I0629 21:42:27.065846 57087 net.cpp:150] Setting up relu5_3
I0629 21:42:27.065886 57087 net.cpp:157] Top shape: 1 512 50 125 (3200000)
I0629 21:42:27.065901 57087 net.cpp:165] Memory required for data: 3808000084
I0629 21:42:27.065913 57087 layer_factory.hpp:77] Creating layer newC4
I0629 21:42:27.065935 57087 net.cpp:106] Creating Layer newC4
I0629 21:42:27.065963 57087 net.cpp:454] newC4 <- conv5_3
I0629 21:42:27.065984 57087 net.cpp:411] newC4 -> newC4
I0629 21:42:27.073058 57087 net.cpp:150] Setting up newC4
I0629 21:42:27.073101 57087 net.cpp:157] Top shape: 1 256 50 125 (1600000)
I0629 21:42:27.073117 57087 net.cpp:165] Memory required for data: 3814400084
I0629 21:42:27.073133 57087 layer_factory.hpp:77] Creating layer upP4_new
I0629 21:42:27.073158 57087 net.cpp:106] Creating Layer upP4_new
I0629 21:42:27.073173 57087 net.cpp:454] upP4_new <- newC4
I0629 21:42:27.073192 57087 net.cpp:411] upP4_new -> upP4
I0629 21:42:27.073645 57087 net.cpp:150] Setting up upP4_new
I0629 21:42:27.073676 57087 net.cpp:157] Top shape: 1 256 100 250 (6400000)
I0629 21:42:27.073690 57087 net.cpp:165] Memory required for data: 3840000084
I0629 21:42:27.073705 57087 layer_factory.hpp:77] Creating layer newC3
I0629 21:42:27.073737 57087 net.cpp:106] Creating Layer newC3
I0629 21:42:27.073765 57087 net.cpp:454] newC3 <- conv4_3_relu4_3_0_split_1
I0629 21:42:27.073784 57087 net.cpp:411] newC3 -> newC3
I0629 21:42:27.080639 57087 net.cpp:150] Setting up newC3
I0629 21:42:27.080682 57087 net.cpp:157] Top shape: 1 256 100 250 (6400000)
I0629 21:42:27.080701 57087 net.cpp:165] Memory required for data: 3865600084
I0629 21:42:27.080723 57087 layer_factory.hpp:77] Creating layer newC3_newC3_0_split
I0629 21:42:27.080742 57087 net.cpp:106] Creating Layer newC3_newC3_0_split
I0629 21:42:27.080760 57087 net.cpp:454] newC3_newC3_0_split <- newC3
I0629 21:42:27.080780 57087 net.cpp:411] newC3_newC3_0_split -> newC3_newC3_0_split_0
I0629 21:42:27.080798 57087 net.cpp:411] newC3_newC3_0_split -> newC3_newC3_0_split_1
I0629 21:42:27.080896 57087 net.cpp:150] Setting up newC3_newC3_0_split
I0629 21:42:27.080921 57087 net.cpp:157] Top shape: 1 256 100 250 (6400000)
I0629 21:42:27.080940 57087 net.cpp:157] Top shape: 1 256 100 250 (6400000)
I0629 21:42:27.080955 57087 net.cpp:165] Memory required for data: 3916800084
I0629 21:42:27.080970 57087 layer_factory.hpp:77] Creating layer upP4crop
I0629 21:42:27.080989 57087 net.cpp:106] Creating Layer upP4crop
I0629 21:42:27.081022 57087 net.cpp:454] upP4crop <- upP4
I0629 21:42:27.081042 57087 net.cpp:454] upP4crop <- newC3_newC3_0_split_0
I0629 21:42:27.081056 57087 net.cpp:411] upP4crop -> upP4crop
I0629 21:42:27.081248 57087 net.cpp:150] Setting up upP4crop
I0629 21:42:27.081274 57087 net.cpp:157] Top shape: 1 256 100 250 (6400000)
I0629 21:42:27.081291 57087 net.cpp:165] Memory required for data: 3942400084
I0629 21:42:27.081305 57087 layer_factory.hpp:77] Creating layer P3
I0629 21:42:27.081326 57087 net.cpp:106] Creating Layer P3
I0629 21:42:27.081344 57087 net.cpp:454] P3 <- newC3_newC3_0_split_1
I0629 21:42:27.081359 57087 net.cpp:454] P3 <- upP4crop
I0629 21:42:27.081377 57087 net.cpp:411] P3 -> P3
I0629 21:42:27.081446 57087 net.cpp:150] Setting up P3
I0629 21:42:27.081470 57087 net.cpp:157] Top shape: 1 256 100 250 (6400000)
I0629 21:42:27.081486 57087 net.cpp:165] Memory required for data: 3968000084
I0629 21:42:27.081501 57087 layer_factory.hpp:77] Creating layer newP3
I0629 21:42:27.081521 57087 net.cpp:106] Creating Layer newP3
I0629 21:42:27.081539 57087 net.cpp:454] newP3 <- P3
I0629 21:42:27.081560 57087 net.cpp:411] newP3 -> newP3
I0629 21:42:27.091176 57087 net.cpp:150] Setting up newP3
I0629 21:42:27.091220 57087 net.cpp:157] Top shape: 1 256 100 250 (6400000)
I0629 21:42:27.091236 57087 net.cpp:165] Memory required for data: 3993600084
I0629 21:42:27.091262 57087 layer_factory.hpp:77] Creating layer newP3_newP3_0_split
I0629 21:42:27.091279 57087 net.cpp:106] Creating Layer newP3_newP3_0_split
I0629 21:42:27.091295 57087 net.cpp:454] newP3_newP3_0_split <- newP3
I0629 21:42:27.091313 57087 net.cpp:411] newP3_newP3_0_split -> newP3_newP3_0_split_0
I0629 21:42:27.091344 57087 net.cpp:411] newP3_newP3_0_split -> newP3_newP3_0_split_1
I0629 21:42:27.091447 57087 net.cpp:150] Setting up newP3_newP3_0_split
I0629 21:42:27.091475 57087 net.cpp:157] Top shape: 1 256 100 250 (6400000)
I0629 21:42:27.091490 57087 net.cpp:157] Top shape: 1 256 100 250 (6400000)
I0629 21:42:27.091502 57087 net.cpp:165] Memory required for data: 4044800084
I0629 21:42:27.091526 57087 layer_factory.hpp:77] Creating layer rpn_conv/3x3
I0629 21:42:27.091548 57087 net.cpp:106] Creating Layer rpn_conv/3x3
I0629 21:42:27.091574 57087 net.cpp:454] rpn_conv/3x3 <- newP3_newP3_0_split_0
I0629 21:42:27.091594 57087 net.cpp:411] rpn_conv/3x3 -> rpn/output
I0629 21:42:27.128768 57087 net.cpp:150] Setting up rpn_conv/3x3
I0629 21:42:27.128877 57087 net.cpp:157] Top shape: 1 512 100 250 (12800000)
I0629 21:42:27.128901 57087 net.cpp:165] Memory required for data: 4096000084
I0629 21:42:27.128924 57087 layer_factory.hpp:77] Creating layer rpn_relu/3x3
I0629 21:42:27.128947 57087 net.cpp:106] Creating Layer rpn_relu/3x3
I0629 21:42:27.128974 57087 net.cpp:454] rpn_relu/3x3 <- rpn/output
I0629 21:42:27.128993 57087 net.cpp:397] rpn_relu/3x3 -> rpn/output (in-place)
I0629 21:42:27.129842 57087 net.cpp:150] Setting up rpn_relu/3x3
I0629 21:42:27.129879 57087 net.cpp:157] Top shape: 1 512 100 250 (12800000)
I0629 21:42:27.129895 57087 net.cpp:165] Memory required for data: 4147200084
I0629 21:42:27.129909 57087 layer_factory.hpp:77] Creating layer rpn/output_rpn_relu/3x3_0_split
I0629 21:42:27.129927 57087 net.cpp:106] Creating Layer rpn/output_rpn_relu/3x3_0_split
I0629 21:42:27.129941 57087 net.cpp:454] rpn/output_rpn_relu/3x3_0_split <- rpn/output
I0629 21:42:27.129958 57087 net.cpp:411] rpn/output_rpn_relu/3x3_0_split -> rpn/output_rpn_relu/3x3_0_split_0
I0629 21:42:27.129976 57087 net.cpp:411] rpn/output_rpn_relu/3x3_0_split -> rpn/output_rpn_relu/3x3_0_split_1
I0629 21:42:27.130079 57087 net.cpp:150] Setting up rpn/output_rpn_relu/3x3_0_split
I0629 21:42:27.130105 57087 net.cpp:157] Top shape: 1 512 100 250 (12800000)
I0629 21:42:27.130120 57087 net.cpp:157] Top shape: 1 512 100 250 (12800000)
I0629 21:42:27.130132 57087 net.cpp:165] Memory required for data: 4249600084
I0629 21:42:27.130146 57087 layer_factory.hpp:77] Creating layer rpn_cls_score
I0629 21:42:27.130172 57087 net.cpp:106] Creating Layer rpn_cls_score
I0629 21:42:27.130200 57087 net.cpp:454] rpn_cls_score <- rpn/output_rpn_relu/3x3_0_split_0
I0629 21:42:27.130244 57087 net.cpp:411] rpn_cls_score -> rpn_cls_score
I0629 21:42:27.137197 57087 net.cpp:150] Setting up rpn_cls_score
I0629 21:42:27.137243 57087 net.cpp:157] Top shape: 1 18 100 250 (450000)
I0629 21:42:27.137259 57087 net.cpp:165] Memory required for data: 4251400084
I0629 21:42:27.137275 57087 layer_factory.hpp:77] Creating layer rpn_cls_score_rpn_cls_score_0_split
I0629 21:42:27.137292 57087 net.cpp:106] Creating Layer rpn_cls_score_rpn_cls_score_0_split
I0629 21:42:27.137306 57087 net.cpp:454] rpn_cls_score_rpn_cls_score_0_split <- rpn_cls_score
I0629 21:42:27.137326 57087 net.cpp:411] rpn_cls_score_rpn_cls_score_0_split -> rpn_cls_score_rpn_cls_score_0_split_0
I0629 21:42:27.137343 57087 net.cpp:411] rpn_cls_score_rpn_cls_score_0_split -> rpn_cls_score_rpn_cls_score_0_split_1
I0629 21:42:27.137435 57087 net.cpp:150] Setting up rpn_cls_score_rpn_cls_score_0_split
I0629 21:42:27.137461 57087 net.cpp:157] Top shape: 1 18 100 250 (450000)
I0629 21:42:27.137476 57087 net.cpp:157] Top shape: 1 18 100 250 (450000)
I0629 21:42:27.137488 57087 net.cpp:165] Memory required for data: 4255000084
I0629 21:42:27.137511 57087 layer_factory.hpp:77] Creating layer rpn_bbox_pred
I0629 21:42:27.137534 57087 net.cpp:106] Creating Layer rpn_bbox_pred
I0629 21:42:27.137558 57087 net.cpp:454] rpn_bbox_pred <- rpn/output_rpn_relu/3x3_0_split_1
I0629 21:42:27.137575 57087 net.cpp:411] rpn_bbox_pred -> rpn_bbox_pred
I0629 21:42:27.144625 57087 net.cpp:150] Setting up rpn_bbox_pred
I0629 21:42:27.144672 57087 net.cpp:157] Top shape: 1 36 100 250 (900000)
I0629 21:42:27.144688 57087 net.cpp:165] Memory required for data: 4258600084
I0629 21:42:27.144706 57087 layer_factory.hpp:77] Creating layer rpn_bbox_pred_rpn_bbox_pred_0_split
I0629 21:42:27.144721 57087 net.cpp:106] Creating Layer rpn_bbox_pred_rpn_bbox_pred_0_split
I0629 21:42:27.144749 57087 net.cpp:454] rpn_bbox_pred_rpn_bbox_pred_0_split <- rpn_bbox_pred
I0629 21:42:27.144779 57087 net.cpp:411] rpn_bbox_pred_rpn_bbox_pred_0_split -> rpn_bbox_pred_rpn_bbox_pred_0_split_0
I0629 21:42:27.144814 57087 net.cpp:411] rpn_bbox_pred_rpn_bbox_pred_0_split -> rpn_bbox_pred_rpn_bbox_pred_0_split_1
I0629 21:42:27.144912 57087 net.cpp:150] Setting up rpn_bbox_pred_rpn_bbox_pred_0_split
I0629 21:42:27.144942 57087 net.cpp:157] Top shape: 1 36 100 250 (900000)
I0629 21:42:27.144956 57087 net.cpp:157] Top shape: 1 36 100 250 (900000)
I0629 21:42:27.144979 57087 net.cpp:165] Memory required for data: 4265800084
I0629 21:42:27.144994 57087 layer_factory.hpp:77] Creating layer rpn_cls_score_reshape
I0629 21:42:27.145017 57087 net.cpp:106] Creating Layer rpn_cls_score_reshape
I0629 21:42:27.145040 57087 net.cpp:454] rpn_cls_score_reshape <- rpn_cls_score_rpn_cls_score_0_split_0
I0629 21:42:27.145059 57087 net.cpp:411] rpn_cls_score_reshape -> rpn_cls_score_reshape
I0629 21:42:27.145136 57087 net.cpp:150] Setting up rpn_cls_score_reshape
I0629 21:42:27.145161 57087 net.cpp:157] Top shape: 1 2 900 250 (450000)
I0629 21:42:27.145174 57087 net.cpp:165] Memory required for data: 4267600084
I0629 21:42:27.145187 57087 layer_factory.hpp:77] Creating layer rpn_cls_score_reshape_rpn_cls_score_reshape_0_split
I0629 21:42:27.145203 57087 net.cpp:106] Creating Layer rpn_cls_score_reshape_rpn_cls_score_reshape_0_split
I0629 21:42:27.145220 57087 net.cpp:454] rpn_cls_score_reshape_rpn_cls_score_reshape_0_split <- rpn_cls_score_reshape
I0629 21:42:27.145238 57087 net.cpp:411] rpn_cls_score_reshape_rpn_cls_score_reshape_0_split -> rpn_cls_score_reshape_rpn_cls_score_reshape_0_split_0
I0629 21:42:27.145264 57087 net.cpp:411] rpn_cls_score_reshape_rpn_cls_score_reshape_0_split -> rpn_cls_score_reshape_rpn_cls_score_reshape_0_split_1
I0629 21:42:27.145351 57087 net.cpp:150] Setting up rpn_cls_score_reshape_rpn_cls_score_reshape_0_split
I0629 21:42:27.145376 57087 net.cpp:157] Top shape: 1 2 900 250 (450000)
I0629 21:42:27.145390 57087 net.cpp:157] Top shape: 1 2 900 250 (450000)
I0629 21:42:27.145406 57087 net.cpp:165] Memory required for data: 4271200084
I0629 21:42:27.145434 57087 layer_factory.hpp:77] Creating layer rpn-data
I0629 21:42:27.146651 57087 net.cpp:106] Creating Layer rpn-data
I0629 21:42:27.146692 57087 net.cpp:454] rpn-data <- rpn_cls_score_rpn_cls_score_0_split_1
I0629 21:42:27.146721 57087 net.cpp:454] rpn-data <- gt_boxes_input-data_2_split_0
I0629 21:42:27.146736 57087 net.cpp:454] rpn-data <- im_info_input-data_1_split_0
I0629 21:42:27.146751 57087 net.cpp:454] rpn-data <- data_input-data_0_split_1
I0629 21:42:27.146793 57087 net.cpp:411] rpn-data -> rpn_labels
I0629 21:42:27.146823 57087 net.cpp:411] rpn-data -> rpn_bbox_targets
I0629 21:42:27.146843 57087 net.cpp:411] rpn-data -> rpn_bbox_inside_weights
I0629 21:42:27.146873 57087 net.cpp:411] rpn-data -> rpn_bbox_outside_weights
I0629 21:42:27.149293 57087 net.cpp:150] Setting up rpn-data
I0629 21:42:27.149338 57087 net.cpp:157] Top shape: 1 1 900 250 (225000)
I0629 21:42:27.149355 57087 net.cpp:157] Top shape: 1 36 100 250 (900000)
I0629 21:42:27.149374 57087 net.cpp:157] Top shape: 1 36 100 250 (900000)
I0629 21:42:27.149389 57087 net.cpp:157] Top shape: 1 36 100 250 (900000)
I0629 21:42:27.149412 57087 net.cpp:165] Memory required for data: 4282900084
I0629 21:42:27.149431 57087 layer_factory.hpp:77] Creating layer rpn_loss_cls
I0629 21:42:27.149453 57087 net.cpp:106] Creating Layer rpn_loss_cls
I0629 21:42:27.149473 57087 net.cpp:454] rpn_loss_cls <- rpn_cls_score_reshape_rpn_cls_score_reshape_0_split_0
I0629 21:42:27.149493 57087 net.cpp:454] rpn_loss_cls <- rpn_labels
…
I0629 21:42:27.158788 57087 net.cpp:157] Top shape: (1)
I0629 21:42:27.158818 57087 net.cpp:160]     with loss weight 1
I0629 21:42:27.158844 57087 net.cpp:165] Memory required for data: 4282900092
I0629 21:42:27.158871 57087 layer_factory.hpp:77] Creating layer rpn_cls_prob
I0629 21:42:27.158898 57087 net.cpp:106] Creating Layer rpn_cls_prob
I0629 21:42:27.158927 57087 net.cpp:454] rpn_cls_prob <- rpn_cls_score_reshape_rpn_cls_score_reshape_0_split_1
I0629 21:42:27.158943 57087 net.cpp:411] rpn_cls_prob -> rpn_cls_prob
I0629 21:42:27.159267 57087 net.cpp:150] Setting up rpn_cls_prob
I0629 21:42:27.159301 57087 net.cpp:157] Top shape: 1 2 900 250 (450000)
I0629 21:42:27.159315 57087 net.cpp:165] Memory required for data: 4284700092
I0629 21:42:27.159340 57087 layer_factory.hpp:77] Creating layer rpn_cls_prob_reshape
I0629 21:42:27.159356 57087 net.cpp:106] Creating Layer rpn_cls_prob_reshape
I0629 21:42:27.159370 57087 net.cpp:454] rpn_cls_prob_reshape <- rpn_cls_prob
I0629 21:42:27.159399 57087 net.cpp:411] rpn_cls_prob_reshape -> rpn_cls_prob_reshape
I0629 21:42:27.159466 57087 net.cpp:150] Setting up rpn_cls_prob_reshape
I0629 21:42:27.159492 57087 net.cpp:157] Top shape: 1 18 100 250 (450000)
I0629 21:42:27.159504 57087 net.cpp:165] Memory required for data: 4286500092
I0629 21:42:27.159518 57087 layer_factory.hpp:77] Creating layer proposal
I0629 21:42:27.160785 57087 net.cpp:106] Creating Layer proposal
I0629 21:42:27.160828 57087 net.cpp:454] proposal <- rpn_cls_prob_reshape
I0629 21:42:27.160857 57087 net.cpp:454] proposal <- rpn_bbox_pred_rpn_bbox_pred_0_split_1
I0629 21:42:27.160918 57087 net.cpp:454] proposal <- im_info_input-data_1_split_1
I0629 21:42:27.160943 57087 net.cpp:411] proposal -> rpn_rois
I0629 21:42:27.162670 57087 net.cpp:150] Setting up proposal
I0629 21:42:27.162714 57087 net.cpp:157] Top shape: 1 5 (5)
I0629 21:42:27.162735 57087 net.cpp:165] Memory required for data: 4286500112
I0629 21:42:27.162750 57087 layer_factory.hpp:77] Creating layer roi-data
I0629 21:42:27.162998 57087 net.cpp:106] Creating Layer roi-data
I0629 21:42:27.163038 57087 net.cpp:454] roi-data <- rpn_rois
I0629 21:42:27.163058 57087 net.cpp:454] roi-data <- gt_boxes_input-data_2_split_1
I0629 21:42:27.163075 57087 net.cpp:411] roi-data -> rois
I0629 21:42:27.163100 57087 net.cpp:411] roi-data -> labels
I0629 21:42:27.163120 57087 net.cpp:411] roi-data -> bbox_targets
I0629 21:42:27.163144 57087 net.cpp:411] roi-data -> bbox_inside_weights
I0629 21:42:27.163161 57087 net.cpp:411] roi-data -> bbox_outside_weights
I0629 21:42:27.163628 57087 net.cpp:150] Setting up roi-data
I0629 21:42:27.163669 57087 net.cpp:157] Top shape: 1 5 (5)
I0629 21:42:27.163694 57087 net.cpp:157] Top shape: 1 1 (1)
I0629 21:42:27.163708 57087 net.cpp:157] Top shape: 1 84 (84)
I0629 21:42:27.163722 57087 net.cpp:157] Top shape: 1 84 (84)
I0629 21:42:27.163739 57087 net.cpp:157] Top shape: 1 84 (84)
I0629 21:42:27.163753 57087 net.cpp:165] Memory required for data: 4286501144
I0629 21:42:27.163777 57087 layer_factory.hpp:77] Creating layer roi_pool5
I0629 21:42:27.163800 57087 net.cpp:106] Creating Layer roi_pool5
I0629 21:42:27.163821 57087 net.cpp:454] roi_pool5 <- newP3_newP3_0_split_1
I0629 21:42:27.163837 57087 net.cpp:454] roi_pool5 <- rois
I0629 21:42:27.163852 57087 net.cpp:411] roi_pool5 -> rcnn_pool5
I0629 21:42:27.163885 57087 roi_pooling_layer.cpp:30] Spatial scale: 0.125
I0629 21:42:27.163995 57087 net.cpp:150] Setting up roi_pool5
I0629 21:42:27.164021 57087 net.cpp:157] Top shape: 1 256 7 7 (12544)
I0629 21:42:27.164034 57087 net.cpp:165] Memory required for data: 4286551320
I0629 21:42:27.164048 57087 layer_factory.hpp:77] Creating layer rcnn_fc6
I0629 21:42:27.164068 57087 net.cpp:106] Creating Layer rcnn_fc6
I0629 21:42:27.164088 57087 net.cpp:454] rcnn_fc6 <- rcnn_pool5
I0629 21:42:27.164103 57087 net.cpp:411] rcnn_fc6 -> rcnn_fc6
I0629 21:42:27.505674 57087 net.cpp:150] Setting up rcnn_fc6
I0629 21:42:27.505738 57087 net.cpp:157] Top shape: 1 4096 (4096)
I0629 21:42:27.505743 57087 net.cpp:165] Memory required for data: 4286567704
I0629 21:42:27.505755 57087 layer_factory.hpp:77] Creating layer relu6
I0629 21:42:27.505770 57087 net.cpp:106] Creating Layer relu6
I0629 21:42:27.505776 57087 net.cpp:454] relu6 <- rcnn_fc6
I0629 21:42:27.505784 57087 net.cpp:397] relu6 -> rcnn_fc6 (in-place)
I0629 21:42:27.506909 57087 net.cpp:150] Setting up relu6
I0629 21:42:27.506930 57087 net.cpp:157] Top shape: 1 4096 (4096)
I0629 21:42:27.506934 57087 net.cpp:165] Memory required for data: 4286584088
I0629 21:42:27.506938 57087 layer_factory.hpp:77] Creating layer drop6
I0629 21:42:27.506963 57087 net.cpp:106] Creating Layer drop6
I0629 21:42:27.506994 57087 net.cpp:454] drop6 <- rcnn_fc6
I0629 21:42:27.507010 57087 net.cpp:397] drop6 -> rcnn_fc6 (in-place)
I0629 21:42:27.507087 57087 net.cpp:150] Setting up drop6
I0629 21:42:27.507112 57087 net.cpp:157] Top shape: 1 4096 (4096)
I0629 21:42:27.507123 57087 net.cpp:165] Memory required for data: 4286600472
I0629 21:42:27.507138 57087 layer_factory.hpp:77] Creating layer fc7
I0629 21:42:27.507158 57087 net.cpp:106] Creating Layer fc7
I0629 21:42:27.507170 57087 net.cpp:454] fc7 <- rcnn_fc6
I0629 21:42:27.507189 57087 net.cpp:411] fc7 -> fc7
I0629 21:42:27.616619 57087 net.cpp:150] Setting up fc7
I0629 21:42:27.616675 57087 net.cpp:157] Top shape: 1 4096 (4096)
I0629 21:42:27.616680 57087 net.cpp:165] Memory required for data: 4286616856
I0629 21:42:27.616693 57087 layer_factory.hpp:77] Creating layer relu7
I0629 21:42:27.616719 57087 net.cpp:106] Creating Layer relu7
I0629 21:42:27.616760 57087 net.cpp:454] relu7 <- fc7
I0629 21:42:27.616806 57087 net.cpp:397] relu7 -> fc7 (in-place)
I0629 21:42:27.617120 57087 net.cpp:150] Setting up relu7
I0629 21:42:27.617138 57087 net.cpp:157] Top shape: 1 4096 (4096)
I0629 21:42:27.617144 57087 net.cpp:165] Memory required for data: 4286633240
I0629 21:42:27.617149 57087 layer_factory.hpp:77] Creating layer drop7
I0629 21:42:27.617174 57087 net.cpp:106] Creating Layer drop7
I0629 21:42:27.617187 57087 net.cpp:454] drop7 <- fc7
I0629 21:42:27.617202 57087 net.cpp:397] drop7 -> fc7 (in-place)
I0629 21:42:27.617272 57087 net.cpp:150] Setting up drop7
I0629 21:42:27.617290 57087 net.cpp:157] Top shape: 1 4096 (4096)
I0629 21:42:27.617292 57087 net.cpp:165] Memory required for data: 4286649624
I0629 21:42:27.617295 57087 layer_factory.hpp:77] Creating layer fc7_drop7_0_split
I0629 21:42:27.617305 57087 net.cpp:106] Creating Layer fc7_drop7_0_split
I0629 21:42:27.617322 57087 net.cpp:454] fc7_drop7_0_split <- fc7
I0629 21:42:27.617338 57087 net.cpp:411] fc7_drop7_0_split -> fc7_drop7_0_split_0
I0629 21:42:27.617355 57087 net.cpp:411] fc7_drop7_0_split -> fc7_drop7_0_split_1
I0629 21:42:27.617461 57087 net.cpp:150] Setting up fc7_drop7_0_split
I0629 21:42:27.617477 57087 net.cpp:157] Top shape: 1 4096 (4096)
I0629 21:42:27.617481 57087 net.cpp:157] Top shape: 1 4096 (4096)
I0629 21:42:27.617485 57087 net.cpp:165] Memory required for data: 4286682392
I0629 21:42:27.617487 57087 layer_factory.hpp:77] Creating layer cls_score
I0629 21:42:27.617496 57087 net.cpp:106] Creating Layer cls_score
I0629 21:42:27.617514 57087 net.cpp:454] cls_score <- fc7_drop7_0_split_0
I0629 21:42:27.617533 57087 net.cpp:411] cls_score -> cls_score
I0629 21:42:27.619827 57087 net.cpp:150] Setting up cls_score
I0629 21:42:27.619844 57087 net.cpp:157] Top shape: 1 21 (21)
I0629 21:42:27.619848 57087 net.cpp:165] Memory required for data: 4286682476
I0629 21:42:27.619854 57087 layer_factory.hpp:77] Creating layer bbox_pred
I0629 21:42:27.619882 57087 net.cpp:106] Creating Layer bbox_pred
I0629 21:42:27.619899 57087 net.cpp:454] bbox_pred <- fc7_drop7_0_split_1
I0629 21:42:27.619942 57087 net.cpp:411] bbox_pred -> bbox_pred
I0629 21:42:27.629294 57087 net.cpp:150] Setting up bbox_pred
I0629 21:42:27.629317 57087 net.cpp:157] Top shape: 1 84 (84)
I0629 21:42:27.629320 57087 net.cpp:165] Memory required for data: 4286682812
I0629 21:42:27.629328 57087 layer_factory.hpp:77] Creating layer loss_cls
I0629 21:42:27.629335 57087 net.cpp:106] Creating Layer loss_cls
I0629 21:42:27.629362 57087 net.cpp:454] loss_cls <- cls_score
I0629 21:42:27.629379 57087 net.cpp:454] loss_cls <- labels
I0629 21:42:27.629395 57087 net.cpp:411] loss_cls -> loss_cls
…
