…
stepsize: 50000
snapshot: 0
snapshot_prefix: "fpn"
average_loss: 100
iter_size: 2
I0728 10:15:17.955852 52794 solver.cpp:81] Creating training net from train_net file: models/pascal_voc/VGG16/FP_Net_end2end/train.prototxt
I0728 10:15:17.957417 52794 net.cpp:49] Initializing net from parameters: 
name: "VGG_ILSVRC_16_layers"
state {
  phase: TRAIN
}
layer {
  name: "input-data"
  type: "Python"
  top: "data"
  top: "im_info"
  top: "gt_boxes"
  python_param {
    module: "roi_data_layer.layer"
    layer: "RoIDataLayer"
    param_str: "\'num_classes\': 21"
  }
}
layer {
  name: "conv1_1"
  type: "Convolution"
  bottom: "data"
  top: "conv1_1"
  param {
    lr_mult: 0
    decay_mult: 0
  }
  param {
    lr_mult: 0
    decay_mult: 0
  }
  convolution_param {
    num_output: 64
    pad: 1
    kernel_size: 3
  }
}
layer {
  name: "relu1_1"
  type: "ReLU"
  bottom: "conv1_1"
  top: "conv1_1"
}
layer {
  name: "conv1_2"
  type: "Convolution"
  bottom: "conv1_1"
  top: "conv1_2"
  param {
    lr_mult: 0
    decay_mult: 0
  }
  param {
    lr_mult: 0
    decay_mult: 0
  }
  convolution_param {
    num_output: 64
    pad: 1
    kernel_size: 3
  }
}
layer {
  name: "relu1_2"
  type: "ReLU"
  bottom: "conv1_2"
  top: "conv1_2"
}
layer {
  name: "pool1"
  type: "Pooling"
  bottom: "conv1_2"
  top: "pool1"
  pooling_param {
    pool: MAX
    kernel_size: 2
    stride: 2
  }
}
layer {
  name: "conv2_1"
  type: "Convolution"
  bottom: "pool1"
  top: "conv2_1"
  param {
    lr_mult: 0
    decay_mult: 0
  }
  param {
    lr_mult: 0
    decay_mult: 0
  }
  convolution_param {
    num_output: 128
    pad: 1
    kernel_size: 3
  }
}
layer {
  name: "relu2_1"
  type: "ReLU"
  bottom: "conv2_1"
  top: "conv2_1"
}
layer {
  name: "conv2_2"
  type: "Convolution"
  bottom: "conv2_1"
  top: "conv2_2"
  param {
    lr_mult: 0
    decay_mult: 0
  }
  param {
    lr_mult: 0
    decay_mult: 0
  }
  convolution_param {
    num_output: 128
    pad: 1
    kernel_size: 3
  }
}
layer {
  name: "relu2_2"
  type: "ReLU"
  bottom: "conv2_2"
  top: "conv2_2"
}
layer {
  name: "pool2"
  type: "Pooling"
  bottom: "conv2_2"
  top: "pool2"
  pooling_param {
    pool: MAX
    kernel_size: 2
    stride: 2
  }
}
layer {
  name: "conv3_1"
  type: "Convolution"
  bottom: "pool2"
  top: "conv3_1"
  param {
    lr_mult: 1
  }
  param {
    lr_mult: 2
  }
  convolution_param {
    num_output: 256
    pad: 1
    kernel_size: 3
  }
}
layer {
  name: "relu3_1"
  type: "ReLU"
  bottom: "conv3_1"
  top: "conv3_1"
}
layer {
  name: "conv3_2"
  type: "Convolution"
  bottom: "conv3_1"
  top: "conv3_2"
  param {
    lr_mult: 1
  }
  param {
    lr_mult: 2
  }
  convolution_param {
    num_output: 256
    pad: 1
    kernel_size: 3
  }
}
layer {
  name: "relu3_2"
  type: "ReLU"
  bottom: "conv3_2"
  top: "conv3_2"
}
layer {
  name: "conv3_3"
  type: "Convolution"
  bottom: "conv3_2"
  top: "conv3_3"
  param {
    lr_mult: 1
  }
  param {
    lr_mult: 2
  }
  convolution_param {
    num_output: 256
    pad: 1
    kernel_size: 3
  }
}
layer {
  name: "relu3_3"
  type: "ReLU"
  bottom: "conv3_3"
  top: "conv3_3"
}
layer {
  name: "pool3"
  type: "Pooling"
  bottom: "conv3_3"
  top: "pool3"
  pooling_param {
    pool: MAX
    kernel_size: 2
    stride: 2
  }
}
layer {
  name: "conv4_1"
  type: "Convolution"
  bottom: "pool3"
  top: "conv4_1"
  param {
    lr_mult: 1
  }
  param {
    lr_mult: 2
  }
  convolution_param {
    num_output: 512
    pad: 1
    kernel_size: 3
  }
}
layer {
  name: "relu4_1"
  type: "ReLU"
  bottom: "conv4_1"
  top: "conv4_1"
}
layer {
  name: "conv4_2"
  type: "Convolution"
  bottom: "conv4_1"
  top: "conv4_2"
  param {
    lr_mult: 1
  }
  param {
    lr_mult: 2
  }
  convolution_param {
    num_output: 512
    pad: 1
    kernel_size: 3
  }
}
layer {
  name: "relu4_2"
  type: "ReLU"
  bottom: "conv4_2"
  top: "conv4_2"
}
layer {
  name: "conv4_3"
  type: "Convolution"
  bottom: "conv4_2"
  top: "conv4_3"
  param {
    lr_mult: 1
  }
  param {
    lr_mult: 2
  }
  convolution_param {
    num_output: 512
    pad: 1
    kernel_size: 3
  }
}
layer {
  name: "relu4_3"
  type: "ReLU"
  bottom: "conv4_3"
  top: "conv4_3"
}
layer {
  name: "pool4"
  type: "Pooling"
  bottom: "conv4_3"
  top: "pool4"
  pooling_param {
    pool: MAX
    kernel_size: 2
    stride: 2
  }
}
layer {
  name: "conv5_1"
  type: "Convolution"
  bottom: "pool4"
  top: "conv5_1"
  param {
    lr_mult: 1
  }
  param {
    lr_mult: 2
  }
  convolution_param {
    num_output: 512
    pad: 1
    kernel_size: 3
  }
}
layer {
  name: "relu5_1"
  type: "ReLU"
  bottom: "conv5_1"
  top: "conv5_1"
}
layer {
  name: "conv5_2"
  type: "Convolution"
  bottom: "conv5_1"
  top: "conv5_2"
  param {
    lr_mult: 1
  }
  param {
    lr_mult: 2
  }
  convolution_param {
    num_output: 512
    pad: 1
    kernel_size: 3
  }
}
layer {
  name: "relu5_2"
  type: "ReLU"
  bottom: "conv5_2"
  top: "conv5_2"
}
layer {
  name: "conv5_3"
  type: "Convolution"
  bottom: "conv5_2"
  top: "conv5_3"
  param {
    lr_mult: 1
  }
  param {
    lr_mult: 2
  }
  convolution_param {
    num_output: 512
    pad: 1
    kernel_size: 3
  }
}
layer {
  name: "relu5_3"
  type: "ReLU"
  bottom: "conv5_3"
  top: "conv5_3"
}
layer {
  name: "rpn_conv/3x3"
  type: "Convolution"
  bottom: "conv5_3"
  top: "rpn/output"
  param {
    lr_mult: 1
  }
  param {
    lr_mult: 2
  }
  convolution_param {
    num_output: 512
    pad: 1
    kernel_size: 3
    stride: 1
    weight_filler {
      type: "gaussian"
      std: 0.01
    }
    bias_filler {
      type: "constant"
      value: 0
    }
  }
}
layer {
  name: "rpn_relu/3x3"
  type: "ReLU"
  bottom: "rpn/output"
  top: "rpn/output"
}
layer {
  name: "rpn_cls_score"
  type: "Convolution"
  bottom: "rpn/output"
  top: "rpn_cls_score"
  param {
    lr_mult: 1
  }
  param {
    lr_mult: 2
  }
  convolution_param {
    num_output: 36
    pad: 0
    kernel_size: 1
    stride: 1
    weight_filler {
      type: "gaussian"
      std: 0.01
    }
    bias_filler {
      type: "constant"
      value: 0
    }
  }
}
layer {
  name: "rpn_bbox_pred"
  type: "Convolution"
  bottom: "rpn/output"
  top: "rpn_bbox_pred"
  param {
    lr_mult: 1
  }
  param {
    lr_mult: 2
  }
  convolution_param {
    num_output: 72
    pad: 0
    kernel_size: 1
    stride: 1
    weight_filler {
      type: "gaussian"
      std: 0.01
    }
    bias_filler {
      type: "constant"
      value: 0
    }
  }
}
layer {
  name: "rpn_cls_score_reshape"
  type: "Reshape"
  bottom: "rpn_cls_score"
  top: "rpn_cls_score_reshape"
  reshape_param {
    shape {
      dim: 0
      dim: 2
      dim: -1
      dim: 0
    }
  }
}
layer {
  name: "rpn-data"
  type: "Python"
  bottom: "rpn_cls_score"
  bottom: "gt_boxes"
  bottom: "im_info"
  bottom: "data"
  top: "rpn_labels"
  top: "rpn_bbox_targets"
  top: "rpn_bbox_inside_weights"
  top: "rpn_bbox_outside_weights"
  python_param {
    module: "rpn.anchor_target_layer"
    layer: "AnchorTargetLayer"
    param_str: "\'feat_stride\': 16"
  }
}
layer {
  name: "rpn_loss_cls"
  type: "SoftmaxWithLoss"
  bottom: "rpn_cls_score_reshape"
  bottom: "rpn_labels"
  top: "rpn_cls_loss"
  loss_weight: 1
  propagate_down: true
  propagate_down: false
  loss_param {
    ignore_label: -1
    normalize: true
  }
}
layer {
  name: "rpn_loss_bbox"
  type: "SmoothL1Loss"
  bottom: "rpn_bbox_pred"
  bottom: "rpn_bbox_targets"
  bottom: "rpn_bbox_inside_weights"
  bottom: "rpn_bbox_outside_weights"
  top: "rpn_loss_bbox"
  loss_weight: 1
  smooth_l1_loss_param {
    sigma: 3
  }
}
layer {
  name: "rpn_cls_prob"
  type: "Softmax"
  bottom: "rpn_cls_score_reshape"
  top: "rpn_cls_prob"
}
layer {
  name: "rpn_cls_prob_reshape"
  type: "Reshape"
  bottom: "rpn_cls_prob"
  top: "rpn_cls_prob_reshape"
  reshape_param {
    shape {
      dim: 0
      dim: 36
      dim: -1
      dim: 0
    }
  }
}
layer {
  name: "proposal"
  type: "Python"
  bottom: "rpn_cls_prob_reshape"
  bottom: "rpn_bbox_pred"
  bottom: "im_info"
  top: "rpn_rois"
  python_param {
    module: "rpn.proposal_layer"
    layer: "ProposalLayer"
    param_str: "\'feat_stride\': 16"
  }
}
layer {
  name: "roi-data"
  type: "Python"
  bottom: "rpn_rois"
  bottom: "gt_boxes"
  top: "rois"
  top: "labels"
  top: "bbox_targets"
  top: "bbox_inside_weights"
  top: "bbox_outside_weights"
  python_param {
    module: "rpn.proposal_target_layer"
    layer: "ProposalTargetLayer"
    param_str: "\'num_classes\': 21"
  }
}
layer {
  name: "roi_pool5_readonly"
  type: "ROIPooling"
  bottom: "conv5_3"
  bottom: "rois"
  top: "pool5_readonly"
  propagate_down: false
  propagate_down: false
  roi_pooling_param {
    pooled_h: 7
    pooled_w: 7
    spatial_scale: 0.0625
  }
}
layer {
  name: "fc6_readonly"
  type: "InnerProduct"
  bottom: "pool5_readonly"
  top: "fc6_readonly"
  param {
    name: "fc6_w"
  }
  param {
    name: "fc6_b"
  }
  propagate_down: false
  inner_product_param {
    num_output: 4096
  }
}
layer {
  name: "relu6_readonly"
  type: "ReLU"
  bottom: "fc6_readonly"
  top: "fc6_readonly"
  propagate_down: false
}
layer {
  name: "drop6_readonly"
  type: "Dropout"
  bottom: "fc6_readonly"
  top: "fc6_readonly"
  propagate_down: false
  dropout_param {
    dropout_ratio: 0.5
  }
}
layer {
  name: "fc7_readonly"
  type: "InnerProduct"
  bottom: "fc6_readonly"
  top: "fc7_readonly"
  param {
    name: "fc7_w"
  }
  param {
    name: "fc7_b"
  }
  propagate_down: false
  inner_product_param {
    num_output: 4096
  }
}
layer {
  name: "relu7_readonly"
  type: "ReLU"
  bottom: "fc7_readonly"
  top: "fc7_readonly"
  propagate_down: false
}
layer {
  name: "drop7_readonly"
  type: "Dropout"
  bottom: "fc7_readonly"
  top: "fc7_readonly"
  propagate_down: false
  dropout_param {
    dropout_ratio: 0.5
  }
}
layer {
  name: "cls_score_readonly"
  type: "InnerProduct"
  bottom: "fc7_readonly"
  top: "cls_score_readonly"
  param {
    name: "cls_score_w"
  }
  param {
    name: "cls_score_b"
  }
  propagate_down: false
  inner_product_param {
    num_output: 21
    weight_filler {
      type: "gaussian"
      std: 0.01
    }
    bias_filler {
      type: "constant"
      value: 0
    }
  }
}
layer {
  name: "bbox_pred_readonly"
  type: "InnerProduct"
  bottom: "fc7_readonly"
  top: "bbox_pred_readonly"
  param {
    name: "bbox_pred_w"
  }
  param {
    name: "bbox_pred_b"
  }
  propagate_down: false
  inner_product_param {
    num_output: 84
    weight_filler {
      type: "gaussian"
      std: 0.001
    }
    bias_filler {
      type: "constant"
      value: 0
    }
  }
}
layer {
  name: "cls_prob_readonly"
  type: "Softmax"
  bottom: "cls_score_readonly"
  top: "cls_prob_readonly"
  propagate_down: false
}
layer {
  name: "hard_roi_mining"
  type: "Python"
  bottom: "cls_prob_readonly"
  bottom: "bbox_pred_readonly"
  bottom: "rois"
  bottom: "labels"
  bottom: "bbox_targets"
  bottom: "bbox_inside_weights"
  bottom: "bbox_outside_weights"
  top: "rois_hard"
  top: "labels_hard"
  top: "bbox_targets_hard"
  top: "bbox_inside_weights_hard"
  top: "bbox_outside_weights_hard"
  propagate_down: false
  propagate_down: false
  propagate_down: false
  propagate_down: false
  propagate_down: false
  propagate_down: false
  propagate_down: false
  python_param {
    module: "roi_data_layer.layer"
    layer: "OHEMDataLayer"
    param_str: "\'num_classes\': 21"
  }
}
layer {
  name: "roi_pool5"
  type: "ROIPooling"
  bottom: "conv5_3"
  bottom: "rois_hard"
  top: "pool5"
  roi_pooling_param {
    pooled_h: 7
    pooled_w: 7
    spatial_scale: 0.0625
  }
}
layer {
  name: "fc6"
  type: "InnerProduct"
  bottom: "pool5"
  top: "fc6"
  param {
    name: "fc6_w"
    lr_mult: 1
  }
  param {
    name: "fc6_b"
    lr_mult: 2
  }
  inner_product_param {
    num_output: 4096
  }
}
layer {
  name: "relu6"
  type: "ReLU"
  bottom: "fc6"
  top: "fc6"
}
layer {
  name: "drop6"
  type: "Dropout"
  bottom: "fc6"
  top: "fc6"
  dropout_param {
    dropout_ratio: 0.5
  }
}
layer {
  name: "fc7"
  type: "InnerProduct"
  bottom: "fc6"
  top: "fc7"
  param {
    name: "fc7_w"
    lr_mult: 1
  }
  param {
    name: "fc7_b"
    lr_mult: 2
  }
  inner_product_param {
    num_output: 4096
  }
}
layer {
  name: "relu7"
  type: "ReLU"
  bottom: "fc7"
  top: "fc7"
}
layer {
  name: "drop7"
  type: "Dropout"
  bottom: "fc7"
  top: "fc7"
  dropout_param {
    dropout_ratio: 0.5
  }
}
layer {
  name: "cls_score"
  type: "InnerProduct"
  bottom: "fc7"
  top: "cls_score"
  param {
    name: "cls_score_w"
    lr_mult: 1
  }
  param {
    name: "cls_score_b"
    lr_mult: 2
  }
  inner_product_param {
    num_output: 21
    weight_filler {
      type: "gaussian"
      std: 0.01
    }
    bias_filler {
      type: "constant"
      value: 0
    }
  }
}
layer {
  name: "bbox_pred"
  type: "InnerProduct"
  bottom: "fc7"
  top: "bbox_pred"
  param {
    name: "bbox_pred_w"
    lr_mult: 1
  }
  param {
    name: "bbox_pred_b"
    lr_mult: 2
  }
  inner_product_param {
    num_output: 84
    weight_filler {
      type: "gaussian"
      std: 0.001
    }
    bias_filler {
      type: "constant"
      value: 0
    }
  }
}
layer {
  name: "loss_cls"
  type: "SoftmaxWithLoss"
  bottom: "cls_score"
  bottom: "labels_hard"
  top: "loss_cls"
  loss_weight: 1
  propagate_down: true
  propagate_down: false
}
layer {
  name: "loss_bbox"
  type: "SmoothL1Loss"
  bottom: "bbox_pred"
  bottom: "bbox_targets_hard"
  bottom: "bbox_inside_weights_hard"
  bottom: "bbox_outside_weights_hard"
  top: "loss_bbox"
  loss_weight: 1
}
I0728 10:15:17.957775 52794 layer_factory.hpp:77] Creating layer input-data
I0728 10:15:17.963614 52794 net.cpp:106] Creating Layer input-data
I0728 10:15:17.963631 52794 net.cpp:411] input-data -> data
I0728 10:15:17.963649 52794 net.cpp:411] input-data -> im_info
I0728 10:15:17.963655 52794 net.cpp:411] input-data -> gt_boxes
RoiDataLayer: name_to_top: {'gt_boxes': 2, 'data': 0, 'im_info': 1}
I0728 10:15:17.980199 52794 net.cpp:150] Setting up input-data
I0728 10:15:17.980227 52794 net.cpp:157] Top shape: 1 3 375 520 (585000)
I0728 10:15:17.980232 52794 net.cpp:157] Top shape: 1 3 (3)
I0728 10:15:17.980237 52794 net.cpp:157] Top shape: 1 4 (4)
I0728 10:15:17.980239 52794 net.cpp:165] Memory required for data: 2340028
I0728 10:15:17.980247 52794 layer_factory.hpp:77] Creating layer data_input-data_0_split
I0728 10:15:17.980257 52794 net.cpp:106] Creating Layer data_input-data_0_split
I0728 10:15:17.980262 52794 net.cpp:454] data_input-data_0_split <- data
I0728 10:15:17.980271 52794 net.cpp:411] data_input-data_0_split -> data_input-data_0_split_0
I0728 10:15:17.980278 52794 net.cpp:411] data_input-data_0_split -> data_input-data_0_split_1
I0728 10:15:17.980342 52794 net.cpp:150] Setting up data_input-data_0_split
I0728 10:15:17.980355 52794 net.cpp:157] Top shape: 1 3 375 520 (585000)
I0728 10:15:17.980360 52794 net.cpp:157] Top shape: 1 3 375 520 (585000)
I0728 10:15:17.980363 52794 net.cpp:165] Memory required for data: 7020028
I0728 10:15:17.980366 52794 layer_factory.hpp:77] Creating layer im_info_input-data_1_split
I0728 10:15:17.980374 52794 net.cpp:106] Creating Layer im_info_input-data_1_split
I0728 10:15:17.980378 52794 net.cpp:454] im_info_input-data_1_split <- im_info
I0728 10:15:17.980382 52794 net.cpp:411] im_info_input-data_1_split -> im_info_input-data_1_split_0
I0728 10:15:17.980388 52794 net.cpp:411] im_info_input-data_1_split -> im_info_input-data_1_split_1
I0728 10:15:17.980433 52794 net.cpp:150] Setting up im_info_input-data_1_split
I0728 10:15:17.980443 52794 net.cpp:157] Top shape: 1 3 (3)
I0728 10:15:17.980448 52794 net.cpp:157] Top shape: 1 3 (3)
I0728 10:15:17.980451 52794 net.cpp:165] Memory required for data: 7020052
I0728 10:15:17.980454 52794 layer_factory.hpp:77] Creating layer gt_boxes_input-data_2_split
I0728 10:15:17.980458 52794 net.cpp:106] Creating Layer gt_boxes_input-data_2_split
I0728 10:15:17.980463 52794 net.cpp:454] gt_boxes_input-data_2_split <- gt_boxes
I0728 10:15:17.980468 52794 net.cpp:411] gt_boxes_input-data_2_split -> gt_boxes_input-data_2_split_0
I0728 10:15:17.980473 52794 net.cpp:411] gt_boxes_input-data_2_split -> gt_boxes_input-data_2_split_1
I0728 10:15:17.980518 52794 net.cpp:150] Setting up gt_boxes_input-data_2_split
I0728 10:15:17.980528 52794 net.cpp:157] Top shape: 1 4 (4)
I0728 10:15:17.980532 52794 net.cpp:157] Top shape: 1 4 (4)
I0728 10:15:17.980535 52794 net.cpp:165] Memory required for data: 7020084
I0728 10:15:17.980538 52794 layer_factory.hpp:77] Creating layer conv1_1
I0728 10:15:17.980556 52794 net.cpp:106] Creating Layer conv1_1
I0728 10:15:17.980564 52794 net.cpp:454] conv1_1 <- data_input-data_0_split_0
I0728 10:15:17.980571 52794 net.cpp:411] conv1_1 -> conv1_1
I0728 10:15:18.260227 52794 net.cpp:150] Setting up conv1_1
I0728 10:15:18.260277 52794 net.cpp:157] Top shape: 1 64 375 520 (12480000)
I0728 10:15:18.260282 52794 net.cpp:165] Memory required for data: 56940084
I0728 10:15:18.260303 52794 layer_factory.hpp:77] Creating layer relu1_1
I0728 10:15:18.260318 52794 net.cpp:106] Creating Layer relu1_1
I0728 10:15:18.260324 52794 net.cpp:454] relu1_1 <- conv1_1
I0728 10:15:18.260331 52794 net.cpp:397] relu1_1 -> conv1_1 (in-place)
I0728 10:15:18.261231 52794 net.cpp:150] Setting up relu1_1
I0728 10:15:18.261253 52794 net.cpp:157] Top shape: 1 64 375 520 (12480000)
I0728 10:15:18.261258 52794 net.cpp:165] Memory required for data: 106860084
I0728 10:15:18.261262 52794 layer_factory.hpp:77] Creating layer conv1_2
I0728 10:15:18.261274 52794 net.cpp:106] Creating Layer conv1_2
I0728 10:15:18.261278 52794 net.cpp:454] conv1_2 <- conv1_1
I0728 10:15:18.261286 52794 net.cpp:411] conv1_2 -> conv1_2
I0728 10:15:18.265589 52794 net.cpp:150] Setting up conv1_2
I0728 10:15:18.265614 52794 net.cpp:157] Top shape: 1 64 375 520 (12480000)
I0728 10:15:18.265619 52794 net.cpp:165] Memory required for data: 156780084
I0728 10:15:18.265630 52794 layer_factory.hpp:77] Creating layer relu1_2
I0728 10:15:18.265636 52794 net.cpp:106] Creating Layer relu1_2
I0728 10:15:18.265640 52794 net.cpp:454] relu1_2 <- conv1_2
I0728 10:15:18.265646 52794 net.cpp:397] relu1_2 -> conv1_2 (in-place)
I0728 10:15:18.265817 52794 net.cpp:150] Setting up relu1_2
I0728 10:15:18.265835 52794 net.cpp:157] Top shape: 1 64 375 520 (12480000)
I0728 10:15:18.265838 52794 net.cpp:165] Memory required for data: 206700084
I0728 10:15:18.265842 52794 layer_factory.hpp:77] Creating layer pool1
I0728 10:15:18.265854 52794 net.cpp:106] Creating Layer pool1
I0728 10:15:18.265858 52794 net.cpp:454] pool1 <- conv1_2
I0728 10:15:18.265864 52794 net.cpp:411] pool1 -> pool1
I0728 10:15:18.265941 52794 net.cpp:150] Setting up pool1
I0728 10:15:18.265966 52794 net.cpp:157] Top shape: 1 64 188 260 (3128320)
I0728 10:15:18.265969 52794 net.cpp:165] Memory required for data: 219213364
I0728 10:15:18.265972 52794 layer_factory.hpp:77] Creating layer conv2_1
I0728 10:15:18.265982 52794 net.cpp:106] Creating Layer conv2_1
I0728 10:15:18.265985 52794 net.cpp:454] conv2_1 <- pool1
I0728 10:15:18.265992 52794 net.cpp:411] conv2_1 -> conv2_1
I0728 10:15:18.269615 52794 net.cpp:150] Setting up conv2_1
I0728 10:15:18.269639 52794 net.cpp:157] Top shape: 1 128 188 260 (6256640)
I0728 10:15:18.269644 52794 net.cpp:165] Memory required for data: 244239924
I0728 10:15:18.269655 52794 layer_factory.hpp:77] Creating layer relu2_1
I0728 10:15:18.269662 52794 net.cpp:106] Creating Layer relu2_1
I0728 10:15:18.269667 52794 net.cpp:454] relu2_1 <- conv2_1
I0728 10:15:18.269675 52794 net.cpp:397] relu2_1 -> conv2_1 (in-place)
I0728 10:15:18.269860 52794 net.cpp:150] Setting up relu2_1
I0728 10:15:18.269876 52794 net.cpp:157] Top shape: 1 128 188 260 (6256640)
I0728 10:15:18.269881 52794 net.cpp:165] Memory required for data: 269266484
I0728 10:15:18.269883 52794 layer_factory.hpp:77] Creating layer conv2_2
I0728 10:15:18.269893 52794 net.cpp:106] Creating Layer conv2_2
I0728 10:15:18.269897 52794 net.cpp:454] conv2_2 <- conv2_1
I0728 10:15:18.269902 52794 net.cpp:411] conv2_2 -> conv2_2
I0728 10:15:18.273020 52794 net.cpp:150] Setting up conv2_2
I0728 10:15:18.273056 52794 net.cpp:157] Top shape: 1 128 188 260 (6256640)
I0728 10:15:18.273061 52794 net.cpp:165] Memory required for data: 294293044
I0728 10:15:18.273071 52794 layer_factory.hpp:77] Creating layer relu2_2
I0728 10:15:18.273077 52794 net.cpp:106] Creating Layer relu2_2
I0728 10:15:18.273082 52794 net.cpp:454] relu2_2 <- conv2_2
I0728 10:15:18.273089 52794 net.cpp:397] relu2_2 -> conv2_2 (in-place)
I0728 10:15:18.273984 52794 net.cpp:150] Setting up relu2_2
I0728 10:15:18.274008 52794 net.cpp:157] Top shape: 1 128 188 260 (6256640)
I0728 10:15:18.274011 52794 net.cpp:165] Memory required for data: 319319604
I0728 10:15:18.274015 52794 layer_factory.hpp:77] Creating layer pool2
I0728 10:15:18.274022 52794 net.cpp:106] Creating Layer pool2
I0728 10:15:18.274026 52794 net.cpp:454] pool2 <- conv2_2
I0728 10:15:18.274032 52794 net.cpp:411] pool2 -> pool2
I0728 10:15:18.274104 52794 net.cpp:150] Setting up pool2
I0728 10:15:18.274112 52794 net.cpp:157] Top shape: 1 128 94 130 (1564160)
I0728 10:15:18.274116 52794 net.cpp:165] Memory required for data: 325576244
I0728 10:15:18.274119 52794 layer_factory.hpp:77] Creating layer conv3_1
I0728 10:15:18.274127 52794 net.cpp:106] Creating Layer conv3_1
I0728 10:15:18.274130 52794 net.cpp:454] conv3_1 <- pool2
I0728 10:15:18.274137 52794 net.cpp:411] conv3_1 -> conv3_1
I0728 10:15:18.278638 52794 net.cpp:150] Setting up conv3_1
I0728 10:15:18.278664 52794 net.cpp:157] Top shape: 1 256 94 130 (3128320)
I0728 10:15:18.278669 52794 net.cpp:165] Memory required for data: 338089524
I0728 10:15:18.278679 52794 layer_factory.hpp:77] Creating layer relu3_1
I0728 10:15:18.278688 52794 net.cpp:106] Creating Layer relu3_1
I0728 10:15:18.278692 52794 net.cpp:454] relu3_1 <- conv3_1
I0728 10:15:18.278697 52794 net.cpp:397] relu3_1 -> conv3_1 (in-place)
I0728 10:15:18.278884 52794 net.cpp:150] Setting up relu3_1
I0728 10:15:18.278903 52794 net.cpp:157] Top shape: 1 256 94 130 (3128320)
I0728 10:15:18.278905 52794 net.cpp:165] Memory required for data: 350602804
I0728 10:15:18.278909 52794 layer_factory.hpp:77] Creating layer conv3_2
I0728 10:15:18.278920 52794 net.cpp:106] Creating Layer conv3_2
I0728 10:15:18.278924 52794 net.cpp:454] conv3_2 <- conv3_1
I0728 10:15:18.278930 52794 net.cpp:411] conv3_2 -> conv3_2
I0728 10:15:18.283443 52794 net.cpp:150] Setting up conv3_2
I0728 10:15:18.283470 52794 net.cpp:157] Top shape: 1 256 94 130 (3128320)
I0728 10:15:18.283475 52794 net.cpp:165] Memory required for data: 363116084
I0728 10:15:18.283483 52794 layer_factory.hpp:77] Creating layer relu3_2
I0728 10:15:18.283489 52794 net.cpp:106] Creating Layer relu3_2
I0728 10:15:18.283495 52794 net.cpp:454] relu3_2 <- conv3_2
I0728 10:15:18.283501 52794 net.cpp:397] relu3_2 -> conv3_2 (in-place)
I0728 10:15:18.283687 52794 net.cpp:150] Setting up relu3_2
I0728 10:15:18.283704 52794 net.cpp:157] Top shape: 1 256 94 130 (3128320)
I0728 10:15:18.283707 52794 net.cpp:165] Memory required for data: 375629364
I0728 10:15:18.283711 52794 layer_factory.hpp:77] Creating layer conv3_3
I0728 10:15:18.283720 52794 net.cpp:106] Creating Layer conv3_3
I0728 10:15:18.283725 52794 net.cpp:454] conv3_3 <- conv3_2
I0728 10:15:18.283731 52794 net.cpp:411] conv3_3 -> conv3_3
I0728 10:15:18.288276 52794 net.cpp:150] Setting up conv3_3
I0728 10:15:18.288300 52794 net.cpp:157] Top shape: 1 256 94 130 (3128320)
I0728 10:15:18.288305 52794 net.cpp:165] Memory required for data: 388142644
I0728 10:15:18.288312 52794 layer_factory.hpp:77] Creating layer relu3_3
I0728 10:15:18.288318 52794 net.cpp:106] Creating Layer relu3_3
I0728 10:15:18.288322 52794 net.cpp:454] relu3_3 <- conv3_3
I0728 10:15:18.288331 52794 net.cpp:397] relu3_3 -> conv3_3 (in-place)
I0728 10:15:18.289250 52794 net.cpp:150] Setting up relu3_3
I0728 10:15:18.289273 52794 net.cpp:157] Top shape: 1 256 94 130 (3128320)
I0728 10:15:18.289276 52794 net.cpp:165] Memory required for data: 400655924
I0728 10:15:18.289280 52794 layer_factory.hpp:77] Creating layer pool3
I0728 10:15:18.289288 52794 net.cpp:106] Creating Layer pool3
I0728 10:15:18.289294 52794 net.cpp:454] pool3 <- conv3_3
I0728 10:15:18.289299 52794 net.cpp:411] pool3 -> pool3
I0728 10:15:18.289374 52794 net.cpp:150] Setting up pool3
I0728 10:15:18.289389 52794 net.cpp:157] Top shape: 1 256 47 65 (782080)
I0728 10:15:18.289393 52794 net.cpp:165] Memory required for data: 403784244
I0728 10:15:18.289397 52794 layer_factory.hpp:77] Creating layer conv4_1
I0728 10:15:18.289407 52794 net.cpp:106] Creating Layer conv4_1
I0728 10:15:18.289410 52794 net.cpp:454] conv4_1 <- pool3
I0728 10:15:18.289415 52794 net.cpp:411] conv4_1 -> conv4_1
I0728 10:15:18.295714 52794 net.cpp:150] Setting up conv4_1
I0728 10:15:18.295742 52794 net.cpp:157] Top shape: 1 512 47 65 (1564160)
I0728 10:15:18.295747 52794 net.cpp:165] Memory required for data: 410040884
I0728 10:15:18.295754 52794 layer_factory.hpp:77] Creating layer relu4_1
I0728 10:15:18.295761 52794 net.cpp:106] Creating Layer relu4_1
I0728 10:15:18.295765 52794 net.cpp:454] relu4_1 <- conv4_1
I0728 10:15:18.295771 52794 net.cpp:397] relu4_1 -> conv4_1 (in-place)
I0728 10:15:18.296680 52794 net.cpp:150] Setting up relu4_1
I0728 10:15:18.296701 52794 net.cpp:157] Top shape: 1 512 47 65 (1564160)
I0728 10:15:18.296705 52794 net.cpp:165] Memory required for data: 416297524
I0728 10:15:18.296710 52794 layer_factory.hpp:77] Creating layer conv4_2
I0728 10:15:18.296721 52794 net.cpp:106] Creating Layer conv4_2
I0728 10:15:18.296725 52794 net.cpp:454] conv4_2 <- conv4_1
I0728 10:15:18.296731 52794 net.cpp:411] conv4_2 -> conv4_2
I0728 10:15:18.304337 52794 net.cpp:150] Setting up conv4_2
I0728 10:15:18.304359 52794 net.cpp:157] Top shape: 1 512 47 65 (1564160)
I0728 10:15:18.304364 52794 net.cpp:165] Memory required for data: 422554164
I0728 10:15:18.304378 52794 layer_factory.hpp:77] Creating layer relu4_2
I0728 10:15:18.304384 52794 net.cpp:106] Creating Layer relu4_2
I0728 10:15:18.304389 52794 net.cpp:454] relu4_2 <- conv4_2
I0728 10:15:18.304399 52794 net.cpp:397] relu4_2 -> conv4_2 (in-place)
I0728 10:15:18.304586 52794 net.cpp:150] Setting up relu4_2
I0728 10:15:18.304603 52794 net.cpp:157] Top shape: 1 512 47 65 (1564160)
I0728 10:15:18.304606 52794 net.cpp:165] Memory required for data: 428810804
I0728 10:15:18.304610 52794 layer_factory.hpp:77] Creating layer conv4_3
I0728 10:15:18.304620 52794 net.cpp:106] Creating Layer conv4_3
I0728 10:15:18.304623 52794 net.cpp:454] conv4_3 <- conv4_2
I0728 10:15:18.304630 52794 net.cpp:411] conv4_3 -> conv4_3
I0728 10:15:18.311978 52794 net.cpp:150] Setting up conv4_3
I0728 10:15:18.312002 52794 net.cpp:157] Top shape: 1 512 47 65 (1564160)
I0728 10:15:18.312006 52794 net.cpp:165] Memory required for data: 435067444
I0728 10:15:18.312016 52794 layer_factory.hpp:77] Creating layer relu4_3
I0728 10:15:18.312022 52794 net.cpp:106] Creating Layer relu4_3
I0728 10:15:18.312027 52794 net.cpp:454] relu4_3 <- conv4_3
I0728 10:15:18.312034 52794 net.cpp:397] relu4_3 -> conv4_3 (in-place)
I0728 10:15:18.312930 52794 net.cpp:150] Setting up relu4_3
I0728 10:15:18.312952 52794 net.cpp:157] Top shape: 1 512 47 65 (1564160)
I0728 10:15:18.312955 52794 net.cpp:165] Memory required for data: 441324084
I0728 10:15:18.312959 52794 layer_factory.hpp:77] Creating layer pool4
I0728 10:15:18.312966 52794 net.cpp:106] Creating Layer pool4
I0728 10:15:18.312970 52794 net.cpp:454] pool4 <- conv4_3
I0728 10:15:18.312978 52794 net.cpp:411] pool4 -> pool4
I0728 10:15:18.313069 52794 net.cpp:150] Setting up pool4
I0728 10:15:18.313084 52794 net.cpp:157] Top shape: 1 512 24 33 (405504)
I0728 10:15:18.313087 52794 net.cpp:165] Memory required for data: 442946100
I0728 10:15:18.313091 52794 layer_factory.hpp:77] Creating layer conv5_1
I0728 10:15:18.313100 52794 net.cpp:106] Creating Layer conv5_1
I0728 10:15:18.313104 52794 net.cpp:454] conv5_1 <- pool4
I0728 10:15:18.313109 52794 net.cpp:411] conv5_1 -> conv5_1
I0728 10:15:18.321228 52794 net.cpp:150] Setting up conv5_1
I0728 10:15:18.321255 52794 net.cpp:157] Top shape: 1 512 24 33 (405504)
I0728 10:15:18.321260 52794 net.cpp:165] Memory required for data: 444568116
I0728 10:15:18.321267 52794 layer_factory.hpp:77] Creating layer relu5_1
I0728 10:15:18.321275 52794 net.cpp:106] Creating Layer relu5_1
I0728 10:15:18.321280 52794 net.cpp:454] relu5_1 <- conv5_1
I0728 10:15:18.321287 52794 net.cpp:397] relu5_1 -> conv5_1 (in-place)
I0728 10:15:18.321471 52794 net.cpp:150] Setting up relu5_1
I0728 10:15:18.321487 52794 net.cpp:157] Top shape: 1 512 24 33 (405504)
I0728 10:15:18.321491 52794 net.cpp:165] Memory required for data: 446190132
I0728 10:15:18.321496 52794 layer_factory.hpp:77] Creating layer conv5_2
I0728 10:15:18.321504 52794 net.cpp:106] Creating Layer conv5_2
I0728 10:15:18.321508 52794 net.cpp:454] conv5_2 <- conv5_1
I0728 10:15:18.321516 52794 net.cpp:411] conv5_2 -> conv5_2
I0728 10:15:18.330471 52794 net.cpp:150] Setting up conv5_2
I0728 10:15:18.330499 52794 net.cpp:157] Top shape: 1 512 24 33 (405504)
I0728 10:15:18.330503 52794 net.cpp:165] Memory required for data: 447812148
I0728 10:15:18.330512 52794 layer_factory.hpp:77] Creating layer relu5_2
I0728 10:15:18.330518 52794 net.cpp:106] Creating Layer relu5_2
I0728 10:15:18.330523 52794 net.cpp:454] relu5_2 <- conv5_2
I0728 10:15:18.330528 52794 net.cpp:397] relu5_2 -> conv5_2 (in-place)
I0728 10:15:18.330721 52794 net.cpp:150] Setting up relu5_2
I0728 10:15:18.330745 52794 net.cpp:157] Top shape: 1 512 24 33 (405504)
I0728 10:15:18.330752 52794 net.cpp:165] Memory required for data: 449434164
I0728 10:15:18.330759 52794 layer_factory.hpp:77] Creating layer conv5_3
I0728 10:15:18.330775 52794 net.cpp:106] Creating Layer conv5_3
I0728 10:15:18.330790 52794 net.cpp:454] conv5_3 <- conv5_2
I0728 10:15:18.330799 52794 net.cpp:411] conv5_3 -> conv5_3
I0728 10:15:18.338910 52794 net.cpp:150] Setting up conv5_3
I0728 10:15:18.338937 52794 net.cpp:157] Top shape: 1 512 24 33 (405504)
I0728 10:15:18.338942 52794 net.cpp:165] Memory required for data: 451056180
I0728 10:15:18.338948 52794 layer_factory.hpp:77] Creating layer relu5_3
I0728 10:15:18.338955 52794 net.cpp:106] Creating Layer relu5_3
I0728 10:15:18.338959 52794 net.cpp:454] relu5_3 <- conv5_3
I0728 10:15:18.338968 52794 net.cpp:397] relu5_3 -> conv5_3 (in-place)
I0728 10:15:18.339869 52794 net.cpp:150] Setting up relu5_3
I0728 10:15:18.339890 52794 net.cpp:157] Top shape: 1 512 24 33 (405504)
I0728 10:15:18.339895 52794 net.cpp:165] Memory required for data: 452678196
I0728 10:15:18.339898 52794 layer_factory.hpp:77] Creating layer conv5_3_relu5_3_0_split
I0728 10:15:18.339920 52794 net.cpp:106] Creating Layer conv5_3_relu5_3_0_split
I0728 10:15:18.339925 52794 net.cpp:454] conv5_3_relu5_3_0_split <- conv5_3
I0728 10:15:18.339932 52794 net.cpp:411] conv5_3_relu5_3_0_split -> conv5_3_relu5_3_0_split_0
I0728 10:15:18.339938 52794 net.cpp:411] conv5_3_relu5_3_0_split -> conv5_3_relu5_3_0_split_1
I0728 10:15:18.339944 52794 net.cpp:411] conv5_3_relu5_3_0_split -> conv5_3_relu5_3_0_split_2
I0728 10:15:18.340037 52794 net.cpp:150] Setting up conv5_3_relu5_3_0_split
I0728 10:15:18.340054 52794 net.cpp:157] Top shape: 1 512 24 33 (405504)
I0728 10:15:18.340059 52794 net.cpp:157] Top shape: 1 512 24 33 (405504)
I0728 10:15:18.340061 52794 net.cpp:157] Top shape: 1 512 24 33 (405504)
I0728 10:15:18.340065 52794 net.cpp:165] Memory required for data: 457544244
I0728 10:15:18.340068 52794 layer_factory.hpp:77] Creating layer rpn_conv/3x3
I0728 10:15:18.340080 52794 net.cpp:106] Creating Layer rpn_conv/3x3
I0728 10:15:18.340083 52794 net.cpp:454] rpn_conv/3x3 <- conv5_3_relu5_3_0_split_0
I0728 10:15:18.340090 52794 net.cpp:411] rpn_conv/3x3 -> rpn/output
I0728 10:15:18.403399 52794 net.cpp:150] Setting up rpn_conv/3x3
I0728 10:15:18.403426 52794 net.cpp:157] Top shape: 1 512 24 33 (405504)
I0728 10:15:18.403431 52794 net.cpp:165] Memory required for data: 459166260
I0728 10:15:18.403439 52794 layer_factory.hpp:77] Creating layer rpn_relu/3x3
I0728 10:15:18.403447 52794 net.cpp:106] Creating Layer rpn_relu/3x3
I0728 10:15:18.403452 52794 net.cpp:454] rpn_relu/3x3 <- rpn/output
I0728 10:15:18.403457 52794 net.cpp:397] rpn_relu/3x3 -> rpn/output (in-place)
I0728 10:15:18.403637 52794 net.cpp:150] Setting up rpn_relu/3x3
I0728 10:15:18.403653 52794 net.cpp:157] Top shape: 1 512 24 33 (405504)
I0728 10:15:18.403656 52794 net.cpp:165] Memory required for data: 460788276
I0728 10:15:18.403661 52794 layer_factory.hpp:77] Creating layer rpn/output_rpn_relu/3x3_0_split
I0728 10:15:18.403668 52794 net.cpp:106] Creating Layer rpn/output_rpn_relu/3x3_0_split
I0728 10:15:18.403672 52794 net.cpp:454] rpn/output_rpn_relu/3x3_0_split <- rpn/output
I0728 10:15:18.403677 52794 net.cpp:411] rpn/output_rpn_relu/3x3_0_split -> rpn/output_rpn_relu/3x3_0_split_0
I0728 10:15:18.403684 52794 net.cpp:411] rpn/output_rpn_relu/3x3_0_split -> rpn/output_rpn_relu/3x3_0_split_1
I0728 10:15:18.403753 52794 net.cpp:150] Setting up rpn/output_rpn_relu/3x3_0_split
I0728 10:15:18.403767 52794 net.cpp:157] Top shape: 1 512 24 33 (405504)
I0728 10:15:18.403771 52794 net.cpp:157] Top shape: 1 512 24 33 (405504)
I0728 10:15:18.403774 52794 net.cpp:165] Memory required for data: 464032308
I0728 10:15:18.403777 52794 layer_factory.hpp:77] Creating layer rpn_cls_score
I0728 10:15:18.403794 52794 net.cpp:106] Creating Layer rpn_cls_score
I0728 10:15:18.403798 52794 net.cpp:454] rpn_cls_score <- rpn/output_rpn_relu/3x3_0_split_0
I0728 10:15:18.403803 52794 net.cpp:411] rpn_cls_score -> rpn_cls_score
I0728 10:15:18.407501 52794 net.cpp:150] Setting up rpn_cls_score
I0728 10:15:18.407526 52794 net.cpp:157] Top shape: 1 36 24 33 (28512)
I0728 10:15:18.407531 52794 net.cpp:165] Memory required for data: 464146356
I0728 10:15:18.407538 52794 layer_factory.hpp:77] Creating layer rpn_cls_score_rpn_cls_score_0_split
I0728 10:15:18.407544 52794 net.cpp:106] Creating Layer rpn_cls_score_rpn_cls_score_0_split
I0728 10:15:18.407548 52794 net.cpp:454] rpn_cls_score_rpn_cls_score_0_split <- rpn_cls_score
I0728 10:15:18.407557 52794 net.cpp:411] rpn_cls_score_rpn_cls_score_0_split -> rpn_cls_score_rpn_cls_score_0_split_0
I0728 10:15:18.407563 52794 net.cpp:411] rpn_cls_score_rpn_cls_score_0_split -> rpn_cls_score_rpn_cls_score_0_split_1
I0728 10:15:18.407652 52794 net.cpp:150] Setting up rpn_cls_score_rpn_cls_score_0_split
I0728 10:15:18.407666 52794 net.cpp:157] Top shape: 1 36 24 33 (28512)
I0728 10:15:18.407671 52794 net.cpp:157] Top shape: 1 36 24 33 (28512)
I0728 10:15:18.407675 52794 net.cpp:165] Memory required for data: 464374452
I0728 10:15:18.407677 52794 layer_factory.hpp:77] Creating layer rpn_bbox_pred
I0728 10:15:18.407688 52794 net.cpp:106] Creating Layer rpn_bbox_pred
I0728 10:15:18.407692 52794 net.cpp:454] rpn_bbox_pred <- rpn/output_rpn_relu/3x3_0_split_1
I0728 10:15:18.407701 52794 net.cpp:411] rpn_bbox_pred -> rpn_bbox_pred
I0728 10:15:18.411125 52794 net.cpp:150] Setting up rpn_bbox_pred
I0728 10:15:18.411149 52794 net.cpp:157] Top shape: 1 72 24 33 (57024)
I0728 10:15:18.411154 52794 net.cpp:165] Memory required for data: 464602548
I0728 10:15:18.411160 52794 layer_factory.hpp:77] Creating layer rpn_bbox_pred_rpn_bbox_pred_0_split
I0728 10:15:18.411167 52794 net.cpp:106] Creating Layer rpn_bbox_pred_rpn_bbox_pred_0_split
I0728 10:15:18.411171 52794 net.cpp:454] rpn_bbox_pred_rpn_bbox_pred_0_split <- rpn_bbox_pred
I0728 10:15:18.411180 52794 net.cpp:411] rpn_bbox_pred_rpn_bbox_pred_0_split -> rpn_bbox_pred_rpn_bbox_pred_0_split_0
I0728 10:15:18.411186 52794 net.cpp:411] rpn_bbox_pred_rpn_bbox_pred_0_split -> rpn_bbox_pred_rpn_bbox_pred_0_split_1
I0728 10:15:18.411255 52794 net.cpp:150] Setting up rpn_bbox_pred_rpn_bbox_pred_0_split
I0728 10:15:18.411269 52794 net.cpp:157] Top shape: 1 72 24 33 (57024)
I0728 10:15:18.411274 52794 net.cpp:157] Top shape: 1 72 24 33 (57024)
I0728 10:15:18.411278 52794 net.cpp:165] Memory required for data: 465058740
I0728 10:15:18.411280 52794 layer_factory.hpp:77] Creating layer rpn_cls_score_reshape
I0728 10:15:18.411291 52794 net.cpp:106] Creating Layer rpn_cls_score_reshape
I0728 10:15:18.411295 52794 net.cpp:454] rpn_cls_score_reshape <- rpn_cls_score_rpn_cls_score_0_split_0
I0728 10:15:18.411303 52794 net.cpp:411] rpn_cls_score_reshape -> rpn_cls_score_reshape
I0728 10:15:18.411357 52794 net.cpp:150] Setting up rpn_cls_score_reshape
I0728 10:15:18.411371 52794 net.cpp:157] Top shape: 1 2 432 33 (28512)
I0728 10:15:18.411375 52794 net.cpp:165] Memory required for data: 465172788
I0728 10:15:18.411377 52794 layer_factory.hpp:77] Creating layer rpn_cls_score_reshape_rpn_cls_score_reshape_0_split
I0728 10:15:18.411383 52794 net.cpp:106] Creating Layer rpn_cls_score_reshape_rpn_cls_score_reshape_0_split
I0728 10:15:18.411386 52794 net.cpp:454] rpn_cls_score_reshape_rpn_cls_score_reshape_0_split <- rpn_cls_score_reshape
I0728 10:15:18.411393 52794 net.cpp:411] rpn_cls_score_reshape_rpn_cls_score_reshape_0_split -> rpn_cls_score_reshape_rpn_cls_score_reshape_0_split_0
I0728 10:15:18.411399 52794 net.cpp:411] rpn_cls_score_reshape_rpn_cls_score_reshape_0_split -> rpn_cls_score_reshape_rpn_cls_score_reshape_0_split_1
I0728 10:15:18.411459 52794 net.cpp:150] Setting up rpn_cls_score_reshape_rpn_cls_score_reshape_0_split
I0728 10:15:18.411473 52794 net.cpp:157] Top shape: 1 2 432 33 (28512)
I0728 10:15:18.411476 52794 net.cpp:157] Top shape: 1 2 432 33 (28512)
I0728 10:15:18.411479 52794 net.cpp:165] Memory required for data: 465400884
I0728 10:15:18.411483 52794 layer_factory.hpp:77] Creating layer rpn-data
I0728 10:15:18.412307 52794 net.cpp:106] Creating Layer rpn-data
I0728 10:15:18.412328 52794 net.cpp:454] rpn-data <- rpn_cls_score_rpn_cls_score_0_split_1
I0728 10:15:18.412335 52794 net.cpp:454] rpn-data <- gt_boxes_input-data_2_split_0
I0728 10:15:18.412340 52794 net.cpp:454] rpn-data <- im_info_input-data_1_split_0
I0728 10:15:18.412344 52794 net.cpp:454] rpn-data <- data_input-data_0_split_1
I0728 10:15:18.412349 52794 net.cpp:411] rpn-data -> rpn_labels
I0728 10:15:18.412358 52794 net.cpp:411] rpn-data -> rpn_bbox_targets
I0728 10:15:18.412362 52794 net.cpp:411] rpn-data -> rpn_bbox_inside_weights
I0728 10:15:18.412369 52794 net.cpp:411] rpn-data -> rpn_bbox_outside_weights
I0728 10:15:18.413470 52794 net.cpp:150] Setting up rpn-data
I0728 10:15:18.413496 52794 net.cpp:157] Top shape: 1 1 432 33 (14256)
I0728 10:15:18.413502 52794 net.cpp:157] Top shape: 1 72 24 33 (57024)
I0728 10:15:18.413506 52794 net.cpp:157] Top shape: 1 72 24 33 (57024)
I0728 10:15:18.413509 52794 net.cpp:157] Top shape: 1 72 24 33 (57024)
I0728 10:15:18.413512 52794 net.cpp:165] Memory required for data: 466142196
I0728 10:15:18.413516 52794 layer_factory.hpp:77] Creating layer rpn_loss_cls
I0728 10:15:18.413528 52794 net.cpp:106] Creating Layer rpn_loss_cls
I0728 10:15:18.413533 52794 net.cpp:454] rpn_loss_cls <- rpn_cls_score_reshape_rpn_cls_score_reshape_0_split_0
I0728 10:15:18.413539 52794 net.cpp:454] rpn_loss_cls <- rpn_labels
…
I0728 10:15:18.415166 52794 net.cpp:157] Top shape: (1)
I0728 10:15:18.415170 52794 net.cpp:160]     with loss weight 1
I0728 10:15:18.415176 52794 net.cpp:165] Memory required for data: 466142204
I0728 10:15:18.415180 52794 layer_factory.hpp:77] Creating layer rpn_cls_prob
I0728 10:15:18.415187 52794 net.cpp:106] Creating Layer rpn_cls_prob
I0728 10:15:18.415191 52794 net.cpp:454] rpn_cls_prob <- rpn_cls_score_reshape_rpn_cls_score_reshape_0_split_1
I0728 10:15:18.415197 52794 net.cpp:411] rpn_cls_prob -> rpn_cls_prob
I0728 10:15:18.416242 52794 net.cpp:150] Setting up rpn_cls_prob
I0728 10:15:18.416265 52794 net.cpp:157] Top shape: 1 2 432 33 (28512)
I0728 10:15:18.416270 52794 net.cpp:165] Memory required for data: 466256252
I0728 10:15:18.416275 52794 layer_factory.hpp:77] Creating layer rpn_cls_prob_reshape
I0728 10:15:18.416283 52794 net.cpp:106] Creating Layer rpn_cls_prob_reshape
I0728 10:15:18.416287 52794 net.cpp:454] rpn_cls_prob_reshape <- rpn_cls_prob
I0728 10:15:18.416294 52794 net.cpp:411] rpn_cls_prob_reshape -> rpn_cls_prob_reshape
I0728 10:15:18.416340 52794 net.cpp:150] Setting up rpn_cls_prob_reshape
I0728 10:15:18.416353 52794 net.cpp:157] Top shape: 1 36 24 33 (28512)
I0728 10:15:18.416357 52794 net.cpp:165] Memory required for data: 466370300
I0728 10:15:18.416360 52794 layer_factory.hpp:77] Creating layer proposal
I0728 10:15:18.420560 52794 net.cpp:106] Creating Layer proposal
I0728 10:15:18.420583 52794 net.cpp:454] proposal <- rpn_cls_prob_reshape
I0728 10:15:18.420590 52794 net.cpp:454] proposal <- rpn_bbox_pred_rpn_bbox_pred_0_split_1
I0728 10:15:18.420594 52794 net.cpp:454] proposal <- im_info_input-data_1_split_1
I0728 10:15:18.420600 52794 net.cpp:411] proposal -> rpn_rois
I0728 10:15:18.421249 52794 net.cpp:150] Setting up proposal
I0728 10:15:18.421274 52794 net.cpp:157] Top shape: 1 5 (5)
I0728 10:15:18.421278 52794 net.cpp:165] Memory required for data: 466370320
I0728 10:15:18.421283 52794 layer_factory.hpp:77] Creating layer roi-data
I0728 10:15:18.421476 52794 net.cpp:106] Creating Layer roi-data
I0728 10:15:18.421497 52794 net.cpp:454] roi-data <- rpn_rois
I0728 10:15:18.421504 52794 net.cpp:454] roi-data <- gt_boxes_input-data_2_split_1
I0728 10:15:18.421509 52794 net.cpp:411] roi-data -> rois
I0728 10:15:18.421516 52794 net.cpp:411] roi-data -> labels
I0728 10:15:18.421522 52794 net.cpp:411] roi-data -> bbox_targets
I0728 10:15:18.421527 52794 net.cpp:411] roi-data -> bbox_inside_weights
I0728 10:15:18.421533 52794 net.cpp:411] roi-data -> bbox_outside_weights
I0728 10:15:18.421989 52794 net.cpp:150] Setting up roi-data
I0728 10:15:18.422013 52794 net.cpp:157] Top shape: 1 5 (5)
I0728 10:15:18.422018 52794 net.cpp:157] Top shape: 1 1 (1)
I0728 10:15:18.422020 52794 net.cpp:157] Top shape: 1 84 (84)
I0728 10:15:18.422024 52794 net.cpp:157] Top shape: 1 84 (84)
I0728 10:15:18.422027 52794 net.cpp:157] Top shape: 1 84 (84)
I0728 10:15:18.422030 52794 net.cpp:165] Memory required for data: 466371352
I0728 10:15:18.422034 52794 layer_factory.hpp:77] Creating layer rois_roi-data_0_split
I0728 10:15:18.422041 52794 net.cpp:106] Creating Layer rois_roi-data_0_split
I0728 10:15:18.422045 52794 net.cpp:454] rois_roi-data_0_split <- rois
I0728 10:15:18.422050 52794 net.cpp:411] rois_roi-data_0_split -> rois_roi-data_0_split_0
I0728 10:15:18.422057 52794 net.cpp:411] rois_roi-data_0_split -> rois_roi-data_0_split_1
I0728 10:15:18.422118 52794 net.cpp:150] Setting up rois_roi-data_0_split
I0728 10:15:18.422132 52794 net.cpp:157] Top shape: 1 5 (5)
I0728 10:15:18.422137 52794 net.cpp:157] Top shape: 1 5 (5)
I0728 10:15:18.422140 52794 net.cpp:165] Memory required for data: 466371392
I0728 10:15:18.422143 52794 layer_factory.hpp:77] Creating layer roi_pool5_readonly
I0728 10:15:18.422157 52794 net.cpp:106] Creating Layer roi_pool5_readonly
I0728 10:15:18.422160 52794 net.cpp:454] roi_pool5_readonly <- conv5_3_relu5_3_0_split_1
I0728 10:15:18.422164 52794 net.cpp:454] roi_pool5_readonly <- rois_roi-data_0_split_0
I0728 10:15:18.422169 52794 net.cpp:411] roi_pool5_readonly -> pool5_readonly
I0728 10:15:18.422180 52794 roi_pooling_layer.cpp:30] Spatial scale: 0.0625
I0728 10:15:18.422252 52794 net.cpp:150] Setting up roi_pool5_readonly
I0728 10:15:18.422266 52794 net.cpp:157] Top shape: 1 512 7 7 (25088)
I0728 10:15:18.422269 52794 net.cpp:165] Memory required for data: 466471744
I0728 10:15:18.422273 52794 layer_factory.hpp:77] Creating layer fc6_readonly
I0728 10:15:18.422283 52794 net.cpp:106] Creating Layer fc6_readonly
I0728 10:15:18.422287 52794 net.cpp:454] fc6_readonly <- pool5_readonly
I0728 10:15:18.422292 52794 net.cpp:411] fc6_readonly -> fc6_readonly
I0728 10:15:18.694958 52794 net.cpp:150] Setting up fc6_readonly
I0728 10:15:18.695025 52794 net.cpp:157] Top shape: 1 4096 (4096)
I0728 10:15:18.695030 52794 net.cpp:165] Memory required for data: 466488128
I0728 10:15:18.695055 52794 layer_factory.hpp:77] Creating layer relu6_readonly
I0728 10:15:18.695070 52794 net.cpp:106] Creating Layer relu6_readonly
I0728 10:15:18.695075 52794 net.cpp:454] relu6_readonly <- fc6_readonly
I0728 10:15:18.695083 52794 net.cpp:397] relu6_readonly -> fc6_readonly (in-place)
I0728 10:15:18.695384 52794 net.cpp:150] Setting up relu6_readonly
I0728 10:15:18.695401 52794 net.cpp:157] Top shape: 1 4096 (4096)
I0728 10:15:18.695405 52794 net.cpp:165] Memory required for data: 466504512
I0728 10:15:18.695410 52794 layer_factory.hpp:77] Creating layer drop6_readonly
I0728 10:15:18.695425 52794 net.cpp:106] Creating Layer drop6_readonly
I0728 10:15:18.695428 52794 net.cpp:454] drop6_readonly <- fc6_readonly
I0728 10:15:18.695436 52794 net.cpp:397] drop6_readonly -> fc6_readonly (in-place)
I0728 10:15:18.695497 52794 net.cpp:150] Setting up drop6_readonly
I0728 10:15:18.695503 52794 net.cpp:157] Top shape: 1 4096 (4096)
I0728 10:15:18.695507 52794 net.cpp:165] Memory required for data: 466520896
I0728 10:15:18.695509 52794 layer_factory.hpp:77] Creating layer fc7_readonly
I0728 10:15:18.695519 52794 net.cpp:106] Creating Layer fc7_readonly
I0728 10:15:18.695523 52794 net.cpp:454] fc7_readonly <- fc6_readonly
I0728 10:15:18.695528 52794 net.cpp:411] fc7_readonly -> fc7_readonly
I0728 10:15:18.740839 52794 net.cpp:150] Setting up fc7_readonly
I0728 10:15:18.740909 52794 net.cpp:157] Top shape: 1 4096 (4096)
I0728 10:15:18.740914 52794 net.cpp:165] Memory required for data: 466537280
I0728 10:15:18.740927 52794 layer_factory.hpp:77] Creating layer relu7_readonly
I0728 10:15:18.740941 52794 net.cpp:106] Creating Layer relu7_readonly
I0728 10:15:18.740947 52794 net.cpp:454] relu7_readonly <- fc7_readonly
I0728 10:15:18.740955 52794 net.cpp:397] relu7_readonly -> fc7_readonly (in-place)
I0728 10:15:18.742110 52794 net.cpp:150] Setting up relu7_readonly
I0728 10:15:18.742132 52794 net.cpp:157] Top shape: 1 4096 (4096)
I0728 10:15:18.742136 52794 net.cpp:165] Memory required for data: 466553664
I0728 10:15:18.742141 52794 layer_factory.hpp:77] Creating layer drop7_readonly
I0728 10:15:18.742148 52794 net.cpp:106] Creating Layer drop7_readonly
I0728 10:15:18.742153 52794 net.cpp:454] drop7_readonly <- fc7_readonly
I0728 10:15:18.742158 52794 net.cpp:397] drop7_readonly -> fc7_readonly (in-place)
I0728 10:15:18.742214 52794 net.cpp:150] Setting up drop7_readonly
I0728 10:15:18.742221 52794 net.cpp:157] Top shape: 1 4096 (4096)
I0728 10:15:18.742224 52794 net.cpp:165] Memory required for data: 466570048
I0728 10:15:18.742228 52794 layer_factory.hpp:77] Creating layer fc7_readonly_drop7_readonly_0_split
I0728 10:15:18.742233 52794 net.cpp:106] Creating Layer fc7_readonly_drop7_readonly_0_split
I0728 10:15:18.742236 52794 net.cpp:454] fc7_readonly_drop7_readonly_0_split <- fc7_readonly
I0728 10:15:18.742244 52794 net.cpp:411] fc7_readonly_drop7_readonly_0_split -> fc7_readonly_drop7_readonly_0_split_0
I0728 10:15:18.742249 52794 net.cpp:411] fc7_readonly_drop7_readonly_0_split -> fc7_readonly_drop7_readonly_0_split_1
I0728 10:15:18.742324 52794 net.cpp:150] Setting up fc7_readonly_drop7_readonly_0_split
I0728 10:15:18.742331 52794 net.cpp:157] Top shape: 1 4096 (4096)
I0728 10:15:18.742334 52794 net.cpp:157] Top shape: 1 4096 (4096)
I0728 10:15:18.742337 52794 net.cpp:165] Memory required for data: 466602816
I0728 10:15:18.742341 52794 layer_factory.hpp:77] Creating layer cls_score_readonly
I0728 10:15:18.742348 52794 net.cpp:106] Creating Layer cls_score_readonly
I0728 10:15:18.742352 52794 net.cpp:454] cls_score_readonly <- fc7_readonly_drop7_readonly_0_split_0
I0728 10:15:18.742359 52794 net.cpp:411] cls_score_readonly -> cls_score_readonly
I0728 10:15:18.745358 52794 net.cpp:150] Setting up cls_score_readonly
I0728 10:15:18.745379 52794 net.cpp:157] Top shape: 1 21 (21)
I0728 10:15:18.745383 52794 net.cpp:165] Memory required for data: 466602900
I0728 10:15:18.745389 52794 layer_factory.hpp:77] Creating layer bbox_pred_readonly
I0728 10:15:18.745400 52794 net.cpp:106] Creating Layer bbox_pred_readonly
I0728 10:15:18.745404 52794 net.cpp:454] bbox_pred_readonly <- fc7_readonly_drop7_readonly_0_split_1
I0728 10:15:18.745410 52794 net.cpp:411] bbox_pred_readonly -> bbox_pred_readonly
I0728 10:15:18.754474 52794 net.cpp:150] Setting up bbox_pred_readonly
I0728 10:15:18.754497 52794 net.cpp:157] Top shape: 1 84 (84)
I0728 10:15:18.754500 52794 net.cpp:165] Memory required for data: 466603236
I0728 10:15:18.754508 52794 layer_factory.hpp:77] Creating layer cls_prob_readonly
I0728 10:15:18.754514 52794 net.cpp:106] Creating Layer cls_prob_readonly
I0728 10:15:18.754519 52794 net.cpp:454] cls_prob_readonly <- cls_score_readonly
I0728 10:15:18.754524 52794 net.cpp:411] cls_prob_readonly -> cls_prob_readonly
I0728 10:15:18.754832 52794 net.cpp:150] Setting up cls_prob_readonly
I0728 10:15:18.754851 52794 net.cpp:157] Top shape: 1 21 (21)
I0728 10:15:18.754855 52794 net.cpp:165] Memory required for data: 466603320
I0728 10:15:18.754859 52794 layer_factory.hpp:77] Creating layer hard_roi_mining
I0728 10:15:18.754931 52794 net.cpp:106] Creating Layer hard_roi_mining
I0728 10:15:18.754937 52794 net.cpp:454] hard_roi_mining <- cls_prob_readonly
I0728 10:15:18.754943 52794 net.cpp:454] hard_roi_mining <- bbox_pred_readonly
I0728 10:15:18.754947 52794 net.cpp:454] hard_roi_mining <- rois_roi-data_0_split_1
I0728 10:15:18.754951 52794 net.cpp:454] hard_roi_mining <- labels
I0728 10:15:18.754956 52794 net.cpp:454] hard_roi_mining <- bbox_targets
I0728 10:15:18.754959 52794 net.cpp:454] hard_roi_mining <- bbox_inside_weights
I0728 10:15:18.754963 52794 net.cpp:454] hard_roi_mining <- bbox_outside_weights
I0728 10:15:18.754968 52794 net.cpp:411] hard_roi_mining -> rois_hard
I0728 10:15:18.754976 52794 net.cpp:411] hard_roi_mining -> labels_hard
I0728 10:15:18.754981 52794 net.cpp:411] hard_roi_mining -> bbox_targets_hard
I0728 10:15:18.754987 52794 net.cpp:411] hard_roi_mining -> bbox_inside_weights_hard
I0728 10:15:18.754993 52794 net.cpp:411] hard_roi_mining -> bbox_outside_weights_hard
OHEMDataLayer: name_to_top: {'bbox_outside_weights_hard': 4, 'bbox_inside_weights_hard': 3, 'labels_hard': 1, 'rois_hard': 0, 'bbox_targets_hard': 2}
I0728 10:15:18.755681 52794 net.cpp:150] Setting up hard_roi_mining
I0728 10:15:18.755692 52794 net.cpp:157] Top shape: 1 5 (5)
I0728 10:15:18.755697 52794 net.cpp:157] Top shape: 1 (1)
I0728 10:15:18.755699 52794 net.cpp:157] Top shape: 1 84 (84)
I0728 10:15:18.755703 52794 net.cpp:157] Top shape: 1 84 (84)
I0728 10:15:18.755707 52794 net.cpp:157] Top shape: 1 84 (84)
I0728 10:15:18.755709 52794 net.cpp:165] Memory required for data: 466604352
I0728 10:15:18.755713 52794 layer_factory.hpp:77] Creating layer roi_pool5
I0728 10:15:18.755730 52794 net.cpp:106] Creating Layer roi_pool5
I0728 10:15:18.755735 52794 net.cpp:454] roi_pool5 <- conv5_3_relu5_3_0_split_2
I0728 10:15:18.755740 52794 net.cpp:454] roi_pool5 <- rois_hard
I0728 10:15:18.755745 52794 net.cpp:411] roi_pool5 -> pool5
I0728 10:15:18.755754 52794 roi_pooling_layer.cpp:30] Spatial scale: 0.0625
I0728 10:15:18.755832 52794 net.cpp:150] Setting up roi_pool5
I0728 10:15:18.755839 52794 net.cpp:157] Top shape: 1 512 7 7 (25088)
I0728 10:15:18.755842 52794 net.cpp:165] Memory required for data: 466704704
I0728 10:15:18.755846 52794 layer_factory.hpp:77] Creating layer fc6
I0728 10:15:18.755856 52794 net.cpp:106] Creating Layer fc6
I0728 10:15:18.755861 52794 net.cpp:454] fc6 <- pool5
I0728 10:15:18.755866 52794 net.cpp:411] fc6 -> fc6
I0728 10:15:19.092479 52794 net.cpp:150] Setting up fc6
I0728 10:15:19.092552 52794 net.cpp:157] Top shape: 1 4096 (4096)
I0728 10:15:19.092559 52794 net.cpp:165] Memory required for data: 466721088
I0728 10:15:19.092569 52794 net.cpp:514] Sharing parameters 'fc6_w' owned by layer 'fc6_readonly', param index 0
I0728 10:15:19.092576 52794 net.cpp:514] Sharing parameters 'fc6_b' owned by layer 'fc6_readonly', param index 1
I0728 10:15:19.092581 52794 layer_factory.hpp:77] Creating layer relu6
I0728 10:15:19.092597 52794 net.cpp:106] Creating Layer relu6
I0728 10:15:19.092602 52794 net.cpp:454] relu6 <- fc6
I0728 10:15:19.092610 52794 net.cpp:397] relu6 -> fc6 (in-place)
I0728 10:15:19.093847 52794 net.cpp:150] Setting up relu6
I0728 10:15:19.093871 52794 net.cpp:157] Top shape: 1 4096 (4096)
I0728 10:15:19.093875 52794 net.cpp:165] Memory required for data: 466737472
I0728 10:15:19.093879 52794 layer_factory.hpp:77] Creating layer drop6
I0728 10:15:19.093888 52794 net.cpp:106] Creating Layer drop6
I0728 10:15:19.093891 52794 net.cpp:454] drop6 <- fc6
I0728 10:15:19.093896 52794 net.cpp:397] drop6 -> fc6 (in-place)
I0728 10:15:19.093955 52794 net.cpp:150] Setting up drop6
I0728 10:15:19.093962 52794 net.cpp:157] Top shape: 1 4096 (4096)
I0728 10:15:19.093966 52794 net.cpp:165] Memory required for data: 466753856
I0728 10:15:19.093968 52794 layer_factory.hpp:77] Creating layer fc7
I0728 10:15:19.093977 52794 net.cpp:106] Creating Layer fc7
I0728 10:15:19.093981 52794 net.cpp:454] fc7 <- fc6
I0728 10:15:19.093987 52794 net.cpp:411] fc7 -> fc7
I0728 10:15:19.139940 52794 net.cpp:150] Setting up fc7
I0728 10:15:19.140007 52794 net.cpp:157] Top shape: 1 4096 (4096)
I0728 10:15:19.140012 52794 net.cpp:165] Memory required for data: 466770240
I0728 10:15:19.140022 52794 net.cpp:514] Sharing parameters 'fc7_w' owned by layer 'fc7_readonly', param index 0
I0728 10:15:19.140027 52794 net.cpp:514] Sharing parameters 'fc7_b' owned by layer 'fc7_readonly', param index 1
I0728 10:15:19.140033 52794 layer_factory.hpp:77] Creating layer relu7
I0728 10:15:19.140046 52794 net.cpp:106] Creating Layer relu7
I0728 10:15:19.140053 52794 net.cpp:454] relu7 <- fc7
I0728 10:15:19.140061 52794 net.cpp:397] relu7 -> fc7 (in-place)
I0728 10:15:19.140348 52794 net.cpp:150] Setting up relu7
I0728 10:15:19.140358 52794 net.cpp:157] Top shape: 1 4096 (4096)
I0728 10:15:19.140362 52794 net.cpp:165] Memory required for data: 466786624
I0728 10:15:19.140365 52794 layer_factory.hpp:77] Creating layer drop7
I0728 10:15:19.140372 52794 net.cpp:106] Creating Layer drop7
I0728 10:15:19.140377 52794 net.cpp:454] drop7 <- fc7
I0728 10:15:19.140381 52794 net.cpp:397] drop7 -> fc7 (in-place)
I0728 10:15:19.140432 52794 net.cpp:150] Setting up drop7
I0728 10:15:19.140439 52794 net.cpp:157] Top shape: 1 4096 (4096)
I0728 10:15:19.140442 52794 net.cpp:165] Memory required for data: 466803008
I0728 10:15:19.140445 52794 layer_factory.hpp:77] Creating layer fc7_drop7_0_split
I0728 10:15:19.140451 52794 net.cpp:106] Creating Layer fc7_drop7_0_split
I0728 10:15:19.140455 52794 net.cpp:454] fc7_drop7_0_split <- fc7
I0728 10:15:19.140460 52794 net.cpp:411] fc7_drop7_0_split -> fc7_drop7_0_split_0
I0728 10:15:19.140465 52794 net.cpp:411] fc7_drop7_0_split -> fc7_drop7_0_split_1
I0728 10:15:19.140539 52794 net.cpp:150] Setting up fc7_drop7_0_split
I0728 10:15:19.140555 52794 net.cpp:157] Top shape: 1 4096 (4096)
I0728 10:15:19.140559 52794 net.cpp:157] Top shape: 1 4096 (4096)
I0728 10:15:19.140563 52794 net.cpp:165] Memory required for data: 466835776
I0728 10:15:19.140565 52794 layer_factory.hpp:77] Creating layer cls_score
I0728 10:15:19.140573 52794 net.cpp:106] Creating Layer cls_score
I0728 10:15:19.140578 52794 net.cpp:454] cls_score <- fc7_drop7_0_split_0
I0728 10:15:19.140585 52794 net.cpp:411] cls_score -> cls_score
I0728 10:15:19.142827 52794 net.cpp:150] Setting up cls_score
I0728 10:15:19.142845 52794 net.cpp:157] Top shape: 1 21 (21)
I0728 10:15:19.142848 52794 net.cpp:165] Memory required for data: 466835860
I0728 10:15:19.142853 52794 net.cpp:514] Sharing parameters 'cls_score_w' owned by layer 'cls_score_readonly', param index 0
I0728 10:15:19.142858 52794 net.cpp:514] Sharing parameters 'cls_score_b' owned by layer 'cls_score_readonly', param index 1
I0728 10:15:19.142861 52794 layer_factory.hpp:77] Creating layer bbox_pred
I0728 10:15:19.142876 52794 net.cpp:106] Creating Layer bbox_pred
I0728 10:15:19.142880 52794 net.cpp:454] bbox_pred <- fc7_drop7_0_split_1
I0728 10:15:19.142889 52794 net.cpp:411] bbox_pred -> bbox_pred
I0728 10:15:19.152103 52794 net.cpp:150] Setting up bbox_pred
I0728 10:15:19.152125 52794 net.cpp:157] Top shape: 1 84 (84)
I0728 10:15:19.152129 52794 net.cpp:165] Memory required for data: 466836196
I0728 10:15:19.152134 52794 net.cpp:514] Sharing parameters 'bbox_pred_w' owned by layer 'bbox_pred_readonly', param index 0
I0728 10:15:19.152138 52794 net.cpp:514] Sharing parameters 'bbox_pred_b' owned by layer 'bbox_pred_readonly', param index 1
I0728 10:15:19.152143 52794 layer_factory.hpp:77] Creating layer loss_cls
…
