…
stepsize: 50000
snapshot: 0
snapshot_prefix: "fpn"
average_loss: 100
iter_size: 2
I0628 11:05:48.993506 45143 solver.cpp:81] Creating training net from train_net file: models/pascal_voc/VGG16/FP_Net_end2end/train.prototxt
I0628 11:05:48.995064 45143 net.cpp:49] Initializing net from parameters: 
name: "VGG_ILSVRC_16_layers"
state {
  phase: TRAIN
}
layer {
  name: "input-data"
  type: "Python"
  top: "data"
  top: "im_info"
  top: "gt_boxes"
  python_param {
    module: "roi_data_layer.layer"
    layer: "RoIDataLayer"
    param_str: "\'num_classes\': 21"
  }
}
layer {
  name: "conv1_1"
  type: "Convolution"
  bottom: "data"
  top: "conv1_1"
  param {
    lr_mult: 0
    decay_mult: 0
  }
  param {
    lr_mult: 0
    decay_mult: 0
  }
  convolution_param {
    num_output: 64
    pad: 1
    kernel_size: 3
  }
}
layer {
  name: "relu1_1"
  type: "ReLU"
  bottom: "conv1_1"
  top: "conv1_1"
}
layer {
  name: "conv1_2"
  type: "Convolution"
  bottom: "conv1_1"
  top: "conv1_2"
  param {
    lr_mult: 0
    decay_mult: 0
  }
  param {
    lr_mult: 0
    decay_mult: 0
  }
  convolution_param {
    num_output: 64
    pad: 1
    kernel_size: 3
  }
}
layer {
  name: "relu1_2"
  type: "ReLU"
  bottom: "conv1_2"
  top: "conv1_2"
}
layer {
  name: "pool1"
  type: "Pooling"
  bottom: "conv1_2"
  top: "pool1"
  pooling_param {
    pool: MAX
    kernel_size: 2
    stride: 2
  }
}
layer {
  name: "conv2_1"
  type: "Convolution"
  bottom: "pool1"
  top: "conv2_1"
  param {
    lr_mult: 0
    decay_mult: 0
  }
  param {
    lr_mult: 0
    decay_mult: 0
  }
  convolution_param {
    num_output: 128
    pad: 1
    kernel_size: 3
  }
}
layer {
  name: "relu2_1"
  type: "ReLU"
  bottom: "conv2_1"
  top: "conv2_1"
}
layer {
  name: "conv2_2"
  type: "Convolution"
  bottom: "conv2_1"
  top: "conv2_2"
  param {
    lr_mult: 0
    decay_mult: 0
  }
  param {
    lr_mult: 0
    decay_mult: 0
  }
  convolution_param {
    num_output: 128
    pad: 1
    kernel_size: 3
  }
}
layer {
  name: "relu2_2"
  type: "ReLU"
  bottom: "conv2_2"
  top: "conv2_2"
}
layer {
  name: "pool2"
  type: "Pooling"
  bottom: "conv2_2"
  top: "pool2"
  pooling_param {
    pool: MAX
    kernel_size: 2
    stride: 2
  }
}
layer {
  name: "conv3_1"
  type: "Convolution"
  bottom: "pool2"
  top: "conv3_1"
  param {
    lr_mult: 1
  }
  param {
    lr_mult: 2
  }
  convolution_param {
    num_output: 256
    pad: 1
    kernel_size: 3
  }
}
layer {
  name: "relu3_1"
  type: "ReLU"
  bottom: "conv3_1"
  top: "conv3_1"
}
layer {
  name: "conv3_2"
  type: "Convolution"
  bottom: "conv3_1"
  top: "conv3_2"
  param {
    lr_mult: 1
  }
  param {
    lr_mult: 2
  }
  convolution_param {
    num_output: 256
    pad: 1
    kernel_size: 3
  }
}
layer {
  name: "relu3_2"
  type: "ReLU"
  bottom: "conv3_2"
  top: "conv3_2"
}
layer {
  name: "conv3_3"
  type: "Convolution"
  bottom: "conv3_2"
  top: "conv3_3"
  param {
    lr_mult: 1
  }
  param {
    lr_mult: 2
  }
  convolution_param {
    num_output: 256
    pad: 1
    kernel_size: 3
  }
}
layer {
  name: "relu3_3"
  type: "ReLU"
  bottom: "conv3_3"
  top: "conv3_3"
}
layer {
  name: "pool3"
  type: "Pooling"
  bottom: "conv3_3"
  top: "pool3"
  pooling_param {
    pool: MAX
    kernel_size: 2
    stride: 2
  }
}
layer {
  name: "conv4_1"
  type: "Convolution"
  bottom: "pool3"
  top: "conv4_1"
  param {
    lr_mult: 1
  }
  param {
    lr_mult: 2
  }
  convolution_param {
    num_output: 512
    pad: 1
    kernel_size: 3
  }
}
layer {
  name: "relu4_1"
  type: "ReLU"
  bottom: "conv4_1"
  top: "conv4_1"
}
layer {
  name: "conv4_2"
  type: "Convolution"
  bottom: "conv4_1"
  top: "conv4_2"
  param {
    lr_mult: 1
  }
  param {
    lr_mult: 2
  }
  convolution_param {
    num_output: 512
    pad: 1
    kernel_size: 3
  }
}
layer {
  name: "relu4_2"
  type: "ReLU"
  bottom: "conv4_2"
  top: "conv4_2"
}
layer {
  name: "conv4_3"
  type: "Convolution"
  bottom: "conv4_2"
  top: "conv4_3"
  param {
    lr_mult: 1
  }
  param {
    lr_mult: 2
  }
  convolution_param {
    num_output: 512
    pad: 1
    kernel_size: 3
  }
}
layer {
  name: "relu4_3"
  type: "ReLU"
  bottom: "conv4_3"
  top: "conv4_3"
}
layer {
  name: "pool4"
  type: "Pooling"
  bottom: "conv4_3"
  top: "pool4"
  pooling_param {
    pool: MAX
    kernel_size: 2
    stride: 2
  }
}
layer {
  name: "conv5_1"
  type: "Convolution"
  bottom: "pool4"
  top: "conv5_1"
  param {
    lr_mult: 1
  }
  param {
    lr_mult: 2
  }
  convolution_param {
    num_output: 512
    pad: 1
    kernel_size: 3
  }
}
layer {
  name: "relu5_1"
  type: "ReLU"
  bottom: "conv5_1"
  top: "conv5_1"
}
layer {
  name: "conv5_2"
  type: "Convolution"
  bottom: "conv5_1"
  top: "conv5_2"
  param {
    lr_mult: 1
  }
  param {
    lr_mult: 2
  }
  convolution_param {
    num_output: 512
    pad: 1
    kernel_size: 3
  }
}
layer {
  name: "relu5_2"
  type: "ReLU"
  bottom: "conv5_2"
  top: "conv5_2"
}
layer {
  name: "conv5_3"
  type: "Convolution"
  bottom: "conv5_2"
  top: "conv5_3"
  param {
    lr_mult: 1
  }
  param {
    lr_mult: 2
  }
  convolution_param {
    num_output: 512
    pad: 1
    kernel_size: 3
  }
}
layer {
  name: "relu5_3"
  type: "ReLU"
  bottom: "conv5_3"
  top: "conv5_3"
}
layer {
  name: "pool5"
  type: "Pooling"
  bottom: "conv5_3"
  top: "pool5"
  pooling_param {
    pool: MAX
    kernel_size: 2
    stride: 2
  }
}
layer {
  name: "P5"
  type: "Convolution"
  bottom: "pool5"
  top: "P5"
  param {
    lr_mult: 1
  }
  param {
    lr_mult: 2
  }
  convolution_param {
    num_output: 256
    kernel_size: 1
  }
}
layer {
  name: "upP5"
  type: "Deconvolution"
  bottom: "P5"
  top: "upP5"
  param {
    lr_mult: 0
    decay_mult: 0
  }
  convolution_param {
    num_output: 256
    bias_term: false
    pad: 1
    kernel_size: 4
    stride: 2
  }
}
layer {
  name: "newC4"
  type: "Convolution"
  bottom: "conv5_3"
  top: "newC4"
  param {
    lr_mult: 1
  }
  param {
    lr_mult: 2
  }
  convolution_param {
    num_output: 256
    kernel_size: 1
  }
}
layer {
  name: "upP5crop"
  type: "Crop"
  bottom: "upP5"
  bottom: "newC4"
  top: "upP5crop"
  crop_param {
    axis: 2
    offset: 0
  }
}
layer {
  name: "P4"
  type: "Eltwise"
  bottom: "newC4"
  bottom: "upP5crop"
  top: "P4"
  eltwise_param {
    operation: SUM
  }
}
layer {
  name: "upP4"
  type: "Deconvolution"
  bottom: "P4"
  top: "upP4"
  param {
    lr_mult: 0
    decay_mult: 0
  }
  convolution_param {
    num_output: 256
    bias_term: false
    pad: 1
    kernel_size: 4
    stride: 2
  }
}
layer {
  name: "newC3"
  type: "Convolution"
  bottom: "conv4_3"
  top: "newC3"
  param {
    lr_mult: 1
  }
  param {
    lr_mult: 2
  }
  convolution_param {
    num_output: 256
    kernel_size: 1
  }
}
layer {
  name: "upP4crop"
  type: "Crop"
  bottom: "upP4"
  bottom: "newC3"
  top: "upP4crop"
  crop_param {
    axis: 2
    offset: 0
  }
}
layer {
  name: "P3"
  type: "Eltwise"
  bottom: "newC3"
  bottom: "upP4crop"
  top: "P3"
  eltwise_param {
    operation: SUM
  }
}
layer {
  name: "upP3"
  type: "Deconvolution"
  bottom: "P3"
  top: "upP3"
  param {
    lr_mult: 0
    decay_mult: 0
  }
  convolution_param {
    num_output: 256
    bias_term: false
    pad: 1
    kernel_size: 4
    stride: 2
  }
}
layer {
  name: "upP3crop"
  type: "Crop"
  bottom: "upP3"
  bottom: "conv3_3"
  top: "upP3crop"
  crop_param {
    axis: 2
    offset: 0
  }
}
layer {
  name: "P2"
  type: "Eltwise"
  bottom: "conv3_3"
  bottom: "upP3crop"
  top: "P2"
  eltwise_param {
    operation: SUM
  }
}
layer {
  name: "newP2"
  type: "Convolution"
  bottom: "P2"
  top: "newP2"
  param {
    lr_mult: 1
  }
  param {
    lr_mult: 2
  }
  convolution_param {
    num_output: 256
    pad: 1
    kernel_size: 3
  }
}
layer {
  name: "rpn_conv/3x3"
  type: "Convolution"
  bottom: "newP2"
  top: "rpn/output"
  param {
    lr_mult: 1
  }
  param {
    lr_mult: 2
  }
  convolution_param {
    num_output: 512
    pad: 1
    kernel_size: 3
    stride: 1
    weight_filler {
      type: "gaussian"
      std: 0.01
    }
    bias_filler {
      type: "constant"
      value: 0
    }
  }
}
layer {
  name: "rpn_relu/3x3"
  type: "ReLU"
  bottom: "rpn/output"
  top: "rpn/output"
}
layer {
  name: "rpn_cls_score"
  type: "Convolution"
  bottom: "rpn/output"
  top: "rpn_cls_score"
  param {
    lr_mult: 1
  }
  param {
    lr_mult: 2
  }
  convolution_param {
    num_output: 18
    pad: 0
    kernel_size: 1
    stride: 1
    weight_filler {
      type: "gaussian"
      std: 0.01
    }
    bias_filler {
      type: "constant"
      value: 0
    }
  }
}
layer {
  name: "rpn_bbox_pred"
  type: "Convolution"
  bottom: "rpn/output"
  top: "rpn_bbox_pred"
  param {
    lr_mult: 1
  }
  param {
    lr_mult: 2
  }
  convolution_param {
    num_output: 36
    pad: 0
    kernel_size: 1
    stride: 1
    weight_filler {
      type: "gaussian"
      std: 0.01
    }
    bias_filler {
      type: "constant"
      value: 0
    }
  }
}
layer {
  name: "rpn_cls_score_reshape"
  type: "Reshape"
  bottom: "rpn_cls_score"
  top: "rpn_cls_score_reshape"
  reshape_param {
    shape {
      dim: 0
      dim: 2
      dim: -1
      dim: 0
    }
  }
}
layer {
  name: "rpn-data"
  type: "Python"
  bottom: "rpn_cls_score"
  bottom: "gt_boxes"
  bottom: "im_info"
  bottom: "data"
  top: "rpn_labels"
  top: "rpn_bbox_targets"
  top: "rpn_bbox_inside_weights"
  top: "rpn_bbox_outside_weights"
  python_param {
    module: "rpn.anchor_target_layer"
    layer: "AnchorTargetLayer"
    param_str: "\'feat_stride\': 4"
  }
}
layer {
  name: "rpn_loss_cls"
  type: "SoftmaxWithLoss"
  bottom: "rpn_cls_score_reshape"
  bottom: "rpn_labels"
  top: "rpn_cls_loss"
  loss_weight: 1
  propagate_down: true
  propagate_down: false
  loss_param {
    ignore_label: -1
    normalize: true
  }
}
layer {
  name: "rpn_loss_bbox"
  type: "SmoothL1Loss"
  bottom: "rpn_bbox_pred"
  bottom: "rpn_bbox_targets"
  bottom: "rpn_bbox_inside_weights"
  bottom: "rpn_bbox_outside_weights"
  top: "rpn_loss_bbox"
  loss_weight: 1
  smooth_l1_loss_param {
    sigma: 3
  }
}
layer {
  name: "rpn_cls_prob"
  type: "Softmax"
  bottom: "rpn_cls_score_reshape"
  top: "rpn_cls_prob"
}
layer {
  name: "rpn_cls_prob_reshape"
  type: "Reshape"
  bottom: "rpn_cls_prob"
  top: "rpn_cls_prob_reshape"
  reshape_param {
    shape {
      dim: 0
      dim: 18
      dim: -1
      dim: 0
    }
  }
}
layer {
  name: "proposal"
  type: "Python"
  bottom: "rpn_cls_prob_reshape"
  bottom: "rpn_bbox_pred"
  bottom: "im_info"
  top: "rpn_rois"
  python_param {
    module: "rpn.proposal_layer"
    layer: "ProposalLayer"
    param_str: "\'feat_stride\': 4"
  }
}
layer {
  name: "roi-data"
  type: "Python"
  bottom: "rpn_rois"
  bottom: "gt_boxes"
  top: "rois"
  top: "labels"
  top: "bbox_targets"
  top: "bbox_inside_weights"
  top: "bbox_outside_weights"
  python_param {
    module: "rpn.proposal_target_layer"
    layer: "ProposalTargetLayer"
    param_str: "\'num_classes\': 21"
  }
}
layer {
  name: "roi_pool5"
  type: "ROIPooling"
  bottom: "newP2"
  bottom: "rois"
  top: "rcnn_pool5"
  roi_pooling_param {
    pooled_h: 7
    pooled_w: 7
    spatial_scale: 0.25
  }
}
layer {
  name: "rcnn_fc6"
  type: "InnerProduct"
  bottom: "rcnn_pool5"
  top: "rcnn_fc6"
  param {
    lr_mult: 1
  }
  param {
    lr_mult: 2
  }
  inner_product_param {
    num_output: 4096
    weight_filler {
      type: "xavier"
    }
    bias_filler {
      type: "constant"
    }
  }
}
layer {
  name: "relu6"
  type: "ReLU"
  bottom: "rcnn_fc6"
  top: "rcnn_fc6"
}
layer {
  name: "drop6"
  type: "Dropout"
  bottom: "rcnn_fc6"
  top: "rcnn_fc6"
  dropout_param {
    dropout_ratio: 0.5
  }
}
layer {
  name: "fc7"
  type: "InnerProduct"
  bottom: "rcnn_fc6"
  top: "fc7"
  param {
    lr_mult: 1
  }
  param {
    lr_mult: 2
  }
  inner_product_param {
    num_output: 4096
    weight_filler {
      type: "xavier"
    }
    bias_filler {
      type: "constant"
    }
  }
}
layer {
  name: "relu7"
  type: "ReLU"
  bottom: "fc7"
  top: "fc7"
}
layer {
  name: "drop7"
  type: "Dropout"
  bottom: "fc7"
  top: "fc7"
  dropout_param {
    dropout_ratio: 0.5
  }
}
layer {
  name: "cls_score"
  type: "InnerProduct"
  bottom: "fc7"
  top: "cls_score"
  param {
    lr_mult: 1
  }
  param {
    lr_mult: 2
  }
  inner_product_param {
    num_output: 21
    weight_filler {
      type: "gaussian"
      std: 0.01
    }
    bias_filler {
      type: "constant"
      value: 0
    }
  }
}
layer {
  name: "bbox_pred"
  type: "InnerProduct"
  bottom: "fc7"
  top: "bbox_pred"
  param {
    lr_mult: 1
  }
  param {
    lr_mult: 2
  }
  inner_product_param {
    num_output: 84
    weight_filler {
      type: "gaussian"
      std: 0.001
    }
    bias_filler {
      type: "constant"
      value: 0
    }
  }
}
layer {
  name: "loss_cls"
  type: "SoftmaxWithLoss"
  bottom: "cls_score"
  bottom: "labels"
  top: "loss_cls"
  loss_weight: 1
  propagate_down: true
  propagate_down: false
}
layer {
  name: "loss_bbox"
  type: "SmoothL1Loss"
  bottom: "bbox_pred"
  bottom: "bbox_targets"
  bottom: "bbox_inside_weights"
  bottom: "bbox_outside_weights"
  top: "loss_bbox"
  loss_weight: 1
}
I0628 11:05:48.995425 45143 layer_factory.hpp:77] Creating layer input-data
I0628 11:05:48.996518 45143 net.cpp:106] Creating Layer input-data
I0628 11:05:48.996546 45143 net.cpp:411] input-data -> data
I0628 11:05:48.996563 45143 net.cpp:411] input-data -> im_info
I0628 11:05:48.996572 45143 net.cpp:411] input-data -> gt_boxes
RoiDataLayer: name_to_top: {'gt_boxes': 2, 'data': 0, 'im_info': 1}
I0628 11:05:49.013034 45143 net.cpp:150] Setting up input-data
I0628 11:05:49.013075 45143 net.cpp:157] Top shape: 1 3 600 1000 (1800000)
I0628 11:05:49.013097 45143 net.cpp:157] Top shape: 1 3 (3)
I0628 11:05:49.013110 45143 net.cpp:157] Top shape: 1 4 (4)
I0628 11:05:49.013123 45143 net.cpp:165] Memory required for data: 7200028
I0628 11:05:49.013139 45143 layer_factory.hpp:77] Creating layer data_input-data_0_split
I0628 11:05:49.013166 45143 net.cpp:106] Creating Layer data_input-data_0_split
I0628 11:05:49.013187 45143 net.cpp:454] data_input-data_0_split <- data
I0628 11:05:49.013200 45143 net.cpp:411] data_input-data_0_split -> data_input-data_0_split_0
I0628 11:05:49.013222 45143 net.cpp:411] data_input-data_0_split -> data_input-data_0_split_1
I0628 11:05:49.013274 45143 net.cpp:150] Setting up data_input-data_0_split
I0628 11:05:49.013286 45143 net.cpp:157] Top shape: 1 3 600 1000 (1800000)
I0628 11:05:49.013290 45143 net.cpp:157] Top shape: 1 3 600 1000 (1800000)
I0628 11:05:49.013293 45143 net.cpp:165] Memory required for data: 21600028
I0628 11:05:49.013298 45143 layer_factory.hpp:77] Creating layer im_info_input-data_1_split
I0628 11:05:49.013305 45143 net.cpp:106] Creating Layer im_info_input-data_1_split
I0628 11:05:49.013324 45143 net.cpp:454] im_info_input-data_1_split <- im_info
I0628 11:05:49.013339 45143 net.cpp:411] im_info_input-data_1_split -> im_info_input-data_1_split_0
I0628 11:05:49.013355 45143 net.cpp:411] im_info_input-data_1_split -> im_info_input-data_1_split_1
I0628 11:05:49.013401 45143 net.cpp:150] Setting up im_info_input-data_1_split
I0628 11:05:49.013412 45143 net.cpp:157] Top shape: 1 3 (3)
I0628 11:05:49.013417 45143 net.cpp:157] Top shape: 1 3 (3)
I0628 11:05:49.013419 45143 net.cpp:165] Memory required for data: 21600052
I0628 11:05:49.013422 45143 layer_factory.hpp:77] Creating layer gt_boxes_input-data_2_split
I0628 11:05:49.013427 45143 net.cpp:106] Creating Layer gt_boxes_input-data_2_split
I0628 11:05:49.013447 45143 net.cpp:454] gt_boxes_input-data_2_split <- gt_boxes
I0628 11:05:49.013463 45143 net.cpp:411] gt_boxes_input-data_2_split -> gt_boxes_input-data_2_split_0
I0628 11:05:49.013478 45143 net.cpp:411] gt_boxes_input-data_2_split -> gt_boxes_input-data_2_split_1
I0628 11:05:49.013522 45143 net.cpp:150] Setting up gt_boxes_input-data_2_split
I0628 11:05:49.013535 45143 net.cpp:157] Top shape: 1 4 (4)
I0628 11:05:49.013540 45143 net.cpp:157] Top shape: 1 4 (4)
I0628 11:05:49.013542 45143 net.cpp:165] Memory required for data: 21600084
I0628 11:05:49.013545 45143 layer_factory.hpp:77] Creating layer conv1_1
I0628 11:05:49.013563 45143 net.cpp:106] Creating Layer conv1_1
I0628 11:05:49.013566 45143 net.cpp:454] conv1_1 <- data_input-data_0_split_0
I0628 11:05:49.013571 45143 net.cpp:411] conv1_1 -> conv1_1
I0628 11:05:49.432256 45143 net.cpp:150] Setting up conv1_1
I0628 11:05:49.432310 45143 net.cpp:157] Top shape: 1 64 600 1000 (38400000)
I0628 11:05:49.432315 45143 net.cpp:165] Memory required for data: 175200084
I0628 11:05:49.432339 45143 layer_factory.hpp:77] Creating layer relu1_1
I0628 11:05:49.432389 45143 net.cpp:106] Creating Layer relu1_1
I0628 11:05:49.432406 45143 net.cpp:454] relu1_1 <- conv1_1
I0628 11:05:49.432425 45143 net.cpp:397] relu1_1 -> conv1_1 (in-place)
I0628 11:05:49.433154 45143 net.cpp:150] Setting up relu1_1
I0628 11:05:49.433176 45143 net.cpp:157] Top shape: 1 64 600 1000 (38400000)
I0628 11:05:49.433179 45143 net.cpp:165] Memory required for data: 328800084
I0628 11:05:49.433185 45143 layer_factory.hpp:77] Creating layer conv1_2
I0628 11:05:49.433200 45143 net.cpp:106] Creating Layer conv1_2
I0628 11:05:49.433225 45143 net.cpp:454] conv1_2 <- conv1_1
I0628 11:05:49.433243 45143 net.cpp:411] conv1_2 -> conv1_2
I0628 11:05:49.438657 45143 net.cpp:150] Setting up conv1_2
I0628 11:05:49.438681 45143 net.cpp:157] Top shape: 1 64 600 1000 (38400000)
I0628 11:05:49.438685 45143 net.cpp:165] Memory required for data: 482400084
I0628 11:05:49.438694 45143 layer_factory.hpp:77] Creating layer relu1_2
I0628 11:05:49.438724 45143 net.cpp:106] Creating Layer relu1_2
I0628 11:05:49.438740 45143 net.cpp:454] relu1_2 <- conv1_2
I0628 11:05:49.438757 45143 net.cpp:397] relu1_2 -> conv1_2 (in-place)
I0628 11:05:49.438976 45143 net.cpp:150] Setting up relu1_2
I0628 11:05:49.438993 45143 net.cpp:157] Top shape: 1 64 600 1000 (38400000)
I0628 11:05:49.438997 45143 net.cpp:165] Memory required for data: 636000084
I0628 11:05:49.439000 45143 layer_factory.hpp:77] Creating layer pool1
I0628 11:05:49.439023 45143 net.cpp:106] Creating Layer pool1
I0628 11:05:49.439043 45143 net.cpp:454] pool1 <- conv1_2
I0628 11:05:49.439059 45143 net.cpp:411] pool1 -> pool1
I0628 11:05:49.439126 45143 net.cpp:150] Setting up pool1
I0628 11:05:49.439139 45143 net.cpp:157] Top shape: 1 64 300 500 (9600000)
I0628 11:05:49.439142 45143 net.cpp:165] Memory required for data: 674400084
I0628 11:05:49.439146 45143 layer_factory.hpp:77] Creating layer conv2_1
I0628 11:05:49.439155 45143 net.cpp:106] Creating Layer conv2_1
I0628 11:05:49.439173 45143 net.cpp:454] conv2_1 <- pool1
I0628 11:05:49.439193 45143 net.cpp:411] conv2_1 -> conv2_1
I0628 11:05:49.443053 45143 net.cpp:150] Setting up conv2_1
I0628 11:05:49.443078 45143 net.cpp:157] Top shape: 1 128 300 500 (19200000)
I0628 11:05:49.443084 45143 net.cpp:165] Memory required for data: 751200084
I0628 11:05:49.443094 45143 layer_factory.hpp:77] Creating layer relu2_1
I0628 11:05:49.443104 45143 net.cpp:106] Creating Layer relu2_1
I0628 11:05:49.443107 45143 net.cpp:454] relu2_1 <- conv2_1
I0628 11:05:49.443112 45143 net.cpp:397] relu2_1 -> conv2_1 (in-place)
I0628 11:05:49.443292 45143 net.cpp:150] Setting up relu2_1
I0628 11:05:49.443307 45143 net.cpp:157] Top shape: 1 128 300 500 (19200000)
I0628 11:05:49.443310 45143 net.cpp:165] Memory required for data: 828000084
I0628 11:05:49.443315 45143 layer_factory.hpp:77] Creating layer conv2_2
I0628 11:05:49.443328 45143 net.cpp:106] Creating Layer conv2_2
I0628 11:05:49.443354 45143 net.cpp:454] conv2_2 <- conv2_1
I0628 11:05:49.443385 45143 net.cpp:411] conv2_2 -> conv2_2
I0628 11:05:49.448992 45143 net.cpp:150] Setting up conv2_2
I0628 11:05:49.449020 45143 net.cpp:157] Top shape: 1 128 300 500 (19200000)
I0628 11:05:49.449024 45143 net.cpp:165] Memory required for data: 904800084
I0628 11:05:49.449031 45143 layer_factory.hpp:77] Creating layer relu2_2
I0628 11:05:49.449064 45143 net.cpp:106] Creating Layer relu2_2
I0628 11:05:49.449115 45143 net.cpp:454] relu2_2 <- conv2_2
I0628 11:05:49.449129 45143 net.cpp:397] relu2_2 -> conv2_2 (in-place)
I0628 11:05:49.449877 45143 net.cpp:150] Setting up relu2_2
I0628 11:05:49.449895 45143 net.cpp:157] Top shape: 1 128 300 500 (19200000)
I0628 11:05:49.449901 45143 net.cpp:165] Memory required for data: 981600084
I0628 11:05:49.449904 45143 layer_factory.hpp:77] Creating layer pool2
I0628 11:05:49.449932 45143 net.cpp:106] Creating Layer pool2
I0628 11:05:49.449955 45143 net.cpp:454] pool2 <- conv2_2
I0628 11:05:49.449971 45143 net.cpp:411] pool2 -> pool2
I0628 11:05:49.450037 45143 net.cpp:150] Setting up pool2
I0628 11:05:49.450052 45143 net.cpp:157] Top shape: 1 128 150 250 (4800000)
I0628 11:05:49.450054 45143 net.cpp:165] Memory required for data: 1000800084
I0628 11:05:49.450059 45143 layer_factory.hpp:77] Creating layer conv3_1
I0628 11:05:49.450069 45143 net.cpp:106] Creating Layer conv3_1
I0628 11:05:49.450088 45143 net.cpp:454] conv3_1 <- pool2
I0628 11:05:49.450105 45143 net.cpp:411] conv3_1 -> conv3_1
I0628 11:05:49.453321 45143 net.cpp:150] Setting up conv3_1
I0628 11:05:49.453346 45143 net.cpp:157] Top shape: 1 256 150 250 (9600000)
I0628 11:05:49.453349 45143 net.cpp:165] Memory required for data: 1039200084
I0628 11:05:49.453358 45143 layer_factory.hpp:77] Creating layer relu3_1
I0628 11:05:49.453392 45143 net.cpp:106] Creating Layer relu3_1
I0628 11:05:49.453399 45143 net.cpp:454] relu3_1 <- conv3_1
I0628 11:05:49.453404 45143 net.cpp:397] relu3_1 -> conv3_1 (in-place)
I0628 11:05:49.453768 45143 net.cpp:150] Setting up relu3_1
I0628 11:05:49.453784 45143 net.cpp:157] Top shape: 1 256 150 250 (9600000)
I0628 11:05:49.453788 45143 net.cpp:165] Memory required for data: 1077600084
I0628 11:05:49.453791 45143 layer_factory.hpp:77] Creating layer conv3_2
I0628 11:05:49.453810 45143 net.cpp:106] Creating Layer conv3_2
I0628 11:05:49.453840 45143 net.cpp:454] conv3_2 <- conv3_1
I0628 11:05:49.453852 45143 net.cpp:411] conv3_2 -> conv3_2
I0628 11:05:49.458200 45143 net.cpp:150] Setting up conv3_2
I0628 11:05:49.458225 45143 net.cpp:157] Top shape: 1 256 150 250 (9600000)
I0628 11:05:49.458228 45143 net.cpp:165] Memory required for data: 1116000084
I0628 11:05:49.458236 45143 layer_factory.hpp:77] Creating layer relu3_2
I0628 11:05:49.458264 45143 net.cpp:106] Creating Layer relu3_2
I0628 11:05:49.458283 45143 net.cpp:454] relu3_2 <- conv3_2
I0628 11:05:49.458302 45143 net.cpp:397] relu3_2 -> conv3_2 (in-place)
I0628 11:05:49.458896 45143 net.cpp:150] Setting up relu3_2
I0628 11:05:49.458915 45143 net.cpp:157] Top shape: 1 256 150 250 (9600000)
I0628 11:05:49.458919 45143 net.cpp:165] Memory required for data: 1154400084
I0628 11:05:49.458923 45143 layer_factory.hpp:77] Creating layer conv3_3
I0628 11:05:49.458933 45143 net.cpp:106] Creating Layer conv3_3
I0628 11:05:49.458955 45143 net.cpp:454] conv3_3 <- conv3_2
I0628 11:05:49.458981 45143 net.cpp:411] conv3_3 -> conv3_3
I0628 11:05:49.463235 45143 net.cpp:150] Setting up conv3_3
I0628 11:05:49.463258 45143 net.cpp:157] Top shape: 1 256 150 250 (9600000)
I0628 11:05:49.463263 45143 net.cpp:165] Memory required for data: 1192800084
I0628 11:05:49.463271 45143 layer_factory.hpp:77] Creating layer relu3_3
I0628 11:05:49.463299 45143 net.cpp:106] Creating Layer relu3_3
I0628 11:05:49.463315 45143 net.cpp:454] relu3_3 <- conv3_3
I0628 11:05:49.463336 45143 net.cpp:397] relu3_3 -> conv3_3 (in-place)
I0628 11:05:49.464087 45143 net.cpp:150] Setting up relu3_3
I0628 11:05:49.464109 45143 net.cpp:157] Top shape: 1 256 150 250 (9600000)
I0628 11:05:49.464113 45143 net.cpp:165] Memory required for data: 1231200084
I0628 11:05:49.464117 45143 layer_factory.hpp:77] Creating layer conv3_3_relu3_3_0_split
I0628 11:05:49.464124 45143 net.cpp:106] Creating Layer conv3_3_relu3_3_0_split
I0628 11:05:49.464148 45143 net.cpp:454] conv3_3_relu3_3_0_split <- conv3_3
I0628 11:05:49.464164 45143 net.cpp:411] conv3_3_relu3_3_0_split -> conv3_3_relu3_3_0_split_0
I0628 11:05:49.464188 45143 net.cpp:411] conv3_3_relu3_3_0_split -> conv3_3_relu3_3_0_split_1
I0628 11:05:49.464226 45143 net.cpp:411] conv3_3_relu3_3_0_split -> conv3_3_relu3_3_0_split_2
I0628 11:05:49.464299 45143 net.cpp:150] Setting up conv3_3_relu3_3_0_split
I0628 11:05:49.464311 45143 net.cpp:157] Top shape: 1 256 150 250 (9600000)
I0628 11:05:49.464315 45143 net.cpp:157] Top shape: 1 256 150 250 (9600000)
I0628 11:05:49.464319 45143 net.cpp:157] Top shape: 1 256 150 250 (9600000)
I0628 11:05:49.464321 45143 net.cpp:165] Memory required for data: 1346400084
I0628 11:05:49.464325 45143 layer_factory.hpp:77] Creating layer pool3
I0628 11:05:49.464350 45143 net.cpp:106] Creating Layer pool3
I0628 11:05:49.464365 45143 net.cpp:454] pool3 <- conv3_3_relu3_3_0_split_0
I0628 11:05:49.464380 45143 net.cpp:411] pool3 -> pool3
I0628 11:05:49.464428 45143 net.cpp:150] Setting up pool3
I0628 11:05:49.464440 45143 net.cpp:157] Top shape: 1 256 75 125 (2400000)
I0628 11:05:49.464443 45143 net.cpp:165] Memory required for data: 1356000084
I0628 11:05:49.464447 45143 layer_factory.hpp:77] Creating layer conv4_1
I0628 11:05:49.464457 45143 net.cpp:106] Creating Layer conv4_1
I0628 11:05:49.464475 45143 net.cpp:454] conv4_1 <- pool3
I0628 11:05:49.464490 45143 net.cpp:411] conv4_1 -> conv4_1
I0628 11:05:49.470671 45143 net.cpp:150] Setting up conv4_1
I0628 11:05:49.470696 45143 net.cpp:157] Top shape: 1 512 75 125 (4800000)
I0628 11:05:49.470700 45143 net.cpp:165] Memory required for data: 1375200084
I0628 11:05:49.470710 45143 layer_factory.hpp:77] Creating layer relu4_1
I0628 11:05:49.470739 45143 net.cpp:106] Creating Layer relu4_1
I0628 11:05:49.470762 45143 net.cpp:454] relu4_1 <- conv4_1
I0628 11:05:49.470803 45143 net.cpp:397] relu4_1 -> conv4_1 (in-place)
I0628 11:05:49.471590 45143 net.cpp:150] Setting up relu4_1
I0628 11:05:49.471609 45143 net.cpp:157] Top shape: 1 512 75 125 (4800000)
I0628 11:05:49.471613 45143 net.cpp:165] Memory required for data: 1394400084
I0628 11:05:49.471617 45143 layer_factory.hpp:77] Creating layer conv4_2
I0628 11:05:49.471627 45143 net.cpp:106] Creating Layer conv4_2
I0628 11:05:49.471650 45143 net.cpp:454] conv4_2 <- conv4_1
I0628 11:05:49.471670 45143 net.cpp:411] conv4_2 -> conv4_2
I0628 11:05:49.480819 45143 net.cpp:150] Setting up conv4_2
I0628 11:05:49.480844 45143 net.cpp:157] Top shape: 1 512 75 125 (4800000)
I0628 11:05:49.480849 45143 net.cpp:165] Memory required for data: 1413600084
I0628 11:05:49.480861 45143 layer_factory.hpp:77] Creating layer relu4_2
I0628 11:05:49.480871 45143 net.cpp:106] Creating Layer relu4_2
I0628 11:05:49.480897 45143 net.cpp:454] relu4_2 <- conv4_2
I0628 11:05:49.480916 45143 net.cpp:397] relu4_2 -> conv4_2 (in-place)
I0628 11:05:49.481117 45143 net.cpp:150] Setting up relu4_2
I0628 11:05:49.481133 45143 net.cpp:157] Top shape: 1 512 75 125 (4800000)
I0628 11:05:49.481137 45143 net.cpp:165] Memory required for data: 1432800084
I0628 11:05:49.481142 45143 layer_factory.hpp:77] Creating layer conv4_3
I0628 11:05:49.481150 45143 net.cpp:106] Creating Layer conv4_3
I0628 11:05:49.481170 45143 net.cpp:454] conv4_3 <- conv4_2
I0628 11:05:49.481189 45143 net.cpp:411] conv4_3 -> conv4_3
I0628 11:05:49.489848 45143 net.cpp:150] Setting up conv4_3
I0628 11:05:49.489872 45143 net.cpp:157] Top shape: 1 512 75 125 (4800000)
I0628 11:05:49.489876 45143 net.cpp:165] Memory required for data: 1452000084
I0628 11:05:49.489882 45143 layer_factory.hpp:77] Creating layer relu4_3
I0628 11:05:49.489914 45143 net.cpp:106] Creating Layer relu4_3
I0628 11:05:49.489930 45143 net.cpp:454] relu4_3 <- conv4_3
I0628 11:05:49.489948 45143 net.cpp:397] relu4_3 -> conv4_3 (in-place)
I0628 11:05:49.490694 45143 net.cpp:150] Setting up relu4_3
I0628 11:05:49.490717 45143 net.cpp:157] Top shape: 1 512 75 125 (4800000)
I0628 11:05:49.490720 45143 net.cpp:165] Memory required for data: 1471200084
I0628 11:05:49.490725 45143 layer_factory.hpp:77] Creating layer conv4_3_relu4_3_0_split
I0628 11:05:49.490731 45143 net.cpp:106] Creating Layer conv4_3_relu4_3_0_split
I0628 11:05:49.490753 45143 net.cpp:454] conv4_3_relu4_3_0_split <- conv4_3
I0628 11:05:49.490814 45143 net.cpp:411] conv4_3_relu4_3_0_split -> conv4_3_relu4_3_0_split_0
I0628 11:05:49.490845 45143 net.cpp:411] conv4_3_relu4_3_0_split -> conv4_3_relu4_3_0_split_1
I0628 11:05:49.490912 45143 net.cpp:150] Setting up conv4_3_relu4_3_0_split
I0628 11:05:49.490927 45143 net.cpp:157] Top shape: 1 512 75 125 (4800000)
I0628 11:05:49.490931 45143 net.cpp:157] Top shape: 1 512 75 125 (4800000)
I0628 11:05:49.490934 45143 net.cpp:165] Memory required for data: 1509600084
I0628 11:05:49.490937 45143 layer_factory.hpp:77] Creating layer pool4
I0628 11:05:49.490947 45143 net.cpp:106] Creating Layer pool4
I0628 11:05:49.490965 45143 net.cpp:454] pool4 <- conv4_3_relu4_3_0_split_0
I0628 11:05:49.490981 45143 net.cpp:411] pool4 -> pool4
I0628 11:05:49.491044 45143 net.cpp:150] Setting up pool4
I0628 11:05:49.491057 45143 net.cpp:157] Top shape: 1 512 38 63 (1225728)
I0628 11:05:49.491060 45143 net.cpp:165] Memory required for data: 1514502996
I0628 11:05:49.491065 45143 layer_factory.hpp:77] Creating layer conv5_1
I0628 11:05:49.491075 45143 net.cpp:106] Creating Layer conv5_1
I0628 11:05:49.491092 45143 net.cpp:454] conv5_1 <- pool4
I0628 11:05:49.491108 45143 net.cpp:411] conv5_1 -> conv5_1
I0628 11:05:49.498283 45143 net.cpp:150] Setting up conv5_1
I0628 11:05:49.498307 45143 net.cpp:157] Top shape: 1 512 38 63 (1225728)
I0628 11:05:49.498311 45143 net.cpp:165] Memory required for data: 1519405908
I0628 11:05:49.498318 45143 layer_factory.hpp:77] Creating layer relu5_1
I0628 11:05:49.498347 45143 net.cpp:106] Creating Layer relu5_1
I0628 11:05:49.498373 45143 net.cpp:454] relu5_1 <- conv5_1
I0628 11:05:49.498391 45143 net.cpp:397] relu5_1 -> conv5_1 (in-place)
I0628 11:05:49.499166 45143 net.cpp:150] Setting up relu5_1
I0628 11:05:49.499182 45143 net.cpp:157] Top shape: 1 512 38 63 (1225728)
I0628 11:05:49.499186 45143 net.cpp:165] Memory required for data: 1524308820
I0628 11:05:49.499191 45143 layer_factory.hpp:77] Creating layer conv5_2
I0628 11:05:49.499207 45143 net.cpp:106] Creating Layer conv5_2
I0628 11:05:49.499229 45143 net.cpp:454] conv5_2 <- conv5_1
I0628 11:05:49.499253 45143 net.cpp:411] conv5_2 -> conv5_2
I0628 11:05:49.507966 45143 net.cpp:150] Setting up conv5_2
I0628 11:05:49.507989 45143 net.cpp:157] Top shape: 1 512 38 63 (1225728)
I0628 11:05:49.507993 45143 net.cpp:165] Memory required for data: 1529211732
I0628 11:05:49.508000 45143 layer_factory.hpp:77] Creating layer relu5_2
I0628 11:05:49.508029 45143 net.cpp:106] Creating Layer relu5_2
I0628 11:05:49.508045 45143 net.cpp:454] relu5_2 <- conv5_2
I0628 11:05:49.508067 45143 net.cpp:397] relu5_2 -> conv5_2 (in-place)
I0628 11:05:49.509460 45143 net.cpp:150] Setting up relu5_2
I0628 11:05:49.509479 45143 net.cpp:157] Top shape: 1 512 38 63 (1225728)
I0628 11:05:49.509482 45143 net.cpp:165] Memory required for data: 1534114644
I0628 11:05:49.509487 45143 layer_factory.hpp:77] Creating layer conv5_3
I0628 11:05:49.509496 45143 net.cpp:106] Creating Layer conv5_3
I0628 11:05:49.509518 45143 net.cpp:454] conv5_3 <- conv5_2
I0628 11:05:49.509537 45143 net.cpp:411] conv5_3 -> conv5_3
I0628 11:05:49.518596 45143 net.cpp:150] Setting up conv5_3
I0628 11:05:49.518621 45143 net.cpp:157] Top shape: 1 512 38 63 (1225728)
I0628 11:05:49.518625 45143 net.cpp:165] Memory required for data: 1539017556
I0628 11:05:49.518632 45143 layer_factory.hpp:77] Creating layer relu5_3
I0628 11:05:49.518664 45143 net.cpp:106] Creating Layer relu5_3
I0628 11:05:49.518682 45143 net.cpp:454] relu5_3 <- conv5_3
I0628 11:05:49.518697 45143 net.cpp:397] relu5_3 -> conv5_3 (in-place)
I0628 11:05:49.519712 45143 net.cpp:150] Setting up relu5_3
I0628 11:05:49.519733 45143 net.cpp:157] Top shape: 1 512 38 63 (1225728)
I0628 11:05:49.519737 45143 net.cpp:165] Memory required for data: 1543920468
I0628 11:05:49.519740 45143 layer_factory.hpp:77] Creating layer conv5_3_relu5_3_0_split
I0628 11:05:49.519748 45143 net.cpp:106] Creating Layer conv5_3_relu5_3_0_split
I0628 11:05:49.519773 45143 net.cpp:454] conv5_3_relu5_3_0_split <- conv5_3
I0628 11:05:49.519789 45143 net.cpp:411] conv5_3_relu5_3_0_split -> conv5_3_relu5_3_0_split_0
I0628 11:05:49.519827 45143 net.cpp:411] conv5_3_relu5_3_0_split -> conv5_3_relu5_3_0_split_1
I0628 11:05:49.519893 45143 net.cpp:150] Setting up conv5_3_relu5_3_0_split
I0628 11:05:49.519907 45143 net.cpp:157] Top shape: 1 512 38 63 (1225728)
I0628 11:05:49.519912 45143 net.cpp:157] Top shape: 1 512 38 63 (1225728)
I0628 11:05:49.519914 45143 net.cpp:165] Memory required for data: 1553726292
I0628 11:05:49.519918 45143 layer_factory.hpp:77] Creating layer pool5
I0628 11:05:49.519942 45143 net.cpp:106] Creating Layer pool5
I0628 11:05:49.519954 45143 net.cpp:454] pool5 <- conv5_3_relu5_3_0_split_0
I0628 11:05:49.519970 45143 net.cpp:411] pool5 -> pool5
I0628 11:05:49.520033 45143 net.cpp:150] Setting up pool5
I0628 11:05:49.520047 45143 net.cpp:157] Top shape: 1 512 19 32 (311296)
I0628 11:05:49.520051 45143 net.cpp:165] Memory required for data: 1554971476
I0628 11:05:49.520054 45143 layer_factory.hpp:77] Creating layer P5
I0628 11:05:49.520063 45143 net.cpp:106] Creating Layer P5
I0628 11:05:49.520082 45143 net.cpp:454] P5 <- pool5
I0628 11:05:49.520099 45143 net.cpp:411] P5 -> P5
I0628 11:05:49.523174 45143 net.cpp:150] Setting up P5
I0628 11:05:49.523196 45143 net.cpp:157] Top shape: 1 256 19 32 (155648)
I0628 11:05:49.523200 45143 net.cpp:165] Memory required for data: 1555594068
I0628 11:05:49.523206 45143 layer_factory.hpp:77] Creating layer upP5
I0628 11:05:49.523247 45143 net.cpp:106] Creating Layer upP5
I0628 11:05:49.523254 45143 net.cpp:454] upP5 <- P5
I0628 11:05:49.523262 45143 net.cpp:411] upP5 -> upP5
I0628 11:05:49.525887 45143 net.cpp:150] Setting up upP5
I0628 11:05:49.525908 45143 net.cpp:157] Top shape: 1 256 38 64 (622592)
I0628 11:05:49.525913 45143 net.cpp:165] Memory required for data: 1558084436
I0628 11:05:49.525918 45143 layer_factory.hpp:77] Creating layer newC4
I0628 11:05:49.525928 45143 net.cpp:106] Creating Layer newC4
I0628 11:05:49.525934 45143 net.cpp:454] newC4 <- conv5_3_relu5_3_0_split_1
I0628 11:05:49.525943 45143 net.cpp:411] newC4 -> newC4
I0628 11:05:49.529654 45143 net.cpp:150] Setting up newC4
I0628 11:05:49.529678 45143 net.cpp:157] Top shape: 1 256 38 63 (612864)
I0628 11:05:49.529709 45143 net.cpp:165] Memory required for data: 1560535892
I0628 11:05:49.529723 45143 layer_factory.hpp:77] Creating layer newC4_newC4_0_split
I0628 11:05:49.529731 45143 net.cpp:106] Creating Layer newC4_newC4_0_split
I0628 11:05:49.529747 45143 net.cpp:454] newC4_newC4_0_split <- newC4
I0628 11:05:49.529762 45143 net.cpp:411] newC4_newC4_0_split -> newC4_newC4_0_split_0
I0628 11:05:49.529768 45143 net.cpp:411] newC4_newC4_0_split -> newC4_newC4_0_split_1
I0628 11:05:49.529845 45143 net.cpp:150] Setting up newC4_newC4_0_split
I0628 11:05:49.529860 45143 net.cpp:157] Top shape: 1 256 38 63 (612864)
I0628 11:05:49.529865 45143 net.cpp:157] Top shape: 1 256 38 63 (612864)
I0628 11:05:49.529867 45143 net.cpp:165] Memory required for data: 1565438804
I0628 11:05:49.529872 45143 layer_factory.hpp:77] Creating layer upP5crop
I0628 11:05:49.529898 45143 net.cpp:106] Creating Layer upP5crop
I0628 11:05:49.529908 45143 net.cpp:454] upP5crop <- upP5
I0628 11:05:49.529913 45143 net.cpp:454] upP5crop <- newC4_newC4_0_split_0
I0628 11:05:49.529920 45143 net.cpp:411] upP5crop -> upP5crop
I0628 11:05:49.530035 45143 net.cpp:150] Setting up upP5crop
I0628 11:05:49.530047 45143 net.cpp:157] Top shape: 1 256 38 63 (612864)
I0628 11:05:49.530050 45143 net.cpp:165] Memory required for data: 1567890260
I0628 11:05:49.530053 45143 layer_factory.hpp:77] Creating layer P4
I0628 11:05:49.530061 45143 net.cpp:106] Creating Layer P4
I0628 11:05:49.530064 45143 net.cpp:454] P4 <- newC4_newC4_0_split_1
I0628 11:05:49.530068 45143 net.cpp:454] P4 <- upP5crop
I0628 11:05:49.530076 45143 net.cpp:411] P4 -> P4
I0628 11:05:49.530100 45143 net.cpp:150] Setting up P4
I0628 11:05:49.530110 45143 net.cpp:157] Top shape: 1 256 38 63 (612864)
I0628 11:05:49.530113 45143 net.cpp:165] Memory required for data: 1570341716
I0628 11:05:49.530117 45143 layer_factory.hpp:77] Creating layer upP4
I0628 11:05:49.530125 45143 net.cpp:106] Creating Layer upP4
I0628 11:05:49.530128 45143 net.cpp:454] upP4 <- P4
I0628 11:05:49.530136 45143 net.cpp:411] upP4 -> upP4
I0628 11:05:49.532871 45143 net.cpp:150] Setting up upP4
I0628 11:05:49.532892 45143 net.cpp:157] Top shape: 1 256 76 126 (2451456)
I0628 11:05:49.532896 45143 net.cpp:165] Memory required for data: 1580147540
I0628 11:05:49.532902 45143 layer_factory.hpp:77] Creating layer newC3
I0628 11:05:49.532913 45143 net.cpp:106] Creating Layer newC3
I0628 11:05:49.532917 45143 net.cpp:454] newC3 <- conv4_3_relu4_3_0_split_1
I0628 11:05:49.532922 45143 net.cpp:411] newC3 -> newC3
I0628 11:05:49.536584 45143 net.cpp:150] Setting up newC3
I0628 11:05:49.536608 45143 net.cpp:157] Top shape: 1 256 75 125 (2400000)
I0628 11:05:49.536612 45143 net.cpp:165] Memory required for data: 1589747540
I0628 11:05:49.536625 45143 layer_factory.hpp:77] Creating layer newC3_newC3_0_split
I0628 11:05:49.536636 45143 net.cpp:106] Creating Layer newC3_newC3_0_split
I0628 11:05:49.536640 45143 net.cpp:454] newC3_newC3_0_split <- newC3
I0628 11:05:49.536648 45143 net.cpp:411] newC3_newC3_0_split -> newC3_newC3_0_split_0
I0628 11:05:49.536653 45143 net.cpp:411] newC3_newC3_0_split -> newC3_newC3_0_split_1
I0628 11:05:49.536697 45143 net.cpp:150] Setting up newC3_newC3_0_split
I0628 11:05:49.536710 45143 net.cpp:157] Top shape: 1 256 75 125 (2400000)
I0628 11:05:49.536713 45143 net.cpp:157] Top shape: 1 256 75 125 (2400000)
I0628 11:05:49.536715 45143 net.cpp:165] Memory required for data: 1608947540
I0628 11:05:49.536718 45143 layer_factory.hpp:77] Creating layer upP4crop
I0628 11:05:49.536725 45143 net.cpp:106] Creating Layer upP4crop
I0628 11:05:49.536730 45143 net.cpp:454] upP4crop <- upP4
I0628 11:05:49.536733 45143 net.cpp:454] upP4crop <- newC3_newC3_0_split_0
I0628 11:05:49.536737 45143 net.cpp:411] upP4crop -> upP4crop
I0628 11:05:49.536840 45143 net.cpp:150] Setting up upP4crop
I0628 11:05:49.536852 45143 net.cpp:157] Top shape: 1 256 75 125 (2400000)
I0628 11:05:49.536854 45143 net.cpp:165] Memory required for data: 1618547540
I0628 11:05:49.536859 45143 layer_factory.hpp:77] Creating layer P3
I0628 11:05:49.536865 45143 net.cpp:106] Creating Layer P3
I0628 11:05:49.536869 45143 net.cpp:454] P3 <- newC3_newC3_0_split_1
I0628 11:05:49.536872 45143 net.cpp:454] P3 <- upP4crop
I0628 11:05:49.536877 45143 net.cpp:411] P3 -> P3
I0628 11:05:49.536903 45143 net.cpp:150] Setting up P3
I0628 11:05:49.536913 45143 net.cpp:157] Top shape: 1 256 75 125 (2400000)
I0628 11:05:49.536916 45143 net.cpp:165] Memory required for data: 1628147540
I0628 11:05:49.536921 45143 layer_factory.hpp:77] Creating layer upP3
I0628 11:05:49.536926 45143 net.cpp:106] Creating Layer upP3
I0628 11:05:49.536929 45143 net.cpp:454] upP3 <- P3
I0628 11:05:49.536938 45143 net.cpp:411] upP3 -> upP3
I0628 11:05:49.539552 45143 net.cpp:150] Setting up upP3
I0628 11:05:49.539575 45143 net.cpp:157] Top shape: 1 256 150 250 (9600000)
I0628 11:05:49.539578 45143 net.cpp:165] Memory required for data: 1666547540
I0628 11:05:49.539584 45143 layer_factory.hpp:77] Creating layer upP3crop
I0628 11:05:49.539590 45143 net.cpp:106] Creating Layer upP3crop
I0628 11:05:49.539593 45143 net.cpp:454] upP3crop <- upP3
I0628 11:05:49.539600 45143 net.cpp:454] upP3crop <- conv3_3_relu3_3_0_split_1
I0628 11:05:49.539607 45143 net.cpp:411] upP3crop -> upP3crop
I0628 11:05:49.539711 45143 net.cpp:150] Setting up upP3crop
I0628 11:05:49.539723 45143 net.cpp:157] Top shape: 1 256 150 250 (9600000)
I0628 11:05:49.539726 45143 net.cpp:165] Memory required for data: 1704947540
I0628 11:05:49.539729 45143 layer_factory.hpp:77] Creating layer P2
I0628 11:05:49.539737 45143 net.cpp:106] Creating Layer P2
I0628 11:05:49.539741 45143 net.cpp:454] P2 <- conv3_3_relu3_3_0_split_2
I0628 11:05:49.539744 45143 net.cpp:454] P2 <- upP3crop
I0628 11:05:49.539748 45143 net.cpp:411] P2 -> P2
I0628 11:05:49.539774 45143 net.cpp:150] Setting up P2
I0628 11:05:49.539784 45143 net.cpp:157] Top shape: 1 256 150 250 (9600000)
I0628 11:05:49.539788 45143 net.cpp:165] Memory required for data: 1743347540
I0628 11:05:49.539791 45143 layer_factory.hpp:77] Creating layer newP2
I0628 11:05:49.539800 45143 net.cpp:106] Creating Layer newP2
I0628 11:05:49.539803 45143 net.cpp:454] newP2 <- P2
I0628 11:05:49.539810 45143 net.cpp:411] newP2 -> newP2
I0628 11:05:49.544342 45143 net.cpp:150] Setting up newP2
I0628 11:05:49.544365 45143 net.cpp:157] Top shape: 1 256 150 250 (9600000)
I0628 11:05:49.544369 45143 net.cpp:165] Memory required for data: 1781747540
I0628 11:05:49.544376 45143 layer_factory.hpp:77] Creating layer newP2_newP2_0_split
I0628 11:05:49.544383 45143 net.cpp:106] Creating Layer newP2_newP2_0_split
I0628 11:05:49.544386 45143 net.cpp:454] newP2_newP2_0_split <- newP2
I0628 11:05:49.544394 45143 net.cpp:411] newP2_newP2_0_split -> newP2_newP2_0_split_0
I0628 11:05:49.544399 45143 net.cpp:411] newP2_newP2_0_split -> newP2_newP2_0_split_1
I0628 11:05:49.544448 45143 net.cpp:150] Setting up newP2_newP2_0_split
I0628 11:05:49.544461 45143 net.cpp:157] Top shape: 1 256 150 250 (9600000)
I0628 11:05:49.544464 45143 net.cpp:157] Top shape: 1 256 150 250 (9600000)
I0628 11:05:49.544467 45143 net.cpp:165] Memory required for data: 1858547540
I0628 11:05:49.544471 45143 layer_factory.hpp:77] Creating layer rpn_conv/3x3
I0628 11:05:49.544482 45143 net.cpp:106] Creating Layer rpn_conv/3x3
I0628 11:05:49.544486 45143 net.cpp:454] rpn_conv/3x3 <- newP2_newP2_0_split_0
I0628 11:05:49.544492 45143 net.cpp:411] rpn_conv/3x3 -> rpn/output
I0628 11:05:49.580269 45143 net.cpp:150] Setting up rpn_conv/3x3
I0628 11:05:49.580307 45143 net.cpp:157] Top shape: 1 512 150 250 (19200000)
I0628 11:05:49.580310 45143 net.cpp:165] Memory required for data: 1935347540
I0628 11:05:49.580318 45143 layer_factory.hpp:77] Creating layer rpn_relu/3x3
I0628 11:05:49.580327 45143 net.cpp:106] Creating Layer rpn_relu/3x3
I0628 11:05:49.580332 45143 net.cpp:454] rpn_relu/3x3 <- rpn/output
I0628 11:05:49.580339 45143 net.cpp:397] rpn_relu/3x3 -> rpn/output (in-place)
I0628 11:05:49.581058 45143 net.cpp:150] Setting up rpn_relu/3x3
I0628 11:05:49.581074 45143 net.cpp:157] Top shape: 1 512 150 250 (19200000)
I0628 11:05:49.581077 45143 net.cpp:165] Memory required for data: 2012147540
I0628 11:05:49.581080 45143 layer_factory.hpp:77] Creating layer rpn/output_rpn_relu/3x3_0_split
I0628 11:05:49.581089 45143 net.cpp:106] Creating Layer rpn/output_rpn_relu/3x3_0_split
I0628 11:05:49.581094 45143 net.cpp:454] rpn/output_rpn_relu/3x3_0_split <- rpn/output
I0628 11:05:49.581099 45143 net.cpp:411] rpn/output_rpn_relu/3x3_0_split -> rpn/output_rpn_relu/3x3_0_split_0
I0628 11:05:49.581105 45143 net.cpp:411] rpn/output_rpn_relu/3x3_0_split -> rpn/output_rpn_relu/3x3_0_split_1
I0628 11:05:49.581158 45143 net.cpp:150] Setting up rpn/output_rpn_relu/3x3_0_split
I0628 11:05:49.581171 45143 net.cpp:157] Top shape: 1 512 150 250 (19200000)
I0628 11:05:49.581176 45143 net.cpp:157] Top shape: 1 512 150 250 (19200000)
I0628 11:05:49.581178 45143 net.cpp:165] Memory required for data: 2165747540
I0628 11:05:49.581182 45143 layer_factory.hpp:77] Creating layer rpn_cls_score
I0628 11:05:49.581194 45143 net.cpp:106] Creating Layer rpn_cls_score
I0628 11:05:49.581198 45143 net.cpp:454] rpn_cls_score <- rpn/output_rpn_relu/3x3_0_split_0
I0628 11:05:49.581205 45143 net.cpp:411] rpn_cls_score -> rpn_cls_score
I0628 11:05:49.586594 45143 net.cpp:150] Setting up rpn_cls_score
I0628 11:05:49.586617 45143 net.cpp:157] Top shape: 1 18 150 250 (675000)
I0628 11:05:49.586621 45143 net.cpp:165] Memory required for data: 2168447540
I0628 11:05:49.586628 45143 layer_factory.hpp:77] Creating layer rpn_cls_score_rpn_cls_score_0_split
I0628 11:05:49.586634 45143 net.cpp:106] Creating Layer rpn_cls_score_rpn_cls_score_0_split
I0628 11:05:49.586638 45143 net.cpp:454] rpn_cls_score_rpn_cls_score_0_split <- rpn_cls_score
I0628 11:05:49.586643 45143 net.cpp:411] rpn_cls_score_rpn_cls_score_0_split -> rpn_cls_score_rpn_cls_score_0_split_0
I0628 11:05:49.586653 45143 net.cpp:411] rpn_cls_score_rpn_cls_score_0_split -> rpn_cls_score_rpn_cls_score_0_split_1
I0628 11:05:49.586711 45143 net.cpp:150] Setting up rpn_cls_score_rpn_cls_score_0_split
I0628 11:05:49.586730 45143 net.cpp:157] Top shape: 1 18 150 250 (675000)
I0628 11:05:49.586735 45143 net.cpp:157] Top shape: 1 18 150 250 (675000)
I0628 11:05:49.586737 45143 net.cpp:165] Memory required for data: 2173847540
I0628 11:05:49.586740 45143 layer_factory.hpp:77] Creating layer rpn_bbox_pred
I0628 11:05:49.586753 45143 net.cpp:106] Creating Layer rpn_bbox_pred
I0628 11:05:49.586757 45143 net.cpp:454] rpn_bbox_pred <- rpn/output_rpn_relu/3x3_0_split_1
I0628 11:05:49.586762 45143 net.cpp:411] rpn_bbox_pred -> rpn_bbox_pred
I0628 11:05:49.595311 45143 net.cpp:150] Setting up rpn_bbox_pred
I0628 11:05:49.595335 45143 net.cpp:157] Top shape: 1 36 150 250 (1350000)
I0628 11:05:49.595338 45143 net.cpp:165] Memory required for data: 2179247540
I0628 11:05:49.595345 45143 layer_factory.hpp:77] Creating layer rpn_bbox_pred_rpn_bbox_pred_0_split
I0628 11:05:49.595355 45143 net.cpp:106] Creating Layer rpn_bbox_pred_rpn_bbox_pred_0_split
I0628 11:05:49.595360 45143 net.cpp:454] rpn_bbox_pred_rpn_bbox_pred_0_split <- rpn_bbox_pred
I0628 11:05:49.595366 45143 net.cpp:411] rpn_bbox_pred_rpn_bbox_pred_0_split -> rpn_bbox_pred_rpn_bbox_pred_0_split_0
I0628 11:05:49.595371 45143 net.cpp:411] rpn_bbox_pred_rpn_bbox_pred_0_split -> rpn_bbox_pred_rpn_bbox_pred_0_split_1
I0628 11:05:49.595432 45143 net.cpp:150] Setting up rpn_bbox_pred_rpn_bbox_pred_0_split
I0628 11:05:49.595444 45143 net.cpp:157] Top shape: 1 36 150 250 (1350000)
I0628 11:05:49.595448 45143 net.cpp:157] Top shape: 1 36 150 250 (1350000)
I0628 11:05:49.595451 45143 net.cpp:165] Memory required for data: 2190047540
I0628 11:05:49.595454 45143 layer_factory.hpp:77] Creating layer rpn_cls_score_reshape
I0628 11:05:49.595468 45143 net.cpp:106] Creating Layer rpn_cls_score_reshape
I0628 11:05:49.595471 45143 net.cpp:454] rpn_cls_score_reshape <- rpn_cls_score_rpn_cls_score_0_split_0
I0628 11:05:49.595476 45143 net.cpp:411] rpn_cls_score_reshape -> rpn_cls_score_reshape
I0628 11:05:49.595511 45143 net.cpp:150] Setting up rpn_cls_score_reshape
I0628 11:05:49.595522 45143 net.cpp:157] Top shape: 1 2 1350 250 (675000)
I0628 11:05:49.595525 45143 net.cpp:165] Memory required for data: 2192747540
I0628 11:05:49.595528 45143 layer_factory.hpp:77] Creating layer rpn_cls_score_reshape_rpn_cls_score_reshape_0_split
I0628 11:05:49.595533 45143 net.cpp:106] Creating Layer rpn_cls_score_reshape_rpn_cls_score_reshape_0_split
I0628 11:05:49.595536 45143 net.cpp:454] rpn_cls_score_reshape_rpn_cls_score_reshape_0_split <- rpn_cls_score_reshape
I0628 11:05:49.595542 45143 net.cpp:411] rpn_cls_score_reshape_rpn_cls_score_reshape_0_split -> rpn_cls_score_reshape_rpn_cls_score_reshape_0_split_0
I0628 11:05:49.595547 45143 net.cpp:411] rpn_cls_score_reshape_rpn_cls_score_reshape_0_split -> rpn_cls_score_reshape_rpn_cls_score_reshape_0_split_1
I0628 11:05:49.595599 45143 net.cpp:150] Setting up rpn_cls_score_reshape_rpn_cls_score_reshape_0_split
I0628 11:05:49.595610 45143 net.cpp:157] Top shape: 1 2 1350 250 (675000)
I0628 11:05:49.595614 45143 net.cpp:157] Top shape: 1 2 1350 250 (675000)
I0628 11:05:49.595618 45143 net.cpp:165] Memory required for data: 2198147540
I0628 11:05:49.595619 45143 layer_factory.hpp:77] Creating layer rpn-data
I0628 11:05:49.596480 45143 net.cpp:106] Creating Layer rpn-data
I0628 11:05:49.596503 45143 net.cpp:454] rpn-data <- rpn_cls_score_rpn_cls_score_0_split_1
I0628 11:05:49.596509 45143 net.cpp:454] rpn-data <- gt_boxes_input-data_2_split_0
I0628 11:05:49.596514 45143 net.cpp:454] rpn-data <- im_info_input-data_1_split_0
I0628 11:05:49.596518 45143 net.cpp:454] rpn-data <- data_input-data_0_split_1
I0628 11:05:49.596524 45143 net.cpp:411] rpn-data -> rpn_labels
I0628 11:05:49.596530 45143 net.cpp:411] rpn-data -> rpn_bbox_targets
I0628 11:05:49.596536 45143 net.cpp:411] rpn-data -> rpn_bbox_inside_weights
I0628 11:05:49.596541 45143 net.cpp:411] rpn-data -> rpn_bbox_outside_weights
I0628 11:05:49.599057 45143 net.cpp:150] Setting up rpn-data
I0628 11:05:49.599082 45143 net.cpp:157] Top shape: 1 1 1350 250 (337500)
I0628 11:05:49.599087 45143 net.cpp:157] Top shape: 1 36 150 250 (1350000)
I0628 11:05:49.599092 45143 net.cpp:157] Top shape: 1 36 150 250 (1350000)
I0628 11:05:49.599094 45143 net.cpp:157] Top shape: 1 36 150 250 (1350000)
I0628 11:05:49.599097 45143 net.cpp:165] Memory required for data: 2215697540
I0628 11:05:49.599102 45143 layer_factory.hpp:77] Creating layer rpn_loss_cls
I0628 11:05:49.599123 45143 net.cpp:106] Creating Layer rpn_loss_cls
I0628 11:05:49.599128 45143 net.cpp:454] rpn_loss_cls <- rpn_cls_score_reshape_rpn_cls_score_reshape_0_split_0
I0628 11:05:49.599134 45143 net.cpp:454] rpn_loss_cls <- rpn_labels
…
I0628 11:05:49.610832 45143 net.cpp:157] Top shape: (1)
I0628 11:05:49.610836 45143 net.cpp:160]     with loss weight 1
I0628 11:05:49.610847 45143 net.cpp:165] Memory required for data: 2215697548
I0628 11:05:49.610851 45143 layer_factory.hpp:77] Creating layer rpn_cls_prob
I0628 11:05:49.610858 45143 net.cpp:106] Creating Layer rpn_cls_prob
I0628 11:05:49.610862 45143 net.cpp:454] rpn_cls_prob <- rpn_cls_score_reshape_rpn_cls_score_reshape_0_split_1
I0628 11:05:49.610868 45143 net.cpp:411] rpn_cls_prob -> rpn_cls_prob
I0628 11:05:49.612040 45143 net.cpp:150] Setting up rpn_cls_prob
I0628 11:05:49.612061 45143 net.cpp:157] Top shape: 1 2 1350 250 (675000)
I0628 11:05:49.612064 45143 net.cpp:165] Memory required for data: 2218397548
I0628 11:05:49.612067 45143 layer_factory.hpp:77] Creating layer rpn_cls_prob_reshape
I0628 11:05:49.612077 45143 net.cpp:106] Creating Layer rpn_cls_prob_reshape
I0628 11:05:49.612082 45143 net.cpp:454] rpn_cls_prob_reshape <- rpn_cls_prob
I0628 11:05:49.612087 45143 net.cpp:411] rpn_cls_prob_reshape -> rpn_cls_prob_reshape
I0628 11:05:49.612123 45143 net.cpp:150] Setting up rpn_cls_prob_reshape
I0628 11:05:49.612135 45143 net.cpp:157] Top shape: 1 18 150 250 (675000)
I0628 11:05:49.612138 45143 net.cpp:165] Memory required for data: 2221097548
I0628 11:05:49.612141 45143 layer_factory.hpp:77] Creating layer proposal
I0628 11:05:49.613406 45143 net.cpp:106] Creating Layer proposal
I0628 11:05:49.613430 45143 net.cpp:454] proposal <- rpn_cls_prob_reshape
I0628 11:05:49.613435 45143 net.cpp:454] proposal <- rpn_bbox_pred_rpn_bbox_pred_0_split_1
I0628 11:05:49.613440 45143 net.cpp:454] proposal <- im_info_input-data_1_split_1
I0628 11:05:49.613445 45143 net.cpp:411] proposal -> rpn_rois
I0628 11:05:49.614411 45143 net.cpp:150] Setting up proposal
I0628 11:05:49.614434 45143 net.cpp:157] Top shape: 1 5 (5)
I0628 11:05:49.614439 45143 net.cpp:165] Memory required for data: 2221097568
I0628 11:05:49.614444 45143 layer_factory.hpp:77] Creating layer roi-data
I0628 11:05:49.614636 45143 net.cpp:106] Creating Layer roi-data
I0628 11:05:49.614655 45143 net.cpp:454] roi-data <- rpn_rois
I0628 11:05:49.614661 45143 net.cpp:454] roi-data <- gt_boxes_input-data_2_split_1
I0628 11:05:49.614667 45143 net.cpp:411] roi-data -> rois
I0628 11:05:49.614675 45143 net.cpp:411] roi-data -> labels
I0628 11:05:49.614681 45143 net.cpp:411] roi-data -> bbox_targets
I0628 11:05:49.614686 45143 net.cpp:411] roi-data -> bbox_inside_weights
I0628 11:05:49.614691 45143 net.cpp:411] roi-data -> bbox_outside_weights
I0628 11:05:49.615106 45143 net.cpp:150] Setting up roi-data
I0628 11:05:49.615128 45143 net.cpp:157] Top shape: 1 5 (5)
I0628 11:05:49.615131 45143 net.cpp:157] Top shape: 1 1 (1)
I0628 11:05:49.615135 45143 net.cpp:157] Top shape: 1 84 (84)
I0628 11:05:49.615139 45143 net.cpp:157] Top shape: 1 84 (84)
I0628 11:05:49.615141 45143 net.cpp:157] Top shape: 1 84 (84)
I0628 11:05:49.615144 45143 net.cpp:165] Memory required for data: 2221098600
I0628 11:05:49.615147 45143 layer_factory.hpp:77] Creating layer roi_pool5
I0628 11:05:49.615159 45143 net.cpp:106] Creating Layer roi_pool5
I0628 11:05:49.615171 45143 net.cpp:454] roi_pool5 <- newP2_newP2_0_split_1
I0628 11:05:49.615176 45143 net.cpp:454] roi_pool5 <- rois
I0628 11:05:49.615180 45143 net.cpp:411] roi_pool5 -> rcnn_pool5
I0628 11:05:49.615190 45143 roi_pooling_layer.cpp:30] Spatial scale: 0.25
I0628 11:05:49.615249 45143 net.cpp:150] Setting up roi_pool5
I0628 11:05:49.615260 45143 net.cpp:157] Top shape: 1 256 7 7 (12544)
I0628 11:05:49.615263 45143 net.cpp:165] Memory required for data: 2221148776
I0628 11:05:49.615267 45143 layer_factory.hpp:77] Creating layer rcnn_fc6
I0628 11:05:49.615278 45143 net.cpp:106] Creating Layer rcnn_fc6
I0628 11:05:49.615281 45143 net.cpp:454] rcnn_fc6 <- rcnn_pool5
I0628 11:05:49.615286 45143 net.cpp:411] rcnn_fc6 -> rcnn_fc6
I0628 11:05:49.993887 45143 net.cpp:150] Setting up rcnn_fc6
I0628 11:05:49.993948 45143 net.cpp:157] Top shape: 1 4096 (4096)
I0628 11:05:49.993954 45143 net.cpp:165] Memory required for data: 2221165160
I0628 11:05:49.993969 45143 layer_factory.hpp:77] Creating layer relu6
I0628 11:05:49.993980 45143 net.cpp:106] Creating Layer relu6
I0628 11:05:49.993988 45143 net.cpp:454] relu6 <- rcnn_fc6
I0628 11:05:49.993996 45143 net.cpp:397] relu6 -> rcnn_fc6 (in-place)
I0628 11:05:49.995064 45143 net.cpp:150] Setting up relu6
I0628 11:05:49.995085 45143 net.cpp:157] Top shape: 1 4096 (4096)
I0628 11:05:49.995090 45143 net.cpp:165] Memory required for data: 2221181544
I0628 11:05:49.995097 45143 layer_factory.hpp:77] Creating layer drop6
I0628 11:05:49.995115 45143 net.cpp:106] Creating Layer drop6
I0628 11:05:49.995120 45143 net.cpp:454] drop6 <- rcnn_fc6
I0628 11:05:49.995127 45143 net.cpp:397] drop6 -> rcnn_fc6 (in-place)
I0628 11:05:49.995184 45143 net.cpp:150] Setting up drop6
I0628 11:05:49.995192 45143 net.cpp:157] Top shape: 1 4096 (4096)
I0628 11:05:49.995194 45143 net.cpp:165] Memory required for data: 2221197928
I0628 11:05:49.995198 45143 layer_factory.hpp:77] Creating layer fc7
I0628 11:05:49.995206 45143 net.cpp:106] Creating Layer fc7
I0628 11:05:49.995210 45143 net.cpp:454] fc7 <- rcnn_fc6
I0628 11:05:49.995218 45143 net.cpp:411] fc7 -> fc7
I0628 11:05:50.118196 45143 net.cpp:150] Setting up fc7
I0628 11:05:50.118250 45143 net.cpp:157] Top shape: 1 4096 (4096)
I0628 11:05:50.118255 45143 net.cpp:165] Memory required for data: 2221214312
I0628 11:05:50.118268 45143 layer_factory.hpp:77] Creating layer relu7
I0628 11:05:50.118280 45143 net.cpp:106] Creating Layer relu7
I0628 11:05:50.118286 45143 net.cpp:454] relu7 <- fc7
I0628 11:05:50.118296 45143 net.cpp:397] relu7 -> fc7 (in-place)
I0628 11:05:50.118568 45143 net.cpp:150] Setting up relu7
I0628 11:05:50.118576 45143 net.cpp:157] Top shape: 1 4096 (4096)
I0628 11:05:50.118578 45143 net.cpp:165] Memory required for data: 2221230696
I0628 11:05:50.118582 45143 layer_factory.hpp:77] Creating layer drop7
I0628 11:05:50.118589 45143 net.cpp:106] Creating Layer drop7
I0628 11:05:50.118594 45143 net.cpp:454] drop7 <- fc7
I0628 11:05:50.118599 45143 net.cpp:397] drop7 -> fc7 (in-place)
I0628 11:05:50.118630 45143 net.cpp:150] Setting up drop7
I0628 11:05:50.118635 45143 net.cpp:157] Top shape: 1 4096 (4096)
I0628 11:05:50.118638 45143 net.cpp:165] Memory required for data: 2221247080
I0628 11:05:50.118641 45143 layer_factory.hpp:77] Creating layer fc7_drop7_0_split
I0628 11:05:50.118651 45143 net.cpp:106] Creating Layer fc7_drop7_0_split
I0628 11:05:50.118655 45143 net.cpp:454] fc7_drop7_0_split <- fc7
I0628 11:05:50.118659 45143 net.cpp:411] fc7_drop7_0_split -> fc7_drop7_0_split_0
I0628 11:05:50.118666 45143 net.cpp:411] fc7_drop7_0_split -> fc7_drop7_0_split_1
I0628 11:05:50.118711 45143 net.cpp:150] Setting up fc7_drop7_0_split
I0628 11:05:50.118716 45143 net.cpp:157] Top shape: 1 4096 (4096)
I0628 11:05:50.118721 45143 net.cpp:157] Top shape: 1 4096 (4096)
I0628 11:05:50.118722 45143 net.cpp:165] Memory required for data: 2221279848
I0628 11:05:50.118726 45143 layer_factory.hpp:77] Creating layer cls_score
I0628 11:05:50.118738 45143 net.cpp:106] Creating Layer cls_score
I0628 11:05:50.118741 45143 net.cpp:454] cls_score <- fc7_drop7_0_split_0
I0628 11:05:50.118746 45143 net.cpp:411] cls_score -> cls_score
I0628 11:05:50.120968 45143 net.cpp:150] Setting up cls_score
I0628 11:05:50.120990 45143 net.cpp:157] Top shape: 1 21 (21)
I0628 11:05:50.120993 45143 net.cpp:165] Memory required for data: 2221279932
I0628 11:05:50.121002 45143 layer_factory.hpp:77] Creating layer bbox_pred
I0628 11:05:50.121009 45143 net.cpp:106] Creating Layer bbox_pred
I0628 11:05:50.121016 45143 net.cpp:454] bbox_pred <- fc7_drop7_0_split_1
I0628 11:05:50.121027 45143 net.cpp:411] bbox_pred -> bbox_pred
I0628 11:05:50.130219 45143 net.cpp:150] Setting up bbox_pred
I0628 11:05:50.130244 45143 net.cpp:157] Top shape: 1 84 (84)
I0628 11:05:50.130247 45143 net.cpp:165] Memory required for data: 2221280268
I0628 11:05:50.130254 45143 layer_factory.hpp:77] Creating layer loss_cls
I0628 11:05:50.130261 45143 net.cpp:106] Creating Layer loss_cls
I0628 11:05:50.130265 45143 net.cpp:454] loss_cls <- cls_score
I0628 11:05:50.130270 45143 net.cpp:454] loss_cls <- labels
I0628 11:05:50.130275 45143 net.cpp:411] loss_cls -> loss_cls
…
