…
stepsize: 50000
snapshot: 0
snapshot_prefix: "fpn"
average_loss: 100
iter_size: 2
I0727 15:41:14.814680 27294 solver.cpp:81] Creating training net from train_net file: models/pascal_voc/VGG16/FP_Net_end2end/train.prototxt
I0727 15:41:14.816237 27294 net.cpp:49] Initializing net from parameters: 
name: "VGG_ILSVRC_16_layers"
state {
  phase: TRAIN
}
layer {
  name: "input-data"
  type: "Python"
  top: "data"
  top: "im_info"
  top: "gt_boxes"
  python_param {
    module: "roi_data_layer.layer"
    layer: "RoIDataLayer"
    param_str: "\'num_classes\': 21"
  }
}
layer {
  name: "conv1_1"
  type: "Convolution"
  bottom: "data"
  top: "conv1_1"
  param {
    lr_mult: 0
    decay_mult: 0
  }
  param {
    lr_mult: 0
    decay_mult: 0
  }
  convolution_param {
    num_output: 64
    pad: 1
    kernel_size: 3
  }
}
layer {
  name: "relu1_1"
  type: "ReLU"
  bottom: "conv1_1"
  top: "conv1_1"
}
layer {
  name: "conv1_2"
  type: "Convolution"
  bottom: "conv1_1"
  top: "conv1_2"
  param {
    lr_mult: 0
    decay_mult: 0
  }
  param {
    lr_mult: 0
    decay_mult: 0
  }
  convolution_param {
    num_output: 64
    pad: 1
    kernel_size: 3
  }
}
layer {
  name: "relu1_2"
  type: "ReLU"
  bottom: "conv1_2"
  top: "conv1_2"
}
layer {
  name: "pool1"
  type: "Pooling"
  bottom: "conv1_2"
  top: "pool1"
  pooling_param {
    pool: MAX
    kernel_size: 2
    stride: 2
  }
}
layer {
  name: "conv2_1"
  type: "Convolution"
  bottom: "pool1"
  top: "conv2_1"
  param {
    lr_mult: 0
    decay_mult: 0
  }
  param {
    lr_mult: 0
    decay_mult: 0
  }
  convolution_param {
    num_output: 128
    pad: 1
    kernel_size: 3
  }
}
layer {
  name: "relu2_1"
  type: "ReLU"
  bottom: "conv2_1"
  top: "conv2_1"
}
layer {
  name: "conv2_2"
  type: "Convolution"
  bottom: "conv2_1"
  top: "conv2_2"
  param {
    lr_mult: 0
    decay_mult: 0
  }
  param {
    lr_mult: 0
    decay_mult: 0
  }
  convolution_param {
    num_output: 128
    pad: 1
    kernel_size: 3
  }
}
layer {
  name: "relu2_2"
  type: "ReLU"
  bottom: "conv2_2"
  top: "conv2_2"
}
layer {
  name: "pool2"
  type: "Pooling"
  bottom: "conv2_2"
  top: "pool2"
  pooling_param {
    pool: MAX
    kernel_size: 2
    stride: 2
  }
}
layer {
  name: "conv3_1"
  type: "Convolution"
  bottom: "pool2"
  top: "conv3_1"
  param {
    lr_mult: 1
  }
  param {
    lr_mult: 2
  }
  convolution_param {
    num_output: 256
    pad: 1
    kernel_size: 3
  }
}
layer {
  name: "relu3_1"
  type: "ReLU"
  bottom: "conv3_1"
  top: "conv3_1"
}
layer {
  name: "conv3_2"
  type: "Convolution"
  bottom: "conv3_1"
  top: "conv3_2"
  param {
    lr_mult: 1
  }
  param {
    lr_mult: 2
  }
  convolution_param {
    num_output: 256
    pad: 1
    kernel_size: 3
  }
}
layer {
  name: "relu3_2"
  type: "ReLU"
  bottom: "conv3_2"
  top: "conv3_2"
}
layer {
  name: "conv3_3"
  type: "Convolution"
  bottom: "conv3_2"
  top: "conv3_3"
  param {
    lr_mult: 1
  }
  param {
    lr_mult: 2
  }
  convolution_param {
    num_output: 256
    pad: 1
    kernel_size: 3
  }
}
layer {
  name: "relu3_3"
  type: "ReLU"
  bottom: "conv3_3"
  top: "conv3_3"
}
layer {
  name: "pool3"
  type: "Pooling"
  bottom: "conv3_3"
  top: "pool3"
  pooling_param {
    pool: MAX
    kernel_size: 2
    stride: 2
  }
}
layer {
  name: "conv4_1"
  type: "Convolution"
  bottom: "pool3"
  top: "conv4_1"
  param {
    lr_mult: 1
  }
  param {
    lr_mult: 2
  }
  convolution_param {
    num_output: 512
    pad: 1
    kernel_size: 3
  }
}
layer {
  name: "relu4_1"
  type: "ReLU"
  bottom: "conv4_1"
  top: "conv4_1"
}
layer {
  name: "conv4_2"
  type: "Convolution"
  bottom: "conv4_1"
  top: "conv4_2"
  param {
    lr_mult: 1
  }
  param {
    lr_mult: 2
  }
  convolution_param {
    num_output: 512
    pad: 1
    kernel_size: 3
  }
}
layer {
  name: "relu4_2"
  type: "ReLU"
  bottom: "conv4_2"
  top: "conv4_2"
}
layer {
  name: "conv4_3"
  type: "Convolution"
  bottom: "conv4_2"
  top: "conv4_3"
  param {
    lr_mult: 1
  }
  param {
    lr_mult: 2
  }
  convolution_param {
    num_output: 512
    pad: 1
    kernel_size: 3
  }
}
layer {
  name: "relu4_3"
  type: "ReLU"
  bottom: "conv4_3"
  top: "conv4_3"
}
layer {
  name: "pool4"
  type: "Pooling"
  bottom: "conv4_3"
  top: "pool4"
  pooling_param {
    pool: MAX
    kernel_size: 2
    stride: 2
  }
}
layer {
  name: "conv5_1"
  type: "Convolution"
  bottom: "pool4"
  top: "conv5_1"
  param {
    lr_mult: 1
  }
  param {
    lr_mult: 2
  }
  convolution_param {
    num_output: 512
    pad: 1
    kernel_size: 3
  }
}
layer {
  name: "relu5_1"
  type: "ReLU"
  bottom: "conv5_1"
  top: "conv5_1"
}
layer {
  name: "conv5_2"
  type: "Convolution"
  bottom: "conv5_1"
  top: "conv5_2"
  param {
    lr_mult: 1
  }
  param {
    lr_mult: 2
  }
  convolution_param {
    num_output: 512
    pad: 1
    kernel_size: 3
  }
}
layer {
  name: "relu5_2"
  type: "ReLU"
  bottom: "conv5_2"
  top: "conv5_2"
}
layer {
  name: "conv5_3"
  type: "Convolution"
  bottom: "conv5_2"
  top: "conv5_3"
  param {
    lr_mult: 1
  }
  param {
    lr_mult: 2
  }
  convolution_param {
    num_output: 512
    pad: 1
    kernel_size: 3
  }
}
layer {
  name: "relu5_3"
  type: "ReLU"
  bottom: "conv5_3"
  top: "conv5_3"
}
layer {
  name: "rpn_conv/3x3"
  type: "Convolution"
  bottom: "conv5_3"
  top: "rpn/output"
  param {
    lr_mult: 1
  }
  param {
    lr_mult: 2
  }
  convolution_param {
    num_output: 512
    pad: 1
    kernel_size: 3
    stride: 1
    weight_filler {
      type: "gaussian"
      std: 0.01
    }
    bias_filler {
      type: "constant"
      value: 0
    }
  }
}
layer {
  name: "rpn_relu/3x3"
  type: "ReLU"
  bottom: "rpn/output"
  top: "rpn/output"
}
layer {
  name: "rpn_cls_score"
  type: "Convolution"
  bottom: "rpn/output"
  top: "rpn_cls_score"
  param {
    lr_mult: 1
  }
  param {
    lr_mult: 2
  }
  convolution_param {
    num_output: 36
    pad: 0
    kernel_size: 1
    stride: 1
    weight_filler {
      type: "gaussian"
      std: 0.01
    }
    bias_filler {
      type: "constant"
      value: 0
    }
  }
}
layer {
  name: "rpn_bbox_pred"
  type: "Convolution"
  bottom: "rpn/output"
  top: "rpn_bbox_pred"
  param {
    lr_mult: 1
  }
  param {
    lr_mult: 2
  }
  convolution_param {
    num_output: 72
    pad: 0
    kernel_size: 1
    stride: 1
    weight_filler {
      type: "gaussian"
      std: 0.01
    }
    bias_filler {
      type: "constant"
      value: 0
    }
  }
}
layer {
  name: "rpn_cls_score_reshape"
  type: "Reshape"
  bottom: "rpn_cls_score"
  top: "rpn_cls_score_reshape"
  reshape_param {
    shape {
      dim: 0
      dim: 2
      dim: -1
      dim: 0
    }
  }
}
layer {
  name: "rpn-data"
  type: "Python"
  bottom: "rpn_cls_score"
  bottom: "gt_boxes"
  bottom: "im_info"
  bottom: "data"
  top: "rpn_labels"
  top: "rpn_bbox_targets"
  top: "rpn_bbox_inside_weights"
  top: "rpn_bbox_outside_weights"
  python_param {
    module: "rpn.anchor_target_layer"
    layer: "AnchorTargetLayer"
    param_str: "\'feat_stride\': 16"
  }
}
layer {
  name: "rpn_loss_cls"
  type: "SoftmaxWithLoss"
  bottom: "rpn_cls_score_reshape"
  bottom: "rpn_labels"
  top: "rpn_cls_loss"
  loss_weight: 1
  propagate_down: true
  propagate_down: false
  loss_param {
    ignore_label: -1
    normalize: true
  }
}
layer {
  name: "rpn_loss_bbox"
  type: "SmoothL1Loss"
  bottom: "rpn_bbox_pred"
  bottom: "rpn_bbox_targets"
  bottom: "rpn_bbox_inside_weights"
  bottom: "rpn_bbox_outside_weights"
  top: "rpn_loss_bbox"
  loss_weight: 1
  smooth_l1_loss_param {
    sigma: 3
  }
}
layer {
  name: "rpn_cls_prob"
  type: "Softmax"
  bottom: "rpn_cls_score_reshape"
  top: "rpn_cls_prob"
}
layer {
  name: "rpn_cls_prob_reshape"
  type: "Reshape"
  bottom: "rpn_cls_prob"
  top: "rpn_cls_prob_reshape"
  reshape_param {
    shape {
      dim: 0
      dim: 36
      dim: -1
      dim: 0
    }
  }
}
layer {
  name: "proposal"
  type: "Python"
  bottom: "rpn_cls_prob_reshape"
  bottom: "rpn_bbox_pred"
  bottom: "im_info"
  top: "rpn_rois"
  python_param {
    module: "rpn.proposal_layer"
    layer: "ProposalLayer"
    param_str: "\'feat_stride\': 16"
  }
}
layer {
  name: "roi-data"
  type: "Python"
  bottom: "rpn_rois"
  bottom: "gt_boxes"
  top: "rois"
  top: "labels"
  top: "bbox_targets"
  top: "bbox_inside_weights"
  top: "bbox_outside_weights"
  python_param {
    module: "rpn.proposal_target_layer"
    layer: "ProposalTargetLayer"
    param_str: "\'num_classes\': 21"
  }
}
layer {
  name: "roi_pool5_readonly"
  type: "ROIPooling"
  bottom: "conv5_3"
  bottom: "rois"
  top: "pool5_readonly"
  propagate_down: false
  propagate_down: false
  roi_pooling_param {
    pooled_h: 7
    pooled_w: 7
    spatial_scale: 0.0625
  }
}
layer {
  name: "fc6_readonly"
  type: "InnerProduct"
  bottom: "pool5_readonly"
  top: "fc6_readonly"
  param {
    name: "fc6_w"
  }
  param {
    name: "fc6_b"
  }
  propagate_down: false
  inner_product_param {
    num_output: 4096
  }
}
layer {
  name: "relu6_readonly"
  type: "ReLU"
  bottom: "fc6_readonly"
  top: "fc6_readonly"
  propagate_down: false
}
layer {
  name: "drop6_readonly"
  type: "Dropout"
  bottom: "fc6_readonly"
  top: "fc6_readonly"
  propagate_down: false
  dropout_param {
    dropout_ratio: 0.5
  }
}
layer {
  name: "fc7_readonly"
  type: "InnerProduct"
  bottom: "fc6_readonly"
  top: "fc7_readonly"
  param {
    name: "fc7_w"
  }
  param {
    name: "fc7_b"
  }
  propagate_down: false
  inner_product_param {
    num_output: 4096
  }
}
layer {
  name: "relu7_readonly"
  type: "ReLU"
  bottom: "fc7_readonly"
  top: "fc7_readonly"
  propagate_down: false
}
layer {
  name: "drop7_readonly"
  type: "Dropout"
  bottom: "fc7_readonly"
  top: "fc7_readonly"
  propagate_down: false
  dropout_param {
    dropout_ratio: 0.5
  }
}
layer {
  name: "cls_score_readonly"
  type: "InnerProduct"
  bottom: "fc7_readonly"
  top: "cls_score_readonly"
  param {
    name: "cls_score_w"
  }
  param {
    name: "cls_score_b"
  }
  propagate_down: false
  inner_product_param {
    num_output: 21
    weight_filler {
      type: "gaussian"
      std: 0.01
    }
    bias_filler {
      type: "constant"
      value: 0
    }
  }
}
layer {
  name: "bbox_pred_readonly"
  type: "InnerProduct"
  bottom: "fc7_readonly"
  top: "bbox_pred_readonly"
  param {
    name: "bbox_pred_w"
  }
  param {
    name: "bbox_pred_b"
  }
  propagate_down: false
  inner_product_param {
    num_output: 84
    weight_filler {
      type: "gaussian"
      std: 0.001
    }
    bias_filler {
      type: "constant"
      value: 0
    }
  }
}
layer {
  name: "cls_prob_readonly"
  type: "Softmax"
  bottom: "cls_score_readonly"
  top: "cls_prob_readonly"
  propagate_down: false
}
layer {
  name: "hard_roi_mining"
  type: "Python"
  bottom: "cls_prob_readonly"
  bottom: "bbox_pred_readonly"
  bottom: "rois"
  bottom: "labels"
  bottom: "bbox_targets"
  bottom: "bbox_inside_weights"
  bottom: "bbox_outside_weights"
  top: "rois_hard"
  top: "labels_hard"
  top: "bbox_targets_hard"
  top: "bbox_inside_weights_hard"
  top: "bbox_outside_weights_hard"
  propagate_down: false
  propagate_down: false
  propagate_down: false
  propagate_down: false
  propagate_down: false
  propagate_down: false
  propagate_down: false
  python_param {
    module: "roi_data_layer.layer"
    layer: "OHEMDataLayer"
    param_str: "\'num_classes\': 21"
  }
}
layer {
  name: "roi_pool5"
  type: "ROIPooling"
  bottom: "conv5_3"
  bottom: "rois_hard"
  top: "pool5"
  roi_pooling_param {
    pooled_h: 7
    pooled_w: 7
    spatial_scale: 0.0625
  }
}
layer {
  name: "fc6"
  type: "InnerProduct"
  bottom: "pool5"
  top: "fc6"
  param {
    name: "fc6_w"
    lr_mult: 1
  }
  param {
    name: "fc6_b"
    lr_mult: 2
  }
  inner_product_param {
    num_output: 4096
  }
}
layer {
  name: "relu6"
  type: "ReLU"
  bottom: "fc6"
  top: "fc6"
}
layer {
  name: "drop6"
  type: "Dropout"
  bottom: "fc6"
  top: "fc6"
  dropout_param {
    dropout_ratio: 0.5
  }
}
layer {
  name: "fc7"
  type: "InnerProduct"
  bottom: "fc6"
  top: "fc7"
  param {
    name: "fc7_w"
    lr_mult: 1
  }
  param {
    name: "fc7_b"
    lr_mult: 2
  }
  inner_product_param {
    num_output: 4096
  }
}
layer {
  name: "relu7"
  type: "ReLU"
  bottom: "fc7"
  top: "fc7"
}
layer {
  name: "drop7"
  type: "Dropout"
  bottom: "fc7"
  top: "fc7"
  dropout_param {
    dropout_ratio: 0.5
  }
}
layer {
  name: "cls_score"
  type: "InnerProduct"
  bottom: "fc7"
  top: "cls_score"
  param {
    name: "cls_score_w"
    lr_mult: 1
  }
  param {
    name: "cls_score_b"
    lr_mult: 2
  }
  inner_product_param {
    num_output: 21
    weight_filler {
      type: "gaussian"
      std: 0.01
    }
    bias_filler {
      type: "constant"
      value: 0
    }
  }
}
layer {
  name: "bbox_pred"
  type: "InnerProduct"
  bottom: "fc7"
  top: "bbox_pred"
  param {
    name: "bbox_pred_w"
    lr_mult: 1
  }
  param {
    name: "bbox_pred_b"
    lr_mult: 2
  }
  inner_product_param {
    num_output: 84
    weight_filler {
      type: "gaussian"
      std: 0.001
    }
    bias_filler {
      type: "constant"
      value: 0
    }
  }
}
layer {
  name: "loss_cls"
  type: "SoftmaxWithLoss"
  bottom: "cls_score"
  bottom: "labels_hard"
  top: "loss_cls"
  loss_weight: 1
  propagate_down: true
  propagate_down: false
}
layer {
  name: "loss_bbox"
  type: "SmoothL1Loss"
  bottom: "bbox_pred"
  bottom: "bbox_targets_hard"
  bottom: "bbox_inside_weights_hard"
  bottom: "bbox_outside_weights_hard"
  top: "loss_bbox"
  loss_weight: 1
}
I0727 15:41:14.816581 27294 layer_factory.hpp:77] Creating layer input-data
I0727 15:41:14.821421 27294 net.cpp:106] Creating Layer input-data
I0727 15:41:14.821471 27294 net.cpp:411] input-data -> data
I0727 15:41:14.821516 27294 net.cpp:411] input-data -> im_info
I0727 15:41:14.821540 27294 net.cpp:411] input-data -> gt_boxes
RoiDataLayer: name_to_top: {'gt_boxes': 2, 'data': 0, 'im_info': 1}
I0727 15:41:14.903321 27294 net.cpp:150] Setting up input-data
I0727 15:41:14.903360 27294 net.cpp:157] Top shape: 1 3 375 520 (585000)
I0727 15:41:14.903393 27294 net.cpp:157] Top shape: 1 3 (3)
I0727 15:41:14.903404 27294 net.cpp:157] Top shape: 1 4 (4)
I0727 15:41:14.903408 27294 net.cpp:165] Memory required for data: 2340028
I0727 15:41:14.903416 27294 layer_factory.hpp:77] Creating layer data_input-data_0_split
I0727 15:41:14.903446 27294 net.cpp:106] Creating Layer data_input-data_0_split
I0727 15:41:14.903457 27294 net.cpp:454] data_input-data_0_split <- data
I0727 15:41:14.903470 27294 net.cpp:411] data_input-data_0_split -> data_input-data_0_split_0
I0727 15:41:14.903493 27294 net.cpp:411] data_input-data_0_split -> data_input-data_0_split_1
I0727 15:41:14.903547 27294 net.cpp:150] Setting up data_input-data_0_split
I0727 15:41:14.903558 27294 net.cpp:157] Top shape: 1 3 375 520 (585000)
I0727 15:41:14.903563 27294 net.cpp:157] Top shape: 1 3 375 520 (585000)
I0727 15:41:14.903565 27294 net.cpp:165] Memory required for data: 7020028
I0727 15:41:14.903569 27294 layer_factory.hpp:77] Creating layer im_info_input-data_1_split
I0727 15:41:14.903589 27294 net.cpp:106] Creating Layer im_info_input-data_1_split
I0727 15:41:14.903599 27294 net.cpp:454] im_info_input-data_1_split <- im_info
I0727 15:41:14.903606 27294 net.cpp:411] im_info_input-data_1_split -> im_info_input-data_1_split_0
I0727 15:41:14.903622 27294 net.cpp:411] im_info_input-data_1_split -> im_info_input-data_1_split_1
I0727 15:41:14.903668 27294 net.cpp:150] Setting up im_info_input-data_1_split
I0727 15:41:14.903679 27294 net.cpp:157] Top shape: 1 3 (3)
I0727 15:41:14.903683 27294 net.cpp:157] Top shape: 1 3 (3)
I0727 15:41:14.903687 27294 net.cpp:165] Memory required for data: 7020052
I0727 15:41:14.903703 27294 layer_factory.hpp:77] Creating layer gt_boxes_input-data_2_split
I0727 15:41:14.903715 27294 net.cpp:106] Creating Layer gt_boxes_input-data_2_split
I0727 15:41:14.903719 27294 net.cpp:454] gt_boxes_input-data_2_split <- gt_boxes
I0727 15:41:14.903724 27294 net.cpp:411] gt_boxes_input-data_2_split -> gt_boxes_input-data_2_split_0
I0727 15:41:14.903731 27294 net.cpp:411] gt_boxes_input-data_2_split -> gt_boxes_input-data_2_split_1
I0727 15:41:14.903765 27294 net.cpp:150] Setting up gt_boxes_input-data_2_split
I0727 15:41:14.903776 27294 net.cpp:157] Top shape: 1 4 (4)
I0727 15:41:14.903780 27294 net.cpp:157] Top shape: 1 4 (4)
I0727 15:41:14.903784 27294 net.cpp:165] Memory required for data: 7020084
I0727 15:41:14.903786 27294 layer_factory.hpp:77] Creating layer conv1_1
I0727 15:41:14.903821 27294 net.cpp:106] Creating Layer conv1_1
I0727 15:41:14.903831 27294 net.cpp:454] conv1_1 <- data_input-data_0_split_0
I0727 15:41:14.903839 27294 net.cpp:411] conv1_1 -> conv1_1
I0727 15:41:15.263511 27294 net.cpp:150] Setting up conv1_1
I0727 15:41:15.263556 27294 net.cpp:157] Top shape: 1 64 375 520 (12480000)
I0727 15:41:15.263561 27294 net.cpp:165] Memory required for data: 56940084
I0727 15:41:15.263586 27294 layer_factory.hpp:77] Creating layer relu1_1
I0727 15:41:15.263631 27294 net.cpp:106] Creating Layer relu1_1
I0727 15:41:15.263649 27294 net.cpp:454] relu1_1 <- conv1_1
I0727 15:41:15.263666 27294 net.cpp:397] relu1_1 -> conv1_1 (in-place)
I0727 15:41:15.264555 27294 net.cpp:150] Setting up relu1_1
I0727 15:41:15.264576 27294 net.cpp:157] Top shape: 1 64 375 520 (12480000)
I0727 15:41:15.264580 27294 net.cpp:165] Memory required for data: 106860084
I0727 15:41:15.264585 27294 layer_factory.hpp:77] Creating layer conv1_2
I0727 15:41:15.264595 27294 net.cpp:106] Creating Layer conv1_2
I0727 15:41:15.264618 27294 net.cpp:454] conv1_2 <- conv1_1
I0727 15:41:15.264654 27294 net.cpp:411] conv1_2 -> conv1_2
I0727 15:41:15.268787 27294 net.cpp:150] Setting up conv1_2
I0727 15:41:15.268811 27294 net.cpp:157] Top shape: 1 64 375 520 (12480000)
I0727 15:41:15.268815 27294 net.cpp:165] Memory required for data: 156780084
I0727 15:41:15.268826 27294 layer_factory.hpp:77] Creating layer relu1_2
I0727 15:41:15.268854 27294 net.cpp:106] Creating Layer relu1_2
I0727 15:41:15.268880 27294 net.cpp:454] relu1_2 <- conv1_2
I0727 15:41:15.268898 27294 net.cpp:397] relu1_2 -> conv1_2 (in-place)
I0727 15:41:15.269101 27294 net.cpp:150] Setting up relu1_2
I0727 15:41:15.269117 27294 net.cpp:157] Top shape: 1 64 375 520 (12480000)
I0727 15:41:15.269121 27294 net.cpp:165] Memory required for data: 206700084
I0727 15:41:15.269124 27294 layer_factory.hpp:77] Creating layer pool1
I0727 15:41:15.269138 27294 net.cpp:106] Creating Layer pool1
I0727 15:41:15.269158 27294 net.cpp:454] pool1 <- conv1_2
I0727 15:41:15.269167 27294 net.cpp:411] pool1 -> pool1
I0727 15:41:15.269227 27294 net.cpp:150] Setting up pool1
I0727 15:41:15.269239 27294 net.cpp:157] Top shape: 1 64 188 260 (3128320)
I0727 15:41:15.269243 27294 net.cpp:165] Memory required for data: 219213364
I0727 15:41:15.269246 27294 layer_factory.hpp:77] Creating layer conv2_1
I0727 15:41:15.269254 27294 net.cpp:106] Creating Layer conv2_1
I0727 15:41:15.269273 27294 net.cpp:454] conv2_1 <- pool1
I0727 15:41:15.269289 27294 net.cpp:411] conv2_1 -> conv2_1
I0727 15:41:15.274147 27294 net.cpp:150] Setting up conv2_1
I0727 15:41:15.274169 27294 net.cpp:157] Top shape: 1 128 188 260 (6256640)
I0727 15:41:15.274173 27294 net.cpp:165] Memory required for data: 244239924
I0727 15:41:15.274183 27294 layer_factory.hpp:77] Creating layer relu2_1
I0727 15:41:15.274219 27294 net.cpp:106] Creating Layer relu2_1
I0727 15:41:15.274230 27294 net.cpp:454] relu2_1 <- conv2_1
I0727 15:41:15.274236 27294 net.cpp:397] relu2_1 -> conv2_1 (in-place)
I0727 15:41:15.274582 27294 net.cpp:150] Setting up relu2_1
I0727 15:41:15.274596 27294 net.cpp:157] Top shape: 1 128 188 260 (6256640)
I0727 15:41:15.274600 27294 net.cpp:165] Memory required for data: 269266484
I0727 15:41:15.274603 27294 layer_factory.hpp:77] Creating layer conv2_2
I0727 15:41:15.274612 27294 net.cpp:106] Creating Layer conv2_2
I0727 15:41:15.274634 27294 net.cpp:454] conv2_2 <- conv2_1
I0727 15:41:15.274684 27294 net.cpp:411] conv2_2 -> conv2_2
I0727 15:41:15.279413 27294 net.cpp:150] Setting up conv2_2
I0727 15:41:15.279434 27294 net.cpp:157] Top shape: 1 128 188 260 (6256640)
I0727 15:41:15.279438 27294 net.cpp:165] Memory required for data: 294293044
I0727 15:41:15.279445 27294 layer_factory.hpp:77] Creating layer relu2_2
I0727 15:41:15.279474 27294 net.cpp:106] Creating Layer relu2_2
I0727 15:41:15.279486 27294 net.cpp:454] relu2_2 <- conv2_2
I0727 15:41:15.279492 27294 net.cpp:397] relu2_2 -> conv2_2 (in-place)
I0727 15:41:15.280365 27294 net.cpp:150] Setting up relu2_2
I0727 15:41:15.280385 27294 net.cpp:157] Top shape: 1 128 188 260 (6256640)
I0727 15:41:15.280387 27294 net.cpp:165] Memory required for data: 319319604
I0727 15:41:15.280391 27294 layer_factory.hpp:77] Creating layer pool2
I0727 15:41:15.280416 27294 net.cpp:106] Creating Layer pool2
I0727 15:41:15.280431 27294 net.cpp:454] pool2 <- conv2_2
I0727 15:41:15.280436 27294 net.cpp:411] pool2 -> pool2
I0727 15:41:15.280485 27294 net.cpp:150] Setting up pool2
I0727 15:41:15.280498 27294 net.cpp:157] Top shape: 1 128 94 130 (1564160)
I0727 15:41:15.280500 27294 net.cpp:165] Memory required for data: 325576244
I0727 15:41:15.280503 27294 layer_factory.hpp:77] Creating layer conv3_1
I0727 15:41:15.280510 27294 net.cpp:106] Creating Layer conv3_1
I0727 15:41:15.280529 27294 net.cpp:454] conv3_1 <- pool2
I0727 15:41:15.280555 27294 net.cpp:411] conv3_1 -> conv3_1
I0727 15:41:15.284883 27294 net.cpp:150] Setting up conv3_1
I0727 15:41:15.284906 27294 net.cpp:157] Top shape: 1 256 94 130 (3128320)
I0727 15:41:15.284910 27294 net.cpp:165] Memory required for data: 338089524
I0727 15:41:15.284920 27294 layer_factory.hpp:77] Creating layer relu3_1
I0727 15:41:15.284955 27294 net.cpp:106] Creating Layer relu3_1
I0727 15:41:15.284966 27294 net.cpp:454] relu3_1 <- conv3_1
I0727 15:41:15.284972 27294 net.cpp:397] relu3_1 -> conv3_1 (in-place)
I0727 15:41:15.285159 27294 net.cpp:150] Setting up relu3_1
I0727 15:41:15.285176 27294 net.cpp:157] Top shape: 1 256 94 130 (3128320)
I0727 15:41:15.285178 27294 net.cpp:165] Memory required for data: 350602804
I0727 15:41:15.285182 27294 layer_factory.hpp:77] Creating layer conv3_2
I0727 15:41:15.285192 27294 net.cpp:106] Creating Layer conv3_2
I0727 15:41:15.285213 27294 net.cpp:454] conv3_2 <- conv3_1
I0727 15:41:15.285230 27294 net.cpp:411] conv3_2 -> conv3_2
I0727 15:41:15.290109 27294 net.cpp:150] Setting up conv3_2
I0727 15:41:15.290133 27294 net.cpp:157] Top shape: 1 256 94 130 (3128320)
I0727 15:41:15.290138 27294 net.cpp:165] Memory required for data: 363116084
I0727 15:41:15.290144 27294 layer_factory.hpp:77] Creating layer relu3_2
I0727 15:41:15.290172 27294 net.cpp:106] Creating Layer relu3_2
I0727 15:41:15.290189 27294 net.cpp:454] relu3_2 <- conv3_2
I0727 15:41:15.290195 27294 net.cpp:397] relu3_2 -> conv3_2 (in-place)
I0727 15:41:15.290561 27294 net.cpp:150] Setting up relu3_2
I0727 15:41:15.290576 27294 net.cpp:157] Top shape: 1 256 94 130 (3128320)
I0727 15:41:15.290580 27294 net.cpp:165] Memory required for data: 375629364
I0727 15:41:15.290582 27294 layer_factory.hpp:77] Creating layer conv3_3
I0727 15:41:15.290591 27294 net.cpp:106] Creating Layer conv3_3
I0727 15:41:15.290611 27294 net.cpp:454] conv3_3 <- conv3_2
I0727 15:41:15.290629 27294 net.cpp:411] conv3_3 -> conv3_3
I0727 15:41:15.295881 27294 net.cpp:150] Setting up conv3_3
I0727 15:41:15.295903 27294 net.cpp:157] Top shape: 1 256 94 130 (3128320)
I0727 15:41:15.295907 27294 net.cpp:165] Memory required for data: 388142644
I0727 15:41:15.295915 27294 layer_factory.hpp:77] Creating layer relu3_3
I0727 15:41:15.295945 27294 net.cpp:106] Creating Layer relu3_3
I0727 15:41:15.295958 27294 net.cpp:454] relu3_3 <- conv3_3
I0727 15:41:15.295964 27294 net.cpp:397] relu3_3 -> conv3_3 (in-place)
I0727 15:41:15.296850 27294 net.cpp:150] Setting up relu3_3
I0727 15:41:15.296869 27294 net.cpp:157] Top shape: 1 256 94 130 (3128320)
I0727 15:41:15.296874 27294 net.cpp:165] Memory required for data: 400655924
I0727 15:41:15.296877 27294 layer_factory.hpp:77] Creating layer pool3
I0727 15:41:15.296885 27294 net.cpp:106] Creating Layer pool3
I0727 15:41:15.296890 27294 net.cpp:454] pool3 <- conv3_3
I0727 15:41:15.296895 27294 net.cpp:411] pool3 -> pool3
I0727 15:41:15.296972 27294 net.cpp:150] Setting up pool3
I0727 15:41:15.296985 27294 net.cpp:157] Top shape: 1 256 47 65 (782080)
I0727 15:41:15.296989 27294 net.cpp:165] Memory required for data: 403784244
I0727 15:41:15.296993 27294 layer_factory.hpp:77] Creating layer conv4_1
I0727 15:41:15.297003 27294 net.cpp:106] Creating Layer conv4_1
I0727 15:41:15.297024 27294 net.cpp:454] conv4_1 <- pool3
I0727 15:41:15.297082 27294 net.cpp:411] conv4_1 -> conv4_1
I0727 15:41:15.304371 27294 net.cpp:150] Setting up conv4_1
I0727 15:41:15.304394 27294 net.cpp:157] Top shape: 1 512 47 65 (1564160)
I0727 15:41:15.304399 27294 net.cpp:165] Memory required for data: 410040884
I0727 15:41:15.304405 27294 layer_factory.hpp:77] Creating layer relu4_1
I0727 15:41:15.304435 27294 net.cpp:106] Creating Layer relu4_1
I0727 15:41:15.304461 27294 net.cpp:454] relu4_1 <- conv4_1
I0727 15:41:15.304476 27294 net.cpp:397] relu4_1 -> conv4_1 (in-place)
I0727 15:41:15.305444 27294 net.cpp:150] Setting up relu4_1
I0727 15:41:15.305466 27294 net.cpp:157] Top shape: 1 512 47 65 (1564160)
I0727 15:41:15.305470 27294 net.cpp:165] Memory required for data: 416297524
I0727 15:41:15.305474 27294 layer_factory.hpp:77] Creating layer conv4_2
I0727 15:41:15.305500 27294 net.cpp:106] Creating Layer conv4_2
I0727 15:41:15.305517 27294 net.cpp:454] conv4_2 <- conv4_1
I0727 15:41:15.305526 27294 net.cpp:411] conv4_2 -> conv4_2
I0727 15:41:15.313139 27294 net.cpp:150] Setting up conv4_2
I0727 15:41:15.313163 27294 net.cpp:157] Top shape: 1 512 47 65 (1564160)
I0727 15:41:15.313169 27294 net.cpp:165] Memory required for data: 422554164
I0727 15:41:15.313182 27294 layer_factory.hpp:77] Creating layer relu4_2
I0727 15:41:15.313213 27294 net.cpp:106] Creating Layer relu4_2
I0727 15:41:15.313237 27294 net.cpp:454] relu4_2 <- conv4_2
I0727 15:41:15.313266 27294 net.cpp:397] relu4_2 -> conv4_2 (in-place)
I0727 15:41:15.313472 27294 net.cpp:150] Setting up relu4_2
I0727 15:41:15.313490 27294 net.cpp:157] Top shape: 1 512 47 65 (1564160)
I0727 15:41:15.313493 27294 net.cpp:165] Memory required for data: 428810804
I0727 15:41:15.313498 27294 layer_factory.hpp:77] Creating layer conv4_3
I0727 15:41:15.313521 27294 net.cpp:106] Creating Layer conv4_3
I0727 15:41:15.313537 27294 net.cpp:454] conv4_3 <- conv4_2
I0727 15:41:15.313545 27294 net.cpp:411] conv4_3 -> conv4_3
I0727 15:41:15.321154 27294 net.cpp:150] Setting up conv4_3
I0727 15:41:15.321182 27294 net.cpp:157] Top shape: 1 512 47 65 (1564160)
I0727 15:41:15.321187 27294 net.cpp:165] Memory required for data: 435067444
I0727 15:41:15.321194 27294 layer_factory.hpp:77] Creating layer relu4_3
I0727 15:41:15.321223 27294 net.cpp:106] Creating Layer relu4_3
I0727 15:41:15.321239 27294 net.cpp:454] relu4_3 <- conv4_3
I0727 15:41:15.321249 27294 net.cpp:397] relu4_3 -> conv4_3 (in-place)
I0727 15:41:15.322163 27294 net.cpp:150] Setting up relu4_3
I0727 15:41:15.322182 27294 net.cpp:157] Top shape: 1 512 47 65 (1564160)
I0727 15:41:15.322186 27294 net.cpp:165] Memory required for data: 441324084
I0727 15:41:15.322190 27294 layer_factory.hpp:77] Creating layer pool4
I0727 15:41:15.322197 27294 net.cpp:106] Creating Layer pool4
I0727 15:41:15.322221 27294 net.cpp:454] pool4 <- conv4_3
I0727 15:41:15.322239 27294 net.cpp:411] pool4 -> pool4
I0727 15:41:15.322298 27294 net.cpp:150] Setting up pool4
I0727 15:41:15.322309 27294 net.cpp:157] Top shape: 1 512 24 33 (405504)
I0727 15:41:15.322314 27294 net.cpp:165] Memory required for data: 442946100
I0727 15:41:15.322316 27294 layer_factory.hpp:77] Creating layer conv5_1
I0727 15:41:15.322329 27294 net.cpp:106] Creating Layer conv5_1
I0727 15:41:15.322347 27294 net.cpp:454] conv5_1 <- pool4
I0727 15:41:15.322356 27294 net.cpp:411] conv5_1 -> conv5_1
I0727 15:41:15.330893 27294 net.cpp:150] Setting up conv5_1
I0727 15:41:15.330925 27294 net.cpp:157] Top shape: 1 512 24 33 (405504)
I0727 15:41:15.330930 27294 net.cpp:165] Memory required for data: 444568116
I0727 15:41:15.330938 27294 layer_factory.hpp:77] Creating layer relu5_1
I0727 15:41:15.330950 27294 net.cpp:106] Creating Layer relu5_1
I0727 15:41:15.330955 27294 net.cpp:454] relu5_1 <- conv5_1
I0727 15:41:15.330960 27294 net.cpp:397] relu5_1 -> conv5_1 (in-place)
I0727 15:41:15.331210 27294 net.cpp:150] Setting up relu5_1
I0727 15:41:15.331228 27294 net.cpp:157] Top shape: 1 512 24 33 (405504)
I0727 15:41:15.331233 27294 net.cpp:165] Memory required for data: 446190132
I0727 15:41:15.331236 27294 layer_factory.hpp:77] Creating layer conv5_2
I0727 15:41:15.331248 27294 net.cpp:106] Creating Layer conv5_2
I0727 15:41:15.331279 27294 net.cpp:454] conv5_2 <- conv5_1
I0727 15:41:15.331296 27294 net.cpp:411] conv5_2 -> conv5_2
I0727 15:41:15.338927 27294 net.cpp:150] Setting up conv5_2
I0727 15:41:15.338954 27294 net.cpp:157] Top shape: 1 512 24 33 (405504)
I0727 15:41:15.338958 27294 net.cpp:165] Memory required for data: 447812148
I0727 15:41:15.338965 27294 layer_factory.hpp:77] Creating layer relu5_2
I0727 15:41:15.338994 27294 net.cpp:106] Creating Layer relu5_2
I0727 15:41:15.339010 27294 net.cpp:454] relu5_2 <- conv5_2
I0727 15:41:15.339017 27294 net.cpp:397] relu5_2 -> conv5_2 (in-place)
I0727 15:41:15.339224 27294 net.cpp:150] Setting up relu5_2
I0727 15:41:15.339241 27294 net.cpp:157] Top shape: 1 512 24 33 (405504)
I0727 15:41:15.339243 27294 net.cpp:165] Memory required for data: 449434164
I0727 15:41:15.339247 27294 layer_factory.hpp:77] Creating layer conv5_3
I0727 15:41:15.339263 27294 net.cpp:106] Creating Layer conv5_3
I0727 15:41:15.339287 27294 net.cpp:454] conv5_3 <- conv5_2
I0727 15:41:15.339308 27294 net.cpp:411] conv5_3 -> conv5_3
I0727 15:41:15.347247 27294 net.cpp:150] Setting up conv5_3
I0727 15:41:15.347281 27294 net.cpp:157] Top shape: 1 512 24 33 (405504)
I0727 15:41:15.347285 27294 net.cpp:165] Memory required for data: 451056180
I0727 15:41:15.347295 27294 layer_factory.hpp:77] Creating layer relu5_3
I0727 15:41:15.347302 27294 net.cpp:106] Creating Layer relu5_3
I0727 15:41:15.347332 27294 net.cpp:454] relu5_3 <- conv5_3
I0727 15:41:15.347353 27294 net.cpp:397] relu5_3 -> conv5_3 (in-place)
I0727 15:41:15.348296 27294 net.cpp:150] Setting up relu5_3
I0727 15:41:15.348317 27294 net.cpp:157] Top shape: 1 512 24 33 (405504)
I0727 15:41:15.348321 27294 net.cpp:165] Memory required for data: 452678196
I0727 15:41:15.348325 27294 layer_factory.hpp:77] Creating layer conv5_3_relu5_3_0_split
I0727 15:41:15.348332 27294 net.cpp:106] Creating Layer conv5_3_relu5_3_0_split
I0727 15:41:15.348356 27294 net.cpp:454] conv5_3_relu5_3_0_split <- conv5_3
I0727 15:41:15.348376 27294 net.cpp:411] conv5_3_relu5_3_0_split -> conv5_3_relu5_3_0_split_0
I0727 15:41:15.348395 27294 net.cpp:411] conv5_3_relu5_3_0_split -> conv5_3_relu5_3_0_split_1
I0727 15:41:15.348429 27294 net.cpp:411] conv5_3_relu5_3_0_split -> conv5_3_relu5_3_0_split_2
I0727 15:41:15.348511 27294 net.cpp:150] Setting up conv5_3_relu5_3_0_split
I0727 15:41:15.348526 27294 net.cpp:157] Top shape: 1 512 24 33 (405504)
I0727 15:41:15.348531 27294 net.cpp:157] Top shape: 1 512 24 33 (405504)
I0727 15:41:15.348533 27294 net.cpp:157] Top shape: 1 512 24 33 (405504)
I0727 15:41:15.348536 27294 net.cpp:165] Memory required for data: 457544244
I0727 15:41:15.348539 27294 layer_factory.hpp:77] Creating layer rpn_conv/3x3
I0727 15:41:15.348572 27294 net.cpp:106] Creating Layer rpn_conv/3x3
I0727 15:41:15.348587 27294 net.cpp:454] rpn_conv/3x3 <- conv5_3_relu5_3_0_split_0
I0727 15:41:15.348608 27294 net.cpp:411] rpn_conv/3x3 -> rpn/output
I0727 15:41:15.410748 27294 net.cpp:150] Setting up rpn_conv/3x3
I0727 15:41:15.410779 27294 net.cpp:157] Top shape: 1 512 24 33 (405504)
I0727 15:41:15.410784 27294 net.cpp:165] Memory required for data: 459166260
I0727 15:41:15.410792 27294 layer_factory.hpp:77] Creating layer rpn_relu/3x3
I0727 15:41:15.410801 27294 net.cpp:106] Creating Layer rpn_relu/3x3
I0727 15:41:15.410831 27294 net.cpp:454] rpn_relu/3x3 <- rpn/output
I0727 15:41:15.410872 27294 net.cpp:397] rpn_relu/3x3 -> rpn/output (in-place)
I0727 15:41:15.411763 27294 net.cpp:150] Setting up rpn_relu/3x3
I0727 15:41:15.411779 27294 net.cpp:157] Top shape: 1 512 24 33 (405504)
I0727 15:41:15.411782 27294 net.cpp:165] Memory required for data: 460788276
I0727 15:41:15.411787 27294 layer_factory.hpp:77] Creating layer rpn/output_rpn_relu/3x3_0_split
I0727 15:41:15.411792 27294 net.cpp:106] Creating Layer rpn/output_rpn_relu/3x3_0_split
I0727 15:41:15.411814 27294 net.cpp:454] rpn/output_rpn_relu/3x3_0_split <- rpn/output
I0727 15:41:15.411833 27294 net.cpp:411] rpn/output_rpn_relu/3x3_0_split -> rpn/output_rpn_relu/3x3_0_split_0
I0727 15:41:15.411841 27294 net.cpp:411] rpn/output_rpn_relu/3x3_0_split -> rpn/output_rpn_relu/3x3_0_split_1
I0727 15:41:15.411898 27294 net.cpp:150] Setting up rpn/output_rpn_relu/3x3_0_split
I0727 15:41:15.411911 27294 net.cpp:157] Top shape: 1 512 24 33 (405504)
I0727 15:41:15.411914 27294 net.cpp:157] Top shape: 1 512 24 33 (405504)
I0727 15:41:15.411917 27294 net.cpp:165] Memory required for data: 464032308
I0727 15:41:15.411921 27294 layer_factory.hpp:77] Creating layer rpn_cls_score
I0727 15:41:15.411932 27294 net.cpp:106] Creating Layer rpn_cls_score
I0727 15:41:15.411952 27294 net.cpp:454] rpn_cls_score <- rpn/output_rpn_relu/3x3_0_split_0
I0727 15:41:15.411972 27294 net.cpp:411] rpn_cls_score -> rpn_cls_score
I0727 15:41:15.416025 27294 net.cpp:150] Setting up rpn_cls_score
I0727 15:41:15.416049 27294 net.cpp:157] Top shape: 1 36 24 33 (28512)
I0727 15:41:15.416054 27294 net.cpp:165] Memory required for data: 464146356
I0727 15:41:15.416061 27294 layer_factory.hpp:77] Creating layer rpn_cls_score_rpn_cls_score_0_split
I0727 15:41:15.416091 27294 net.cpp:106] Creating Layer rpn_cls_score_rpn_cls_score_0_split
I0727 15:41:15.416098 27294 net.cpp:454] rpn_cls_score_rpn_cls_score_0_split <- rpn_cls_score
I0727 15:41:15.416105 27294 net.cpp:411] rpn_cls_score_rpn_cls_score_0_split -> rpn_cls_score_rpn_cls_score_0_split_0
I0727 15:41:15.416110 27294 net.cpp:411] rpn_cls_score_rpn_cls_score_0_split -> rpn_cls_score_rpn_cls_score_0_split_1
I0727 15:41:15.416182 27294 net.cpp:150] Setting up rpn_cls_score_rpn_cls_score_0_split
I0727 15:41:15.416196 27294 net.cpp:157] Top shape: 1 36 24 33 (28512)
I0727 15:41:15.416201 27294 net.cpp:157] Top shape: 1 36 24 33 (28512)
I0727 15:41:15.416203 27294 net.cpp:165] Memory required for data: 464374452
I0727 15:41:15.416208 27294 layer_factory.hpp:77] Creating layer rpn_bbox_pred
I0727 15:41:15.416218 27294 net.cpp:106] Creating Layer rpn_bbox_pred
I0727 15:41:15.416236 27294 net.cpp:454] rpn_bbox_pred <- rpn/output_rpn_relu/3x3_0_split_1
I0727 15:41:15.416256 27294 net.cpp:411] rpn_bbox_pred -> rpn_bbox_pred
I0727 15:41:15.419771 27294 net.cpp:150] Setting up rpn_bbox_pred
I0727 15:41:15.419795 27294 net.cpp:157] Top shape: 1 72 24 33 (57024)
I0727 15:41:15.419798 27294 net.cpp:165] Memory required for data: 464602548
I0727 15:41:15.419806 27294 layer_factory.hpp:77] Creating layer rpn_bbox_pred_rpn_bbox_pred_0_split
I0727 15:41:15.419833 27294 net.cpp:106] Creating Layer rpn_bbox_pred_rpn_bbox_pred_0_split
I0727 15:41:15.419850 27294 net.cpp:454] rpn_bbox_pred_rpn_bbox_pred_0_split <- rpn_bbox_pred
I0727 15:41:15.419858 27294 net.cpp:411] rpn_bbox_pred_rpn_bbox_pred_0_split -> rpn_bbox_pred_rpn_bbox_pred_0_split_0
I0727 15:41:15.419868 27294 net.cpp:411] rpn_bbox_pred_rpn_bbox_pred_0_split -> rpn_bbox_pred_rpn_bbox_pred_0_split_1
I0727 15:41:15.419921 27294 net.cpp:150] Setting up rpn_bbox_pred_rpn_bbox_pred_0_split
I0727 15:41:15.419935 27294 net.cpp:157] Top shape: 1 72 24 33 (57024)
I0727 15:41:15.419939 27294 net.cpp:157] Top shape: 1 72 24 33 (57024)
I0727 15:41:15.419942 27294 net.cpp:165] Memory required for data: 465058740
I0727 15:41:15.419946 27294 layer_factory.hpp:77] Creating layer rpn_cls_score_reshape
I0727 15:41:15.419975 27294 net.cpp:106] Creating Layer rpn_cls_score_reshape
I0727 15:41:15.419988 27294 net.cpp:454] rpn_cls_score_reshape <- rpn_cls_score_rpn_cls_score_0_split_0
I0727 15:41:15.419994 27294 net.cpp:411] rpn_cls_score_reshape -> rpn_cls_score_reshape
I0727 15:41:15.420042 27294 net.cpp:150] Setting up rpn_cls_score_reshape
I0727 15:41:15.420054 27294 net.cpp:157] Top shape: 1 2 432 33 (28512)
I0727 15:41:15.420058 27294 net.cpp:165] Memory required for data: 465172788
I0727 15:41:15.420060 27294 layer_factory.hpp:77] Creating layer rpn_cls_score_reshape_rpn_cls_score_reshape_0_split
I0727 15:41:15.420068 27294 net.cpp:106] Creating Layer rpn_cls_score_reshape_rpn_cls_score_reshape_0_split
I0727 15:41:15.420085 27294 net.cpp:454] rpn_cls_score_reshape_rpn_cls_score_reshape_0_split <- rpn_cls_score_reshape
I0727 15:41:15.420112 27294 net.cpp:411] rpn_cls_score_reshape_rpn_cls_score_reshape_0_split -> rpn_cls_score_reshape_rpn_cls_score_reshape_0_split_0
I0727 15:41:15.420130 27294 net.cpp:411] rpn_cls_score_reshape_rpn_cls_score_reshape_0_split -> rpn_cls_score_reshape_rpn_cls_score_reshape_0_split_1
I0727 15:41:15.420194 27294 net.cpp:150] Setting up rpn_cls_score_reshape_rpn_cls_score_reshape_0_split
I0727 15:41:15.420207 27294 net.cpp:157] Top shape: 1 2 432 33 (28512)
I0727 15:41:15.420212 27294 net.cpp:157] Top shape: 1 2 432 33 (28512)
I0727 15:41:15.420214 27294 net.cpp:165] Memory required for data: 465400884
I0727 15:41:15.420218 27294 layer_factory.hpp:77] Creating layer rpn-data
I0727 15:41:15.420822 27294 net.cpp:106] Creating Layer rpn-data
I0727 15:41:15.420845 27294 net.cpp:454] rpn-data <- rpn_cls_score_rpn_cls_score_0_split_1
I0727 15:41:15.420850 27294 net.cpp:454] rpn-data <- gt_boxes_input-data_2_split_0
I0727 15:41:15.420878 27294 net.cpp:454] rpn-data <- im_info_input-data_1_split_0
I0727 15:41:15.420889 27294 net.cpp:454] rpn-data <- data_input-data_0_split_1
I0727 15:41:15.420897 27294 net.cpp:411] rpn-data -> rpn_labels
I0727 15:41:15.420903 27294 net.cpp:411] rpn-data -> rpn_bbox_targets
I0727 15:41:15.420923 27294 net.cpp:411] rpn-data -> rpn_bbox_inside_weights
I0727 15:41:15.420934 27294 net.cpp:411] rpn-data -> rpn_bbox_outside_weights
I0727 15:41:15.421830 27294 net.cpp:150] Setting up rpn-data
I0727 15:41:15.421854 27294 net.cpp:157] Top shape: 1 1 432 33 (14256)
I0727 15:41:15.421859 27294 net.cpp:157] Top shape: 1 72 24 33 (57024)
I0727 15:41:15.421887 27294 net.cpp:157] Top shape: 1 72 24 33 (57024)
I0727 15:41:15.421897 27294 net.cpp:157] Top shape: 1 72 24 33 (57024)
I0727 15:41:15.421900 27294 net.cpp:165] Memory required for data: 466142196
I0727 15:41:15.421905 27294 layer_factory.hpp:77] Creating layer rpn_loss_cls
I0727 15:41:15.421916 27294 net.cpp:106] Creating Layer rpn_loss_cls
I0727 15:41:15.421937 27294 net.cpp:454] rpn_loss_cls <- rpn_cls_score_reshape_rpn_cls_score_reshape_0_split_0
I0727 15:41:15.421948 27294 net.cpp:454] rpn_loss_cls <- rpn_labels
…
I0727 15:41:15.423516 27294 net.cpp:157] Top shape: (1)
I0727 15:41:15.423521 27294 net.cpp:160]     with loss weight 1
I0727 15:41:15.423544 27294 net.cpp:165] Memory required for data: 466142204
I0727 15:41:15.423560 27294 layer_factory.hpp:77] Creating layer rpn_cls_prob
I0727 15:41:15.423568 27294 net.cpp:106] Creating Layer rpn_cls_prob
I0727 15:41:15.423571 27294 net.cpp:454] rpn_cls_prob <- rpn_cls_score_reshape_rpn_cls_score_reshape_0_split_1
I0727 15:41:15.423579 27294 net.cpp:411] rpn_cls_prob -> rpn_cls_prob
I0727 15:41:15.424563 27294 net.cpp:150] Setting up rpn_cls_prob
I0727 15:41:15.424585 27294 net.cpp:157] Top shape: 1 2 432 33 (28512)
I0727 15:41:15.424589 27294 net.cpp:165] Memory required for data: 466256252
I0727 15:41:15.424593 27294 layer_factory.hpp:77] Creating layer rpn_cls_prob_reshape
I0727 15:41:15.424600 27294 net.cpp:106] Creating Layer rpn_cls_prob_reshape
I0727 15:41:15.424623 27294 net.cpp:454] rpn_cls_prob_reshape <- rpn_cls_prob
I0727 15:41:15.424639 27294 net.cpp:411] rpn_cls_prob_reshape -> rpn_cls_prob_reshape
I0727 15:41:15.424682 27294 net.cpp:150] Setting up rpn_cls_prob_reshape
I0727 15:41:15.424695 27294 net.cpp:157] Top shape: 1 36 24 33 (28512)
I0727 15:41:15.424698 27294 net.cpp:165] Memory required for data: 466370300
I0727 15:41:15.424701 27294 layer_factory.hpp:77] Creating layer proposal
I0727 15:41:15.424890 27294 net.cpp:106] Creating Layer proposal
I0727 15:41:15.424906 27294 net.cpp:454] proposal <- rpn_cls_prob_reshape
I0727 15:41:15.424912 27294 net.cpp:454] proposal <- rpn_bbox_pred_rpn_bbox_pred_0_split_1
I0727 15:41:15.424916 27294 net.cpp:454] proposal <- im_info_input-data_1_split_1
I0727 15:41:15.424943 27294 net.cpp:411] proposal -> rpn_rois
I0727 15:41:15.427762 27294 net.cpp:150] Setting up proposal
I0727 15:41:15.427788 27294 net.cpp:157] Top shape: 1 5 (5)
I0727 15:41:15.427793 27294 net.cpp:165] Memory required for data: 466370320
I0727 15:41:15.427796 27294 layer_factory.hpp:77] Creating layer roi-data
I0727 15:41:15.427985 27294 net.cpp:106] Creating Layer roi-data
I0727 15:41:15.428004 27294 net.cpp:454] roi-data <- rpn_rois
I0727 15:41:15.428009 27294 net.cpp:454] roi-data <- gt_boxes_input-data_2_split_1
I0727 15:41:15.428015 27294 net.cpp:411] roi-data -> rois
I0727 15:41:15.428021 27294 net.cpp:411] roi-data -> labels
I0727 15:41:15.428027 27294 net.cpp:411] roi-data -> bbox_targets
I0727 15:41:15.428032 27294 net.cpp:411] roi-data -> bbox_inside_weights
I0727 15:41:15.428037 27294 net.cpp:411] roi-data -> bbox_outside_weights
I0727 15:41:15.428407 27294 net.cpp:150] Setting up roi-data
I0727 15:41:15.428427 27294 net.cpp:157] Top shape: 1 5 (5)
I0727 15:41:15.428431 27294 net.cpp:157] Top shape: 1 1 (1)
I0727 15:41:15.428436 27294 net.cpp:157] Top shape: 1 84 (84)
I0727 15:41:15.428438 27294 net.cpp:157] Top shape: 1 84 (84)
I0727 15:41:15.428442 27294 net.cpp:157] Top shape: 1 84 (84)
I0727 15:41:15.428443 27294 net.cpp:165] Memory required for data: 466371352
I0727 15:41:15.428447 27294 layer_factory.hpp:77] Creating layer rois_roi-data_0_split
I0727 15:41:15.428453 27294 net.cpp:106] Creating Layer rois_roi-data_0_split
I0727 15:41:15.428457 27294 net.cpp:454] rois_roi-data_0_split <- rois
I0727 15:41:15.428465 27294 net.cpp:411] rois_roi-data_0_split -> rois_roi-data_0_split_0
I0727 15:41:15.428472 27294 net.cpp:411] rois_roi-data_0_split -> rois_roi-data_0_split_1
I0727 15:41:15.428509 27294 net.cpp:150] Setting up rois_roi-data_0_split
I0727 15:41:15.428515 27294 net.cpp:157] Top shape: 1 5 (5)
I0727 15:41:15.428519 27294 net.cpp:157] Top shape: 1 5 (5)
I0727 15:41:15.428521 27294 net.cpp:165] Memory required for data: 466371392
I0727 15:41:15.428524 27294 layer_factory.hpp:77] Creating layer roi_pool5_readonly
I0727 15:41:15.428536 27294 net.cpp:106] Creating Layer roi_pool5_readonly
I0727 15:41:15.428540 27294 net.cpp:454] roi_pool5_readonly <- conv5_3_relu5_3_0_split_1
I0727 15:41:15.428544 27294 net.cpp:454] roi_pool5_readonly <- rois_roi-data_0_split_0
I0727 15:41:15.428548 27294 net.cpp:411] roi_pool5_readonly -> pool5_readonly
I0727 15:41:15.428558 27294 roi_pooling_layer.cpp:30] Spatial scale: 0.0625
I0727 15:41:15.428606 27294 net.cpp:150] Setting up roi_pool5_readonly
I0727 15:41:15.428611 27294 net.cpp:157] Top shape: 1 512 7 7 (25088)
I0727 15:41:15.428613 27294 net.cpp:165] Memory required for data: 466471744
I0727 15:41:15.428617 27294 layer_factory.hpp:77] Creating layer fc6_readonly
I0727 15:41:15.428627 27294 net.cpp:106] Creating Layer fc6_readonly
I0727 15:41:15.428629 27294 net.cpp:454] fc6_readonly <- pool5_readonly
I0727 15:41:15.428634 27294 net.cpp:411] fc6_readonly -> fc6_readonly
I0727 15:41:15.710842 27294 net.cpp:150] Setting up fc6_readonly
I0727 15:41:15.710907 27294 net.cpp:157] Top shape: 1 4096 (4096)
I0727 15:41:15.710911 27294 net.cpp:165] Memory required for data: 466488128
I0727 15:41:15.710935 27294 layer_factory.hpp:77] Creating layer relu6_readonly
I0727 15:41:15.710950 27294 net.cpp:106] Creating Layer relu6_readonly
I0727 15:41:15.710955 27294 net.cpp:454] relu6_readonly <- fc6_readonly
I0727 15:41:15.710966 27294 net.cpp:397] relu6_readonly -> fc6_readonly (in-place)
I0727 15:41:15.711228 27294 net.cpp:150] Setting up relu6_readonly
I0727 15:41:15.711246 27294 net.cpp:157] Top shape: 1 4096 (4096)
I0727 15:41:15.711249 27294 net.cpp:165] Memory required for data: 466504512
I0727 15:41:15.711253 27294 layer_factory.hpp:77] Creating layer drop6_readonly
I0727 15:41:15.711268 27294 net.cpp:106] Creating Layer drop6_readonly
I0727 15:41:15.711272 27294 net.cpp:454] drop6_readonly <- fc6_readonly
I0727 15:41:15.711283 27294 net.cpp:397] drop6_readonly -> fc6_readonly (in-place)
I0727 15:41:15.711321 27294 net.cpp:150] Setting up drop6_readonly
I0727 15:41:15.711330 27294 net.cpp:157] Top shape: 1 4096 (4096)
I0727 15:41:15.711333 27294 net.cpp:165] Memory required for data: 466520896
I0727 15:41:15.711335 27294 layer_factory.hpp:77] Creating layer fc7_readonly
I0727 15:41:15.711344 27294 net.cpp:106] Creating Layer fc7_readonly
I0727 15:41:15.711346 27294 net.cpp:454] fc7_readonly <- fc6_readonly
I0727 15:41:15.711354 27294 net.cpp:411] fc7_readonly -> fc7_readonly
I0727 15:41:15.760664 27294 net.cpp:150] Setting up fc7_readonly
I0727 15:41:15.760723 27294 net.cpp:157] Top shape: 1 4096 (4096)
I0727 15:41:15.760728 27294 net.cpp:165] Memory required for data: 466537280
I0727 15:41:15.760742 27294 layer_factory.hpp:77] Creating layer relu7_readonly
I0727 15:41:15.760756 27294 net.cpp:106] Creating Layer relu7_readonly
I0727 15:41:15.760761 27294 net.cpp:454] relu7_readonly <- fc7_readonly
I0727 15:41:15.760771 27294 net.cpp:397] relu7_readonly -> fc7_readonly (in-place)
I0727 15:41:15.761864 27294 net.cpp:150] Setting up relu7_readonly
I0727 15:41:15.761885 27294 net.cpp:157] Top shape: 1 4096 (4096)
I0727 15:41:15.761889 27294 net.cpp:165] Memory required for data: 466553664
I0727 15:41:15.761893 27294 layer_factory.hpp:77] Creating layer drop7_readonly
I0727 15:41:15.761900 27294 net.cpp:106] Creating Layer drop7_readonly
I0727 15:41:15.761904 27294 net.cpp:454] drop7_readonly <- fc7_readonly
I0727 15:41:15.761916 27294 net.cpp:397] drop7_readonly -> fc7_readonly (in-place)
I0727 15:41:15.761955 27294 net.cpp:150] Setting up drop7_readonly
I0727 15:41:15.761960 27294 net.cpp:157] Top shape: 1 4096 (4096)
I0727 15:41:15.761965 27294 net.cpp:165] Memory required for data: 466570048
I0727 15:41:15.761968 27294 layer_factory.hpp:77] Creating layer fc7_readonly_drop7_readonly_0_split
I0727 15:41:15.761975 27294 net.cpp:106] Creating Layer fc7_readonly_drop7_readonly_0_split
I0727 15:41:15.761977 27294 net.cpp:454] fc7_readonly_drop7_readonly_0_split <- fc7_readonly
I0727 15:41:15.761981 27294 net.cpp:411] fc7_readonly_drop7_readonly_0_split -> fc7_readonly_drop7_readonly_0_split_0
I0727 15:41:15.761987 27294 net.cpp:411] fc7_readonly_drop7_readonly_0_split -> fc7_readonly_drop7_readonly_0_split_1
I0727 15:41:15.762035 27294 net.cpp:150] Setting up fc7_readonly_drop7_readonly_0_split
I0727 15:41:15.762040 27294 net.cpp:157] Top shape: 1 4096 (4096)
I0727 15:41:15.762044 27294 net.cpp:157] Top shape: 1 4096 (4096)
I0727 15:41:15.762046 27294 net.cpp:165] Memory required for data: 466602816
I0727 15:41:15.762049 27294 layer_factory.hpp:77] Creating layer cls_score_readonly
I0727 15:41:15.762059 27294 net.cpp:106] Creating Layer cls_score_readonly
I0727 15:41:15.762063 27294 net.cpp:454] cls_score_readonly <- fc7_readonly_drop7_readonly_0_split_0
I0727 15:41:15.762068 27294 net.cpp:411] cls_score_readonly -> cls_score_readonly
I0727 15:41:15.764868 27294 net.cpp:150] Setting up cls_score_readonly
I0727 15:41:15.764888 27294 net.cpp:157] Top shape: 1 21 (21)
I0727 15:41:15.764890 27294 net.cpp:165] Memory required for data: 466602900
I0727 15:41:15.764896 27294 layer_factory.hpp:77] Creating layer bbox_pred_readonly
I0727 15:41:15.764905 27294 net.cpp:106] Creating Layer bbox_pred_readonly
I0727 15:41:15.764909 27294 net.cpp:454] bbox_pred_readonly <- fc7_readonly_drop7_readonly_0_split_1
I0727 15:41:15.764916 27294 net.cpp:411] bbox_pred_readonly -> bbox_pred_readonly
I0727 15:41:15.773906 27294 net.cpp:150] Setting up bbox_pred_readonly
I0727 15:41:15.773928 27294 net.cpp:157] Top shape: 1 84 (84)
I0727 15:41:15.773931 27294 net.cpp:165] Memory required for data: 466603236
I0727 15:41:15.773937 27294 layer_factory.hpp:77] Creating layer cls_prob_readonly
I0727 15:41:15.773946 27294 net.cpp:106] Creating Layer cls_prob_readonly
I0727 15:41:15.773948 27294 net.cpp:454] cls_prob_readonly <- cls_score_readonly
I0727 15:41:15.773953 27294 net.cpp:411] cls_prob_readonly -> cls_prob_readonly
I0727 15:41:15.774219 27294 net.cpp:150] Setting up cls_prob_readonly
I0727 15:41:15.774235 27294 net.cpp:157] Top shape: 1 21 (21)
I0727 15:41:15.774240 27294 net.cpp:165] Memory required for data: 466603320
I0727 15:41:15.774242 27294 layer_factory.hpp:77] Creating layer hard_roi_mining
I0727 15:41:15.774298 27294 net.cpp:106] Creating Layer hard_roi_mining
I0727 15:41:15.774304 27294 net.cpp:454] hard_roi_mining <- cls_prob_readonly
I0727 15:41:15.774310 27294 net.cpp:454] hard_roi_mining <- bbox_pred_readonly
I0727 15:41:15.774314 27294 net.cpp:454] hard_roi_mining <- rois_roi-data_0_split_1
I0727 15:41:15.774318 27294 net.cpp:454] hard_roi_mining <- labels
I0727 15:41:15.774322 27294 net.cpp:454] hard_roi_mining <- bbox_targets
I0727 15:41:15.774325 27294 net.cpp:454] hard_roi_mining <- bbox_inside_weights
I0727 15:41:15.774328 27294 net.cpp:454] hard_roi_mining <- bbox_outside_weights
I0727 15:41:15.774333 27294 net.cpp:411] hard_roi_mining -> rois_hard
I0727 15:41:15.774339 27294 net.cpp:411] hard_roi_mining -> labels_hard
I0727 15:41:15.774345 27294 net.cpp:411] hard_roi_mining -> bbox_targets_hard
I0727 15:41:15.774351 27294 net.cpp:411] hard_roi_mining -> bbox_inside_weights_hard
I0727 15:41:15.774356 27294 net.cpp:411] hard_roi_mining -> bbox_outside_weights_hard
OHEMDataLayer: name_to_top: {'bbox_outside_weights_hard': 4, 'bbox_inside_weights_hard': 3, 'labels_hard': 1, 'rois_hard': 0, 'bbox_targets_hard': 2}
I0727 15:41:15.774927 27294 net.cpp:150] Setting up hard_roi_mining
I0727 15:41:15.774937 27294 net.cpp:157] Top shape: 1 5 (5)
I0727 15:41:15.774941 27294 net.cpp:157] Top shape: 1 (1)
I0727 15:41:15.774945 27294 net.cpp:157] Top shape: 1 84 (84)
I0727 15:41:15.774948 27294 net.cpp:157] Top shape: 1 84 (84)
I0727 15:41:15.774951 27294 net.cpp:157] Top shape: 1 84 (84)
I0727 15:41:15.774953 27294 net.cpp:165] Memory required for data: 466604352
I0727 15:41:15.774957 27294 layer_factory.hpp:77] Creating layer roi_pool5
I0727 15:41:15.774977 27294 net.cpp:106] Creating Layer roi_pool5
I0727 15:41:15.774981 27294 net.cpp:454] roi_pool5 <- conv5_3_relu5_3_0_split_2
I0727 15:41:15.774986 27294 net.cpp:454] roi_pool5 <- rois_hard
I0727 15:41:15.774991 27294 net.cpp:411] roi_pool5 -> pool5
I0727 15:41:15.774999 27294 roi_pooling_layer.cpp:30] Spatial scale: 0.0625
I0727 15:41:15.775084 27294 net.cpp:150] Setting up roi_pool5
I0727 15:41:15.775091 27294 net.cpp:157] Top shape: 1 512 7 7 (25088)
I0727 15:41:15.775094 27294 net.cpp:165] Memory required for data: 466704704
I0727 15:41:15.775099 27294 layer_factory.hpp:77] Creating layer fc6
I0727 15:41:15.775104 27294 net.cpp:106] Creating Layer fc6
I0727 15:41:15.775107 27294 net.cpp:454] fc6 <- pool5
I0727 15:41:15.775115 27294 net.cpp:411] fc6 -> fc6
I0727 15:41:16.090363 27294 net.cpp:150] Setting up fc6
I0727 15:41:16.090450 27294 net.cpp:157] Top shape: 1 4096 (4096)
I0727 15:41:16.090454 27294 net.cpp:165] Memory required for data: 466721088
I0727 15:41:16.090463 27294 net.cpp:514] Sharing parameters 'fc6_w' owned by layer 'fc6_readonly', param index 0
I0727 15:41:16.090471 27294 net.cpp:514] Sharing parameters 'fc6_b' owned by layer 'fc6_readonly', param index 1
I0727 15:41:16.090474 27294 layer_factory.hpp:77] Creating layer relu6
I0727 15:41:16.090495 27294 net.cpp:106] Creating Layer relu6
I0727 15:41:16.090502 27294 net.cpp:454] relu6 <- fc6
I0727 15:41:16.090508 27294 net.cpp:397] relu6 -> fc6 (in-place)
I0727 15:41:16.091753 27294 net.cpp:150] Setting up relu6
I0727 15:41:16.091775 27294 net.cpp:157] Top shape: 1 4096 (4096)
I0727 15:41:16.091779 27294 net.cpp:165] Memory required for data: 466737472
I0727 15:41:16.091784 27294 layer_factory.hpp:77] Creating layer drop6
I0727 15:41:16.091794 27294 net.cpp:106] Creating Layer drop6
I0727 15:41:16.091799 27294 net.cpp:454] drop6 <- fc6
I0727 15:41:16.091804 27294 net.cpp:397] drop6 -> fc6 (in-place)
I0727 15:41:16.091852 27294 net.cpp:150] Setting up drop6
I0727 15:41:16.091873 27294 net.cpp:157] Top shape: 1 4096 (4096)
I0727 15:41:16.091876 27294 net.cpp:165] Memory required for data: 466753856
I0727 15:41:16.091879 27294 layer_factory.hpp:77] Creating layer fc7
I0727 15:41:16.091887 27294 net.cpp:106] Creating Layer fc7
I0727 15:41:16.091892 27294 net.cpp:454] fc7 <- fc6
I0727 15:41:16.091899 27294 net.cpp:411] fc7 -> fc7
I0727 15:41:16.143847 27294 net.cpp:150] Setting up fc7
I0727 15:41:16.143916 27294 net.cpp:157] Top shape: 1 4096 (4096)
I0727 15:41:16.143920 27294 net.cpp:165] Memory required for data: 466770240
I0727 15:41:16.143929 27294 net.cpp:514] Sharing parameters 'fc7_w' owned by layer 'fc7_readonly', param index 0
I0727 15:41:16.143935 27294 net.cpp:514] Sharing parameters 'fc7_b' owned by layer 'fc7_readonly', param index 1
I0727 15:41:16.143940 27294 layer_factory.hpp:77] Creating layer relu7
I0727 15:41:16.143955 27294 net.cpp:106] Creating Layer relu7
I0727 15:41:16.143963 27294 net.cpp:454] relu7 <- fc7
I0727 15:41:16.143970 27294 net.cpp:397] relu7 -> fc7 (in-place)
I0727 15:41:16.144259 27294 net.cpp:150] Setting up relu7
I0727 15:41:16.144278 27294 net.cpp:157] Top shape: 1 4096 (4096)
I0727 15:41:16.144280 27294 net.cpp:165] Memory required for data: 466786624
I0727 15:41:16.144284 27294 layer_factory.hpp:77] Creating layer drop7
I0727 15:41:16.144294 27294 net.cpp:106] Creating Layer drop7
I0727 15:41:16.144299 27294 net.cpp:454] drop7 <- fc7
I0727 15:41:16.144304 27294 net.cpp:397] drop7 -> fc7 (in-place)
I0727 15:41:16.144347 27294 net.cpp:150] Setting up drop7
I0727 15:41:16.144363 27294 net.cpp:157] Top shape: 1 4096 (4096)
I0727 15:41:16.144366 27294 net.cpp:165] Memory required for data: 466803008
I0727 15:41:16.144371 27294 layer_factory.hpp:77] Creating layer fc7_drop7_0_split
I0727 15:41:16.144376 27294 net.cpp:106] Creating Layer fc7_drop7_0_split
I0727 15:41:16.144379 27294 net.cpp:454] fc7_drop7_0_split <- fc7
I0727 15:41:16.144387 27294 net.cpp:411] fc7_drop7_0_split -> fc7_drop7_0_split_0
I0727 15:41:16.144392 27294 net.cpp:411] fc7_drop7_0_split -> fc7_drop7_0_split_1
I0727 15:41:16.144445 27294 net.cpp:150] Setting up fc7_drop7_0_split
I0727 15:41:16.144459 27294 net.cpp:157] Top shape: 1 4096 (4096)
I0727 15:41:16.144464 27294 net.cpp:157] Top shape: 1 4096 (4096)
I0727 15:41:16.144465 27294 net.cpp:165] Memory required for data: 466835776
I0727 15:41:16.144469 27294 layer_factory.hpp:77] Creating layer cls_score
I0727 15:41:16.144477 27294 net.cpp:106] Creating Layer cls_score
I0727 15:41:16.144480 27294 net.cpp:454] cls_score <- fc7_drop7_0_split_0
I0727 15:41:16.144490 27294 net.cpp:411] cls_score -> cls_score
I0727 15:41:16.146697 27294 net.cpp:150] Setting up cls_score
I0727 15:41:16.146713 27294 net.cpp:157] Top shape: 1 21 (21)
I0727 15:41:16.146716 27294 net.cpp:165] Memory required for data: 466835860
I0727 15:41:16.146720 27294 net.cpp:514] Sharing parameters 'cls_score_w' owned by layer 'cls_score_readonly', param index 0
I0727 15:41:16.146724 27294 net.cpp:514] Sharing parameters 'cls_score_b' owned by layer 'cls_score_readonly', param index 1
I0727 15:41:16.146728 27294 layer_factory.hpp:77] Creating layer bbox_pred
I0727 15:41:16.146737 27294 net.cpp:106] Creating Layer bbox_pred
I0727 15:41:16.146741 27294 net.cpp:454] bbox_pred <- fc7_drop7_0_split_1
I0727 15:41:16.146749 27294 net.cpp:411] bbox_pred -> bbox_pred
I0727 15:41:16.155994 27294 net.cpp:150] Setting up bbox_pred
I0727 15:41:16.156014 27294 net.cpp:157] Top shape: 1 84 (84)
I0727 15:41:16.156018 27294 net.cpp:165] Memory required for data: 466836196
I0727 15:41:16.156023 27294 net.cpp:514] Sharing parameters 'bbox_pred_w' owned by layer 'bbox_pred_readonly', param index 0
I0727 15:41:16.156026 27294 net.cpp:514] Sharing parameters 'bbox_pred_b' owned by layer 'bbox_pred_readonly', param index 1
I0727 15:41:16.156030 27294 layer_factory.hpp:77] Creating layer loss_cls
…
