…
stepsize: 50000
snapshot: 0
snapshot_prefix: "fpn"
average_loss: 100
iter_size: 2
I0629 12:45:20.847035  7410 solver.cpp:81] Creating training net from train_net file: models/pascal_voc/VGG16/FP_Net_end2end/train.prototxt
I0629 12:45:20.848403  7410 net.cpp:49] Initializing net from parameters: 
name: "VGG_ILSVRC_16_layers"
state {
  phase: TRAIN
}
layer {
  name: "input-data"
  type: "Python"
  top: "data"
  top: "im_info"
  top: "gt_boxes"
  python_param {
    module: "roi_data_layer.layer"
    layer: "RoIDataLayer"
    param_str: "\'num_classes\': 21"
  }
}
layer {
  name: "conv1_1"
  type: "Convolution"
  bottom: "data"
  top: "conv1_1"
  param {
    lr_mult: 0
    decay_mult: 0
  }
  param {
    lr_mult: 0
    decay_mult: 0
  }
  convolution_param {
    num_output: 64
    pad: 1
    kernel_size: 3
  }
}
layer {
  name: "relu1_1"
  type: "ReLU"
  bottom: "conv1_1"
  top: "conv1_1"
}
layer {
  name: "conv1_2"
  type: "Convolution"
  bottom: "conv1_1"
  top: "conv1_2"
  param {
    lr_mult: 0
    decay_mult: 0
  }
  param {
    lr_mult: 0
    decay_mult: 0
  }
  convolution_param {
    num_output: 64
    pad: 1
    kernel_size: 3
  }
}
layer {
  name: "relu1_2"
  type: "ReLU"
  bottom: "conv1_2"
  top: "conv1_2"
}
layer {
  name: "pool1"
  type: "Pooling"
  bottom: "conv1_2"
  top: "pool1"
  pooling_param {
    pool: MAX
    kernel_size: 2
    stride: 2
  }
}
layer {
  name: "conv2_1"
  type: "Convolution"
  bottom: "pool1"
  top: "conv2_1"
  param {
    lr_mult: 0
    decay_mult: 0
  }
  param {
    lr_mult: 0
    decay_mult: 0
  }
  convolution_param {
    num_output: 128
    pad: 1
    kernel_size: 3
  }
}
layer {
  name: "relu2_1"
  type: "ReLU"
  bottom: "conv2_1"
  top: "conv2_1"
}
layer {
  name: "conv2_2"
  type: "Convolution"
  bottom: "conv2_1"
  top: "conv2_2"
  param {
    lr_mult: 0
    decay_mult: 0
  }
  param {
    lr_mult: 0
    decay_mult: 0
  }
  convolution_param {
    num_output: 128
    pad: 1
    kernel_size: 3
  }
}
layer {
  name: "relu2_2"
  type: "ReLU"
  bottom: "conv2_2"
  top: "conv2_2"
}
layer {
  name: "pool2"
  type: "Pooling"
  bottom: "conv2_2"
  top: "pool2"
  pooling_param {
    pool: MAX
    kernel_size: 2
    stride: 2
  }
}
layer {
  name: "conv3_1"
  type: "Convolution"
  bottom: "pool2"
  top: "conv3_1"
  param {
    lr_mult: 1
  }
  param {
    lr_mult: 2
  }
  convolution_param {
    num_output: 256
    pad: 1
    kernel_size: 3
  }
}
layer {
  name: "relu3_1"
  type: "ReLU"
  bottom: "conv3_1"
  top: "conv3_1"
}
layer {
  name: "conv3_2"
  type: "Convolution"
  bottom: "conv3_1"
  top: "conv3_2"
  param {
    lr_mult: 1
  }
  param {
    lr_mult: 2
  }
  convolution_param {
    num_output: 256
    pad: 1
    kernel_size: 3
  }
}
layer {
  name: "relu3_2"
  type: "ReLU"
  bottom: "conv3_2"
  top: "conv3_2"
}
layer {
  name: "conv3_3"
  type: "Convolution"
  bottom: "conv3_2"
  top: "conv3_3"
  param {
    lr_mult: 1
  }
  param {
    lr_mult: 2
  }
  convolution_param {
    num_output: 256
    pad: 1
    kernel_size: 3
  }
}
layer {
  name: "relu3_3"
  type: "ReLU"
  bottom: "conv3_3"
  top: "conv3_3"
}
layer {
  name: "pool3"
  type: "Pooling"
  bottom: "conv3_3"
  top: "pool3"
  pooling_param {
    pool: MAX
    kernel_size: 2
    stride: 2
  }
}
layer {
  name: "conv4_1"
  type: "Convolution"
  bottom: "pool3"
  top: "conv4_1"
  param {
    lr_mult: 1
  }
  param {
    lr_mult: 2
  }
  convolution_param {
    num_output: 512
    pad: 1
    kernel_size: 3
  }
}
layer {
  name: "relu4_1"
  type: "ReLU"
  bottom: "conv4_1"
  top: "conv4_1"
}
layer {
  name: "conv4_2"
  type: "Convolution"
  bottom: "conv4_1"
  top: "conv4_2"
  param {
    lr_mult: 1
  }
  param {
    lr_mult: 2
  }
  convolution_param {
    num_output: 512
    pad: 1
    kernel_size: 3
  }
}
layer {
  name: "relu4_2"
  type: "ReLU"
  bottom: "conv4_2"
  top: "conv4_2"
}
layer {
  name: "conv4_3"
  type: "Convolution"
  bottom: "conv4_2"
  top: "conv4_3"
  param {
    lr_mult: 1
  }
  param {
    lr_mult: 2
  }
  convolution_param {
    num_output: 512
    pad: 1
    kernel_size: 3
  }
}
layer {
  name: "relu4_3"
  type: "ReLU"
  bottom: "conv4_3"
  top: "conv4_3"
}
layer {
  name: "pool4"
  type: "Pooling"
  bottom: "conv4_3"
  top: "pool4"
  pooling_param {
    pool: MAX
    kernel_size: 2
    stride: 2
  }
}
layer {
  name: "conv5_1"
  type: "Convolution"
  bottom: "pool4"
  top: "conv5_1"
  param {
    lr_mult: 1
  }
  param {
    lr_mult: 2
  }
  convolution_param {
    num_output: 512
    pad: 1
    kernel_size: 3
  }
}
layer {
  name: "relu5_1"
  type: "ReLU"
  bottom: "conv5_1"
  top: "conv5_1"
}
layer {
  name: "conv5_2"
  type: "Convolution"
  bottom: "conv5_1"
  top: "conv5_2"
  param {
    lr_mult: 1
  }
  param {
    lr_mult: 2
  }
  convolution_param {
    num_output: 512
    pad: 1
    kernel_size: 3
  }
}
layer {
  name: "relu5_2"
  type: "ReLU"
  bottom: "conv5_2"
  top: "conv5_2"
}
layer {
  name: "conv5_3"
  type: "Convolution"
  bottom: "conv5_2"
  top: "conv5_3"
  param {
    lr_mult: 1
  }
  param {
    lr_mult: 2
  }
  convolution_param {
    num_output: 512
    pad: 1
    kernel_size: 3
  }
}
layer {
  name: "relu5_3"
  type: "ReLU"
  bottom: "conv5_3"
  top: "conv5_3"
}
layer {
  name: "newC4"
  type: "Convolution"
  bottom: "conv5_3"
  top: "newC4"
  param {
    lr_mult: 1
  }
  param {
    lr_mult: 2
  }
  convolution_param {
    num_output: 256
    kernel_size: 1
    weight_filler {
      type: "xavier"
    }
    bias_filler {
      type: "constant"
    }
  }
}
layer {
  name: "upP4"
  type: "Deconvolution"
  bottom: "newC4"
  top: "upP4"
  param {
    lr_mult: 0
    decay_mult: 0
  }
  convolution_param {
    num_output: 256
    bias_term: false
    pad: 1
    kernel_size: 4
    stride: 2
    weight_filler {
      type: "bilinear"
    }
  }
}
layer {
  name: "newC3"
  type: "Convolution"
  bottom: "conv4_3"
  top: "newC3"
  param {
    lr_mult: 1
  }
  param {
    lr_mult: 2
  }
  convolution_param {
    num_output: 256
    kernel_size: 1
    weight_filler {
      type: "xavier"
    }
    bias_filler {
      type: "constant"
    }
  }
}
layer {
  name: "upP4crop"
  type: "Crop"
  bottom: "upP4"
  bottom: "newC3"
  top: "upP4crop"
  crop_param {
    axis: 2
    offset: 0
  }
}
layer {
  name: "P3"
  type: "Eltwise"
  bottom: "newC3"
  bottom: "upP4crop"
  top: "P3"
  eltwise_param {
    operation: SUM
  }
}
layer {
  name: "newP3"
  type: "Convolution"
  bottom: "P3"
  top: "newP3"
  param {
    lr_mult: 1
  }
  param {
    lr_mult: 2
  }
  convolution_param {
    num_output: 256
    pad: 1
    kernel_size: 3
    weight_filler {
      type: "xavier"
    }
    bias_filler {
      type: "constant"
    }
  }
}
layer {
  name: "rpn_conv/3x3"
  type: "Convolution"
  bottom: "newP3"
  top: "rpn/output"
  param {
    lr_mult: 1
  }
  param {
    lr_mult: 2
  }
  convolution_param {
    num_output: 512
    pad: 1
    kernel_size: 3
    stride: 1
    weight_filler {
      type: "gaussian"
      std: 0.01
    }
    bias_filler {
      type: "constant"
      value: 0
    }
  }
}
layer {
  name: "rpn_relu/3x3"
  type: "ReLU"
  bottom: "rpn/output"
  top: "rpn/output"
}
layer {
  name: "rpn_cls_score"
  type: "Convolution"
  bottom: "rpn/output"
  top: "rpn_cls_score"
  param {
    lr_mult: 1
  }
  param {
    lr_mult: 2
  }
  convolution_param {
    num_output: 18
    pad: 0
    kernel_size: 1
    stride: 1
    weight_filler {
      type: "gaussian"
      std: 0.01
    }
    bias_filler {
      type: "constant"
      value: 0
    }
  }
}
layer {
  name: "rpn_bbox_pred"
  type: "Convolution"
  bottom: "rpn/output"
  top: "rpn_bbox_pred"
  param {
    lr_mult: 1
  }
  param {
    lr_mult: 2
  }
  convolution_param {
    num_output: 36
    pad: 0
    kernel_size: 1
    stride: 1
    weight_filler {
      type: "gaussian"
      std: 0.01
    }
    bias_filler {
      type: "constant"
      value: 0
    }
  }
}
layer {
  name: "rpn_cls_score_reshape"
  type: "Reshape"
  bottom: "rpn_cls_score"
  top: "rpn_cls_score_reshape"
  reshape_param {
    shape {
      dim: 0
      dim: 2
      dim: -1
      dim: 0
    }
  }
}
layer {
  name: "rpn-data"
  type: "Python"
  bottom: "rpn_cls_score"
  bottom: "gt_boxes"
  bottom: "im_info"
  bottom: "data"
  top: "rpn_labels"
  top: "rpn_bbox_targets"
  top: "rpn_bbox_inside_weights"
  top: "rpn_bbox_outside_weights"
  python_param {
    module: "rpn.anchor_target_layer"
    layer: "AnchorTargetLayer"
    param_str: "\'feat_stride\': 16"
  }
}
layer {
  name: "rpn_loss_cls"
  type: "SoftmaxWithLoss"
  bottom: "rpn_cls_score_reshape"
  bottom: "rpn_labels"
  top: "rpn_cls_loss"
  loss_weight: 1
  propagate_down: true
  propagate_down: false
  loss_param {
    ignore_label: -1
    normalize: true
  }
}
layer {
  name: "rpn_loss_bbox"
  type: "SmoothL1Loss"
  bottom: "rpn_bbox_pred"
  bottom: "rpn_bbox_targets"
  bottom: "rpn_bbox_inside_weights"
  bottom: "rpn_bbox_outside_weights"
  top: "rpn_loss_bbox"
  loss_weight: 1
  smooth_l1_loss_param {
    sigma: 3
  }
}
layer {
  name: "rpn_cls_prob"
  type: "Softmax"
  bottom: "rpn_cls_score_reshape"
  top: "rpn_cls_prob"
}
layer {
  name: "rpn_cls_prob_reshape"
  type: "Reshape"
  bottom: "rpn_cls_prob"
  top: "rpn_cls_prob_reshape"
  reshape_param {
    shape {
      dim: 0
      dim: 18
      dim: -1
      dim: 0
    }
  }
}
layer {
  name: "proposal"
  type: "Python"
  bottom: "rpn_cls_prob_reshape"
  bottom: "rpn_bbox_pred"
  bottom: "im_info"
  top: "rpn_rois"
  python_param {
    module: "rpn.proposal_layer"
    layer: "ProposalLayer"
    param_str: "\'feat_stride\': 16"
  }
}
layer {
  name: "roi-data"
  type: "Python"
  bottom: "rpn_rois"
  bottom: "gt_boxes"
  top: "rois"
  top: "labels"
  top: "bbox_targets"
  top: "bbox_inside_weights"
  top: "bbox_outside_weights"
  python_param {
    module: "rpn.proposal_target_layer"
    layer: "ProposalTargetLayer"
    param_str: "\'num_classes\': 21"
  }
}
layer {
  name: "roi_pool5"
  type: "ROIPooling"
  bottom: "newP3"
  bottom: "rois"
  top: "rcnn_pool5"
  roi_pooling_param {
    pooled_h: 7
    pooled_w: 7
    spatial_scale: 0.0625
  }
}
layer {
  name: "rcnn_fc6"
  type: "InnerProduct"
  bottom: "rcnn_pool5"
  top: "rcnn_fc6"
  param {
    lr_mult: 1
  }
  param {
    lr_mult: 2
  }
  inner_product_param {
    num_output: 4096
    weight_filler {
      type: "xavier"
    }
    bias_filler {
      type: "constant"
    }
  }
}
layer {
  name: "relu6"
  type: "ReLU"
  bottom: "rcnn_fc6"
  top: "rcnn_fc6"
}
layer {
  name: "drop6"
  type: "Dropout"
  bottom: "rcnn_fc6"
  top: "rcnn_fc6"
  dropout_param {
    dropout_ratio: 0.5
  }
}
layer {
  name: "fc7"
  type: "InnerProduct"
  bottom: "rcnn_fc6"
  top: "fc7"
  param {
    lr_mult: 1
  }
  param {
    lr_mult: 2
  }
  inner_product_param {
    num_output: 4096
    weight_filler {
      type: "xavier"
    }
    bias_filler {
      type: "constant"
    }
  }
}
layer {
  name: "relu7"
  type: "ReLU"
  bottom: "fc7"
  top: "fc7"
}
layer {
  name: "drop7"
  type: "Dropout"
  bottom: "fc7"
  top: "fc7"
  dropout_param {
    dropout_ratio: 0.5
  }
}
layer {
  name: "cls_score"
  type: "InnerProduct"
  bottom: "fc7"
  top: "cls_score"
  param {
    lr_mult: 1
  }
  param {
    lr_mult: 2
  }
  inner_product_param {
    num_output: 21
    weight_filler {
      type: "gaussian"
      std: 0.01
    }
    bias_filler {
      type: "constant"
      value: 0
    }
  }
}
layer {
  name: "bbox_pred"
  type: "InnerProduct"
  bottom: "fc7"
  top: "bbox_pred"
  param {
    lr_mult: 1
  }
  param {
    lr_mult: 2
  }
  inner_product_param {
    num_output: 84
    weight_filler {
      type: "gaussian"
      std: 0.001
    }
    bias_filler {
      type: "constant"
      value: 0
    }
  }
}
layer {
  name: "loss_cls"
  type: "SoftmaxWithLoss"
  bottom: "cls_score"
  bottom: "labels"
  top: "loss_cls"
  loss_weight: 1
  propagate_down: true
  propagate_down: false
}
layer {
  name: "loss_bbox"
  type: "SmoothL1Loss"
  bottom: "bbox_pred"
  bottom: "bbox_targets"
  bottom: "bbox_inside_weights"
  bottom: "bbox_outside_weights"
  top: "loss_bbox"
  loss_weight: 1
}
I0629 12:45:20.848747  7410 layer_factory.hpp:77] Creating layer input-data
I0629 12:45:20.851197  7410 net.cpp:106] Creating Layer input-data
I0629 12:45:20.851223  7410 net.cpp:411] input-data -> data
I0629 12:45:20.851240  7410 net.cpp:411] input-data -> im_info
I0629 12:45:20.851274  7410 net.cpp:411] input-data -> gt_boxes
RoiDataLayer: name_to_top: {'gt_boxes': 2, 'data': 0, 'im_info': 1}
I0629 12:45:20.916525  7410 net.cpp:150] Setting up input-data
I0629 12:45:20.916550  7410 net.cpp:157] Top shape: 1 3 800 2000 (4800000)
I0629 12:45:20.916574  7410 net.cpp:157] Top shape: 1 3 (3)
I0629 12:45:20.916584  7410 net.cpp:157] Top shape: 1 4 (4)
I0629 12:45:20.916586  7410 net.cpp:165] Memory required for data: 19200028
I0629 12:45:20.916592  7410 layer_factory.hpp:77] Creating layer data_input-data_0_split
I0629 12:45:20.916604  7410 net.cpp:106] Creating Layer data_input-data_0_split
I0629 12:45:20.916610  7410 net.cpp:454] data_input-data_0_split <- data
I0629 12:45:20.916621  7410 net.cpp:411] data_input-data_0_split -> data_input-data_0_split_0
I0629 12:45:20.916636  7410 net.cpp:411] data_input-data_0_split -> data_input-data_0_split_1
I0629 12:45:20.916676  7410 net.cpp:150] Setting up data_input-data_0_split
I0629 12:45:20.916687  7410 net.cpp:157] Top shape: 1 3 800 2000 (4800000)
I0629 12:45:20.916692  7410 net.cpp:157] Top shape: 1 3 800 2000 (4800000)
I0629 12:45:20.916700  7410 net.cpp:165] Memory required for data: 57600028
I0629 12:45:20.916712  7410 layer_factory.hpp:77] Creating layer im_info_input-data_1_split
I0629 12:45:20.916718  7410 net.cpp:106] Creating Layer im_info_input-data_1_split
I0629 12:45:20.916720  7410 net.cpp:454] im_info_input-data_1_split <- im_info
I0629 12:45:20.916724  7410 net.cpp:411] im_info_input-data_1_split -> im_info_input-data_1_split_0
I0629 12:45:20.916738  7410 net.cpp:411] im_info_input-data_1_split -> im_info_input-data_1_split_1
I0629 12:45:20.916770  7410 net.cpp:150] Setting up im_info_input-data_1_split
I0629 12:45:20.916780  7410 net.cpp:157] Top shape: 1 3 (3)
I0629 12:45:20.916785  7410 net.cpp:157] Top shape: 1 3 (3)
I0629 12:45:20.916787  7410 net.cpp:165] Memory required for data: 57600052
I0629 12:45:20.916790  7410 layer_factory.hpp:77] Creating layer gt_boxes_input-data_2_split
I0629 12:45:20.916796  7410 net.cpp:106] Creating Layer gt_boxes_input-data_2_split
I0629 12:45:20.916800  7410 net.cpp:454] gt_boxes_input-data_2_split <- gt_boxes
I0629 12:45:20.916805  7410 net.cpp:411] gt_boxes_input-data_2_split -> gt_boxes_input-data_2_split_0
I0629 12:45:20.916810  7410 net.cpp:411] gt_boxes_input-data_2_split -> gt_boxes_input-data_2_split_1
I0629 12:45:20.916839  7410 net.cpp:150] Setting up gt_boxes_input-data_2_split
I0629 12:45:20.916849  7410 net.cpp:157] Top shape: 1 4 (4)
I0629 12:45:20.916853  7410 net.cpp:157] Top shape: 1 4 (4)
I0629 12:45:20.916857  7410 net.cpp:165] Memory required for data: 57600084
I0629 12:45:20.916858  7410 layer_factory.hpp:77] Creating layer conv1_1
I0629 12:45:20.916872  7410 net.cpp:106] Creating Layer conv1_1
I0629 12:45:20.916880  7410 net.cpp:454] conv1_1 <- data_input-data_0_split_0
I0629 12:45:20.916887  7410 net.cpp:411] conv1_1 -> conv1_1
I0629 12:45:21.250391  7410 net.cpp:150] Setting up conv1_1
I0629 12:45:21.250442  7410 net.cpp:157] Top shape: 1 64 800 2000 (102400000)
I0629 12:45:21.250447  7410 net.cpp:165] Memory required for data: 467200084
I0629 12:45:21.250468  7410 layer_factory.hpp:77] Creating layer relu1_1
I0629 12:45:21.250483  7410 net.cpp:106] Creating Layer relu1_1
I0629 12:45:21.250517  7410 net.cpp:454] relu1_1 <- conv1_1
I0629 12:45:21.250537  7410 net.cpp:397] relu1_1 -> conv1_1 (in-place)
I0629 12:45:21.251240  7410 net.cpp:150] Setting up relu1_1
I0629 12:45:21.251262  7410 net.cpp:157] Top shape: 1 64 800 2000 (102400000)
I0629 12:45:21.251266  7410 net.cpp:165] Memory required for data: 876800084
I0629 12:45:21.251271  7410 layer_factory.hpp:77] Creating layer conv1_2
I0629 12:45:21.251282  7410 net.cpp:106] Creating Layer conv1_2
I0629 12:45:21.251286  7410 net.cpp:454] conv1_2 <- conv1_1
I0629 12:45:21.251291  7410 net.cpp:411] conv1_2 -> conv1_2
I0629 12:45:21.258311  7410 net.cpp:150] Setting up conv1_2
I0629 12:45:21.258334  7410 net.cpp:157] Top shape: 1 64 800 2000 (102400000)
I0629 12:45:21.258339  7410 net.cpp:165] Memory required for data: 1286400084
I0629 12:45:21.258350  7410 layer_factory.hpp:77] Creating layer relu1_2
I0629 12:45:21.258381  7410 net.cpp:106] Creating Layer relu1_2
I0629 12:45:21.258397  7410 net.cpp:454] relu1_2 <- conv1_2
I0629 12:45:21.258412  7410 net.cpp:397] relu1_2 -> conv1_2 (in-place)
I0629 12:45:21.258605  7410 net.cpp:150] Setting up relu1_2
I0629 12:45:21.258621  7410 net.cpp:157] Top shape: 1 64 800 2000 (102400000)
I0629 12:45:21.258625  7410 net.cpp:165] Memory required for data: 1696000084
I0629 12:45:21.258630  7410 layer_factory.hpp:77] Creating layer pool1
I0629 12:45:21.258644  7410 net.cpp:106] Creating Layer pool1
I0629 12:45:21.258666  7410 net.cpp:454] pool1 <- conv1_2
I0629 12:45:21.258682  7410 net.cpp:411] pool1 -> pool1
I0629 12:45:21.258746  7410 net.cpp:150] Setting up pool1
I0629 12:45:21.258760  7410 net.cpp:157] Top shape: 1 64 400 1000 (25600000)
I0629 12:45:21.258764  7410 net.cpp:165] Memory required for data: 1798400084
I0629 12:45:21.258766  7410 layer_factory.hpp:77] Creating layer conv2_1
I0629 12:45:21.258786  7410 net.cpp:106] Creating Layer conv2_1
I0629 12:45:21.258791  7410 net.cpp:454] conv2_1 <- pool1
I0629 12:45:21.258796  7410 net.cpp:411] conv2_1 -> conv2_1
I0629 12:45:21.263164  7410 net.cpp:150] Setting up conv2_1
I0629 12:45:21.263188  7410 net.cpp:157] Top shape: 1 128 400 1000 (51200000)
I0629 12:45:21.263192  7410 net.cpp:165] Memory required for data: 2003200084
I0629 12:45:21.263202  7410 layer_factory.hpp:77] Creating layer relu2_1
I0629 12:45:21.263231  7410 net.cpp:106] Creating Layer relu2_1
I0629 12:45:21.263247  7410 net.cpp:454] relu2_1 <- conv2_1
I0629 12:45:21.263263  7410 net.cpp:397] relu2_1 -> conv2_1 (in-place)
I0629 12:45:21.263453  7410 net.cpp:150] Setting up relu2_1
I0629 12:45:21.263470  7410 net.cpp:157] Top shape: 1 128 400 1000 (51200000)
I0629 12:45:21.263474  7410 net.cpp:165] Memory required for data: 2208000084
I0629 12:45:21.263478  7410 layer_factory.hpp:77] Creating layer conv2_2
I0629 12:45:21.263486  7410 net.cpp:106] Creating Layer conv2_2
I0629 12:45:21.263507  7410 net.cpp:454] conv2_2 <- conv2_1
I0629 12:45:21.263525  7410 net.cpp:411] conv2_2 -> conv2_2
I0629 12:45:21.267590  7410 net.cpp:150] Setting up conv2_2
I0629 12:45:21.267614  7410 net.cpp:157] Top shape: 1 128 400 1000 (51200000)
I0629 12:45:21.267619  7410 net.cpp:165] Memory required for data: 2412800084
I0629 12:45:21.267627  7410 layer_factory.hpp:77] Creating layer relu2_2
I0629 12:45:21.267655  7410 net.cpp:106] Creating Layer relu2_2
I0629 12:45:21.267689  7410 net.cpp:454] relu2_2 <- conv2_2
I0629 12:45:21.267706  7410 net.cpp:397] relu2_2 -> conv2_2 (in-place)
I0629 12:45:21.268436  7410 net.cpp:150] Setting up relu2_2
I0629 12:45:21.268457  7410 net.cpp:157] Top shape: 1 128 400 1000 (51200000)
I0629 12:45:21.268461  7410 net.cpp:165] Memory required for data: 2617600084
I0629 12:45:21.268465  7410 layer_factory.hpp:77] Creating layer pool2
I0629 12:45:21.268492  7410 net.cpp:106] Creating Layer pool2
I0629 12:45:21.268507  7410 net.cpp:454] pool2 <- conv2_2
I0629 12:45:21.268529  7410 net.cpp:411] pool2 -> pool2
I0629 12:45:21.268594  7410 net.cpp:150] Setting up pool2
I0629 12:45:21.268609  7410 net.cpp:157] Top shape: 1 128 200 500 (12800000)
I0629 12:45:21.268611  7410 net.cpp:165] Memory required for data: 2668800084
I0629 12:45:21.268615  7410 layer_factory.hpp:77] Creating layer conv3_1
I0629 12:45:21.268622  7410 net.cpp:106] Creating Layer conv3_1
I0629 12:45:21.268640  7410 net.cpp:454] conv3_1 <- pool2
I0629 12:45:21.268656  7410 net.cpp:411] conv3_1 -> conv3_1
I0629 12:45:21.272478  7410 net.cpp:150] Setting up conv3_1
I0629 12:45:21.272503  7410 net.cpp:157] Top shape: 1 256 200 500 (25600000)
I0629 12:45:21.272507  7410 net.cpp:165] Memory required for data: 2771200084
I0629 12:45:21.272517  7410 layer_factory.hpp:77] Creating layer relu3_1
I0629 12:45:21.272524  7410 net.cpp:106] Creating Layer relu3_1
I0629 12:45:21.272550  7410 net.cpp:454] relu3_1 <- conv3_1
I0629 12:45:21.272568  7410 net.cpp:397] relu3_1 -> conv3_1 (in-place)
I0629 12:45:21.272786  7410 net.cpp:150] Setting up relu3_1
I0629 12:45:21.272804  7410 net.cpp:157] Top shape: 1 256 200 500 (25600000)
I0629 12:45:21.272809  7410 net.cpp:165] Memory required for data: 2873600084
I0629 12:45:21.272812  7410 layer_factory.hpp:77] Creating layer conv3_2
I0629 12:45:21.272822  7410 net.cpp:106] Creating Layer conv3_2
I0629 12:45:21.272845  7410 net.cpp:454] conv3_2 <- conv3_1
I0629 12:45:21.272872  7410 net.cpp:411] conv3_2 -> conv3_2
I0629 12:45:21.278055  7410 net.cpp:150] Setting up conv3_2
I0629 12:45:21.278080  7410 net.cpp:157] Top shape: 1 256 200 500 (25600000)
I0629 12:45:21.278085  7410 net.cpp:165] Memory required for data: 2976000084
I0629 12:45:21.278092  7410 layer_factory.hpp:77] Creating layer relu3_2
I0629 12:45:21.278121  7410 net.cpp:106] Creating Layer relu3_2
I0629 12:45:21.278141  7410 net.cpp:454] relu3_2 <- conv3_2
I0629 12:45:21.278164  7410 net.cpp:397] relu3_2 -> conv3_2 (in-place)
I0629 12:45:21.278357  7410 net.cpp:150] Setting up relu3_2
I0629 12:45:21.278374  7410 net.cpp:157] Top shape: 1 256 200 500 (25600000)
I0629 12:45:21.278378  7410 net.cpp:165] Memory required for data: 3078400084
I0629 12:45:21.278383  7410 layer_factory.hpp:77] Creating layer conv3_3
I0629 12:45:21.278390  7410 net.cpp:106] Creating Layer conv3_3
I0629 12:45:21.278412  7410 net.cpp:454] conv3_3 <- conv3_2
I0629 12:45:21.278429  7410 net.cpp:411] conv3_3 -> conv3_3
I0629 12:45:21.283812  7410 net.cpp:150] Setting up conv3_3
I0629 12:45:21.283835  7410 net.cpp:157] Top shape: 1 256 200 500 (25600000)
I0629 12:45:21.283840  7410 net.cpp:165] Memory required for data: 3180800084
I0629 12:45:21.283849  7410 layer_factory.hpp:77] Creating layer relu3_3
I0629 12:45:21.283877  7410 net.cpp:106] Creating Layer relu3_3
I0629 12:45:21.283896  7410 net.cpp:454] relu3_3 <- conv3_3
I0629 12:45:21.283921  7410 net.cpp:397] relu3_3 -> conv3_3 (in-place)
I0629 12:45:21.284673  7410 net.cpp:150] Setting up relu3_3
I0629 12:45:21.284700  7410 net.cpp:157] Top shape: 1 256 200 500 (25600000)
I0629 12:45:21.284726  7410 net.cpp:165] Memory required for data: 3283200084
I0629 12:45:21.284741  7410 layer_factory.hpp:77] Creating layer pool3
I0629 12:45:21.284759  7410 net.cpp:106] Creating Layer pool3
I0629 12:45:21.284775  7410 net.cpp:454] pool3 <- conv3_3
I0629 12:45:21.284791  7410 net.cpp:411] pool3 -> pool3
I0629 12:45:21.284864  7410 net.cpp:150] Setting up pool3
I0629 12:45:21.284879  7410 net.cpp:157] Top shape: 1 256 100 250 (6400000)
I0629 12:45:21.284883  7410 net.cpp:165] Memory required for data: 3308800084
I0629 12:45:21.284886  7410 layer_factory.hpp:77] Creating layer conv4_1
I0629 12:45:21.284895  7410 net.cpp:106] Creating Layer conv4_1
I0629 12:45:21.284914  7410 net.cpp:454] conv4_1 <- pool3
I0629 12:45:21.284932  7410 net.cpp:411] conv4_1 -> conv4_1
I0629 12:45:21.291311  7410 net.cpp:150] Setting up conv4_1
I0629 12:45:21.291354  7410 net.cpp:157] Top shape: 1 512 100 250 (12800000)
I0629 12:45:21.291359  7410 net.cpp:165] Memory required for data: 3360000084
I0629 12:45:21.291370  7410 layer_factory.hpp:77] Creating layer relu4_1
I0629 12:45:21.291380  7410 net.cpp:106] Creating Layer relu4_1
I0629 12:45:21.291414  7410 net.cpp:454] relu4_1 <- conv4_1
I0629 12:45:21.291434  7410 net.cpp:397] relu4_1 -> conv4_1 (in-place)
I0629 12:45:21.292186  7410 net.cpp:150] Setting up relu4_1
I0629 12:45:21.292208  7410 net.cpp:157] Top shape: 1 512 100 250 (12800000)
I0629 12:45:21.292212  7410 net.cpp:165] Memory required for data: 3411200084
I0629 12:45:21.292217  7410 layer_factory.hpp:77] Creating layer conv4_2
I0629 12:45:21.292248  7410 net.cpp:106] Creating Layer conv4_2
I0629 12:45:21.292294  7410 net.cpp:454] conv4_2 <- conv4_1
I0629 12:45:21.292321  7410 net.cpp:411] conv4_2 -> conv4_2
I0629 12:45:21.302325  7410 net.cpp:150] Setting up conv4_2
I0629 12:45:21.302356  7410 net.cpp:157] Top shape: 1 512 100 250 (12800000)
I0629 12:45:21.302361  7410 net.cpp:165] Memory required for data: 3462400084
I0629 12:45:21.302373  7410 layer_factory.hpp:77] Creating layer relu4_2
I0629 12:45:21.302409  7410 net.cpp:106] Creating Layer relu4_2
I0629 12:45:21.302428  7410 net.cpp:454] relu4_2 <- conv4_2
I0629 12:45:21.302443  7410 net.cpp:397] relu4_2 -> conv4_2 (in-place)
I0629 12:45:21.303521  7410 net.cpp:150] Setting up relu4_2
I0629 12:45:21.303539  7410 net.cpp:157] Top shape: 1 512 100 250 (12800000)
I0629 12:45:21.303544  7410 net.cpp:165] Memory required for data: 3513600084
I0629 12:45:21.303546  7410 layer_factory.hpp:77] Creating layer conv4_3
I0629 12:45:21.303561  7410 net.cpp:106] Creating Layer conv4_3
I0629 12:45:21.303583  7410 net.cpp:454] conv4_3 <- conv4_2
I0629 12:45:21.303601  7410 net.cpp:411] conv4_3 -> conv4_3
I0629 12:45:21.313743  7410 net.cpp:150] Setting up conv4_3
I0629 12:45:21.313768  7410 net.cpp:157] Top shape: 1 512 100 250 (12800000)
I0629 12:45:21.313772  7410 net.cpp:165] Memory required for data: 3564800084
I0629 12:45:21.313782  7410 layer_factory.hpp:77] Creating layer relu4_3
I0629 12:45:21.313813  7410 net.cpp:106] Creating Layer relu4_3
I0629 12:45:21.313829  7410 net.cpp:454] relu4_3 <- conv4_3
I0629 12:45:21.313848  7410 net.cpp:397] relu4_3 -> conv4_3 (in-place)
I0629 12:45:21.314627  7410 net.cpp:150] Setting up relu4_3
I0629 12:45:21.314649  7410 net.cpp:157] Top shape: 1 512 100 250 (12800000)
I0629 12:45:21.314652  7410 net.cpp:165] Memory required for data: 3616000084
I0629 12:45:21.314656  7410 layer_factory.hpp:77] Creating layer conv4_3_relu4_3_0_split
I0629 12:45:21.314663  7410 net.cpp:106] Creating Layer conv4_3_relu4_3_0_split
I0629 12:45:21.314687  7410 net.cpp:454] conv4_3_relu4_3_0_split <- conv4_3
I0629 12:45:21.314704  7410 net.cpp:411] conv4_3_relu4_3_0_split -> conv4_3_relu4_3_0_split_0
I0629 12:45:21.314725  7410 net.cpp:411] conv4_3_relu4_3_0_split -> conv4_3_relu4_3_0_split_1
I0629 12:45:21.314806  7410 net.cpp:150] Setting up conv4_3_relu4_3_0_split
I0629 12:45:21.314821  7410 net.cpp:157] Top shape: 1 512 100 250 (12800000)
I0629 12:45:21.314826  7410 net.cpp:157] Top shape: 1 512 100 250 (12800000)
I0629 12:45:21.314828  7410 net.cpp:165] Memory required for data: 3718400084
I0629 12:45:21.314832  7410 layer_factory.hpp:77] Creating layer pool4
I0629 12:45:21.314841  7410 net.cpp:106] Creating Layer pool4
I0629 12:45:21.314862  7410 net.cpp:454] pool4 <- conv4_3_relu4_3_0_split_0
I0629 12:45:21.314879  7410 net.cpp:411] pool4 -> pool4
I0629 12:45:21.314950  7410 net.cpp:150] Setting up pool4
I0629 12:45:21.314963  7410 net.cpp:157] Top shape: 1 512 50 125 (3200000)
I0629 12:45:21.314966  7410 net.cpp:165] Memory required for data: 3731200084
I0629 12:45:21.314970  7410 layer_factory.hpp:77] Creating layer conv5_1
I0629 12:45:21.314980  7410 net.cpp:106] Creating Layer conv5_1
I0629 12:45:21.314999  7410 net.cpp:454] conv5_1 <- pool4
I0629 12:45:21.315016  7410 net.cpp:411] conv5_1 -> conv5_1
I0629 12:45:21.324831  7410 net.cpp:150] Setting up conv5_1
I0629 12:45:21.324856  7410 net.cpp:157] Top shape: 1 512 50 125 (3200000)
I0629 12:45:21.324861  7410 net.cpp:165] Memory required for data: 3744000084
I0629 12:45:21.324867  7410 layer_factory.hpp:77] Creating layer relu5_1
I0629 12:45:21.324898  7410 net.cpp:106] Creating Layer relu5_1
I0629 12:45:21.324924  7410 net.cpp:454] relu5_1 <- conv5_1
I0629 12:45:21.324940  7410 net.cpp:397] relu5_1 -> conv5_1 (in-place)
I0629 12:45:21.325162  7410 net.cpp:150] Setting up relu5_1
I0629 12:45:21.325181  7410 net.cpp:157] Top shape: 1 512 50 125 (3200000)
I0629 12:45:21.325183  7410 net.cpp:165] Memory required for data: 3756800084
I0629 12:45:21.325187  7410 layer_factory.hpp:77] Creating layer conv5_2
I0629 12:45:21.325198  7410 net.cpp:106] Creating Layer conv5_2
I0629 12:45:21.325219  7410 net.cpp:454] conv5_2 <- conv5_1
I0629 12:45:21.325264  7410 net.cpp:411] conv5_2 -> conv5_2
I0629 12:45:21.333437  7410 net.cpp:150] Setting up conv5_2
I0629 12:45:21.333461  7410 net.cpp:157] Top shape: 1 512 50 125 (3200000)
I0629 12:45:21.333465  7410 net.cpp:165] Memory required for data: 3769600084
I0629 12:45:21.333472  7410 layer_factory.hpp:77] Creating layer relu5_2
I0629 12:45:21.333513  7410 net.cpp:106] Creating Layer relu5_2
I0629 12:45:21.333529  7410 net.cpp:454] relu5_2 <- conv5_2
I0629 12:45:21.333545  7410 net.cpp:397] relu5_2 -> conv5_2 (in-place)
I0629 12:45:21.333940  7410 net.cpp:150] Setting up relu5_2
I0629 12:45:21.333958  7410 net.cpp:157] Top shape: 1 512 50 125 (3200000)
I0629 12:45:21.333961  7410 net.cpp:165] Memory required for data: 3782400084
I0629 12:45:21.333964  7410 layer_factory.hpp:77] Creating layer conv5_3
I0629 12:45:21.333978  7410 net.cpp:106] Creating Layer conv5_3
I0629 12:45:21.334000  7410 net.cpp:454] conv5_3 <- conv5_2
I0629 12:45:21.334020  7410 net.cpp:411] conv5_3 -> conv5_3
I0629 12:45:21.343792  7410 net.cpp:150] Setting up conv5_3
I0629 12:45:21.343817  7410 net.cpp:157] Top shape: 1 512 50 125 (3200000)
I0629 12:45:21.343822  7410 net.cpp:165] Memory required for data: 3795200084
I0629 12:45:21.343828  7410 layer_factory.hpp:77] Creating layer relu5_3
I0629 12:45:21.343861  7410 net.cpp:106] Creating Layer relu5_3
I0629 12:45:21.343873  7410 net.cpp:454] relu5_3 <- conv5_3
I0629 12:45:21.343879  7410 net.cpp:397] relu5_3 -> conv5_3 (in-place)
I0629 12:45:21.344638  7410 net.cpp:150] Setting up relu5_3
I0629 12:45:21.344658  7410 net.cpp:157] Top shape: 1 512 50 125 (3200000)
I0629 12:45:21.344662  7410 net.cpp:165] Memory required for data: 3808000084
I0629 12:45:21.344687  7410 layer_factory.hpp:77] Creating layer newC4
I0629 12:45:21.344715  7410 net.cpp:106] Creating Layer newC4
I0629 12:45:21.344736  7410 net.cpp:454] newC4 <- conv5_3
I0629 12:45:21.344750  7410 net.cpp:411] newC4 -> newC4
I0629 12:45:21.348304  7410 net.cpp:150] Setting up newC4
I0629 12:45:21.348327  7410 net.cpp:157] Top shape: 1 256 50 125 (1600000)
I0629 12:45:21.348356  7410 net.cpp:165] Memory required for data: 3814400084
I0629 12:45:21.348371  7410 layer_factory.hpp:77] Creating layer upP4
I0629 12:45:21.348384  7410 net.cpp:106] Creating Layer upP4
I0629 12:45:21.348397  7410 net.cpp:454] upP4 <- newC4
I0629 12:45:21.348407  7410 net.cpp:411] upP4 -> upP4
I0629 12:45:21.375211  7410 net.cpp:150] Setting up upP4
I0629 12:45:21.375232  7410 net.cpp:157] Top shape: 1 256 100 250 (6400000)
I0629 12:45:21.375236  7410 net.cpp:165] Memory required for data: 3840000084
I0629 12:45:21.375241  7410 layer_factory.hpp:77] Creating layer newC3
I0629 12:45:21.375273  7410 net.cpp:106] Creating Layer newC3
I0629 12:45:21.375285  7410 net.cpp:454] newC3 <- conv4_3_relu4_3_0_split_1
I0629 12:45:21.375295  7410 net.cpp:411] newC3 -> newC3
I0629 12:45:21.378010  7410 net.cpp:150] Setting up newC3
I0629 12:45:21.378034  7410 net.cpp:157] Top shape: 1 256 100 250 (6400000)
I0629 12:45:21.378062  7410 net.cpp:165] Memory required for data: 3865600084
I0629 12:45:21.378077  7410 layer_factory.hpp:77] Creating layer newC3_newC3_0_split
I0629 12:45:21.378084  7410 net.cpp:106] Creating Layer newC3_newC3_0_split
I0629 12:45:21.378101  7410 net.cpp:454] newC3_newC3_0_split <- newC3
I0629 12:45:21.378114  7410 net.cpp:411] newC3_newC3_0_split -> newC3_newC3_0_split_0
I0629 12:45:21.378121  7410 net.cpp:411] newC3_newC3_0_split -> newC3_newC3_0_split_1
I0629 12:45:21.378197  7410 net.cpp:150] Setting up newC3_newC3_0_split
I0629 12:45:21.378211  7410 net.cpp:157] Top shape: 1 256 100 250 (6400000)
I0629 12:45:21.378222  7410 net.cpp:157] Top shape: 1 256 100 250 (6400000)
I0629 12:45:21.378242  7410 net.cpp:165] Memory required for data: 3916800084
I0629 12:45:21.378250  7410 layer_factory.hpp:77] Creating layer upP4crop
I0629 12:45:21.378260  7410 net.cpp:106] Creating Layer upP4crop
I0629 12:45:21.378278  7410 net.cpp:454] upP4crop <- upP4
I0629 12:45:21.378289  7410 net.cpp:454] upP4crop <- newC3_newC3_0_split_0
I0629 12:45:21.378298  7410 net.cpp:411] upP4crop -> upP4crop
I0629 12:45:21.378414  7410 net.cpp:150] Setting up upP4crop
I0629 12:45:21.378427  7410 net.cpp:157] Top shape: 1 256 100 250 (6400000)
I0629 12:45:21.378429  7410 net.cpp:165] Memory required for data: 3942400084
I0629 12:45:21.378433  7410 layer_factory.hpp:77] Creating layer P3
I0629 12:45:21.378444  7410 net.cpp:106] Creating Layer P3
I0629 12:45:21.378453  7410 net.cpp:454] P3 <- newC3_newC3_0_split_1
I0629 12:45:21.378456  7410 net.cpp:454] P3 <- upP4crop
I0629 12:45:21.378460  7410 net.cpp:411] P3 -> P3
I0629 12:45:21.378520  7410 net.cpp:150] Setting up P3
I0629 12:45:21.378535  7410 net.cpp:157] Top shape: 1 256 100 250 (6400000)
I0629 12:45:21.378537  7410 net.cpp:165] Memory required for data: 3968000084
I0629 12:45:21.378540  7410 layer_factory.hpp:77] Creating layer newP3
I0629 12:45:21.378568  7410 net.cpp:106] Creating Layer newP3
I0629 12:45:21.378578  7410 net.cpp:454] newP3 <- P3
I0629 12:45:21.378587  7410 net.cpp:411] newP3 -> newP3
I0629 12:45:21.385123  7410 net.cpp:150] Setting up newP3
I0629 12:45:21.385149  7410 net.cpp:157] Top shape: 1 256 100 250 (6400000)
I0629 12:45:21.385176  7410 net.cpp:165] Memory required for data: 3993600084
I0629 12:45:21.385201  7410 layer_factory.hpp:77] Creating layer newP3_newP3_0_split
I0629 12:45:21.385218  7410 net.cpp:106] Creating Layer newP3_newP3_0_split
I0629 12:45:21.385222  7410 net.cpp:454] newP3_newP3_0_split <- newP3
I0629 12:45:21.385228  7410 net.cpp:411] newP3_newP3_0_split -> newP3_newP3_0_split_0
I0629 12:45:21.385253  7410 net.cpp:411] newP3_newP3_0_split -> newP3_newP3_0_split_1
I0629 12:45:21.385320  7410 net.cpp:150] Setting up newP3_newP3_0_split
I0629 12:45:21.385332  7410 net.cpp:157] Top shape: 1 256 100 250 (6400000)
I0629 12:45:21.385337  7410 net.cpp:157] Top shape: 1 256 100 250 (6400000)
I0629 12:45:21.385339  7410 net.cpp:165] Memory required for data: 4044800084
I0629 12:45:21.385344  7410 layer_factory.hpp:77] Creating layer rpn_conv/3x3
I0629 12:45:21.385372  7410 net.cpp:106] Creating Layer rpn_conv/3x3
I0629 12:45:21.385383  7410 net.cpp:454] rpn_conv/3x3 <- newP3_newP3_0_split_0
I0629 12:45:21.385392  7410 net.cpp:411] rpn_conv/3x3 -> rpn/output
I0629 12:45:21.419564  7410 net.cpp:150] Setting up rpn_conv/3x3
I0629 12:45:21.419587  7410 net.cpp:157] Top shape: 1 512 100 250 (12800000)
I0629 12:45:21.419592  7410 net.cpp:165] Memory required for data: 4096000084
I0629 12:45:21.419598  7410 layer_factory.hpp:77] Creating layer rpn_relu/3x3
I0629 12:45:21.419628  7410 net.cpp:106] Creating Layer rpn_relu/3x3
I0629 12:45:21.419641  7410 net.cpp:454] rpn_relu/3x3 <- rpn/output
I0629 12:45:21.419646  7410 net.cpp:397] rpn_relu/3x3 -> rpn/output (in-place)
I0629 12:45:21.420413  7410 net.cpp:150] Setting up rpn_relu/3x3
I0629 12:45:21.420433  7410 net.cpp:157] Top shape: 1 512 100 250 (12800000)
I0629 12:45:21.420436  7410 net.cpp:165] Memory required for data: 4147200084
I0629 12:45:21.420462  7410 layer_factory.hpp:77] Creating layer rpn/output_rpn_relu/3x3_0_split
I0629 12:45:21.420477  7410 net.cpp:106] Creating Layer rpn/output_rpn_relu/3x3_0_split
I0629 12:45:21.420482  7410 net.cpp:454] rpn/output_rpn_relu/3x3_0_split <- rpn/output
I0629 12:45:21.420505  7410 net.cpp:411] rpn/output_rpn_relu/3x3_0_split -> rpn/output_rpn_relu/3x3_0_split_0
I0629 12:45:21.420516  7410 net.cpp:411] rpn/output_rpn_relu/3x3_0_split -> rpn/output_rpn_relu/3x3_0_split_1
I0629 12:45:21.420578  7410 net.cpp:150] Setting up rpn/output_rpn_relu/3x3_0_split
I0629 12:45:21.420589  7410 net.cpp:157] Top shape: 1 512 100 250 (12800000)
I0629 12:45:21.420594  7410 net.cpp:157] Top shape: 1 512 100 250 (12800000)
I0629 12:45:21.420598  7410 net.cpp:165] Memory required for data: 4249600084
I0629 12:45:21.420600  7410 layer_factory.hpp:77] Creating layer rpn_cls_score
I0629 12:45:21.420613  7410 net.cpp:106] Creating Layer rpn_cls_score
I0629 12:45:21.420617  7410 net.cpp:454] rpn_cls_score <- rpn/output_rpn_relu/3x3_0_split_0
I0629 12:45:21.420625  7410 net.cpp:411] rpn_cls_score -> rpn_cls_score
I0629 12:45:21.424091  7410 net.cpp:150] Setting up rpn_cls_score
I0629 12:45:21.424114  7410 net.cpp:157] Top shape: 1 18 100 250 (450000)
I0629 12:45:21.424118  7410 net.cpp:165] Memory required for data: 4251400084
I0629 12:45:21.424125  7410 layer_factory.hpp:77] Creating layer rpn_cls_score_rpn_cls_score_0_split
I0629 12:45:21.424162  7410 net.cpp:106] Creating Layer rpn_cls_score_rpn_cls_score_0_split
I0629 12:45:21.424175  7410 net.cpp:454] rpn_cls_score_rpn_cls_score_0_split <- rpn_cls_score
I0629 12:45:21.424181  7410 net.cpp:411] rpn_cls_score_rpn_cls_score_0_split -> rpn_cls_score_rpn_cls_score_0_split_0
I0629 12:45:21.424206  7410 net.cpp:411] rpn_cls_score_rpn_cls_score_0_split -> rpn_cls_score_rpn_cls_score_0_split_1
I0629 12:45:21.424271  7410 net.cpp:150] Setting up rpn_cls_score_rpn_cls_score_0_split
I0629 12:45:21.424284  7410 net.cpp:157] Top shape: 1 18 100 250 (450000)
I0629 12:45:21.424288  7410 net.cpp:157] Top shape: 1 18 100 250 (450000)
I0629 12:45:21.424291  7410 net.cpp:165] Memory required for data: 4255000084
I0629 12:45:21.424311  7410 layer_factory.hpp:77] Creating layer rpn_bbox_pred
I0629 12:45:21.424329  7410 net.cpp:106] Creating Layer rpn_bbox_pred
I0629 12:45:21.424345  7410 net.cpp:454] rpn_bbox_pred <- rpn/output_rpn_relu/3x3_0_split_1
I0629 12:45:21.424362  7410 net.cpp:411] rpn_bbox_pred -> rpn_bbox_pred
I0629 12:45:21.427289  7410 net.cpp:150] Setting up rpn_bbox_pred
I0629 12:45:21.427310  7410 net.cpp:157] Top shape: 1 36 100 250 (900000)
I0629 12:45:21.427314  7410 net.cpp:165] Memory required for data: 4258600084
I0629 12:45:21.427320  7410 layer_factory.hpp:77] Creating layer rpn_bbox_pred_rpn_bbox_pred_0_split
I0629 12:45:21.427352  7410 net.cpp:106] Creating Layer rpn_bbox_pred_rpn_bbox_pred_0_split
I0629 12:45:21.427364  7410 net.cpp:454] rpn_bbox_pred_rpn_bbox_pred_0_split <- rpn_bbox_pred
I0629 12:45:21.427371  7410 net.cpp:411] rpn_bbox_pred_rpn_bbox_pred_0_split -> rpn_bbox_pred_rpn_bbox_pred_0_split_0
I0629 12:45:21.427393  7410 net.cpp:411] rpn_bbox_pred_rpn_bbox_pred_0_split -> rpn_bbox_pred_rpn_bbox_pred_0_split_1
I0629 12:45:21.427459  7410 net.cpp:150] Setting up rpn_bbox_pred_rpn_bbox_pred_0_split
I0629 12:45:21.427474  7410 net.cpp:157] Top shape: 1 36 100 250 (900000)
I0629 12:45:21.427477  7410 net.cpp:157] Top shape: 1 36 100 250 (900000)
I0629 12:45:21.427479  7410 net.cpp:165] Memory required for data: 4265800084
I0629 12:45:21.427484  7410 layer_factory.hpp:77] Creating layer rpn_cls_score_reshape
I0629 12:45:21.427510  7410 net.cpp:106] Creating Layer rpn_cls_score_reshape
I0629 12:45:21.427520  7410 net.cpp:454] rpn_cls_score_reshape <- rpn_cls_score_rpn_cls_score_0_split_0
I0629 12:45:21.427531  7410 net.cpp:411] rpn_cls_score_reshape -> rpn_cls_score_reshape
I0629 12:45:21.427588  7410 net.cpp:150] Setting up rpn_cls_score_reshape
I0629 12:45:21.427603  7410 net.cpp:157] Top shape: 1 2 900 250 (450000)
I0629 12:45:21.427605  7410 net.cpp:165] Memory required for data: 4267600084
I0629 12:45:21.427608  7410 layer_factory.hpp:77] Creating layer rpn_cls_score_reshape_rpn_cls_score_reshape_0_split
I0629 12:45:21.427633  7410 net.cpp:106] Creating Layer rpn_cls_score_reshape_rpn_cls_score_reshape_0_split
I0629 12:45:21.427644  7410 net.cpp:454] rpn_cls_score_reshape_rpn_cls_score_reshape_0_split <- rpn_cls_score_reshape
I0629 12:45:21.427649  7410 net.cpp:411] rpn_cls_score_reshape_rpn_cls_score_reshape_0_split -> rpn_cls_score_reshape_rpn_cls_score_reshape_0_split_0
I0629 12:45:21.427654  7410 net.cpp:411] rpn_cls_score_reshape_rpn_cls_score_reshape_0_split -> rpn_cls_score_reshape_rpn_cls_score_reshape_0_split_1
I0629 12:45:21.427721  7410 net.cpp:150] Setting up rpn_cls_score_reshape_rpn_cls_score_reshape_0_split
I0629 12:45:21.427736  7410 net.cpp:157] Top shape: 1 2 900 250 (450000)
I0629 12:45:21.427739  7410 net.cpp:157] Top shape: 1 2 900 250 (450000)
I0629 12:45:21.427742  7410 net.cpp:165] Memory required for data: 4271200084
I0629 12:45:21.427745  7410 layer_factory.hpp:77] Creating layer rpn-data
I0629 12:45:21.428580  7410 net.cpp:106] Creating Layer rpn-data
I0629 12:45:21.428601  7410 net.cpp:454] rpn-data <- rpn_cls_score_rpn_cls_score_0_split_1
I0629 12:45:21.428607  7410 net.cpp:454] rpn-data <- gt_boxes_input-data_2_split_0
I0629 12:45:21.428612  7410 net.cpp:454] rpn-data <- im_info_input-data_1_split_0
I0629 12:45:21.428616  7410 net.cpp:454] rpn-data <- data_input-data_0_split_1
I0629 12:45:21.428622  7410 net.cpp:411] rpn-data -> rpn_labels
I0629 12:45:21.428653  7410 net.cpp:411] rpn-data -> rpn_bbox_targets
I0629 12:45:21.428668  7410 net.cpp:411] rpn-data -> rpn_bbox_inside_weights
I0629 12:45:21.428673  7410 net.cpp:411] rpn-data -> rpn_bbox_outside_weights
I0629 12:45:21.430687  7410 net.cpp:150] Setting up rpn-data
I0629 12:45:21.430712  7410 net.cpp:157] Top shape: 1 1 900 250 (225000)
I0629 12:45:21.430717  7410 net.cpp:157] Top shape: 1 36 100 250 (900000)
I0629 12:45:21.430747  7410 net.cpp:157] Top shape: 1 36 100 250 (900000)
I0629 12:45:21.430757  7410 net.cpp:157] Top shape: 1 36 100 250 (900000)
I0629 12:45:21.430760  7410 net.cpp:165] Memory required for data: 4282900084
I0629 12:45:21.430764  7410 layer_factory.hpp:77] Creating layer rpn_loss_cls
I0629 12:45:21.430788  7410 net.cpp:106] Creating Layer rpn_loss_cls
I0629 12:45:21.430804  7410 net.cpp:454] rpn_loss_cls <- rpn_cls_score_reshape_rpn_cls_score_reshape_0_split_0
I0629 12:45:21.430810  7410 net.cpp:454] rpn_loss_cls <- rpn_labels
…
I0629 12:45:21.439887  7410 net.cpp:157] Top shape: (1)
I0629 12:45:21.439890  7410 net.cpp:160]     with loss weight 1
I0629 12:45:21.439919  7410 net.cpp:165] Memory required for data: 4282900092
I0629 12:45:21.439929  7410 layer_factory.hpp:77] Creating layer rpn_cls_prob
I0629 12:45:21.439939  7410 net.cpp:106] Creating Layer rpn_cls_prob
I0629 12:45:21.439955  7410 net.cpp:454] rpn_cls_prob <- rpn_cls_score_reshape_rpn_cls_score_reshape_0_split_1
I0629 12:45:21.439968  7410 net.cpp:411] rpn_cls_prob -> rpn_cls_prob
I0629 12:45:21.440238  7410 net.cpp:150] Setting up rpn_cls_prob
I0629 12:45:21.440255  7410 net.cpp:157] Top shape: 1 2 900 250 (450000)
I0629 12:45:21.440259  7410 net.cpp:165] Memory required for data: 4284700092
I0629 12:45:21.440263  7410 layer_factory.hpp:77] Creating layer rpn_cls_prob_reshape
I0629 12:45:21.440289  7410 net.cpp:106] Creating Layer rpn_cls_prob_reshape
I0629 12:45:21.440299  7410 net.cpp:454] rpn_cls_prob_reshape <- rpn_cls_prob
I0629 12:45:21.440307  7410 net.cpp:411] rpn_cls_prob_reshape -> rpn_cls_prob_reshape
I0629 12:45:21.440361  7410 net.cpp:150] Setting up rpn_cls_prob_reshape
I0629 12:45:21.440376  7410 net.cpp:157] Top shape: 1 18 100 250 (450000)
I0629 12:45:21.440378  7410 net.cpp:165] Memory required for data: 4286500092
I0629 12:45:21.440382  7410 layer_factory.hpp:77] Creating layer proposal
I0629 12:45:21.441397  7410 net.cpp:106] Creating Layer proposal
I0629 12:45:21.441421  7410 net.cpp:454] proposal <- rpn_cls_prob_reshape
I0629 12:45:21.441427  7410 net.cpp:454] proposal <- rpn_bbox_pred_rpn_bbox_pred_0_split_1
I0629 12:45:21.441457  7410 net.cpp:454] proposal <- im_info_input-data_1_split_1
I0629 12:45:21.441470  7410 net.cpp:411] proposal -> rpn_rois
I0629 12:45:21.442512  7410 net.cpp:150] Setting up proposal
I0629 12:45:21.442535  7410 net.cpp:157] Top shape: 1 5 (5)
I0629 12:45:21.442539  7410 net.cpp:165] Memory required for data: 4286500112
I0629 12:45:21.442567  7410 layer_factory.hpp:77] Creating layer roi-data
I0629 12:45:21.442785  7410 net.cpp:106] Creating Layer roi-data
I0629 12:45:21.442803  7410 net.cpp:454] roi-data <- rpn_rois
I0629 12:45:21.442809  7410 net.cpp:454] roi-data <- gt_boxes_input-data_2_split_1
I0629 12:45:21.442814  7410 net.cpp:411] roi-data -> rois
I0629 12:45:21.442821  7410 net.cpp:411] roi-data -> labels
I0629 12:45:21.442827  7410 net.cpp:411] roi-data -> bbox_targets
I0629 12:45:21.442833  7410 net.cpp:411] roi-data -> bbox_inside_weights
I0629 12:45:21.442839  7410 net.cpp:411] roi-data -> bbox_outside_weights
I0629 12:45:21.443228  7410 net.cpp:150] Setting up roi-data
I0629 12:45:21.443248  7410 net.cpp:157] Top shape: 1 5 (5)
I0629 12:45:21.443253  7410 net.cpp:157] Top shape: 1 1 (1)
I0629 12:45:21.443256  7410 net.cpp:157] Top shape: 1 84 (84)
I0629 12:45:21.443259  7410 net.cpp:157] Top shape: 1 84 (84)
I0629 12:45:21.443264  7410 net.cpp:157] Top shape: 1 84 (84)
I0629 12:45:21.443265  7410 net.cpp:165] Memory required for data: 4286501144
I0629 12:45:21.443269  7410 layer_factory.hpp:77] Creating layer roi_pool5
I0629 12:45:21.443281  7410 net.cpp:106] Creating Layer roi_pool5
I0629 12:45:21.443286  7410 net.cpp:454] roi_pool5 <- newP3_newP3_0_split_1
I0629 12:45:21.443291  7410 net.cpp:454] roi_pool5 <- rois
I0629 12:45:21.443295  7410 net.cpp:411] roi_pool5 -> rcnn_pool5
I0629 12:45:21.443310  7410 roi_pooling_layer.cpp:30] Spatial scale: 0.0625
I0629 12:45:21.443368  7410 net.cpp:150] Setting up roi_pool5
I0629 12:45:21.443382  7410 net.cpp:157] Top shape: 1 256 7 7 (12544)
I0629 12:45:21.443384  7410 net.cpp:165] Memory required for data: 4286551320
I0629 12:45:21.443387  7410 layer_factory.hpp:77] Creating layer rcnn_fc6
I0629 12:45:21.443397  7410 net.cpp:106] Creating Layer rcnn_fc6
I0629 12:45:21.443400  7410 net.cpp:454] rcnn_fc6 <- rcnn_pool5
I0629 12:45:21.443408  7410 net.cpp:411] rcnn_fc6 -> rcnn_fc6
I0629 12:45:21.816268  7410 net.cpp:150] Setting up rcnn_fc6
I0629 12:45:21.816326  7410 net.cpp:157] Top shape: 1 4096 (4096)
I0629 12:45:21.816331  7410 net.cpp:165] Memory required for data: 4286567704
I0629 12:45:21.816344  7410 layer_factory.hpp:77] Creating layer relu6
I0629 12:45:21.816355  7410 net.cpp:106] Creating Layer relu6
I0629 12:45:21.816362  7410 net.cpp:454] relu6 <- rcnn_fc6
I0629 12:45:21.816370  7410 net.cpp:397] relu6 -> rcnn_fc6 (in-place)
I0629 12:45:21.817411  7410 net.cpp:150] Setting up relu6
I0629 12:45:21.817432  7410 net.cpp:157] Top shape: 1 4096 (4096)
I0629 12:45:21.817436  7410 net.cpp:165] Memory required for data: 4286584088
I0629 12:45:21.817440  7410 layer_factory.hpp:77] Creating layer drop6
I0629 12:45:21.817457  7410 net.cpp:106] Creating Layer drop6
I0629 12:45:21.817469  7410 net.cpp:454] drop6 <- rcnn_fc6
I0629 12:45:21.817477  7410 net.cpp:397] drop6 -> rcnn_fc6 (in-place)
I0629 12:45:21.817519  7410 net.cpp:150] Setting up drop6
I0629 12:45:21.817531  7410 net.cpp:157] Top shape: 1 4096 (4096)
I0629 12:45:21.817534  7410 net.cpp:165] Memory required for data: 4286600472
I0629 12:45:21.817538  7410 layer_factory.hpp:77] Creating layer fc7
I0629 12:45:21.817548  7410 net.cpp:106] Creating Layer fc7
I0629 12:45:21.817550  7410 net.cpp:454] fc7 <- rcnn_fc6
I0629 12:45:21.817558  7410 net.cpp:411] fc7 -> fc7
I0629 12:45:21.934873  7410 net.cpp:150] Setting up fc7
I0629 12:45:21.934918  7410 net.cpp:157] Top shape: 1 4096 (4096)
I0629 12:45:21.934922  7410 net.cpp:165] Memory required for data: 4286616856
I0629 12:45:21.934933  7410 layer_factory.hpp:77] Creating layer relu7
I0629 12:45:21.934960  7410 net.cpp:106] Creating Layer relu7
I0629 12:45:21.934967  7410 net.cpp:454] relu7 <- fc7
I0629 12:45:21.934973  7410 net.cpp:397] relu7 -> fc7 (in-place)
I0629 12:45:21.935257  7410 net.cpp:150] Setting up relu7
I0629 12:45:21.935266  7410 net.cpp:157] Top shape: 1 4096 (4096)
I0629 12:45:21.935268  7410 net.cpp:165] Memory required for data: 4286633240
I0629 12:45:21.935272  7410 layer_factory.hpp:77] Creating layer drop7
I0629 12:45:21.935284  7410 net.cpp:106] Creating Layer drop7
I0629 12:45:21.935287  7410 net.cpp:454] drop7 <- fc7
I0629 12:45:21.935292  7410 net.cpp:397] drop7 -> fc7 (in-place)
I0629 12:45:21.935329  7410 net.cpp:150] Setting up drop7
I0629 12:45:21.935334  7410 net.cpp:157] Top shape: 1 4096 (4096)
I0629 12:45:21.935338  7410 net.cpp:165] Memory required for data: 4286649624
I0629 12:45:21.935340  7410 layer_factory.hpp:77] Creating layer fc7_drop7_0_split
I0629 12:45:21.935345  7410 net.cpp:106] Creating Layer fc7_drop7_0_split
I0629 12:45:21.935348  7410 net.cpp:454] fc7_drop7_0_split <- fc7
I0629 12:45:21.935354  7410 net.cpp:411] fc7_drop7_0_split -> fc7_drop7_0_split_0
I0629 12:45:21.935360  7410 net.cpp:411] fc7_drop7_0_split -> fc7_drop7_0_split_1
I0629 12:45:21.935408  7410 net.cpp:150] Setting up fc7_drop7_0_split
I0629 12:45:21.935415  7410 net.cpp:157] Top shape: 1 4096 (4096)
I0629 12:45:21.935417  7410 net.cpp:157] Top shape: 1 4096 (4096)
I0629 12:45:21.935420  7410 net.cpp:165] Memory required for data: 4286682392
I0629 12:45:21.935423  7410 layer_factory.hpp:77] Creating layer cls_score
I0629 12:45:21.935432  7410 net.cpp:106] Creating Layer cls_score
I0629 12:45:21.935436  7410 net.cpp:454] cls_score <- fc7_drop7_0_split_0
I0629 12:45:21.935443  7410 net.cpp:411] cls_score -> cls_score
I0629 12:45:21.937631  7410 net.cpp:150] Setting up cls_score
I0629 12:45:21.937650  7410 net.cpp:157] Top shape: 1 21 (21)
I0629 12:45:21.937654  7410 net.cpp:165] Memory required for data: 4286682476
I0629 12:45:21.937660  7410 layer_factory.hpp:77] Creating layer bbox_pred
I0629 12:45:21.937666  7410 net.cpp:106] Creating Layer bbox_pred
I0629 12:45:21.937669  7410 net.cpp:454] bbox_pred <- fc7_drop7_0_split_1
I0629 12:45:21.937674  7410 net.cpp:411] bbox_pred -> bbox_pred
I0629 12:45:21.946961  7410 net.cpp:150] Setting up bbox_pred
I0629 12:45:21.947005  7410 net.cpp:157] Top shape: 1 84 (84)
I0629 12:45:21.947010  7410 net.cpp:165] Memory required for data: 4286682812
I0629 12:45:21.947019  7410 layer_factory.hpp:77] Creating layer loss_cls
I0629 12:45:21.947029  7410 net.cpp:106] Creating Layer loss_cls
I0629 12:45:21.947036  7410 net.cpp:454] loss_cls <- cls_score
I0629 12:45:21.947043  7410 net.cpp:454] loss_cls <- labels
I0629 12:45:21.947048  7410 net.cpp:411] loss_cls -> loss_cls
…
