…
stepsize: 50000
snapshot: 0
snapshot_prefix: "fpn"
average_loss: 100
iter_size: 2
I0728 15:04:55.223606  4023 solver.cpp:81] Creating training net from train_net file: models/pascal_voc/VGG16/FP_Net_end2end/train.prototxt
I0728 15:04:55.225111  4023 net.cpp:49] Initializing net from parameters: 
name: "VGG_ILSVRC_16_layers"
state {
  phase: TRAIN
}
layer {
  name: "input-data"
  type: "Python"
  top: "data"
  top: "im_info"
  top: "gt_boxes"
  python_param {
    module: "roi_data_layer.layer"
    layer: "RoIDataLayer"
    param_str: "\'num_classes\': 21"
  }
}
layer {
  name: "conv1_1"
  type: "Convolution"
  bottom: "data"
  top: "conv1_1"
  param {
    lr_mult: 0
    decay_mult: 0
  }
  param {
    lr_mult: 0
    decay_mult: 0
  }
  convolution_param {
    num_output: 64
    pad: 1
    kernel_size: 3
  }
}
layer {
  name: "relu1_1"
  type: "ReLU"
  bottom: "conv1_1"
  top: "conv1_1"
}
layer {
  name: "conv1_2"
  type: "Convolution"
  bottom: "conv1_1"
  top: "conv1_2"
  param {
    lr_mult: 0
    decay_mult: 0
  }
  param {
    lr_mult: 0
    decay_mult: 0
  }
  convolution_param {
    num_output: 64
    pad: 1
    kernel_size: 3
  }
}
layer {
  name: "relu1_2"
  type: "ReLU"
  bottom: "conv1_2"
  top: "conv1_2"
}
layer {
  name: "pool1"
  type: "Pooling"
  bottom: "conv1_2"
  top: "pool1"
  pooling_param {
    pool: MAX
    kernel_size: 2
    stride: 2
  }
}
layer {
  name: "conv2_1"
  type: "Convolution"
  bottom: "pool1"
  top: "conv2_1"
  param {
    lr_mult: 0
    decay_mult: 0
  }
  param {
    lr_mult: 0
    decay_mult: 0
  }
  convolution_param {
    num_output: 128
    pad: 1
    kernel_size: 3
  }
}
layer {
  name: "relu2_1"
  type: "ReLU"
  bottom: "conv2_1"
  top: "conv2_1"
}
layer {
  name: "conv2_2"
  type: "Convolution"
  bottom: "conv2_1"
  top: "conv2_2"
  param {
    lr_mult: 0
    decay_mult: 0
  }
  param {
    lr_mult: 0
    decay_mult: 0
  }
  convolution_param {
    num_output: 128
    pad: 1
    kernel_size: 3
  }
}
layer {
  name: "relu2_2"
  type: "ReLU"
  bottom: "conv2_2"
  top: "conv2_2"
}
layer {
  name: "pool2"
  type: "Pooling"
  bottom: "conv2_2"
  top: "pool2"
  pooling_param {
    pool: MAX
    kernel_size: 2
    stride: 2
  }
}
layer {
  name: "conv3_1"
  type: "Convolution"
  bottom: "pool2"
  top: "conv3_1"
  param {
    lr_mult: 1
  }
  param {
    lr_mult: 2
  }
  convolution_param {
    num_output: 256
    pad: 1
    kernel_size: 3
  }
}
layer {
  name: "relu3_1"
  type: "ReLU"
  bottom: "conv3_1"
  top: "conv3_1"
}
layer {
  name: "conv3_2"
  type: "Convolution"
  bottom: "conv3_1"
  top: "conv3_2"
  param {
    lr_mult: 1
  }
  param {
    lr_mult: 2
  }
  convolution_param {
    num_output: 256
    pad: 1
    kernel_size: 3
  }
}
layer {
  name: "relu3_2"
  type: "ReLU"
  bottom: "conv3_2"
  top: "conv3_2"
}
layer {
  name: "conv3_3"
  type: "Convolution"
  bottom: "conv3_2"
  top: "conv3_3"
  param {
    lr_mult: 1
  }
  param {
    lr_mult: 2
  }
  convolution_param {
    num_output: 256
    pad: 1
    kernel_size: 3
  }
}
layer {
  name: "relu3_3"
  type: "ReLU"
  bottom: "conv3_3"
  top: "conv3_3"
}
layer {
  name: "pool3"
  type: "Pooling"
  bottom: "conv3_3"
  top: "pool3"
  pooling_param {
    pool: MAX
    kernel_size: 2
    stride: 2
  }
}
layer {
  name: "conv4_1"
  type: "Convolution"
  bottom: "pool3"
  top: "conv4_1"
  param {
    lr_mult: 1
  }
  param {
    lr_mult: 2
  }
  convolution_param {
    num_output: 512
    pad: 1
    kernel_size: 3
  }
}
layer {
  name: "relu4_1"
  type: "ReLU"
  bottom: "conv4_1"
  top: "conv4_1"
}
layer {
  name: "conv4_2"
  type: "Convolution"
  bottom: "conv4_1"
  top: "conv4_2"
  param {
    lr_mult: 1
  }
  param {
    lr_mult: 2
  }
  convolution_param {
    num_output: 512
    pad: 1
    kernel_size: 3
  }
}
layer {
  name: "relu4_2"
  type: "ReLU"
  bottom: "conv4_2"
  top: "conv4_2"
}
layer {
  name: "conv4_3"
  type: "Convolution"
  bottom: "conv4_2"
  top: "conv4_3"
  param {
    lr_mult: 1
  }
  param {
    lr_mult: 2
  }
  convolution_param {
    num_output: 512
    pad: 1
    kernel_size: 3
  }
}
layer {
  name: "relu4_3"
  type: "ReLU"
  bottom: "conv4_3"
  top: "conv4_3"
}
layer {
  name: "pool4"
  type: "Pooling"
  bottom: "conv4_3"
  top: "pool4"
  pooling_param {
    pool: MAX
    kernel_size: 2
    stride: 2
  }
}
layer {
  name: "conv5_1"
  type: "Convolution"
  bottom: "pool4"
  top: "conv5_1"
  param {
    lr_mult: 1
  }
  param {
    lr_mult: 2
  }
  convolution_param {
    num_output: 512
    pad: 1
    kernel_size: 3
  }
}
layer {
  name: "relu5_1"
  type: "ReLU"
  bottom: "conv5_1"
  top: "conv5_1"
}
layer {
  name: "conv5_2"
  type: "Convolution"
  bottom: "conv5_1"
  top: "conv5_2"
  param {
    lr_mult: 1
  }
  param {
    lr_mult: 2
  }
  convolution_param {
    num_output: 512
    pad: 1
    kernel_size: 3
  }
}
layer {
  name: "relu5_2"
  type: "ReLU"
  bottom: "conv5_2"
  top: "conv5_2"
}
layer {
  name: "conv5_3"
  type: "Convolution"
  bottom: "conv5_2"
  top: "conv5_3"
  param {
    lr_mult: 1
  }
  param {
    lr_mult: 2
  }
  convolution_param {
    num_output: 512
    pad: 1
    kernel_size: 3
  }
}
layer {
  name: "relu5_3"
  type: "ReLU"
  bottom: "conv5_3"
  top: "conv5_3"
}
layer {
  name: "rpn_conv/3x3"
  type: "Convolution"
  bottom: "conv5_3"
  top: "rpn/output"
  param {
    lr_mult: 1
  }
  param {
    lr_mult: 2
  }
  convolution_param {
    num_output: 512
    pad: 1
    kernel_size: 3
    stride: 1
    weight_filler {
      type: "gaussian"
      std: 0.01
    }
    bias_filler {
      type: "constant"
      value: 0
    }
  }
}
layer {
  name: "rpn_relu/3x3"
  type: "ReLU"
  bottom: "rpn/output"
  top: "rpn/output"
}
layer {
  name: "rpn_cls_score"
  type: "Convolution"
  bottom: "rpn/output"
  top: "rpn_cls_score"
  param {
    lr_mult: 1
  }
  param {
    lr_mult: 2
  }
  convolution_param {
    num_output: 36
    pad: 0
    kernel_size: 1
    stride: 1
    weight_filler {
      type: "gaussian"
      std: 0.01
    }
    bias_filler {
      type: "constant"
      value: 0
    }
  }
}
layer {
  name: "rpn_bbox_pred"
  type: "Convolution"
  bottom: "rpn/output"
  top: "rpn_bbox_pred"
  param {
    lr_mult: 1
  }
  param {
    lr_mult: 2
  }
  convolution_param {
    num_output: 72
    pad: 0
    kernel_size: 1
    stride: 1
    weight_filler {
      type: "gaussian"
      std: 0.01
    }
    bias_filler {
      type: "constant"
      value: 0
    }
  }
}
layer {
  name: "rpn_cls_score_reshape"
  type: "Reshape"
  bottom: "rpn_cls_score"
  top: "rpn_cls_score_reshape"
  reshape_param {
    shape {
      dim: 0
      dim: 2
      dim: -1
      dim: 0
    }
  }
}
layer {
  name: "rpn-data"
  type: "Python"
  bottom: "rpn_cls_score"
  bottom: "gt_boxes"
  bottom: "im_info"
  bottom: "data"
  top: "rpn_labels"
  top: "rpn_bbox_targets"
  top: "rpn_bbox_inside_weights"
  top: "rpn_bbox_outside_weights"
  python_param {
    module: "rpn.anchor_target_layer"
    layer: "AnchorTargetLayer"
    param_str: "\'feat_stride\': 16"
  }
}
layer {
  name: "rpn_loss_cls"
  type: "SoftmaxWithLoss"
  bottom: "rpn_cls_score_reshape"
  bottom: "rpn_labels"
  top: "rpn_cls_loss"
  loss_weight: 1
  propagate_down: true
  propagate_down: false
  loss_param {
    ignore_label: -1
    normalize: true
  }
}
layer {
  name: "rpn_loss_bbox"
  type: "SmoothL1Loss"
  bottom: "rpn_bbox_pred"
  bottom: "rpn_bbox_targets"
  bottom: "rpn_bbox_inside_weights"
  bottom: "rpn_bbox_outside_weights"
  top: "rpn_loss_bbox"
  loss_weight: 1
  smooth_l1_loss_param {
    sigma: 3
  }
}
layer {
  name: "rpn_cls_prob"
  type: "Softmax"
  bottom: "rpn_cls_score_reshape"
  top: "rpn_cls_prob"
}
layer {
  name: "rpn_cls_prob_reshape"
  type: "Reshape"
  bottom: "rpn_cls_prob"
  top: "rpn_cls_prob_reshape"
  reshape_param {
    shape {
      dim: 0
      dim: 36
      dim: -1
      dim: 0
    }
  }
}
layer {
  name: "proposal"
  type: "Python"
  bottom: "rpn_cls_prob_reshape"
  bottom: "rpn_bbox_pred"
  bottom: "im_info"
  top: "rpn_rois"
  python_param {
    module: "rpn.proposal_layer"
    layer: "ProposalLayer"
    param_str: "\'feat_stride\': 16"
  }
}
layer {
  name: "roi-data"
  type: "Python"
  bottom: "rpn_rois"
  bottom: "gt_boxes"
  top: "rois"
  top: "labels"
  top: "bbox_targets"
  top: "bbox_inside_weights"
  top: "bbox_outside_weights"
  python_param {
    module: "rpn.proposal_target_layer"
    layer: "ProposalTargetLayer"
    param_str: "\'num_classes\': 21"
  }
}
layer {
  name: "roi_pool5_readonly"
  type: "ROIPooling"
  bottom: "conv5_3"
  bottom: "rois"
  top: "pool5_readonly"
  propagate_down: false
  propagate_down: false
  roi_pooling_param {
    pooled_h: 7
    pooled_w: 7
    spatial_scale: 0.0625
  }
}
layer {
  name: "fc6_readonly"
  type: "InnerProduct"
  bottom: "pool5_readonly"
  top: "fc6_readonly"
  param {
    name: "fc6_w"
  }
  param {
    name: "fc6_b"
  }
  propagate_down: false
  inner_product_param {
    num_output: 4096
  }
}
layer {
  name: "relu6_readonly"
  type: "ReLU"
  bottom: "fc6_readonly"
  top: "fc6_readonly"
  propagate_down: false
}
layer {
  name: "drop6_readonly"
  type: "Dropout"
  bottom: "fc6_readonly"
  top: "fc6_readonly"
  propagate_down: false
  dropout_param {
    dropout_ratio: 0.5
  }
}
layer {
  name: "fc7_readonly"
  type: "InnerProduct"
  bottom: "fc6_readonly"
  top: "fc7_readonly"
  param {
    name: "fc7_w"
  }
  param {
    name: "fc7_b"
  }
  propagate_down: false
  inner_product_param {
    num_output: 4096
  }
}
layer {
  name: "relu7_readonly"
  type: "ReLU"
  bottom: "fc7_readonly"
  top: "fc7_readonly"
  propagate_down: false
}
layer {
  name: "drop7_readonly"
  type: "Dropout"
  bottom: "fc7_readonly"
  top: "fc7_readonly"
  propagate_down: false
  dropout_param {
    dropout_ratio: 0.5
  }
}
layer {
  name: "cls_score_readonly"
  type: "InnerProduct"
  bottom: "fc7_readonly"
  top: "cls_score_readonly"
  param {
    name: "cls_score_w"
  }
  param {
    name: "cls_score_b"
  }
  propagate_down: false
  inner_product_param {
    num_output: 21
    weight_filler {
      type: "gaussian"
      std: 0.01
    }
    bias_filler {
      type: "constant"
      value: 0
    }
  }
}
layer {
  name: "bbox_pred_readonly"
  type: "InnerProduct"
  bottom: "fc7_readonly"
  top: "bbox_pred_readonly"
  param {
    name: "bbox_pred_w"
  }
  param {
    name: "bbox_pred_b"
  }
  propagate_down: false
  inner_product_param {
    num_output: 84
    weight_filler {
      type: "gaussian"
      std: 0.001
    }
    bias_filler {
      type: "constant"
      value: 0
    }
  }
}
layer {
  name: "cls_prob_readonly"
  type: "Softmax"
  bottom: "cls_score_readonly"
  top: "cls_prob_readonly"
  propagate_down: false
}
layer {
  name: "hard_roi_mining"
  type: "Python"
  bottom: "cls_prob_readonly"
  bottom: "bbox_pred_readonly"
  bottom: "rois"
  bottom: "labels"
  bottom: "bbox_targets"
  bottom: "bbox_inside_weights"
  bottom: "bbox_outside_weights"
  top: "rois_hard"
  top: "labels_hard"
  top: "bbox_targets_hard"
  top: "bbox_inside_weights_hard"
  top: "bbox_outside_weights_hard"
  propagate_down: false
  propagate_down: false
  propagate_down: false
  propagate_down: false
  propagate_down: false
  propagate_down: false
  propagate_down: false
  python_param {
    module: "roi_data_layer.layer"
    layer: "OHEMDataLayer"
    param_str: "\'num_classes\': 21"
  }
}
layer {
  name: "roi_pool5"
  type: "ROIPooling"
  bottom: "conv5_3"
  bottom: "rois_hard"
  top: "pool5"
  roi_pooling_param {
    pooled_h: 7
    pooled_w: 7
    spatial_scale: 0.0625
  }
}
layer {
  name: "fc6"
  type: "InnerProduct"
  bottom: "pool5"
  top: "fc6"
  param {
    name: "fc6_w"
    lr_mult: 1
  }
  param {
    name: "fc6_b"
    lr_mult: 2
  }
  inner_product_param {
    num_output: 4096
  }
}
layer {
  name: "relu6"
  type: "ReLU"
  bottom: "fc6"
  top: "fc6"
}
layer {
  name: "drop6"
  type: "Dropout"
  bottom: "fc6"
  top: "fc6"
  dropout_param {
    dropout_ratio: 0.5
  }
}
layer {
  name: "fc7"
  type: "InnerProduct"
  bottom: "fc6"
  top: "fc7"
  param {
    name: "fc7_w"
    lr_mult: 1
  }
  param {
    name: "fc7_b"
    lr_mult: 2
  }
  inner_product_param {
    num_output: 4096
  }
}
layer {
  name: "relu7"
  type: "ReLU"
  bottom: "fc7"
  top: "fc7"
}
layer {
  name: "drop7"
  type: "Dropout"
  bottom: "fc7"
  top: "fc7"
  dropout_param {
    dropout_ratio: 0.5
  }
}
layer {
  name: "cls_score"
  type: "InnerProduct"
  bottom: "fc7"
  top: "cls_score"
  param {
    name: "cls_score_w"
    lr_mult: 1
  }
  param {
    name: "cls_score_b"
    lr_mult: 2
  }
  inner_product_param {
    num_output: 21
    weight_filler {
      type: "gaussian"
      std: 0.01
    }
    bias_filler {
      type: "constant"
      value: 0
    }
  }
}
layer {
  name: "bbox_pred"
  type: "InnerProduct"
  bottom: "fc7"
  top: "bbox_pred"
  param {
    name: "bbox_pred_w"
    lr_mult: 1
  }
  param {
    name: "bbox_pred_b"
    lr_mult: 2
  }
  inner_product_param {
    num_output: 84
    weight_filler {
      type: "gaussian"
      std: 0.001
    }
    bias_filler {
      type: "constant"
      value: 0
    }
  }
}
layer {
  name: "loss_cls"
  type: "SoftmaxWithLoss"
  bottom: "cls_score"
  bottom: "labels_hard"
  top: "loss_cls"
  loss_weight: 1
  propagate_down: true
  propagate_down: false
}
layer {
  name: "loss_bbox"
  type: "SmoothL1Loss"
  bottom: "bbox_pred"
  bottom: "bbox_targets_hard"
  bottom: "bbox_inside_weights_hard"
  bottom: "bbox_outside_weights_hard"
  top: "loss_bbox"
  loss_weight: 1
}
I0728 15:04:55.225455  4023 layer_factory.hpp:77] Creating layer input-data
I0728 15:04:55.229110  4023 net.cpp:106] Creating Layer input-data
I0728 15:04:55.229135  4023 net.cpp:411] input-data -> data
I0728 15:04:55.229153  4023 net.cpp:411] input-data -> im_info
I0728 15:04:55.229198  4023 net.cpp:411] input-data -> gt_boxes
RoiDataLayer: name_to_top: {'gt_boxes': 2, 'data': 0, 'im_info': 1}
I0728 15:04:55.313134  4023 net.cpp:150] Setting up input-data
I0728 15:04:55.313194  4023 net.cpp:157] Top shape: 1 3 375 520 (585000)
I0728 15:04:55.313207  4023 net.cpp:157] Top shape: 1 3 (3)
I0728 15:04:55.313212  4023 net.cpp:157] Top shape: 1 4 (4)
I0728 15:04:55.313215  4023 net.cpp:165] Memory required for data: 2340028
I0728 15:04:55.313220  4023 layer_factory.hpp:77] Creating layer data_input-data_0_split
I0728 15:04:55.313246  4023 net.cpp:106] Creating Layer data_input-data_0_split
I0728 15:04:55.313278  4023 net.cpp:454] data_input-data_0_split <- data
I0728 15:04:55.313302  4023 net.cpp:411] data_input-data_0_split -> data_input-data_0_split_0
I0728 15:04:55.313318  4023 net.cpp:411] data_input-data_0_split -> data_input-data_0_split_1
I0728 15:04:55.313360  4023 net.cpp:150] Setting up data_input-data_0_split
I0728 15:04:55.313372  4023 net.cpp:157] Top shape: 1 3 375 520 (585000)
I0728 15:04:55.313377  4023 net.cpp:157] Top shape: 1 3 375 520 (585000)
I0728 15:04:55.313381  4023 net.cpp:165] Memory required for data: 7020028
I0728 15:04:55.313385  4023 layer_factory.hpp:77] Creating layer im_info_input-data_1_split
I0728 15:04:55.313407  4023 net.cpp:106] Creating Layer im_info_input-data_1_split
I0728 15:04:55.313442  4023 net.cpp:454] im_info_input-data_1_split <- im_info
I0728 15:04:55.313459  4023 net.cpp:411] im_info_input-data_1_split -> im_info_input-data_1_split_0
I0728 15:04:55.313472  4023 net.cpp:411] im_info_input-data_1_split -> im_info_input-data_1_split_1
I0728 15:04:55.313509  4023 net.cpp:150] Setting up im_info_input-data_1_split
I0728 15:04:55.313520  4023 net.cpp:157] Top shape: 1 3 (3)
I0728 15:04:55.313524  4023 net.cpp:157] Top shape: 1 3 (3)
I0728 15:04:55.313527  4023 net.cpp:165] Memory required for data: 7020052
I0728 15:04:55.313530  4023 layer_factory.hpp:77] Creating layer gt_boxes_input-data_2_split
I0728 15:04:55.313567  4023 net.cpp:106] Creating Layer gt_boxes_input-data_2_split
I0728 15:04:55.313577  4023 net.cpp:454] gt_boxes_input-data_2_split <- gt_boxes
I0728 15:04:55.313583  4023 net.cpp:411] gt_boxes_input-data_2_split -> gt_boxes_input-data_2_split_0
I0728 15:04:55.313590  4023 net.cpp:411] gt_boxes_input-data_2_split -> gt_boxes_input-data_2_split_1
I0728 15:04:55.313640  4023 net.cpp:150] Setting up gt_boxes_input-data_2_split
I0728 15:04:55.313653  4023 net.cpp:157] Top shape: 1 4 (4)
I0728 15:04:55.313658  4023 net.cpp:157] Top shape: 1 4 (4)
I0728 15:04:55.313661  4023 net.cpp:165] Memory required for data: 7020084
I0728 15:04:55.313678  4023 layer_factory.hpp:77] Creating layer conv1_1
I0728 15:04:55.313709  4023 net.cpp:106] Creating Layer conv1_1
I0728 15:04:55.313719  4023 net.cpp:454] conv1_1 <- data_input-data_0_split_0
I0728 15:04:55.313725  4023 net.cpp:411] conv1_1 -> conv1_1
I0728 15:04:55.661085  4023 net.cpp:150] Setting up conv1_1
I0728 15:04:55.661130  4023 net.cpp:157] Top shape: 1 64 375 520 (12480000)
I0728 15:04:55.661135  4023 net.cpp:165] Memory required for data: 56940084
I0728 15:04:55.661157  4023 layer_factory.hpp:77] Creating layer relu1_1
I0728 15:04:55.661173  4023 net.cpp:106] Creating Layer relu1_1
I0728 15:04:55.661180  4023 net.cpp:454] relu1_1 <- conv1_1
I0728 15:04:55.661186  4023 net.cpp:397] relu1_1 -> conv1_1 (in-place)
I0728 15:04:55.662053  4023 net.cpp:150] Setting up relu1_1
I0728 15:04:55.662065  4023 net.cpp:157] Top shape: 1 64 375 520 (12480000)
I0728 15:04:55.662068  4023 net.cpp:165] Memory required for data: 106860084
I0728 15:04:55.662072  4023 layer_factory.hpp:77] Creating layer conv1_2
I0728 15:04:55.662084  4023 net.cpp:106] Creating Layer conv1_2
I0728 15:04:55.662088  4023 net.cpp:454] conv1_2 <- conv1_1
I0728 15:04:55.662094  4023 net.cpp:411] conv1_2 -> conv1_2
I0728 15:04:55.666754  4023 net.cpp:150] Setting up conv1_2
I0728 15:04:55.666781  4023 net.cpp:157] Top shape: 1 64 375 520 (12480000)
I0728 15:04:55.666786  4023 net.cpp:165] Memory required for data: 156780084
I0728 15:04:55.666796  4023 layer_factory.hpp:77] Creating layer relu1_2
I0728 15:04:55.666805  4023 net.cpp:106] Creating Layer relu1_2
I0728 15:04:55.666808  4023 net.cpp:454] relu1_2 <- conv1_2
I0728 15:04:55.666815  4023 net.cpp:397] relu1_2 -> conv1_2 (in-place)
I0728 15:04:55.666976  4023 net.cpp:150] Setting up relu1_2
I0728 15:04:55.666992  4023 net.cpp:157] Top shape: 1 64 375 520 (12480000)
I0728 15:04:55.666996  4023 net.cpp:165] Memory required for data: 206700084
I0728 15:04:55.667001  4023 layer_factory.hpp:77] Creating layer pool1
I0728 15:04:55.667012  4023 net.cpp:106] Creating Layer pool1
I0728 15:04:55.667018  4023 net.cpp:454] pool1 <- conv1_2
I0728 15:04:55.667023  4023 net.cpp:411] pool1 -> pool1
I0728 15:04:55.667073  4023 net.cpp:150] Setting up pool1
I0728 15:04:55.667085  4023 net.cpp:157] Top shape: 1 64 188 260 (3128320)
I0728 15:04:55.667089  4023 net.cpp:165] Memory required for data: 219213364
I0728 15:04:55.667093  4023 layer_factory.hpp:77] Creating layer conv2_1
I0728 15:04:55.667100  4023 net.cpp:106] Creating Layer conv2_1
I0728 15:04:55.667105  4023 net.cpp:454] conv2_1 <- pool1
I0728 15:04:55.667111  4023 net.cpp:411] conv2_1 -> conv2_1
I0728 15:04:55.671203  4023 net.cpp:150] Setting up conv2_1
I0728 15:04:55.671228  4023 net.cpp:157] Top shape: 1 128 188 260 (6256640)
I0728 15:04:55.671233  4023 net.cpp:165] Memory required for data: 244239924
I0728 15:04:55.671243  4023 layer_factory.hpp:77] Creating layer relu2_1
I0728 15:04:55.671283  4023 net.cpp:106] Creating Layer relu2_1
I0728 15:04:55.671299  4023 net.cpp:454] relu2_1 <- conv2_1
I0728 15:04:55.671305  4023 net.cpp:397] relu2_1 -> conv2_1 (in-place)
I0728 15:04:55.671541  4023 net.cpp:150] Setting up relu2_1
I0728 15:04:55.671556  4023 net.cpp:157] Top shape: 1 128 188 260 (6256640)
I0728 15:04:55.671561  4023 net.cpp:165] Memory required for data: 269266484
I0728 15:04:55.671564  4023 layer_factory.hpp:77] Creating layer conv2_2
I0728 15:04:55.671573  4023 net.cpp:106] Creating Layer conv2_2
I0728 15:04:55.671578  4023 net.cpp:454] conv2_2 <- conv2_1
I0728 15:04:55.671584  4023 net.cpp:411] conv2_2 -> conv2_2
I0728 15:04:55.675683  4023 net.cpp:150] Setting up conv2_2
I0728 15:04:55.675706  4023 net.cpp:157] Top shape: 1 128 188 260 (6256640)
I0728 15:04:55.675711  4023 net.cpp:165] Memory required for data: 294293044
I0728 15:04:55.675719  4023 layer_factory.hpp:77] Creating layer relu2_2
I0728 15:04:55.675750  4023 net.cpp:106] Creating Layer relu2_2
I0728 15:04:55.675763  4023 net.cpp:454] relu2_2 <- conv2_2
I0728 15:04:55.675770  4023 net.cpp:397] relu2_2 -> conv2_2 (in-place)
I0728 15:04:55.676632  4023 net.cpp:150] Setting up relu2_2
I0728 15:04:55.676652  4023 net.cpp:157] Top shape: 1 128 188 260 (6256640)
I0728 15:04:55.676656  4023 net.cpp:165] Memory required for data: 319319604
I0728 15:04:55.676661  4023 layer_factory.hpp:77] Creating layer pool2
I0728 15:04:55.676671  4023 net.cpp:106] Creating Layer pool2
I0728 15:04:55.676674  4023 net.cpp:454] pool2 <- conv2_2
I0728 15:04:55.676679  4023 net.cpp:411] pool2 -> pool2
I0728 15:04:55.676723  4023 net.cpp:150] Setting up pool2
I0728 15:04:55.676734  4023 net.cpp:157] Top shape: 1 128 94 130 (1564160)
I0728 15:04:55.676738  4023 net.cpp:165] Memory required for data: 325576244
I0728 15:04:55.676743  4023 layer_factory.hpp:77] Creating layer conv3_1
I0728 15:04:55.676750  4023 net.cpp:106] Creating Layer conv3_1
I0728 15:04:55.676776  4023 net.cpp:454] conv3_1 <- pool2
I0728 15:04:55.676786  4023 net.cpp:411] conv3_1 -> conv3_1
I0728 15:04:55.682062  4023 net.cpp:150] Setting up conv3_1
I0728 15:04:55.682086  4023 net.cpp:157] Top shape: 1 256 94 130 (3128320)
I0728 15:04:55.682091  4023 net.cpp:165] Memory required for data: 338089524
I0728 15:04:55.682102  4023 layer_factory.hpp:77] Creating layer relu3_1
I0728 15:04:55.682144  4023 net.cpp:106] Creating Layer relu3_1
I0728 15:04:55.682157  4023 net.cpp:454] relu3_1 <- conv3_1
I0728 15:04:55.682163  4023 net.cpp:397] relu3_1 -> conv3_1 (in-place)
I0728 15:04:55.682894  4023 net.cpp:150] Setting up relu3_1
I0728 15:04:55.682911  4023 net.cpp:157] Top shape: 1 256 94 130 (3128320)
I0728 15:04:55.682914  4023 net.cpp:165] Memory required for data: 350602804
I0728 15:04:55.682919  4023 layer_factory.hpp:77] Creating layer conv3_2
I0728 15:04:55.682931  4023 net.cpp:106] Creating Layer conv3_2
I0728 15:04:55.682955  4023 net.cpp:454] conv3_2 <- conv3_1
I0728 15:04:55.682974  4023 net.cpp:411] conv3_2 -> conv3_2
I0728 15:04:55.690279  4023 net.cpp:150] Setting up conv3_2
I0728 15:04:55.690309  4023 net.cpp:157] Top shape: 1 256 94 130 (3128320)
I0728 15:04:55.690312  4023 net.cpp:165] Memory required for data: 363116084
I0728 15:04:55.690320  4023 layer_factory.hpp:77] Creating layer relu3_2
I0728 15:04:55.690351  4023 net.cpp:106] Creating Layer relu3_2
I0728 15:04:55.690369  4023 net.cpp:454] relu3_2 <- conv3_2
I0728 15:04:55.690376  4023 net.cpp:397] relu3_2 -> conv3_2 (in-place)
I0728 15:04:55.691323  4023 net.cpp:150] Setting up relu3_2
I0728 15:04:55.691340  4023 net.cpp:157] Top shape: 1 256 94 130 (3128320)
I0728 15:04:55.691344  4023 net.cpp:165] Memory required for data: 375629364
I0728 15:04:55.691349  4023 layer_factory.hpp:77] Creating layer conv3_3
I0728 15:04:55.691356  4023 net.cpp:106] Creating Layer conv3_3
I0728 15:04:55.691380  4023 net.cpp:454] conv3_3 <- conv3_2
I0728 15:04:55.691393  4023 net.cpp:411] conv3_3 -> conv3_3
I0728 15:04:55.696622  4023 net.cpp:150] Setting up conv3_3
I0728 15:04:55.696650  4023 net.cpp:157] Top shape: 1 256 94 130 (3128320)
I0728 15:04:55.696655  4023 net.cpp:165] Memory required for data: 388142644
I0728 15:04:55.696666  4023 layer_factory.hpp:77] Creating layer relu3_3
I0728 15:04:55.696696  4023 net.cpp:106] Creating Layer relu3_3
I0728 15:04:55.696704  4023 net.cpp:454] relu3_3 <- conv3_3
I0728 15:04:55.696710  4023 net.cpp:397] relu3_3 -> conv3_3 (in-place)
I0728 15:04:55.698303  4023 net.cpp:150] Setting up relu3_3
I0728 15:04:55.698324  4023 net.cpp:157] Top shape: 1 256 94 130 (3128320)
I0728 15:04:55.698328  4023 net.cpp:165] Memory required for data: 400655924
I0728 15:04:55.698333  4023 layer_factory.hpp:77] Creating layer pool3
I0728 15:04:55.698340  4023 net.cpp:106] Creating Layer pool3
I0728 15:04:55.698343  4023 net.cpp:454] pool3 <- conv3_3
I0728 15:04:55.698352  4023 net.cpp:411] pool3 -> pool3
I0728 15:04:55.698402  4023 net.cpp:150] Setting up pool3
I0728 15:04:55.698415  4023 net.cpp:157] Top shape: 1 256 47 65 (782080)
I0728 15:04:55.698418  4023 net.cpp:165] Memory required for data: 403784244
I0728 15:04:55.698422  4023 layer_factory.hpp:77] Creating layer conv4_1
I0728 15:04:55.698436  4023 net.cpp:106] Creating Layer conv4_1
I0728 15:04:55.698470  4023 net.cpp:454] conv4_1 <- pool3
I0728 15:04:55.698487  4023 net.cpp:411] conv4_1 -> conv4_1
I0728 15:04:55.706022  4023 net.cpp:150] Setting up conv4_1
I0728 15:04:55.706046  4023 net.cpp:157] Top shape: 1 512 47 65 (1564160)
I0728 15:04:55.706051  4023 net.cpp:165] Memory required for data: 410040884
I0728 15:04:55.706061  4023 layer_factory.hpp:77] Creating layer relu4_1
I0728 15:04:55.706094  4023 net.cpp:106] Creating Layer relu4_1
I0728 15:04:55.706110  4023 net.cpp:454] relu4_1 <- conv4_1
I0728 15:04:55.706136  4023 net.cpp:397] relu4_1 -> conv4_1 (in-place)
I0728 15:04:55.707084  4023 net.cpp:150] Setting up relu4_1
I0728 15:04:55.707106  4023 net.cpp:157] Top shape: 1 512 47 65 (1564160)
I0728 15:04:55.707110  4023 net.cpp:165] Memory required for data: 416297524
I0728 15:04:55.707114  4023 layer_factory.hpp:77] Creating layer conv4_2
I0728 15:04:55.707128  4023 net.cpp:106] Creating Layer conv4_2
I0728 15:04:55.707152  4023 net.cpp:454] conv4_2 <- conv4_1
I0728 15:04:55.707175  4023 net.cpp:411] conv4_2 -> conv4_2
I0728 15:04:55.717211  4023 net.cpp:150] Setting up conv4_2
I0728 15:04:55.717247  4023 net.cpp:157] Top shape: 1 512 47 65 (1564160)
I0728 15:04:55.717252  4023 net.cpp:165] Memory required for data: 422554164
I0728 15:04:55.717267  4023 layer_factory.hpp:77] Creating layer relu4_2
I0728 15:04:55.717300  4023 net.cpp:106] Creating Layer relu4_2
I0728 15:04:55.717319  4023 net.cpp:454] relu4_2 <- conv4_2
I0728 15:04:55.717348  4023 net.cpp:397] relu4_2 -> conv4_2 (in-place)
I0728 15:04:55.718477  4023 net.cpp:150] Setting up relu4_2
I0728 15:04:55.718494  4023 net.cpp:157] Top shape: 1 512 47 65 (1564160)
I0728 15:04:55.718498  4023 net.cpp:165] Memory required for data: 428810804
I0728 15:04:55.718502  4023 layer_factory.hpp:77] Creating layer conv4_3
I0728 15:04:55.718514  4023 net.cpp:106] Creating Layer conv4_3
I0728 15:04:55.718538  4023 net.cpp:454] conv4_3 <- conv4_2
I0728 15:04:55.718560  4023 net.cpp:411] conv4_3 -> conv4_3
I0728 15:04:55.727643  4023 net.cpp:150] Setting up conv4_3
I0728 15:04:55.727699  4023 net.cpp:157] Top shape: 1 512 47 65 (1564160)
I0728 15:04:55.727704  4023 net.cpp:165] Memory required for data: 435067444
I0728 15:04:55.727715  4023 layer_factory.hpp:77] Creating layer relu4_3
I0728 15:04:55.727725  4023 net.cpp:106] Creating Layer relu4_3
I0728 15:04:55.727732  4023 net.cpp:454] relu4_3 <- conv4_3
I0728 15:04:55.727771  4023 net.cpp:397] relu4_3 -> conv4_3 (in-place)
I0728 15:04:55.728695  4023 net.cpp:150] Setting up relu4_3
I0728 15:04:55.728718  4023 net.cpp:157] Top shape: 1 512 47 65 (1564160)
I0728 15:04:55.728723  4023 net.cpp:165] Memory required for data: 441324084
I0728 15:04:55.728726  4023 layer_factory.hpp:77] Creating layer pool4
I0728 15:04:55.728734  4023 net.cpp:106] Creating Layer pool4
I0728 15:04:55.728759  4023 net.cpp:454] pool4 <- conv4_3
I0728 15:04:55.728771  4023 net.cpp:411] pool4 -> pool4
I0728 15:04:55.728847  4023 net.cpp:150] Setting up pool4
I0728 15:04:55.728863  4023 net.cpp:157] Top shape: 1 512 24 33 (405504)
I0728 15:04:55.728866  4023 net.cpp:165] Memory required for data: 442946100
I0728 15:04:55.728870  4023 layer_factory.hpp:77] Creating layer conv5_1
I0728 15:04:55.728880  4023 net.cpp:106] Creating Layer conv5_1
I0728 15:04:55.728899  4023 net.cpp:454] conv5_1 <- pool4
I0728 15:04:55.728921  4023 net.cpp:411] conv5_1 -> conv5_1
I0728 15:04:55.738287  4023 net.cpp:150] Setting up conv5_1
I0728 15:04:55.738325  4023 net.cpp:157] Top shape: 1 512 24 33 (405504)
I0728 15:04:55.738330  4023 net.cpp:165] Memory required for data: 444568116
I0728 15:04:55.738343  4023 layer_factory.hpp:77] Creating layer relu5_1
I0728 15:04:55.738353  4023 net.cpp:106] Creating Layer relu5_1
I0728 15:04:55.738358  4023 net.cpp:454] relu5_1 <- conv5_1
I0728 15:04:55.738363  4023 net.cpp:397] relu5_1 -> conv5_1 (in-place)
I0728 15:04:55.738625  4023 net.cpp:150] Setting up relu5_1
I0728 15:04:55.738642  4023 net.cpp:157] Top shape: 1 512 24 33 (405504)
I0728 15:04:55.738646  4023 net.cpp:165] Memory required for data: 446190132
I0728 15:04:55.738651  4023 layer_factory.hpp:77] Creating layer conv5_2
I0728 15:04:55.738690  4023 net.cpp:106] Creating Layer conv5_2
I0728 15:04:55.738703  4023 net.cpp:454] conv5_2 <- conv5_1
I0728 15:04:55.738713  4023 net.cpp:411] conv5_2 -> conv5_2
I0728 15:04:55.748602  4023 net.cpp:150] Setting up conv5_2
I0728 15:04:55.748633  4023 net.cpp:157] Top shape: 1 512 24 33 (405504)
I0728 15:04:55.748638  4023 net.cpp:165] Memory required for data: 447812148
I0728 15:04:55.748647  4023 layer_factory.hpp:77] Creating layer relu5_2
I0728 15:04:55.748657  4023 net.cpp:106] Creating Layer relu5_2
I0728 15:04:55.748708  4023 net.cpp:454] relu5_2 <- conv5_2
I0728 15:04:55.748761  4023 net.cpp:397] relu5_2 -> conv5_2 (in-place)
I0728 15:04:55.749718  4023 net.cpp:150] Setting up relu5_2
I0728 15:04:55.749742  4023 net.cpp:157] Top shape: 1 512 24 33 (405504)
I0728 15:04:55.749747  4023 net.cpp:165] Memory required for data: 449434164
I0728 15:04:55.749753  4023 layer_factory.hpp:77] Creating layer conv5_3
I0728 15:04:55.749776  4023 net.cpp:106] Creating Layer conv5_3
I0728 15:04:55.749781  4023 net.cpp:454] conv5_3 <- conv5_2
I0728 15:04:55.749789  4023 net.cpp:411] conv5_3 -> conv5_3
I0728 15:04:55.758682  4023 net.cpp:150] Setting up conv5_3
I0728 15:04:55.758707  4023 net.cpp:157] Top shape: 1 512 24 33 (405504)
I0728 15:04:55.758710  4023 net.cpp:165] Memory required for data: 451056180
I0728 15:04:55.758720  4023 layer_factory.hpp:77] Creating layer relu5_3
I0728 15:04:55.758730  4023 net.cpp:106] Creating Layer relu5_3
I0728 15:04:55.758734  4023 net.cpp:454] relu5_3 <- conv5_3
I0728 15:04:55.758741  4023 net.cpp:397] relu5_3 -> conv5_3 (in-place)
I0728 15:04:55.759747  4023 net.cpp:150] Setting up relu5_3
I0728 15:04:55.759768  4023 net.cpp:157] Top shape: 1 512 24 33 (405504)
I0728 15:04:55.759771  4023 net.cpp:165] Memory required for data: 452678196
I0728 15:04:55.759775  4023 layer_factory.hpp:77] Creating layer conv5_3_relu5_3_0_split
I0728 15:04:55.759781  4023 net.cpp:106] Creating Layer conv5_3_relu5_3_0_split
I0728 15:04:55.759785  4023 net.cpp:454] conv5_3_relu5_3_0_split <- conv5_3
I0728 15:04:55.759790  4023 net.cpp:411] conv5_3_relu5_3_0_split -> conv5_3_relu5_3_0_split_0
I0728 15:04:55.759799  4023 net.cpp:411] conv5_3_relu5_3_0_split -> conv5_3_relu5_3_0_split_1
I0728 15:04:55.759804  4023 net.cpp:411] conv5_3_relu5_3_0_split -> conv5_3_relu5_3_0_split_2
I0728 15:04:55.759861  4023 net.cpp:150] Setting up conv5_3_relu5_3_0_split
I0728 15:04:55.759867  4023 net.cpp:157] Top shape: 1 512 24 33 (405504)
I0728 15:04:55.759871  4023 net.cpp:157] Top shape: 1 512 24 33 (405504)
I0728 15:04:55.759874  4023 net.cpp:157] Top shape: 1 512 24 33 (405504)
I0728 15:04:55.759877  4023 net.cpp:165] Memory required for data: 457544244
I0728 15:04:55.759881  4023 layer_factory.hpp:77] Creating layer rpn_conv/3x3
I0728 15:04:55.759891  4023 net.cpp:106] Creating Layer rpn_conv/3x3
I0728 15:04:55.759894  4023 net.cpp:454] rpn_conv/3x3 <- conv5_3_relu5_3_0_split_0
I0728 15:04:55.759902  4023 net.cpp:411] rpn_conv/3x3 -> rpn/output
I0728 15:04:55.821146  4023 net.cpp:150] Setting up rpn_conv/3x3
I0728 15:04:55.821168  4023 net.cpp:157] Top shape: 1 512 24 33 (405504)
I0728 15:04:55.821172  4023 net.cpp:165] Memory required for data: 459166260
I0728 15:04:55.821179  4023 layer_factory.hpp:77] Creating layer rpn_relu/3x3
I0728 15:04:55.821187  4023 net.cpp:106] Creating Layer rpn_relu/3x3
I0728 15:04:55.821190  4023 net.cpp:454] rpn_relu/3x3 <- rpn/output
I0728 15:04:55.821200  4023 net.cpp:397] rpn_relu/3x3 -> rpn/output (in-place)
I0728 15:04:55.822175  4023 net.cpp:150] Setting up rpn_relu/3x3
I0728 15:04:55.822190  4023 net.cpp:157] Top shape: 1 512 24 33 (405504)
I0728 15:04:55.822194  4023 net.cpp:165] Memory required for data: 460788276
I0728 15:04:55.822197  4023 layer_factory.hpp:77] Creating layer rpn/output_rpn_relu/3x3_0_split
I0728 15:04:55.822203  4023 net.cpp:106] Creating Layer rpn/output_rpn_relu/3x3_0_split
I0728 15:04:55.822206  4023 net.cpp:454] rpn/output_rpn_relu/3x3_0_split <- rpn/output
I0728 15:04:55.822213  4023 net.cpp:411] rpn/output_rpn_relu/3x3_0_split -> rpn/output_rpn_relu/3x3_0_split_0
I0728 15:04:55.822218  4023 net.cpp:411] rpn/output_rpn_relu/3x3_0_split -> rpn/output_rpn_relu/3x3_0_split_1
I0728 15:04:55.822263  4023 net.cpp:150] Setting up rpn/output_rpn_relu/3x3_0_split
I0728 15:04:55.822268  4023 net.cpp:157] Top shape: 1 512 24 33 (405504)
I0728 15:04:55.822273  4023 net.cpp:157] Top shape: 1 512 24 33 (405504)
I0728 15:04:55.822274  4023 net.cpp:165] Memory required for data: 464032308
I0728 15:04:55.822278  4023 layer_factory.hpp:77] Creating layer rpn_cls_score
I0728 15:04:55.822288  4023 net.cpp:106] Creating Layer rpn_cls_score
I0728 15:04:55.822291  4023 net.cpp:454] rpn_cls_score <- rpn/output_rpn_relu/3x3_0_split_0
I0728 15:04:55.822299  4023 net.cpp:411] rpn_cls_score -> rpn_cls_score
I0728 15:04:55.828025  4023 net.cpp:150] Setting up rpn_cls_score
I0728 15:04:55.828048  4023 net.cpp:157] Top shape: 1 36 24 33 (28512)
I0728 15:04:55.828052  4023 net.cpp:165] Memory required for data: 464146356
I0728 15:04:55.828059  4023 layer_factory.hpp:77] Creating layer rpn_cls_score_rpn_cls_score_0_split
I0728 15:04:55.828065  4023 net.cpp:106] Creating Layer rpn_cls_score_rpn_cls_score_0_split
I0728 15:04:55.828069  4023 net.cpp:454] rpn_cls_score_rpn_cls_score_0_split <- rpn_cls_score
I0728 15:04:55.828076  4023 net.cpp:411] rpn_cls_score_rpn_cls_score_0_split -> rpn_cls_score_rpn_cls_score_0_split_0
I0728 15:04:55.828083  4023 net.cpp:411] rpn_cls_score_rpn_cls_score_0_split -> rpn_cls_score_rpn_cls_score_0_split_1
I0728 15:04:55.828130  4023 net.cpp:150] Setting up rpn_cls_score_rpn_cls_score_0_split
I0728 15:04:55.828135  4023 net.cpp:157] Top shape: 1 36 24 33 (28512)
I0728 15:04:55.828140  4023 net.cpp:157] Top shape: 1 36 24 33 (28512)
I0728 15:04:55.828142  4023 net.cpp:165] Memory required for data: 464374452
I0728 15:04:55.828145  4023 layer_factory.hpp:77] Creating layer rpn_bbox_pred
I0728 15:04:55.828156  4023 net.cpp:106] Creating Layer rpn_bbox_pred
I0728 15:04:55.828161  4023 net.cpp:454] rpn_bbox_pred <- rpn/output_rpn_relu/3x3_0_split_1
I0728 15:04:55.828166  4023 net.cpp:411] rpn_bbox_pred -> rpn_bbox_pred
I0728 15:04:55.833418  4023 net.cpp:150] Setting up rpn_bbox_pred
I0728 15:04:55.833442  4023 net.cpp:157] Top shape: 1 72 24 33 (57024)
I0728 15:04:55.833446  4023 net.cpp:165] Memory required for data: 464602548
I0728 15:04:55.833452  4023 layer_factory.hpp:77] Creating layer rpn_bbox_pred_rpn_bbox_pred_0_split
I0728 15:04:55.833459  4023 net.cpp:106] Creating Layer rpn_bbox_pred_rpn_bbox_pred_0_split
I0728 15:04:55.833463  4023 net.cpp:454] rpn_bbox_pred_rpn_bbox_pred_0_split <- rpn_bbox_pred
I0728 15:04:55.833468  4023 net.cpp:411] rpn_bbox_pred_rpn_bbox_pred_0_split -> rpn_bbox_pred_rpn_bbox_pred_0_split_0
I0728 15:04:55.833477  4023 net.cpp:411] rpn_bbox_pred_rpn_bbox_pred_0_split -> rpn_bbox_pred_rpn_bbox_pred_0_split_1
I0728 15:04:55.833525  4023 net.cpp:150] Setting up rpn_bbox_pred_rpn_bbox_pred_0_split
I0728 15:04:55.833531  4023 net.cpp:157] Top shape: 1 72 24 33 (57024)
I0728 15:04:55.833535  4023 net.cpp:157] Top shape: 1 72 24 33 (57024)
I0728 15:04:55.833539  4023 net.cpp:165] Memory required for data: 465058740
I0728 15:04:55.833541  4023 layer_factory.hpp:77] Creating layer rpn_cls_score_reshape
I0728 15:04:55.833554  4023 net.cpp:106] Creating Layer rpn_cls_score_reshape
I0728 15:04:55.833557  4023 net.cpp:454] rpn_cls_score_reshape <- rpn_cls_score_rpn_cls_score_0_split_0
I0728 15:04:55.833562  4023 net.cpp:411] rpn_cls_score_reshape -> rpn_cls_score_reshape
I0728 15:04:55.833595  4023 net.cpp:150] Setting up rpn_cls_score_reshape
I0728 15:04:55.833600  4023 net.cpp:157] Top shape: 1 2 432 33 (28512)
I0728 15:04:55.833603  4023 net.cpp:165] Memory required for data: 465172788
I0728 15:04:55.833606  4023 layer_factory.hpp:77] Creating layer rpn_cls_score_reshape_rpn_cls_score_reshape_0_split
I0728 15:04:55.833611  4023 net.cpp:106] Creating Layer rpn_cls_score_reshape_rpn_cls_score_reshape_0_split
I0728 15:04:55.833614  4023 net.cpp:454] rpn_cls_score_reshape_rpn_cls_score_reshape_0_split <- rpn_cls_score_reshape
I0728 15:04:55.833621  4023 net.cpp:411] rpn_cls_score_reshape_rpn_cls_score_reshape_0_split -> rpn_cls_score_reshape_rpn_cls_score_reshape_0_split_0
I0728 15:04:55.833626  4023 net.cpp:411] rpn_cls_score_reshape_rpn_cls_score_reshape_0_split -> rpn_cls_score_reshape_rpn_cls_score_reshape_0_split_1
I0728 15:04:55.833659  4023 net.cpp:150] Setting up rpn_cls_score_reshape_rpn_cls_score_reshape_0_split
I0728 15:04:55.833664  4023 net.cpp:157] Top shape: 1 2 432 33 (28512)
I0728 15:04:55.833667  4023 net.cpp:157] Top shape: 1 2 432 33 (28512)
I0728 15:04:55.833670  4023 net.cpp:165] Memory required for data: 465400884
I0728 15:04:55.833673  4023 layer_factory.hpp:77] Creating layer rpn-data
I0728 15:04:55.834251  4023 net.cpp:106] Creating Layer rpn-data
I0728 15:04:55.834271  4023 net.cpp:454] rpn-data <- rpn_cls_score_rpn_cls_score_0_split_1
I0728 15:04:55.834278  4023 net.cpp:454] rpn-data <- gt_boxes_input-data_2_split_0
I0728 15:04:55.834283  4023 net.cpp:454] rpn-data <- im_info_input-data_1_split_0
I0728 15:04:55.834287  4023 net.cpp:454] rpn-data <- data_input-data_0_split_1
I0728 15:04:55.834292  4023 net.cpp:411] rpn-data -> rpn_labels
I0728 15:04:55.834300  4023 net.cpp:411] rpn-data -> rpn_bbox_targets
I0728 15:04:55.834306  4023 net.cpp:411] rpn-data -> rpn_bbox_inside_weights
I0728 15:04:55.834311  4023 net.cpp:411] rpn-data -> rpn_bbox_outside_weights
I0728 15:04:55.835219  4023 net.cpp:150] Setting up rpn-data
I0728 15:04:55.835243  4023 net.cpp:157] Top shape: 1 1 432 33 (14256)
I0728 15:04:55.835249  4023 net.cpp:157] Top shape: 1 72 24 33 (57024)
I0728 15:04:55.835253  4023 net.cpp:157] Top shape: 1 72 24 33 (57024)
I0728 15:04:55.835256  4023 net.cpp:157] Top shape: 1 72 24 33 (57024)
I0728 15:04:55.835259  4023 net.cpp:165] Memory required for data: 466142196
I0728 15:04:55.835263  4023 layer_factory.hpp:77] Creating layer rpn_loss_cls
I0728 15:04:55.835274  4023 net.cpp:106] Creating Layer rpn_loss_cls
I0728 15:04:55.835278  4023 net.cpp:454] rpn_loss_cls <- rpn_cls_score_reshape_rpn_cls_score_reshape_0_split_0
I0728 15:04:55.835283  4023 net.cpp:454] rpn_loss_cls <- rpn_labels
…
I0728 15:04:55.836658  4023 net.cpp:157] Top shape: (1)
I0728 15:04:55.836663  4023 net.cpp:160]     with loss weight 1
I0728 15:04:55.836668  4023 net.cpp:165] Memory required for data: 466142204
I0728 15:04:55.836673  4023 layer_factory.hpp:77] Creating layer rpn_cls_prob
I0728 15:04:55.836678  4023 net.cpp:106] Creating Layer rpn_cls_prob
I0728 15:04:55.836683  4023 net.cpp:454] rpn_cls_prob <- rpn_cls_score_reshape_rpn_cls_score_reshape_0_split_1
I0728 15:04:55.836689  4023 net.cpp:411] rpn_cls_prob -> rpn_cls_prob
I0728 15:04:55.837652  4023 net.cpp:150] Setting up rpn_cls_prob
I0728 15:04:55.837673  4023 net.cpp:157] Top shape: 1 2 432 33 (28512)
I0728 15:04:55.837677  4023 net.cpp:165] Memory required for data: 466256252
I0728 15:04:55.837682  4023 layer_factory.hpp:77] Creating layer rpn_cls_prob_reshape
I0728 15:04:55.837689  4023 net.cpp:106] Creating Layer rpn_cls_prob_reshape
I0728 15:04:55.837693  4023 net.cpp:454] rpn_cls_prob_reshape <- rpn_cls_prob
I0728 15:04:55.837698  4023 net.cpp:411] rpn_cls_prob_reshape -> rpn_cls_prob_reshape
I0728 15:04:55.837729  4023 net.cpp:150] Setting up rpn_cls_prob_reshape
I0728 15:04:55.837735  4023 net.cpp:157] Top shape: 1 36 24 33 (28512)
I0728 15:04:55.837738  4023 net.cpp:165] Memory required for data: 466370300
I0728 15:04:55.837740  4023 layer_factory.hpp:77] Creating layer proposal
I0728 15:04:55.839545  4023 net.cpp:106] Creating Layer proposal
I0728 15:04:55.839567  4023 net.cpp:454] proposal <- rpn_cls_prob_reshape
I0728 15:04:55.839574  4023 net.cpp:454] proposal <- rpn_bbox_pred_rpn_bbox_pred_0_split_1
I0728 15:04:55.839578  4023 net.cpp:454] proposal <- im_info_input-data_1_split_1
I0728 15:04:55.839584  4023 net.cpp:411] proposal -> rpn_rois
I0728 15:04:55.840173  4023 net.cpp:150] Setting up proposal
I0728 15:04:55.840196  4023 net.cpp:157] Top shape: 1 5 (5)
I0728 15:04:55.840200  4023 net.cpp:165] Memory required for data: 466370320
I0728 15:04:55.840204  4023 layer_factory.hpp:77] Creating layer roi-data
I0728 15:04:55.840363  4023 net.cpp:106] Creating Layer roi-data
I0728 15:04:55.840380  4023 net.cpp:454] roi-data <- rpn_rois
I0728 15:04:55.840386  4023 net.cpp:454] roi-data <- gt_boxes_input-data_2_split_1
I0728 15:04:55.840392  4023 net.cpp:411] roi-data -> rois
I0728 15:04:55.840399  4023 net.cpp:411] roi-data -> labels
I0728 15:04:55.840405  4023 net.cpp:411] roi-data -> bbox_targets
I0728 15:04:55.840410  4023 net.cpp:411] roi-data -> bbox_inside_weights
I0728 15:04:55.840415  4023 net.cpp:411] roi-data -> bbox_outside_weights
I0728 15:04:55.840785  4023 net.cpp:150] Setting up roi-data
I0728 15:04:55.840806  4023 net.cpp:157] Top shape: 1 5 (5)
I0728 15:04:55.840809  4023 net.cpp:157] Top shape: 1 1 (1)
I0728 15:04:55.840813  4023 net.cpp:157] Top shape: 1 84 (84)
I0728 15:04:55.840816  4023 net.cpp:157] Top shape: 1 84 (84)
I0728 15:04:55.840821  4023 net.cpp:157] Top shape: 1 84 (84)
I0728 15:04:55.840822  4023 net.cpp:165] Memory required for data: 466371352
I0728 15:04:55.840826  4023 layer_factory.hpp:77] Creating layer rois_roi-data_0_split
I0728 15:04:55.840832  4023 net.cpp:106] Creating Layer rois_roi-data_0_split
I0728 15:04:55.840836  4023 net.cpp:454] rois_roi-data_0_split <- rois
I0728 15:04:55.840842  4023 net.cpp:411] rois_roi-data_0_split -> rois_roi-data_0_split_0
I0728 15:04:55.840847  4023 net.cpp:411] rois_roi-data_0_split -> rois_roi-data_0_split_1
I0728 15:04:55.840886  4023 net.cpp:150] Setting up rois_roi-data_0_split
I0728 15:04:55.840893  4023 net.cpp:157] Top shape: 1 5 (5)
I0728 15:04:55.840895  4023 net.cpp:157] Top shape: 1 5 (5)
I0728 15:04:55.840898  4023 net.cpp:165] Memory required for data: 466371392
I0728 15:04:55.840901  4023 layer_factory.hpp:77] Creating layer roi_pool5_readonly
I0728 15:04:55.840911  4023 net.cpp:106] Creating Layer roi_pool5_readonly
I0728 15:04:55.840914  4023 net.cpp:454] roi_pool5_readonly <- conv5_3_relu5_3_0_split_1
I0728 15:04:55.840919  4023 net.cpp:454] roi_pool5_readonly <- rois_roi-data_0_split_0
I0728 15:04:55.840924  4023 net.cpp:411] roi_pool5_readonly -> pool5_readonly
I0728 15:04:55.840934  4023 roi_pooling_layer.cpp:30] Spatial scale: 0.0625
I0728 15:04:55.840976  4023 net.cpp:150] Setting up roi_pool5_readonly
I0728 15:04:55.840981  4023 net.cpp:157] Top shape: 1 512 7 7 (25088)
I0728 15:04:55.840984  4023 net.cpp:165] Memory required for data: 466471744
I0728 15:04:55.840987  4023 layer_factory.hpp:77] Creating layer fc6_readonly
I0728 15:04:55.840996  4023 net.cpp:106] Creating Layer fc6_readonly
I0728 15:04:55.840999  4023 net.cpp:454] fc6_readonly <- pool5_readonly
I0728 15:04:55.841006  4023 net.cpp:411] fc6_readonly -> fc6_readonly
I0728 15:04:56.111655  4023 net.cpp:150] Setting up fc6_readonly
I0728 15:04:56.111713  4023 net.cpp:157] Top shape: 1 4096 (4096)
I0728 15:04:56.111717  4023 net.cpp:165] Memory required for data: 466488128
I0728 15:04:56.111745  4023 layer_factory.hpp:77] Creating layer relu6_readonly
I0728 15:04:56.111760  4023 net.cpp:106] Creating Layer relu6_readonly
I0728 15:04:56.111766  4023 net.cpp:454] relu6_readonly <- fc6_readonly
I0728 15:04:56.111774  4023 net.cpp:397] relu6_readonly -> fc6_readonly (in-place)
I0728 15:04:56.112051  4023 net.cpp:150] Setting up relu6_readonly
I0728 15:04:56.112067  4023 net.cpp:157] Top shape: 1 4096 (4096)
I0728 15:04:56.112071  4023 net.cpp:165] Memory required for data: 466504512
I0728 15:04:56.112076  4023 layer_factory.hpp:77] Creating layer drop6_readonly
I0728 15:04:56.112089  4023 net.cpp:106] Creating Layer drop6_readonly
I0728 15:04:56.112093  4023 net.cpp:454] drop6_readonly <- fc6_readonly
I0728 15:04:56.112100  4023 net.cpp:397] drop6_readonly -> fc6_readonly (in-place)
I0728 15:04:56.112139  4023 net.cpp:150] Setting up drop6_readonly
I0728 15:04:56.112145  4023 net.cpp:157] Top shape: 1 4096 (4096)
I0728 15:04:56.112149  4023 net.cpp:165] Memory required for data: 466520896
I0728 15:04:56.112151  4023 layer_factory.hpp:77] Creating layer fc7_readonly
I0728 15:04:56.112161  4023 net.cpp:106] Creating Layer fc7_readonly
I0728 15:04:56.112164  4023 net.cpp:454] fc7_readonly <- fc6_readonly
I0728 15:04:56.112170  4023 net.cpp:411] fc7_readonly -> fc7_readonly
I0728 15:04:56.155652  4023 net.cpp:150] Setting up fc7_readonly
I0728 15:04:56.155710  4023 net.cpp:157] Top shape: 1 4096 (4096)
I0728 15:04:56.155715  4023 net.cpp:165] Memory required for data: 466537280
I0728 15:04:56.155730  4023 layer_factory.hpp:77] Creating layer relu7_readonly
I0728 15:04:56.155743  4023 net.cpp:106] Creating Layer relu7_readonly
I0728 15:04:56.155750  4023 net.cpp:454] relu7_readonly <- fc7_readonly
I0728 15:04:56.155757  4023 net.cpp:397] relu7_readonly -> fc7_readonly (in-place)
I0728 15:04:56.156890  4023 net.cpp:150] Setting up relu7_readonly
I0728 15:04:56.156910  4023 net.cpp:157] Top shape: 1 4096 (4096)
I0728 15:04:56.156914  4023 net.cpp:165] Memory required for data: 466553664
I0728 15:04:56.156919  4023 layer_factory.hpp:77] Creating layer drop7_readonly
I0728 15:04:56.156930  4023 net.cpp:106] Creating Layer drop7_readonly
I0728 15:04:56.156934  4023 net.cpp:454] drop7_readonly <- fc7_readonly
I0728 15:04:56.156940  4023 net.cpp:397] drop7_readonly -> fc7_readonly (in-place)
I0728 15:04:56.156977  4023 net.cpp:150] Setting up drop7_readonly
I0728 15:04:56.156983  4023 net.cpp:157] Top shape: 1 4096 (4096)
I0728 15:04:56.156985  4023 net.cpp:165] Memory required for data: 466570048
I0728 15:04:56.156988  4023 layer_factory.hpp:77] Creating layer fc7_readonly_drop7_readonly_0_split
I0728 15:04:56.156994  4023 net.cpp:106] Creating Layer fc7_readonly_drop7_readonly_0_split
I0728 15:04:56.156997  4023 net.cpp:454] fc7_readonly_drop7_readonly_0_split <- fc7_readonly
I0728 15:04:56.157003  4023 net.cpp:411] fc7_readonly_drop7_readonly_0_split -> fc7_readonly_drop7_readonly_0_split_0
I0728 15:04:56.157009  4023 net.cpp:411] fc7_readonly_drop7_readonly_0_split -> fc7_readonly_drop7_readonly_0_split_1
I0728 15:04:56.157073  4023 net.cpp:150] Setting up fc7_readonly_drop7_readonly_0_split
I0728 15:04:56.157080  4023 net.cpp:157] Top shape: 1 4096 (4096)
I0728 15:04:56.157084  4023 net.cpp:157] Top shape: 1 4096 (4096)
I0728 15:04:56.157088  4023 net.cpp:165] Memory required for data: 466602816
I0728 15:04:56.157090  4023 layer_factory.hpp:77] Creating layer cls_score_readonly
I0728 15:04:56.157099  4023 net.cpp:106] Creating Layer cls_score_readonly
I0728 15:04:56.157104  4023 net.cpp:454] cls_score_readonly <- fc7_readonly_drop7_readonly_0_split_0
I0728 15:04:56.157110  4023 net.cpp:411] cls_score_readonly -> cls_score_readonly
I0728 15:04:56.159795  4023 net.cpp:150] Setting up cls_score_readonly
I0728 15:04:56.159814  4023 net.cpp:157] Top shape: 1 21 (21)
I0728 15:04:56.159818  4023 net.cpp:165] Memory required for data: 466602900
I0728 15:04:56.159824  4023 layer_factory.hpp:77] Creating layer bbox_pred_readonly
I0728 15:04:56.159833  4023 net.cpp:106] Creating Layer bbox_pred_readonly
I0728 15:04:56.159837  4023 net.cpp:454] bbox_pred_readonly <- fc7_readonly_drop7_readonly_0_split_1
I0728 15:04:56.159843  4023 net.cpp:411] bbox_pred_readonly -> bbox_pred_readonly
I0728 15:04:56.168613  4023 net.cpp:150] Setting up bbox_pred_readonly
I0728 15:04:56.168632  4023 net.cpp:157] Top shape: 1 84 (84)
I0728 15:04:56.168637  4023 net.cpp:165] Memory required for data: 466603236
I0728 15:04:56.168642  4023 layer_factory.hpp:77] Creating layer cls_prob_readonly
I0728 15:04:56.168651  4023 net.cpp:106] Creating Layer cls_prob_readonly
I0728 15:04:56.168655  4023 net.cpp:454] cls_prob_readonly <- cls_score_readonly
I0728 15:04:56.168659  4023 net.cpp:411] cls_prob_readonly -> cls_prob_readonly
I0728 15:04:56.168920  4023 net.cpp:150] Setting up cls_prob_readonly
I0728 15:04:56.168936  4023 net.cpp:157] Top shape: 1 21 (21)
I0728 15:04:56.168939  4023 net.cpp:165] Memory required for data: 466603320
I0728 15:04:56.168943  4023 layer_factory.hpp:77] Creating layer hard_roi_mining
I0728 15:04:56.169011  4023 net.cpp:106] Creating Layer hard_roi_mining
I0728 15:04:56.169018  4023 net.cpp:454] hard_roi_mining <- cls_prob_readonly
I0728 15:04:56.169023  4023 net.cpp:454] hard_roi_mining <- bbox_pred_readonly
I0728 15:04:56.169028  4023 net.cpp:454] hard_roi_mining <- rois_roi-data_0_split_1
I0728 15:04:56.169031  4023 net.cpp:454] hard_roi_mining <- labels
I0728 15:04:56.169047  4023 net.cpp:454] hard_roi_mining <- bbox_targets
I0728 15:04:56.169052  4023 net.cpp:454] hard_roi_mining <- bbox_inside_weights
I0728 15:04:56.169056  4023 net.cpp:454] hard_roi_mining <- bbox_outside_weights
I0728 15:04:56.169061  4023 net.cpp:411] hard_roi_mining -> rois_hard
I0728 15:04:56.169068  4023 net.cpp:411] hard_roi_mining -> labels_hard
I0728 15:04:56.169076  4023 net.cpp:411] hard_roi_mining -> bbox_targets_hard
I0728 15:04:56.169082  4023 net.cpp:411] hard_roi_mining -> bbox_inside_weights_hard
I0728 15:04:56.169088  4023 net.cpp:411] hard_roi_mining -> bbox_outside_weights_hard
OHEMDataLayer: name_to_top: {'bbox_outside_weights_hard': 4, 'bbox_inside_weights_hard': 3, 'labels_hard': 1, 'rois_hard': 0, 'bbox_targets_hard': 2}
I0728 15:04:56.169680  4023 net.cpp:150] Setting up hard_roi_mining
I0728 15:04:56.169697  4023 net.cpp:157] Top shape: 1 5 (5)
I0728 15:04:56.169701  4023 net.cpp:157] Top shape: 1 (1)
I0728 15:04:56.169704  4023 net.cpp:157] Top shape: 1 84 (84)
I0728 15:04:56.169708  4023 net.cpp:157] Top shape: 1 84 (84)
I0728 15:04:56.169711  4023 net.cpp:157] Top shape: 1 84 (84)
I0728 15:04:56.169714  4023 net.cpp:165] Memory required for data: 466604352
I0728 15:04:56.169718  4023 layer_factory.hpp:77] Creating layer roi_pool5
I0728 15:04:56.169736  4023 net.cpp:106] Creating Layer roi_pool5
I0728 15:04:56.169744  4023 net.cpp:454] roi_pool5 <- conv5_3_relu5_3_0_split_2
I0728 15:04:56.169749  4023 net.cpp:454] roi_pool5 <- rois_hard
I0728 15:04:56.169754  4023 net.cpp:411] roi_pool5 -> pool5
I0728 15:04:56.169762  4023 roi_pooling_layer.cpp:30] Spatial scale: 0.0625
I0728 15:04:56.169823  4023 net.cpp:150] Setting up roi_pool5
I0728 15:04:56.169836  4023 net.cpp:157] Top shape: 1 512 7 7 (25088)
I0728 15:04:56.169839  4023 net.cpp:165] Memory required for data: 466704704
I0728 15:04:56.169843  4023 layer_factory.hpp:77] Creating layer fc6
I0728 15:04:56.169852  4023 net.cpp:106] Creating Layer fc6
I0728 15:04:56.169854  4023 net.cpp:454] fc6 <- pool5
I0728 15:04:56.169862  4023 net.cpp:411] fc6 -> fc6
I0728 15:04:56.432765  4023 net.cpp:150] Setting up fc6
I0728 15:04:56.432826  4023 net.cpp:157] Top shape: 1 4096 (4096)
I0728 15:04:56.432832  4023 net.cpp:165] Memory required for data: 466721088
I0728 15:04:56.432840  4023 net.cpp:514] Sharing parameters 'fc6_w' owned by layer 'fc6_readonly', param index 0
I0728 15:04:56.432848  4023 net.cpp:514] Sharing parameters 'fc6_b' owned by layer 'fc6_readonly', param index 1
I0728 15:04:56.432853  4023 layer_factory.hpp:77] Creating layer relu6
I0728 15:04:56.432868  4023 net.cpp:106] Creating Layer relu6
I0728 15:04:56.432873  4023 net.cpp:454] relu6 <- fc6
I0728 15:04:56.432884  4023 net.cpp:397] relu6 -> fc6 (in-place)
I0728 15:04:56.433982  4023 net.cpp:150] Setting up relu6
I0728 15:04:56.434003  4023 net.cpp:157] Top shape: 1 4096 (4096)
I0728 15:04:56.434008  4023 net.cpp:165] Memory required for data: 466737472
I0728 15:04:56.434011  4023 layer_factory.hpp:77] Creating layer drop6
I0728 15:04:56.434021  4023 net.cpp:106] Creating Layer drop6
I0728 15:04:56.434026  4023 net.cpp:454] drop6 <- fc6
I0728 15:04:56.434029  4023 net.cpp:397] drop6 -> fc6 (in-place)
I0728 15:04:56.434065  4023 net.cpp:150] Setting up drop6
I0728 15:04:56.434073  4023 net.cpp:157] Top shape: 1 4096 (4096)
I0728 15:04:56.434077  4023 net.cpp:165] Memory required for data: 466753856
I0728 15:04:56.434079  4023 layer_factory.hpp:77] Creating layer fc7
I0728 15:04:56.434087  4023 net.cpp:106] Creating Layer fc7
I0728 15:04:56.434092  4023 net.cpp:454] fc7 <- fc6
I0728 15:04:56.434098  4023 net.cpp:411] fc7 -> fc7
I0728 15:04:56.477615  4023 net.cpp:150] Setting up fc7
I0728 15:04:56.477669  4023 net.cpp:157] Top shape: 1 4096 (4096)
I0728 15:04:56.477672  4023 net.cpp:165] Memory required for data: 466770240
I0728 15:04:56.477681  4023 net.cpp:514] Sharing parameters 'fc7_w' owned by layer 'fc7_readonly', param index 0
I0728 15:04:56.477689  4023 net.cpp:514] Sharing parameters 'fc7_b' owned by layer 'fc7_readonly', param index 1
I0728 15:04:56.477694  4023 layer_factory.hpp:77] Creating layer relu7
I0728 15:04:56.477706  4023 net.cpp:106] Creating Layer relu7
I0728 15:04:56.477712  4023 net.cpp:454] relu7 <- fc7
I0728 15:04:56.477721  4023 net.cpp:397] relu7 -> fc7 (in-place)
I0728 15:04:56.477989  4023 net.cpp:150] Setting up relu7
I0728 15:04:56.478005  4023 net.cpp:157] Top shape: 1 4096 (4096)
I0728 15:04:56.478009  4023 net.cpp:165] Memory required for data: 466786624
I0728 15:04:56.478013  4023 layer_factory.hpp:77] Creating layer drop7
I0728 15:04:56.478019  4023 net.cpp:106] Creating Layer drop7
I0728 15:04:56.478022  4023 net.cpp:454] drop7 <- fc7
I0728 15:04:56.478029  4023 net.cpp:397] drop7 -> fc7 (in-place)
I0728 15:04:56.478065  4023 net.cpp:150] Setting up drop7
I0728 15:04:56.478070  4023 net.cpp:157] Top shape: 1 4096 (4096)
I0728 15:04:56.478073  4023 net.cpp:165] Memory required for data: 466803008
I0728 15:04:56.478076  4023 layer_factory.hpp:77] Creating layer fc7_drop7_0_split
I0728 15:04:56.478082  4023 net.cpp:106] Creating Layer fc7_drop7_0_split
I0728 15:04:56.478085  4023 net.cpp:454] fc7_drop7_0_split <- fc7
I0728 15:04:56.478090  4023 net.cpp:411] fc7_drop7_0_split -> fc7_drop7_0_split_0
I0728 15:04:56.478096  4023 net.cpp:411] fc7_drop7_0_split -> fc7_drop7_0_split_1
I0728 15:04:56.478147  4023 net.cpp:150] Setting up fc7_drop7_0_split
I0728 15:04:56.478152  4023 net.cpp:157] Top shape: 1 4096 (4096)
I0728 15:04:56.478157  4023 net.cpp:157] Top shape: 1 4096 (4096)
I0728 15:04:56.478159  4023 net.cpp:165] Memory required for data: 466835776
I0728 15:04:56.478163  4023 layer_factory.hpp:77] Creating layer cls_score
I0728 15:04:56.478171  4023 net.cpp:106] Creating Layer cls_score
I0728 15:04:56.478175  4023 net.cpp:454] cls_score <- fc7_drop7_0_split_0
I0728 15:04:56.478183  4023 net.cpp:411] cls_score -> cls_score
I0728 15:04:56.480339  4023 net.cpp:150] Setting up cls_score
I0728 15:04:56.480355  4023 net.cpp:157] Top shape: 1 21 (21)
I0728 15:04:56.480358  4023 net.cpp:165] Memory required for data: 466835860
I0728 15:04:56.480362  4023 net.cpp:514] Sharing parameters 'cls_score_w' owned by layer 'cls_score_readonly', param index 0
I0728 15:04:56.480366  4023 net.cpp:514] Sharing parameters 'cls_score_b' owned by layer 'cls_score_readonly', param index 1
I0728 15:04:56.480370  4023 layer_factory.hpp:77] Creating layer bbox_pred
I0728 15:04:56.480378  4023 net.cpp:106] Creating Layer bbox_pred
I0728 15:04:56.480382  4023 net.cpp:454] bbox_pred <- fc7_drop7_0_split_1
I0728 15:04:56.480388  4023 net.cpp:411] bbox_pred -> bbox_pred
I0728 15:04:56.489317  4023 net.cpp:150] Setting up bbox_pred
I0728 15:04:56.489337  4023 net.cpp:157] Top shape: 1 84 (84)
I0728 15:04:56.489341  4023 net.cpp:165] Memory required for data: 466836196
I0728 15:04:56.489346  4023 net.cpp:514] Sharing parameters 'bbox_pred_w' owned by layer 'bbox_pred_readonly', param index 0
I0728 15:04:56.489351  4023 net.cpp:514] Sharing parameters 'bbox_pred_b' owned by layer 'bbox_pred_readonly', param index 1
I0728 15:04:56.489353  4023 layer_factory.hpp:77] Creating layer loss_cls
…
           'RPN_PRE_NMS_TOP_N': 12000,
           'SCALES': [375],
           'SNAPSHOT_INFIX': '',
           'SNAPSHOT_ITERS': 5000,
           'USE_FLIPPED': True,
           'USE_OHEM': True,
           'USE_PREFETCH': False},
 'USE_GPU_NMS': True}
WARNING: Logging before InitGoogleLogging() is written to STDERR
I0729 02:18:29.317816 23237 net.cpp:49] Initializing net from parameters: 
name: "VGG_ILSVRC_16_layers"
input: "data"
input: "im_info"
state {
  phase: TEST
}
input_shape {
  dim: 1
  dim: 3
  dim: 224
  dim: 224
}
input_shape {
  dim: 1
  dim: 3
}
layer {
  name: "conv1_1"
  type: "Convolution"
  bottom: "data"
  top: "conv1_1"
  param {
    lr_mult: 0
    decay_mult: 0
  }
  param {
    lr_mult: 0
    decay_mult: 0
  }
  convolution_param {
    num_output: 64
    pad: 1
    kernel_size: 3
  }
}
layer {
  name: "relu1_1"
  type: "ReLU"
  bottom: "conv1_1"
  top: "conv1_1"
}
layer {
  name: "conv1_2"
  type: "Convolution"
  bottom: "conv1_1"
  top: "conv1_2"
  param {
    lr_mult: 0
    decay_mult: 0
  }
  param {
    lr_mult: 0
    decay_mult: 0
  }
  convolution_param {
    num_output: 64
    pad: 1
    kernel_size: 3
  }
}
layer {
  name: "relu1_2"
  type: "ReLU"
  bottom: "conv1_2"
  top: "conv1_2"
}
layer {
  name: "pool1"
  type: "Pooling"
  bottom: "conv1_2"
  top: "pool1"
  pooling_param {
    pool: MAX
    kernel_size: 2
    stride: 2
  }
}
layer {
  name: "conv2_1"
  type: "Convolution"
  bottom: "pool1"
  top: "conv2_1"
  param {
    lr_mult: 0
    decay_mult: 0
  }
  param {
    lr_mult: 0
    decay_mult: 0
  }
  convolution_param {
    num_output: 128
    pad: 1
    kernel_size: 3
  }
}
layer {
  name: "relu2_1"
  type: "ReLU"
  bottom: "conv2_1"
  top: "conv2_1"
}
layer {
  name: "conv2_2"
  type: "Convolution"
  bottom: "conv2_1"
  top: "conv2_2"
  param {
    lr_mult: 0
    decay_mult: 0
  }
  param {
    lr_mult: 0
    decay_mult: 0
  }
  convolution_param {
    num_output: 128
    pad: 1
    kernel_size: 3
  }
}
layer {
  name: "relu2_2"
  type: "ReLU"
  bottom: "conv2_2"
  top: "conv2_2"
}
layer {
  name: "pool2"
  type: "Pooling"
  bottom: "conv2_2"
  top: "pool2"
  pooling_param {
    pool: MAX
    kernel_size: 2
    stride: 2
  }
}
layer {
  name: "conv3_1"
  type: "Convolution"
  bottom: "pool2"
  top: "conv3_1"
  param {
    lr_mult: 1
    decay_mult: 1
  }
  param {
    lr_mult: 2
    decay_mult: 0
  }
  convolution_param {
    num_output: 256
    pad: 1
    kernel_size: 3
  }
}
layer {
  name: "relu3_1"
  type: "ReLU"
  bottom: "conv3_1"
  top: "conv3_1"
}
layer {
  name: "conv3_2"
  type: "Convolution"
  bottom: "conv3_1"
  top: "conv3_2"
  param {
    lr_mult: 1
    decay_mult: 1
  }
  param {
    lr_mult: 2
    decay_mult: 0
  }
  convolution_param {
    num_output: 256
    pad: 1
    kernel_size: 3
  }
}
layer {
  name: "relu3_2"
  type: "ReLU"
  bottom: "conv3_2"
  top: "conv3_2"
}
layer {
  name: "conv3_3"
  type: "Convolution"
  bottom: "conv3_2"
  top: "conv3_3"
  param {
    lr_mult: 1
    decay_mult: 1
  }
  param {
    lr_mult: 2
    decay_mult: 0
  }
  convolution_param {
    num_output: 256
    pad: 1
    kernel_size: 3
  }
}
layer {
  name: "relu3_3"
  type: "ReLU"
  bottom: "conv3_3"
  top: "conv3_3"
}
layer {
  name: "pool3"
  type: "Pooling"
  bottom: "conv3_3"
  top: "pool3"
  pooling_param {
    pool: MAX
    kernel_size: 2
    stride: 2
  }
}
layer {
  name: "conv4_1"
  type: "Convolution"
  bottom: "pool3"
  top: "conv4_1"
  param {
    lr_mult: 1
    decay_mult: 1
  }
  param {
    lr_mult: 2
    decay_mult: 0
  }
  convolution_param {
    num_output: 512
    pad: 1
    kernel_size: 3
  }
}
layer {
  name: "relu4_1"
  type: "ReLU"
  bottom: "conv4_1"
  top: "conv4_1"
}
layer {
  name: "conv4_2"
  type: "Convolution"
  bottom: "conv4_1"
  top: "conv4_2"
  param {
    lr_mult: 1
    decay_mult: 1
  }
  param {
    lr_mult: 2
    decay_mult: 0
  }
  convolution_param {
    num_output: 512
    pad: 1
    kernel_size: 3
  }
}
layer {
  name: "relu4_2"
  type: "ReLU"
  bottom: "conv4_2"
  top: "conv4_2"
}
layer {
  name: "conv4_3"
  type: "Convolution"
  bottom: "conv4_2"
  top: "conv4_3"
  param {
    lr_mult: 1
    decay_mult: 1
  }
  param {
    lr_mult: 2
    decay_mult: 0
  }
  convolution_param {
    num_output: 512
    pad: 1
    kernel_size: 3
  }
}
layer {
  name: "relu4_3"
  type: "ReLU"
  bottom: "conv4_3"
  top: "conv4_3"
}
layer {
  name: "pool4"
  type: "Pooling"
  bottom: "conv4_3"
  top: "pool4"
  pooling_param {
    pool: MAX
    kernel_size: 2
    stride: 2
  }
}
layer {
  name: "conv5_1"
  type: "Convolution"
  bottom: "pool4"
  top: "conv5_1"
  param {
    lr_mult: 1
    decay_mult: 1
  }
  param {
    lr_mult: 2
    decay_mult: 0
  }
  convolution_param {
    num_output: 512
    pad: 1
    kernel_size: 3
  }
}
layer {
  name: "relu5_1"
  type: "ReLU"
  bottom: "conv5_1"
  top: "conv5_1"
}
layer {
  name: "conv5_2"
  type: "Convolution"
  bottom: "conv5_1"
  top: "conv5_2"
  param {
    lr_mult: 1
    decay_mult: 1
  }
  param {
    lr_mult: 2
    decay_mult: 0
  }
  convolution_param {
    num_output: 512
    pad: 1
    kernel_size: 3
  }
}
layer {
  name: "relu5_2"
  type: "ReLU"
  bottom: "conv5_2"
  top: "conv5_2"
}
layer {
  name: "conv5_3"
  type: "Convolution"
  bottom: "conv5_2"
  top: "conv5_3"
  param {
    lr_mult: 1
    decay_mult: 1
  }
  param {
    lr_mult: 2
    decay_mult: 0
  }
  convolution_param {
    num_output: 512
    pad: 1
    kernel_size: 3
  }
}
layer {
  name: "relu5_3"
  type: "ReLU"
  bottom: "conv5_3"
  top: "conv5_3"
}
layer {
  name: "rpn_conv/3x3"
  type: "Convolution"
  bottom: "conv5_3"
  top: "rpn/output"
  param {
    lr_mult: 1
    decay_mult: 1
  }
  param {
    lr_mult: 2
    decay_mult: 0
  }
  convolution_param {
    num_output: 512
    pad: 1
    kernel_size: 3
    stride: 1
    weight_filler {
      type: "gaussian"
      std: 0.01
    }
    bias_filler {
      type: "constant"
      value: 0
    }
  }
}
layer {
  name: "rpn_relu/3x3"
  type: "ReLU"
  bottom: "rpn/output"
  top: "rpn/output"
}
layer {
  name: "rpn_cls_score"
  type: "Convolution"
  bottom: "rpn/output"
  top: "rpn_cls_score"
  param {
    lr_mult: 1
    decay_mult: 1
  }
  param {
    lr_mult: 2
    decay_mult: 0
  }
  convolution_param {
    num_output: 36
    pad: 0
    kernel_size: 1
    stride: 1
    weight_filler {
      type: "gaussian"
      std: 0.01
    }
    bias_filler {
      type: "constant"
      value: 0
    }
  }
}
layer {
  name: "rpn_bbox_pred"
  type: "Convolution"
  bottom: "rpn/output"
  top: "rpn_bbox_pred"
  param {
    lr_mult: 1
    decay_mult: 1
  }
  param {
    lr_mult: 2
    decay_mult: 0
  }
  convolution_param {
    num_output: 72
    pad: 0
    kernel_size: 1
    stride: 1
    weight_filler {
      type: "gaussian"
      std: 0.01
    }
    bias_filler {
      type: "constant"
      value: 0
    }
  }
}
layer {
  name: "rpn_cls_score_reshape"
  type: "Reshape"
  bottom: "rpn_cls_score"
  top: "rpn_cls_score_reshape"
  reshape_param {
    shape {
      dim: 0
      dim: 2
      dim: -1
      dim: 0
    }
  }
}
layer {
  name: "rpn_cls_prob"
  type: "Softmax"
  bottom: "rpn_cls_score_reshape"
  top: "rpn_cls_prob"
}
layer {
  name: "rpn_cls_prob_reshape"
  type: "Reshape"
  bottom: "rpn_cls_prob"
  top: "rpn_cls_prob_reshape"
  reshape_param {
    shape {
      dim: 0
      dim: 36
      dim: -1
      dim: 0
    }
  }
}
layer {
  name: "proposal"
  type: "Python"
  bottom: "rpn_cls_prob_reshape"
  bottom: "rpn_bbox_pred"
  bottom: "im_info"
  top: "rois"
  python_param {
    module: "rpn.proposal_layer"
    layer: "ProposalLayer"
    param_str: "\'feat_stride\': 16"
  }
}
layer {
  name: "roi_pool5"
  type: "ROIPooling"
  bottom: "conv5_3"
  bottom: "rois"
  top: "pool5"
  roi_pooling_param {
    pooled_h: 7
    pooled_w: 7
    spatial_scale: 0.0625
  }
}
layer {
  name: "fc6"
  type: "InnerProduct"
  bottom: "pool5"
  top: "fc6"
  param {
    lr_mult: 1
    decay_mult: 1
  }
  param {
    lr_mult: 2
    decay_mult: 0
  }
  inner_product_param {
    num_output: 4096
  }
}
layer {
  name: "relu6"
  type: "ReLU"
  bottom: "fc6"
  top: "fc6"
}
layer {
  name: "drop6"
  type: "Dropout"
  bottom: "fc6"
  top: "fc6"
  dropout_param {
    dropout_ratio: 0.5
  }
}
layer {
  name: "fc7"
  type: "InnerProduct"
  bottom: "fc6"
  top: "fc7"
  param {
    lr_mult: 1
    decay_mult: 1
  }
  param {
    lr_mult: 2
    decay_mult: 0
  }
  inner_product_param {
    num_output: 4096
  }
}
layer {
  name: "relu7"
  type: "ReLU"
  bottom: "fc7"
  top: "fc7"
}
layer {
  name: "drop7"
  type: "Dropout"
  bottom: "fc7"
  top: "fc7"
  dropout_param {
    dropout_ratio: 0.5
  }
}
layer {
  name: "cls_score"
  type: "InnerProduct"
  bottom: "fc7"
  top: "cls_score"
  param {
    lr_mult: 1
    decay_mult: 1
  }
  param {
    lr_mult: 2
    decay_mult: 0
  }
  inner_product_param {
    num_output: 21
    weight_filler {
      type: "gaussian"
      std: 0.01
    }
    bias_filler {
      type: "constant"
      value: 0
    }
  }
}
layer {
  name: "bbox_pred"
  type: "InnerProduct"
  bottom: "fc7"
  top: "bbox_pred"
  param {
    lr_mult: 1
    decay_mult: 1
  }
  param {
    lr_mult: 2
    decay_mult: 0
  }
  inner_product_param {
    num_output: 84
    weight_filler {
      type: "gaussian"
      std: 0.001
    }
    bias_filler {
      type: "constant"
      value: 0
    }
  }
}
layer {
  name: "cls_prob"
  type: "Softmax"
  bottom: "cls_score"
  top: "cls_prob"
}
I0729 02:18:29.318110 23237 net.cpp:413] Input 0 -> data
I0729 02:18:29.332478 23237 net.cpp:413] Input 1 -> im_info
I0729 02:18:29.332557 23237 layer_factory.hpp:77] Creating layer conv1_1
I0729 02:18:29.332603 23237 net.cpp:106] Creating Layer conv1_1
I0729 02:18:29.332626 23237 net.cpp:454] conv1_1 <- data
I0729 02:18:29.332643 23237 net.cpp:411] conv1_1 -> conv1_1
I0729 02:18:29.702412 23237 net.cpp:150] Setting up conv1_1
I0729 02:18:29.702478 23237 net.cpp:157] Top shape: 1 64 224 224 (3211264)
I0729 02:18:29.702487 23237 net.cpp:165] Memory required for data: 12845056
I0729 02:18:29.702517 23237 layer_factory.hpp:77] Creating layer relu1_1
I0729 02:18:29.702546 23237 net.cpp:106] Creating Layer relu1_1
I0729 02:18:29.702554 23237 net.cpp:454] relu1_1 <- conv1_1
I0729 02:18:29.702564 23237 net.cpp:397] relu1_1 -> conv1_1 (in-place)
I0729 02:18:29.703518 23237 net.cpp:150] Setting up relu1_1
I0729 02:18:29.703543 23237 net.cpp:157] Top shape: 1 64 224 224 (3211264)
I0729 02:18:29.703552 23237 net.cpp:165] Memory required for data: 25690112
I0729 02:18:29.703560 23237 layer_factory.hpp:77] Creating layer conv1_2
I0729 02:18:29.703583 23237 net.cpp:106] Creating Layer conv1_2
I0729 02:18:29.703589 23237 net.cpp:454] conv1_2 <- conv1_1
I0729 02:18:29.703598 23237 net.cpp:411] conv1_2 -> conv1_2
I0729 02:18:29.707974 23237 net.cpp:150] Setting up conv1_2
I0729 02:18:29.708003 23237 net.cpp:157] Top shape: 1 64 224 224 (3211264)
I0729 02:18:29.708009 23237 net.cpp:165] Memory required for data: 38535168
I0729 02:18:29.708024 23237 layer_factory.hpp:77] Creating layer relu1_2
I0729 02:18:29.708034 23237 net.cpp:106] Creating Layer relu1_2
I0729 02:18:29.708039 23237 net.cpp:454] relu1_2 <- conv1_2
I0729 02:18:29.708046 23237 net.cpp:397] relu1_2 -> conv1_2 (in-place)
I0729 02:18:29.708333 23237 net.cpp:150] Setting up relu1_2
I0729 02:18:29.708355 23237 net.cpp:157] Top shape: 1 64 224 224 (3211264)
I0729 02:18:29.708361 23237 net.cpp:165] Memory required for data: 51380224
I0729 02:18:29.708367 23237 layer_factory.hpp:77] Creating layer pool1
I0729 02:18:29.708389 23237 net.cpp:106] Creating Layer pool1
I0729 02:18:29.708396 23237 net.cpp:454] pool1 <- conv1_2
I0729 02:18:29.708405 23237 net.cpp:411] pool1 -> pool1
I0729 02:18:29.708475 23237 net.cpp:150] Setting up pool1
I0729 02:18:29.708487 23237 net.cpp:157] Top shape: 1 64 112 112 (802816)
I0729 02:18:29.708492 23237 net.cpp:165] Memory required for data: 54591488
I0729 02:18:29.708498 23237 layer_factory.hpp:77] Creating layer conv2_1
I0729 02:18:29.708509 23237 net.cpp:106] Creating Layer conv2_1
I0729 02:18:29.708515 23237 net.cpp:454] conv2_1 <- pool1
I0729 02:18:29.708523 23237 net.cpp:411] conv2_1 -> conv2_1
I0729 02:18:29.714627 23237 net.cpp:150] Setting up conv2_1
I0729 02:18:29.714654 23237 net.cpp:157] Top shape: 1 128 112 112 (1605632)
I0729 02:18:29.714661 23237 net.cpp:165] Memory required for data: 61014016
I0729 02:18:29.714678 23237 layer_factory.hpp:77] Creating layer relu2_1
I0729 02:18:29.714691 23237 net.cpp:106] Creating Layer relu2_1
I0729 02:18:29.714697 23237 net.cpp:454] relu2_1 <- conv2_1
I0729 02:18:29.714705 23237 net.cpp:397] relu2_1 -> conv2_1 (in-place)
I0729 02:18:29.715526 23237 net.cpp:150] Setting up relu2_1
I0729 02:18:29.715548 23237 net.cpp:157] Top shape: 1 128 112 112 (1605632)
I0729 02:18:29.715554 23237 net.cpp:165] Memory required for data: 67436544
I0729 02:18:29.715559 23237 layer_factory.hpp:77] Creating layer conv2_2
I0729 02:18:29.715585 23237 net.cpp:106] Creating Layer conv2_2
I0729 02:18:29.715592 23237 net.cpp:454] conv2_2 <- conv2_1
I0729 02:18:29.715601 23237 net.cpp:411] conv2_2 -> conv2_2
I0729 02:18:29.719774 23237 net.cpp:150] Setting up conv2_2
I0729 02:18:29.719800 23237 net.cpp:157] Top shape: 1 128 112 112 (1605632)
I0729 02:18:29.719807 23237 net.cpp:165] Memory required for data: 73859072
I0729 02:18:29.719817 23237 layer_factory.hpp:77] Creating layer relu2_2
I0729 02:18:29.719832 23237 net.cpp:106] Creating Layer relu2_2
I0729 02:18:29.719840 23237 net.cpp:454] relu2_2 <- conv2_2
I0729 02:18:29.719846 23237 net.cpp:397] relu2_2 -> conv2_2 (in-place)
I0729 02:18:29.720844 23237 net.cpp:150] Setting up relu2_2
I0729 02:18:29.720868 23237 net.cpp:157] Top shape: 1 128 112 112 (1605632)
I0729 02:18:29.720875 23237 net.cpp:165] Memory required for data: 80281600
I0729 02:18:29.720881 23237 layer_factory.hpp:77] Creating layer pool2
I0729 02:18:29.720890 23237 net.cpp:106] Creating Layer pool2
I0729 02:18:29.720896 23237 net.cpp:454] pool2 <- conv2_2
I0729 02:18:29.720907 23237 net.cpp:411] pool2 -> pool2
I0729 02:18:29.720976 23237 net.cpp:150] Setting up pool2
I0729 02:18:29.720988 23237 net.cpp:157] Top shape: 1 128 56 56 (401408)
I0729 02:18:29.720994 23237 net.cpp:165] Memory required for data: 81887232
I0729 02:18:29.721002 23237 layer_factory.hpp:77] Creating layer conv3_1
I0729 02:18:29.721019 23237 net.cpp:106] Creating Layer conv3_1
I0729 02:18:29.721026 23237 net.cpp:454] conv3_1 <- pool2
I0729 02:18:29.721035 23237 net.cpp:411] conv3_1 -> conv3_1
I0729 02:18:29.724772 23237 net.cpp:150] Setting up conv3_1
I0729 02:18:29.724798 23237 net.cpp:157] Top shape: 1 256 56 56 (802816)
I0729 02:18:29.724805 23237 net.cpp:165] Memory required for data: 85098496
I0729 02:18:29.724823 23237 layer_factory.hpp:77] Creating layer relu3_1
I0729 02:18:29.724833 23237 net.cpp:106] Creating Layer relu3_1
I0729 02:18:29.724839 23237 net.cpp:454] relu3_1 <- conv3_1
I0729 02:18:29.724848 23237 net.cpp:397] relu3_1 -> conv3_1 (in-place)
I0729 02:18:29.725172 23237 net.cpp:150] Setting up relu3_1
I0729 02:18:29.725194 23237 net.cpp:157] Top shape: 1 256 56 56 (802816)
I0729 02:18:29.725201 23237 net.cpp:165] Memory required for data: 88309760
I0729 02:18:29.725208 23237 layer_factory.hpp:77] Creating layer conv3_2
I0729 02:18:29.725221 23237 net.cpp:106] Creating Layer conv3_2
I0729 02:18:29.725229 23237 net.cpp:454] conv3_2 <- conv3_1
I0729 02:18:29.725236 23237 net.cpp:411] conv3_2 -> conv3_2
I0729 02:18:29.730659 23237 net.cpp:150] Setting up conv3_2
I0729 02:18:29.730686 23237 net.cpp:157] Top shape: 1 256 56 56 (802816)
I0729 02:18:29.730695 23237 net.cpp:165] Memory required for data: 91521024
I0729 02:18:29.730705 23237 layer_factory.hpp:77] Creating layer relu3_2
I0729 02:18:29.730717 23237 net.cpp:106] Creating Layer relu3_2
I0729 02:18:29.730723 23237 net.cpp:454] relu3_2 <- conv3_2
I0729 02:18:29.730731 23237 net.cpp:397] relu3_2 -> conv3_2 (in-place)
I0729 02:18:29.731127 23237 net.cpp:150] Setting up relu3_2
I0729 02:18:29.731149 23237 net.cpp:157] Top shape: 1 256 56 56 (802816)
I0729 02:18:29.731155 23237 net.cpp:165] Memory required for data: 94732288
I0729 02:18:29.731161 23237 layer_factory.hpp:77] Creating layer conv3_3
I0729 02:18:29.731175 23237 net.cpp:106] Creating Layer conv3_3
I0729 02:18:29.731182 23237 net.cpp:454] conv3_3 <- conv3_2
I0729 02:18:29.731191 23237 net.cpp:411] conv3_3 -> conv3_3
I0729 02:18:29.737635 23237 net.cpp:150] Setting up conv3_3
I0729 02:18:29.737664 23237 net.cpp:157] Top shape: 1 256 56 56 (802816)
I0729 02:18:29.737671 23237 net.cpp:165] Memory required for data: 97943552
I0729 02:18:29.737682 23237 layer_factory.hpp:77] Creating layer relu3_3
I0729 02:18:29.737691 23237 net.cpp:106] Creating Layer relu3_3
I0729 02:18:29.737697 23237 net.cpp:454] relu3_3 <- conv3_3
I0729 02:18:29.737705 23237 net.cpp:397] relu3_3 -> conv3_3 (in-place)
I0729 02:18:29.738692 23237 net.cpp:150] Setting up relu3_3
I0729 02:18:29.738715 23237 net.cpp:157] Top shape: 1 256 56 56 (802816)
I0729 02:18:29.738723 23237 net.cpp:165] Memory required for data: 101154816
I0729 02:18:29.738729 23237 layer_factory.hpp:77] Creating layer pool3
I0729 02:18:29.738744 23237 net.cpp:106] Creating Layer pool3
I0729 02:18:29.738750 23237 net.cpp:454] pool3 <- conv3_3
I0729 02:18:29.738759 23237 net.cpp:411] pool3 -> pool3
I0729 02:18:29.738834 23237 net.cpp:150] Setting up pool3
I0729 02:18:29.738847 23237 net.cpp:157] Top shape: 1 256 28 28 (200704)
I0729 02:18:29.738852 23237 net.cpp:165] Memory required for data: 101957632
I0729 02:18:29.738857 23237 layer_factory.hpp:77] Creating layer conv4_1
I0729 02:18:29.738873 23237 net.cpp:106] Creating Layer conv4_1
I0729 02:18:29.738879 23237 net.cpp:454] conv4_1 <- pool3
I0729 02:18:29.738888 23237 net.cpp:411] conv4_1 -> conv4_1
I0729 02:18:29.746243 23237 net.cpp:150] Setting up conv4_1
I0729 02:18:29.746275 23237 net.cpp:157] Top shape: 1 512 28 28 (401408)
I0729 02:18:29.746282 23237 net.cpp:165] Memory required for data: 103563264
I0729 02:18:29.746294 23237 layer_factory.hpp:77] Creating layer relu4_1
I0729 02:18:29.746305 23237 net.cpp:106] Creating Layer relu4_1
I0729 02:18:29.746312 23237 net.cpp:454] relu4_1 <- conv4_1
I0729 02:18:29.746320 23237 net.cpp:397] relu4_1 -> conv4_1 (in-place)
I0729 02:18:29.747601 23237 net.cpp:150] Setting up relu4_1
I0729 02:18:29.747625 23237 net.cpp:157] Top shape: 1 512 28 28 (401408)
I0729 02:18:29.747632 23237 net.cpp:165] Memory required for data: 105168896
I0729 02:18:29.747638 23237 layer_factory.hpp:77] Creating layer conv4_2
I0729 02:18:29.747655 23237 net.cpp:106] Creating Layer conv4_2
I0729 02:18:29.747661 23237 net.cpp:454] conv4_2 <- conv4_1
I0729 02:18:29.747671 23237 net.cpp:411] conv4_2 -> conv4_2
I0729 02:18:29.757273 23237 net.cpp:150] Setting up conv4_2
I0729 02:18:29.757300 23237 net.cpp:157] Top shape: 1 512 28 28 (401408)
I0729 02:18:29.757308 23237 net.cpp:165] Memory required for data: 106774528
I0729 02:18:29.757325 23237 layer_factory.hpp:77] Creating layer relu4_2
I0729 02:18:29.757340 23237 net.cpp:106] Creating Layer relu4_2
I0729 02:18:29.757347 23237 net.cpp:454] relu4_2 <- conv4_2
I0729 02:18:29.757356 23237 net.cpp:397] relu4_2 -> conv4_2 (in-place)
I0729 02:18:29.757666 23237 net.cpp:150] Setting up relu4_2
I0729 02:18:29.757689 23237 net.cpp:157] Top shape: 1 512 28 28 (401408)
I0729 02:18:29.757695 23237 net.cpp:165] Memory required for data: 108380160
I0729 02:18:29.757701 23237 layer_factory.hpp:77] Creating layer conv4_3
I0729 02:18:29.757719 23237 net.cpp:106] Creating Layer conv4_3
I0729 02:18:29.757725 23237 net.cpp:454] conv4_3 <- conv4_2
I0729 02:18:29.757736 23237 net.cpp:411] conv4_3 -> conv4_3
I0729 02:18:29.765342 23237 net.cpp:150] Setting up conv4_3
I0729 02:18:29.765368 23237 net.cpp:157] Top shape: 1 512 28 28 (401408)
I0729 02:18:29.765377 23237 net.cpp:165] Memory required for data: 109985792
I0729 02:18:29.765389 23237 layer_factory.hpp:77] Creating layer relu4_3
I0729 02:18:29.765399 23237 net.cpp:106] Creating Layer relu4_3
I0729 02:18:29.765405 23237 net.cpp:454] relu4_3 <- conv4_3
I0729 02:18:29.765415 23237 net.cpp:397] relu4_3 -> conv4_3 (in-place)
I0729 02:18:29.766397 23237 net.cpp:150] Setting up relu4_3
I0729 02:18:29.766423 23237 net.cpp:157] Top shape: 1 512 28 28 (401408)
I0729 02:18:29.766430 23237 net.cpp:165] Memory required for data: 111591424
I0729 02:18:29.766436 23237 layer_factory.hpp:77] Creating layer pool4
I0729 02:18:29.766445 23237 net.cpp:106] Creating Layer pool4
I0729 02:18:29.766451 23237 net.cpp:454] pool4 <- conv4_3
I0729 02:18:29.766463 23237 net.cpp:411] pool4 -> pool4
I0729 02:18:29.766536 23237 net.cpp:150] Setting up pool4
I0729 02:18:29.766548 23237 net.cpp:157] Top shape: 1 512 14 14 (100352)
I0729 02:18:29.766553 23237 net.cpp:165] Memory required for data: 111992832
I0729 02:18:29.766559 23237 layer_factory.hpp:77] Creating layer conv5_1
I0729 02:18:29.766575 23237 net.cpp:106] Creating Layer conv5_1
I0729 02:18:29.766582 23237 net.cpp:454] conv5_1 <- pool4
I0729 02:18:29.766592 23237 net.cpp:411] conv5_1 -> conv5_1
I0729 02:18:29.774263 23237 net.cpp:150] Setting up conv5_1
I0729 02:18:29.774291 23237 net.cpp:157] Top shape: 1 512 14 14 (100352)
I0729 02:18:29.774298 23237 net.cpp:165] Memory required for data: 112394240
I0729 02:18:29.774308 23237 layer_factory.hpp:77] Creating layer relu5_1
I0729 02:18:29.774318 23237 net.cpp:106] Creating Layer relu5_1
I0729 02:18:29.774324 23237 net.cpp:454] relu5_1 <- conv5_1
I0729 02:18:29.774335 23237 net.cpp:397] relu5_1 -> conv5_1 (in-place)
I0729 02:18:29.774615 23237 net.cpp:150] Setting up relu5_1
I0729 02:18:29.774636 23237 net.cpp:157] Top shape: 1 512 14 14 (100352)
I0729 02:18:29.774642 23237 net.cpp:165] Memory required for data: 112795648
I0729 02:18:29.774651 23237 layer_factory.hpp:77] Creating layer conv5_2
I0729 02:18:29.774665 23237 net.cpp:106] Creating Layer conv5_2
I0729 02:18:29.774672 23237 net.cpp:454] conv5_2 <- conv5_1
I0729 02:18:29.774683 23237 net.cpp:411] conv5_2 -> conv5_2
I0729 02:18:29.782325 23237 net.cpp:150] Setting up conv5_2
I0729 02:18:29.782354 23237 net.cpp:157] Top shape: 1 512 14 14 (100352)
I0729 02:18:29.782361 23237 net.cpp:165] Memory required for data: 113197056
I0729 02:18:29.782371 23237 layer_factory.hpp:77] Creating layer relu5_2
I0729 02:18:29.782384 23237 net.cpp:106] Creating Layer relu5_2
I0729 02:18:29.782390 23237 net.cpp:454] relu5_2 <- conv5_2
I0729 02:18:29.782397 23237 net.cpp:397] relu5_2 -> conv5_2 (in-place)
I0729 02:18:29.782696 23237 net.cpp:150] Setting up relu5_2
I0729 02:18:29.782712 23237 net.cpp:157] Top shape: 1 512 14 14 (100352)
I0729 02:18:29.782718 23237 net.cpp:165] Memory required for data: 113598464
I0729 02:18:29.782724 23237 layer_factory.hpp:77] Creating layer conv5_3
I0729 02:18:29.782742 23237 net.cpp:106] Creating Layer conv5_3
I0729 02:18:29.782748 23237 net.cpp:454] conv5_3 <- conv5_2
I0729 02:18:29.782757 23237 net.cpp:411] conv5_3 -> conv5_3
I0729 02:18:29.790403 23237 net.cpp:150] Setting up conv5_3
I0729 02:18:29.790432 23237 net.cpp:157] Top shape: 1 512 14 14 (100352)
I0729 02:18:29.790439 23237 net.cpp:165] Memory required for data: 113999872
I0729 02:18:29.790449 23237 layer_factory.hpp:77] Creating layer relu5_3
I0729 02:18:29.790462 23237 net.cpp:106] Creating Layer relu5_3
I0729 02:18:29.790467 23237 net.cpp:454] relu5_3 <- conv5_3
I0729 02:18:29.790480 23237 net.cpp:397] relu5_3 -> conv5_3 (in-place)
I0729 02:18:29.791483 23237 net.cpp:150] Setting up relu5_3
I0729 02:18:29.791508 23237 net.cpp:157] Top shape: 1 512 14 14 (100352)
I0729 02:18:29.791515 23237 net.cpp:165] Memory required for data: 114401280
I0729 02:18:29.791522 23237 layer_factory.hpp:77] Creating layer conv5_3_relu5_3_0_split
I0729 02:18:29.791538 23237 net.cpp:106] Creating Layer conv5_3_relu5_3_0_split
I0729 02:18:29.791545 23237 net.cpp:454] conv5_3_relu5_3_0_split <- conv5_3
I0729 02:18:29.791558 23237 net.cpp:411] conv5_3_relu5_3_0_split -> conv5_3_relu5_3_0_split_0
I0729 02:18:29.791569 23237 net.cpp:411] conv5_3_relu5_3_0_split -> conv5_3_relu5_3_0_split_1
I0729 02:18:29.791649 23237 net.cpp:150] Setting up conv5_3_relu5_3_0_split
I0729 02:18:29.791664 23237 net.cpp:157] Top shape: 1 512 14 14 (100352)
I0729 02:18:29.791672 23237 net.cpp:157] Top shape: 1 512 14 14 (100352)
I0729 02:18:29.791677 23237 net.cpp:165] Memory required for data: 115204096
I0729 02:18:29.791682 23237 layer_factory.hpp:77] Creating layer rpn_conv/3x3
I0729 02:18:29.791702 23237 net.cpp:106] Creating Layer rpn_conv/3x3
I0729 02:18:29.791708 23237 net.cpp:454] rpn_conv/3x3 <- conv5_3_relu5_3_0_split_0
I0729 02:18:29.791718 23237 net.cpp:411] rpn_conv/3x3 -> rpn/output
I0729 02:18:29.853881 23237 net.cpp:150] Setting up rpn_conv/3x3
I0729 02:18:29.853929 23237 net.cpp:157] Top shape: 1 512 14 14 (100352)
I0729 02:18:29.853936 23237 net.cpp:165] Memory required for data: 115605504
I0729 02:18:29.853948 23237 layer_factory.hpp:77] Creating layer rpn_relu/3x3
I0729 02:18:29.853967 23237 net.cpp:106] Creating Layer rpn_relu/3x3
I0729 02:18:29.853973 23237 net.cpp:454] rpn_relu/3x3 <- rpn/output
I0729 02:18:29.853984 23237 net.cpp:397] rpn_relu/3x3 -> rpn/output (in-place)
I0729 02:18:29.854274 23237 net.cpp:150] Setting up rpn_relu/3x3
I0729 02:18:29.854290 23237 net.cpp:157] Top shape: 1 512 14 14 (100352)
I0729 02:18:29.854296 23237 net.cpp:165] Memory required for data: 116006912
I0729 02:18:29.854305 23237 layer_factory.hpp:77] Creating layer rpn/output_rpn_relu/3x3_0_split
I0729 02:18:29.854315 23237 net.cpp:106] Creating Layer rpn/output_rpn_relu/3x3_0_split
I0729 02:18:29.854321 23237 net.cpp:454] rpn/output_rpn_relu/3x3_0_split <- rpn/output
I0729 02:18:29.854333 23237 net.cpp:411] rpn/output_rpn_relu/3x3_0_split -> rpn/output_rpn_relu/3x3_0_split_0
I0729 02:18:29.854344 23237 net.cpp:411] rpn/output_rpn_relu/3x3_0_split -> rpn/output_rpn_relu/3x3_0_split_1
I0729 02:18:29.854439 23237 net.cpp:150] Setting up rpn/output_rpn_relu/3x3_0_split
I0729 02:18:29.854451 23237 net.cpp:157] Top shape: 1 512 14 14 (100352)
I0729 02:18:29.854459 23237 net.cpp:157] Top shape: 1 512 14 14 (100352)
I0729 02:18:29.854463 23237 net.cpp:165] Memory required for data: 116809728
I0729 02:18:29.854468 23237 layer_factory.hpp:77] Creating layer rpn_cls_score
I0729 02:18:29.854486 23237 net.cpp:106] Creating Layer rpn_cls_score
I0729 02:18:29.854493 23237 net.cpp:454] rpn_cls_score <- rpn/output_rpn_relu/3x3_0_split_0
I0729 02:18:29.854506 23237 net.cpp:411] rpn_cls_score -> rpn_cls_score
I0729 02:18:29.858116 23237 net.cpp:150] Setting up rpn_cls_score
I0729 02:18:29.858144 23237 net.cpp:157] Top shape: 1 36 14 14 (7056)
I0729 02:18:29.858151 23237 net.cpp:165] Memory required for data: 116837952
I0729 02:18:29.858161 23237 layer_factory.hpp:77] Creating layer rpn_bbox_pred
I0729 02:18:29.858181 23237 net.cpp:106] Creating Layer rpn_bbox_pred
I0729 02:18:29.858189 23237 net.cpp:454] rpn_bbox_pred <- rpn/output_rpn_relu/3x3_0_split_1
I0729 02:18:29.858198 23237 net.cpp:411] rpn_bbox_pred -> rpn_bbox_pred
I0729 02:18:29.861369 23237 net.cpp:150] Setting up rpn_bbox_pred
I0729 02:18:29.861397 23237 net.cpp:157] Top shape: 1 72 14 14 (14112)
I0729 02:18:29.861403 23237 net.cpp:165] Memory required for data: 116894400
I0729 02:18:29.861413 23237 layer_factory.hpp:77] Creating layer rpn_cls_score_reshape
I0729 02:18:29.861443 23237 net.cpp:106] Creating Layer rpn_cls_score_reshape
I0729 02:18:29.861452 23237 net.cpp:454] rpn_cls_score_reshape <- rpn_cls_score
I0729 02:18:29.861466 23237 net.cpp:411] rpn_cls_score_reshape -> rpn_cls_score_reshape
I0729 02:18:29.861526 23237 net.cpp:150] Setting up rpn_cls_score_reshape
I0729 02:18:29.861542 23237 net.cpp:157] Top shape: 1 2 252 14 (7056)
I0729 02:18:29.861548 23237 net.cpp:165] Memory required for data: 116922624
I0729 02:18:29.861555 23237 layer_factory.hpp:77] Creating layer rpn_cls_prob
I0729 02:18:29.861565 23237 net.cpp:106] Creating Layer rpn_cls_prob
I0729 02:18:29.861572 23237 net.cpp:454] rpn_cls_prob <- rpn_cls_score_reshape
I0729 02:18:29.861579 23237 net.cpp:411] rpn_cls_prob -> rpn_cls_prob
I0729 02:18:29.861956 23237 net.cpp:150] Setting up rpn_cls_prob
I0729 02:18:29.861979 23237 net.cpp:157] Top shape: 1 2 252 14 (7056)
I0729 02:18:29.861985 23237 net.cpp:165] Memory required for data: 116950848
I0729 02:18:29.861991 23237 layer_factory.hpp:77] Creating layer rpn_cls_prob_reshape
I0729 02:18:29.862005 23237 net.cpp:106] Creating Layer rpn_cls_prob_reshape
I0729 02:18:29.862012 23237 net.cpp:454] rpn_cls_prob_reshape <- rpn_cls_prob
I0729 02:18:29.862020 23237 net.cpp:411] rpn_cls_prob_reshape -> rpn_cls_prob_reshape
I0729 02:18:29.862076 23237 net.cpp:150] Setting up rpn_cls_prob_reshape
I0729 02:18:29.862087 23237 net.cpp:157] Top shape: 1 36 14 14 (7056)
I0729 02:18:29.862093 23237 net.cpp:165] Memory required for data: 116979072
I0729 02:18:29.862100 23237 layer_factory.hpp:77] Creating layer proposal
I0729 02:18:29.862864 23237 net.cpp:106] Creating Layer proposal
I0729 02:18:29.862887 23237 net.cpp:454] proposal <- rpn_cls_prob_reshape
I0729 02:18:29.862896 23237 net.cpp:454] proposal <- rpn_bbox_pred
I0729 02:18:29.862903 23237 net.cpp:454] proposal <- im_info
I0729 02:18:29.862912 23237 net.cpp:411] proposal -> rois
I0729 02:18:29.863926 23237 net.cpp:150] Setting up proposal
I0729 02:18:29.863955 23237 net.cpp:157] Top shape: 1 5 (5)
I0729 02:18:29.863961 23237 net.cpp:165] Memory required for data: 116979092
I0729 02:18:29.863967 23237 layer_factory.hpp:77] Creating layer roi_pool5
I0729 02:18:29.863981 23237 net.cpp:106] Creating Layer roi_pool5
I0729 02:18:29.863988 23237 net.cpp:454] roi_pool5 <- conv5_3_relu5_3_0_split_1
I0729 02:18:29.863996 23237 net.cpp:454] roi_pool5 <- rois
I0729 02:18:29.864004 23237 net.cpp:411] roi_pool5 -> pool5
I0729 02:18:29.864022 23237 roi_pooling_layer.cpp:30] Spatial scale: 0.0625
I0729 02:18:29.864116 23237 net.cpp:150] Setting up roi_pool5
I0729 02:18:29.864128 23237 net.cpp:157] Top shape: 1 512 7 7 (25088)
I0729 02:18:29.864135 23237 net.cpp:165] Memory required for data: 117079444
I0729 02:18:29.864140 23237 layer_factory.hpp:77] Creating layer fc6
I0729 02:18:29.864156 23237 net.cpp:106] Creating Layer fc6
I0729 02:18:29.864162 23237 net.cpp:454] fc6 <- pool5
I0729 02:18:29.864171 23237 net.cpp:411] fc6 -> fc6
I0729 02:18:30.155022 23237 net.cpp:150] Setting up fc6
I0729 02:18:30.155088 23237 net.cpp:157] Top shape: 1 4096 (4096)
I0729 02:18:30.155095 23237 net.cpp:165] Memory required for data: 117095828
I0729 02:18:30.155123 23237 layer_factory.hpp:77] Creating layer relu6
I0729 02:18:30.155143 23237 net.cpp:106] Creating Layer relu6
I0729 02:18:30.155150 23237 net.cpp:454] relu6 <- fc6
I0729 02:18:30.155158 23237 net.cpp:397] relu6 -> fc6 (in-place)
I0729 02:18:30.156366 23237 net.cpp:150] Setting up relu6
I0729 02:18:30.156391 23237 net.cpp:157] Top shape: 1 4096 (4096)
I0729 02:18:30.156399 23237 net.cpp:165] Memory required for data: 117112212
I0729 02:18:30.156406 23237 layer_factory.hpp:77] Creating layer drop6
I0729 02:18:30.156428 23237 net.cpp:106] Creating Layer drop6
I0729 02:18:30.156435 23237 net.cpp:454] drop6 <- fc6
I0729 02:18:30.156446 23237 net.cpp:397] drop6 -> fc6 (in-place)
I0729 02:18:30.156502 23237 net.cpp:150] Setting up drop6
I0729 02:18:30.156518 23237 net.cpp:157] Top shape: 1 4096 (4096)
I0729 02:18:30.156524 23237 net.cpp:165] Memory required for data: 117128596
I0729 02:18:30.156530 23237 layer_factory.hpp:77] Creating layer fc7
I0729 02:18:30.156540 23237 net.cpp:106] Creating Layer fc7
I0729 02:18:30.156546 23237 net.cpp:454] fc7 <- fc6
I0729 02:18:30.156554 23237 net.cpp:411] fc7 -> fc7
I0729 02:18:30.201970 23237 net.cpp:150] Setting up fc7
I0729 02:18:30.202035 23237 net.cpp:157] Top shape: 1 4096 (4096)
I0729 02:18:30.202042 23237 net.cpp:165] Memory required for data: 117144980
I0729 02:18:30.202056 23237 layer_factory.hpp:77] Creating layer relu7
I0729 02:18:30.202074 23237 net.cpp:106] Creating Layer relu7
I0729 02:18:30.202085 23237 net.cpp:454] relu7 <- fc7
I0729 02:18:30.202095 23237 net.cpp:397] relu7 -> fc7 (in-place)
I0729 02:18:30.202462 23237 net.cpp:150] Setting up relu7
I0729 02:18:30.202477 23237 net.cpp:157] Top shape: 1 4096 (4096)
I0729 02:18:30.202484 23237 net.cpp:165] Memory required for data: 117161364
I0729 02:18:30.202489 23237 layer_factory.hpp:77] Creating layer drop7
I0729 02:18:30.202510 23237 net.cpp:106] Creating Layer drop7
I0729 02:18:30.202518 23237 net.cpp:454] drop7 <- fc7
I0729 02:18:30.202525 23237 net.cpp:397] drop7 -> fc7 (in-place)
I0729 02:18:30.202579 23237 net.cpp:150] Setting up drop7
I0729 02:18:30.202590 23237 net.cpp:157] Top shape: 1 4096 (4096)
I0729 02:18:30.202595 23237 net.cpp:165] Memory required for data: 117177748
I0729 02:18:30.202601 23237 layer_factory.hpp:77] Creating layer fc7_drop7_0_split
I0729 02:18:30.202610 23237 net.cpp:106] Creating Layer fc7_drop7_0_split
I0729 02:18:30.202615 23237 net.cpp:454] fc7_drop7_0_split <- fc7
I0729 02:18:30.202626 23237 net.cpp:411] fc7_drop7_0_split -> fc7_drop7_0_split_0
I0729 02:18:30.202636 23237 net.cpp:411] fc7_drop7_0_split -> fc7_drop7_0_split_1
I0729 02:18:30.202711 23237 net.cpp:150] Setting up fc7_drop7_0_split
I0729 02:18:30.202725 23237 net.cpp:157] Top shape: 1 4096 (4096)
I0729 02:18:30.202733 23237 net.cpp:157] Top shape: 1 4096 (4096)
I0729 02:18:30.202739 23237 net.cpp:165] Memory required for data: 117210516
I0729 02:18:30.202744 23237 layer_factory.hpp:77] Creating layer cls_score
I0729 02:18:30.202754 23237 net.cpp:106] Creating Layer cls_score
I0729 02:18:30.202761 23237 net.cpp:454] cls_score <- fc7_drop7_0_split_0
I0729 02:18:30.202774 23237 net.cpp:411] cls_score -> cls_score
I0729 02:18:30.205781 23237 net.cpp:150] Setting up cls_score
I0729 02:18:30.205806 23237 net.cpp:157] Top shape: 1 21 (21)
I0729 02:18:30.205812 23237 net.cpp:165] Memory required for data: 117210600
I0729 02:18:30.205822 23237 layer_factory.hpp:77] Creating layer bbox_pred
I0729 02:18:30.205837 23237 net.cpp:106] Creating Layer bbox_pred
I0729 02:18:30.205844 23237 net.cpp:454] bbox_pred <- fc7_drop7_0_split_1
I0729 02:18:30.205854 23237 net.cpp:411] bbox_pred -> bbox_pred
I0729 02:18:30.214792 23237 net.cpp:150] Setting up bbox_pred
I0729 02:18:30.214815 23237 net.cpp:157] Top shape: 1 84 (84)
I0729 02:18:30.214823 23237 net.cpp:165] Memory required for data: 117210936
I0729 02:18:30.214833 23237 layer_factory.hpp:77] Creating layer cls_prob
I0729 02:18:30.214843 23237 net.cpp:106] Creating Layer cls_prob
I0729 02:18:30.214848 23237 net.cpp:454] cls_prob <- cls_score
I0729 02:18:30.214855 23237 net.cpp:411] cls_prob -> cls_prob
I0729 02:18:30.215932 23237 net.cpp:150] Setting up cls_prob
I0729 02:18:30.215960 23237 net.cpp:157] Top shape: 1 21 (21)
I0729 02:18:30.215967 23237 net.cpp:165] Memory required for data: 117211020
I0729 02:18:30.215973 23237 net.cpp:228] cls_prob does not need backward computation.
I0729 02:18:30.215978 23237 net.cpp:228] bbox_pred does not need backward computation.
I0729 02:18:30.215983 23237 net.cpp:228] cls_score does not need backward computation.
I0729 02:18:30.215988 23237 net.cpp:228] fc7_drop7_0_split does not need backward computation.
…
