…
stepsize: 50000
snapshot: 0
snapshot_prefix: "fpn"
average_loss: 100
iter_size: 2
I0628 16:02:08.795466 19328 solver.cpp:81] Creating training net from train_net file: models/pascal_voc/VGG16/FP_Net_end2end/train.prototxt
I0628 16:02:08.796855 19328 net.cpp:49] Initializing net from parameters: 
name: "VGG_ILSVRC_16_layers"
state {
  phase: TRAIN
}
layer {
  name: "input-data"
  type: "Python"
  top: "data"
  top: "im_info"
  top: "gt_boxes"
  python_param {
    module: "roi_data_layer.layer"
    layer: "RoIDataLayer"
    param_str: "\'num_classes\': 21"
  }
}
layer {
  name: "conv1_1"
  type: "Convolution"
  bottom: "data"
  top: "conv1_1"
  param {
    lr_mult: 0
    decay_mult: 0
  }
  param {
    lr_mult: 0
    decay_mult: 0
  }
  convolution_param {
    num_output: 64
    pad: 1
    kernel_size: 3
  }
}
layer {
  name: "relu1_1"
  type: "ReLU"
  bottom: "conv1_1"
  top: "conv1_1"
}
layer {
  name: "conv1_2"
  type: "Convolution"
  bottom: "conv1_1"
  top: "conv1_2"
  param {
    lr_mult: 0
    decay_mult: 0
  }
  param {
    lr_mult: 0
    decay_mult: 0
  }
  convolution_param {
    num_output: 64
    pad: 1
    kernel_size: 3
  }
}
layer {
  name: "relu1_2"
  type: "ReLU"
  bottom: "conv1_2"
  top: "conv1_2"
}
layer {
  name: "pool1"
  type: "Pooling"
  bottom: "conv1_2"
  top: "pool1"
  pooling_param {
    pool: MAX
    kernel_size: 2
    stride: 2
  }
}
layer {
  name: "conv2_1"
  type: "Convolution"
  bottom: "pool1"
  top: "conv2_1"
  param {
    lr_mult: 0
    decay_mult: 0
  }
  param {
    lr_mult: 0
    decay_mult: 0
  }
  convolution_param {
    num_output: 128
    pad: 1
    kernel_size: 3
  }
}
layer {
  name: "relu2_1"
  type: "ReLU"
  bottom: "conv2_1"
  top: "conv2_1"
}
layer {
  name: "conv2_2"
  type: "Convolution"
  bottom: "conv2_1"
  top: "conv2_2"
  param {
    lr_mult: 0
    decay_mult: 0
  }
  param {
    lr_mult: 0
    decay_mult: 0
  }
  convolution_param {
    num_output: 128
    pad: 1
    kernel_size: 3
  }
}
layer {
  name: "relu2_2"
  type: "ReLU"
  bottom: "conv2_2"
  top: "conv2_2"
}
layer {
  name: "pool2"
  type: "Pooling"
  bottom: "conv2_2"
  top: "pool2"
  pooling_param {
    pool: MAX
    kernel_size: 2
    stride: 2
  }
}
layer {
  name: "conv3_1"
  type: "Convolution"
  bottom: "pool2"
  top: "conv3_1"
  param {
    lr_mult: 1
  }
  param {
    lr_mult: 2
  }
  convolution_param {
    num_output: 256
    pad: 1
    kernel_size: 3
  }
}
layer {
  name: "relu3_1"
  type: "ReLU"
  bottom: "conv3_1"
  top: "conv3_1"
}
layer {
  name: "conv3_2"
  type: "Convolution"
  bottom: "conv3_1"
  top: "conv3_2"
  param {
    lr_mult: 1
  }
  param {
    lr_mult: 2
  }
  convolution_param {
    num_output: 256
    pad: 1
    kernel_size: 3
  }
}
layer {
  name: "relu3_2"
  type: "ReLU"
  bottom: "conv3_2"
  top: "conv3_2"
}
layer {
  name: "conv3_3"
  type: "Convolution"
  bottom: "conv3_2"
  top: "conv3_3"
  param {
    lr_mult: 1
  }
  param {
    lr_mult: 2
  }
  convolution_param {
    num_output: 256
    pad: 1
    kernel_size: 3
  }
}
layer {
  name: "relu3_3"
  type: "ReLU"
  bottom: "conv3_3"
  top: "conv3_3"
}
layer {
  name: "pool3"
  type: "Pooling"
  bottom: "conv3_3"
  top: "pool3"
  pooling_param {
    pool: MAX
    kernel_size: 2
    stride: 2
  }
}
layer {
  name: "conv4_1"
  type: "Convolution"
  bottom: "pool3"
  top: "conv4_1"
  param {
    lr_mult: 1
  }
  param {
    lr_mult: 2
  }
  convolution_param {
    num_output: 512
    pad: 1
    kernel_size: 3
  }
}
layer {
  name: "relu4_1"
  type: "ReLU"
  bottom: "conv4_1"
  top: "conv4_1"
}
layer {
  name: "conv4_2"
  type: "Convolution"
  bottom: "conv4_1"
  top: "conv4_2"
  param {
    lr_mult: 1
  }
  param {
    lr_mult: 2
  }
  convolution_param {
    num_output: 512
    pad: 1
    kernel_size: 3
  }
}
layer {
  name: "relu4_2"
  type: "ReLU"
  bottom: "conv4_2"
  top: "conv4_2"
}
layer {
  name: "conv4_3"
  type: "Convolution"
  bottom: "conv4_2"
  top: "conv4_3"
  param {
    lr_mult: 1
  }
  param {
    lr_mult: 2
  }
  convolution_param {
    num_output: 512
    pad: 1
    kernel_size: 3
  }
}
layer {
  name: "relu4_3"
  type: "ReLU"
  bottom: "conv4_3"
  top: "conv4_3"
}
layer {
  name: "pool4"
  type: "Pooling"
  bottom: "conv4_3"
  top: "pool4"
  pooling_param {
    pool: MAX
    kernel_size: 2
    stride: 2
  }
}
layer {
  name: "conv5_1"
  type: "Convolution"
  bottom: "pool4"
  top: "conv5_1"
  param {
    lr_mult: 1
  }
  param {
    lr_mult: 2
  }
  convolution_param {
    num_output: 512
    pad: 1
    kernel_size: 3
  }
}
layer {
  name: "relu5_1"
  type: "ReLU"
  bottom: "conv5_1"
  top: "conv5_1"
}
layer {
  name: "conv5_2"
  type: "Convolution"
  bottom: "conv5_1"
  top: "conv5_2"
  param {
    lr_mult: 1
  }
  param {
    lr_mult: 2
  }
  convolution_param {
    num_output: 512
    pad: 1
    kernel_size: 3
  }
}
layer {
  name: "relu5_2"
  type: "ReLU"
  bottom: "conv5_2"
  top: "conv5_2"
}
layer {
  name: "conv5_3"
  type: "Convolution"
  bottom: "conv5_2"
  top: "conv5_3"
  param {
    lr_mult: 1
  }
  param {
    lr_mult: 2
  }
  convolution_param {
    num_output: 512
    pad: 1
    kernel_size: 3
  }
}
layer {
  name: "relu5_3"
  type: "ReLU"
  bottom: "conv5_3"
  top: "conv5_3"
}
layer {
  name: "pool5"
  type: "Pooling"
  bottom: "conv5_3"
  top: "pool5"
  pooling_param {
    pool: MAX
    kernel_size: 2
    stride: 2
  }
}
layer {
  name: "P5"
  type: "Convolution"
  bottom: "pool5"
  top: "P5"
  param {
    lr_mult: 1
  }
  param {
    lr_mult: 2
  }
  convolution_param {
    num_output: 256
    kernel_size: 1
    weight_filler {
      type: "xavier"
    }
    bias_filler {
      type: "constant"
    }
  }
}
layer {
  name: "upP5"
  type: "Deconvolution"
  bottom: "P5"
  top: "upP5"
  param {
    lr_mult: 0
    decay_mult: 0
  }
  convolution_param {
    num_output: 256
    bias_term: false
    pad: 1
    kernel_size: 4
    stride: 2
    weight_filler {
      type: "bilinear"
    }
  }
}
layer {
  name: "newC4"
  type: "Convolution"
  bottom: "conv5_3"
  top: "newC4"
  param {
    lr_mult: 1
  }
  param {
    lr_mult: 2
  }
  convolution_param {
    num_output: 256
    kernel_size: 1
    weight_filler {
      type: "xavier"
    }
    bias_filler {
      type: "constant"
    }
  }
}
layer {
  name: "upP5crop"
  type: "Crop"
  bottom: "upP5"
  bottom: "newC4"
  top: "upP5crop"
  crop_param {
    axis: 2
    offset: 0
  }
}
layer {
  name: "P4"
  type: "Eltwise"
  bottom: "newC4"
  bottom: "upP5crop"
  top: "P4"
  eltwise_param {
    operation: SUM
  }
}
layer {
  name: "newP4"
  type: "Convolution"
  bottom: "P4"
  top: "newP4"
  param {
    lr_mult: 1
  }
  param {
    lr_mult: 2
  }
  convolution_param {
    num_output: 256
    pad: 1
    kernel_size: 3
    weight_filler {
      type: "xavier"
    }
    bias_filler {
      type: "constant"
    }
  }
}
layer {
  name: "rpn_conv/3x3"
  type: "Convolution"
  bottom: "newP4"
  top: "rpn/output"
  param {
    lr_mult: 1
  }
  param {
    lr_mult: 2
  }
  convolution_param {
    num_output: 512
    pad: 1
    kernel_size: 3
    stride: 1
    weight_filler {
      type: "gaussian"
      std: 0.01
    }
    bias_filler {
      type: "constant"
      value: 0
    }
  }
}
layer {
  name: "rpn_relu/3x3"
  type: "ReLU"
  bottom: "rpn/output"
  top: "rpn/output"
}
layer {
  name: "rpn_cls_score"
  type: "Convolution"
  bottom: "rpn/output"
  top: "rpn_cls_score"
  param {
    lr_mult: 1
  }
  param {
    lr_mult: 2
  }
  convolution_param {
    num_output: 18
    pad: 0
    kernel_size: 1
    stride: 1
    weight_filler {
      type: "gaussian"
      std: 0.01
    }
    bias_filler {
      type: "constant"
      value: 0
    }
  }
}
layer {
  name: "rpn_bbox_pred"
  type: "Convolution"
  bottom: "rpn/output"
  top: "rpn_bbox_pred"
  param {
    lr_mult: 1
  }
  param {
    lr_mult: 2
  }
  convolution_param {
    num_output: 36
    pad: 0
    kernel_size: 1
    stride: 1
    weight_filler {
      type: "gaussian"
      std: 0.01
    }
    bias_filler {
      type: "constant"
      value: 0
    }
  }
}
layer {
  name: "rpn_cls_score_reshape"
  type: "Reshape"
  bottom: "rpn_cls_score"
  top: "rpn_cls_score_reshape"
  reshape_param {
    shape {
      dim: 0
      dim: 2
      dim: -1
      dim: 0
    }
  }
}
layer {
  name: "rpn-data"
  type: "Python"
  bottom: "rpn_cls_score"
  bottom: "gt_boxes"
  bottom: "im_info"
  bottom: "data"
  top: "rpn_labels"
  top: "rpn_bbox_targets"
  top: "rpn_bbox_inside_weights"
  top: "rpn_bbox_outside_weights"
  python_param {
    module: "rpn.anchor_target_layer"
    layer: "AnchorTargetLayer"
    param_str: "\'feat_stride\': 4"
  }
}
layer {
  name: "rpn_loss_cls"
  type: "SoftmaxWithLoss"
  bottom: "rpn_cls_score_reshape"
  bottom: "rpn_labels"
  top: "rpn_cls_loss"
  loss_weight: 1
  propagate_down: true
  propagate_down: false
  loss_param {
    ignore_label: -1
    normalize: true
  }
}
layer {
  name: "rpn_loss_bbox"
  type: "SmoothL1Loss"
  bottom: "rpn_bbox_pred"
  bottom: "rpn_bbox_targets"
  bottom: "rpn_bbox_inside_weights"
  bottom: "rpn_bbox_outside_weights"
  top: "rpn_loss_bbox"
  loss_weight: 1
  smooth_l1_loss_param {
    sigma: 3
  }
}
layer {
  name: "rpn_cls_prob"
  type: "Softmax"
  bottom: "rpn_cls_score_reshape"
  top: "rpn_cls_prob"
}
layer {
  name: "rpn_cls_prob_reshape"
  type: "Reshape"
  bottom: "rpn_cls_prob"
  top: "rpn_cls_prob_reshape"
  reshape_param {
    shape {
      dim: 0
      dim: 18
      dim: -1
      dim: 0
    }
  }
}
layer {
  name: "proposal"
  type: "Python"
  bottom: "rpn_cls_prob_reshape"
  bottom: "rpn_bbox_pred"
  bottom: "im_info"
  top: "rpn_rois"
  python_param {
    module: "rpn.proposal_layer"
    layer: "ProposalLayer"
    param_str: "\'feat_stride\': 4"
  }
}
layer {
  name: "roi-data"
  type: "Python"
  bottom: "rpn_rois"
  bottom: "gt_boxes"
  top: "rois"
  top: "labels"
  top: "bbox_targets"
  top: "bbox_inside_weights"
  top: "bbox_outside_weights"
  python_param {
    module: "rpn.proposal_target_layer"
    layer: "ProposalTargetLayer"
    param_str: "\'num_classes\': 21"
  }
}
layer {
  name: "roi_pool5"
  type: "ROIPooling"
  bottom: "newP4"
  bottom: "rois"
  top: "rcnn_pool5"
  roi_pooling_param {
    pooled_h: 7
    pooled_w: 7
    spatial_scale: 0.25
  }
}
layer {
  name: "rcnn_fc6"
  type: "InnerProduct"
  bottom: "rcnn_pool5"
  top: "rcnn_fc6"
  param {
    lr_mult: 1
  }
  param {
    lr_mult: 2
  }
  inner_product_param {
    num_output: 4096
    weight_filler {
      type: "xavier"
    }
    bias_filler {
      type: "constant"
    }
  }
}
layer {
  name: "relu6"
  type: "ReLU"
  bottom: "rcnn_fc6"
  top: "rcnn_fc6"
}
layer {
  name: "drop6"
  type: "Dropout"
  bottom: "rcnn_fc6"
  top: "rcnn_fc6"
  dropout_param {
    dropout_ratio: 0.5
  }
}
layer {
  name: "fc7"
  type: "InnerProduct"
  bottom: "rcnn_fc6"
  top: "fc7"
  param {
    lr_mult: 1
  }
  param {
    lr_mult: 2
  }
  inner_product_param {
    num_output: 4096
    weight_filler {
      type: "xavier"
    }
    bias_filler {
      type: "constant"
    }
  }
}
layer {
  name: "relu7"
  type: "ReLU"
  bottom: "fc7"
  top: "fc7"
}
layer {
  name: "drop7"
  type: "Dropout"
  bottom: "fc7"
  top: "fc7"
  dropout_param {
    dropout_ratio: 0.5
  }
}
layer {
  name: "cls_score"
  type: "InnerProduct"
  bottom: "fc7"
  top: "cls_score"
  param {
    lr_mult: 1
  }
  param {
    lr_mult: 2
  }
  inner_product_param {
    num_output: 21
    weight_filler {
      type: "gaussian"
      std: 0.01
    }
    bias_filler {
      type: "constant"
      value: 0
    }
  }
}
layer {
  name: "bbox_pred"
  type: "InnerProduct"
  bottom: "fc7"
  top: "bbox_pred"
  param {
    lr_mult: 1
  }
  param {
    lr_mult: 2
  }
  inner_product_param {
    num_output: 84
    weight_filler {
      type: "gaussian"
      std: 0.001
    }
    bias_filler {
      type: "constant"
      value: 0
    }
  }
}
layer {
  name: "loss_cls"
  type: "SoftmaxWithLoss"
  bottom: "cls_score"
  bottom: "labels"
  top: "loss_cls"
  loss_weight: 1
  propagate_down: true
  propagate_down: false
}
layer {
  name: "loss_bbox"
  type: "SmoothL1Loss"
  bottom: "bbox_pred"
  bottom: "bbox_targets"
  bottom: "bbox_inside_weights"
  bottom: "bbox_outside_weights"
  top: "loss_bbox"
  loss_weight: 1
}
I0628 16:02:08.797166 19328 layer_factory.hpp:77] Creating layer input-data
I0628 16:02:08.798590 19328 net.cpp:106] Creating Layer input-data
I0628 16:02:08.798616 19328 net.cpp:411] input-data -> data
I0628 16:02:08.798635 19328 net.cpp:411] input-data -> im_info
I0628 16:02:08.798673 19328 net.cpp:411] input-data -> gt_boxes
RoiDataLayer: name_to_top: {'gt_boxes': 2, 'data': 0, 'im_info': 1}
I0628 16:02:08.945940 19328 net.cpp:150] Setting up input-data
I0628 16:02:08.946000 19328 net.cpp:157] Top shape: 1 3 600 1000 (1800000)
I0628 16:02:08.946027 19328 net.cpp:157] Top shape: 1 3 (3)
I0628 16:02:08.946041 19328 net.cpp:157] Top shape: 1 4 (4)
I0628 16:02:08.946053 19328 net.cpp:165] Memory required for data: 7200028
I0628 16:02:08.946070 19328 layer_factory.hpp:77] Creating layer data_input-data_0_split
I0628 16:02:08.946096 19328 net.cpp:106] Creating Layer data_input-data_0_split
I0628 16:02:08.946115 19328 net.cpp:454] data_input-data_0_split <- data
I0628 16:02:08.946136 19328 net.cpp:411] data_input-data_0_split -> data_input-data_0_split_0
I0628 16:02:08.946156 19328 net.cpp:411] data_input-data_0_split -> data_input-data_0_split_1
I0628 16:02:08.946231 19328 net.cpp:150] Setting up data_input-data_0_split
I0628 16:02:08.946259 19328 net.cpp:157] Top shape: 1 3 600 1000 (1800000)
I0628 16:02:08.946275 19328 net.cpp:157] Top shape: 1 3 600 1000 (1800000)
I0628 16:02:08.946292 19328 net.cpp:165] Memory required for data: 21600028
I0628 16:02:08.946310 19328 layer_factory.hpp:77] Creating layer im_info_input-data_1_split
I0628 16:02:08.946331 19328 net.cpp:106] Creating Layer im_info_input-data_1_split
I0628 16:02:08.946349 19328 net.cpp:454] im_info_input-data_1_split <- im_info
I0628 16:02:08.946372 19328 net.cpp:411] im_info_input-data_1_split -> im_info_input-data_1_split_0
I0628 16:02:08.946393 19328 net.cpp:411] im_info_input-data_1_split -> im_info_input-data_1_split_1
I0628 16:02:08.946467 19328 net.cpp:150] Setting up im_info_input-data_1_split
I0628 16:02:08.946492 19328 net.cpp:157] Top shape: 1 3 (3)
I0628 16:02:08.946507 19328 net.cpp:157] Top shape: 1 3 (3)
I0628 16:02:08.946524 19328 net.cpp:165] Memory required for data: 21600052
I0628 16:02:08.946542 19328 layer_factory.hpp:77] Creating layer gt_boxes_input-data_2_split
I0628 16:02:08.946560 19328 net.cpp:106] Creating Layer gt_boxes_input-data_2_split
I0628 16:02:08.946578 19328 net.cpp:454] gt_boxes_input-data_2_split <- gt_boxes
I0628 16:02:08.946595 19328 net.cpp:411] gt_boxes_input-data_2_split -> gt_boxes_input-data_2_split_0
I0628 16:02:08.946616 19328 net.cpp:411] gt_boxes_input-data_2_split -> gt_boxes_input-data_2_split_1
I0628 16:02:08.946688 19328 net.cpp:150] Setting up gt_boxes_input-data_2_split
I0628 16:02:08.946712 19328 net.cpp:157] Top shape: 1 4 (4)
I0628 16:02:08.946727 19328 net.cpp:157] Top shape: 1 4 (4)
I0628 16:02:08.946740 19328 net.cpp:165] Memory required for data: 21600084
I0628 16:02:08.946756 19328 layer_factory.hpp:77] Creating layer conv1_1
I0628 16:02:08.946811 19328 net.cpp:106] Creating Layer conv1_1
I0628 16:02:08.946833 19328 net.cpp:454] conv1_1 <- data_input-data_0_split_0
I0628 16:02:08.946863 19328 net.cpp:411] conv1_1 -> conv1_1
I0628 16:02:09.490733 19328 net.cpp:150] Setting up conv1_1
I0628 16:02:09.490799 19328 net.cpp:157] Top shape: 1 64 600 1000 (38400000)
I0628 16:02:09.490805 19328 net.cpp:165] Memory required for data: 175200084
I0628 16:02:09.490826 19328 layer_factory.hpp:77] Creating layer relu1_1
I0628 16:02:09.490844 19328 net.cpp:106] Creating Layer relu1_1
I0628 16:02:09.490849 19328 net.cpp:454] relu1_1 <- conv1_1
I0628 16:02:09.490856 19328 net.cpp:397] relu1_1 -> conv1_1 (in-place)
I0628 16:02:09.493252 19328 net.cpp:150] Setting up relu1_1
I0628 16:02:09.493274 19328 net.cpp:157] Top shape: 1 64 600 1000 (38400000)
I0628 16:02:09.493278 19328 net.cpp:165] Memory required for data: 328800084
I0628 16:02:09.493283 19328 layer_factory.hpp:77] Creating layer conv1_2
I0628 16:02:09.493294 19328 net.cpp:106] Creating Layer conv1_2
I0628 16:02:09.493296 19328 net.cpp:454] conv1_2 <- conv1_1
I0628 16:02:09.493302 19328 net.cpp:411] conv1_2 -> conv1_2
I0628 16:02:09.506212 19328 net.cpp:150] Setting up conv1_2
I0628 16:02:09.506270 19328 net.cpp:157] Top shape: 1 64 600 1000 (38400000)
I0628 16:02:09.506275 19328 net.cpp:165] Memory required for data: 482400084
I0628 16:02:09.506292 19328 layer_factory.hpp:77] Creating layer relu1_2
I0628 16:02:09.506305 19328 net.cpp:106] Creating Layer relu1_2
I0628 16:02:09.506319 19328 net.cpp:454] relu1_2 <- conv1_2
I0628 16:02:09.506326 19328 net.cpp:397] relu1_2 -> conv1_2 (in-place)
I0628 16:02:09.507220 19328 net.cpp:150] Setting up relu1_2
I0628 16:02:09.507238 19328 net.cpp:157] Top shape: 1 64 600 1000 (38400000)
I0628 16:02:09.507242 19328 net.cpp:165] Memory required for data: 636000084
I0628 16:02:09.507246 19328 layer_factory.hpp:77] Creating layer pool1
I0628 16:02:09.507266 19328 net.cpp:106] Creating Layer pool1
I0628 16:02:09.507272 19328 net.cpp:454] pool1 <- conv1_2
I0628 16:02:09.507277 19328 net.cpp:411] pool1 -> pool1
I0628 16:02:09.507354 19328 net.cpp:150] Setting up pool1
I0628 16:02:09.507367 19328 net.cpp:157] Top shape: 1 64 300 500 (9600000)
I0628 16:02:09.507371 19328 net.cpp:165] Memory required for data: 674400084
I0628 16:02:09.507375 19328 layer_factory.hpp:77] Creating layer conv2_1
I0628 16:02:09.507385 19328 net.cpp:106] Creating Layer conv2_1
I0628 16:02:09.507390 19328 net.cpp:454] conv2_1 <- pool1
I0628 16:02:09.507397 19328 net.cpp:411] conv2_1 -> conv2_1
I0628 16:02:09.519827 19328 net.cpp:150] Setting up conv2_1
I0628 16:02:09.519852 19328 net.cpp:157] Top shape: 1 128 300 500 (19200000)
I0628 16:02:09.519856 19328 net.cpp:165] Memory required for data: 751200084
I0628 16:02:09.519866 19328 layer_factory.hpp:77] Creating layer relu2_1
I0628 16:02:09.519876 19328 net.cpp:106] Creating Layer relu2_1
I0628 16:02:09.519881 19328 net.cpp:454] relu2_1 <- conv2_1
I0628 16:02:09.519886 19328 net.cpp:397] relu2_1 -> conv2_1 (in-place)
I0628 16:02:09.522516 19328 net.cpp:150] Setting up relu2_1
I0628 16:02:09.522532 19328 net.cpp:157] Top shape: 1 128 300 500 (19200000)
I0628 16:02:09.522536 19328 net.cpp:165] Memory required for data: 828000084
I0628 16:02:09.522541 19328 layer_factory.hpp:77] Creating layer conv2_2
I0628 16:02:09.522548 19328 net.cpp:106] Creating Layer conv2_2
I0628 16:02:09.522553 19328 net.cpp:454] conv2_2 <- conv2_1
I0628 16:02:09.522560 19328 net.cpp:411] conv2_2 -> conv2_2
I0628 16:02:09.535336 19328 net.cpp:150] Setting up conv2_2
I0628 16:02:09.535360 19328 net.cpp:157] Top shape: 1 128 300 500 (19200000)
I0628 16:02:09.535364 19328 net.cpp:165] Memory required for data: 904800084
I0628 16:02:09.535372 19328 layer_factory.hpp:77] Creating layer relu2_2
I0628 16:02:09.535380 19328 net.cpp:106] Creating Layer relu2_2
I0628 16:02:09.535384 19328 net.cpp:454] relu2_2 <- conv2_2
I0628 16:02:09.535392 19328 net.cpp:397] relu2_2 -> conv2_2 (in-place)
I0628 16:02:09.537667 19328 net.cpp:150] Setting up relu2_2
I0628 16:02:09.537688 19328 net.cpp:157] Top shape: 1 128 300 500 (19200000)
I0628 16:02:09.537691 19328 net.cpp:165] Memory required for data: 981600084
I0628 16:02:09.537695 19328 layer_factory.hpp:77] Creating layer pool2
I0628 16:02:09.537704 19328 net.cpp:106] Creating Layer pool2
I0628 16:02:09.537710 19328 net.cpp:454] pool2 <- conv2_2
I0628 16:02:09.537715 19328 net.cpp:411] pool2 -> pool2
I0628 16:02:09.537784 19328 net.cpp:150] Setting up pool2
I0628 16:02:09.537797 19328 net.cpp:157] Top shape: 1 128 150 250 (4800000)
I0628 16:02:09.537801 19328 net.cpp:165] Memory required for data: 1000800084
I0628 16:02:09.537803 19328 layer_factory.hpp:77] Creating layer conv3_1
I0628 16:02:09.537812 19328 net.cpp:106] Creating Layer conv3_1
I0628 16:02:09.537817 19328 net.cpp:454] conv3_1 <- pool2
I0628 16:02:09.537822 19328 net.cpp:411] conv3_1 -> conv3_1
I0628 16:02:09.550180 19328 net.cpp:150] Setting up conv3_1
I0628 16:02:09.550205 19328 net.cpp:157] Top shape: 1 256 150 250 (9600000)
I0628 16:02:09.550209 19328 net.cpp:165] Memory required for data: 1039200084
I0628 16:02:09.550220 19328 layer_factory.hpp:77] Creating layer relu3_1
I0628 16:02:09.550230 19328 net.cpp:106] Creating Layer relu3_1
I0628 16:02:09.550235 19328 net.cpp:454] relu3_1 <- conv3_1
I0628 16:02:09.550240 19328 net.cpp:397] relu3_1 -> conv3_1 (in-place)
I0628 16:02:09.554064 19328 net.cpp:150] Setting up relu3_1
I0628 16:02:09.554085 19328 net.cpp:157] Top shape: 1 256 150 250 (9600000)
I0628 16:02:09.554088 19328 net.cpp:165] Memory required for data: 1077600084
I0628 16:02:09.554092 19328 layer_factory.hpp:77] Creating layer conv3_2
I0628 16:02:09.554106 19328 net.cpp:106] Creating Layer conv3_2
I0628 16:02:09.554111 19328 net.cpp:454] conv3_2 <- conv3_1
I0628 16:02:09.554116 19328 net.cpp:411] conv3_2 -> conv3_2
I0628 16:02:09.566602 19328 net.cpp:150] Setting up conv3_2
I0628 16:02:09.566627 19328 net.cpp:157] Top shape: 1 256 150 250 (9600000)
I0628 16:02:09.566632 19328 net.cpp:165] Memory required for data: 1116000084
I0628 16:02:09.566638 19328 layer_factory.hpp:77] Creating layer relu3_2
I0628 16:02:09.566651 19328 net.cpp:106] Creating Layer relu3_2
I0628 16:02:09.566656 19328 net.cpp:454] relu3_2 <- conv3_2
I0628 16:02:09.566661 19328 net.cpp:397] relu3_2 -> conv3_2 (in-place)
I0628 16:02:09.569622 19328 net.cpp:150] Setting up relu3_2
I0628 16:02:09.569641 19328 net.cpp:157] Top shape: 1 256 150 250 (9600000)
I0628 16:02:09.569645 19328 net.cpp:165] Memory required for data: 1154400084
I0628 16:02:09.569648 19328 layer_factory.hpp:77] Creating layer conv3_3
I0628 16:02:09.569660 19328 net.cpp:106] Creating Layer conv3_3
I0628 16:02:09.569666 19328 net.cpp:454] conv3_3 <- conv3_2
I0628 16:02:09.569671 19328 net.cpp:411] conv3_3 -> conv3_3
I0628 16:02:09.581259 19328 net.cpp:150] Setting up conv3_3
I0628 16:02:09.581284 19328 net.cpp:157] Top shape: 1 256 150 250 (9600000)
I0628 16:02:09.581288 19328 net.cpp:165] Memory required for data: 1192800084
I0628 16:02:09.581295 19328 layer_factory.hpp:77] Creating layer relu3_3
I0628 16:02:09.581305 19328 net.cpp:106] Creating Layer relu3_3
I0628 16:02:09.581307 19328 net.cpp:454] relu3_3 <- conv3_3
I0628 16:02:09.581312 19328 net.cpp:397] relu3_3 -> conv3_3 (in-place)
I0628 16:02:09.585495 19328 net.cpp:150] Setting up relu3_3
I0628 16:02:09.585516 19328 net.cpp:157] Top shape: 1 256 150 250 (9600000)
I0628 16:02:09.585520 19328 net.cpp:165] Memory required for data: 1231200084
I0628 16:02:09.585523 19328 layer_factory.hpp:77] Creating layer pool3
I0628 16:02:09.585532 19328 net.cpp:106] Creating Layer pool3
I0628 16:02:09.585537 19328 net.cpp:454] pool3 <- conv3_3
I0628 16:02:09.585543 19328 net.cpp:411] pool3 -> pool3
I0628 16:02:09.585618 19328 net.cpp:150] Setting up pool3
I0628 16:02:09.585631 19328 net.cpp:157] Top shape: 1 256 75 125 (2400000)
I0628 16:02:09.585634 19328 net.cpp:165] Memory required for data: 1240800084
I0628 16:02:09.585638 19328 layer_factory.hpp:77] Creating layer conv4_1
I0628 16:02:09.585647 19328 net.cpp:106] Creating Layer conv4_1
I0628 16:02:09.585652 19328 net.cpp:454] conv4_1 <- pool3
I0628 16:02:09.585660 19328 net.cpp:411] conv4_1 -> conv4_1
I0628 16:02:09.600920 19328 net.cpp:150] Setting up conv4_1
I0628 16:02:09.600946 19328 net.cpp:157] Top shape: 1 512 75 125 (4800000)
I0628 16:02:09.600950 19328 net.cpp:165] Memory required for data: 1260000084
I0628 16:02:09.600957 19328 layer_factory.hpp:77] Creating layer relu4_1
I0628 16:02:09.600970 19328 net.cpp:106] Creating Layer relu4_1
I0628 16:02:09.600975 19328 net.cpp:454] relu4_1 <- conv4_1
I0628 16:02:09.600980 19328 net.cpp:397] relu4_1 -> conv4_1 (in-place)
I0628 16:02:09.603994 19328 net.cpp:150] Setting up relu4_1
I0628 16:02:09.604018 19328 net.cpp:157] Top shape: 1 512 75 125 (4800000)
I0628 16:02:09.604022 19328 net.cpp:165] Memory required for data: 1279200084
I0628 16:02:09.604027 19328 layer_factory.hpp:77] Creating layer conv4_2
I0628 16:02:09.604037 19328 net.cpp:106] Creating Layer conv4_2
I0628 16:02:09.604040 19328 net.cpp:454] conv4_2 <- conv4_1
I0628 16:02:09.604048 19328 net.cpp:411] conv4_2 -> conv4_2
I0628 16:02:09.616219 19328 net.cpp:150] Setting up conv4_2
I0628 16:02:09.616245 19328 net.cpp:157] Top shape: 1 512 75 125 (4800000)
I0628 16:02:09.616250 19328 net.cpp:165] Memory required for data: 1298400084
I0628 16:02:09.616262 19328 layer_factory.hpp:77] Creating layer relu4_2
I0628 16:02:09.616272 19328 net.cpp:106] Creating Layer relu4_2
I0628 16:02:09.616276 19328 net.cpp:454] relu4_2 <- conv4_2
I0628 16:02:09.616281 19328 net.cpp:397] relu4_2 -> conv4_2 (in-place)
I0628 16:02:09.619875 19328 net.cpp:150] Setting up relu4_2
I0628 16:02:09.619894 19328 net.cpp:157] Top shape: 1 512 75 125 (4800000)
I0628 16:02:09.619899 19328 net.cpp:165] Memory required for data: 1317600084
I0628 16:02:09.619902 19328 layer_factory.hpp:77] Creating layer conv4_3
I0628 16:02:09.619913 19328 net.cpp:106] Creating Layer conv4_3
I0628 16:02:09.619918 19328 net.cpp:454] conv4_3 <- conv4_2
I0628 16:02:09.619925 19328 net.cpp:411] conv4_3 -> conv4_3
I0628 16:02:09.632019 19328 net.cpp:150] Setting up conv4_3
I0628 16:02:09.632042 19328 net.cpp:157] Top shape: 1 512 75 125 (4800000)
I0628 16:02:09.632047 19328 net.cpp:165] Memory required for data: 1336800084
I0628 16:02:09.632053 19328 layer_factory.hpp:77] Creating layer relu4_3
I0628 16:02:09.632064 19328 net.cpp:106] Creating Layer relu4_3
I0628 16:02:09.632069 19328 net.cpp:454] relu4_3 <- conv4_3
I0628 16:02:09.632076 19328 net.cpp:397] relu4_3 -> conv4_3 (in-place)
I0628 16:02:09.636447 19328 net.cpp:150] Setting up relu4_3
I0628 16:02:09.636468 19328 net.cpp:157] Top shape: 1 512 75 125 (4800000)
I0628 16:02:09.636472 19328 net.cpp:165] Memory required for data: 1356000084
I0628 16:02:09.636476 19328 layer_factory.hpp:77] Creating layer pool4
I0628 16:02:09.636482 19328 net.cpp:106] Creating Layer pool4
I0628 16:02:09.636488 19328 net.cpp:454] pool4 <- conv4_3
I0628 16:02:09.636493 19328 net.cpp:411] pool4 -> pool4
I0628 16:02:09.636566 19328 net.cpp:150] Setting up pool4
I0628 16:02:09.636581 19328 net.cpp:157] Top shape: 1 512 38 63 (1225728)
I0628 16:02:09.636584 19328 net.cpp:165] Memory required for data: 1360902996
I0628 16:02:09.636587 19328 layer_factory.hpp:77] Creating layer conv5_1
I0628 16:02:09.636595 19328 net.cpp:106] Creating Layer conv5_1
I0628 16:02:09.636600 19328 net.cpp:454] conv5_1 <- pool4
I0628 16:02:09.636606 19328 net.cpp:411] conv5_1 -> conv5_1
I0628 16:02:09.648813 19328 net.cpp:150] Setting up conv5_1
I0628 16:02:09.648838 19328 net.cpp:157] Top shape: 1 512 38 63 (1225728)
I0628 16:02:09.648844 19328 net.cpp:165] Memory required for data: 1365805908
I0628 16:02:09.648849 19328 layer_factory.hpp:77] Creating layer relu5_1
I0628 16:02:09.648855 19328 net.cpp:106] Creating Layer relu5_1
I0628 16:02:09.648862 19328 net.cpp:454] relu5_1 <- conv5_1
I0628 16:02:09.648870 19328 net.cpp:397] relu5_1 -> conv5_1 (in-place)
I0628 16:02:09.650982 19328 net.cpp:150] Setting up relu5_1
I0628 16:02:09.651000 19328 net.cpp:157] Top shape: 1 512 38 63 (1225728)
I0628 16:02:09.651003 19328 net.cpp:165] Memory required for data: 1370708820
I0628 16:02:09.651007 19328 layer_factory.hpp:77] Creating layer conv5_2
I0628 16:02:09.651034 19328 net.cpp:106] Creating Layer conv5_2
I0628 16:02:09.651041 19328 net.cpp:454] conv5_2 <- conv5_1
I0628 16:02:09.651047 19328 net.cpp:411] conv5_2 -> conv5_2
I0628 16:02:09.661192 19328 net.cpp:150] Setting up conv5_2
I0628 16:02:09.661219 19328 net.cpp:157] Top shape: 1 512 38 63 (1225728)
I0628 16:02:09.661223 19328 net.cpp:165] Memory required for data: 1375611732
I0628 16:02:09.661231 19328 layer_factory.hpp:77] Creating layer relu5_2
I0628 16:02:09.661239 19328 net.cpp:106] Creating Layer relu5_2
I0628 16:02:09.661244 19328 net.cpp:454] relu5_2 <- conv5_2
I0628 16:02:09.661250 19328 net.cpp:397] relu5_2 -> conv5_2 (in-place)
I0628 16:02:09.663779 19328 net.cpp:150] Setting up relu5_2
I0628 16:02:09.663799 19328 net.cpp:157] Top shape: 1 512 38 63 (1225728)
I0628 16:02:09.663802 19328 net.cpp:165] Memory required for data: 1380514644
I0628 16:02:09.663805 19328 layer_factory.hpp:77] Creating layer conv5_3
I0628 16:02:09.663820 19328 net.cpp:106] Creating Layer conv5_3
I0628 16:02:09.663825 19328 net.cpp:454] conv5_3 <- conv5_2
I0628 16:02:09.663832 19328 net.cpp:411] conv5_3 -> conv5_3
I0628 16:02:09.673784 19328 net.cpp:150] Setting up conv5_3
I0628 16:02:09.673821 19328 net.cpp:157] Top shape: 1 512 38 63 (1225728)
I0628 16:02:09.673825 19328 net.cpp:165] Memory required for data: 1385417556
I0628 16:02:09.673833 19328 layer_factory.hpp:77] Creating layer relu5_3
I0628 16:02:09.673841 19328 net.cpp:106] Creating Layer relu5_3
I0628 16:02:09.673853 19328 net.cpp:454] relu5_3 <- conv5_3
I0628 16:02:09.673862 19328 net.cpp:397] relu5_3 -> conv5_3 (in-place)
I0628 16:02:09.675894 19328 net.cpp:150] Setting up relu5_3
I0628 16:02:09.675915 19328 net.cpp:157] Top shape: 1 512 38 63 (1225728)
I0628 16:02:09.675918 19328 net.cpp:165] Memory required for data: 1390320468
I0628 16:02:09.675922 19328 layer_factory.hpp:77] Creating layer conv5_3_relu5_3_0_split
I0628 16:02:09.675930 19328 net.cpp:106] Creating Layer conv5_3_relu5_3_0_split
I0628 16:02:09.675935 19328 net.cpp:454] conv5_3_relu5_3_0_split <- conv5_3
I0628 16:02:09.675941 19328 net.cpp:411] conv5_3_relu5_3_0_split -> conv5_3_relu5_3_0_split_0
I0628 16:02:09.675947 19328 net.cpp:411] conv5_3_relu5_3_0_split -> conv5_3_relu5_3_0_split_1
I0628 16:02:09.676018 19328 net.cpp:150] Setting up conv5_3_relu5_3_0_split
I0628 16:02:09.676036 19328 net.cpp:157] Top shape: 1 512 38 63 (1225728)
I0628 16:02:09.676041 19328 net.cpp:157] Top shape: 1 512 38 63 (1225728)
I0628 16:02:09.676043 19328 net.cpp:165] Memory required for data: 1400126292
I0628 16:02:09.676048 19328 layer_factory.hpp:77] Creating layer pool5
I0628 16:02:09.676056 19328 net.cpp:106] Creating Layer pool5
I0628 16:02:09.676061 19328 net.cpp:454] pool5 <- conv5_3_relu5_3_0_split_0
I0628 16:02:09.676066 19328 net.cpp:411] pool5 -> pool5
I0628 16:02:09.676127 19328 net.cpp:150] Setting up pool5
I0628 16:02:09.676136 19328 net.cpp:157] Top shape: 1 512 19 32 (311296)
I0628 16:02:09.676138 19328 net.cpp:165] Memory required for data: 1401371476
I0628 16:02:09.676141 19328 layer_factory.hpp:77] Creating layer P5
I0628 16:02:09.676154 19328 net.cpp:106] Creating Layer P5
I0628 16:02:09.676159 19328 net.cpp:454] P5 <- pool5
I0628 16:02:09.676167 19328 net.cpp:411] P5 -> P5
I0628 16:02:09.684150 19328 net.cpp:150] Setting up P5
I0628 16:02:09.684176 19328 net.cpp:157] Top shape: 1 256 19 32 (155648)
I0628 16:02:09.684181 19328 net.cpp:165] Memory required for data: 1401994068
I0628 16:02:09.684188 19328 layer_factory.hpp:77] Creating layer upP5
I0628 16:02:09.684207 19328 net.cpp:106] Creating Layer upP5
I0628 16:02:09.684213 19328 net.cpp:454] upP5 <- P5
I0628 16:02:09.684221 19328 net.cpp:411] upP5 -> upP5
I0628 16:02:09.710127 19328 net.cpp:150] Setting up upP5
I0628 16:02:09.710151 19328 net.cpp:157] Top shape: 1 256 38 64 (622592)
I0628 16:02:09.710155 19328 net.cpp:165] Memory required for data: 1404484436
I0628 16:02:09.710160 19328 layer_factory.hpp:77] Creating layer newC4
I0628 16:02:09.710177 19328 net.cpp:106] Creating Layer newC4
I0628 16:02:09.710185 19328 net.cpp:454] newC4 <- conv5_3_relu5_3_0_split_1
I0628 16:02:09.710191 19328 net.cpp:411] newC4 -> newC4
I0628 16:02:09.715220 19328 net.cpp:150] Setting up newC4
I0628 16:02:09.715245 19328 net.cpp:157] Top shape: 1 256 38 63 (612864)
I0628 16:02:09.715250 19328 net.cpp:165] Memory required for data: 1406935892
I0628 16:02:09.715256 19328 layer_factory.hpp:77] Creating layer newC4_newC4_0_split
I0628 16:02:09.715265 19328 net.cpp:106] Creating Layer newC4_newC4_0_split
I0628 16:02:09.715268 19328 net.cpp:454] newC4_newC4_0_split <- newC4
I0628 16:02:09.715275 19328 net.cpp:411] newC4_newC4_0_split -> newC4_newC4_0_split_0
I0628 16:02:09.715286 19328 net.cpp:411] newC4_newC4_0_split -> newC4_newC4_0_split_1
I0628 16:02:09.715356 19328 net.cpp:150] Setting up newC4_newC4_0_split
I0628 16:02:09.715369 19328 net.cpp:157] Top shape: 1 256 38 63 (612864)
I0628 16:02:09.715374 19328 net.cpp:157] Top shape: 1 256 38 63 (612864)
I0628 16:02:09.715378 19328 net.cpp:165] Memory required for data: 1411838804
I0628 16:02:09.715380 19328 layer_factory.hpp:77] Creating layer upP5crop
I0628 16:02:09.715390 19328 net.cpp:106] Creating Layer upP5crop
I0628 16:02:09.715394 19328 net.cpp:454] upP5crop <- upP5
I0628 16:02:09.715399 19328 net.cpp:454] upP5crop <- newC4_newC4_0_split_0
I0628 16:02:09.715404 19328 net.cpp:411] upP5crop -> upP5crop
I0628 16:02:09.715575 19328 net.cpp:150] Setting up upP5crop
I0628 16:02:09.715589 19328 net.cpp:157] Top shape: 1 256 38 63 (612864)
I0628 16:02:09.715591 19328 net.cpp:165] Memory required for data: 1414290260
I0628 16:02:09.715595 19328 layer_factory.hpp:77] Creating layer P4
I0628 16:02:09.715603 19328 net.cpp:106] Creating Layer P4
I0628 16:02:09.715608 19328 net.cpp:454] P4 <- newC4_newC4_0_split_1
I0628 16:02:09.715612 19328 net.cpp:454] P4 <- upP5crop
I0628 16:02:09.715616 19328 net.cpp:411] P4 -> P4
I0628 16:02:09.715657 19328 net.cpp:150] Setting up P4
I0628 16:02:09.715664 19328 net.cpp:157] Top shape: 1 256 38 63 (612864)
I0628 16:02:09.715667 19328 net.cpp:165] Memory required for data: 1416741716
I0628 16:02:09.715669 19328 layer_factory.hpp:77] Creating layer newP4
I0628 16:02:09.715677 19328 net.cpp:106] Creating Layer newP4
I0628 16:02:09.715680 19328 net.cpp:454] newP4 <- P4
I0628 16:02:09.715689 19328 net.cpp:411] newP4 -> newP4
I0628 16:02:09.725766 19328 net.cpp:150] Setting up newP4
I0628 16:02:09.725791 19328 net.cpp:157] Top shape: 1 256 38 63 (612864)
I0628 16:02:09.725795 19328 net.cpp:165] Memory required for data: 1419193172
I0628 16:02:09.725811 19328 layer_factory.hpp:77] Creating layer newP4_newP4_0_split
I0628 16:02:09.725821 19328 net.cpp:106] Creating Layer newP4_newP4_0_split
I0628 16:02:09.725824 19328 net.cpp:454] newP4_newP4_0_split <- newP4
I0628 16:02:09.725831 19328 net.cpp:411] newP4_newP4_0_split -> newP4_newP4_0_split_0
I0628 16:02:09.725837 19328 net.cpp:411] newP4_newP4_0_split -> newP4_newP4_0_split_1
I0628 16:02:09.725913 19328 net.cpp:150] Setting up newP4_newP4_0_split
I0628 16:02:09.725925 19328 net.cpp:157] Top shape: 1 256 38 63 (612864)
I0628 16:02:09.725930 19328 net.cpp:157] Top shape: 1 256 38 63 (612864)
I0628 16:02:09.725932 19328 net.cpp:165] Memory required for data: 1424096084
I0628 16:02:09.725936 19328 layer_factory.hpp:77] Creating layer rpn_conv/3x3
I0628 16:02:09.725949 19328 net.cpp:106] Creating Layer rpn_conv/3x3
I0628 16:02:09.725953 19328 net.cpp:454] rpn_conv/3x3 <- newP4_newP4_0_split_0
I0628 16:02:09.725961 19328 net.cpp:411] rpn_conv/3x3 -> rpn/output
I0628 16:02:09.760735 19328 net.cpp:150] Setting up rpn_conv/3x3
I0628 16:02:09.760762 19328 net.cpp:157] Top shape: 1 512 38 63 (1225728)
I0628 16:02:09.760767 19328 net.cpp:165] Memory required for data: 1428998996
I0628 16:02:09.760774 19328 layer_factory.hpp:77] Creating layer rpn_relu/3x3
I0628 16:02:09.760782 19328 net.cpp:106] Creating Layer rpn_relu/3x3
I0628 16:02:09.760788 19328 net.cpp:454] rpn_relu/3x3 <- rpn/output
I0628 16:02:09.760794 19328 net.cpp:397] rpn_relu/3x3 -> rpn/output (in-place)
I0628 16:02:09.763803 19328 net.cpp:150] Setting up rpn_relu/3x3
I0628 16:02:09.763824 19328 net.cpp:157] Top shape: 1 512 38 63 (1225728)
I0628 16:02:09.763828 19328 net.cpp:165] Memory required for data: 1433901908
I0628 16:02:09.763833 19328 layer_factory.hpp:77] Creating layer rpn/output_rpn_relu/3x3_0_split
I0628 16:02:09.763840 19328 net.cpp:106] Creating Layer rpn/output_rpn_relu/3x3_0_split
I0628 16:02:09.763846 19328 net.cpp:454] rpn/output_rpn_relu/3x3_0_split <- rpn/output
I0628 16:02:09.763854 19328 net.cpp:411] rpn/output_rpn_relu/3x3_0_split -> rpn/output_rpn_relu/3x3_0_split_0
I0628 16:02:09.763861 19328 net.cpp:411] rpn/output_rpn_relu/3x3_0_split -> rpn/output_rpn_relu/3x3_0_split_1
I0628 16:02:09.763938 19328 net.cpp:150] Setting up rpn/output_rpn_relu/3x3_0_split
I0628 16:02:09.763947 19328 net.cpp:157] Top shape: 1 512 38 63 (1225728)
I0628 16:02:09.763950 19328 net.cpp:157] Top shape: 1 512 38 63 (1225728)
I0628 16:02:09.763953 19328 net.cpp:165] Memory required for data: 1443707732
I0628 16:02:09.763957 19328 layer_factory.hpp:77] Creating layer rpn_cls_score
I0628 16:02:09.763967 19328 net.cpp:106] Creating Layer rpn_cls_score
I0628 16:02:09.763974 19328 net.cpp:454] rpn_cls_score <- rpn/output_rpn_relu/3x3_0_split_0
I0628 16:02:09.763980 19328 net.cpp:411] rpn_cls_score -> rpn_cls_score
I0628 16:02:09.771037 19328 net.cpp:150] Setting up rpn_cls_score
I0628 16:02:09.771059 19328 net.cpp:157] Top shape: 1 18 38 63 (43092)
I0628 16:02:09.771064 19328 net.cpp:165] Memory required for data: 1443880100
I0628 16:02:09.771070 19328 layer_factory.hpp:77] Creating layer rpn_cls_score_rpn_cls_score_0_split
I0628 16:02:09.771078 19328 net.cpp:106] Creating Layer rpn_cls_score_rpn_cls_score_0_split
I0628 16:02:09.771085 19328 net.cpp:454] rpn_cls_score_rpn_cls_score_0_split <- rpn_cls_score
I0628 16:02:09.771090 19328 net.cpp:411] rpn_cls_score_rpn_cls_score_0_split -> rpn_cls_score_rpn_cls_score_0_split_0
I0628 16:02:09.771098 19328 net.cpp:411] rpn_cls_score_rpn_cls_score_0_split -> rpn_cls_score_rpn_cls_score_0_split_1
I0628 16:02:09.771170 19328 net.cpp:150] Setting up rpn_cls_score_rpn_cls_score_0_split
I0628 16:02:09.771186 19328 net.cpp:157] Top shape: 1 18 38 63 (43092)
I0628 16:02:09.771190 19328 net.cpp:157] Top shape: 1 18 38 63 (43092)
I0628 16:02:09.771193 19328 net.cpp:165] Memory required for data: 1444224836
I0628 16:02:09.771196 19328 layer_factory.hpp:77] Creating layer rpn_bbox_pred
I0628 16:02:09.771209 19328 net.cpp:106] Creating Layer rpn_bbox_pred
I0628 16:02:09.771215 19328 net.cpp:454] rpn_bbox_pred <- rpn/output_rpn_relu/3x3_0_split_1
I0628 16:02:09.771224 19328 net.cpp:411] rpn_bbox_pred -> rpn_bbox_pred
I0628 16:02:09.779204 19328 net.cpp:150] Setting up rpn_bbox_pred
I0628 16:02:09.779227 19328 net.cpp:157] Top shape: 1 36 38 63 (86184)
I0628 16:02:09.779232 19328 net.cpp:165] Memory required for data: 1444569572
I0628 16:02:09.779237 19328 layer_factory.hpp:77] Creating layer rpn_bbox_pred_rpn_bbox_pred_0_split
I0628 16:02:09.779247 19328 net.cpp:106] Creating Layer rpn_bbox_pred_rpn_bbox_pred_0_split
I0628 16:02:09.779253 19328 net.cpp:454] rpn_bbox_pred_rpn_bbox_pred_0_split <- rpn_bbox_pred
I0628 16:02:09.779258 19328 net.cpp:411] rpn_bbox_pred_rpn_bbox_pred_0_split -> rpn_bbox_pred_rpn_bbox_pred_0_split_0
I0628 16:02:09.779264 19328 net.cpp:411] rpn_bbox_pred_rpn_bbox_pred_0_split -> rpn_bbox_pred_rpn_bbox_pred_0_split_1
I0628 16:02:09.779338 19328 net.cpp:150] Setting up rpn_bbox_pred_rpn_bbox_pred_0_split
I0628 16:02:09.779356 19328 net.cpp:157] Top shape: 1 36 38 63 (86184)
I0628 16:02:09.779361 19328 net.cpp:157] Top shape: 1 36 38 63 (86184)
I0628 16:02:09.779363 19328 net.cpp:165] Memory required for data: 1445259044
I0628 16:02:09.779366 19328 layer_factory.hpp:77] Creating layer rpn_cls_score_reshape
I0628 16:02:09.779376 19328 net.cpp:106] Creating Layer rpn_cls_score_reshape
I0628 16:02:09.779382 19328 net.cpp:454] rpn_cls_score_reshape <- rpn_cls_score_rpn_cls_score_0_split_0
I0628 16:02:09.779391 19328 net.cpp:411] rpn_cls_score_reshape -> rpn_cls_score_reshape
I0628 16:02:09.779436 19328 net.cpp:150] Setting up rpn_cls_score_reshape
I0628 16:02:09.779444 19328 net.cpp:157] Top shape: 1 2 342 63 (43092)
I0628 16:02:09.779448 19328 net.cpp:165] Memory required for data: 1445431412
I0628 16:02:09.779450 19328 layer_factory.hpp:77] Creating layer rpn_cls_score_reshape_rpn_cls_score_reshape_0_split
I0628 16:02:09.779456 19328 net.cpp:106] Creating Layer rpn_cls_score_reshape_rpn_cls_score_reshape_0_split
I0628 16:02:09.779461 19328 net.cpp:454] rpn_cls_score_reshape_rpn_cls_score_reshape_0_split <- rpn_cls_score_reshape
I0628 16:02:09.779466 19328 net.cpp:411] rpn_cls_score_reshape_rpn_cls_score_reshape_0_split -> rpn_cls_score_reshape_rpn_cls_score_reshape_0_split_0
I0628 16:02:09.779471 19328 net.cpp:411] rpn_cls_score_reshape_rpn_cls_score_reshape_0_split -> rpn_cls_score_reshape_rpn_cls_score_reshape_0_split_1
I0628 16:02:09.779530 19328 net.cpp:150] Setting up rpn_cls_score_reshape_rpn_cls_score_reshape_0_split
I0628 16:02:09.779536 19328 net.cpp:157] Top shape: 1 2 342 63 (43092)
I0628 16:02:09.779541 19328 net.cpp:157] Top shape: 1 2 342 63 (43092)
I0628 16:02:09.779542 19328 net.cpp:165] Memory required for data: 1445776148
I0628 16:02:09.779546 19328 layer_factory.hpp:77] Creating layer rpn-data
I0628 16:02:09.780323 19328 net.cpp:106] Creating Layer rpn-data
I0628 16:02:09.780345 19328 net.cpp:454] rpn-data <- rpn_cls_score_rpn_cls_score_0_split_1
I0628 16:02:09.780352 19328 net.cpp:454] rpn-data <- gt_boxes_input-data_2_split_0
I0628 16:02:09.780359 19328 net.cpp:454] rpn-data <- im_info_input-data_1_split_0
I0628 16:02:09.780364 19328 net.cpp:454] rpn-data <- data_input-data_0_split_1
I0628 16:02:09.780374 19328 net.cpp:411] rpn-data -> rpn_labels
I0628 16:02:09.780381 19328 net.cpp:411] rpn-data -> rpn_bbox_targets
I0628 16:02:09.780387 19328 net.cpp:411] rpn-data -> rpn_bbox_inside_weights
I0628 16:02:09.780392 19328 net.cpp:411] rpn-data -> rpn_bbox_outside_weights
I0628 16:02:09.781298 19328 net.cpp:150] Setting up rpn-data
I0628 16:02:09.781323 19328 net.cpp:157] Top shape: 1 1 342 63 (21546)
I0628 16:02:09.781329 19328 net.cpp:157] Top shape: 1 36 38 63 (86184)
I0628 16:02:09.781334 19328 net.cpp:157] Top shape: 1 36 38 63 (86184)
I0628 16:02:09.781338 19328 net.cpp:157] Top shape: 1 36 38 63 (86184)
I0628 16:02:09.781344 19328 net.cpp:165] Memory required for data: 1446896540
I0628 16:02:09.781348 19328 layer_factory.hpp:77] Creating layer rpn_loss_cls
I0628 16:02:09.781359 19328 net.cpp:106] Creating Layer rpn_loss_cls
I0628 16:02:09.781363 19328 net.cpp:454] rpn_loss_cls <- rpn_cls_score_reshape_rpn_cls_score_reshape_0_split_0
I0628 16:02:09.781369 19328 net.cpp:454] rpn_loss_cls <- rpn_labels
…
I0628 16:02:09.783252 19328 net.cpp:157] Top shape: (1)
I0628 16:02:09.783254 19328 net.cpp:160]     with loss weight 1
I0628 16:02:09.783260 19328 net.cpp:165] Memory required for data: 1446896548
I0628 16:02:09.783263 19328 layer_factory.hpp:77] Creating layer rpn_cls_prob
I0628 16:02:09.783272 19328 net.cpp:106] Creating Layer rpn_cls_prob
I0628 16:02:09.783278 19328 net.cpp:454] rpn_cls_prob <- rpn_cls_score_reshape_rpn_cls_score_reshape_0_split_1
I0628 16:02:09.783285 19328 net.cpp:411] rpn_cls_prob -> rpn_cls_prob
I0628 16:02:09.784322 19328 net.cpp:150] Setting up rpn_cls_prob
I0628 16:02:09.784340 19328 net.cpp:157] Top shape: 1 2 342 63 (43092)
I0628 16:02:09.784344 19328 net.cpp:165] Memory required for data: 1447068916
I0628 16:02:09.784348 19328 layer_factory.hpp:77] Creating layer rpn_cls_prob_reshape
I0628 16:02:09.784358 19328 net.cpp:106] Creating Layer rpn_cls_prob_reshape
I0628 16:02:09.784364 19328 net.cpp:454] rpn_cls_prob_reshape <- rpn_cls_prob
I0628 16:02:09.784369 19328 net.cpp:411] rpn_cls_prob_reshape -> rpn_cls_prob_reshape
I0628 16:02:09.784412 19328 net.cpp:150] Setting up rpn_cls_prob_reshape
I0628 16:02:09.784422 19328 net.cpp:157] Top shape: 1 18 38 63 (43092)
I0628 16:02:09.784427 19328 net.cpp:165] Memory required for data: 1447241284
I0628 16:02:09.784431 19328 layer_factory.hpp:77] Creating layer proposal
I0628 16:02:09.785394 19328 net.cpp:106] Creating Layer proposal
I0628 16:02:09.785418 19328 net.cpp:454] proposal <- rpn_cls_prob_reshape
I0628 16:02:09.785424 19328 net.cpp:454] proposal <- rpn_bbox_pred_rpn_bbox_pred_0_split_1
I0628 16:02:09.785429 19328 net.cpp:454] proposal <- im_info_input-data_1_split_1
I0628 16:02:09.785437 19328 net.cpp:411] proposal -> rpn_rois
I0628 16:02:09.786854 19328 net.cpp:150] Setting up proposal
I0628 16:02:09.786878 19328 net.cpp:157] Top shape: 1 5 (5)
I0628 16:02:09.786882 19328 net.cpp:165] Memory required for data: 1447241304
I0628 16:02:09.786887 19328 layer_factory.hpp:77] Creating layer roi-data
I0628 16:02:09.787102 19328 net.cpp:106] Creating Layer roi-data
I0628 16:02:09.787122 19328 net.cpp:454] roi-data <- rpn_rois
I0628 16:02:09.787127 19328 net.cpp:454] roi-data <- gt_boxes_input-data_2_split_1
I0628 16:02:09.787133 19328 net.cpp:411] roi-data -> rois
I0628 16:02:09.787142 19328 net.cpp:411] roi-data -> labels
I0628 16:02:09.787148 19328 net.cpp:411] roi-data -> bbox_targets
I0628 16:02:09.787154 19328 net.cpp:411] roi-data -> bbox_inside_weights
I0628 16:02:09.787159 19328 net.cpp:411] roi-data -> bbox_outside_weights
I0628 16:02:09.787603 19328 net.cpp:150] Setting up roi-data
I0628 16:02:09.787624 19328 net.cpp:157] Top shape: 1 5 (5)
I0628 16:02:09.787629 19328 net.cpp:157] Top shape: 1 1 (1)
I0628 16:02:09.787632 19328 net.cpp:157] Top shape: 1 84 (84)
I0628 16:02:09.787636 19328 net.cpp:157] Top shape: 1 84 (84)
I0628 16:02:09.787642 19328 net.cpp:157] Top shape: 1 84 (84)
I0628 16:02:09.787647 19328 net.cpp:165] Memory required for data: 1447242336
I0628 16:02:09.787650 19328 layer_factory.hpp:77] Creating layer roi_pool5
I0628 16:02:09.787665 19328 net.cpp:106] Creating Layer roi_pool5
I0628 16:02:09.787670 19328 net.cpp:454] roi_pool5 <- newP4_newP4_0_split_1
I0628 16:02:09.787675 19328 net.cpp:454] roi_pool5 <- rois
I0628 16:02:09.787681 19328 net.cpp:411] roi_pool5 -> rcnn_pool5
I0628 16:02:09.787690 19328 roi_pooling_layer.cpp:30] Spatial scale: 0.25
I0628 16:02:09.787766 19328 net.cpp:150] Setting up roi_pool5
I0628 16:02:09.787780 19328 net.cpp:157] Top shape: 1 256 7 7 (12544)
I0628 16:02:09.787783 19328 net.cpp:165] Memory required for data: 1447292512
I0628 16:02:09.787787 19328 layer_factory.hpp:77] Creating layer rcnn_fc6
I0628 16:02:09.787798 19328 net.cpp:106] Creating Layer rcnn_fc6
I0628 16:02:09.787803 19328 net.cpp:454] rcnn_fc6 <- rcnn_pool5
I0628 16:02:09.787809 19328 net.cpp:411] rcnn_fc6 -> rcnn_fc6
I0628 16:02:10.115669 19328 net.cpp:150] Setting up rcnn_fc6
I0628 16:02:10.115725 19328 net.cpp:157] Top shape: 1 4096 (4096)
I0628 16:02:10.115728 19328 net.cpp:165] Memory required for data: 1447308896
I0628 16:02:10.115741 19328 layer_factory.hpp:77] Creating layer relu6
I0628 16:02:10.115751 19328 net.cpp:106] Creating Layer relu6
I0628 16:02:10.115756 19328 net.cpp:454] relu6 <- rcnn_fc6
I0628 16:02:10.115764 19328 net.cpp:397] relu6 -> rcnn_fc6 (in-place)
I0628 16:02:10.116796 19328 net.cpp:150] Setting up relu6
I0628 16:02:10.116818 19328 net.cpp:157] Top shape: 1 4096 (4096)
I0628 16:02:10.116822 19328 net.cpp:165] Memory required for data: 1447325280
I0628 16:02:10.116827 19328 layer_factory.hpp:77] Creating layer drop6
I0628 16:02:10.116842 19328 net.cpp:106] Creating Layer drop6
I0628 16:02:10.116878 19328 net.cpp:454] drop6 <- rcnn_fc6
I0628 16:02:10.116897 19328 net.cpp:397] drop6 -> rcnn_fc6 (in-place)
I0628 16:02:10.116978 19328 net.cpp:150] Setting up drop6
I0628 16:02:10.116994 19328 net.cpp:157] Top shape: 1 4096 (4096)
I0628 16:02:10.116997 19328 net.cpp:165] Memory required for data: 1447341664
I0628 16:02:10.117000 19328 layer_factory.hpp:77] Creating layer fc7
I0628 16:02:10.117027 19328 net.cpp:106] Creating Layer fc7
I0628 16:02:10.117046 19328 net.cpp:454] fc7 <- rcnn_fc6
I0628 16:02:10.117067 19328 net.cpp:411] fc7 -> fc7
I0628 16:02:10.223685 19328 net.cpp:150] Setting up fc7
I0628 16:02:10.223742 19328 net.cpp:157] Top shape: 1 4096 (4096)
I0628 16:02:10.223747 19328 net.cpp:165] Memory required for data: 1447358048
I0628 16:02:10.223758 19328 layer_factory.hpp:77] Creating layer relu7
I0628 16:02:10.223773 19328 net.cpp:106] Creating Layer relu7
I0628 16:02:10.223778 19328 net.cpp:454] relu7 <- fc7
I0628 16:02:10.223785 19328 net.cpp:397] relu7 -> fc7 (in-place)
I0628 16:02:10.224077 19328 net.cpp:150] Setting up relu7
I0628 16:02:10.224094 19328 net.cpp:157] Top shape: 1 4096 (4096)
I0628 16:02:10.224099 19328 net.cpp:165] Memory required for data: 1447374432
I0628 16:02:10.224102 19328 layer_factory.hpp:77] Creating layer drop7
I0628 16:02:10.224112 19328 net.cpp:106] Creating Layer drop7
I0628 16:02:10.224149 19328 net.cpp:454] drop7 <- fc7
I0628 16:02:10.224169 19328 net.cpp:397] drop7 -> fc7 (in-place)
I0628 16:02:10.224236 19328 net.cpp:150] Setting up drop7
I0628 16:02:10.224252 19328 net.cpp:157] Top shape: 1 4096 (4096)
I0628 16:02:10.224256 19328 net.cpp:165] Memory required for data: 1447390816
I0628 16:02:10.224259 19328 layer_factory.hpp:77] Creating layer fc7_drop7_0_split
I0628 16:02:10.224267 19328 net.cpp:106] Creating Layer fc7_drop7_0_split
I0628 16:02:10.224287 19328 net.cpp:454] fc7_drop7_0_split <- fc7
I0628 16:02:10.224304 19328 net.cpp:411] fc7_drop7_0_split -> fc7_drop7_0_split_0
I0628 16:02:10.224323 19328 net.cpp:411] fc7_drop7_0_split -> fc7_drop7_0_split_1
I0628 16:02:10.224421 19328 net.cpp:150] Setting up fc7_drop7_0_split
I0628 16:02:10.224436 19328 net.cpp:157] Top shape: 1 4096 (4096)
I0628 16:02:10.224439 19328 net.cpp:157] Top shape: 1 4096 (4096)
I0628 16:02:10.224442 19328 net.cpp:165] Memory required for data: 1447423584
I0628 16:02:10.224445 19328 layer_factory.hpp:77] Creating layer cls_score
I0628 16:02:10.224455 19328 net.cpp:106] Creating Layer cls_score
I0628 16:02:10.224474 19328 net.cpp:454] cls_score <- fc7_drop7_0_split_0
I0628 16:02:10.224494 19328 net.cpp:411] cls_score -> cls_score
I0628 16:02:10.226749 19328 net.cpp:150] Setting up cls_score
I0628 16:02:10.226766 19328 net.cpp:157] Top shape: 1 21 (21)
I0628 16:02:10.226794 19328 net.cpp:165] Memory required for data: 1447423668
I0628 16:02:10.226802 19328 layer_factory.hpp:77] Creating layer bbox_pred
I0628 16:02:10.226830 19328 net.cpp:106] Creating Layer bbox_pred
I0628 16:02:10.226846 19328 net.cpp:454] bbox_pred <- fc7_drop7_0_split_1
I0628 16:02:10.226866 19328 net.cpp:411] bbox_pred -> bbox_pred
I0628 16:02:10.236075 19328 net.cpp:150] Setting up bbox_pred
I0628 16:02:10.236098 19328 net.cpp:157] Top shape: 1 84 (84)
I0628 16:02:10.236101 19328 net.cpp:165] Memory required for data: 1447424004
I0628 16:02:10.236109 19328 layer_factory.hpp:77] Creating layer loss_cls
I0628 16:02:10.236140 19328 net.cpp:106] Creating Layer loss_cls
I0628 16:02:10.236156 19328 net.cpp:454] loss_cls <- cls_score
I0628 16:02:10.236171 19328 net.cpp:454] loss_cls <- labels
I0628 16:02:10.236191 19328 net.cpp:411] loss_cls -> loss_cls
…
