…
stepsize: 50000
snapshot: 0
snapshot_prefix: "fpn"
average_loss: 100
iter_size: 2
I0628 16:24:58.688308 21370 solver.cpp:81] Creating training net from train_net file: models/pascal_voc/VGG16/FP_Net_end2end/train.prototxt
I0628 16:24:58.689751 21370 net.cpp:49] Initializing net from parameters: 
name: "VGG_ILSVRC_16_layers"
state {
  phase: TRAIN
}
layer {
  name: "input-data"
  type: "Python"
  top: "data"
  top: "im_info"
  top: "gt_boxes"
  python_param {
    module: "roi_data_layer.layer"
    layer: "RoIDataLayer"
    param_str: "\'num_classes\': 21"
  }
}
layer {
  name: "conv1_1"
  type: "Convolution"
  bottom: "data"
  top: "conv1_1"
  param {
    lr_mult: 0
    decay_mult: 0
  }
  param {
    lr_mult: 0
    decay_mult: 0
  }
  convolution_param {
    num_output: 64
    pad: 1
    kernel_size: 3
  }
}
layer {
  name: "relu1_1"
  type: "ReLU"
  bottom: "conv1_1"
  top: "conv1_1"
}
layer {
  name: "conv1_2"
  type: "Convolution"
  bottom: "conv1_1"
  top: "conv1_2"
  param {
    lr_mult: 0
    decay_mult: 0
  }
  param {
    lr_mult: 0
    decay_mult: 0
  }
  convolution_param {
    num_output: 64
    pad: 1
    kernel_size: 3
  }
}
layer {
  name: "relu1_2"
  type: "ReLU"
  bottom: "conv1_2"
  top: "conv1_2"
}
layer {
  name: "pool1"
  type: "Pooling"
  bottom: "conv1_2"
  top: "pool1"
  pooling_param {
    pool: MAX
    kernel_size: 2
    stride: 2
  }
}
layer {
  name: "conv2_1"
  type: "Convolution"
  bottom: "pool1"
  top: "conv2_1"
  param {
    lr_mult: 0
    decay_mult: 0
  }
  param {
    lr_mult: 0
    decay_mult: 0
  }
  convolution_param {
    num_output: 128
    pad: 1
    kernel_size: 3
  }
}
layer {
  name: "relu2_1"
  type: "ReLU"
  bottom: "conv2_1"
  top: "conv2_1"
}
layer {
  name: "conv2_2"
  type: "Convolution"
  bottom: "conv2_1"
  top: "conv2_2"
  param {
    lr_mult: 0
    decay_mult: 0
  }
  param {
    lr_mult: 0
    decay_mult: 0
  }
  convolution_param {
    num_output: 128
    pad: 1
    kernel_size: 3
  }
}
layer {
  name: "relu2_2"
  type: "ReLU"
  bottom: "conv2_2"
  top: "conv2_2"
}
layer {
  name: "pool2"
  type: "Pooling"
  bottom: "conv2_2"
  top: "pool2"
  pooling_param {
    pool: MAX
    kernel_size: 2
    stride: 2
  }
}
layer {
  name: "conv3_1"
  type: "Convolution"
  bottom: "pool2"
  top: "conv3_1"
  param {
    lr_mult: 1
  }
  param {
    lr_mult: 2
  }
  convolution_param {
    num_output: 256
    pad: 1
    kernel_size: 3
  }
}
layer {
  name: "relu3_1"
  type: "ReLU"
  bottom: "conv3_1"
  top: "conv3_1"
}
layer {
  name: "conv3_2"
  type: "Convolution"
  bottom: "conv3_1"
  top: "conv3_2"
  param {
    lr_mult: 1
  }
  param {
    lr_mult: 2
  }
  convolution_param {
    num_output: 256
    pad: 1
    kernel_size: 3
  }
}
layer {
  name: "relu3_2"
  type: "ReLU"
  bottom: "conv3_2"
  top: "conv3_2"
}
layer {
  name: "conv3_3"
  type: "Convolution"
  bottom: "conv3_2"
  top: "conv3_3"
  param {
    lr_mult: 1
  }
  param {
    lr_mult: 2
  }
  convolution_param {
    num_output: 256
    pad: 1
    kernel_size: 3
  }
}
layer {
  name: "relu3_3"
  type: "ReLU"
  bottom: "conv3_3"
  top: "conv3_3"
}
layer {
  name: "pool3"
  type: "Pooling"
  bottom: "conv3_3"
  top: "pool3"
  pooling_param {
    pool: MAX
    kernel_size: 2
    stride: 2
  }
}
layer {
  name: "conv4_1"
  type: "Convolution"
  bottom: "pool3"
  top: "conv4_1"
  param {
    lr_mult: 1
  }
  param {
    lr_mult: 2
  }
  convolution_param {
    num_output: 512
    pad: 1
    kernel_size: 3
  }
}
layer {
  name: "relu4_1"
  type: "ReLU"
  bottom: "conv4_1"
  top: "conv4_1"
}
layer {
  name: "conv4_2"
  type: "Convolution"
  bottom: "conv4_1"
  top: "conv4_2"
  param {
    lr_mult: 1
  }
  param {
    lr_mult: 2
  }
  convolution_param {
    num_output: 512
    pad: 1
    kernel_size: 3
  }
}
layer {
  name: "relu4_2"
  type: "ReLU"
  bottom: "conv4_2"
  top: "conv4_2"
}
layer {
  name: "conv4_3"
  type: "Convolution"
  bottom: "conv4_2"
  top: "conv4_3"
  param {
    lr_mult: 1
  }
  param {
    lr_mult: 2
  }
  convolution_param {
    num_output: 512
    pad: 1
    kernel_size: 3
  }
}
layer {
  name: "relu4_3"
  type: "ReLU"
  bottom: "conv4_3"
  top: "conv4_3"
}
layer {
  name: "pool4"
  type: "Pooling"
  bottom: "conv4_3"
  top: "pool4"
  pooling_param {
    pool: MAX
    kernel_size: 2
    stride: 2
  }
}
layer {
  name: "conv5_1"
  type: "Convolution"
  bottom: "pool4"
  top: "conv5_1"
  param {
    lr_mult: 1
  }
  param {
    lr_mult: 2
  }
  convolution_param {
    num_output: 512
    pad: 1
    kernel_size: 3
  }
}
layer {
  name: "relu5_1"
  type: "ReLU"
  bottom: "conv5_1"
  top: "conv5_1"
}
layer {
  name: "conv5_2"
  type: "Convolution"
  bottom: "conv5_1"
  top: "conv5_2"
  param {
    lr_mult: 1
  }
  param {
    lr_mult: 2
  }
  convolution_param {
    num_output: 512
    pad: 1
    kernel_size: 3
  }
}
layer {
  name: "relu5_2"
  type: "ReLU"
  bottom: "conv5_2"
  top: "conv5_2"
}
layer {
  name: "conv5_3"
  type: "Convolution"
  bottom: "conv5_2"
  top: "conv5_3"
  param {
    lr_mult: 1
  }
  param {
    lr_mult: 2
  }
  convolution_param {
    num_output: 512
    pad: 1
    kernel_size: 3
  }
}
layer {
  name: "relu5_3"
  type: "ReLU"
  bottom: "conv5_3"
  top: "conv5_3"
}
layer {
  name: "pool5"
  type: "Pooling"
  bottom: "conv5_3"
  top: "pool5"
  pooling_param {
    pool: MAX
    kernel_size: 2
    stride: 2
  }
}
layer {
  name: "P5"
  type: "Convolution"
  bottom: "pool5"
  top: "P5"
  param {
    lr_mult: 1
  }
  param {
    lr_mult: 2
  }
  convolution_param {
    num_output: 256
    kernel_size: 1
    weight_filler {
      type: "xavier"
    }
    bias_filler {
      type: "constant"
    }
  }
}
layer {
  name: "upP5"
  type: "Deconvolution"
  bottom: "P5"
  top: "upP5"
  param {
    lr_mult: 0
    decay_mult: 0
  }
  convolution_param {
    num_output: 256
    bias_term: false
    pad: 1
    kernel_size: 4
    stride: 2
    weight_filler {
      type: "bilinear"
    }
  }
}
layer {
  name: "newC4"
  type: "Convolution"
  bottom: "conv5_3"
  top: "newC4"
  param {
    lr_mult: 1
  }
  param {
    lr_mult: 2
  }
  convolution_param {
    num_output: 256
    kernel_size: 1
    weight_filler {
      type: "xavier"
    }
    bias_filler {
      type: "constant"
    }
  }
}
layer {
  name: "upP5crop"
  type: "Crop"
  bottom: "upP5"
  bottom: "newC4"
  top: "upP5crop"
  crop_param {
    axis: 2
    offset: 0
  }
}
layer {
  name: "P4"
  type: "Eltwise"
  bottom: "newC4"
  bottom: "upP5crop"
  top: "P4"
  eltwise_param {
    operation: SUM
  }
}
layer {
  name: "newP4"
  type: "Convolution"
  bottom: "P4"
  top: "newP4"
  param {
    lr_mult: 1
  }
  param {
    lr_mult: 2
  }
  convolution_param {
    num_output: 256
    pad: 1
    kernel_size: 3
    weight_filler {
      type: "xavier"
    }
    bias_filler {
      type: "constant"
    }
  }
}
layer {
  name: "rpn_conv/3x3"
  type: "Convolution"
  bottom: "newP4"
  top: "rpn/output"
  param {
    lr_mult: 1
  }
  param {
    lr_mult: 2
  }
  convolution_param {
    num_output: 512
    pad: 1
    kernel_size: 3
    stride: 1
    weight_filler {
      type: "gaussian"
      std: 0.01
    }
    bias_filler {
      type: "constant"
      value: 0
    }
  }
}
layer {
  name: "rpn_relu/3x3"
  type: "ReLU"
  bottom: "rpn/output"
  top: "rpn/output"
}
layer {
  name: "rpn_cls_score"
  type: "Convolution"
  bottom: "rpn/output"
  top: "rpn_cls_score"
  param {
    lr_mult: 1
  }
  param {
    lr_mult: 2
  }
  convolution_param {
    num_output: 18
    pad: 0
    kernel_size: 1
    stride: 1
    weight_filler {
      type: "gaussian"
      std: 0.01
    }
    bias_filler {
      type: "constant"
      value: 0
    }
  }
}
layer {
  name: "rpn_bbox_pred"
  type: "Convolution"
  bottom: "rpn/output"
  top: "rpn_bbox_pred"
  param {
    lr_mult: 1
  }
  param {
    lr_mult: 2
  }
  convolution_param {
    num_output: 36
    pad: 0
    kernel_size: 1
    stride: 1
    weight_filler {
      type: "gaussian"
      std: 0.01
    }
    bias_filler {
      type: "constant"
      value: 0
    }
  }
}
layer {
  name: "rpn_cls_score_reshape"
  type: "Reshape"
  bottom: "rpn_cls_score"
  top: "rpn_cls_score_reshape"
  reshape_param {
    shape {
      dim: 0
      dim: 2
      dim: -1
      dim: 0
    }
  }
}
layer {
  name: "rpn-data"
  type: "Python"
  bottom: "rpn_cls_score"
  bottom: "gt_boxes"
  bottom: "im_info"
  bottom: "data"
  top: "rpn_labels"
  top: "rpn_bbox_targets"
  top: "rpn_bbox_inside_weights"
  top: "rpn_bbox_outside_weights"
  python_param {
    module: "rpn.anchor_target_layer"
    layer: "AnchorTargetLayer"
    param_str: "\'feat_stride\': 4"
  }
}
layer {
  name: "rpn_loss_cls"
  type: "SoftmaxWithLoss"
  bottom: "rpn_cls_score_reshape"
  bottom: "rpn_labels"
  top: "rpn_cls_loss"
  loss_weight: 1
  propagate_down: true
  propagate_down: false
  loss_param {
    ignore_label: -1
    normalize: true
  }
}
layer {
  name: "rpn_loss_bbox"
  type: "SmoothL1Loss"
  bottom: "rpn_bbox_pred"
  bottom: "rpn_bbox_targets"
  bottom: "rpn_bbox_inside_weights"
  bottom: "rpn_bbox_outside_weights"
  top: "rpn_loss_bbox"
  loss_weight: 1
  smooth_l1_loss_param {
    sigma: 3
  }
}
layer {
  name: "rpn_cls_prob"
  type: "Softmax"
  bottom: "rpn_cls_score_reshape"
  top: "rpn_cls_prob"
}
layer {
  name: "rpn_cls_prob_reshape"
  type: "Reshape"
  bottom: "rpn_cls_prob"
  top: "rpn_cls_prob_reshape"
  reshape_param {
    shape {
      dim: 0
      dim: 18
      dim: -1
      dim: 0
    }
  }
}
layer {
  name: "proposal"
  type: "Python"
  bottom: "rpn_cls_prob_reshape"
  bottom: "rpn_bbox_pred"
  bottom: "im_info"
  top: "rpn_rois"
  python_param {
    module: "rpn.proposal_layer"
    layer: "ProposalLayer"
    param_str: "\'feat_stride\': 4"
  }
}
layer {
  name: "roi-data"
  type: "Python"
  bottom: "rpn_rois"
  bottom: "gt_boxes"
  top: "rois"
  top: "labels"
  top: "bbox_targets"
  top: "bbox_inside_weights"
  top: "bbox_outside_weights"
  python_param {
    module: "rpn.proposal_target_layer"
    layer: "ProposalTargetLayer"
    param_str: "\'num_classes\': 21"
  }
}
layer {
  name: "roi_pool5"
  type: "ROIPooling"
  bottom: "newP4"
  bottom: "rois"
  top: "rcnn_pool5"
  roi_pooling_param {
    pooled_h: 7
    pooled_w: 7
    spatial_scale: 0.25
  }
}
layer {
  name: "rcnn_fc6"
  type: "InnerProduct"
  bottom: "rcnn_pool5"
  top: "rcnn_fc6"
  param {
    lr_mult: 1
  }
  param {
    lr_mult: 2
  }
  inner_product_param {
    num_output: 4096
    weight_filler {
      type: "xavier"
    }
    bias_filler {
      type: "constant"
    }
  }
}
layer {
  name: "relu6"
  type: "ReLU"
  bottom: "rcnn_fc6"
  top: "rcnn_fc6"
}
layer {
  name: "drop6"
  type: "Dropout"
  bottom: "rcnn_fc6"
  top: "rcnn_fc6"
  dropout_param {
    dropout_ratio: 0.5
  }
}
layer {
  name: "fc7"
  type: "InnerProduct"
  bottom: "rcnn_fc6"
  top: "fc7"
  param {
    lr_mult: 1
  }
  param {
    lr_mult: 2
  }
  inner_product_param {
    num_output: 4096
    weight_filler {
      type: "xavier"
    }
    bias_filler {
      type: "constant"
    }
  }
}
layer {
  name: "relu7"
  type: "ReLU"
  bottom: "fc7"
  top: "fc7"
}
layer {
  name: "drop7"
  type: "Dropout"
  bottom: "fc7"
  top: "fc7"
  dropout_param {
    dropout_ratio: 0.5
  }
}
layer {
  name: "cls_score"
  type: "InnerProduct"
  bottom: "fc7"
  top: "cls_score"
  param {
    lr_mult: 1
  }
  param {
    lr_mult: 2
  }
  inner_product_param {
    num_output: 21
    weight_filler {
      type: "gaussian"
      std: 0.01
    }
    bias_filler {
      type: "constant"
      value: 0
    }
  }
}
layer {
  name: "bbox_pred"
  type: "InnerProduct"
  bottom: "fc7"
  top: "bbox_pred"
  param {
    lr_mult: 1
  }
  param {
    lr_mult: 2
  }
  inner_product_param {
    num_output: 84
    weight_filler {
      type: "gaussian"
      std: 0.001
    }
    bias_filler {
      type: "constant"
      value: 0
    }
  }
}
layer {
  name: "loss_cls"
  type: "SoftmaxWithLoss"
  bottom: "cls_score"
  bottom: "labels"
  top: "loss_cls"
  loss_weight: 1
  propagate_down: true
  propagate_down: false
}
layer {
  name: "loss_bbox"
  type: "SmoothL1Loss"
  bottom: "bbox_pred"
  bottom: "bbox_targets"
  bottom: "bbox_inside_weights"
  bottom: "bbox_outside_weights"
  top: "loss_bbox"
  loss_weight: 1
}
I0628 16:24:58.690078 21370 layer_factory.hpp:77] Creating layer input-data
I0628 16:24:58.691133 21370 net.cpp:106] Creating Layer input-data
I0628 16:24:58.691159 21370 net.cpp:411] input-data -> data
I0628 16:24:58.691176 21370 net.cpp:411] input-data -> im_info
I0628 16:24:58.691206 21370 net.cpp:411] input-data -> gt_boxes
RoiDataLayer: name_to_top: {'gt_boxes': 2, 'data': 0, 'im_info': 1}
I0628 16:24:58.814291 21370 net.cpp:150] Setting up input-data
I0628 16:24:58.814354 21370 net.cpp:157] Top shape: 1 3 600 1000 (1800000)
I0628 16:24:58.814373 21370 net.cpp:157] Top shape: 1 3 (3)
I0628 16:24:58.814388 21370 net.cpp:157] Top shape: 1 4 (4)
I0628 16:24:58.814400 21370 net.cpp:165] Memory required for data: 7200028
I0628 16:24:58.814417 21370 layer_factory.hpp:77] Creating layer data_input-data_0_split
I0628 16:24:58.814446 21370 net.cpp:106] Creating Layer data_input-data_0_split
I0628 16:24:58.814463 21370 net.cpp:454] data_input-data_0_split <- data
I0628 16:24:58.814486 21370 net.cpp:411] data_input-data_0_split -> data_input-data_0_split_0
I0628 16:24:58.814505 21370 net.cpp:411] data_input-data_0_split -> data_input-data_0_split_1
I0628 16:24:58.814579 21370 net.cpp:150] Setting up data_input-data_0_split
I0628 16:24:58.814600 21370 net.cpp:157] Top shape: 1 3 600 1000 (1800000)
I0628 16:24:58.814615 21370 net.cpp:157] Top shape: 1 3 600 1000 (1800000)
I0628 16:24:58.814627 21370 net.cpp:165] Memory required for data: 21600028
I0628 16:24:58.814642 21370 layer_factory.hpp:77] Creating layer im_info_input-data_1_split
I0628 16:24:58.814658 21370 net.cpp:106] Creating Layer im_info_input-data_1_split
I0628 16:24:58.814671 21370 net.cpp:454] im_info_input-data_1_split <- im_info
I0628 16:24:58.814687 21370 net.cpp:411] im_info_input-data_1_split -> im_info_input-data_1_split_0
I0628 16:24:58.814702 21370 net.cpp:411] im_info_input-data_1_split -> im_info_input-data_1_split_1
I0628 16:24:58.814766 21370 net.cpp:150] Setting up im_info_input-data_1_split
I0628 16:24:58.814796 21370 net.cpp:157] Top shape: 1 3 (3)
I0628 16:24:58.814801 21370 net.cpp:157] Top shape: 1 3 (3)
I0628 16:24:58.814805 21370 net.cpp:165] Memory required for data: 21600052
I0628 16:24:58.814808 21370 layer_factory.hpp:77] Creating layer gt_boxes_input-data_2_split
I0628 16:24:58.814815 21370 net.cpp:106] Creating Layer gt_boxes_input-data_2_split
I0628 16:24:58.814820 21370 net.cpp:454] gt_boxes_input-data_2_split <- gt_boxes
I0628 16:24:58.814824 21370 net.cpp:411] gt_boxes_input-data_2_split -> gt_boxes_input-data_2_split_0
I0628 16:24:58.814847 21370 net.cpp:411] gt_boxes_input-data_2_split -> gt_boxes_input-data_2_split_1
I0628 16:24:58.814916 21370 net.cpp:150] Setting up gt_boxes_input-data_2_split
I0628 16:24:58.814924 21370 net.cpp:157] Top shape: 1 4 (4)
I0628 16:24:58.814929 21370 net.cpp:157] Top shape: 1 4 (4)
I0628 16:24:58.814931 21370 net.cpp:165] Memory required for data: 21600084
I0628 16:24:58.814934 21370 layer_factory.hpp:77] Creating layer conv1_1
I0628 16:24:58.814951 21370 net.cpp:106] Creating Layer conv1_1
I0628 16:24:58.814970 21370 net.cpp:454] conv1_1 <- data_input-data_0_split_0
I0628 16:24:58.814990 21370 net.cpp:411] conv1_1 -> conv1_1
I0628 16:24:59.295768 21370 net.cpp:150] Setting up conv1_1
I0628 16:24:59.295809 21370 net.cpp:157] Top shape: 1 64 600 1000 (38400000)
I0628 16:24:59.295814 21370 net.cpp:165] Memory required for data: 175200084
I0628 16:24:59.295835 21370 layer_factory.hpp:77] Creating layer relu1_1
I0628 16:24:59.295848 21370 net.cpp:106] Creating Layer relu1_1
I0628 16:24:59.295855 21370 net.cpp:454] relu1_1 <- conv1_1
I0628 16:24:59.295861 21370 net.cpp:397] relu1_1 -> conv1_1 (in-place)
I0628 16:24:59.296725 21370 net.cpp:150] Setting up relu1_1
I0628 16:24:59.296746 21370 net.cpp:157] Top shape: 1 64 600 1000 (38400000)
I0628 16:24:59.296749 21370 net.cpp:165] Memory required for data: 328800084
I0628 16:24:59.296753 21370 layer_factory.hpp:77] Creating layer conv1_2
I0628 16:24:59.296764 21370 net.cpp:106] Creating Layer conv1_2
I0628 16:24:59.296768 21370 net.cpp:454] conv1_2 <- conv1_1
I0628 16:24:59.296773 21370 net.cpp:411] conv1_2 -> conv1_2
I0628 16:24:59.301815 21370 net.cpp:150] Setting up conv1_2
I0628 16:24:59.301838 21370 net.cpp:157] Top shape: 1 64 600 1000 (38400000)
I0628 16:24:59.301843 21370 net.cpp:165] Memory required for data: 482400084
I0628 16:24:59.301854 21370 layer_factory.hpp:77] Creating layer relu1_2
I0628 16:24:59.301862 21370 net.cpp:106] Creating Layer relu1_2
I0628 16:24:59.301865 21370 net.cpp:454] relu1_2 <- conv1_2
I0628 16:24:59.301872 21370 net.cpp:397] relu1_2 -> conv1_2 (in-place)
I0628 16:24:59.302050 21370 net.cpp:150] Setting up relu1_2
I0628 16:24:59.302065 21370 net.cpp:157] Top shape: 1 64 600 1000 (38400000)
I0628 16:24:59.302069 21370 net.cpp:165] Memory required for data: 636000084
I0628 16:24:59.302073 21370 layer_factory.hpp:77] Creating layer pool1
I0628 16:24:59.302088 21370 net.cpp:106] Creating Layer pool1
I0628 16:24:59.302091 21370 net.cpp:454] pool1 <- conv1_2
I0628 16:24:59.302096 21370 net.cpp:411] pool1 -> pool1
I0628 16:24:59.302166 21370 net.cpp:150] Setting up pool1
I0628 16:24:59.302172 21370 net.cpp:157] Top shape: 1 64 300 500 (9600000)
I0628 16:24:59.302175 21370 net.cpp:165] Memory required for data: 674400084
I0628 16:24:59.302178 21370 layer_factory.hpp:77] Creating layer conv2_1
I0628 16:24:59.302187 21370 net.cpp:106] Creating Layer conv2_1
I0628 16:24:59.302191 21370 net.cpp:454] conv2_1 <- pool1
I0628 16:24:59.302196 21370 net.cpp:411] conv2_1 -> conv2_1
I0628 16:24:59.308560 21370 net.cpp:150] Setting up conv2_1
I0628 16:24:59.308584 21370 net.cpp:157] Top shape: 1 128 300 500 (19200000)
I0628 16:24:59.308588 21370 net.cpp:165] Memory required for data: 751200084
I0628 16:24:59.308600 21370 layer_factory.hpp:77] Creating layer relu2_1
I0628 16:24:59.308606 21370 net.cpp:106] Creating Layer relu2_1
I0628 16:24:59.308610 21370 net.cpp:454] relu2_1 <- conv2_1
I0628 16:24:59.308619 21370 net.cpp:397] relu2_1 -> conv2_1 (in-place)
I0628 16:24:59.309195 21370 net.cpp:150] Setting up relu2_1
I0628 16:24:59.309211 21370 net.cpp:157] Top shape: 1 128 300 500 (19200000)
I0628 16:24:59.309216 21370 net.cpp:165] Memory required for data: 828000084
I0628 16:24:59.309218 21370 layer_factory.hpp:77] Creating layer conv2_2
I0628 16:24:59.309228 21370 net.cpp:106] Creating Layer conv2_2
I0628 16:24:59.309232 21370 net.cpp:454] conv2_2 <- conv2_1
I0628 16:24:59.309238 21370 net.cpp:411] conv2_2 -> conv2_2
I0628 16:24:59.316426 21370 net.cpp:150] Setting up conv2_2
I0628 16:24:59.316449 21370 net.cpp:157] Top shape: 1 128 300 500 (19200000)
I0628 16:24:59.316454 21370 net.cpp:165] Memory required for data: 904800084
I0628 16:24:59.316462 21370 layer_factory.hpp:77] Creating layer relu2_2
I0628 16:24:59.316468 21370 net.cpp:106] Creating Layer relu2_2
I0628 16:24:59.316471 21370 net.cpp:454] relu2_2 <- conv2_2
I0628 16:24:59.316480 21370 net.cpp:397] relu2_2 -> conv2_2 (in-place)
I0628 16:24:59.317343 21370 net.cpp:150] Setting up relu2_2
I0628 16:24:59.317363 21370 net.cpp:157] Top shape: 1 128 300 500 (19200000)
I0628 16:24:59.317368 21370 net.cpp:165] Memory required for data: 981600084
I0628 16:24:59.317371 21370 layer_factory.hpp:77] Creating layer pool2
I0628 16:24:59.317378 21370 net.cpp:106] Creating Layer pool2
I0628 16:24:59.317381 21370 net.cpp:454] pool2 <- conv2_2
I0628 16:24:59.317391 21370 net.cpp:411] pool2 -> pool2
I0628 16:24:59.317458 21370 net.cpp:150] Setting up pool2
I0628 16:24:59.317464 21370 net.cpp:157] Top shape: 1 128 150 250 (4800000)
I0628 16:24:59.317467 21370 net.cpp:165] Memory required for data: 1000800084
I0628 16:24:59.317471 21370 layer_factory.hpp:77] Creating layer conv3_1
I0628 16:24:59.317479 21370 net.cpp:106] Creating Layer conv3_1
I0628 16:24:59.317482 21370 net.cpp:454] conv3_1 <- pool2
I0628 16:24:59.317487 21370 net.cpp:411] conv3_1 -> conv3_1
I0628 16:24:59.323042 21370 net.cpp:150] Setting up conv3_1
I0628 16:24:59.323065 21370 net.cpp:157] Top shape: 1 256 150 250 (9600000)
I0628 16:24:59.323070 21370 net.cpp:165] Memory required for data: 1039200084
I0628 16:24:59.323079 21370 layer_factory.hpp:77] Creating layer relu3_1
I0628 16:24:59.323087 21370 net.cpp:106] Creating Layer relu3_1
I0628 16:24:59.323091 21370 net.cpp:454] relu3_1 <- conv3_1
I0628 16:24:59.323096 21370 net.cpp:397] relu3_1 -> conv3_1 (in-place)
I0628 16:24:59.323578 21370 net.cpp:150] Setting up relu3_1
I0628 16:24:59.323595 21370 net.cpp:157] Top shape: 1 256 150 250 (9600000)
I0628 16:24:59.323597 21370 net.cpp:165] Memory required for data: 1077600084
I0628 16:24:59.323601 21370 layer_factory.hpp:77] Creating layer conv3_2
I0628 16:24:59.323613 21370 net.cpp:106] Creating Layer conv3_2
I0628 16:24:59.323617 21370 net.cpp:454] conv3_2 <- conv3_1
I0628 16:24:59.323622 21370 net.cpp:411] conv3_2 -> conv3_2
I0628 16:24:59.330066 21370 net.cpp:150] Setting up conv3_2
I0628 16:24:59.330090 21370 net.cpp:157] Top shape: 1 256 150 250 (9600000)
I0628 16:24:59.330096 21370 net.cpp:165] Memory required for data: 1116000084
I0628 16:24:59.330102 21370 layer_factory.hpp:77] Creating layer relu3_2
I0628 16:24:59.330111 21370 net.cpp:106] Creating Layer relu3_2
I0628 16:24:59.330114 21370 net.cpp:454] relu3_2 <- conv3_2
I0628 16:24:59.330121 21370 net.cpp:397] relu3_2 -> conv3_2 (in-place)
I0628 16:24:59.331576 21370 net.cpp:150] Setting up relu3_2
I0628 16:24:59.331593 21370 net.cpp:157] Top shape: 1 256 150 250 (9600000)
I0628 16:24:59.331598 21370 net.cpp:165] Memory required for data: 1154400084
I0628 16:24:59.331600 21370 layer_factory.hpp:77] Creating layer conv3_3
I0628 16:24:59.331612 21370 net.cpp:106] Creating Layer conv3_3
I0628 16:24:59.331615 21370 net.cpp:454] conv3_3 <- conv3_2
I0628 16:24:59.331620 21370 net.cpp:411] conv3_3 -> conv3_3
I0628 16:24:59.336889 21370 net.cpp:150] Setting up conv3_3
I0628 16:24:59.336912 21370 net.cpp:157] Top shape: 1 256 150 250 (9600000)
I0628 16:24:59.336916 21370 net.cpp:165] Memory required for data: 1192800084
I0628 16:24:59.336923 21370 layer_factory.hpp:77] Creating layer relu3_3
I0628 16:24:59.336930 21370 net.cpp:106] Creating Layer relu3_3
I0628 16:24:59.336933 21370 net.cpp:454] relu3_3 <- conv3_3
I0628 16:24:59.336938 21370 net.cpp:397] relu3_3 -> conv3_3 (in-place)
I0628 16:24:59.337815 21370 net.cpp:150] Setting up relu3_3
I0628 16:24:59.337834 21370 net.cpp:157] Top shape: 1 256 150 250 (9600000)
I0628 16:24:59.337838 21370 net.cpp:165] Memory required for data: 1231200084
I0628 16:24:59.337842 21370 layer_factory.hpp:77] Creating layer pool3
I0628 16:24:59.337852 21370 net.cpp:106] Creating Layer pool3
I0628 16:24:59.337854 21370 net.cpp:454] pool3 <- conv3_3
I0628 16:24:59.337860 21370 net.cpp:411] pool3 -> pool3
I0628 16:24:59.337930 21370 net.cpp:150] Setting up pool3
I0628 16:24:59.337944 21370 net.cpp:157] Top shape: 1 256 75 125 (2400000)
I0628 16:24:59.337946 21370 net.cpp:165] Memory required for data: 1240800084
I0628 16:24:59.337950 21370 layer_factory.hpp:77] Creating layer conv4_1
I0628 16:24:59.337960 21370 net.cpp:106] Creating Layer conv4_1
I0628 16:24:59.337962 21370 net.cpp:454] conv4_1 <- pool3
I0628 16:24:59.337970 21370 net.cpp:411] conv4_1 -> conv4_1
I0628 16:24:59.344596 21370 net.cpp:150] Setting up conv4_1
I0628 16:24:59.344620 21370 net.cpp:157] Top shape: 1 512 75 125 (4800000)
I0628 16:24:59.344624 21370 net.cpp:165] Memory required for data: 1260000084
I0628 16:24:59.344632 21370 layer_factory.hpp:77] Creating layer relu4_1
I0628 16:24:59.344641 21370 net.cpp:106] Creating Layer relu4_1
I0628 16:24:59.344645 21370 net.cpp:454] relu4_1 <- conv4_1
I0628 16:24:59.344650 21370 net.cpp:397] relu4_1 -> conv4_1 (in-place)
I0628 16:24:59.346010 21370 net.cpp:150] Setting up relu4_1
I0628 16:24:59.346030 21370 net.cpp:157] Top shape: 1 512 75 125 (4800000)
I0628 16:24:59.346035 21370 net.cpp:165] Memory required for data: 1279200084
I0628 16:24:59.346040 21370 layer_factory.hpp:77] Creating layer conv4_2
I0628 16:24:59.346047 21370 net.cpp:106] Creating Layer conv4_2
I0628 16:24:59.346051 21370 net.cpp:454] conv4_2 <- conv4_1
I0628 16:24:59.346058 21370 net.cpp:411] conv4_2 -> conv4_2
I0628 16:24:59.357419 21370 net.cpp:150] Setting up conv4_2
I0628 16:24:59.357445 21370 net.cpp:157] Top shape: 1 512 75 125 (4800000)
I0628 16:24:59.357450 21370 net.cpp:165] Memory required for data: 1298400084
I0628 16:24:59.357462 21370 layer_factory.hpp:77] Creating layer relu4_2
I0628 16:24:59.357486 21370 net.cpp:106] Creating Layer relu4_2
I0628 16:24:59.357491 21370 net.cpp:454] relu4_2 <- conv4_2
I0628 16:24:59.357496 21370 net.cpp:397] relu4_2 -> conv4_2 (in-place)
I0628 16:24:59.358747 21370 net.cpp:150] Setting up relu4_2
I0628 16:24:59.358763 21370 net.cpp:157] Top shape: 1 512 75 125 (4800000)
I0628 16:24:59.358767 21370 net.cpp:165] Memory required for data: 1317600084
I0628 16:24:59.358789 21370 layer_factory.hpp:77] Creating layer conv4_3
I0628 16:24:59.358801 21370 net.cpp:106] Creating Layer conv4_3
I0628 16:24:59.358805 21370 net.cpp:454] conv4_3 <- conv4_2
I0628 16:24:59.358810 21370 net.cpp:411] conv4_3 -> conv4_3
I0628 16:24:59.368525 21370 net.cpp:150] Setting up conv4_3
I0628 16:24:59.368548 21370 net.cpp:157] Top shape: 1 512 75 125 (4800000)
I0628 16:24:59.368552 21370 net.cpp:165] Memory required for data: 1336800084
I0628 16:24:59.368559 21370 layer_factory.hpp:77] Creating layer relu4_3
I0628 16:24:59.368567 21370 net.cpp:106] Creating Layer relu4_3
I0628 16:24:59.368571 21370 net.cpp:454] relu4_3 <- conv4_3
I0628 16:24:59.368578 21370 net.cpp:397] relu4_3 -> conv4_3 (in-place)
I0628 16:24:59.370168 21370 net.cpp:150] Setting up relu4_3
I0628 16:24:59.370190 21370 net.cpp:157] Top shape: 1 512 75 125 (4800000)
I0628 16:24:59.370194 21370 net.cpp:165] Memory required for data: 1356000084
I0628 16:24:59.370198 21370 layer_factory.hpp:77] Creating layer pool4
I0628 16:24:59.370205 21370 net.cpp:106] Creating Layer pool4
I0628 16:24:59.370209 21370 net.cpp:454] pool4 <- conv4_3
I0628 16:24:59.370214 21370 net.cpp:411] pool4 -> pool4
I0628 16:24:59.370285 21370 net.cpp:150] Setting up pool4
I0628 16:24:59.370301 21370 net.cpp:157] Top shape: 1 512 38 63 (1225728)
I0628 16:24:59.370304 21370 net.cpp:165] Memory required for data: 1360902996
I0628 16:24:59.370307 21370 layer_factory.hpp:77] Creating layer conv5_1
I0628 16:24:59.370316 21370 net.cpp:106] Creating Layer conv5_1
I0628 16:24:59.370318 21370 net.cpp:454] conv5_1 <- pool4
I0628 16:24:59.370324 21370 net.cpp:411] conv5_1 -> conv5_1
I0628 16:24:59.378445 21370 net.cpp:150] Setting up conv5_1
I0628 16:24:59.378469 21370 net.cpp:157] Top shape: 1 512 38 63 (1225728)
I0628 16:24:59.378474 21370 net.cpp:165] Memory required for data: 1365805908
I0628 16:24:59.378481 21370 layer_factory.hpp:77] Creating layer relu5_1
I0628 16:24:59.378487 21370 net.cpp:106] Creating Layer relu5_1
I0628 16:24:59.378491 21370 net.cpp:454] relu5_1 <- conv5_1
I0628 16:24:59.378499 21370 net.cpp:397] relu5_1 -> conv5_1 (in-place)
I0628 16:24:59.379536 21370 net.cpp:150] Setting up relu5_1
I0628 16:24:59.379552 21370 net.cpp:157] Top shape: 1 512 38 63 (1225728)
I0628 16:24:59.379556 21370 net.cpp:165] Memory required for data: 1370708820
I0628 16:24:59.379559 21370 layer_factory.hpp:77] Creating layer conv5_2
I0628 16:24:59.379570 21370 net.cpp:106] Creating Layer conv5_2
I0628 16:24:59.379575 21370 net.cpp:454] conv5_2 <- conv5_1
I0628 16:24:59.379580 21370 net.cpp:411] conv5_2 -> conv5_2
I0628 16:24:59.388532 21370 net.cpp:150] Setting up conv5_2
I0628 16:24:59.388557 21370 net.cpp:157] Top shape: 1 512 38 63 (1225728)
I0628 16:24:59.388562 21370 net.cpp:165] Memory required for data: 1375611732
I0628 16:24:59.388572 21370 layer_factory.hpp:77] Creating layer relu5_2
I0628 16:24:59.388581 21370 net.cpp:106] Creating Layer relu5_2
I0628 16:24:59.388586 21370 net.cpp:454] relu5_2 <- conv5_2
I0628 16:24:59.388592 21370 net.cpp:397] relu5_2 -> conv5_2 (in-place)
I0628 16:24:59.389613 21370 net.cpp:150] Setting up relu5_2
I0628 16:24:59.389629 21370 net.cpp:157] Top shape: 1 512 38 63 (1225728)
I0628 16:24:59.389633 21370 net.cpp:165] Memory required for data: 1380514644
I0628 16:24:59.389636 21370 layer_factory.hpp:77] Creating layer conv5_3
I0628 16:24:59.389652 21370 net.cpp:106] Creating Layer conv5_3
I0628 16:24:59.389654 21370 net.cpp:454] conv5_3 <- conv5_2
I0628 16:24:59.389662 21370 net.cpp:411] conv5_3 -> conv5_3
I0628 16:24:59.399139 21370 net.cpp:150] Setting up conv5_3
I0628 16:24:59.399163 21370 net.cpp:157] Top shape: 1 512 38 63 (1225728)
I0628 16:24:59.399168 21370 net.cpp:165] Memory required for data: 1385417556
I0628 16:24:59.399174 21370 layer_factory.hpp:77] Creating layer relu5_3
I0628 16:24:59.399180 21370 net.cpp:106] Creating Layer relu5_3
I0628 16:24:59.399184 21370 net.cpp:454] relu5_3 <- conv5_3
I0628 16:24:59.399191 21370 net.cpp:397] relu5_3 -> conv5_3 (in-place)
I0628 16:24:59.401598 21370 net.cpp:150] Setting up relu5_3
I0628 16:24:59.401618 21370 net.cpp:157] Top shape: 1 512 38 63 (1225728)
I0628 16:24:59.401623 21370 net.cpp:165] Memory required for data: 1390320468
I0628 16:24:59.401626 21370 layer_factory.hpp:77] Creating layer conv5_3_relu5_3_0_split
I0628 16:24:59.401634 21370 net.cpp:106] Creating Layer conv5_3_relu5_3_0_split
I0628 16:24:59.401638 21370 net.cpp:454] conv5_3_relu5_3_0_split <- conv5_3
I0628 16:24:59.401644 21370 net.cpp:411] conv5_3_relu5_3_0_split -> conv5_3_relu5_3_0_split_0
I0628 16:24:59.401650 21370 net.cpp:411] conv5_3_relu5_3_0_split -> conv5_3_relu5_3_0_split_1
I0628 16:24:59.401721 21370 net.cpp:150] Setting up conv5_3_relu5_3_0_split
I0628 16:24:59.401732 21370 net.cpp:157] Top shape: 1 512 38 63 (1225728)
I0628 16:24:59.401737 21370 net.cpp:157] Top shape: 1 512 38 63 (1225728)
I0628 16:24:59.401741 21370 net.cpp:165] Memory required for data: 1400126292
I0628 16:24:59.401743 21370 layer_factory.hpp:77] Creating layer pool5
I0628 16:24:59.401752 21370 net.cpp:106] Creating Layer pool5
I0628 16:24:59.401757 21370 net.cpp:454] pool5 <- conv5_3_relu5_3_0_split_0
I0628 16:24:59.401760 21370 net.cpp:411] pool5 -> pool5
I0628 16:24:59.401823 21370 net.cpp:150] Setting up pool5
I0628 16:24:59.401834 21370 net.cpp:157] Top shape: 1 512 19 32 (311296)
I0628 16:24:59.401837 21370 net.cpp:165] Memory required for data: 1401371476
I0628 16:24:59.401841 21370 layer_factory.hpp:77] Creating layer P5
I0628 16:24:59.401851 21370 net.cpp:106] Creating Layer P5
I0628 16:24:59.401855 21370 net.cpp:454] P5 <- pool5
I0628 16:24:59.401863 21370 net.cpp:411] P5 -> P5
I0628 16:24:59.410168 21370 net.cpp:150] Setting up P5
I0628 16:24:59.410192 21370 net.cpp:157] Top shape: 1 256 19 32 (155648)
I0628 16:24:59.410197 21370 net.cpp:165] Memory required for data: 1401994068
I0628 16:24:59.410203 21370 layer_factory.hpp:77] Creating layer upP5
I0628 16:24:59.410219 21370 net.cpp:106] Creating Layer upP5
I0628 16:24:59.410225 21370 net.cpp:454] upP5 <- P5
I0628 16:24:59.410233 21370 net.cpp:411] upP5 -> upP5
I0628 16:24:59.436182 21370 net.cpp:150] Setting up upP5
I0628 16:24:59.436204 21370 net.cpp:157] Top shape: 1 256 38 64 (622592)
I0628 16:24:59.436208 21370 net.cpp:165] Memory required for data: 1404484436
I0628 16:24:59.436214 21370 layer_factory.hpp:77] Creating layer newC4
I0628 16:24:59.436226 21370 net.cpp:106] Creating Layer newC4
I0628 16:24:59.436236 21370 net.cpp:454] newC4 <- conv5_3_relu5_3_0_split_1
I0628 16:24:59.436242 21370 net.cpp:411] newC4 -> newC4
I0628 16:24:59.440920 21370 net.cpp:150] Setting up newC4
I0628 16:24:59.440946 21370 net.cpp:157] Top shape: 1 256 38 63 (612864)
I0628 16:24:59.440950 21370 net.cpp:165] Memory required for data: 1406935892
I0628 16:24:59.440958 21370 layer_factory.hpp:77] Creating layer newC4_newC4_0_split
I0628 16:24:59.440964 21370 net.cpp:106] Creating Layer newC4_newC4_0_split
I0628 16:24:59.440973 21370 net.cpp:454] newC4_newC4_0_split <- newC4
I0628 16:24:59.440979 21370 net.cpp:411] newC4_newC4_0_split -> newC4_newC4_0_split_0
I0628 16:24:59.440991 21370 net.cpp:411] newC4_newC4_0_split -> newC4_newC4_0_split_1
I0628 16:24:59.441061 21370 net.cpp:150] Setting up newC4_newC4_0_split
I0628 16:24:59.441073 21370 net.cpp:157] Top shape: 1 256 38 63 (612864)
I0628 16:24:59.441077 21370 net.cpp:157] Top shape: 1 256 38 63 (612864)
I0628 16:24:59.441081 21370 net.cpp:165] Memory required for data: 1411838804
I0628 16:24:59.441083 21370 layer_factory.hpp:77] Creating layer upP5crop
I0628 16:24:59.441092 21370 net.cpp:106] Creating Layer upP5crop
I0628 16:24:59.441097 21370 net.cpp:454] upP5crop <- upP5
I0628 16:24:59.441100 21370 net.cpp:454] upP5crop <- newC4_newC4_0_split_0
I0628 16:24:59.441107 21370 net.cpp:411] upP5crop -> upP5crop
I0628 16:24:59.441263 21370 net.cpp:150] Setting up upP5crop
I0628 16:24:59.441275 21370 net.cpp:157] Top shape: 1 256 38 63 (612864)
I0628 16:24:59.441279 21370 net.cpp:165] Memory required for data: 1414290260
I0628 16:24:59.441282 21370 layer_factory.hpp:77] Creating layer P4
I0628 16:24:59.441292 21370 net.cpp:106] Creating Layer P4
I0628 16:24:59.441295 21370 net.cpp:454] P4 <- newC4_newC4_0_split_1
I0628 16:24:59.441299 21370 net.cpp:454] P4 <- upP5crop
I0628 16:24:59.441304 21370 net.cpp:411] P4 -> P4
I0628 16:24:59.441342 21370 net.cpp:150] Setting up P4
I0628 16:24:59.441354 21370 net.cpp:157] Top shape: 1 256 38 63 (612864)
I0628 16:24:59.441356 21370 net.cpp:165] Memory required for data: 1416741716
I0628 16:24:59.441360 21370 layer_factory.hpp:77] Creating layer newP4
I0628 16:24:59.441370 21370 net.cpp:106] Creating Layer newP4
I0628 16:24:59.441372 21370 net.cpp:454] newP4 <- P4
I0628 16:24:59.441380 21370 net.cpp:411] newP4 -> newP4
I0628 16:24:59.450795 21370 net.cpp:150] Setting up newP4
I0628 16:24:59.450826 21370 net.cpp:157] Top shape: 1 256 38 63 (612864)
I0628 16:24:59.450831 21370 net.cpp:165] Memory required for data: 1419193172
I0628 16:24:59.450848 21370 layer_factory.hpp:77] Creating layer newP4_newP4_0_split
I0628 16:24:59.450856 21370 net.cpp:106] Creating Layer newP4_newP4_0_split
I0628 16:24:59.450867 21370 net.cpp:454] newP4_newP4_0_split <- newP4
I0628 16:24:59.450875 21370 net.cpp:411] newP4_newP4_0_split -> newP4_newP4_0_split_0
I0628 16:24:59.450886 21370 net.cpp:411] newP4_newP4_0_split -> newP4_newP4_0_split_1
I0628 16:24:59.450961 21370 net.cpp:150] Setting up newP4_newP4_0_split
I0628 16:24:59.450973 21370 net.cpp:157] Top shape: 1 256 38 63 (612864)
I0628 16:24:59.450978 21370 net.cpp:157] Top shape: 1 256 38 63 (612864)
I0628 16:24:59.450980 21370 net.cpp:165] Memory required for data: 1424096084
I0628 16:24:59.450984 21370 layer_factory.hpp:77] Creating layer rpn_conv/3x3
I0628 16:24:59.450995 21370 net.cpp:106] Creating Layer rpn_conv/3x3
I0628 16:24:59.450999 21370 net.cpp:454] rpn_conv/3x3 <- newP4_newP4_0_split_0
I0628 16:24:59.451007 21370 net.cpp:411] rpn_conv/3x3 -> rpn/output
I0628 16:24:59.486876 21370 net.cpp:150] Setting up rpn_conv/3x3
I0628 16:24:59.486932 21370 net.cpp:157] Top shape: 1 512 38 63 (1225728)
I0628 16:24:59.486935 21370 net.cpp:165] Memory required for data: 1428998996
I0628 16:24:59.486948 21370 layer_factory.hpp:77] Creating layer rpn_relu/3x3
I0628 16:24:59.486958 21370 net.cpp:106] Creating Layer rpn_relu/3x3
I0628 16:24:59.486964 21370 net.cpp:454] rpn_relu/3x3 <- rpn/output
I0628 16:24:59.486971 21370 net.cpp:397] rpn_relu/3x3 -> rpn/output (in-place)
I0628 16:24:59.488868 21370 net.cpp:150] Setting up rpn_relu/3x3
I0628 16:24:59.488889 21370 net.cpp:157] Top shape: 1 512 38 63 (1225728)
I0628 16:24:59.488893 21370 net.cpp:165] Memory required for data: 1433901908
I0628 16:24:59.488896 21370 layer_factory.hpp:77] Creating layer rpn/output_rpn_relu/3x3_0_split
I0628 16:24:59.488906 21370 net.cpp:106] Creating Layer rpn/output_rpn_relu/3x3_0_split
I0628 16:24:59.488910 21370 net.cpp:454] rpn/output_rpn_relu/3x3_0_split <- rpn/output
I0628 16:24:59.488915 21370 net.cpp:411] rpn/output_rpn_relu/3x3_0_split -> rpn/output_rpn_relu/3x3_0_split_0
I0628 16:24:59.488922 21370 net.cpp:411] rpn/output_rpn_relu/3x3_0_split -> rpn/output_rpn_relu/3x3_0_split_1
I0628 16:24:59.489013 21370 net.cpp:150] Setting up rpn/output_rpn_relu/3x3_0_split
I0628 16:24:59.489025 21370 net.cpp:157] Top shape: 1 512 38 63 (1225728)
I0628 16:24:59.489030 21370 net.cpp:157] Top shape: 1 512 38 63 (1225728)
I0628 16:24:59.489032 21370 net.cpp:165] Memory required for data: 1443707732
I0628 16:24:59.489037 21370 layer_factory.hpp:77] Creating layer rpn_cls_score
I0628 16:24:59.489049 21370 net.cpp:106] Creating Layer rpn_cls_score
I0628 16:24:59.489053 21370 net.cpp:454] rpn_cls_score <- rpn/output_rpn_relu/3x3_0_split_0
I0628 16:24:59.489061 21370 net.cpp:411] rpn_cls_score -> rpn_cls_score
I0628 16:24:59.495834 21370 net.cpp:150] Setting up rpn_cls_score
I0628 16:24:59.495857 21370 net.cpp:157] Top shape: 1 18 38 63 (43092)
I0628 16:24:59.495860 21370 net.cpp:165] Memory required for data: 1443880100
I0628 16:24:59.495868 21370 layer_factory.hpp:77] Creating layer rpn_cls_score_rpn_cls_score_0_split
I0628 16:24:59.495895 21370 net.cpp:106] Creating Layer rpn_cls_score_rpn_cls_score_0_split
I0628 16:24:59.495908 21370 net.cpp:454] rpn_cls_score_rpn_cls_score_0_split <- rpn_cls_score
I0628 16:24:59.495913 21370 net.cpp:411] rpn_cls_score_rpn_cls_score_0_split -> rpn_cls_score_rpn_cls_score_0_split_0
I0628 16:24:59.495923 21370 net.cpp:411] rpn_cls_score_rpn_cls_score_0_split -> rpn_cls_score_rpn_cls_score_0_split_1
I0628 16:24:59.496006 21370 net.cpp:150] Setting up rpn_cls_score_rpn_cls_score_0_split
I0628 16:24:59.496018 21370 net.cpp:157] Top shape: 1 18 38 63 (43092)
I0628 16:24:59.496022 21370 net.cpp:157] Top shape: 1 18 38 63 (43092)
I0628 16:24:59.496026 21370 net.cpp:165] Memory required for data: 1444224836
I0628 16:24:59.496028 21370 layer_factory.hpp:77] Creating layer rpn_bbox_pred
I0628 16:24:59.496039 21370 net.cpp:106] Creating Layer rpn_bbox_pred
I0628 16:24:59.496043 21370 net.cpp:454] rpn_bbox_pred <- rpn/output_rpn_relu/3x3_0_split_1
I0628 16:24:59.496050 21370 net.cpp:411] rpn_bbox_pred -> rpn_bbox_pred
I0628 16:24:59.503058 21370 net.cpp:150] Setting up rpn_bbox_pred
I0628 16:24:59.503083 21370 net.cpp:157] Top shape: 1 36 38 63 (86184)
I0628 16:24:59.503087 21370 net.cpp:165] Memory required for data: 1444569572
I0628 16:24:59.503094 21370 layer_factory.hpp:77] Creating layer rpn_bbox_pred_rpn_bbox_pred_0_split
I0628 16:24:59.503103 21370 net.cpp:106] Creating Layer rpn_bbox_pred_rpn_bbox_pred_0_split
I0628 16:24:59.503108 21370 net.cpp:454] rpn_bbox_pred_rpn_bbox_pred_0_split <- rpn_bbox_pred
I0628 16:24:59.503113 21370 net.cpp:411] rpn_bbox_pred_rpn_bbox_pred_0_split -> rpn_bbox_pred_rpn_bbox_pred_0_split_0
I0628 16:24:59.503120 21370 net.cpp:411] rpn_bbox_pred_rpn_bbox_pred_0_split -> rpn_bbox_pred_rpn_bbox_pred_0_split_1
I0628 16:24:59.503204 21370 net.cpp:150] Setting up rpn_bbox_pred_rpn_bbox_pred_0_split
I0628 16:24:59.503216 21370 net.cpp:157] Top shape: 1 36 38 63 (86184)
I0628 16:24:59.503221 21370 net.cpp:157] Top shape: 1 36 38 63 (86184)
I0628 16:24:59.503222 21370 net.cpp:165] Memory required for data: 1445259044
I0628 16:24:59.503226 21370 layer_factory.hpp:77] Creating layer rpn_cls_score_reshape
I0628 16:24:59.503239 21370 net.cpp:106] Creating Layer rpn_cls_score_reshape
I0628 16:24:59.503247 21370 net.cpp:454] rpn_cls_score_reshape <- rpn_cls_score_rpn_cls_score_0_split_0
I0628 16:24:59.503255 21370 net.cpp:411] rpn_cls_score_reshape -> rpn_cls_score_reshape
I0628 16:24:59.503301 21370 net.cpp:150] Setting up rpn_cls_score_reshape
I0628 16:24:59.503314 21370 net.cpp:157] Top shape: 1 2 342 63 (43092)
I0628 16:24:59.503316 21370 net.cpp:165] Memory required for data: 1445431412
I0628 16:24:59.503319 21370 layer_factory.hpp:77] Creating layer rpn_cls_score_reshape_rpn_cls_score_reshape_0_split
I0628 16:24:59.503326 21370 net.cpp:106] Creating Layer rpn_cls_score_reshape_rpn_cls_score_reshape_0_split
I0628 16:24:59.503330 21370 net.cpp:454] rpn_cls_score_reshape_rpn_cls_score_reshape_0_split <- rpn_cls_score_reshape
I0628 16:24:59.503335 21370 net.cpp:411] rpn_cls_score_reshape_rpn_cls_score_reshape_0_split -> rpn_cls_score_reshape_rpn_cls_score_reshape_0_split_0
I0628 16:24:59.503340 21370 net.cpp:411] rpn_cls_score_reshape_rpn_cls_score_reshape_0_split -> rpn_cls_score_reshape_rpn_cls_score_reshape_0_split_1
I0628 16:24:59.503397 21370 net.cpp:150] Setting up rpn_cls_score_reshape_rpn_cls_score_reshape_0_split
I0628 16:24:59.503408 21370 net.cpp:157] Top shape: 1 2 342 63 (43092)
I0628 16:24:59.503412 21370 net.cpp:157] Top shape: 1 2 342 63 (43092)
I0628 16:24:59.503414 21370 net.cpp:165] Memory required for data: 1445776148
I0628 16:24:59.503417 21370 layer_factory.hpp:77] Creating layer rpn-data
I0628 16:24:59.504165 21370 net.cpp:106] Creating Layer rpn-data
I0628 16:24:59.504186 21370 net.cpp:454] rpn-data <- rpn_cls_score_rpn_cls_score_0_split_1
I0628 16:24:59.504194 21370 net.cpp:454] rpn-data <- gt_boxes_input-data_2_split_0
I0628 16:24:59.504199 21370 net.cpp:454] rpn-data <- im_info_input-data_1_split_0
I0628 16:24:59.504202 21370 net.cpp:454] rpn-data <- data_input-data_0_split_1
I0628 16:24:59.504209 21370 net.cpp:411] rpn-data -> rpn_labels
I0628 16:24:59.504215 21370 net.cpp:411] rpn-data -> rpn_bbox_targets
I0628 16:24:59.504222 21370 net.cpp:411] rpn-data -> rpn_bbox_inside_weights
I0628 16:24:59.504228 21370 net.cpp:411] rpn-data -> rpn_bbox_outside_weights
I0628 16:24:59.505086 21370 net.cpp:150] Setting up rpn-data
I0628 16:24:59.505110 21370 net.cpp:157] Top shape: 1 1 342 63 (21546)
I0628 16:24:59.505115 21370 net.cpp:157] Top shape: 1 36 38 63 (86184)
I0628 16:24:59.505120 21370 net.cpp:157] Top shape: 1 36 38 63 (86184)
I0628 16:24:59.505123 21370 net.cpp:157] Top shape: 1 36 38 63 (86184)
I0628 16:24:59.505125 21370 net.cpp:165] Memory required for data: 1446896540
I0628 16:24:59.505129 21370 layer_factory.hpp:77] Creating layer rpn_loss_cls
I0628 16:24:59.505142 21370 net.cpp:106] Creating Layer rpn_loss_cls
I0628 16:24:59.505152 21370 net.cpp:454] rpn_loss_cls <- rpn_cls_score_reshape_rpn_cls_score_reshape_0_split_0
I0628 16:24:59.505158 21370 net.cpp:454] rpn_loss_cls <- rpn_labels
…
I0628 16:24:59.507086 21370 net.cpp:157] Top shape: (1)
I0628 16:24:59.507088 21370 net.cpp:160]     with loss weight 1
I0628 16:24:59.507093 21370 net.cpp:165] Memory required for data: 1446896548
I0628 16:24:59.507097 21370 layer_factory.hpp:77] Creating layer rpn_cls_prob
I0628 16:24:59.507102 21370 net.cpp:106] Creating Layer rpn_cls_prob
I0628 16:24:59.507107 21370 net.cpp:454] rpn_cls_prob <- rpn_cls_score_reshape_rpn_cls_score_reshape_0_split_1
I0628 16:24:59.507114 21370 net.cpp:411] rpn_cls_prob -> rpn_cls_prob
I0628 16:24:59.507583 21370 net.cpp:150] Setting up rpn_cls_prob
I0628 16:24:59.507599 21370 net.cpp:157] Top shape: 1 2 342 63 (43092)
I0628 16:24:59.507602 21370 net.cpp:165] Memory required for data: 1447068916
I0628 16:24:59.507606 21370 layer_factory.hpp:77] Creating layer rpn_cls_prob_reshape
I0628 16:24:59.507616 21370 net.cpp:106] Creating Layer rpn_cls_prob_reshape
I0628 16:24:59.507618 21370 net.cpp:454] rpn_cls_prob_reshape <- rpn_cls_prob
I0628 16:24:59.507623 21370 net.cpp:411] rpn_cls_prob_reshape -> rpn_cls_prob_reshape
I0628 16:24:59.507664 21370 net.cpp:150] Setting up rpn_cls_prob_reshape
I0628 16:24:59.507676 21370 net.cpp:157] Top shape: 1 18 38 63 (43092)
I0628 16:24:59.507679 21370 net.cpp:165] Memory required for data: 1447241284
I0628 16:24:59.507683 21370 layer_factory.hpp:77] Creating layer proposal
I0628 16:24:59.508590 21370 net.cpp:106] Creating Layer proposal
I0628 16:24:59.508613 21370 net.cpp:454] proposal <- rpn_cls_prob_reshape
I0628 16:24:59.508620 21370 net.cpp:454] proposal <- rpn_bbox_pred_rpn_bbox_pred_0_split_1
I0628 16:24:59.508625 21370 net.cpp:454] proposal <- im_info_input-data_1_split_1
I0628 16:24:59.508630 21370 net.cpp:411] proposal -> rpn_rois
I0628 16:24:59.510047 21370 net.cpp:150] Setting up proposal
I0628 16:24:59.510071 21370 net.cpp:157] Top shape: 1 5 (5)
I0628 16:24:59.510076 21370 net.cpp:165] Memory required for data: 1447241304
I0628 16:24:59.510080 21370 layer_factory.hpp:77] Creating layer roi-data
I0628 16:24:59.510268 21370 net.cpp:106] Creating Layer roi-data
I0628 16:24:59.510287 21370 net.cpp:454] roi-data <- rpn_rois
I0628 16:24:59.510293 21370 net.cpp:454] roi-data <- gt_boxes_input-data_2_split_1
I0628 16:24:59.510298 21370 net.cpp:411] roi-data -> rois
I0628 16:24:59.510305 21370 net.cpp:411] roi-data -> labels
I0628 16:24:59.510311 21370 net.cpp:411] roi-data -> bbox_targets
I0628 16:24:59.510330 21370 net.cpp:411] roi-data -> bbox_inside_weights
I0628 16:24:59.510335 21370 net.cpp:411] roi-data -> bbox_outside_weights
I0628 16:24:59.510784 21370 net.cpp:150] Setting up roi-data
I0628 16:24:59.510805 21370 net.cpp:157] Top shape: 1 5 (5)
I0628 16:24:59.510809 21370 net.cpp:157] Top shape: 1 1 (1)
I0628 16:24:59.510813 21370 net.cpp:157] Top shape: 1 84 (84)
I0628 16:24:59.510817 21370 net.cpp:157] Top shape: 1 84 (84)
I0628 16:24:59.510820 21370 net.cpp:157] Top shape: 1 84 (84)
I0628 16:24:59.510823 21370 net.cpp:165] Memory required for data: 1447242336
I0628 16:24:59.510828 21370 layer_factory.hpp:77] Creating layer roi_pool5
I0628 16:24:59.510839 21370 net.cpp:106] Creating Layer roi_pool5
I0628 16:24:59.510852 21370 net.cpp:454] roi_pool5 <- newP4_newP4_0_split_1
I0628 16:24:59.510857 21370 net.cpp:454] roi_pool5 <- rois
I0628 16:24:59.510864 21370 net.cpp:411] roi_pool5 -> rcnn_pool5
I0628 16:24:59.510874 21370 roi_pooling_layer.cpp:30] Spatial scale: 0.25
I0628 16:24:59.510951 21370 net.cpp:150] Setting up roi_pool5
I0628 16:24:59.510963 21370 net.cpp:157] Top shape: 1 256 7 7 (12544)
I0628 16:24:59.510967 21370 net.cpp:165] Memory required for data: 1447292512
I0628 16:24:59.510970 21370 layer_factory.hpp:77] Creating layer rcnn_fc6
I0628 16:24:59.510982 21370 net.cpp:106] Creating Layer rcnn_fc6
I0628 16:24:59.510987 21370 net.cpp:454] rcnn_fc6 <- rcnn_pool5
I0628 16:24:59.510993 21370 net.cpp:411] rcnn_fc6 -> rcnn_fc6
I0628 16:24:59.846940 21370 net.cpp:150] Setting up rcnn_fc6
I0628 16:24:59.846993 21370 net.cpp:157] Top shape: 1 4096 (4096)
I0628 16:24:59.846997 21370 net.cpp:165] Memory required for data: 1447308896
I0628 16:24:59.847012 21370 layer_factory.hpp:77] Creating layer relu6
I0628 16:24:59.847023 21370 net.cpp:106] Creating Layer relu6
I0628 16:24:59.847033 21370 net.cpp:454] relu6 <- rcnn_fc6
I0628 16:24:59.847041 21370 net.cpp:397] relu6 -> rcnn_fc6 (in-place)
I0628 16:24:59.848198 21370 net.cpp:150] Setting up relu6
I0628 16:24:59.848220 21370 net.cpp:157] Top shape: 1 4096 (4096)
I0628 16:24:59.848225 21370 net.cpp:165] Memory required for data: 1447325280
I0628 16:24:59.848229 21370 layer_factory.hpp:77] Creating layer drop6
I0628 16:24:59.848245 21370 net.cpp:106] Creating Layer drop6
I0628 16:24:59.848249 21370 net.cpp:454] drop6 <- rcnn_fc6
I0628 16:24:59.848254 21370 net.cpp:397] drop6 -> rcnn_fc6 (in-place)
I0628 16:24:59.848312 21370 net.cpp:150] Setting up drop6
I0628 16:24:59.848318 21370 net.cpp:157] Top shape: 1 4096 (4096)
I0628 16:24:59.848321 21370 net.cpp:165] Memory required for data: 1447341664
I0628 16:24:59.848325 21370 layer_factory.hpp:77] Creating layer fc7
I0628 16:24:59.848361 21370 net.cpp:106] Creating Layer fc7
I0628 16:24:59.848363 21370 net.cpp:454] fc7 <- rcnn_fc6
I0628 16:24:59.848372 21370 net.cpp:411] fc7 -> fc7
I0628 16:25:00.017542 21370 net.cpp:150] Setting up fc7
I0628 16:25:00.017638 21370 net.cpp:157] Top shape: 1 4096 (4096)
I0628 16:25:00.017649 21370 net.cpp:165] Memory required for data: 1447358048
I0628 16:25:00.017671 21370 layer_factory.hpp:77] Creating layer relu7
I0628 16:25:00.017699 21370 net.cpp:106] Creating Layer relu7
I0628 16:25:00.017711 21370 net.cpp:454] relu7 <- fc7
I0628 16:25:00.017722 21370 net.cpp:397] relu7 -> fc7 (in-place)
I0628 16:25:00.018224 21370 net.cpp:150] Setting up relu7
I0628 16:25:00.018251 21370 net.cpp:157] Top shape: 1 4096 (4096)
I0628 16:25:00.018265 21370 net.cpp:165] Memory required for data: 1447374432
I0628 16:25:00.018273 21370 layer_factory.hpp:77] Creating layer drop7
I0628 16:25:00.018299 21370 net.cpp:106] Creating Layer drop7
I0628 16:25:00.018314 21370 net.cpp:454] drop7 <- fc7
I0628 16:25:00.018326 21370 net.cpp:397] drop7 -> fc7 (in-place)
I0628 16:25:00.018429 21370 net.cpp:150] Setting up drop7
I0628 16:25:00.018452 21370 net.cpp:157] Top shape: 1 4096 (4096)
I0628 16:25:00.018460 21370 net.cpp:165] Memory required for data: 1447390816
I0628 16:25:00.018481 21370 layer_factory.hpp:77] Creating layer fc7_drop7_0_split
I0628 16:25:00.018498 21370 net.cpp:106] Creating Layer fc7_drop7_0_split
I0628 16:25:00.018512 21370 net.cpp:454] fc7_drop7_0_split <- fc7
I0628 16:25:00.018522 21370 net.cpp:411] fc7_drop7_0_split -> fc7_drop7_0_split_0
I0628 16:25:00.018546 21370 net.cpp:411] fc7_drop7_0_split -> fc7_drop7_0_split_1
I0628 16:25:00.018723 21370 net.cpp:150] Setting up fc7_drop7_0_split
I0628 16:25:00.018745 21370 net.cpp:157] Top shape: 1 4096 (4096)
I0628 16:25:00.018755 21370 net.cpp:157] Top shape: 1 4096 (4096)
I0628 16:25:00.018788 21370 net.cpp:165] Memory required for data: 1447423584
I0628 16:25:00.018801 21370 layer_factory.hpp:77] Creating layer cls_score
I0628 16:25:00.018822 21370 net.cpp:106] Creating Layer cls_score
I0628 16:25:00.018841 21370 net.cpp:454] cls_score <- fc7_drop7_0_split_0
I0628 16:25:00.018867 21370 net.cpp:411] cls_score -> cls_score
I0628 16:25:00.022912 21370 net.cpp:150] Setting up cls_score
I0628 16:25:00.022944 21370 net.cpp:157] Top shape: 1 21 (21)
I0628 16:25:00.022959 21370 net.cpp:165] Memory required for data: 1447423668
I0628 16:25:00.022979 21370 layer_factory.hpp:77] Creating layer bbox_pred
I0628 16:25:00.023005 21370 net.cpp:106] Creating Layer bbox_pred
I0628 16:25:00.023022 21370 net.cpp:454] bbox_pred <- fc7_drop7_0_split_1
I0628 16:25:00.023041 21370 net.cpp:411] bbox_pred -> bbox_pred
I0628 16:25:00.039125 21370 net.cpp:150] Setting up bbox_pred
I0628 16:25:00.039175 21370 net.cpp:157] Top shape: 1 84 (84)
I0628 16:25:00.039185 21370 net.cpp:165] Memory required for data: 1447424004
I0628 16:25:00.039197 21370 layer_factory.hpp:77] Creating layer loss_cls
I0628 16:25:00.039211 21370 net.cpp:106] Creating Layer loss_cls
I0628 16:25:00.039216 21370 net.cpp:454] loss_cls <- cls_score
I0628 16:25:00.039228 21370 net.cpp:454] loss_cls <- labels
I0628 16:25:00.039247 21370 net.cpp:411] loss_cls -> loss_cls
…
